model.pth (torch, 29451 bytes, 9 tensors)

conv1.bias f4 [16]
000000 15 ee 03 3d 15 25 8f bb e0 03 68 bc f5 6f 8a 3b
       0.032209475 -0.004368434 -0.01416108 0.004224772
000010 3c 26 25 3c 2a a0 2c 3c 3a e2 1c bc 7b ba a6 3b
       0.010079917 0.010536233 -0.009575421 0.005088148
000020 9f 09 83 3a 49 65 4f bc cd 68 2b 39 80 37 32 bc
       0.0009997374 -0.012658426 0.00016346872 -0.01087749
000030 7e 04 18 bc e1 e1 42 3c 4a ff 97 3b 6c 5f fc 3b
       -0.009278415 0.011894674 0.004638587 0.007701805

conv1.fc_self.weight f4 [16, 174]
000000 fe fb b1 bb 50 d0 29 be f2 02 d5 3c a2 6d b8 bb
       -0.005431651 -0.16583371 0.026002381 -0.0056283036
000010 bc 3a 2c be e4 9c 5f bd 62 0a 88 3d e3 3e 22 be
       -0.1681928 -0.054592982 0.06642605 -0.15844302
000020 33 1a a8 3d 7c a6 99 3d ca 40 8c 3d e8 ad af 3d
       0.08208122 0.075024575 0.06848295 0.08578092
000030 bc bc 5a 3d c5 4e b4 3c 3f 37 79 3e 05 84 a1 3e
       0.053402647 0.022010216 0.24337481 0.31546035
000040 84 25 75 be ca 54 81 bc 7c d2 5d 3c de 90 bf 3c
       -0.23940092 -0.0157875 0.013538953 0.023384508
000050 2c bf 4d be e9 8d 89 3d b6 6f 03 bd 9b 39 14 be
       -0.20092458 0.0671652 -0.032088958 -0.144751
000060 41 8f 05 be 80 96 25 be bb 0f 3b 3c a0 e0 bd 3d
       -0.13042928 -0.16170692 0.011417325 0.092713594
000070 0a 3a 0e bd e0 2c f7 3d 1f 11 23 be 3c dd a5 3c
       -0.03472332 0.12069106 -0.159245 0.020247094
000080 53 d5 81 3b 4b eb 87 be 93 f2 a6 3c 26 5b d7 3d
       0.003962198 -0.26546702 0.02037934 0.10515432
000090 54 68 b8 bc 9a 10 ce bd 34 fd e0 bd e6 c3 8e bd
       -0.022510685 -0.1006176 -0.10985795 -0.069709584
0000a0 32 89 19 3d 86 45 6f 3d 52 94 52 3e 95 ae 34 3c
       0.037484355 0.058415912 0.20564392 0.011027952
0000b0 6b 92 1c 3e 72 8a c9 3d c2 5c 38 3d da dc 00 be
       0.15290229 0.098408595 0.045010336 -0.12584248
0000c0 6b c1 03 3e d9 46 37 3e 5a 50 66 3e a5 41 23 3e
       0.12866752 0.1789812 0.22491589 0.1594301
0000d0 8c ea 93 3d ae 3f c3 bb 67 7e e1 bd 3c 65 f7 3c
       0.07222471 -0.005958519 -0.110104375 0.03019964
0000e0 1c 9e f0 bd 90 ff 91 3d ea 5c 1c 3e e8 da 94 3d
       -0.11748907 0.07128823 0.15269819 0.072683156
0000f0 de 22 ab 3d 59 ed bf be 0e dd 40 be 19 f9 88 3d
       0.0835626 -0.3748577 -0.18834326 0.066881366
000100 9d 57 20 3e b9 ec af 3d 83 3f d9 3d 3a a3 30 3e
       0.15658422 0.08590073 0.10607817 0.17249766
000110 b0 cf c1 be 74 d9 c2 be 92 84 f9 3d b7 40 d5 bd
       -0.37853765 -0.3805653 0.12183489 -0.10412734
000120 2e 02 0f bd d0 63 c9 bc ca 40 d2 bd d2 92 18 3e
       -0.034914188 -0.024583727 -0.10266264 0.14899758
000130 a7 ba 0c 3e fa e5 1b be 60 02 f0 bd 5f 9d 49 be
       0.13743077 -0.15224448 -0.11719203 -0.19688939
000140 8f 12 f2 bd be 54 d4 3c f6 7f 3e bd a4 eb f9 3c
       -0.11819946 0.025919314 -0.04650875 0.03050787
000150 3e 46 0d be 75 aa 0f bc f8 7c 53 bd 2f 4d 36 be
       -0.13796327 -0.0087686675 -0.05163285 -0.1780288
000160 b6 e0 32 be a2 a9 b4 be fa fe b8 be dc f2 32 3d
       -0.17468533 -0.3528567 -0.36132032 0.04368864
000170 38 9e aa bd bb 2e 45 3c 23 5d bf bd c7 20 91 3d
       -0.08330959 0.012035067 -0.09343936 0.0708633
000180 96 9a a1 3d 47 b3 8f be e7 0f 49 bd 4a 57 95 bd
       0.07890813 -0.28066465 -0.04908743 -0.0729204
000190 c4 47 57 3c d4 d5 26 3e ff e1 5d 3d 93 b3 30 3e
       0.013139669 0.16292506 0.054170605 0.17256002
0001a0 4b 55 91 3c 89 33 1c be e2 41 55 be 61 64 35 3e
       0.017740866 -0.15254034 -0.20825914 0.17714073
0001b0 95 0d 9a bc 41 60 79 ba 73 8b 8d 3c 60 15 21 be
       -0.018805305 -0.0009512939 0.017278409 -0.1573081
0001c0 49 59 c4 be d7 2d 5a 3e 82 79 0e 3d 6b e9 3c 3b
       -0.3834937 0.21306549 0.034783848 0.0028825651
0001d0 98 7c a3 3d fd 51 88 3e 32 92 99 3d 41 b5 18 3f
       0.07982749 0.26625052 0.07498588 0.5965157
0001e0 3b f5 07 bd d6 54 e5 bd 9f 51 fb bd 81 00 bd 3c
       -0.033192854 -0.11197822 -0.12271427 0.02307153
0001f0 1a bd ef 3d b6 20 43 bd 2e 27 0e 3e 46 54 93 3d
       0.1170599 -0.047638617 0.13882133 0.07193808
000200 16 4d cf bb e0 19 4a be 50 bc 92 be 8a af bc bc
       -0.006326328 -0.19736433 -0.28659296 -0.023032922
000210 ee 0d 6d 3d 4a c4 4a 3e 7a fc 19 bd 1d 39 2e bd
       0.057874613 0.19801441 -0.037594296 -0.042534936
000220 ef fc 15 bd 8b 7b ca 3c c1 09 15 3e 40 81 8d 3e
       -0.03661817 0.024717113 0.14554502 0.27637672
000230 88 d3 cf bd c6 32 56 be 51 a4 f9 3d 0a 06 67 3b
       -0.10147768 -0.20917806 0.12189544 0.0035251402
000240 32 94 79 be ff df f7 3c 04 0e 4d be dd 94 49 be
       -0.24372938 0.030258177 -0.20024878 -0.19685693
000250 58 d9 6c bd 5f 4c 04 3c 0e 29 a8 3c 8c 22 00 be
       -0.057824463 0.008074849 0.020527389 -0.12513179
000260 76 f5 0b bc c2 b7 9c 3d 60 9b d4 3e 50 ce 91 3d
       -0.008542409 0.076522365 0.41524792 0.07119429
000270 d1 77 79 3d 66 20 b1 b9 7b 67 b3 bd 4f 8a bb ba
       0.06090528 -0.0003378421 -0.08759972 -0.0014308187
000280 9a f2 10 3d ff 9a 83 bd 31 ba da bd 77 28 3c 3e
       0.035387613 -0.064260475 -0.106800444 0.18374811
000290 2d 13 01 3e 75 a1 3f bb 31 71 8b 3e d2 51 ba 3c
       0.12604971 -0.0029240523 0.27234796 0.022744093
0002a0 25 2f eb 3d f2 dd 3b bd 7f 16 31 bd 0c b8 30 be
       0.114836015 -0.04586596 -0.043234345 -0.17257708
0002b0 00 eb 33 bf 1f 4b 07 bf c8 68 ba bd 77 3e 8f 3e
       -0.70280457 -0.52849 -0.09102017 0.27977344
0002c0 f2 c1 a3 3d 2d b8 1a 3c c2 46 3a bd 55 bc 97 bd
       0.079959765 0.009443325 -0.045477636 -0.07408968
0002d0 9b 5c 34 be 9a 88 5a bc b6 59 5e 3d 4a 8a ac bc
       -0.17613451 -0.013338232 0.054284774 -0.021062035
0002e0 c6 9a 8c 3e 1e 78 9b 3d cf e6 5f 3e 30 60 47 3e
       0.27461833 0.0759127 0.2186539 0.19470286
0002f0 fe fd 33 bd e5 ec b9 3c 00 61 a3 bc bb 12 a8 bd
       -0.043943398 0.022695968 -0.019943714 -0.082066976
000300 47 73 85 bd e1 b8 54 bc f9 03 91 3c 28 48 00 3d
       -0.06516128 -0.012983532 0.01770209 0.031318814
000310 b5 4b 02 3e d8 0c 55 bd cc cd de bd 9f d8 57 be
       0.12724192 -0.052014202 -0.108790964 -0.21078728
000320 14 e7 28 3e ff 45 5e bc 93 9f 6d bd da 50 4f be
       0.164944 -0.013566493 -0.05801351 -0.20245686
000330 f3 37 ca bd 44 16 0e be 98 69 4f 3e 38 4a 10 be
       -0.09873953 -0.13875681 0.20255125 -0.14090812
000340 2e a2 29 3e 1d 87 36 bd f2 b6 0e be 6e e8 25 bd
       0.16565773 -0.044562448 -0.13936976 -0.040504865
000350 2b 28 c3 bd 64 85 24 be 8e 8e 0a be 7a 1f 29 be
       -0.09529146 -0.1606651 -0.13530943 -0.16515914
000360 36 3d 8d 3d bb f9 a9 bd 0c 1d 80 be 86 82 16 3c
       0.06896441 -0.082995854 -0.2502216 0.009186393
000370 18 a4 3c 3d 5e 4e 76 3e 0e bf 3b be 9f e0 8d be
       0.04605493 0.24053332 -0.183346 -0.27710435
000380 cf c3 c6 3d f6 e0 21 3e 01 0f 2a 3d bd ea 04 bd
       0.09705316 0.15808472 0.041518215 -0.032450426
000390 f3 c2 ab 3d 07 45 9e bd e8 fe 9b 3e d8 84 55 be
       0.08386793 -0.0772801 0.30467916 -0.20851457
0003a0 05 d2 5b be c5 ad 74 bd ca 67 18 3e 4c 02 41 bd
       -0.21466835 -0.059736032 0.14883342 -0.04712133
0003b0 1b 56 09 3e d4 24 be 3d f4 94 7b bc e5 5f 4f 3e
       0.13411753 0.09284368 -0.015355337 0.20251425
0003c0 60 60 17 3e a8 9c df 3c 2d 18 09 3e bb 0e 33 be
       0.14782858 0.02729638 0.13388129 -0.17486088
0003d0 70 05 2d 3e f5 47 ca bd a7 c7 81 be db 7e cf 3d
       0.16896605 -0.09877006 -0.25347635 0.10131618
0003e0 c7 25 2c 3e fd db e1 3d 84 ae 2c 3e e4 b5 cf 3d
       0.16811286 0.110282876 0.16863447 0.10142115
0003f0 c8 cc 1c 3e 91 84 2a 3e 22 7c 91 bb 0b 28 df 3c
       0.15312493 0.16652133 -0.0044398466 0.027240774

conv1.fc_neigh.weight f4 [16, 174]
000000 06 2c 74 3d 20 ff 73 be 73 ed 07 be 44 13 71 3e
       0.059612297 -0.23827791 -0.13274173 0.23542506
000010 31 9c 40 bf 2b c4 58 bc 92 98 de bb 85 67 b4 bd
       -0.7523833 -0.013230364 -0.00679309 -0.08808807
000020 4a dc 5a 3e d9 93 a1 3e 0b ed c2 3c b8 03 1e 3e
       0.21373096 0.3155811 0.023794672 0.15431106
000030 d3 f3 a6 3d c3 8d ad 3e de 91 89 3e 8f 40 0b 3f
       0.081519745 0.33897218 0.268691 0.54395384
000040 c1 9e 4f bd b9 ed 97 bd a7 58 3a 3e f4 52 79 bb
       -0.05068851 -0.07418389 0.1819788 -0.0038043829
000050 94 7e a3 be 81 d8 cc 3d b2 5c 17 3e 06 32 2c be
       -0.3193251 0.10002232 0.14781454 -0.16815957
000060 5c 44 ee 3b 86 f6 64 bd 27 2d a3 3e cc 99 37 3e
       0.0072713327 -0.055899166 0.31870386 0.17929763
000070 c9 13 24 3c 5f a4 8c 3d 1f 12 9a be cf 67 23 3d
       0.010014483 0.06867289 -0.3009195 0.03989392
000080 76 29 25 3e 62 76 cf be d2 57 d3 3e 50 81 9d ba
       0.16129097 -0.40520006 0.4127794 -0.0012016688
000090 e3 8b d2 bd ca 39 bf bc 8c 10 a6 3d be 67 ff bd
       -0.102805875 -0.023342986 0.08108625 -0.12470959
0000a0 f4 24 a6 3c 79 84 17 3e 82 ee cf bd 61 0a d9 3c
       0.020281292 0.14796628 -0.10152914 0.026494207
0000b0 24 f4 06 bd b5 86 2b bc b8 19 c7 3e c3 18 49 bf
       -0.032947674 -0.010469128 0.3888681 -0.7855341
0000c0 f7 04 df bc 0b f3 63 3d 06 e2 fe bd 9a b1 cc 3c
       -0.027224047 0.055651706 -0.12445454 0.02498703
0000d0 72 70 2a bd f5 8d 12 3e 9a 65 6c 3e 20 78 27 be
       -0.041611142 0.14311965 0.23085633 -0.16354418
0000e0 56 83 96 be 01 bb 1c 3d 5c e9 4a 3e ae 05 28 be
       -0.29397076 0.03826428 0.19815582 -0.16408417
0000f0 1e cc d8 bd 31 38 36 bf 00 74 16 bf f4 b7 70 bd
       -0.10585807 -0.7117949 -0.5877075 -0.05876918
000100 af 3c 78 3b 43 a8 1c be f7 8d 30 bd 79 6e 37 3d
       0.0037877967 -0.15298562 -0.04310414 0.04478309
000110 a1 c3 be be 90 df d8 be 5a 39 b3 3d 61 37 48 3e
       -0.37258628 -0.42358065 0.08751173 0.19552375
000120 12 4d 3c 3e 3e f7 02 3e f5 4f 2b be ce 33 94 3d
       0.18388775 0.12789628 -0.1672972 0.072364435
000130 65 a4 cd 3d e6 87 26 be fe 14 44 3d 29 f7 a5 be
       0.100411214 -0.16262779 0.047871582 -0.3241513
000140 88 cf 8d 3d b6 73 41 3e f4 c3 d3 3e 46 cc a9 3e
       0.06924349 0.18891796 0.41360438 0.3316366
000150 10 0f a9 bd aa 86 9c 3e 41 b3 64 3d da 2b 63 3e
       -0.08254826 0.3057149 0.055835012 0.22184697
000160 cc 2c 3a be b3 8e bd bd be e1 71 bd ec 94 73 3e
       -0.18181151 -0.09255733 -0.059053175 0.23787278
000170 91 ed 35 bc 07 b2 19 3d c4 90 51 bc a3 b4 91 bd
       -0.0111040035 0.037523296 -0.0127908625 -0.07114532
000180 ba ab 1a 3e f2 b2 e5 be 08 45 9d 3d d8 97 e2 be
       0.15104571 -0.44863087 0.07679182 -0.44256473
000190 09 81 78 3d e7 ac 39 3e e8 06 60 bd f6 4b 00 3f
       0.060669933 0.18132363 -0.054694086 0.5011591
0001a0 86 d2 3c be 58 29 5c be 2a 75 f5 be 1f c9 49 3e
       -0.18439683 -0.21500146 -0.47940952 0.19705628
0001b0 67 68 b4 3e 02 00 eb 3d 47 88 e3 3c a3 27 e3 3c
       0.35235903 0.11474611 0.027774943 0.027728861
0001c0 7b 31 5a bf c1 13 a3 bd b0 cf 26 be 8a ba 16 3d
       -0.8523175 -0.07962752 -0.16290164 0.03679899
0001d0 a0 26 fb bd c9 c7 ee 3e 03 2c ee bd f7 52 07 3f
       -0.122632265 0.466368 -0.11629488 0.5286097
0001e0 eb 68 68 be 38 a2 36 bd c7 87 60 be 4c 04 77 3e
       -0.22696273 -0.044588298 -0.21926795 0.24122733
0001f0 8f 82 50 3e 30 d1 0f be 5f 7a c0 3e 3e 62 7d 3d
       0.20362304 -0.14044642 0.37593362 0.06186127
000200 eb 96 66 be df ee 19 be 87 71 8c bd d0 55 9c bd
       -0.22518508 -0.15032528 -0.06857591 -0.07633555
000210 97 fc 79 bc b0 14 92 3e 19 c0 27 3e a3 c1 87 3d
       -0.015257976 0.28531408 0.16381873 0.0662873
000220 22 17 00 3e 4a 27 60 3e 81 10 99 bc b8 11 fd 3e
       0.12508824 0.21889988 -0.018684627 0.4942758
000230 48 e8 bd bc 69 f2 5b be 48 90 d8 3e f1 fb 3c bc
       -0.02318205 -0.21479191 0.42297578 -0.011534677
000240 0a 90 8e be a0 4d 3e 3d a5 a5 be be aa b4 fe be
       -0.27844268 0.046460748 -0.37235752 -0.4974721
000250 78 80 00 be 71 79 51 bd f2 e0 8a 3a 40 35 02 bd
       -0.12549007 -0.051141206 0.0010595603 -0.031789064
000260 f4 86 fc bc 1f 38 bc be d6 88 93 3d 45 b8 00 be
       -0.03082607 -0.36761567 0.07203834 -0.12570293
000270 15 f6 4b 3e 02 ad 66 3e af 9b 15 be f0 b4 8e 3d
       0.19918092 0.22526935 -0.1461017 0.06968105
000280 09 69 9a bd 3e 5c 87 3b 85 89 91 be 22 80 d8 bd
       -0.07539565 0.004130869 -0.28425232 -0.105713144
000290 8d 73 29 be 92 7f d1 3c 75 b9 1f 3e ab 8d 88 3c
       -0.16547985 0.025573526 0.1559809 0.016669115
0002a0 db f1 bf 3d a4 37 a2 3c 27 00 12 be 8d 66 14 bd
       0.09372302 0.019801922 -0.1425787 -0.036230613
0002b0 55 cc 20 bf 43 bf 1b bf d9 b0 aa bd 7d fc 45 3e
       -0.62811786 -0.6083872 -0.08334512 0.19334598
0002c0 3b 00 6e 3e c1 13 91 3d 48 a3 87 bd e8 80 77 bd
       0.23242275 0.07083846 -0.0662294 -0.06042567
0002d0 ad e5 04 bd 8b 3b 2e be 55 aa a2 3e d2 89 59 be
       -0.0324456 -0.17014901 0.31770578 -0.2124398
0002e0 27 72 dd 3c 6d 43 1e 3e 22 ab 89 3e 4a e3 cb 3d
       0.027031971 0.15455408 0.26888376 0.09955461
0002f0 a8 db 8d bd 04 11 48 be 41 41 48 be 2e d6 9b 3d
       -0.06926662 -0.19537741 -0.19556142 0.07609211
000300 c6 4c 93 3c 57 90 1e 3e 9c 27 29 3e 2f d8 27 3e
       0.017980944 0.15484749 0.16519016 0.16391061
000310 1a a3 6b 3d 83 c4 06 be e4 de 0b be 1e aa 97 be
       0.057528593 -0.13160901 -0.13659245 -0.29621977
000320 16 37 36 3e 4d 87 4f be 61 26 44 bc 3b 64 61 bc
       0.17794451 -0.20266457 -0.011972041 -0.013756807
000330 1f 4a 2f be 38 d6 7c be d8 f7 d4 3e 5d af 9a be
       -0.17118119 -0.24691093 0.4159534 -0.30211917
000340 aa f9 8f 3e f9 6e ac bd 28 1d 01 be 4f e7 89 3e
       0.28120166 -0.08419604 -0.12608778 0.26934287
000350 10 39 73 3b 5d 66 3b bb 99 7f 53 3e 8e 26 30 b7
       0.003711287 -0.0028594949 0.20654143 -1.0499394e-05
000360 84 c9 7a bd 07 d3 ef bd a3 26 55 bd ce b2 34 be
       -0.061227337 -0.11710172 -0.0520388 -0.17646334
000370 0b 7f 16 3e 21 c1 64 3e 97 b4 6b be 7e c6 e5 bd
       0.146969 0.22339298 -0.23018108 -0.112195
000380 1a a4 c1 bd 46 0b 82 3e 61 26 ab 3d 45 b7 71 3e
       -0.09455128 0.25399226 0.083569296 0.23605068
000390 6d e8 c7 3d 04 d3 d0 3d 02 2b 8e 3e 31 00 c3 bd
       0.097611286 0.10196498 0.27767187 -0.09521521
0003a0 6d 41 61 be b0 1e ee 3c 59 c6 21 bc 5d a1 29 bc
       -0.21997614 0.029067367 -0.00987395 -0.010353413
0003b0 e3 d6 70 3e 87 9a 4f 3c 6b 39 c4 3d 61 6f 35 3e
       0.23519473 0.0126711195 0.09581264 0.17718269
0003c0 9d d7 df 3d 65 2a 0f be e1 72 74 3e d5 5a 56 be
       0.10929797 -0.13981016 0.23871948 -0.20933087
0003d0 61 e3 fe 3d a6 12 6e bd 2b 5e fb 3b 12 ff 5b bd
       0.12445713 -0.058123253 0.007671138 -0.05371005
0003e0 86 1e 9a 3e 00 96 50 3e 4a 56 a0 3e 7f 8b 9a 3c
       0.30101413 0.2036972 0.31315833 0.018865345
0003f0 78 ce ee 3c 83 7f 0a 3e 57 a5 83 be 62 2e f9 3d
       0.029151186 0.13525204 -0.25712082 0.1216705

conv2.bias f4 [16]
000000 88 13 e0 3a 97 12 ec bb cc 3f c1 3b 55 ec 4b bb
       0.0017095665 -0.0072043645 0.0058974978 -0.0031116207
000010 32 16 18 3b 39 d2 93 3b 04 5d 75 3b 6c 04 8e ba
       0.0023206589 0.0045111445 0.0037439475 -0.0010835058
000020 23 47 84 3b 0c 19 20 bb 8e f3 03 3a a5 5c c4 ba
       0.0040368005 -0.0024428992 0.0005033546 -0.0014981224
000030 f2 b7 17 3b db b5 20 bb 96 31 99 3a af c6 0e bb
       0.0023150411 -0.0024522457 0.0011687751 -0.0021785905

conv2.fc_self.weight f4 [16, 16]
000000 cd 6c 4b be a7 19 ea bd 7d 61 75 be 0f d7 70 be
       -0.19865723 -0.11430674 -0.2396297 -0.23519538
000010 1c 6a 81 be d9 4c 3d be 01 f7 a3 bd a5 36 94 bd
       -0.25276268 -0.18486346 -0.08006097 -0.07236985
000020 e2 79 71 3e 18 f6 f6 bb f0 9d bd bd 03 1a 41 3e
       0.23581651 -0.007536661 -0.0925864 0.18857579
000030 77 b5 29 be aa 7e 7a bb e2 a8 0a 3e 55 0d b1 be
       -0.1657313 -0.003822247 0.13540986 -0.34580484
000040 2c 29 0b 3f ef 8d 98 be 7a bc 94 3e d9 b5 eb 3d
       0.543597 -0.29795787 0.29050046 0.11509294
000050 4e 1b 7c 3a 20 c2 79 3e fc 8c a2 be aa 35 d5 3e
       0.0009617106 0.24390459 -0.31748188 0.41642505
000060 23 53 dc be 07 1c a4 3e f7 8d e0 bd 2c fd 5f 3e
       -0.43032178 0.32052633 -0.10964578 0.21873921
000070 f8 3d be 3e d9 5b a3 be fa dd da 3e 9d 4a 37 be
       0.37156653 -0.31906012 0.4274748 -0.17899556
000080 be 3e bd bd 64 dd 03 be 81 9d c4 bc 4d 47 b9 bd
       -0.09240483 -0.12877423 -0.024000885 -0.09046803
000090 1f 65 11 bd 0c 53 ce be 65 09 7c bd 64 ff 21 3c
       -0.035496827 -0.40297735 -0.061532397 0.00988755
0000a0 41 a9 f2 3d 0e 38 e8 3c 7b 16 c5 be 27 d9 f2 3d
       0.11848689 0.028347041 -0.38493714 0.11857825
0000b0 34 7c ef bd b8 30 bf 3e 97 92 d5 be e5 81 b2 3d
       -0.11693612 0.37341857 -0.41713402 0.08716182
0000c0 6a de 1e 3e 6d 4a e6 be 1e 57 c2 be a8 4f 80 3c
       0.15514532 -0.44978657 -0.3795709 0.015662983
0000d0 9a 46 c7 3d 89 d0 11 be 73 1e 03 bd 21 a3 a7 3c
       0.09730263 -0.14239706 -0.03201146 0.020463528
0000e0 22 28 d4 3e 38 a5 38 3e 72 ce 88 3e 95 95 69 3e
       0.4143687 0.18031776 0.26720005 0.22810967
0000f0 1a 24 da 3e 9c 02 39 3e 9f c8 5f be e9 1f 0d be
       0.42605668 0.18067402 -0.21853875 -0.13781704
000100 20 9a e5 be 23 3d 24 3f 39 2d b1 3d 1c 2d 83 3d
       -0.4484415 0.6415579 0.08651204 0.06405088
000110 3a 58 e4 bd 13 ce 37 bd 45 b1 b3 be 0a 1b 0d 3f
       -0.111496404 -0.044874262 -0.35096183 0.55119383
000120 f0 45 21 be e4 bf f6 3d 47 b5 13 bf 7b d8 de 3e
       -0.15749335 0.12048319 -0.5769848 0.43524536
000130 27 87 70 be a9 2e 2d be f8 97 8e be 44 f1 94 be
       -0.23489057 -0.1691233 -0.27850318 -0.2909032
000140 d2 f5 ad be 01 12 8a be 8c b6 fa bc 8a 14 cf 3d
       -0.3397661 -0.2696686 -0.030604623 0.101113394
000150 ef 8c c1 3e db aa cc bd ba f1 26 be 2c f4 37 3e
       0.37802836 -0.099935256 -0.16303149 0.17964238
000160 18 7e b2 bd 0d 53 07 be 23 ce 45 3e ea 9a d4 be
       -0.08715457 -0.13215275 0.19316916 -0.4152444
000170 cb d4 c3 3d f9 83 bd be 75 c0 f4 bd 74 44 66 be
       0.095620714 -0.3701475 -0.11950771 -0.2248705
000180 d3 a4 fd be 9e 54 95 3e 40 d7 bf be 4e 97 21 3e
       -0.49539813 0.2916612 -0.3746891 0.15780374
000190 91 e5 ba be 29 3b 30 3e 1c 46 23 3d 55 3e a7 3e
       -0.3650327 0.17210068 0.039861783 0.32664743
0001a0 0e f5 c1 3e 9c 93 8f be 07 d2 06 3e 3b 01 fa 3e
       0.37882274 -0.28042305 0.13166057 0.48829064
0001b0 38 a2 02 3f c6 f1 c9 be a9 15 ed bc dd 09 a3 be
       0.51028776 -0.3944227 -0.028940992 -0.31843463
0001c0 b4 f8 85 be af d8 c3 3e 3f 5a 28 bd b1 b4 22 be
       -0.26166308 0.38251254 -0.04110169 -0.15889241
0001d0 8c 5f c7 3e b5 26 24 be 69 90 1d be 08 5c 4f 3e
       0.38940084 -0.1603039 -0.1538712 0.20249951
0001e0 24 b2 98 bc 97 22 5c bb 9d 4e 53 be f0 94 a6 3e
       -0.018639632 -0.0033589953 -0.20635457 0.32535505
0001f0 00 f6 f3 be 1a c6 32 3e 8d 5d d3 be 72 be 22 be
       -0.4764862 0.17458382 -0.4128231 -0.15892962
000200 e2 15 b0 be 27 3a c0 3e 08 3e 4d be cf f7 8a 3e
       -0.34391695 0.37544367 -0.20043194 0.27142188
000210 00 02 d3 3c 50 10 c2 be 64 43 80 be 00 3b 01 3e
       0.02575779 -0.3790307 -0.25051415 0.12620163
000220 88 e9 f5 bd 4c e8 f1 bd 10 6c 13 3d 16 83 f9 be
       -0.12007433 -0.11811885 0.03599173 -0.48732823
000230 1a 8e ce 3d b6 dd 41 be 66 36 a8 be 2c e2 61 be
       0.100856975 -0.18932232 -0.32854003 -0.22058934
000240 a1 38 31 be dd 4d 11 3e fd 15 8c bd d0 22 88 3e
       -0.17306758 0.14189859 -0.068401314 0.2658906
000250 33 a4 02 3f 7f d7 fa bc ae 55 3f 3e 2b 1f 26 3e
       0.510318 -0.030620335 0.18685028 0.16222827
000260 2e 7e 92 be f5 0d bc 3e d3 d6 8c 3d 30 a6 cb 3e
       -0.28611892 0.36729398 0.06876912 0.39775229
000270 45 0e f0 be 8f b6 be be 91 b3 06 3b 20 22 8e 3d
       -0.46885887 -0.37248656 0.0020553807 0.069401026
000280 c2 a6 42 be 33 11 51 be 56 66 96 3d 72 24 aa 3e
       -0.19008926 -0.20416717 0.07343738 0.3323093
000290 55 8f cb bd 47 b5 a4 be 7c d4 80 be 87 84 a3 3e
       -0.09939448 -0.32169554 -0.25162113 0.31937048
0002a0 bf 31 44 3c 82 ac 72 be 19 9a ee bd fc b4 c5 3d
       0.011974751 -0.23698619 -0.116504855 0.09653661
0002b0 b7 aa 72 3d b6 8e 40 be 74 7b 18 be c3 e9 87 bd
       0.059244838 -0.1880444 -0.14890844 -0.066363834
0002c0 b9 c8 66 ba 52 66 67 3e cd 9f 72 be 5c f9 38 3e
       -0.0008803714 0.22597626 -0.23693772 0.18063873
0002d0 9b 53 db 3e 20 74 dc be b6 7a d3 bd 1e 45 b5 3e
       0.42837223 -0.43057346 -0.1032614 0.35404295
0002e0 2b aa 90 3e 28 76 5f 3e a7 d5 b3 be 70 d9 cd 3e
       0.28254828 0.21822417 -0.3512394 0.40204954
0002f0 db bc ab 3d 18 06 0a 3f 72 57 b0 bd fa 34 d7 3e
       0.08385631 0.5391555 -0.08610429 0.42032605
000300 35 24 0f 3c ad 4b d9 3e bb ea 49 bd ae e7 9f be
       0.00873666 0.4244055 -0.049296122 -0.31231445
000310 bd 41 6b bc 43 c3 ac bc 5e 61 65 3e 22 f7 81 3e
       -0.014358935 -0.021089202 0.22400424 0.2538386
000320 b9 62 8a 3e e9 32 6e 3e 1e fb 4c 3e 0c 41 ef 3d
       0.27028444 0.23261608 0.20017669 0.116823286
000330 8e b3 ba be 23 26 e4 3e 28 02 c5 3d da af 92 be
       -0.36465114 0.44560346 0.09619552 -0.2864979
000340 28 17 39 3e 46 52 df bd a7 82 e5 3c 59 81 ae 3e
       0.1807524 -0.10904364 0.028016401 0.3408306
000350 e9 dc 50 be d8 f9 0b be 50 80 bb 3e 9e 96 1e 3f
       -0.2039677 -0.13669527 0.36621332 0.61948574
000360 6f c2 b3 3e 68 26 c8 3e ec 9d ed bd 23 92 7c 3e
       0.3510928 0.39091802 -0.11602387 0.24665122
000370 78 26 99 be 89 b3 86 bb c7 b5 1e 3e 31 dc 08 be
       -0.29912162 -0.0041107577 0.1549903 -0.13365246
000380 cb 38 5e 3e 19 77 82 be f7 ba a0 be bd 7e 2b 3e
       0.21701352 -0.2548149 -0.31392643 0.16747566
000390 73 d0 d3 3e d4 a9 da bc 56 a5 03 bf 0e 7e bf be
       0.41369972 -0.026692308 -0.5142416 -0.3740086
0003a0 0e 15 97 bd b1 1b 69 bd d9 92 06 be 9a b6 b7 be
       -0.07377063 -0.056911174 -0.13141955 -0.358815
0003b0 08 f9 58 3e 7b 74 80 be 05 c6 c4 be 87 9d b2 3c
       0.21188748 -0.25088868 -0.38432327 0.02180363
0003c0 d8 7e 1f bc 36 cd cc 3e c9 8a 3c 3d c0 dc 7b 3e
       -0.009734832 0.40000314 0.046030793 0.24595928
0003d0 d3 e0 93 3d 0d 8e da 3d 55 e0 c5 be b3 6c 33 3e
       0.07220616 0.10671625 -0.38647714 0.17521934
0003e0 6c dc ce be 90 7a 9b be 7e c2 6c be aa 47 be be
       -0.40402544 -0.30366945 -0.23121068 -0.3716405
0003f0 4f cb 9a bd 01 49 7f bd 71 e6 51 3e 8f d4 b6 be
       -0.07558309 -0.06232548 0.20498063 -0.35709044

conv2.fc_neigh.weight f4 [16, 16]
000000 ef 9f d9 3d c6 78 c2 be 52 89 e2 bd 89 3d 0f bc
       0.10626208 -0.37982768 -0.11061348 -0.0087426985
000010 c5 d3 9f 3e 1b 04 7c 3d 2f 63 e7 be 90 86 ee 3e
       0.31216255 0.061527353 -0.4519286 0.46587038
000020 cc 37 c0 3e 65 1b db be ef 6c d3 be 95 0b 23 3f
       0.3754257 -0.42794338 -0.41294047 0.6368955
000030 68 43 e1 be fb 1a 14 bf 1a 36 bf 3d 2f 0a 9b 3e
       -0.4399674 -0.5785367 0.09336491 0.30281207
000040 ff 7f 11 3f e4 cc e5 be b8 e7 f5 bd 8a 9b 83 bd
       0.5683593 -0.44882882 -0.120070875 -0.06426151
000050 3c 42 cd 3e fb c7 a3 be c2 c1 f0 be a7 19 e3 3e
       0.40089595 -0.3198851 -0.47022825 0.4435551
000060 53 b1 f1 be ee 54 85 be a3 d1 bc 3e 25 bc f7 3e
       -0.472056 -0.2604136 0.3687869 0.4838573
000070 af 7d 92 be b0 c0 28 be a5 f6 ea be d0 f0 2e be
       -0.28611514 -0.16479754 -0.458913 -0.1708405
000080 d0 15 d0 3d 5e 54 b9 be 21 c6 e2 bd 03 5f b3 3e
       0.101604104 -0.3619718 -0.11072946 0.35033426
000090 82 e2 4d be 93 ee 34 bf 33 67 07 3d 7e b1 33 be
       -0.20105937 -0.70676535 0.033057403 -0.17548177
0000a0 eb 90 5b be 7e b7 13 bf 88 dd ba be 9c 5e 29 3d
       -0.21442 -0.5770186 -0.3649714 0.041349992
0000b0 42 bf a9 bd 82 8f 33 3f a3 1f 58 bf bf d3 17 3f
       -0.08288433 0.7014085 -0.84423274 0.59307474
0000c0 0d 07 03 bf b9 22 07 bf 17 95 93 bd b2 63 87 3e
       -0.51182634 -0.5278736 -0.07206171 0.2644325
0000d0 2b a5 75 bd 20 2b 97 be b9 ab d2 be 53 7d ed 3e
       -0.05997197 -0.2952509 -0.4114664 0.46384677
0000e0 79 60 f8 3e a9 fa 1d bf 56 b4 bf bb 26 97 03 3f
       0.48511103 -0.617106 -0.005850355 0.5140251
0000f0 62 3b 05 3f 52 ec d3 be 62 0c 15 bf a3 60 2e bf
       0.52043736 -0.41391236 -0.5822202 -0.68116206
000100 f9 eb 47 3d 9b 23 4d 3f 70 f8 51 3e ed db 5d be
       0.048809025 0.80132455 0.20504928 -0.21665926
000110 34 dc 8c 3d a2 20 c1 be 1b a0 74 be 72 38 e9 be
       0.06877938 -0.3772021 -0.238892 -0.45550877
000120 ac 89 a6 be e9 b9 01 bf db 5f 10 bf 3b 11 25 3d
       -0.3252691 -0.506743 -0.56396264 0.040299635
000130 93 e0 bd 3e bc 0c 98 bd f7 36 26 bf 92 8b 77 be
       0.370854 -0.07424304 -0.6492762 -0.24174336
000140 a1 11 0a bf 88 10 86 3e a1 ce 0b 3e 05 14 cc 3e
       -0.5393315 0.26184487 0.13653041 0.39859024
000150 50 d8 55 3e 05 26 4c be fe a5 6c 3e 55 d1 f4 3e
       0.20883298 -0.19936378 0.23110196 0.47815958
000160 01 4a ed be ff f9 14 bf 5e 9a a4 3e 5c 6d 4d be
       -0.46345523 -0.58193964 0.32149023 -0.20061249
000170 74 09 53 bf c3 a1 23 bd e2 21 c8 bc e2 49 03 bf
       -0.824363 -0.03994919 -0.02443022 -0.5128461
000180 43 f7 63 3e 75 35 bd 3e 5c e9 8c bf b6 3a d9 3e
       0.22262292 0.36954847 -1.1008716 0.42427605
000190 2c 41 43 bc 94 27 24 3e 6c 67 c6 3e f4 39 c7 bd
       -0.011917394 0.16030723 0.3875078 -0.097278506
0001a0 68 ea 79 be e8 a7 bf 3d 70 a5 aa 3e ea ed 25 3f
       -0.24405825 0.093581975 0.33329344 0.64816153
0001b0 18 46 34 3e f2 18 3d bf e7 9d 4a 3d fc 73 4e be
       0.17604864 -0.7386619 0.049466994 -0.20161432
0001c0 e7 48 0c 3f e1 86 85 3e bd 9d ba be 7d 50 01 3e
       0.5479874 0.26079467 -0.3644847 0.1262836
0001d0 ee 51 8d be 50 fb c9 3e 94 be 05 3f b0 7c e7 bb
       -0.2760157 0.3944955 0.52243924 -0.0070644245
0001e0 b7 10 ae bd 09 30 8f 3d 2a 1d fd 3e ca 6c 6e be
       -0.08499282 0.06991584 0.49436313 -0.23283687
0001f0 67 1e 15 3e b5 e6 55 be a6 bc 43 be 5c f8 68 bd
       0.14562379 -0.20888789 -0.19114932 -0.05687748
000200 bf 6b b5 be ed 1e 4f 3e b5 1a 5b bc 51 54 85 3f
       -0.35433766 0.20226641 -0.013373067 1.0416356
000210 23 df 2a be e6 21 29 3d 2d d0 dc 3d f6 78 dc 3e
       -0.16686682 0.041292094 0.10781894 0.43061036
000220 49 53 0a bf 30 fc 0c 3f c5 ff db be 53 67 52 be
       -0.54033333 0.5507231 -0.42968574 -0.20547228
000230 97 c4 ef 3e 62 68 5b 3d 3e d7 07 3f 5f fa 64 3e
       0.46829674 0.053566344 0.5306281 0.22361134
000240 fd a6 be be f8 f8 a0 3e e6 c1 2b 3f 60 34 52 3d
       -0.37236777 0.31439948 0.6709274 0.05131948
000250 43 22 ff 3e 9f 75 f8 3c c5 8c e8 3e d4 55 68 be
       0.49830827 0.030329524 0.454199 -0.22688991
000260 55 9b cb 3d fb 2a a3 be 69 90 ba be 0c d4 29 3f
       0.099417366 -0.3186873 -0.364383 0.6633918
000270 f0 c6 a5 3e 2f c9 c2 3e b9 41 49 be 74 82 c7 be
       0.3237834 0.38044116 -0.19653977 -0.38966715
000280 f3 06 8d bd b3 99 1a bf 42 4e 1c bf 61 ae 90 bd
       -0.06886091 -0.60390776 -0.6105691 -0.0706451
000290 a0 a3 cd 3e 92 4e 09 be 76 37 99 3e 55 7d 7b be
       0.40163898 -0.13408878 0.29925126 -0.24559529
0002a0 c8 8a 14 bd e6 2c b8 3d c5 1a 31 bd 7c d1 86 be
       -0.036265165 0.08992939 -0.04323842 -0.263317
0002b0 fe 27 75 3e 4b 5d a6 bd cd f0 54 3d 09 f0 a1 3b
       0.23941037 -0.08123263 0.051987458 0.0049419445
0002c0 07 0e c2 3e 13 0e 06 3f 85 8a 30 bf 72 d3 3b bd
       0.37901327 0.52365226 -0.68961364 -0.045855947
0002d0 a6 94 f2 3e ac 7b 00 bf c9 c2 dc 3e 3d 77 d3 be
       0.47379035 -0.5018871 0.4311736 -0.4130191
0002e0 6f 46 a3 3e fd cb c2 3e fe 1b c2 be f7 c7 d6 bd
       0.31889674 0.38046256 -0.3791198 -0.10487359
0002f0 42 de cc 3e 68 72 22 3f 3a 1c 77 3e b5 74 86 be
       0.4001332 0.6345582 0.24131861 -0.26260915
000300 a5 61 b6 be f5 22 e8 3e 27 1d 06 3e 18 5d f4 be
       -0.35621372 0.4533917 0.13097058 -0.47727275
000310 d1 f3 6c be 81 23 4b 3d 4b ac 54 be d9 64 cd 3e
       -0.23139884 0.049594406 -0.2076885 0.40116003
000320 5b 61 eb 3e c5 79 4d 3e 53 61 1d 3e a7 81 d8 be
       0.45972714 0.20065983 0.15369157 -0.42286417
000330 80 aa a4 be 86 aa 35 be c8 14 a4 3d e3 69 f5 be
       -0.3216133 -0.17740831 0.08011776 -0.47932348
000340 6a e3 0e 3f 70 ed e6 3d 05 23 d5 3e 2f b4 ee 3e
       0.55815756 0.11275756 0.4162828 0.46621844
000350 f1 27 a2 be 8a e4 4f be 21 73 30 3f 5b 69 b9 3e
       -0.31671098 -0.20302024 0.6892567 0.36213192
000360 88 db fa 3e 58 1a 25 be 3e 8a 18 be 1f 1e 64 3e
       0.48995614 -0.1612333 -0.14896485 0.22277115
000370 55 48 92 be 06 b7 71 3e 02 53 2f be c7 db 08 bf
       -0.2857081 0.23604974 -0.17121509 -0.53460354
000380 44 1e c9 bc 3c c4 87 bd 22 92 e3 bd a2 6c 1f 3f
       -0.024550565 -0.066292256 -0.11111857 0.62275136
000390 a3 8c 3e be 91 a3 48 3f 6f ff 03 be f8 ac ee be
       -0.18608336 0.7837458 -0.12890409 -0.4661634
0003a0 46 a3 85 be 3e 59 94 be 32 ef 18 bf 81 33 9c be
       -0.2610113 -0.28974336 -0.59739983 -0.30508044
0003b0 fd f6 29 3f 1c 38 e0 3e 9d 67 e1 bd f3 d5 38 bf
       0.663925 0.43792808 -0.11006091 -0.7220146
0003c0 8c 30 ca 3e fd a7 dd 3e c7 21 4c 3e ce da fd 3d
       0.39490163 0.43292227 0.1993476 0.12395249
0003d0 89 7a b3 be b3 9d 52 3e c9 4d b3 be ff 1d d1 3d
       -0.35054424 0.2056797 -0.35020283 0.102107994
0003e0 6b 82 cd be 0a ee c1 be 68 b6 d5 be 3c ef 1d bf
       -0.40138564 -0.37876922 -0.41740727 -0.6169317
0003f0 37 ce 76 3e 22 cf 0d 3f c4 75 bb 3e ac c5 db be
       0.24102102 0.55394185 0.36613286 -0.4292425

conv3.bias f4 [16]
000000 63 34 b2 bc 16 f9 78 bc e7 28 a9 3b d9 40 7f 3b
       -0.021753496 -0.015196105 0.0051623466 0.0038948564
000010 b7 0e ca 3b e7 3b a6 3c a3 d2 44 bc 61 40 e6 bb
       0.006166305 0.020292236 -0.01201311 -0.0070267175
000020 db a7 67 bc 15 2f 4c b8 58 e2 78 3a b4 a6 1e bc
       -0.014139141 -4.868124e-05 0.0009494177 -0.0096833
000030 8c 04 58 bb 90 87 bc bb fc 5e 15 3b b5 50 6e bb
       -0.0032961695 -0.005753465 0.002279221 -0.0036364023

conv3.fc_self.weight f4 [16, 16]
000000 0e 8c e3 3e 9d b8 ba 3d a4 e4 d7 be 30 56 5b bd
       0.4444279 0.091172434 -0.42166626 -0.05354899
000010 b5 59 0a 3e df d9 ed 3c 1d 21 59 be 09 27 64 be
       0.13510783 0.029034553 -0.21204038 -0.22280516
000020 e8 16 b2 3e 88 44 8f 3e 62 0d 03 3e 6e 90 10 be
       0.347831 0.27981973 0.12798074 -0.14117596
000030 f4 e0 46 3e 57 47 99 3e 11 76 bb 3e 9e bd 93 be
       0.1942175 0.2993724 0.36613515 -0.28855604
000040 ae 24 98 be 9c d1 8a 3e 3c 4b f4 3d 70 08 b7 be
       -0.29715484 0.27113044 0.11928412 -0.35748625
000050 77 60 7b be 4d b1 15 3d b7 8c a4 3e f0 86 82 be
       -0.24548517 0.03654604 0.32138607 -0.25493574
000060 62 92 32 3e 0b f1 ad 3e f8 d3 cb bd 6f e0 a1 bc
       0.17438653 0.33972964 -0.09952539 -0.019760339
000070 7e 0d a9 3e a2 ba 3a be c4 5b 3f 3d 0c 1d ca be
       0.33018106 -0.18235257 0.046718374 -0.39475286
000080 86 6e 43 3e ca 74 34 3e 90 45 a8 be 4f 2d 00 be
       0.1908513 0.17622676 -0.32865572 -0.12517284
000090 f2 29 9c be ab 94 b6 be 4b ec 04 3f 09 47 1c bd
       -0.30500752 -0.356603 0.51923054 -0.038153682
0000a0 f2 a3 7e 3e c0 55 19 3e 0d cc 1d 3e 6f f6 01 3e
       0.24867228 0.14974117 0.1540987 0.12691663
0000b0 5f 46 41 3e f2 02 e0 bd c3 9b 84 3d 62 d2 7b be
       0.188745 -0.10938062 0.06475022 -0.24591973
0000c0 2e 6d 92 3e b2 32 21 be 19 85 6f be 8f c3 b8 be
       0.28598922 -0.15741995 -0.23390616 -0.360867
0000d0 87 ae ce bc c8 29 ee 3d 34 7d ed bc 0d f4 07 bd
       -0.025229705 0.11629063 -0.028990366 -0.03319173
0000e0 cf ed 17 3d 3c b8 9f be 4d 0a 38 3d 26 9d 11 be
       0.037092026 -0.31195247 0.0449317 -0.14220104
0000f0 51 b6 06 3e af f0 7e 3e 91 70 18 3f 2f b8 f1 3d
       0.13155486 0.24896501 0.5954676 0.11802708
000100 77 7b e4 be e1 21 97 be 28 1e af bc 34 4e 52 3e
       -0.44625446 -0.29518035 -0.021376684 0.20537645
000110 8d 2c a6 3e c8 b1 9b 3e 6b ba 12 3b c1 eb c7 be
       0.32455865 0.30409074 0.0022388946 -0.39047053
000120 86 89 78 be 6c f0 7d 3e e9 f9 2c 3e 54 63 16 be
       -0.24271211 0.24798745 0.16892208 -0.14686328
000130 99 35 e6 3e 58 99 95 be 0e 4b 7c 3e f7 6e 15 3e
       0.44962767 -0.29218554 0.24638006 0.14593111
000140 88 bb 73 3d 69 23 c8 3e e5 38 23 3e ca 53 39 3e
       0.059505016 0.39089516 0.15939672 0.18098369
000150 41 84 58 be be f3 7a 3e f9 3a 6e bd 6f 13 55 3e
       -0.21144201 0.24507043 -0.05816171 0.20808195
000160 4f 9b ad 3d 46 8d 18 bd 3f 5d 13 3e c8 c5 b7 bd
       0.084768884 -0.037244104 0.1439104 -0.08973271
000170 72 5d b7 3e 8f 0a 1b be 11 3d 4d be 20 fb 84 3e
       0.3581348 -0.15140747 -0.20042826 0.25972843
000180 02 c5 0b 3e f5 dc bf be 98 46 66 bd 1a 88 af 3e
       0.13649371 -0.37473264 -0.056219667 0.34283525
000190 78 ab e8 3e 67 d6 65 be b6 c5 70 be a9 05 00 bf
       0.4544332 -0.22445069 -0.2351292 -0.50008637
0001a0 6c 4a 94 3e cb 66 97 be ac 2c a1 bc df bb 36 3e
       0.2896303 -0.29570612 -0.019674622 0.17845105
0001b0 52 a5 fd bd 2f 2b 17 be 5a b0 46 be 8b 01 b0 3e
       -0.12385048 -0.14762567 -0.1940321 0.34376177
0001c0 c3 05 23 3e 8e c5 fc bc b1 80 88 3e 9d 26 0e be
       0.15920167 -0.03085592 0.26660684 -0.13881917
0001d0 c5 2a de be 56 6d 1c bd 95 a5 88 3e b2 59 28 3e
       -0.43392006 -0.03819021 0.2668883 0.16440466
0001e0 58 1e 36 3e 16 36 d0 3e 79 9f ef be 92 65 47 3d
       0.17785013 0.40666264 -0.46801355 0.04868085
0001f0 65 a3 18 bf 65 e9 0c 3e 9b db c2 be 93 82 cd 3e
       -0.5962432 0.13760908 -0.3805817 0.40138683
000200 8e 80 90 be 12 25 ac be 48 23 0a be f5 5d 78 3e
       -0.2822308 -0.33622032 -0.13490021 0.24254592
000210 0c 81 18 3d ef 40 7e be 2c cb 20 bd 2e 99 ce 3e
       0.037232444 -0.24829458 -0.03925626 0.40351242
000220 24 4a 6d be 2e 72 89 be 4b 64 ac 3e 73 58 d0 be
       -0.23172814 -0.26844925 0.33670267 -0.4069248
000230 3f 7e d6 be b0 3e bb 3e fd 2f aa 3d 85 84 95 3e
       -0.41893193 0.36571264 0.08309934 0.29202667
000240 44 d7 9f bc 3e 8e a8 be df 8f 67 be 85 6f dd 3d
       -0.019511826 -0.32921022 -0.22613476 0.10812286
000250 45 72 62 3e 5f d1 3d 3e 88 5f dc 3d 91 c3 9d 3e
       0.22113903 0.185369 0.10760409 0.30813268
000260 60 16 9e be 9f 1a ed be 4e 00 0f 3d fe 31 23 bd
       -0.30876446 -0.46309373 0.0349124 -0.0398426
000270 e4 74 f3 3d 1a 6c 70 3e 23 1e 10 3e 66 3f 0c 3e
       0.118875295 0.23478737 0.14073996 0.1369606
000280 20 8f fa be 5d d9 55 3e 44 4b a9 3e 06 64 ad 3e
       -0.4893732 0.20883699 0.33065236 0.33865374
000290 d2 8c c9 be ec 2d 28 be eb b8 70 3e ce 73 b9 3e
       -0.3936525 -0.16423768 0.2350804 0.36221164
0002a0 76 b3 4f 3e da f7 f1 3e d8 75 3f bd 65 4f 6c be
       0.20283303 0.47259408 -0.046743244 -0.23077162
0002b0 aa a8 8f 3e 98 05 50 bc 38 72 87 bd 56 34 80 be
       0.28058368 -0.012696646 -0.066135824 -0.2503993
0002c0 e6 dc ce be 0d 6f b3 3d 71 0e 8f be d8 49 d7 3d
       -0.40402907 0.08761416 -0.27940705 0.105121315
0002d0 9b 5c 2c 3e f1 1b 09 ba 8f 28 a0 be d3 f8 b0 3e
       0.16832201 -0.0005230299 -0.31280944 0.34564838
0002e0 36 f1 9a 3e fd 1e 51 3e 3b b4 c1 3e ea a8 57 3d
       0.30262154 0.20421977 0.37832817 0.052651323
0002f0 fe e4 ac be 92 71 98 be a1 1b c0 bd 60 19 d5 be
       -0.33768457 -0.29774147 -0.0938027 -0.41620922
000300 c6 8c 9d be 9b 59 ae be 33 a1 ab bc f9 3d bb 3e
       -0.30771464 -0.3405274 -0.02095089 0.3657072
000310 6c 92 66 3e 5f 01 c4 be a1 9e 94 3d 6b 34 38 bd
       0.22516793 -0.38282296 0.072568186 -0.044971865
000320 36 11 78 3c f8 e5 af 3d 6e a4 c2 bc 4e f6 a9 be
       0.015140822 0.08588785 -0.023760047 -0.33195728
000330 90 6b 94 be b9 93 20 3e cd cb 87 be 48 0c c5 bd
       -0.28988314 0.15681352 -0.26522675 -0.09621483
000340 ee c0 ad bd 0b 6d 2c 3c c8 e9 78 3e 91 9b 85 be
       -0.08484064 0.010524045 0.2430793 -0.2609525
000350 1c 78 ee be fe af ce 3d 7c e7 3c 3e f9 ca 39 bd
       -0.4657601 0.100921616 0.1844768 -0.045359585
000360 be 6b e8 be 67 1a 29 3e 21 a1 02 be 81 2f b5 3e
       -0.453947 0.16513978 -0.12756778 0.35387805
000370 61 a0 da 3e cb 89 bf bc 62 2d 95 3e 58 d7 d4 3e
       0.42700484 -0.023381134 0.29136187 0.41570544
000380 8b b7 81 3d 25 41 ce bd 14 1b af 3e fa 4e cb be
       0.06333836 -0.10071019 0.34200346 -0.39708692
000390 86 e8 b1 be 92 df c9 3e 24 c0 15 3e d7 c1 f6 3d
       -0.34747714 0.39428383 0.14624077 0.12048691
0003a0 a2 ef cc bb 1f 3c c3 bb c5 b7 fd 3d 4c 7a 73 3e
       -0.0062541524 -0.0059580947 0.12388567 0.23777121
0003b0 af 5f 81 bc 8a c1 a6 be 9c fe bd be 34 ed 4c 3e
       -0.015792696 -0.32569534 -0.37108314 0.20012361
0003c0 8f 7a 27 be 11 53 1f 3e 0d 84 05 3e 4c bd 4c 3e
       -0.16355346 0.15559031 0.13038655 0.19994086
0003d0 1b 81 91 be dc a9 6a 3e 8c c4 69 3d d2 03 08 3e
       -0.28418812 0.22916359 0.057072207 0.13282707
0003e0 b4 3a 60 3d bf fd 04 3e 4a 71 d5 be a5 e4 95 3e
       0.054743484 0.12987421 -0.41687995 0.29276004
0003f0 79 11 48 be 7c b0 3f 3e 83 35 a0 bd a5 98 c6 3e
       -0.19537915 0.18719667 -0.078227066 0.38788334

conv3.fc_neigh.weight f4 [16, 16]
000000 3a ae bf 3e 97 5d 82 be 2d 89 6f 3e 2b a2 a3 bd
       0.37437612 -0.25462028 0.23392172 -0.079899155
000010 bd 13 9f be c3 4d d6 bd 2e 5b b1 be 35 46 d6 be
       -0.31069747 -0.104640506 -0.34639877 -0.4185044
000020 a2 00 e7 3e cf 55 bd 3e 28 67 b7 3d 4b 00 31 3e
       0.4511767 0.3697953 0.08955222 0.17285268
000030 87 9a e5 bd a5 54 d1 3e 46 90 32 3d 30 dc d9 be
       -0.112111144 0.4088489 0.04359462 -0.42550802
000040 91 cc 15 bd ec ca 12 be 8b 4f fb be ae 5f c4 3e
       -0.036572043 -0.14335221 -0.49084124 0.38354248
000050 41 77 8e bd d4 88 1f 3f 4b 2a ef bd 4a 3f 1b 3e
       -0.0695634 0.6231816 -0.116779886 0.15160862
000060 f4 b7 95 be e2 7d d9 bd 89 af 00 3f 59 9e d6 be
       -0.29241908 -0.10619713 0.50267845 -0.41917685
000070 88 36 16 3d e1 61 8b bd 7e 47 c1 be af 78 17 be
       0.0366731 -0.06805778 -0.37749857 -0.14792131
000080 9d 01 e2 bb a7 d3 d0 be 70 f3 93 3e 71 ce e7 be
       -0.006897165 -0.40786478 0.28896666 -0.4527469
000090 1d bd 15 be 9b b7 bb be 01 1d 80 3e 18 58 fa be
       -0.14622922 -0.36663517 0.25022128 -0.48895335
0000a0 db 70 99 3e ca e9 1d bf 31 d7 5d 3e 4c d6 f4 3d
       0.29968914 -0.6168486 0.2166412 0.119549364
0000b0 03 32 e1 3d 72 43 8e 3d 6e 4d eb 3b 3a 4e b4 3e
       0.10995867 0.06946458 0.007180861 0.35215932
0000c0 81 1d b7 be 27 90 25 bf 37 d6 79 3e 47 09 06 3f
       -0.35764697 -0.64673084 0.24398123 0.52357906
0000d0 53 5b f0 be 1a cd a5 3e c8 49 5d 3e d0 fe 76 3c
       -0.46944675 0.32383043 0.21610177 0.0150754005
0000e0 8f 91 de bd 39 32 39 3d 4d cb 22 3f df 07 8a be
       -0.10867607 0.04521391 0.6359146 -0.2695913
0000f0 23 9c 15 bd 0a 1a 95 3e 29 fd b4 3e 72 0b ce 3e
       -0.036525857 0.2912143 0.35349396 0.40243107
000100 e5 95 e0 be d3 0c 86 3e 06 0a 2d be 41 04 a5 be
       -0.4386436 0.2618166 -0.16898355 -0.32229808
000110 4a 77 28 3e bc 16 85 3e df 4c c6 be ad d1 f7 be
       0.16451755 0.25993907 -0.38730523 -0.48402157
000120 6b 15 26 3e d2 b2 fa 3d 5b 47 36 bd 42 86 bc 3e
       0.16219108 0.122411385 -0.044501644 0.3682118
000130 ce 94 21 3f db 57 45 3d 89 de 11 3f f3 7b 67 be
       0.6311768 0.04817949 0.56980187 -0.22605877
000140 aa db 3a be 34 1d 84 3e e0 1a 06 3f b5 79 7e 3e
       -0.18247858 0.2580353 0.5238476 0.24851115
000150 c1 fc 91 be 89 d8 71 be 9c 78 16 be 00 87 1e 3e
       -0.28513148 -0.23617758 -0.14694446 0.15481186
000160 10 4e e2 bd 54 93 fb be d0 b3 1a 3e a2 12 95 be
       -0.110500455 -0.4913584 0.15107656 -0.29115778
000170 a2 49 ec bb fb 6a 16 3e ce 22 19 be c9 9c fb 3e
       -0.007210926 0.14689247 -0.14954683 0.49143055
000180 13 fa eb be 0d 13 98 be 24 a6 90 3e d7 2b bc 3e
       -0.4608923 -0.29702035 0.28251755 0.36752197
000190 f7 a9 ba be 11 a2 cc bd 29 9a 39 3e 3c d9 31 be
       -0.36457798 -0.09991849 0.18125214 -0.17368025
0001a0 8b 42 16 3e c7 f6 e6 3e bb da d7 3e e5 75 f7 be
       0.14673822 0.4511015 0.42159066 -0.48332134
0001b0 2f f9 d2 3c d0 45 a8 3e 84 c1 25 bf de 43 58 be
       0.025753586 0.32865763 -0.64748406 -0.2111964
0001c0 aa 9d 0c 3f a1 e1 ed be 7c 28 d2 3e 9e 89 78 be
       0.54928076 -0.46461204 0.41046512 -0.24271247
0001d0 bd b1 8a 3e 2e ea 37 3e af 97 73 3e d4 28 65 3e
       0.2708873 0.17960426 0.23788331 0.22378856
0001e0 0d b9 b5 be a2 5a ad 3e 80 ec ec be 5e 16 33 bf
       -0.35492745 0.3385821 -0.46274185 -0.69956005
0001f0 be cc 18 bf 5a dc a0 3d 4d b2 9a 3e 61 d9 98 3e
       -0.5968741 0.07854529 0.30214158 0.29853347
000200 fd 9d 31 be 4b 94 85 be 4f 15 50 3e 57 d6 b8 be
       -0.17345424 -0.260897 0.20320629 -0.36101028
000210 eb fa ee be 6e db 12 3e 4c 05 72 bd 2f 45 20 3f
       -0.4667581 0.14341518 -0.059087083 0.62605566
000220 dc a8 5c be 92 d4 d9 3e 47 a0 eb 3d ed 47 12 be
       -0.2154879 0.4254499 0.1150518 -0.1428525
000230 38 d4 61 3e e1 65 ba 3e dd 37 96 be fa 5e 3a be
       0.22053611 0.36405852 -0.29339495 -0.18200293
000240 0d 2c ff bb 1f b2 04 be aa 7f 0b 3f a9 6a 3e 3e
       -0.0077872337 -0.12958573 0.54491675 0.18595375
000250 b1 91 41 3e bc c2 09 3e 5c 71 c1 3e d1 43 b5 3e
       0.18903233 0.13453192 0.377818 0.35403302
000260 b4 0c ad be c1 91 d5 3d 5d 5e 98 bd 9f 7f a7 3e
       -0.33798754 0.10428191 -0.07439873 0.32714555
000270 1b 20 e5 3e 69 4f 9e be 5e 4d 35 3e 7d c3 ea be
       0.44751057 -0.3091996 0.17705294 -0.4585227
000280 cb a8 fe be 06 04 52 3e f4 2b 35 3f 06 e7 eb 3e
       -0.49738154 0.20509347 0.7077019 0.46074694
000290 ce 65 db 3a 13 ea 33 be 29 a2 5d be 22 ec c4 3a
       0.0016738714 -0.17569761 -0.2164389 0.0015023986
0002a0 c2 2d 0b 3e 63 b4 d8 3d 52 8e d2 3a 7a c7 2c 3e
       0.13591674 0.10581281 0.0016064143 0.1687297
0002b0 02 11 65 bd 11 84 72 be f5 c7 3d 3d 71 cf ad 3e
       -0.055924423 -0.23683192 0.046333272 0.33947328
0002c0 d9 c3 24 bf 8e e7 2b 3e 17 01 fb be e9 66 0b 3e
       -0.6436134 0.1678755 -0.4902427 0.13613476
0002d0 65 bb 5a 3e 11 8a 0f bf 12 c6 b2 bc a2 ef 1a 3f
       0.21360548 -0.5607005 -0.021822963 0.605219
0002e0 05 77 7a 3e 19 a7 8f be cd b5 60 3d 07 de cf be
       0.24459465 -0.28057173 0.05486088 -0.4059908
0002f0 0b f2 a2 be a2 ca 41 3e 4b 2e d4 3e 27 56 de be
       -0.3182529 0.18924955 0.4144157 -0.43425104
000300 51 36 02 bf 94 df bf 3e d6 a6 32 be 2b 45 a7 3c
       -0.5086413 0.37475264 -0.17446455 0.020418724
000310 3a 24 38 3e 2e 28 b4 be 03 13 88 be 3f 3c 17 3e
       0.1798257 -0.35186905 -0.26577005 0.14769076
000320 ed c6 1a 3f 3e 51 94 be 7b 87 9d be 0d fa b8 be
       0.60459787 -0.28968233 -0.30767426 -0.36128274
000330 05 f5 13 3f 2a 00 15 3f 7a 7a 7f be c2 a4 e1 3e
       0.57795745 0.58203375 -0.24949065 0.44071013
000340 f3 aa 00 bf 33 14 a2 3d 79 ee bd 3e 25 0f eb be
       -0.5026085 0.07914009 0.37096003 -0.45909992
000350 76 4b f8 be 30 56 a7 3c 01 ba ae be 6a 5b d0 bb
       -0.48495072 0.02042684 -0.34126285 -0.0063585537
000360 d1 7f c8 bd 9e 40 2a 3e 92 0e ca bd 12 a1 94 3e
       -0.09790004 0.16626212 -0.0986606 0.29029137
000370 fc bd 47 3d 76 9c 0b 3e 43 1f df 3d dd bd 01 bf
       0.048765168 0.13633904 0.108946346 -0.50680333
000380 b7 fd 89 be 1b 76 b5 3a 4b 83 bd 3e 33 f4 87 be
       -0.26951382 0.0013844402 0.3701423 -0.26553497
000390 d8 fb d7 3d 47 1d e0 3e ab c5 55 3e 55 3d 7b 3e
       0.10546082 0.43772337 0.20876186 0.24535115
0003a0 1c 51 10 3f 69 6e b7 be 46 0c 90 3d 8f 67 29 3d
       0.56373763 -0.35826424 0.07033591 0.041358527
0003b0 78 8a a3 be 88 9b 38 be cc 95 21 bf 8b f7 05 3e
       -0.3194158 -0.1802808 -0.63119197 0.13082711
0003c0 da 80 46 3e 6c 3c ef 3e 6a be 90 be e1 08 79 3e
       0.1938509 0.46725786 -0.28270274 0.24319793
0003d0 8f bf e6 be d1 54 8e 3e dc 87 ce 3e bf b7 80 3e
       -0.45068023 0.27799085 0.40338027 0.25140187
0003e0 8b 00 87 3d 89 34 04 3f 4b 51 84 be 18 29 c5 3e
       0.065919004 0.5164266 -0.25843272 0.38507915
0003f0 53 a3 a7 3e d3 06 6e 3e ab c3 67 3e c8 c7 a3 3e
       0.32741794 0.2324479 0.22633235 0.31988358
