model.pth (torch, 29451 bytes, 9 tensors)

conv1.bias f4 [16]
000000 8c 1b 6b bc 24 5c 68 3c fc 31 02 3c 25 84 7f 3c
       -0.014349829 0.014182124 0.0079464875 0.015595471
000010 f2 57 10 3c c1 b1 70 bc c6 78 83 bc b2 ff c6 bc
       0.00881003 -0.014690817 -0.0160488 -0.024291847
000020 4d 48 98 bc 77 a0 b6 3b b0 fd 81 3b e1 3b df 3b
       -0.018589163 0.005573328 0.0039670095 0.006812558
000030 df f3 13 bc 7d f9 8f b9 1a 37 d5 bc 3b ba 34 3b
       -0.009030311 -0.0002746097 -0.026027251 0.0027576822

conv1.fc_self.weight f4 [16, 174]
000000 a4 97 37 3c a5 58 22 be fa b8 fe bd bf 10 0b 3c
       0.011205588 -0.15854128 -0.12437625 0.008487879
000010 f7 70 92 bd 52 fa 5d bd a7 aa c8 bd 71 3a 8a 3e
       -0.071504526 -0.054193802 -0.09798174 0.26997712
000020 3f 1d 20 be 08 72 70 be ef d8 41 bd b7 2d 9e 3c
       -0.15636156 -0.23481 -0.047326025 0.019308908
000030 94 cd 0c 3e 2a c3 ec bb cd 60 9d 3e c2 da be be
       0.13750297 -0.007225414 0.30737916 -0.37276274
000040 eb 7b fd bd e7 af c4 bd 3e 1c ed 3c 3c 04 eb 3d
       -0.12377151 -0.09603863 0.028944131 0.11475417
000050 0d cc 88 3e 00 90 d4 3c ce 8b 08 3e a4 40 c6 3d
       0.26718178 0.02594757 0.13334581 0.09680298
000060 eb 52 ee bd e5 a4 13 3e 4d f4 3e 3d 5e 2c 13 3d
       -0.11636909 0.14418371 0.046619702 0.035930984
000070 39 1c 76 bd 63 72 80 be 92 94 86 bd 40 e6 af bd
       -0.06008551 -0.2508727 -0.06571306 -0.085888386
000080 04 30 ac 3c d9 c1 23 3d bb 92 31 bd ee 24 8a 3c
       0.02101899 0.03997979 -0.043352824 0.016863313
000090 bc a6 93 bd 9f 55 5f 3e be 6d 92 bc 66 5b 5e bd
       -0.072095364 0.21810006 -0.017874595 -0.054286383
0000a0 c0 9a 67 3d eb 2a da bd 1a 33 ed 3c 27 2f 67 3e
       0.056544065 -0.10652717 0.028955031 0.22576581
0000b0 94 93 0d be 4c 37 da bd d9 a6 fa 3c 18 f3 b5 3e
       -0.13825828 -0.10655078 0.030597137 0.35537028
0000c0 cf 54 da bd 17 c0 57 3e 56 81 b2 3e 52 05 21 be
       -0.10660707 0.2106937 0.348643 -0.15724686
0000d0 df 4a a4 bd ba b2 49 bd 30 ac 99 3d ad 46 b4 3d
       -0.08022093 -0.049242713 0.07503545 0.08802543
0000e0 af ee 22 be 14 20 bc bd f4 74 12 bd 9e 4f 9f bc
       -0.15911363 -0.09185806 -0.035756066 -0.019447144
0000f0 b4 35 d5 bb fd 5b ba bd 74 ba 0b 3d 09 5c 90 3d
       -0.006506646 -0.090995766 0.034113362 0.07048804
000100 29 5e 97 bd 5f 04 e4 3d 52 8b 4a 3e 6d ba ad 3e
       -0.073910065 0.11133646 0.19779709 0.33931294
000110 82 74 9c be 55 c8 27 3e 1d 0f 59 3b d1 f4 97 bd
       -0.30557638 0.16385014 0.003312058 -0.07419742
000120 6b eb ae bd 78 c0 01 3d 1b 44 23 bd f2 6a 33 bd
       -0.08540996 0.031677693 -0.039859872 -0.043803163
000130 0a a1 01 3d b0 d5 92 bd 17 70 95 3d 51 92 52 bc
       0.03164772 -0.07169664 0.0729677 -0.012852267
000140 12 69 ae be fb 73 d5 3d f2 41 b8 3d 7b 65 13 bd
       -0.34064537 0.10422512 0.08996953 -0.03598545
000150 01 32 ef bb d4 0a 05 be 50 6b 5c bc b0 4d 05 be
       -0.007299662 -0.12992412 -0.01345332 -0.13017917
000160 08 47 e8 3d d9 f0 ae 3d bf 8e 1a 3e d8 1d 03 be
       0.11341673 0.08542032 0.15093516 -0.12804353
000170 f9 8c 78 be e5 ec 13 be 11 23 9d 3d 7f 33 26 3e
       -0.24272527 -0.14445837 0.07672704 0.16230582
000180 40 82 2f 3d 68 d9 3c bc 00 e9 14 3d f6 2c de 3c
       0.042848825 -0.011526443 0.03635502 0.027121048
000190 3a 1f 08 3e 0d 76 9b bd 45 28 02 3d 88 02 05 3e
       0.13293162 -0.07590876 0.031776685 0.12989247
0001a0 ea 0f f2 bd a2 3e f2 3c a4 de 4d 3e 0d be 8f 3d
       -0.118194416 0.029570881 0.20104462 0.07018671
0001b0 da fc a4 3a f0 f4 2a bd c7 2a 4f 3b a8 e8 95 3e
       0.0012587563 -0.041737497 0.003161119 0.29279065
0001c0 4b b5 0f be 0c b9 23 bd 63 4a 3b 3e 4e 66 3d 3e
       -0.14034002 -0.039971396 0.18290095 0.18496057
0001d0 c4 a1 19 bb ea 74 9f bd 21 a1 40 3e 8b 27 62 be
       -0.0023442367 -0.077859715 0.18811466 -0.22085397
0001e0 b5 11 99 3d 21 fc dd 3c a0 46 de 3d 87 ca 1c 3e
       0.074740805 0.027097763 0.108533144 0.15311633
0001f0 9b f4 a3 3e 90 85 08 3d 77 21 2b bc ca 32 cd bc
       0.32022557 0.0333305 -0.01044499 -0.025048632
000200 5f 54 9d 3c 60 be d8 3d cd 14 44 3d 19 3b e1 bd
       0.01920527 0.10583186 0.0478714 -0.109976
000210 14 94 81 3e 59 3c 4b 3e e1 38 a5 bd a2 9c 2c be
       0.25308287 0.1984724 -0.080674894 -0.16856626
000220 eb a7 7a 3d b5 58 60 3d 9f 83 95 3d d2 4e 53 ba
       0.061195295 0.054772098 0.07300495 -0.00080607564
000230 eb 39 1d 3e 0a 5f 3f 3e 76 94 9a 3d 40 b7 e0 3d
       0.15354125 0.18688598 0.07547848 0.10972452
000240 9b 59 8f 3d e9 31 b7 3c 43 9b 1e be 0a 1b 87 bd
       0.06999513 0.022362666 -0.15488915 -0.06596954
000250 cd 2e f4 3d 68 ba 6b be a0 d5 2b be 28 31 f7 3d
       0.11922989 -0.23020327 -0.1678071 0.12069923
000260 50 46 64 be 1c 7f 3e 3e 93 66 ec bd 88 00 1e bd
       -0.22292447 0.18603176 -0.11543002 -0.038574725
000270 e6 1e a4 bb 9e af f7 3d 99 59 59 bc 46 b0 49 bd
       -0.005008566 0.12094043 -0.013265991 -0.049240373
000280 1c 34 50 3c 89 8c a2 bc 83 93 c1 bd c5 09 79 3e
       0.012707736 -0.019842403 -0.09451964 0.24320133
000290 a2 2d ca 3d ac 8c 1d be 79 3f 2e bc bd 09 87 bd
       0.09871985 -0.15385693 -0.01063525 -0.06593654
0002a0 4e 2d 3b 3c 47 97 5a bd 38 df b8 bc 48 ab 07 bc
       0.011424376 -0.053366926 -0.022567376 -0.008280583
0002b0 2d d1 34 bd 2e 5b f5 bb 53 76 24 3e ed d9 66 bd
       -0.044144798 -0.007487676 0.16060762 -0.056360174
0002c0 c7 81 88 3c 4b 5c 90 bd 8f 39 d8 be 98 e6 11 3e
       0.016663445 -0.070488535 -0.42231414 0.14248121
0002d0 3b c0 02 3e 43 e3 e9 bd 6b 9a 88 be 0f 42 46 3e
       0.12768643 -0.114203 -0.26680312 0.19361137
0002e0 c9 cd 8d bc 97 57 62 3d 63 41 2e be 2e 6b 95 3d
       -0.01731004 0.055259313 -0.1701713 0.072958335
0002f0 94 34 9e bc a3 91 8b 3d e6 ac 42 3e f6 68 a2 3d
       -0.01931218 0.068148874 0.19011268 0.07930176
000300 0c 39 f7 bd 35 19 12 3d a0 2b 3a 3d 3f 7f 32 bd
       -0.12071428 0.03566857 0.04545176 -0.043578383
000310 11 34 0b bd a9 f0 05 3e cc ea 08 3d 2b 4f 6e bd
       -0.0339852 0.13080086 0.033427045 -0.05818097
000320 38 3a 00 3e b4 e7 fc 3d 5d 6c 8e 3c d7 d0 a4 bc
       0.12522209 0.12348881 0.017385656 -0.020119114
000330 b3 b9 96 3d fa 2f e1 bd 6f 73 01 be e5 a0 29 be
       0.07359638 -0.10995479 -0.1264169 -0.16565283
000340 70 27 eb 3d 49 ea 62 bd 43 0b 9e bd 3e 99 84 3e
       0.114821315 -0.055399213 -0.07716992 0.25898165
000350 a2 6e 29 3d de 05 ec bd c9 36 34 bd 31 4a 16 3e
       0.041365273 -0.115245566 -0.04399756 0.1467674
000360 19 7f 1e be 0f 0e 55 3d 8e 02 3a bd 02 b5 0c be
       -0.15478171 0.05201536 -0.045412593 -0.13740924
000370 5a 40 04 3e 8c 42 8e be 4c 15 07 3d aa c6 3e 3e
       0.12915173 -0.27785146 0.032979295 0.18630472
000380 c2 86 30 bc d3 34 18 be 48 68 85 3e 9a 00 6a 3d
       -0.010774316 -0.14863901 0.26056123 0.05712948
000390 ae 7a 09 bc 05 07 79 3d e3 3e c1 bd d5 1f ff 3d
       -0.0083910655 0.06079771 -0.09435823 0.12457243
0003a0 db 9d 2c 3e 3b cf b3 bd e0 7b 71 3d 67 ac 54 3d
       0.16857092 -0.087797605 0.058956027 0.05192223
0003b0 68 47 14 be 6a bf 41 3c f6 e1 9d bc df 20 48 bd
       -0.14480364 0.011825422 -0.019272786 -0.048859473
0003c0 32 cc 0b bd ad c2 90 3b a3 1e d3 bd cf 76 c5 be
       -0.034130283 0.0044177384 -0.10308578 -0.38567206
0003d0 7d c0 9c 3e 56 31 72 3e af 6b 27 bc 46 87 30 3e
       0.30615607 0.23651633 -0.010218545 0.17239103
0003e0 c5 19 4e 3c 96 37 31 bd c5 b2 21 3e 19 37 39 bd
       0.012579386 -0.0432659 0.15790851 -0.04521856
0003f0 e1 cc 95 bd 1a 49 01 bd c0 08 23 3b 09 e2 18 3e
       -0.07314468 -0.031563856 0.0024877042 0.14929976

conv1.fc_neigh.weight f4 [16, 174]
000000 95 e6 05 3e be 33 62 3c eb 66 6a 3d 86 e5 c3 3d
       0.13076241 0.013806282 0.057227056 0.095652625
000010 54 e4 c5 be 11 fa 54 bd aa 54 64 3d 9a b8 a4 3e
       -0.38650763 -0.051996294 0.055744804 0.3217209
000020 4d e8 49 be 23 8c 60 bc e4 df 0c 3e 40 1a 50 3e
       -0.19717522 -0.013705286 0.13757282 0.20322514
000030 5c 22 82 3e 26 f6 91 bd f4 1f 33 3e 24 55 ff bd
       0.2541684 -0.07127027 0.17492658 -0.12467411
000040 b7 15 13 be 12 7b ac bd 32 38 e9 3d 26 7b 92 3d
       -0.14363752 -0.08421911 0.113876715 0.07152395
000050 8c 3c 87 3e 15 4c af bd 02 32 7b 3d 11 e7 87 3d
       0.2641338 -0.08559433 0.061326988 0.06635869
000060 62 c8 f9 bd 3d 32 cf bc 97 87 e4 bd 95 53 8a 3d
       -0.12196423 -0.02529251 -0.11158674 0.06754223
000070 1e 83 2b bd a7 25 54 bd 7f 6d 9a bd 00 81 09 bd
       -0.04187309 -0.05179372 -0.07540416 -0.03357029
000080 4d 52 24 3b 0b 75 c9 bd 87 b1 e6 bd f7 4d ed bd
       0.002507347 -0.09836777 -0.112643294 -0.11587136
000090 47 83 09 bd 95 4d 25 3e 17 27 73 bd 94 85 ab 3a
       -0.03357246 0.16142876 -0.05936345 0.0013086074
0000a0 0f 21 1e 3e 87 4e a6 bd 64 64 4d be f8 8a f8 3d
       0.15442298 -0.08120447 -0.20057827 0.12135881
0000b0 7a 62 3d be 67 78 18 be 06 fb 8d bd 78 12 b1 3d
       -0.18494597 -0.1488968 -0.069326445 0.08646101
0000c0 ca 13 0d bd d1 10 5e 3e 51 38 ac 3e e0 38 db 3d
       -0.0344427 0.21686102 0.33636716 0.107042074
0000d0 14 d0 53 be 0b 14 e8 bc 5c c4 89 3d 1f c8 b8 3e
       -0.20684844 -0.02832987 0.06726906 0.3609018
0000e0 10 8a 08 be cd 8a b7 3c e2 00 dc bd 04 09 31 be
       -0.13333917 0.022405053 -0.10742356 -0.17288595
0000f0 3a 61 86 3d 1a e7 93 be 0a bf 50 3e db d2 32 3e
       0.06561513 -0.28887254 0.20385376 0.17463247
000100 4a 89 53 be 48 1e 75 be 3a 54 8d 3e d0 69 71 3e
       -0.2065784 -0.23937333 0.27603322 0.2357552
000110 cb 9d 31 bf ff 20 e7 be 35 66 8d 3c 74 76 7e 3c
       -0.693814 -0.45142362 0.01726065 0.015531171
000120 a9 7b bf be 56 17 f1 3d 10 1f 23 3e b5 bf 49 be
       -0.37399033 0.11772029 0.15929818 -0.19702037
000130 52 4e 28 bd b4 46 f2 3d 27 d5 99 3e 6f 82 2a bd
       -0.041090317 0.11829892 0.30045435 -0.041628297
000140 4f 72 05 bf 35 e0 f7 3d 60 e5 d2 3e 42 99 26 3e
       -0.52127546 0.12103311 0.41190624 0.162694
000150 c4 62 36 3e cc bc 8b 3d 46 94 78 3d 2a 41 9d 3d
       0.17811114 0.068231195 0.06068828 0.07678445
000160 cd 1b c2 bc b5 c2 77 3e 30 9c 46 3e 3f a6 3d bd
       -0.023694897 0.24195369 0.19395518 -0.046301123
000170 47 3c 50 3b 62 6f 2c be cb 0f 26 3d 2f e2 21 bd
       0.003177421 -0.16839364 0.040542405 -0.039522346
000180 4b 26 ad 3d 10 20 75 be 9a 9c a9 bc 02 ee a9 3c
       0.084545694 -0.23938012 -0.020704556 0.020743374
000190 b5 c8 86 3e 27 85 42 be 88 7a 98 3c 67 07 23 be
       0.26325002 -0.18996106 0.018613115 -0.15920793
0001a0 4b 20 0e 3e 2b 64 45 3e 95 a0 5a bd ec 0b ac be
       0.13879506 0.19276492 -0.0533758 -0.33602846
0001b0 8c 58 92 be 94 a0 aa be bc e8 1d 3e 69 30 71 bd
       -0.2858318 -0.33325636 0.15420812 -0.05888406
0001c0 3a 26 08 3c 5c 73 38 3d d6 11 c5 3e 93 67 0e 3e
       0.008309895 0.04503189 0.3849017 0.13906698
0001d0 93 a3 03 3d 58 9f 00 3e d7 12 5f 3e 1f 2a ca be
       0.03213842 0.12560785 0.2178453 -0.3948526
0001e0 2f a6 c0 3c e4 be bc bc 00 33 84 bb b8 8f 15 3e
       0.023516743 -0.023040242 -0.0040344 0.14605606
0001f0 91 cc d1 3e 88 b8 ba bd b3 86 05 bd a7 31 e4 bd
       0.40976384 -0.09117228 -0.032599162 -0.11142283
000200 2b d8 7b 3d b3 d0 87 3e 08 0a 10 3e 5c 15 14 3b
       0.06148545 0.26526412 0.14066327 0.002259574
000210 d7 f2 91 3e fc de 37 bc a9 e9 38 be 90 33 9e be
       0.28505585 -0.011222597 -0.18057884 -0.30898714
000220 44 0a 05 3d 5a e5 ee bd 60 a8 d2 bd de 6a f1 3c
       0.032480493 -0.11664839 -0.10286021 0.029469904
000230 62 9f dc 3d e4 7d d8 3d 6e 26 95 3d a0 f8 0b bd
       0.10772587 0.10570887 0.072827205 -0.034172654
000240 4b 30 a2 bc e7 3e 8a bd 25 db 95 be a3 6c 21 bc
       -0.019798419 -0.06750279 -0.29268757 -0.009852561
000250 45 4e 7c 3c bb 64 86 be dc cc 3d 3d c3 9d 9c 3d
       0.01539952 -0.26248726 0.046337947 0.07647278
000260 ed e2 2a be ae 66 d8 3e f2 3c d0 3c 6b 10 5f be
       -0.16688128 0.42265838 0.025419686 -0.21783607
000270 18 80 b2 3d ed 51 73 3e a6 c4 91 bd 2d 11 2d bd
       0.08715838 0.23761721 -0.07117586 -0.04225271
000280 86 89 1a bb fc 5e c0 be 21 29 b5 3d f8 8f 81 3e
       -0.0023580506 -0.37572467 0.08845735 0.25305152
000290 9c 2d 9c 3a 24 ee 83 bd a5 ca b0 be 8c ec 07 3d
       0.0011915448 -0.06441906 -0.34529606 0.033184573
0002a0 ff d7 da bd 83 d1 34 be 7b 8d 12 3c d2 57 1d 39
       -0.10685729 -0.17658047 0.008944864 0.00015005402
0002b0 72 03 43 3e cf 32 6a 3e 93 d3 07 3f 4b 56 a4 be
       0.19044283 0.22870944 0.5305721 -0.32097086
0002c0 21 8c 78 3c 13 75 4a 3d 0a cb b1 be 52 62 2e 3e
       0.015170128 0.049428057 -0.3472522 0.17029694
0002d0 a2 8e 90 3e 5a e2 2a be a6 cf 27 bf d0 82 3f 3e
       0.2823382 -0.16687909 -0.6555122 0.18702245
0002e0 8c cf 78 bd e2 29 0f 3d 22 59 f0 bc dc 9d e3 3c
       -0.060744807 0.034952052 -0.029339377 0.027785234
0002f0 e4 11 02 3e 3c 16 07 3e 52 23 f7 3d a7 02 1d 3e
       0.12702137 0.13192075 0.12067284 0.15333043
000300 cf fc 1c be 99 6e 36 3e 11 b4 18 be a2 fa cc 3d
       -0.15330814 0.17815627 -0.1491244 0.10008742
000310 c2 01 9f bd 4e 37 5e 39 7a ff 44 3c 9f 9d 8d be
       -0.07764007 0.00021192172 0.012023801 -0.27659318
000320 ce 79 44 3d e8 c9 8c 3d 1b a0 32 bc d2 a1 cc bd
       0.047967725 0.06874448 -0.01090243 -0.09991802
000330 37 87 4b be 0e f9 17 3d 57 4f 74 bc ca fd e3 bd
       -0.19875799 0.03710275 -0.014911494 -0.11132391
000340 e0 ae d1 3d 79 62 66 3d 91 35 f5 bd 0d 8b c6 3e
       0.10238433 0.056246255 -0.119731076 0.38777962
000350 89 9c 0b be 01 6f b2 b9 10 f1 7c 3d 08 b9 4d 3e
       -0.13633932 -0.0003403351 0.061753333 0.20090115
000360 43 ec b6 bd 84 71 86 3e f3 60 62 3d d4 47 b1 bb
       -0.08931782 0.2625848 0.05526824 -0.005410174
000370 da 23 19 3e 97 f8 25 bf fe 43 79 3e bc 22 69 3e
       0.14955083 -0.64832443 0.24342343 0.22767156
000380 f4 af c1 3d 06 9f 5d be 00 42 03 3e 85 9e cd 3d
       0.094573885 -0.21642694 0.12818146 0.10040001
000390 f4 7c ce bd e4 4f 1d bd 39 2e 29 be 14 06 ac 3d
       -0.10082427 -0.038406268 -0.16521539 0.08399597
0003a0 f8 ff b0 3c ac 01 5c be c4 10 19 3d 6d 20 8f be
       0.02160643 -0.21485013 0.037369505 -0.27954426
0003b0 00 ac db 3d 4b 6d 1d be 49 45 9c 3c 0b 58 1a 3d
       0.10726166 -0.15373723 0.019076006 0.03768162
0003c0 b7 35 e2 3c 6a 11 49 3e 88 51 ff bd 69 f3 c7 bd
       0.027613504 0.19635549 -0.12466723 -0.09763224
0003d0 0f f2 5c 3e 82 68 79 3e 3e d9 4b be 7c 67 28 3e
       0.21576713 0.24356273 -0.1990709 0.16445726
0003e0 67 79 f9 bd 6f 84 6d be 50 c2 da 3d 94 78 07 be
       -0.12181359 -0.2319505 0.106815934 -0.1322959
0003f0 06 42 f4 bd 63 25 1f 3b c8 6b b0 bd 22 28 4d bc
       -0.119266555 0.0024283759 -0.08614308 -0.012521775

conv2.bias f4 [16]
000000 e5 10 00 3c c9 7f 39 3b fc fe c0 bb 75 97 41 bb
       0.007816528 0.0028304926 -0.0058897715 -0.0029539738
000010 3b 05 40 bc 0e 7a c5 3b e8 4e e8 bb 91 bc 44 bb
       -0.011719997 0.006026513 -0.0070894845 -0.003001962
000020 20 dc 5f bc e5 37 fd bb b7 7a 48 3c a5 1b 53 3b
       -0.013663322 -0.0077276104 0.012236289 0.0032212522
000030 98 94 c1 bb 3c 20 a6 bb 28 6d 80 3c 66 79 01 3a
       -0.0059076063 -0.0050697606 0.01567705 0.0004939049

conv2.fc_self.weight f4 [16, 16]
000000 74 27 d2 3e 33 67 ca 3e de 3a 34 3e 05 79 c9 3e
       0.41045725 0.3953186 0.17600581 0.39350143
000010 c6 0d 96 3e 3d ce 92 be 69 8d c1 be c8 86 6f be
       0.29307383 -0.28672972 -0.378032 -0.23391259
000020 d2 3f 25 3e a8 af 19 3e 3d 97 8d bc 06 ff 6c be
       0.16137627 0.15008414 -0.01728403 -0.23144159
000030 bc 7e 43 be c7 a7 05 3e b1 e0 dd be 9e db b4 bd
       -0.19091314 0.13052283 -0.43335488 -0.08830951
000040 42 74 d6 be 75 98 da 3e 69 3e c8 be 81 61 9b be
       -0.41885573 0.4269444 -0.39110115 -0.30347827
000050 10 74 89 be 65 70 b9 be f5 51 11 3e 51 f0 87 be
       -0.2684636 -0.36218563 0.1419142 -0.26550534
000060 43 79 87 bc 6b f3 59 be 7d 6c ca 3e fd 07 1b 3f
       -0.016537314 -0.21284263 0.39535895 0.60559064
000070 f3 05 63 3e e8 5c d9 bd 34 82 8a be f3 ac 7a bd
       0.22170238 -0.106134236 -0.27052462 -0.061200093
000080 f8 75 dc bc a4 2e 3f 3c 7a ca 37 bc 90 89 c6 be
       -0.02691172 0.011668835 -0.011217708 -0.38776827
000090 55 63 96 bd b3 db cf be 33 77 78 be 0d 16 90 3d
       -0.07343165 -0.40597305 -0.24264221 0.07035456
0000a0 a8 d5 bc 3e 6e 89 c2 3e 95 c1 fb 3d 16 8c 1e bd
       0.36881757 0.37995476 0.12292782 -0.038707815
0000b0 cf 97 9b 3e 95 8d 0d bd c1 cf 18 be 54 5f b3 be
       0.30389258 -0.03455885 -0.14923002 -0.35033667
0000c0 31 12 ae be 66 80 ac be d5 b4 9e 3c 60 28 8c 3e
       -0.33998254 -0.3369171 0.019373337 0.27374554
0000d0 5b 97 ec be 96 5e 65 be 5e 5e af 3c 1a 91 b8 3e
       -0.46209225 -0.22399363 0.021407302 0.36048204
0000e0 2d 24 ff be f2 f5 04 3e 5a 78 a4 3e 39 07 17 3e
       -0.49832287 0.12984446 0.3212307 0.14748849
0000f0 d1 16 cc 3c a6 5f 81 3e e0 d0 c0 3e b2 b2 35 bd
       0.024913223 0.25268286 0.3765936 -0.04435987
000100 be 18 a6 be 74 fa ec ba 24 bd 8d 3e d0 c3 e3 be
       -0.32440752 -0.0018080012 0.27683365 -0.4448533
000110 fc de 81 bd 30 8e 27 be 59 d1 6e 3d dc e4 64 3e
       -0.06341359 -0.16362834 0.05830512 0.22352928
000120 eb 93 ab 3e cc db 43 3e 77 e1 7d 3e b9 48 9a 3d
       0.3351129 0.19126815 0.2479304 0.07533402
000130 e5 07 2a 3f aa 1c 48 be a6 41 76 bd f7 fe 03 be
       0.66418296 -0.19542184 -0.0601212 -0.1289023
000140 3f 0e 61 3b 2a 89 04 3e 51 17 aa 3e b5 82 56 bd
       0.0034340767 0.12942949 0.33220914 -0.052370746
000150 ec ba 01 be aa 1c 8b 3e 96 cb f0 3e 84 63 bd be
       -0.12668961 0.27170306 0.47030324 -0.36989987
000160 0a a8 a9 3e 81 59 b3 3e dc c2 b6 be 2e cc bf be
       0.33136016 0.35029224 -0.3569554 -0.37460464
000170 5e 87 09 bf 8e cd 9f 3e 06 ef b2 be df 07 a8 be
       -0.5372218 0.31211513 -0.34947985 -0.32818505
000180 95 cb 8e 3e ef 17 a7 3d eb 31 9c 3c 9a 9d a6 3e
       0.27889696 0.08158862 0.019066771 0.32542115
000190 43 79 23 3f 1f b6 bc be 97 3b e3 bc 4e 62 ec 3e
       0.63856906 -0.36857697 -0.027738376 0.4616875
0001a0 25 a5 19 be 53 60 f7 bd 6c 59 ae 3e 6c 4d ea be
       -0.15004404 -0.12078919 0.34052598 -0.45762193
0001b0 1c b1 f9 3d a0 a8 90 be 5c a4 43 3e 91 a7 b2 3e
       0.12191984 -0.2825365 0.19105667 0.34893468
0001c0 15 b8 b5 3d 7d b1 41 3e 5f 2b ce be 4d 39 ab be
       0.088730015 0.18915363 -0.40267465 -0.33442155
0001d0 c1 98 f5 3e ad 03 01 3e 22 c7 88 3b d0 46 ac be
       0.47968104 0.12599058 0.004174129 -0.33647776
0001e0 52 5a 08 3e ef 20 97 3e 5e 04 ee be 2e 51 ab be
       0.13315704 0.29517314 -0.46487707 -0.33460373
0001f0 93 61 06 be be 13 a3 be 03 0c 01 bc 59 fa c8 bd
       -0.13123159 -0.31851 -0.007876399 -0.09813375
000200 f7 d2 5b be c9 26 c2 3e ad a1 9c 3e 07 81 16 bf
       -0.21467195 0.37920216 0.305921 -0.5879063
000210 3d cf 87 bd 8f c5 af bd 61 60 79 be b6 d4 98 3e
       -0.066313244 -0.08582603 -0.24353172 0.29849786
000220 9c 4e 16 3e 00 d9 9f bc f6 7a ba be d3 d4 9a 3e
       0.14678425 -0.019512653 -0.36421937 0.30240497
000230 11 0f b2 3d 52 42 f3 bd 47 b7 2e be da d9 52 be
       0.0869428 -0.11877884 -0.17062102 -0.20590916
000240 28 c5 83 3e ec cc 11 3e 6e 79 1f 3e 01 df 29 be
       0.25736356 0.14238328 0.15573665 -0.16588975
000250 cf 9b d3 3e 0f 20 ab 3d de ad ed 3d 76 1a d1 3e
       0.4132981 0.08355724 0.11605428 0.408405
000260 46 cd d7 3e 38 63 ae bd de c8 0f 3e 2e 2e 8a bd
       0.421488 -0.08515018 0.14041469 -0.06747089
000270 34 3a 01 3f 9a b6 45 be da 74 a0 be ba 5f 91 be
       0.50479436 -0.19307938 -0.3133915 -0.28393346
000280 50 8a f6 3e d4 c4 bd be b9 12 a4 be 6f 98 24 be
       0.481524 -0.3706423 -0.32045534 -0.16073774
000290 b0 ab 16 3e f1 7d 9b be 56 be 17 be 9b 45 72 be
       0.14713931 -0.30369523 -0.14818701 -0.23659365
0002a0 34 8d 1f be 9b ba fe 3d a3 fb c9 3d 2a 9f c7 3e
       -0.15581208 0.12437936 0.09862449 0.3898862
0002b0 4e ee ba bd bc 9f bc 3e 1f c8 08 be b1 61 41 3e
       -0.09127484 0.36840618 -0.1335759 0.18884923
0002c0 39 b3 da 3e 5b 5c e7 bd 6f d1 a6 be ff 28 8a 3e
       0.4271486 -0.11296912 -0.3258166 0.26984403
0002d0 49 10 a8 be 43 34 f8 bd e0 32 79 be d0 ec f2 bd
       -0.32824925 -0.12119343 -0.24335814 -0.11861575
0002e0 46 16 b2 bb f5 21 72 be 26 da 37 3e 73 2f ba bc
       -0.005434784 -0.23645766 0.17954311 -0.022727704
0002f0 19 0d d2 3c e6 c1 ce 3d d6 b0 36 be 79 37 99 be
       0.025641011 0.10095577 -0.17840895 -0.29925135
000300 bf e3 30 bd 1b b1 88 be 5f f4 49 3e 3d 5a 0a 3f
       -0.043185946 -0.2669762 0.19722126 0.5404394
000310 98 c1 5d 3d 70 d7 bd be e5 1c eb 3d 9d 89 df 3e
       0.054139704 -0.37078428 0.114801206 0.43659678
000320 70 b3 53 bd 50 0e 71 bc 18 14 70 3e 80 fc ac 3e
       -0.051684797 -0.014712885 0.23445165 0.33786392
000330 af 1c eb 3e 55 97 52 be ad 35 ad 3e e1 17 05 3e
       0.4592032 -0.20565541 0.33830014 0.1299739
000340 a5 ab 59 be a0 4a 98 bc 54 47 0c 3e bd f1 91 3e
       -0.21256883 -0.018590271 0.13699085 0.28504744
000350 f0 1b 90 be a7 1a 6a 3c 8b 75 59 be fc c1 06 bc
       -0.28146315 0.014288581 -0.21236245 -0.00822496
000360 b4 3c 17 be 79 a4 57 be d9 35 81 bb 6f 14 cf b9
       -0.1476925 -0.21058835 -0.0039431867 -0.0003949734
000370 6e 25 ae 3e aa 77 21 be ab bc b4 be 4c d4 fb be
       0.34012932 -0.15768304 -0.35300192 -0.49185407
000380 0f d1 7b be 78 d8 06 bc 85 f8 71 3e 8e 1a 49 be
       -0.24591468 -0.008230321 0.23629959 -0.19639036
000390 12 eb b1 be 62 d0 17 be 9b c2 bc 3e aa c4 b2 be
       -0.34749657 -0.14825585 0.36867222 -0.34915668
0003a0 96 0d 41 be 15 27 45 3e 90 44 e6 3c 86 de 18 3e
       -0.18852839 0.1925319 0.028108865 0.14928636
0003b0 9d 3a b2 be 41 d7 a5 3e ce f4 45 be d8 03 2a 3e
       -0.34810343 0.32390788 -0.19331667 0.16603029
0003c0 0f 04 cb be cf 75 16 bd 5e 1a c3 be 13 02 74 3e
       -0.39651534 -0.036733445 -0.38106054 0.23828916
0003d0 51 97 23 3e 41 26 48 3e 3c 62 82 3e d8 b0 c7 3e
       0.15975691 0.19545843 0.25465572 0.3900211
0003e0 3f 12 0a 3c ae c5 4b 3d c7 f7 24 3d e4 25 98 be
       0.008427202 0.04974907 0.04027536 -0.29716408
0003f0 fa 84 47 be 4f 0d 68 3d 45 85 b2 3e 5d c1 5b 3a
       -0.1948432 0.056653317 0.34867302 0.00083830004

conv2.fc_neigh.weight f4 [16, 16]
000000 c9 1c 8c be 74 73 47 3f d9 55 34 be bf 1b ca be
       -0.2736571 0.7791054 -0.17610873 -0.39474294
000010 02 e4 95 3e a0 63 2b 3c f5 28 99 be 94 20 f0 be
       0.2927552 0.010460764 -0.2991406 -0.46899855
000020 c2 48 f9 3e ad d0 d4 3e 0c 24 9a 3e e1 df 65 be
       0.48688322 0.41565457 0.30105627 -0.22448684
000030 21 bc 48 bb 2a de 1f 3f c0 ac ab 3d 74 d1 22 3e
       -0.0030629712 0.6244837 0.08382559 0.15900213
000040 1f 8d ab 3c 52 c1 df bd f3 32 13 be ac 1a c2 3e
       0.020941315 -0.10925545 -0.14374904 0.37910974
000050 a1 48 53 bf 20 b4 94 be a5 5f 2f 3e 98 5a 1a bf
       -0.825327 -0.29043674 0.17126329 -0.60294485
000060 d8 ca 2a bf 40 d6 d8 3c 10 d4 98 3e fd 76 24 3f
       -0.66715765 0.02646935 0.2984929 0.6424406
000070 cc 8e b1 be 53 ee 39 3d 56 c2 09 bf ef 2e 13 bf
       -0.34679258 0.0453933 -0.5381216 -0.5749349
000080 8b 10 f7 be 6d 16 71 be 95 32 4e 3e e0 92 a1 bd
       -0.4825481 -0.23543711 0.20136483 -0.07889342
000090 7f 5f ee bd 4d bc 13 bf 32 3a a0 3d 39 14 9e be
       -0.11639308 -0.577092 0.078236 -0.30874804
0000a0 9f b4 5a 3d 26 9e d2 be ee d4 1e be ac c9 a4 be
       0.05339491 -0.41136283 -0.15510914 -0.32185113
0000b0 03 db 4a 3e a5 a3 3a 3f d9 9b cb 3e 06 e0 28 3e
       0.19810109 0.7290595 0.3976734 0.16491708
0000c0 5f ca a4 be 19 bd ae 3c 25 14 34 3e ca 48 ad 3e
       -0.32185647 0.021330403 0.1758581 0.33844596
0000d0 84 fe 13 bd 55 f5 56 3c 05 b0 d1 bc 69 f2 91 3e
       -0.036131397 0.013120015 -0.025596628 0.28505257
0000e0 04 06 fd 3d 18 f5 35 3f 32 29 84 3e 98 e7 cd be
       0.12354663 0.7107711 0.2581268 -0.40215755
0000f0 06 35 c4 3e fd db c5 bd de 21 c5 bd 60 2b 16 be
       0.38321704 -0.096611 -0.096256 -0.14664984
000100 b9 90 ad bd e3 c8 0c bf db 5a ba 3e 92 2f 0e bf
       -0.08474869 -0.5499403 0.36397442 -0.55541337
000110 f8 78 ae be 6f 30 ee bd 30 2a 28 3d ce a2 07 3f
       -0.34076667 -0.11630332 0.041055858 0.52982795
000120 bd d7 91 3e 7b 5b 8b 3e 89 fb dc 3e 98 d4 40 3e
       0.28484908 0.27218232 0.43160656 0.18831098
000130 f8 1d 60 3f ee 77 1e bf 0b c2 f3 3e f7 b9 90 3e
       0.8754573 -0.6190175 0.4760898 0.2826688
000140 88 a8 43 3c a8 4b e8 bd e0 48 33 bf e1 59 1a bf
       0.011942036 -0.11342555 -0.70033073 -0.60293394
000150 b6 af aa be cb 83 9a be 96 6c f7 3e 0f 56 8a 3e
       -0.33337182 -0.30178675 0.48325032 0.27018782
000160 10 1a 58 3f 80 25 2a be 58 db de 3c 11 34 fc 3d
       0.8441477 -0.16615868 0.0272042 0.123146184
000170 a0 af 62 3e 43 92 83 be 30 0a 81 be 6a 71 ff bd
       0.22137308 -0.25697526 -0.25203085 -0.12472804
000180 fc e3 8e 3e ac b5 f5 3d 73 5e 76 3d 7a 2d ce be
       0.27908313 0.11997542 0.060148668 -0.4026907
000190 35 15 26 3f 9a e8 84 be 01 2f 73 3e 95 9d 63 bd
       0.6487611 -0.2595871 0.237484 -0.055570204
0001a0 a8 62 08 bf f0 d7 8f be 6a 03 46 3f 77 37 24 be
       -0.5327554 -0.28094435 0.7734896 -0.16036783
0001b0 03 75 5a be f1 e3 0f 3e 7a c9 df 3d 93 3e 49 be
       -0.21333699 0.14051796 0.109271005 -0.19652776
0001c0 c6 d4 d5 3e 1d b6 b0 3e 7e 59 47 bf ee 2f 06 bf
       0.41763896 0.3451394 -0.7787093 -0.52416885
0001d0 f7 e3 72 3e a0 60 f5 be 30 c0 b5 bd 6b 4d 30 3e
       0.23719774 -0.47925282 -0.088745475 0.17217033
0001e0 4c a2 8e be c1 40 f9 3e 76 8c 92 bd b6 43 15 3e
       -0.27858198 0.48682216 -0.07155697 0.14576611
0001f0 2b 3b 3c 3d 9b 24 d7 be 71 a1 ee 3e b8 54 92 be
       0.045954864 -0.42020115 0.46607545 -0.2858026
000200 50 5a 22 3f 87 d2 ca 3d 26 d6 22 3f ff 7e 04 bf
       0.63419056 0.09903436 0.63608015 -0.5175628
000210 fc b2 a8 be 7b fc 7d be 15 61 0b bf f0 34 e6 3e
       -0.32949054 -0.24803345 -0.5444501 0.44962263
000220 e8 9c 9a be 5a b6 8a 3d 68 44 a7 be 11 00 db 3e
       -0.30197835 0.06773062 -0.32669377 0.42773488
000230 f9 35 0d bd 18 50 95 3e 57 0c 66 3e 3e 19 da be
       -0.0344753 0.2916267 0.22465645 -0.42597383
000240 fa 7c 11 3f 26 f3 ec be 68 af 1b be 7c 04 a2 be
       0.56831324 -0.46279258 -0.15203631 -0.31644046
000250 b8 ca fa bd bb 64 a4 3e 8d b7 0a 3f e0 ec 06 3f
       -0.12245697 0.321081 0.54186326 0.5270519
000260 04 d1 31 be ed 99 77 be fe ab bd bb c2 5f 6c 3c
       -0.1736489 -0.24179812 -0.0057883253 0.014427127
000270 0a 4b 39 3e a1 1b 94 3e 75 a0 01 3f 79 18 61 bf
       0.18095031 0.2892733 0.50635463 -0.8792797
000280 93 f5 0a 3f 0d 4b 86 be 8f 91 ce be ac b3 0e 3e
       0.54280967 -0.26229134 -0.40345427 0.13935727
000290 b8 6e be 3e b1 e4 89 3e 8c e1 3a 3e e1 cf 03 bf
       0.37193847 0.2693229 0.18250102 -0.51489073
0002a0 bb 65 86 be 21 15 5a bb aa b8 8a be 91 42 e2 3e
       -0.2624949 -0.0033276754 -0.27094012 0.4419141
0002b0 0e fc 1a 3c 9d c8 61 3f 1a 2f 97 bd 0c 2a 7f bd
       0.009459509 0.88196737 -0.07382031 -0.06229596
0002c0 bc 7a 8a 3e 87 56 1c 3e 95 d1 86 3e f4 9f 22 be
       0.27046764 0.15267383 0.26331773 -0.1588133
0002d0 60 db 91 3e 9c 1d 62 3e 1f fe a2 3e 8a cf f6 bd
       0.28487682 0.22081608 0.31834504 -0.12051304
0002e0 df 94 2d 3f d5 d1 ac be 44 a8 97 3e 89 78 18 3e
       0.67805284 -0.3375384 0.29620564 0.1488973
0002f0 b5 00 4c 3f 28 73 04 3e 32 c0 01 3e 3d 4e 98 3e
       0.7968858 0.12934554 0.12670973 0.2974719
000300 04 75 86 3d 1b aa 1e bf f7 17 11 3f 8b 9e 67 3f
       0.06565288 -0.6197831 0.5667719 0.9047629
000310 b6 2a 1d 3e 0e c1 9a be 6b 45 8c be 96 18 62 3e
       0.15348324 -0.30225414 -0.27396712 0.22079691
000320 fd 5d d0 3e e4 d6 19 3f 9d 1f a4 3e 4e 72 25 3e
       0.40696707 0.6009352 0.3205537 0.16156885
000330 83 bd ab 3d 2d 9c 24 be 15 db 04 bf 51 86 6c be
       0.08385756 -0.16075201 -0.5189679 -0.23098113
000340 66 d7 a4 be cb c6 3d bd 87 1b 75 3f 7b fa 9f 3d
       -0.32195586 -0.046332162 0.9574513 0.07811447
000350 b8 65 38 3f 33 fd 94 3e 8e 8e e6 bd ba 99 88 be
       0.7203021 0.29099426 -0.11257659 -0.26679784
000360 eb 9e 96 3e 70 6b 57 3e a4 54 02 bf cd 30 85 be
       0.2941812 0.21037078 -0.509104 -0.26013795
000370 bc da 1c 3f fa 9e 46 bd bb 60 85 be db 76 bc be
       0.6127126 -0.048491456 -0.26050362 -0.3680943
000380 bb 38 a8 3e 3f 87 c0 bc 3c e4 06 3f 2c ea 93 be
       0.32855782 -0.02350199 0.5269201 -0.28889596
000390 83 63 dc bc fc 52 f5 3e 6d 81 0e 3f 6f f9 25 bf
       -0.02690292 0.47914875 0.5566624 -0.6483373
0003a0 80 81 e5 3e 28 bd 0d 3f b4 7f 82 3e 4a 96 08 be
       0.44825363 0.55366755 0.25488055 -0.1333858
0003b0 5a 45 86 3e e4 55 81 3e 7c 39 67 be a7 98 8f 3e
       0.26224786 0.25260842 -0.22580522 0.28046152
0003c0 57 c6 3b 3d 2c 04 93 3e 95 ea 14 bf c3 f3 e7 3e
       0.04584345 0.2871412 -0.58170444 0.45303163
0003d0 1a 24 25 3e 51 a6 81 bd a0 65 1c be f7 63 42 3f
       0.16127053 -0.063305505 -0.15273142 0.75933784
0003e0 d1 de 5e 3e fb 88 a0 3d 25 f0 2f 3f af 4c c0 be
       0.21764685 0.07838627 0.68725806 -0.37558505
0003f0 2b c3 18 3e fe 42 a2 bd 07 ef c0 be 02 f0 a7 3d
       0.149182 -0.07922934 -0.37682363 0.08200075

conv3.bias f4 [16]
000000 48 2c 95 ba 54 68 21 3c 67 dd bc 3b f4 12 eb bb
       -0.0011380995 0.009851534 0.005763698 -0.0071738902
000010 c1 38 b7 3b 07 90 ee bb a9 73 ef 3a d2 54 29 bc
       0.0055914824 -0.007280353 0.0018268722 -0.010335164
000020 ff 30 a6 3b 60 c1 df 3b 41 c7 b9 b9 5b 7e 5a 3c
       0.0050717588 0.006828472 -0.00035434405 0.01333579
000030 15 ee 45 3a be 42 26 bc e1 70 08 3c 1a ee 2a bc
       0.00075504306 -0.0101477485 0.008327694 -0.010432744

conv3.fc_self.weight f4 [16, 16]
000000 af 1b 6b be 8d 7f a8 be 42 c9 91 3e 12 64 1f be
       -0.22959779 -0.32909814 0.2847386 -0.15565518
000010 56 94 bc bd 5a ea e0 be 22 e5 61 be 34 e0 dd 3c
       -0.0920798 -0.43928796 -0.22060063 0.027084447
000020 69 f7 f8 bb a2 b4 54 3e 16 8a d1 bd bf d4 58 3e
       -0.007597853 0.20772031 -0.10231416 0.21174906
000030 27 11 b3 be 17 0b 9a be e4 81 dc 3e 39 f1 38 3e
       -0.34974024 -0.30086586 0.4306785 0.18060769
000040 b1 04 22 be 4b 38 2f be 01 7e 02 3e 46 b4 e3 bc
       -0.15822102 -0.17111318 0.12743379 -0.027795922
000050 13 df 1b bd f5 47 be 3e e7 f7 d1 3e 3b 79 68 be
       -0.038054537 0.37164274 0.41009447 -0.22702496
000060 9a ba a1 3d 57 17 72 be aa b6 c3 bd fb 0c 13 be
       0.078969195 -0.23641716 -0.09556325 -0.1436042
000070 83 32 69 3d b8 a3 cc bd f7 ea d1 bc 7f 2b 32 be
       0.056932937 -0.099921644 -0.025624735 -0.17399405
000080 17 13 a1 be 7a 86 f9 3d cf 7e 89 3e 8e 2f 7b be
       -0.31459877 0.121838525 0.2685456 -0.2452986
000090 77 df dd 3d 89 2b d5 3e 7f 83 03 3f db 26 f0 be
       0.10833638 0.41634777 0.5137252 -0.46904644
0000a0 2e b7 b2 bb 8c bb 34 3c 5c 4f f8 3d e3 ed 91 3e
       -0.0054539656 0.011031043 0.121245116 0.28501806
0000b0 20 dd 74 bc 13 ea c5 be 3e a2 41 be 81 e6 a6 3d
       -0.014945298 -0.38655147 -0.18909547 0.08149434
0000c0 63 f5 4e bc ae d0 aa be b2 78 a6 be ed 48 d1 3e
       -0.012631747 -0.33362335 -0.32513958 0.4087595
0000d0 d6 eb 50 be 20 e2 b6 3d 9d fc 9b 3d ee f3 b1 3e
       -0.20402464 0.08929849 0.076165415 0.34756416
0000e0 3c 9b 06 3f ec 87 b6 3e 09 ae 93 bd 2d 80 e5 3e
       0.5258062 0.35650575 -0.07210929 0.44824353
0000f0 a4 3f 10 3f cf c6 bc be c4 1e 8c 3e c0 71 94 be
       0.5634711 -0.3687043 0.27367222 -0.28993034
000100 f7 f4 de be 70 96 08 be b0 86 02 3e b2 67 d5 be
       -0.43546268 -0.13338637 0.12746692 -0.41680676
000110 5a bc c3 3c cb 2e c7 3e 6a ca 5b 3e 29 f9 20 3e
       0.023893524 0.38902888 0.21463934 0.15720047
000120 45 05 00 bd 25 ab 99 be 23 e2 56 3e c4 9f be bd
       -0.031255025 -0.30013385 0.20984702 -0.093078166
000130 83 19 78 3e 44 cc ac 3e f2 00 22 bd 57 9a 1c be
       0.24228482 0.33749592 -0.039551683 -0.15293251
000140 45 98 88 3e a8 33 cc 3e 62 4f c9 be 3b b7 e1 be
       0.26678672 0.3988316 -0.39318377 -0.44085106
000150 4a d2 9a 3d aa 75 b6 be e1 22 64 3d bd 22 07 be
       0.07559641 -0.35636646 0.055697326 -0.13196845
000160 b8 18 92 3d 17 72 80 be 36 54 5e be d4 81 34 3e
       0.07133621 -0.25087044 -0.21711811 0.1762765
000170 78 37 cf bd 44 e0 f0 bd 0b 6b a6 3e b9 09 a7 3e
       -0.10118002 -0.11761525 0.32503542 0.32624605
000180 a6 26 62 3e 9b 33 bd be 4f 54 ff 3d 55 ff 8c be
       0.22085056 -0.36953434 0.124672525 -0.27538553
000190 6a e4 0a 3f e3 5b f9 bd 95 43 e5 3c c3 b9 66 be
       0.5425478 -0.12175729 0.027986327 -0.225318
0001a0 6e 95 9c 3e 37 2f 84 be 06 ce 6f 3e bd 58 15 3e
       0.30582756 -0.25817272 0.23418435 0.14584632
0001b0 2f 40 5a be 97 cc ad 3d 90 cc 63 be 3f af 11 3e
       -0.21313547 0.08486288 -0.22246003 0.14227007
0001c0 68 b1 f2 bc 9f 9e 86 be 4b 05 61 be 88 3f 62 be
       -0.02962561 -0.26292893 -0.21974675 -0.22094548
0001d0 66 f9 f7 3e 54 14 cf be cb 1b 0c bf 37 a9 0c 3e
       0.48432463 -0.40445197 -0.5472991 0.13736425
0001e0 9d d2 bf be 01 dd 06 3e d8 0b 85 3e 0b 59 a5 3e
       -0.37465373 0.13170244 0.259856 0.32294497
0001f0 74 62 2c 3e 9b a9 4f be c1 da f7 bd 57 6b c4 3e
       0.16834432 -0.20279543 -0.12102271 0.38363144
000200 37 ee 80 be 91 32 bc 3d a1 f7 f9 3e 3d 2f 3d bd
       -0.25181744 0.09189332 0.48821738 -0.046187628
000210 b7 28 c2 be 56 35 43 3e ec 90 f5 bd d2 89 9a 3d
       -0.37921688 0.19063315 -0.11990532 0.075458184
000220 91 1b 70 be 72 d8 52 3e 4b ab 6b be 1e 68 9d 3e
       -0.23448016 0.2059038 -0.23014562 0.30743498
000230 a8 66 86 3e 74 ab d0 be ff ec 31 be 40 2e 97 bd
       0.26250196 -0.40755808 -0.17375563 -0.07381868
000240 23 47 aa 3e 31 48 8c 3e 40 49 99 be 58 f8 00 be
       0.33257398 0.27398828 -0.29938698 -0.12594736
000250 7a 00 ed 3d 07 cb 76 3e 7a 94 ef bd 55 84 83 be
       0.115723565 0.24100886 -0.116982415 -0.256869
000260 6a d7 9b 3e a0 4e 1b 3e 88 69 08 3d b0 97 f7 bd
       0.30437785 0.15166712 0.033303767 -0.12089479
000270 97 0c 81 3d c4 78 2e 3d ad 46 fb bc 42 f8 49 3c
       0.063012294 0.04259564 -0.03067335 0.012327256
000280 2b 5d 1c 3e 4f 54 dd 3e c8 4c 24 3e 50 26 55 3e
       0.15269916 0.43228385 0.16044915 0.20815396
000290 89 cb 8f bd ac 39 c1 3e 82 37 73 3e b0 bc 83 3e
       -0.07021243 0.37739313 0.23751643 0.25729895
0002a0 92 02 7e be 5a 4f a3 be bc 9a 52 3e 41 30 5d 3e
       -0.24805668 -0.31896478 0.20566839 0.21600439
0002b0 2c 5e 69 3e 2c c4 4d 3e 1b 72 2a bd 90 49 da be
       0.2278983 0.20094365 -0.041612726 -0.4263425
0002c0 93 1f 9e 3e 05 7a a5 3e 03 46 48 3e 2b a0 40 be
       0.30883464 0.32319656 0.19557957 -0.18811099
0002d0 34 66 a8 3e 08 0f a3 3d a1 05 9e 3d 85 2b d9 be
       0.32890475 0.07961851 0.077159174 -0.42416015
0002e0 4a 9e 5c 3e 0a 0e 20 bf 8e fb 43 3e 5c 52 7a be
       0.21544757 -0.6252142 0.19138929 -0.2444548
0002f0 82 b6 44 be 02 d8 a1 3d 06 9a 14 bf 45 f9 ae 3e
       -0.19210246 0.07902528 -0.5804752 0.34174553
000300 fc 84 2d 3d c0 f3 03 3f 11 cf c6 bd d3 23 9e 3c
       0.042363152 0.5154381 -0.097074635 0.019304192
000310 4c e1 a9 3e a4 62 b1 3e fa a6 20 3e 79 85 58 3e
       0.331797 0.3464557 0.15688697 0.21144666
000320 30 24 90 3e e7 c6 06 be ef 71 64 3e 18 12 ca 3d
       0.2815261 -0.13161813 0.22309087 0.09866732
000330 ac 64 ab bd 80 6e f2 3e 17 c5 f8 be 6d 40 91 3e
       -0.08368811 0.4734993 -0.48587868 0.28369465
000340 8c 02 2e 3c 8b 80 23 3e 83 44 b3 bc 10 ce d7 bd
       0.010620724 0.15967004 -0.021883255 -0.1053735
000350 7b 61 3c 3d 56 e2 ad 3e 11 b4 c0 bd 1d 28 98 3e
       0.045991402 0.33961743 -0.09409345 0.29718104
000360 6c 68 2e be 92 a1 1f be 91 1f 85 be 4b 82 45 3e
       -0.17032021 -0.15588978 -0.26000646 0.19287984
000370 47 45 55 3e 20 0a d8 be 44 ac 0e 3e ef 99 23 3e
       0.20827208 -0.42195225 0.13932902 0.1597669
000380 e8 cb c5 3e 22 18 7f bd 65 c0 a8 be 91 45 7a be
       0.3863213 -0.062278874 -0.32959285 -0.244406
000390 4a 55 8c 3d 2c 71 b8 bd 12 97 d9 bd 20 56 81 bc
       0.06852205 -0.09005961 -0.106245175 -0.015788138
0003a0 55 e7 90 be 0b 6a 8e 3e f4 8a a9 bc 2a f3 a4 3b
       -0.28301492 0.2781528 -0.02069614 0.00503387
0003b0 19 2f c2 be de 37 f8 3e 08 e8 82 be cd b9 b0 3d
       -0.37926558 0.48480123 -0.2556765 0.08629189
0003c0 64 9d b8 bd 13 25 66 3d 1e e7 a0 3e bf 74 ad 3e
       -0.09014395 0.0561877 0.31426328 0.33878133
0003d0 6b a5 82 3e 24 30 ef bc b8 4c 4d 3e e8 a1 ca 3e
       0.2551683 -0.02919776 0.20048797 0.3957665
0003e0 3c 06 8f be b1 75 fa bd af 93 8e 3d 30 d3 2b 3d
       -0.27934444 -0.12229479 0.06961762 0.04194945
0003f0 24 ae 9b bd 18 07 be bd f9 9b a8 3e 8b 54 a0 be
       -0.07601574 -0.09278697 0.32931498 -0.313145

conv3.fc_neigh.weight f4 [16, 16]
000000 10 0e b7 3e 00 f1 bc 3e df 57 18 3f fe 1d d5 3e
       0.35752916 0.36902618 0.5950908 0.41624445
000010 5e fc fe be 98 3e aa bd 98 59 e1 be 94 09 40 bd
       -0.49801916 -0.0831272 -0.44013667 -0.046884134
000020 60 fa 2a 3e ab 26 cf 3d 41 20 67 3e 6d 6f ba 3c
       0.16697073 0.10114797 0.22570898 0.02275821
000030 5d cc 0f bf 17 b0 b2 be b6 0f 00 be ad a6 29 3e
       -0.5617121 -0.3489997 -0.12505993 0.16567488
000040 f5 2e 63 3d 46 dd bf bc 15 f1 9c 3e d1 d3 0f bf
       0.055464704 -0.023420941 0.3065268 -0.5618258
000050 94 58 19 bf de ec e2 3e 4a 21 87 3e 3c 04 ea be
       -0.59900784 0.4432134 0.26392585 -0.45706356
000060 6a b2 70 be 67 d5 c1 be 37 62 b3 be 6a 08 7b be
       -0.2350556 -0.37858126 -0.3503587 -0.24514928
000070 c9 b1 a8 3e d2 99 b7 3d fe 97 70 3d 8d 59 43 3e
       0.3294814 0.08964886 0.0587387 0.1907713
000080 a4 e7 d5 3c 68 b5 50 3e 13 e9 d4 3e 44 7e c2 be
       0.026111431 0.20381701 0.41584072 -0.37986958
000090 0f 9b a6 3e 59 e1 e5 3e cc 23 31 3f a6 1e e7 3d
       0.32540175 0.4489849 0.69195247 0.112851426
0000a0 34 9f 8d 3e 19 14 03 bf 79 aa ea 3d af c1 c4 bd
       0.27660525 -0.5120254 0.11458296 -0.09607255
0000b0 eb 66 ae 3e 08 2f 97 be c0 6e 18 bc 11 8e a0 be
       0.34062895 -0.2952807 -0.009303749 -0.31358388
0000c0 f1 00 02 3f ed c5 10 bc 91 67 e0 be 11 af bd 3e
       0.50782686 -0.008836252 -0.43829015 0.37047628
0000d0 95 69 d7 be e8 ac c2 3d ce c0 3b 3e ef cf 32 3f
       -0.4207274 0.095056355 0.18335268 0.6984853
0000e0 57 10 f1 3e 9f 6e fd bd 9d 2d c3 3e a5 52 01 bf
       0.4708278 -0.12374615 0.38120738 -0.5051673
0000f0 e1 29 3f 3e b5 74 b8 3e 83 0d cd 3e 3c 71 ee 3d
       0.1866832 0.3602654 0.4004937 0.116426915
000100 ed e0 7e bd 7a a3 02 be 29 c8 bc bd 94 47 ae be
       -0.062226225 -0.12757674 -0.09217865 -0.34038985
000110 6e 88 39 3c b9 8b 29 3e f3 81 cc bd 5d a5 0b 3e
       0.011324031 0.16557206 -0.09985723 0.136373
000120 84 e7 37 3e 76 ee d6 be 3d e4 84 be 21 8e 35 3e
       0.1795941 -0.41978806 -0.25955382 0.17729999
000130 52 69 bb 3d e3 04 a9 bc ee 81 76 be 88 8d ba be
       0.09150948 -0.020632213 -0.24073002 -0.36436105
000140 9b 6e 41 3e 0b 77 c2 bd d4 2e 20 bf 1b dd 75 be
       0.18889849 -0.09495362 -0.62571454 -0.24010126
000150 8e e6 26 3e 14 4c ba be 2a fc 76 3e dc 02 a7 be
       0.16298887 -0.36386168 0.2411963 -0.3261937
000160 38 c4 03 3f c4 5c 2c be 92 63 74 3e 48 69 a9 3e
       0.5147128 -0.16832262 0.23866108 0.33088136
000170 05 44 3a 3e c5 5e 9f be f6 19 df be cb 25 35 3f
       0.1819001 -0.3112699 -0.43574494 0.7076079
000180 4e e6 38 3f 24 bb fb 3e 1f ea a7 3e 1d cf 80 3e
       0.7222642 0.49166214 0.32795808 0.25158015
000190 cd c9 81 3e c4 de 69 3c c2 3a 61 3e 11 33 8f 3e
       0.25349274 0.014274303 0.2199507 0.27968648
0001a0 e2 07 f5 bd 04 86 f4 3c 99 12 9e be 82 9d 01 3f
       -0.11964394 0.02984906 -0.30873564 0.5063096
0001b0 3f c8 00 bf 81 3a d7 3e 30 9f 68 3d 13 74 14 3f
       -0.5030555 0.42036822 0.056792438 0.57989615
0001c0 9a 66 b9 3e 70 47 ca 3e 06 93 9c be a5 b0 fa bc
       0.3621109 0.39507627 -0.3058092 -0.030601809
0001d0 3f 13 89 3e 62 0a 0c 3e 79 36 1b bf 7e 82 24 3e
       0.26772496 0.13675836 -0.60629994 0.16065404
0001e0 d7 ba ee be 58 1f 14 bf f2 08 11 3f 65 a1 a4 be
       -0.46626922 -0.57860327 0.56654274 -0.32154384
0001f0 d8 98 75 3e 80 eb 4e 3e c3 2b f3 bd d2 7a c8 bd
       0.23984087 0.20207024 -0.11873581 -0.09789051
000200 e2 38 a2 be 7d 55 f1 be 4d 2c fa 3d ed d5 6c be
       -0.31684023 -0.47135535 0.12215481 -0.23128481
000210 73 37 9a be 98 d4 b9 3e a8 6e 1a be bb 0a 99 3c
       -0.3012043 0.3629501 -0.15081275 0.018681874
000220 ea 57 2f bc bc d0 11 3f e3 85 06 3f a4 b1 dd 3d
       -0.010702113 0.5695913 0.52548045 0.10824898
000230 33 76 b0 3e fc cd 19 3d 8b 0b 2c bf 41 47 cc 3e
       0.3446518 0.037549958 -0.67205113 0.39898112
000240 fb f6 e2 3d 5a e3 d6 3d 86 d0 c7 be 80 a6 02 bf
       0.11082264 0.104925826 -0.39026278 -0.5103531
000250 81 58 ac bd 6c d3 5f 3c eb 39 f6 be f9 0f 01 bf
       -0.08415318 0.013661247 -0.48091063 -0.50415
000260 43 87 d2 3e 2c 47 06 3f 9e 02 8a be 65 67 ba 3e
       0.41118822 0.5245235 -0.26955122 0.3640701
000270 81 38 cb 3e c8 af 96 be d7 66 b2 3e 71 8a 51 3e
       0.39691547 -0.29430985 0.34844086 0.20462967
000280 36 35 57 3e ec 0d 2c 3e c7 d3 c4 3d 75 66 86 3e
       0.21016392 0.16802186 0.09610706 0.26250044
000290 83 c8 52 be 1b f0 01 3e c1 e0 47 3e aa 0c 2d 3d
       -0.20584302 0.12689249 0.1951933 0.042248406
0002a0 6d 92 1c be 34 a1 d6 3d b3 0f c8 3e 77 32 64 3c
       -0.15290232 0.10479966 0.39074478 0.013928047
0002b0 8f 78 9d 3e f2 60 ed 3e c0 f5 69 3e 71 2e 4b 3e
       0.3075604 0.46363026 0.22847652 0.19841935
0002c0 eb 6d 71 be 88 04 f9 be e5 1b 16 3f d2 78 b5 bc
       -0.23577087 -0.4863627 0.58636314 -0.022152338
0002d0 26 87 ca bd bc 88 79 3e c9 a3 c8 be c0 b2 e6 3e
       -0.09889059 0.24368566 -0.39187458 0.4505825
0002e0 cc dd 15 3f bd ab df be 9d 91 46 3e 9d 33 49 be
       0.5854156 -0.43685713 0.19391485 -0.19648595
0002f0 aa a4 36 3f 22 95 90 be 04 58 f8 be 44 62 bd be
       0.7134501 -0.2823878 -0.4850465 -0.36989033
000300 53 36 8f be 54 56 01 3f d5 94 24 be 9e 31 b3 be
       -0.27971134 0.5052235 -0.160724 -0.34998792
000310 1e 79 95 be e2 f2 44 be 56 37 03 3e 52 c1 0a 3f
       -0.29193968 -0.19233277 0.12814078 0.54201233
000320 64 b6 ac be b4 05 5f 3e 61 c4 09 bf 39 32 1b 3e
       -0.33732903 0.2177952 -0.53815275 0.15155877
000330 d0 14 d1 be c6 06 8d be d5 76 9b 3e 00 4a d6 be
       -0.4083619 -0.2754423 0.303641 -0.41853333
000340 00 7c d1 3e b2 6b 02 bf 4f 12 e6 be f4 b0 48 3e
       0.40914917 -0.5094558 -0.44935843 0.19598752
000350 ad 71 9d 3e 4d 31 a5 3e d8 16 59 be bd 03 eb 3e
       0.3075079 0.32264176 -0.2120012 0.4590129
000360 a4 73 01 3b 76 98 05 bd d6 92 9f be a4 dc 92 be
       0.0019752765 -0.0326161 -0.31166714 -0.2868396
000370 c8 56 5c 3e 15 33 06 bf d2 2f d1 3e df 79 93 bc
       0.2151748 -0.52421695 0.40856797 -0.018002449
000380 31 11 49 3e 31 ae 93 be a4 9b 79 bd 4d 27 3c bf
       0.19635464 -0.28843835 -0.060939446 -0.7349747
000390 d1 c7 a8 bc 5d 7f 3e 3e 1a c2 30 bd e2 ac 3c be
       -0.020603092 0.18603273 -0.04315386 -0.18425325
0003a0 aa 30 b4 bc 8c a9 e5 be fd e6 1b 3e a0 9f b6 3e
       -0.021995861 -0.44855917 0.15224834 0.3566866
0003b0 be 6a 4d 3e cf 9d 5d bd de 9a 89 be 35 a9 df be
       0.2006025 -0.054105576 -0.26875967 -0.43683782
0003c0 97 01 67 be 55 a7 2d bf ae 06 c0 be d1 60 09 bf
       -0.225592 -0.67833453 -0.37505096 -0.53663355
0003d0 23 ef 6f 3e 7c d3 df be e8 ca 9d bc 29 ff eb be
       0.23431067 -0.43716037 -0.019261792 -0.4609311
0003e0 6c f7 4c 3e 71 8c f5 bc 43 17 c8 3e 56 bc ed 3e
       0.20016259 -0.029974194 0.39080247 0.4643275
0003f0 aa 12 34 be 87 14 eb be 8e d4 43 3e 39 21 e4 be
       -0.17585245 -0.459141 0.19124052 -0.44556597
