model.pth (torch, 29387 bytes, 9 tensors)

conv1.bias f4 [16]
0	0x3c219a22	0.009863408
1	0x3ba0cc4d	0.004907167
2	0xbbe0ec09	-0.006864075
3	0xbaba7822	-0.0014226476
4	0xbb144c89	-0.0022628626
5	0x3c456326	0.012047565
6	0xbc4f5cda	-0.012656415
7	0xbc450cfa	-0.01202702
8	0xbc9d4e44	-0.019202359
9	0xbb7f0a30	-0.0038915984
10	0x3c12597f	0.00893247
11	0x3cd6951a	0.026194144
12	0xbb0422f2	-0.002016243
13	0x3c85c319	0.016328381
14	0x3c4ff7c1	0.0126933465
15	0x3cd2d40a	0.025735874

conv1.fc_self.weight f4 [16, 174]
0	0xbd4657e8	-0.048423678
1	0x3dccf798	0.10008162
2	0x3e242b6d	0.1603219
3	0x3da7f3d0	0.082008004
4	0x3e898ade	0.2686376
5	0xbe17744b	-0.14790456
6	0xbe2cf609	-0.1689073
7	0x3e93d042	0.28869826
8	0x3e153a17	0.14572941
9	0xbe5dcb5c	-0.21659607
10	0xbdd0dc4c	-0.10198268
11	0xbd8aee73	-0.06783762
12	0xbea29c3a	-0.31759816
13	0xbe37758c	-0.17915934
14	0x3eaa8401	0.33303836
15	0x3e0698df	0.13144253
16	0x3e15891e	0.14603087
17	0x3ba62aac	0.005071005
18	0xbd8ba226	-0.06818037
19	0xbe0fd33a	-0.1404542
20	0xbcda7766	-0.026668262
21	0x3e431571	0.19051148
22	0x3e41c2ab	0.18921916
23	0x3d83de68	0.06438905
24	0x3e3a30eb	0.18182723
25	0x3d6e745e	0.058216445
26	0xbdd5a959	-0.10432691
27	0x3ddc9051	0.10769714
28	0x3e45b0d2	0.19305733
29	0x3e1f49d9	0.15555514
30	0xbb409bae	-0.0029389667
31	0x3e23150d	0.15925999
32	0xbe47ac8a	-0.19499412
33	0xbe22b98a	-0.1589109
34	0xbd2605ed	-0.040532995
35	0xbc5dacd1	-0.013529972
36	0x3dcf8420	0.10132623
37	0x3e27f26f	0.16401075
38	0xbd6ac5c0	-0.057317495
39	0xbd88702d	-0.06662021
40	0x3df19597	0.1179611
41	0x3d5820cc	0.052765653
42	0xbda83e48	-0.08215004
43	0x3d651557	0.055928554
44	0xbe22d926	-0.15903148
45	0x3d745ace	0.05965691
46	0xbdbc4d78	-0.091944635
47	0xbea60b06	-0.32430285
48	0xbaff6e54	-0.0019487836
49	0xbf06ce6e	-0.52658737
50	0x3ead3ed3	0.33836994
51	0x3d87d2a5	0.06631974
52	0xbe3e85ab	-0.18605678
53	0xbdd451c6	-0.103671595
54	0xbe942efe	-0.28942102
55	0xbe891bea	-0.2677911
56	0xbe2fb380	-0.17158318
57	0x3d844398	0.06458205
58	0x3da4a9a1	0.08040167
59	0x3bd65d7f	0.0065419073
60	0xbcb95e9f	-0.022628127
61	0xbef94ec5	-0.4869291
62	0xbe6db565	-0.23213728
63	0x3c47f1f5	0.012203683
64	0xbc632e72	-0.013866054
65	0x3e73b3ef	0.23799108
66	0x3dad45b2	0.08460559
67	0xbe351dd8	-0.17687166
68	0xbdefe83a	-0.117142156
69	0xbe186626	-0.14882717
70	0xbee312fa	-0.44350415
71	0xbe173c51	-0.14769103
72	0x3d302d25	0.043011803
73	0xbdde7579	-0.1086225
74	0x3c01e368	0.007927753
75	0xbd8060d0	-0.062684655
76	0xbddf7597	-0.109111
77	0xbc1060aa	-0.008812109
78	0x3c88027e	0.01660275
79	0xbd93f16f	-0.07223784
80	0x3c6b351f	0.014355927
81	0xbd3d25f7	-0.046178784
82	0x3bfdc802	0.00774479
83	0x3d83e260	0.06439662
84	0x3d8039e6	0.06261043
85	0x3defcb88	0.117087424
86	0x3e1ed70c	0.15511721
87	0xbc7210a2	-0.014774473
88	0xbe306b66	-0.17228469
89	0x3ed5ad3d	0.41733733
90	0x3e5c0748	0.21487153
91	0x3d48df5d	0.04904114
92	0x3db26b8b	0.087119184
93	0x3d99a158	0.07501477
94	0xbd26551c	-0.04060851
95	0x3c689b89	0.014197239
96	0x3d0a5c26	0.033779286
97	0xbc346836	-0.011011174
98	0xbe8289f8	-0.25495887
99	0xbe402010	-0.18762231
100	0xbe15ef76	-0.14642128
101	0xbd0f4551	-0.034978215
102	0xbdc3193c	-0.095262975
103	0x3d727b2d	0.0591995
104	0xbc947ee3	-0.01812691
105	0xbe2f8866	-0.17141876
106	0xbe1f7f3c	-0.1557588
107	0x3e42db78	0.19029033
108	0xbd2ed938	-0.042687625
109	0xbea6cdf0	-0.32578993
110	0x3df1b7f9	0.11802668
111	0xbe275bd8	-0.1634363
112	0xbd30e04a	-0.04318265
113	0xbdd34673	-0.103161715
114	0x3e48ae30	0.19597697
115	0x3c09e15d	0.008415547
116	0xbc350f8e	-0.011051072
117	0x3d23afee	0.0399627
118	0x3b318d17	0.0027092153
119	0xbe2d8f82	-0.16949275
120	0x3e36f8b8	0.17868316
121	0x3e05882b	0.13040225
122	0x3e83b9b1	0.2572761
123	0x3e3a4b32	0.18192747
124	0xbea991a6	-0.33118933
125	0x3c17b4ca	0.009259412
126	0x3e07e709	0.13271727
127	0x3e226874	0.15860158
128	0xbd148e4f	-0.03626853
129	0x3c6122b0	0.01374118
130	0x3e27a42f	0.16371225
131	0xbed822a1	-0.4221392
132	0xbe8bdffb	-0.2731932
133	0x3ead80c4	0.33887303
134	0x3e097d63	0.13426737
135	0xbd031bdf	-0.032009
136	0x3c8df9ec	0.017331086
137	0x3d8ddfe3	0.06927469
138	0xbb123530	-0.0022309534
139	0x3de55331	0.11197508
140	0xbdc4e9f2	-0.09614934
141	0x3d158ccf	0.03651124
142	0xbda8dde7	-0.082454495
143	0x3dd600f1	0.10449398
144	0xbe32df52	-0.17468002
145	0xbde861d2	-0.11346783
146	0xbdb64c08	-0.089012206
147	0xbe68c81b	-0.22732584
148	0xbe472895	-0.19449075
149	0xbe80cac4	-0.25154698
150	0x3decd459	0.115639396
151	0xbee3c089	-0.4448283
152	0xbc5f4270	-0.01362668
153	0xbc468793	-0.012117284
154	0xbf019210	-0.506135
155	0x3da01c3a	0.07817884
156	0xbde285f3	-0.11060705
157	0x3dc1533e	0.09439705
158	0x3dc79fdb	0.09747287
159	0x3e12c8c5	0.143344
160	0x3b554497	0.0032542103
161	0xbcd6b944	-0.026211388
162	0x3ea180e2	0.31543642
163	0xbcc84666	-0.024447631
164	0xbe7ed1cf	-0.24884723
165	0xbd85e2a4	-0.06537369
166	0xbd872b0a	-0.06600006
167	0x3e0d2452	0.13783386
168	0x3cf89aa3	0.030347174
169	0x3e578786	0.21047792
170	0x3ea1c2a3	0.3159381
171	0xbdaf4df5	-0.08559791
172	0x3e353d7a	0.17699233
173	0x3ca4fe36	0.020140748
174	0x3ddf6d59	0.10909528
175	0xbe272acb	-0.16324918
176	0xbda8ae1a	-0.08236332
177	0x3c871251	0.016488226
178	0xbdcc9ae3	-0.0999048
179	0xbdddd5f2	-0.108318225
180	0xbc9e99fb	-0.019360533
181	0xbdc557e9	-0.09635908
182	0xbe7adefc	-0.24499124
183	0xbd7959d9	-0.0608767
184	0xbdb98bff	-0.09059905
185	0x3e321ffd	0.17395015
186	0x3e4d2fd6	0.20037779
187	0x3e44ebd8	0.19230592
188	0xbe85d574	-0.26139414
189	0x3de6a202	0.11261369
190	0xbdfe4895	-0.12416188
191	0xbdaa589a	-0.08317681
192	0x3e2d23ff	0.16908263
193	0x3e6e23a1	0.23255779
194	0x3e3754b6	0.17903408
195	0x3d8e5ef5	0.06951705
196	0xbce055b0	-0.027384609
197	0x3d8a259e	0.06745456
198	0x3e1f98f2	0.15585688
199	0x3b0efd5b	0.0021818492
200	0xbe1ea663	-0.15493159
201	0xbe1d7b12	-0.15378979
202	0x3df744d6	0.12073676
203	0xbe19c9df	-0.15018414
204	0xbdba4346	-0.09094863
205	0xbbc86262	-0.006115244
206	0xbe2775f2	-0.16353586
207	0x3bb04032	0.0053787464
208	0xbd885155	-0.06656138
209	0xbd80c2a7	-0.06287127
210	0xbd97d8b0	-0.07414377
211	0xbdf4e31f	-0.119573824
212	0xbdcca0d5	-0.09991614
213	0xbc95ee9f	-0.01830226
214	0xbe834c83	-0.2564431
215	0x3c816d3d	0.01579916
216	0x3d54817e	0.051881306
217	0xbe0b0699	-0.13576736
218	0xbc35fcd7	-0.011107645
219	0x3d04e7bf	0.032447573
220	0xbdae1388	-0.08499819
221	0x3e998837	0.29986736
222	0x3efe2353	0.49636325
223	0x3bbf9e38	0.0058477186
224	0x3c99d300	0.01877737
225	0x3cbb92ce	0.02289715
226	0xbe0cf441	-0.1376505
227	0xbed0e87e	-0.40802377
228	0xbd427f65	-0.047484774
229	0xbe163891	-0.14670016
230	0x3dced767	0.100996785
231	0xbcedfe2e	-0.029051866
232	0xbe8b17cf	-0.27166602
233	0x3dea9239	0.11453671
234	0x3d1e47bb	0.038642626
235	0x3ce21070	0.027595729
236	0xbde31620	-0.110882044
237	0xbd4ca4eb	-0.049961966
238	0x3c818986	0.015812647
239	0xbd00e433	-0.031467628
240	0xbd4798b8	-0.04872963
241	0xbde97d8b	-0.114008985
242	0xbd847238	-0.06467098
243	0x3cf07b7e	0.02935576
244	0x3de098a0	0.10966611
245	0x3ec33f57	0.38134262
246	0xbe278836	-0.16360554
247	0xbdf54515	-0.11976067
248	0xbe1702cf	-0.14747165
249	0xbdb7347a	-0.08945556
250	0x3c7a87cd	0.0152911665
251	0xbcd3f9bb	-0.025875917
252	0x3d38e67b	0.04514168
253	0x3dcc3c1b	0.09972402
254	0xbc6fa1b8	-0.014625959
255	0xbdd3c379	-0.10340018

conv1.fc_neigh.weight f4 [16, 174]
0	0xbe78e844	-0.24307352
1	0xbe138b86	-0.14408693
2	0x3e6072d1	0.21918799
3	0xbd95bbee	-0.07311235
4	0xbd3df6c1	-0.0463779
5	0xbe856c1c	-0.26059043
6	0xbe6c903a	-0.23101893
7	0x3efb8f61	0.49132827
8	0xbe2b259f	-0.1671357
9	0xbf90fe5d	-1.1327626
10	0xbd814762	-0.06312443
11	0x3e4ffcc6	0.20311269
12	0xbe2f8af3	-0.17142849
13	0xbe8223dd	-0.25417987
14	0x3f95eb31	1.17124
15	0xbea26bb0	-0.31722784
16	0x3d844d7e	0.06460093
17	0xbcd5c391	-0.02609423
18	0xbe266398	-0.1624893
19	0xbe6c4eca	-0.2307693
20	0xbe852696	-0.26006
21	0x3dca2f13	0.0987226
22	0x3d8d3967	0.06895714
23	0x3e184f3f	0.1487398
24	0x3e5bdef1	0.21471764
25	0x3f4fed3e	0.8122138
26	0xbe8af18d	-0.27137414
27	0x3da53b19	0.080679126
28	0x3c5176b4	0.012784649
29	0xbd6638db	-0.056206565
30	0x3d2d7a59	0.042353008
31	0x3e7d8804	0.24758917
32	0xbedd87b9	-0.4326761
33	0xbe85b423	-0.26113996
34	0xbd226157	-0.03964361
35	0xbc873643	-0.016505366
36	0x3eab620f	0.3347325
37	0xbd9867d2	-0.07441677
38	0xbd81c1c4	-0.06335786
39	0xbe579a1a	-0.21054879
40	0x3e9b9355	0.30385843
41	0x3e81ccec	0.25351655
42	0xbea719c4	-0.32636845
43	0x3d54bd1b	0.051938158
44	0xbe151d5f	-0.14561985
45	0x3e5f6c30	0.21818614
46	0x3e6a66d2	0.22890785
47	0xbecc0f7b	-0.3985556
48	0x3e4d24ed	0.20033617
49	0xbee9b9b8	-0.45649505
50	0x3f16b02f	0.58862585
51	0x3ec76381	0.38943103
52	0xbef32e30	-0.47496176
53	0xbc414ef0	-0.011798605
54	0xbec05b6f	-0.37569758
55	0xbde28a6c	-0.11061558
56	0xbebbc5c0	-0.3667431
57	0x3e86631e	0.26247495
58	0x3aa57f24	0.0012626392
59	0x3e93c12e	0.28858322
60	0xbe46ddce	-0.1942055
61	0xbf83cb39	-1.0296394
62	0x3cefa06b	0.029251298
63	0x3cf34d9e	0.029700097
64	0xbdae2fdc	-0.08505222
65	0x3ecb3896	0.3969161
66	0x3e88269e	0.26591963
67	0xbd280796	-0.04102286
68	0xbdec0ff0	-0.11526477
69	0x3ec71824	0.38885605
70	0xbf37d360	-0.7180691
71	0xbf135331	-0.57548815
72	0x3e346707	0.17617427
73	0x3d58d833	0.05294056
74	0x3f0f4fc9	0.5598112
75	0xbef7dd7b	-0.48411164
76	0xbe11082f	-0.14163278
77	0x3c1582fc	0.009125467
78	0xbd36c4d6	-0.04462131
79	0xbe4b13aa	-0.1983172
80	0xbd09d757	-0.03365263
81	0xbe93f637	-0.28898785
82	0x3ca47650	0.020075947
83	0x3d31b5bc	0.043386206
84	0xbdcf60b2	-0.10125865
85	0x3db9bac9	0.090688296
86	0x3e605f7a	0.21911421
87	0xbf946ff2	-1.1596663
88	0xbef39928	-0.47577786
89	0x3cb3d628	0.021952704
90	0x3eb59531	0.35465387
91	0x3e1acbbd	0.15116782
92	0x3e92846a	0.2861665
93	0xbc4fb2ac	-0.012676876
94	0x3e0e3dd2	0.1389077
95	0x3db1a730	0.086744666
96	0x3e2ffee0	0.17187071
97	0xbdc52d0e	-0.09627734
98	0xbd1cc818	-0.03827676
99	0xbc5a4f3b	-0.013324554
100	0xbeaf1d86	-0.34202212
101	0x3ce1557a	0.027506579
102	0xbe771acc	-0.24131316
103	0x3ef88e2a	0.48545963
104	0xbf0a5148	-0.54030275
105	0x3d221c6b	0.039577883
106	0xbe68fbc8	-0.22752297
107	0x3eb1fba6	0.34762305
108	0xbe411ac0	-0.1885786
109	0xbdb3593a	-0.08757253
110	0xbf553b5a	-0.8329369
111	0xbf73026a	-0.9492556
112	0xbf884aef	-1.0647868
113	0xbecaf9f7	-0.39643833
114	0x3c34391c	0.010999944
115	0xbe4163fa	-0.18885794
116	0xbe3b1b0b	-0.18272035
117	0x3ea03312	0.31288964
118	0x3d8770e7	0.06613331
119	0xbf39c8fd	-0.7257231
120	0x3d49b7c8	0.049247533
121	0x3d118749	0.03552941
122	0x3e1f47f6	0.15554795
123	0x3eb856b5	0.36003652
124	0xbfae11f8	-1.3599234
125	0xbe589121	-0.21149112
126	0xbdd6551b	-0.10465451
127	0xbe3b3517	-0.18281971
128	0xbe48e7eb	-0.1961972
129	0xbdf286a6	-0.118420884
130	0x3f7c42ed	0.9853962
131	0xbea1ec05	-0.3162538
132	0xbe70af52	-0.2350438
133	0x3f2b375a	0.66881335
134	0xbe984bd0	-0.2974534
135	0xbe1c574e	-0.15267679
136	0x3e52c428	0.2058264
137	0x3cddc12e	0.027069654
138	0x3d65e7c9	0.05612925
139	0x3d25af94	0.040450647
140	0xbe7950fe	-0.24347302
141	0x3d94dd00	0.07268715
142	0xbdcca957	-0.099932365
143	0x3f5e98ba	0.8695179
144	0x3ba35795	0.004984806
145	0x3e94a87f	0.29034802
146	0x3f2291d4	0.63503766
147	0xbee493c6	-0.44643992
148	0x3db656af	0.08903252
149	0xbd30f61c	-0.04320346
150	0x3e1a8985	0.15091522
151	0xbf7aa879	-0.9791332
152	0xbea6c377	-0.32571003
153	0x3eb2b1ea	0.34901363
154	0xbe7e1aef	-0.24814962
155	0x3ed2a8d4	0.4114443
156	0xbf511473	-0.8167183
157	0x3e3490af	0.17633317
158	0x3cab30a8	0.020897225
159	0x3dea3954	0.11436716
160	0xbec5603a	-0.38549978
161	0x3e990dc0	0.29893303
162	0xbc864c79	-0.016393887
163	0xbf2b8a81	-0.67008215
164	0xbe31fe4a	-0.1738216
165	0x3ec2a632	0.38017422
166	0xbea07dae	-0.31345886
167	0x3e9498ab	0.29022726
168	0xbebb1e63	-0.3654662
169	0x3e802e05	0.2503511
170	0x3e60074a	0.2187778
171	0xbdd16eca	-0.102262095
172	0xbe80ac01	-0.2513123
173	0xbf137251	-0.5759631
174	0xbdc7e92c	-0.09761271
175	0xbebd1437	-0.36929485
176	0xbbf67939	-0.007521775
177	0x3e2dc9ef	0.16971563
178	0x3d1025a9	0.035192166
179	0x3e4300cf	0.19043277
180	0x3ec9cda1	0.39414695
181	0xbe5bd5cf	-0.2146828
182	0xbf381915	-0.7191327
183	0xbd81ee0b	-0.06344231
184	0xbe641a02	-0.22275546
185	0x3edfc1b3	0.43702468
186	0x3f30bee9	0.69041306
187	0x3eef5d54	0.4675089
188	0xbe8b06d9	-0.27153662
189	0x3ec61d1c	0.38694084
190	0xbd35bffc	-0.044372544
191	0xbe9715e8	-0.295089
192	0xbda51332	-0.08060302
193	0x3de421ac	0.11139235
194	0x3d46d3ae	0.048541717
195	0xbe1d2f31	-0.15350033
196	0x3d74f0c3	0.05979992
197	0x3dfde832	0.12397803
198	0x3eafe8e5	0.34357372
199	0x3e2d1c77	0.1690539
200	0xbcda30f7	-0.026634676
201	0x3c8a573d	0.016887302
202	0x3e06ffdb	0.13183539
203	0x3e20d955	0.15707906
204	0x3e0301d5	0.12793668
205	0x3ecb4119	0.39698103
206	0xbea42a53	-0.3206354
207	0x3e23771b	0.15963404
208	0x3c43fa6f	0.0119615635
209	0xbe2274b1	-0.15864827
210	0x3dcfc439	0.101448484
211	0x3e2f94ea	0.1714665
212	0x3ccf4243	0.02530015
213	0x3e3b71b2	0.1830509
214	0xbee6d3f3	-0.4508358
215	0x3e7cc60c	0.24684924
216	0x3ed6fc46	0.41989344
217	0xbdbb9028	-0.09158355
218	0x3dc286f6	0.09498398
219	0x3dba58fa	0.09099002
220	0xbdb17274	-0.08664408
221	0x3ef16fa6	0.47155493
222	0x3ef78803	0.48345956
223	0xbbb4d93c	-0.0055190604
224	0xbebd0f57	-0.36925766
225	0xbe2067c3	-0.15664582
226	0xbe14c67f	-0.14528845
227	0x3e10ec65	0.14152677
228	0x3dd34cdc	0.10317394
229	0xbc46533b	-0.012104805
230	0x3f3d1114	0.73854184
231	0x3e6cbe29	0.23119415
232	0xbe98c178	-0.29835105
233	0x3ee5fb4e	0.44918293
234	0xbcb8707c	-0.022514574
235	0x3e9268eb	0.2859567
236	0xbf25966d	-0.64682657
237	0xbdabb58c	-0.08384237
238	0x3e4ed4c9	0.20198359
239	0x3cb2ca57	0.021824999
240	0xbeffb3e5	-0.49941936
241	0xbec491f4	-0.38392603
242	0x3d0efb1b	0.03490744
243	0x3e51cf30	0.20489192
244	0x3ef2f55f	0.47452828
245	0x3f1eb677	0.6199717
246	0xbf3917d2	-0.7230197
247	0x3e88588a	0.2663005
248	0xbe869648	-0.2628653
249	0x3c979378	0.018502936
250	0x3f13d0c5	0.5774043
251	0x3e0e5f5b	0.13903563
252	0xbd07f4d4	-0.03319247
253	0x3ecf1462	0.40445238
254	0x3a073090	0.00051570777
255	0xbee7985a	-0.45233423

conv2.bias f4 [16]
0	0x3c75e5cc	0.015008401
1	0xbc03eb7b	-0.008051748
2	0xbc15e9ec	-0.00915001
3	0x3b57e790	0.0032944418
4	0x39dbdf6e	0.00041937403
5	0xbc492834	-0.012277652
6	0xbcb9fa3d	-0.02270233
7	0x3c3e7ac0	0.011625946
8	0xbb262973	-0.0025354296
9	0xbc173fd1	-0.009231524
10	0xbc3ce91c	-0.011530187
11	0x3bf26f63	0.0073985322
12	0x3c04f511	0.008115069
13	0x3c904dc4	0.017615207
14	0xbbace14e	-0.005275882
15	0xbaae51f9	-0.0013299576

conv2.fc_self.weight f4 [16, 16]
0	0xbc88d848	-0.016704693
1	0xbd8fcb17	-0.07021158
2	0xbec202d8	-0.37892795
3	0xbd7a91f4	-0.061174348
4	0xbc78841b	-0.015168215
5	0xbe83a76d	-0.25713673
6	0x3c053a43	0.008131566
7	0xbdf0b515	-0.11753289
8	0xbf1e046e	-0.6172551
9	0xbe98307c	-0.2972449
10	0x3e97e701	0.2966843
11	0x3f24956a	0.6429049
12	0xbeb494bf	-0.35269734
13	0x3e85b337	0.26113293
14	0xbe9cad94	-0.3060118
15	0x3ec932a4	0.39296448
16	0x3e558fbb	0.2085561
17	0xbdc30972	-0.09523286
18	0xbea93ec8	-0.3305571
19	0x3e88b94b	0.26703867
20	0xbc368dc7	-0.011142201
21	0xbe70ca20	-0.23514605
22	0xbd9f7dfe	-0.07787703
23	0x3cc555fc	0.024088852
24	0xbeb83df3	-0.35984764
25	0xbd5826d1	-0.052771393
26	0x3e9855d2	0.29752976
27	0x3ee08184	0.43848813
28	0x3ea29ba4	0.3175937
29	0x3eb80e8a	0.35948592
30	0xbe51a90e	-0.20474645
31	0x3d36ffa2	0.044677384
32	0xbdf9e329	-0.122015305
33	0xbe79d1df	-0.24396466
34	0xbefcca10	-0.4937291
35	0x3f55757e	0.83382404
36	0xbdba6f60	-0.09103274
37	0xbe3eb35d	-0.18623109
38	0x3e74424b	0.23853414
39	0xbe3fa2f7	-0.1871451
40	0x3dbe6760	0.09297061
41	0x3e61c800	0.2204895
42	0xbdb9421e	-0.09045814
43	0x3ed08e1c	0.4073342
44	0x3eb9a976	0.362621
45	0xbeb452f8	-0.3521955
46	0x3e85dd26	0.26145285
47	0x3e8a65e7	0.2703087
48	0xbefd8dc9	-0.49522236
49	0x3d96e5d7	0.07368057
50	0xbec93935	-0.39301458
51	0x3e6feeaa	0.23430887
52	0xbed1744c	-0.4090904
53	0x3e7f0efd	0.24908061
54	0x3e537b36	0.2065247
55	0x3ed491cf	0.41517493
56	0xbeb18bdd	-0.3467702
57	0xbea0083f	-0.3125629
58	0x3e8a6238	0.2702806
59	0x3ed4a1b5	0.41529623
60	0xbeb65e12	-0.35618645
61	0x3e8f49f7	0.27986118
62	0xbc254e3e	-0.010089455
63	0x3dc1513d	0.09439323
64	0xbe7fae94	-0.2496894
65	0x3de3ea3d	0.11128662
66	0x3e834e02	0.25645453
67	0xbd8e0cf5	-0.06936065
68	0xbe6dbfbf	-0.23217677
69	0x3da004ad	0.07813392
70	0x3d93cef1	0.07217205
71	0x3d8e6a1e	0.06953834
72	0xbe3f6c7f	-0.18693732
73	0x3dd296b1	0.10282648
74	0x3e364d69	0.17802967
75	0xbe739b94	-0.23789817
76	0xbdbe460d	-0.09290705
77	0xbe0816f1	-0.13290001
78	0x3ece51dd	0.40296832
79	0xbdaa7267	-0.08322602
80	0xbe73ddd9	-0.23815097
81	0x3ee61b32	0.44942623
82	0x3df4631c	0.11932966
83	0x3b95aa7c	0.0045674425
84	0xbe098b8e	-0.13432142
85	0xbe37c160	-0.1794486
86	0xbee01c37	-0.43771526
87	0x3eb31bfe	0.34982294
88	0x3e8e6e88	0.27818704
89	0xbc91578b	-0.017741939
90	0x3f0c16d0	0.5472231
91	0x3d70028c	0.05859618
92	0xbecc88c3	-0.3994809
93	0xbd96dc6a	-0.073662594
94	0x3e1c83f5	0.15284713
95	0xbeb27a36	-0.34858865
96	0xbe6364fe	-0.22206494
97	0xbae90fcc	-0.0017781197
98	0x3f2f68df	0.68519396
99	0xbeabcc6a	-0.33554393
100	0x3e9fa76e	0.31182426
101	0xbb0d1ace	-0.002153087
102	0xbdbf6e8c	-0.09347257
103	0xbdc85c95	-0.097832836
104	0xbe4ab39c	-0.19795078
105	0x3f007701	0.50181586
106	0xbe19c5a8	-0.15016806
107	0x3efd40a1	0.4946337
108	0x3cbe104e	0.023201134
109	0xbe0984b5	-0.1342953
110	0xbe74bc91	-0.23900057
111	0xbdd67669	-0.10471804
112	0x3d779d0d	0.06045251
113	0xbd22a3ab	-0.039706867
114	0xbe92b2b5	-0.28651968
115	0xbd1b8496	-0.03796824
116	0xbd84fa2b	-0.06493028
117	0xbe17319e	-0.14765021
118	0x3b923c53	0.0044627576
119	0xbe1609ad	-0.14652129
120	0xbe927d80	-0.28611374
121	0xbddb7979	-0.107165284
122	0x3e8070b8	0.25085998
123	0x3ed699ed	0.4191431
124	0xbe90729f	-0.2821245
125	0x3d231177	0.039811578
126	0x3d38c260	0.045107245
127	0x3f207d54	0.62691236
128	0xbe5bd2ba	-0.21467105
129	0xbf0c0809	-0.5469976
130	0x3b673540	0.0035279542
131	0xbdb2b75d	-0.0872638
132	0x3d7ce97e	0.061746113
133	0xbe1891a6	-0.1489931
134	0x3dfa1fbb	0.12213083
135	0xbe27dae6	-0.16392097
136	0xbeb739fd	-0.3578643
137	0xbda21fa1	-0.07916189
138	0x3d8b5eb0	0.068051696
139	0x3e794667	0.24343263
140	0xbd20c8fd	-0.039254177
141	0xbeba608c	-0.36401784
142	0x3cdcff54	0.026977219
143	0x3e480b26	0.19535503
144	0xbde72b73	-0.11287584
145	0x3e0f701c	0.1400761
146	0x3e21d61c	0.15804332
147	0xbe915f91	-0.28393224
148	0x3ecb080f	0.39654586
149	0x3ec5d708	0.38640618
150	0x3d49ffd5	0.049316246
151	0xbde77b59	-0.113028236
152	0x3ec50d02	0.38486487
153	0xbd845533	-0.06461563
154	0xbdc24a6a	-0.094868496
155	0x3ef594aa	0.47964984
156	0xbd4b4343	-0.049624693
157	0xbe946e5c	-0.28990448
158	0xbefb6334	-0.49099123
159	0xbca173ac	-0.019708477
160	0x3bd3c9cf	0.0064632664
161	0xbf2fbc51	-0.68646723
162	0x3e54a02f	0.2076423
163	0xbe08fa2e	-0.13376686
164	0x3e09802e	0.13427803
165	0x3e441cb9	0.19151582
166	0x3e3fc97e	0.18729207
167	0xbb895d98	-0.0041920654
168	0xbea229ad	-0.3167242
169	0xbd846d39	-0.06466145
170	0xbe3a4ce4	-0.18193394
171	0xbcb9ac90	-0.022665292
172	0xbe272978	-0.16324413
173	0xbe2412eb	-0.16022842
174	0x3d91e3b6	0.071235105
175	0x3e68611d	0.22693296
176	0xbe2a661c	-0.16640514
177	0x3e7060ed	0.23474474
178	0xbe4d0406	-0.20021066
179	0x3e74c07b	0.2390155
180	0x3e1b9303	0.151928
181	0x3e8ce486	0.275181
182	0x3e92c7dd	0.2866811
183	0xbe835e9c	-0.2565812
184	0x3b7575b5	0.0037454192
185	0x3f10ce98	0.5656524
186	0x3d787cce	0.060665898
187	0x3e5bf122	0.21478704
188	0x3ef948ae	0.48688263
189	0xbe9b555c	-0.30338562
190	0x3ca79ae2	0.020459596
191	0x3deb2638	0.11481899
192	0xbeafcc97	-0.34335777
193	0x3c8a5b3f	0.016889213
194	0x3e1456c0	0.14486217
195	0x3ea2cfed	0.3179926
196	0xbee17ce9	-0.4404061
197	0xbec0fecd	-0.37694398
198	0x3de081d4	0.10962263
199	0x3ef7439e	0.48293775
200	0x3e8c9b56	0.27462262
201	0xbe73da3a	-0.23813716
202	0xbd3850ef	-0.04499906
203	0xbe8b5331	-0.27211908
204	0xbec261fa	-0.37965375
205	0x3e68ccb9	0.22734345
206	0xbd7e5f70	-0.062102735
207	0xbefb7673	-0.49113807
208	0x3e80f7a0	0.25188923
209	0x3e328212	0.1743243
210	0xbeb2baa8	-0.34908032
211	0x3e0d5a8a	0.13804069
212	0xbd25d698	-0.040487856
213	0xbeab3661	-0.33439925
214	0x3d0d26c3	0.034460794
215	0xbc36b2df	-0.011151045
216	0x3ecb725b	0.39735684
217	0xbf13e9d6	-0.5777868
218	0x3e4b9dd4	0.19884425
219	0xbec5712a	-0.385629
220	0x3d4b29fa	0.04960058
221	0x3d336201	0.043794636
222	0x3e7819d3	0.24228601
223	0x3ddf8cdc	0.10915539
224	0x3ec165a5	0.3777286
225	0xbe1027d7	-0.14077698
226	0x3ec5f7f6	0.38665742
227	0xbe4da016	-0.20080599
228	0x3e1d7a3e	0.15378663
229	0xbeb7da66	-0.35908812
230	0xbec5bcfe	-0.38620752
231	0x3e8ff0b1	0.2811332
232	0x3cae9ac9	0.021314042
233	0x3ea7a9fd	0.32746878
234	0x3e534cf2	0.20634821
235	0x3e0fc82c	0.14041203
236	0x3db9ab7e	0.09065913
237	0x3ecc2117	0.39868996
238	0xbe5f39b4	-0.21799356
239	0xbe571d3d	-0.21007247
240	0x3e81863d	0.25297728
241	0xbec22c04	-0.37924206
242	0xbeb770c9	-0.35828236
243	0xbd6e4a1a	-0.058176138
244	0xbd6f44d2	-0.05841524
245	0xbf12c50b	-0.57331914
246	0xbf46dce9	-0.7768083
247	0xbed1ed2a	-0.41001254
248	0xbea7d6ad	-0.32780972
249	0xbea94796	-0.33062428
250	0xbdd871d6	-0.105685875
251	0x3da0c2de	0.07849668
252	0x3dddce27	0.10830336
253	0xbf04b937	-0.51845115
254	0x3e649066	0.22320709
255	0x3d4e7677	0.050405946

conv2.fc_neigh.weight f4 [16, 16]
0	0xbd840b12	-0.06447424
1	0xbe05fa54	-0.13083774
2	0xbf09fa8b	-0.53897923
3	0xbe8db79a	-0.2767914
4	0x3d5ec29f	0.054384824
5	0xbd881504	-0.066446334
6	0x3df287d6	0.11842315
7	0xbe9e16ff	-0.3087692
8	0xbfa3e26b	-1.2803472
9	0xbf31f443	-0.6951334
10	0x3dad44f9	0.08460421
11	0x3f56218d	0.83644944
12	0xbef7afaf	-0.48376223
13	0x3e8e2000	0.2775879
14	0xbe9fab68	-0.3118546
15	0x3f0500a2	0.5195409
16	0x3f426b74	0.7594521
17	0xbf1a3463	-0.60236186
18	0x3dd4964a	0.10380228
19	0xbf1c9241	-0.61160666
20	0x3f014002	0.50488293
21	0x3ec06f10	0.37584734
22	0x3e6c0346	0.23048124
23	0xbed9b9db	-0.4252461
24	0xbe1ab9e4	-0.15109974
25	0xbda170eb	-0.078828655
26	0x3ef720f4	0.4826733
27	0x3ec226c4	0.379202
28	0x3f350585	0.7071155
29	0x3eff94da	0.49918252
30	0x3ba21ebf	0.004947513
31	0xbc39b3c4	-0.011334363
32	0x3f0b46b9	0.5440479
33	0xbed74992	-0.42048317
34	0xbe56d98b	-0.20981424
35	0x3fb01cc6	1.3758781
36	0x3e0a5333	0.135083
37	0x3e8f654d	0.28006974
38	0x3ef505f7	0.47856113
39	0xbd1763f1	-0.036960546
40	0x3e47e431	0.19520642
41	0x3e33395b	0.17502348
42	0x3f1584c1	0.5840569
43	0x3f0090b6	0.5022081
44	0xbefda16f	-0.49537227
45	0xbe01e411	-0.12684657
46	0x3e872025	0.26391712
47	0x3e3cb44f	0.18428157
48	0xbf275647	-0.65366024
49	0x3e82fa5a	0.25581628
50	0x3f0c31ad	0.547633
51	0xbc659be6	-0.01401422
52	0xbf11befc	-0.56932044
53	0x3f2861d3	0.6577427
54	0x3e2b4c26	0.16728267
55	0x3cd54d9a	0.02603798
56	0xbe5cd8cc	-0.21567076
57	0xbf28c24f	-0.6592149
58	0xbe40f3a8	-0.18842947
59	0x3f113c14	0.56732297
60	0x3ecbf631	0.39836267
61	0x3e4db349	0.20087923
62	0x3e176b5f	0.14787053
63	0xbea6fdb1	-0.32615426
64	0x3ea40981	0.320385
65	0xbf1a2659	-0.60214764
66	0xbe7e5a8a	-0.24839225
67	0xbf077706	-0.5291599
68	0x3e3ab363	0.18232493
69	0x3d83effa	0.06442256
70	0x3e01b5e7	0.12667046
71	0xbf3bf09e	-0.7341403
72	0x3d94db20	0.07268357
73	0x3ce6ec75	0.028188923
74	0x3e64a03a	0.22326747
75	0xbd89de3a	-0.067318395
76	0xbed0c399	-0.4077423
77	0xbe6ef344	-0.23334986
78	0x3f02ad48	0.51045656
79	0x3e233c31	0.1594093
80	0x3e4c8622	0.19973043
81	0x3dce643e	0.100777134
82	0x3f181e15	0.594209
83	0xbe03c353	-0.12867479
84	0x3f0fe655	0.56210834
85	0x3efe42ec	0.49660432
86	0xbd4c748e	-0.049915843
87	0xbedac119	-0.42725447
88	0x3d900177	0.070315294
89	0xbd000fbd	-0.03126501
90	0x3f2a2459	0.6646171
91	0x3d807353	0.06271996
92	0xbece66c4	-0.4031278
93	0xbec1e7da	-0.378722
94	0x3d0909c5	0.033456583
95	0xbf39110f	-0.72291654
96	0xbf006eae	-0.50168884
97	0x3ef0334b	0.46914133
98	0x40064002	2.0976567
99	0x3e1aca48	0.15116227
100	0x3a6d3387	0.00090485107
101	0xbf7c612c	-0.9858577
102	0xbe079b44	-0.13242823
103	0xbe3bc962	-0.1833854
104	0xbf0710ab	-0.5275981
105	0x3ebc709f	0.36804673
106	0x3e027521	0.12739994
107	0x3f120859	0.5704399
108	0x3e86b371	0.26308778
109	0xbf45b6c9	-0.77232033
110	0xbe97e9de	-0.29670614
111	0xbe34dd7e	-0.17662618
112	0x3e585522	0.21126226
113	0x3daca2a7	0.08429461
114	0x3dedf37a	0.11618705
115	0xbe3630d1	-0.1779206
116	0xbf68fe55	-0.9101308
117	0xbcd67375	-0.026178101
118	0xbed0508d	-0.40686455
119	0xbb0fdabf	-0.0021950451
120	0x3e4a39ad	0.19748564
121	0xbec10e05	-0.3770601
122	0x3f06e388	0.52690935
123	0x3da2d785	0.07951263
124	0xbf063c93	-0.5243618
125	0x3f293118	0.66090536
126	0x3e7d6298	0.24744642
127	0x3f8f9f79	1.1220542
128	0x3ef2a4a3	0.47391233
129	0xbf97da5c	-1.1863513
130	0x3e964690	0.2935071
131	0xbf22c536	-0.6358217
132	0xbedc6996	-0.43049306
133	0x3e3eaa51	0.18619658
134	0xbd5ae94c	-0.053445145
135	0xbe4703db	-0.19435064
136	0x3f09e15c	0.53859496
137	0x3e62cb46	0.22147855
138	0x3ed64681	0.41850665
139	0x3e164987	0.14676486
140	0xbf220502	-0.6328889
141	0x3eb63bca	0.3559249
142	0xbeca651f	-0.39530274
143	0xbe07acf3	-0.13249569
144	0x3ee96f62	0.4559279
145	0x3eace435	0.33767858
146	0xbeedd959	-0.46454886
147	0xbe99de40	-0.30052376
148	0x3d9aa80d	0.075515844
149	0x3e5cdc3c	0.21568388
150	0x3d84989a	0.06474419
151	0x3ed9fe79	0.4257696
152	0xbe3a019a	-0.18164673
153	0x3ea45d87	0.32102606
154	0xbf083411	-0.5320445
155	0x3f9646c1	1.1740342
156	0x3ea77640	0.32707405
157	0xbf67b2fc	-0.90507483
158	0xbf6989e6	-0.9122604
159	0x3ec8ede0	0.39243984
160	0x3da33eeb	0.07970985
161	0xbf17f9c5	-0.59365493
162	0x3e073d0e	0.13206884
163	0xbea34216	-0.31886357
164	0x3e5ac2dc	0.21363395
165	0x3bfb359f	0.0076663042
166	0x3e633411	0.2218783
167	0x3f7d4306	0.98930395
168	0xbec3160c	-0.38102758
169	0x3d31902e	0.04335039
170	0xbd1a14c7	-0.03761747
171	0x3eb0f318	0.34560466
172	0xbf2c3707	-0.67271465
173	0xbe88b33b	-0.26699242
174	0x3f349cb0	0.70551586
175	0x3f1667a3	0.5875189
176	0xbf0e745a	-0.5564629
177	0x3e60ec3a	0.21965113
178	0xbf2d0150	-0.6758013
179	0xbe9bac9c	-0.30405128
180	0x3e625ca7	0.22105657
181	0xbbf01059	-0.0073261675
182	0x3f706d92	0.9391719
183	0xbd753143	-0.059861433
184	0x3eb39a0e	0.35078472
185	0x3f38f8d0	0.7225466
186	0x3f87499b	1.0569338
187	0xbec7ffc1	-0.39062312
188	0xbe3e4851	-0.18582274
189	0x3d2fb765	0.042899508
190	0xbe060ed3	-0.13091592
191	0x3e478fcf	0.19488452
192	0x3edc62bf	0.43044087
193	0xbee017a9	-0.4376805
194	0x3e0591a7	0.13043843
195	0x3d89a752	0.06721367
196	0xbe45d3b4	-0.1931904
197	0xbf229d52	-0.635213
198	0x3e81fa31	0.25386193
199	0xbb200a29	-0.0024420118
200	0xbe378d6e	-0.17925045
201	0xbec10dfb	-0.3770598
202	0xbf1290fc	-0.5725248
203	0xbee79eb6	-0.45238274
204	0x3efc8185	0.49317566
205	0xbf10b5ff	-0.56527704
206	0xbeb626a4	-0.35576355
207	0xbeb28b38	-0.3487184
208	0x3f69d873	0.913459
209	0x3e01af2a	0.12664476
210	0x3d8a2207	0.067447715
211	0x3ec6ec4d	0.38852158
212	0xbea5a493	-0.32352123
213	0xbdf6a1d9	-0.12042589
214	0x3dface58	0.12246388
215	0x3f86428d	1.048906
216	0x3e71dd71	0.2361963
217	0xbf807ff8	-1.0039053
218	0x3f8683aa	1.0508931
219	0xbd63e122	-0.055634625
220	0xbeb9df24	-0.36303055
221	0xbdf9f221	-0.122043855
222	0x3ed82a04	0.42219555
223	0x3e8620cc	0.26196897
224	0xbe89180c	-0.2677616
225	0xbee34924	-0.4439174
226	0xbed87e10	-0.42283678
227	0x3ea66745	0.32500663
228	0x3eb8ff9b	0.36132511
229	0x3d72a841	0.05924249
230	0xbe5f060b	-0.21779649
231	0x3ee7206d	0.45141926
232	0xbede89ed	-0.43464604
233	0x3f14a162	0.5805875
234	0x3f0e8ea4	0.556864
235	0xbe48301a	-0.195496
236	0x3c2f4bda	0.010699237
237	0x3f33c88c	0.70227885
238	0xbf501375	-0.8127969
239	0x3e92cd3d	0.2867221
240	0xbdb22704	-0.08698848
241	0x3d0b402d	0.03399675
242	0xbdc826b8	-0.0977301
243	0x3e994547	0.29935667
244	0xbf25daf1	-0.64787203
245	0xbec97c2f	-0.39352557
246	0xbf80c220	-1.0059242
247	0x3daf64d0	0.0856415
248	0xbf2e4cb9	-0.6808582
249	0x3c4ec210	0.01261951
250	0xbd369a99	-0.04458103
251	0x3e9a2df6	0.3011319
252	0x3ef9e53c	0.48807704
253	0xbf29d483	-0.6633989
254	0x3ea5149b	0.32242283
255	0xbea0f936	-0.31440133

conv3.bias f4 [16]
0	0x3c60ce3e	0.013721047
1	0xba8d76ff	-0.001079291
2	0x3c4f5ac9	0.012655922
3	0x3c07f728	0.008298673
4	0xb98cb497	-0.0002683743
5	0x3cbfb8ce	0.023403551
6	0xbc6cec76	-0.014460674
7	0x3c94f385	0.018182525
8	0xbbbf7049	-0.005842243
9	0xbbda734d	-0.006666577
10	0xbcdb5969	-0.026776033
11	0x3c570e51	0.013125972
12	0x3ba61e84	0.0050695557
13	0xbca90a18	-0.020634696
14	0xbcbd12b0	-0.0230802
15	0xbbd90c5e	-0.0066237887

conv3.fc_self.weight f4 [16, 16]
0	0x3db210b9	0.08694596
1	0x3d2a6f17	0.04160985
2	0x3e946a4d	0.2898735
3	0xbd34b4d1	-0.044117752
4	0xbe8d0082	-0.2753945
5	0x3e1abcd5	0.15111096
6	0xbdfa279f	-0.122145884
7	0xbeca1209	-0.39466885
8	0x3de67dea	0.11254485
9	0x3d13ff0b	0.0361319
10	0xbe46c309	-0.19410338
11	0xbebf72f5	-0.37392393
12	0xbe9421bd	-0.2893199
13	0xbe6cde25	-0.23131616
14	0xbdb5d454	-0.08878389
15	0xbe5d5682	-0.21615031
16	0xbe23de18	-0.16002691
17	0xbe0af527	-0.1357008
18	0xbe1c5d81	-0.15270044
19	0x3ea81d82	0.32835013
20	0x3dc6d4fb	0.097085916
21	0xbead7c17	-0.33883736
22	0xbda1f7d0	-0.079085946
23	0xbd6a9ddc	-0.057279453
24	0x3da437ba	0.080184415
25	0x3bc33791	0.0059575518
26	0xbd9b9d15	-0.075983204
27	0x3e3dfc19	0.18553199
28	0xbd7563b4	-0.059909537
29	0x3d9e97e8	0.077438176
30	0x3edb8ff6	0.4288327
31	0xba62788d	-0.0008639179
32	0xbd6801e2	-0.05664242
33	0x3e809cc3	0.251196
34	0x3bfb6087	0.007671419
35	0x3e71416a	0.2356011
36	0x3e80d084	0.25159085
37	0x3d098bbb	0.033580523
38	0x3e486cb8	0.19572723
39	0xbdb493ad	-0.088172294
40	0xbe0dfeb2	-0.1386669
41	0x3d34c833	0.044136237
42	0x3e3ce1da	0.1844553
43	0x3e456c52	0.19279602
44	0xbe276c67	-0.16349946
45	0x3e456911	0.19278361
46	0x3dbf58ec	0.093431324
47	0xbdb67bcd	-0.08910332
48	0x3ea1f620	0.3163309
49	0xbe98176c	-0.2970537
50	0x3d9e121b	0.07718297
51	0x3c4762fb	0.012169595
52	0xbe9b7e4a	-0.30369788
53	0xbd971f2e	-0.07378994
54	0x3e158f48	0.14605439
55	0xbd805858	-0.0626685
56	0x3d9a272a	0.07527001
57	0xbf00c071	-0.5029364
58	0xbccc0dbb	-0.024908891
59	0x3d295344	0.041339174
60	0x3da75096	0.081696674
61	0x3ce0bdd7	0.027434273
62	0xbe17a98a	-0.14810768
63	0x3e59a80c	0.21255511
64	0x3db410d6	0.08792274
65	0xbe19aa7e	-0.15006444
66	0x3ec6cc0a	0.38827544
67	0x3e595fcd	0.21227951
68	0x3dd8ac3a	0.105797246
69	0xbcbdc0a0	-0.02316314
70	0x3c41ac0b	0.011820803
71	0xbdd5c1e6	-0.10437374
72	0xbeb2e213	-0.34938106
73	0x3e9a7fd0	0.30175638
74	0x3e655890	0.22397065
75	0x3cc31c63	0.023817247
76	0xbd873483	-0.06601813
77	0x3e854231	0.26027063
78	0x3edf6632	0.43632656
79	0x3dd06830	0.10176122
80	0x3e077850	0.1322949
81	0xbe88e8cf	-0.2674012
82	0xbe9a953e	-0.30191988
83	0xbe9f9fdf	-0.3117666
84	0xbebf5dde	-0.37376302
85	0x3ed0413c	0.4067477
86	0x3e23fa9f	0.16013573
87	0x3e1fa5f4	0.1559065
88	0x3e9b78bd	0.30365553
89	0xbeca8590	-0.39555025
90	0x3da0d355	0.078528084
91	0x3e4412ce	0.19147798
92	0x3d7c0653	0.06152947
93	0x3e8bbdb2	0.27293164
94	0xbd84e5b0	-0.06489122
95	0xbe81a787	-0.25323126
96	0xbe6c2393	-0.23060445
97	0x3ea59f2a	0.32347995
98	0x3ea07d09	0.31345394
99	0xbe3f245d	-0.18666215
100	0x3e27e502	0.16395953
101	0xbe8728a0	-0.26398182
102	0x3e2ab464	0.16670376
103	0x3ec29a4b	0.3800834
104	0xbd5bbcef	-0.053646978
105	0x3e886b2d	0.2664427
106	0xbeaeac5f	-0.34115884
107	0xbeaf4f82	-0.34240347
108	0x3d798c4e	0.06092482
109	0x3d3a2305	0.045443553
110	0xbdf8a8fa	-0.12141605
111	0xbe32de51	-0.1746762
112	0xbf110ae9	-0.5665727
113	0x3e8458f7	0.25849125
114	0xbe9b8697	-0.3037612
115	0x3ec77e8d	0.38963738
116	0x3e5aca1f	0.21366166
117	0xbe9f28b7	-0.3108575
118	0x3e4af8ea	0.19821516
119	0x3eb07b82	0.3446923
120	0x3eb33130	0.34998465
121	0x3ea88b36	0.3291871
122	0xbd9ffcc4	-0.07811883
123	0x3d5581ec	0.052125856
124	0x3e4e2bd5	0.20133908
125	0x3ebaa196	0.36451405
126	0x3e1dc851	0.15408446
127	0x3eab1972	0.3341785
128	0xbdfc47dc	-0.123183936
129	0x3ddd36fc	0.10801503
130	0xbe7ff093	-0.24994116
131	0xbdf70030	-0.12060583
132	0xbec76b25	-0.38948932
133	0x3e41891b	0.18899958
134	0x3e251930	0.1612289
135	0xbdb89439	-0.09012646
136	0x3e9102d2	0.28322464
137	0xbe82d50e	-0.25553173
138	0xbe302719	-0.17202415
139	0x3eb341bd	0.35011092
140	0xbd0f63bd	-0.035007227
141	0x3c75ba0e	0.014997972
142	0xbe811555	-0.25211588
143	0xbe6ff7da	-0.23434392
144	0x3e23e6e3	0.16006045
145	0xbb92728f	-0.004469223
146	0x3da5c7a4	0.08094719
147	0x3e7f652e	0.2494094
148	0x3e109daa	0.14122644
149	0xbea6d3a5	-0.32583347
150	0xbdc28184	-0.094973594
151	0xbeaf68f5	-0.34259763
152	0x3d26e1ac	0.04074256
153	0x3e53f644	0.20699412
154	0xbe01062c	-0.1260001
155	0x3e3b9b90	0.18321061
156	0xbc5873f1	-0.013211236
157	0xbd9bbfd9	-0.076049514
158	0x3da4316a	0.080172375
159	0x3e89aa0a	0.26887542
160	0x3f01e3e4	0.5073836
161	0xbe795b2f	-0.2435119
162	0x3e21c177	0.15796457
163	0xbdf48beb	-0.1194075
164	0xbdf1224b	-0.11774119
165	0x3d160596	0.03662642
166	0xbdeaf53c	-0.11472556
167	0xbedc82ed	-0.43068638
168	0x3f1038d7	0.5633673
169	0xbe12531b	-0.14289515
170	0xbebecaca	-0.3726409
171	0xbd4547bc	-0.048164114
172	0x3d366a2f	0.04453486
173	0x3db807cf	0.08985864
174	0x3dd54944	0.10414365
175	0xbd382703	-0.04495908
176	0x3e8b7a41	0.2724171
177	0x3d39546d	0.04524653
178	0x3ba68b24	0.005082505
179	0x3db4bafb	0.08824726
180	0x3df9bf63	0.12194707
181	0x3d9e9ce1	0.07744766
182	0x3e6d7472	0.23188952
183	0xbed65f19	-0.4186943
184	0x3e406969	0.18790211
185	0xbdfeca9b	-0.12440988
186	0x3d070167	0.03296032
187	0x3d23bd17	0.039975252
188	0xbd842817	-0.06452959
189	0x3ead1cdf	0.3381109
190	0xbd5c1061	-0.053726558
191	0x3ddd183c	0.10795638
192	0x3d686df8	0.0567455
193	0xbe491ee2	-0.19640687
194	0x3d4818db	0.04885183
195	0x3e01b144	0.12665278
196	0xbe539fa6	-0.2066637
197	0x3ca91220	0.020638525
198	0xbcbfc5ba	-0.023409713
199	0xbe82748f	-0.25479552
200	0x3e853e95	0.2602431
201	0xbee2fda8	-0.4433415
202	0xbdbbc9a8	-0.09169322
203	0xbdad6186	-0.08465867
204	0xbe19e45a	-0.15028515
205	0xbc8f82e0	-0.01751846
206	0x3d3d0fb7	0.046157565
207	0x3c8d9010	0.017280608
208	0x3e6ed61a	0.23323861
209	0x3e2ec2fa	0.17066565
210	0xbec5f245	-0.386614
211	0xbe68e99f	-0.2274537
212	0xbe69deaf	-0.22838853
213	0x3edb3490	0.4281354
214	0x3d8fd247	0.07022529
215	0xbe37af0a	-0.17937866
216	0x3dfb6e19	0.12276859
217	0xbe2cc328	-0.16871321
218	0x3e859d83	0.26096734
219	0xbc9e3328	-0.019311503
220	0xbd0f9b13	-0.03506
221	0x3dff22b8	0.12457794
222	0xbeb1392d	-0.34613934
223	0xbdd3e127	-0.10345679
224	0xbd096b94	-0.03354986
225	0xbe20e0da	-0.15710774
226	0xbcb2a942	-0.021809224
227	0x3e161a9d	0.1465859
228	0xbe89ac03	-0.26889047
229	0x3deb8c97	0.11501425
230	0x3dd45b13	0.103689335
231	0xbe86a802	-0.26300055
232	0x3e2054a5	0.1565729
233	0x3dcb3e7d	0.09924028
234	0xbea49f33	-0.3215271
235	0xbeb040f4	-0.34424555
236	0xbe737ea8	-0.23778784
237	0x3df00f33	0.11721649
238	0xbcee4155	-0.029083887
239	0xbe885f4b	-0.26635203
240	0x3e215cd8	0.15758073
241	0xbe8568e8	-0.260566
242	0xbe755dc9	-0.23961557
243	0xbec19659	-0.3781002
244	0xbe45da35	-0.1932152
245	0x3ebd9246	0.3702566
246	0xbea2ac61	-0.3177214
247	0x3e0520db	0.13000815
248	0x3e341ef7	0.17589937
249	0xbd7d47fc	-0.061836228
250	0x3e0cdd8c	0.13756388
251	0x3e93db5c	0.28878295
252	0x3e73659f	0.23769234
253	0xbe35b983	-0.17746548
254	0xbe0f2cb5	-0.13981898
255	0x3d4e8a64	0.05042495

conv3.fc_neigh.weight f4 [16, 16]
0	0xbeefd334	-0.46840823
1	0x3ceeb870	0.029140681
2	0xbd915f3a	-0.07098241
3	0x3e1afddc	0.15135902
4	0x3ece21ea	0.4026025
5	0x3f202842	0.6256143
6	0xbbc1627e	-0.0059016338
7	0xbe9912ec	-0.2989725
8	0x3de61a25	0.112354554
9	0xbdd60f11	-0.104520924
10	0x3e7ab6c8	0.24483788
11	0xbf011a91	-0.5043116
12	0xbefe5d58	-0.4968059
13	0x3d90f6b7	0.07078307
14	0x3ea0318e	0.31287807
15	0x3e4006ae	0.18752548
16	0x3dc2f7ee	0.09519945
17	0xbd509fcd	-0.050933648
18	0xbea02b60	-0.31283092
19	0xbee59bb3	-0.44845352
20	0xbd65c2f2	-0.056094117
21	0xbd294792	-0.04132802
22	0xbe08df85	-0.13366516
23	0x3eb7c4de	0.35892385
24	0xbe9885da	-0.2978962
25	0xbebfc662	-0.37456042
26	0xbe580f24	-0.21099526
27	0x3e99811f	0.29981324
28	0x3e3e0c8d	0.18559475
29	0x3d03f660	0.032217383
30	0x3ed306ee	0.41216224
31	0x3f1e0456	0.61725366
32	0x3ea42b58	0.3206432
33	0x3ee87550	0.45402002
34	0x3d2e49be	0.042550795
35	0xbeba41c5	-0.36378303
36	0x3e2e9062	0.17047265
37	0x3e058cef	0.13042043
38	0x3ee690b3	0.45032272
39	0x3ea0311c	0.31287467
40	0xbd9b3b97	-0.07579725
41	0x3c0829ce	0.008310748
42	0xbeb46ce8	-0.3523934
43	0x3d98fbc2	0.07469894
44	0xbe5d9ddc	-0.2164225
45	0x3ecf304e	0.4046654
46	0xbe51612a	-0.20447221
47	0xbea41923	-0.32050428
48	0xbe110f9b	-0.1416611
49	0x3e3f8e3d	0.18706603
50	0xbeda5794	-0.42644942
51	0xbe9269d3	-0.28596362
52	0xbf19c6f6	-0.60069215
53	0x3ef47094	0.4774214
54	0x3ef00d8d	0.46885338
55	0x3e6a5165	0.22882612
56	0xbe18b0d1	-0.149112
57	0xbe562ecd	-0.2091629
58	0xbe71b5c6	-0.23604497
59	0xbd82854f	-0.06373083
60	0xbf0c47a1	-0.547968
61	0x3e8203f3	0.25393638
62	0xbd830291	-0.06396974
63	0xbea0553f	-0.31315038
64	0x3a8c0745	0.0010683319
65	0xbefe012a	-0.49610263
66	0xbdc72f44	-0.09725812
67	0xbe9e60a4	-0.30933106
68	0xbd958da6	-0.07302408
69	0x3f146ce8	0.5797868
70	0xbe0c3520	-0.1369214
71	0xbcc818e5	-0.024425933
72	0xbf110aaa	-0.566569
73	0x3e5e22f7	0.21693026
74	0x3f23e2a7	0.6401772
75	0x3eb309b2	0.34968334
76	0x3e01e282	0.12684062
77	0x3e524059	0.20532359
78	0x3e5cbdb9	0.21556748
79	0x3ec72877	0.3889806
80	0xbe071982	-0.13193324
81	0x3b7cc0ca	0.003856706
82	0x3ef3605e	0.4753446
83	0x3c7f9b2d	0.015600962
84	0xbd4d65b3	-0.050145816
85	0xbeac83ec	-0.33694398
86	0x3f242653	0.6412098
87	0x3d89103f	0.06692552
88	0x3f04f48c	0.5193565
89	0x3c7dc2a2	0.015488299
90	0x3e780607	0.24221049
91	0x3e6a7df9	0.22899617
92	0x3edc8c43	0.4307576
93	0xbe8442d7	-0.25832245
94	0x3e939e5d	0.2883176
95	0x3e994c37	0.2994096
96	0x3ee7cf74	0.45275462
97	0xbef078f3	-0.46967277
98	0x3dcb0625	0.09913281
99	0xbf0f5ebd	-0.56003934
100	0x3d6f469e	0.058416955
101	0x3edb8a19	0.42878798
102	0xbdb0fdce	-0.086421594
103	0x3f01fa67	0.5077271
104	0x3d55ea92	0.052225657
105	0xbea89c59	-0.32931784
106	0x3e43848a	0.19093528
107	0xbece9dcc	-0.40354764
108	0x3ef3f8e8	0.47650838
109	0xbe60ac82	-0.21940807
110	0xbf13c220	-0.57718086
111	0x3d371df8	0.044706315
112	0xbf1fa6f9	-0.62364155
113	0x3dde2f5a	0.10848875
114	0x3cd5a935	0.02608166
115	0x3f184326	0.5947746
116	0x3e00786a	0.12545934
117	0x3e5cc80f	0.21560691
118	0xbdad1f86	-0.08453278
119	0x3eaff897	0.34369346
120	0x3e5a1c73	0.21299915
121	0x3efd8d70	0.4952197
122	0xbdab6618	-0.08369082
123	0x3e0a17b5	0.13485606
124	0xbe1ecf8c	-0.1550886
125	0x3e78d60c	0.24300402
126	0x3d7da4fb	0.061924916
127	0x3ea8178f	0.32830474
128	0xbe017f49	-0.12646212
129	0xbefcb725	-0.49358478
130	0xbd23a947	-0.039956357
131	0x3edfcf3f	0.43712804
132	0x3e91d28f	0.28480956
133	0x3d0cfbfd	0.034420002
134	0xbe92c24b	-0.2866386
135	0x3db685cc	0.089122385
136	0x3e19e91a	0.15030327
137	0xbe9e3d29	-0.30906036
138	0x3e4346c4	0.19069964
139	0x3f3cd2b7	0.73759025
140	0x3ea00738	0.31255507
141	0x3e05a900	0.1305275
142	0xbeba8d1b	-0.3643578
143	0x3eb72710	0.3577199
144	0x3f27ccfb	0.6554715
145	0xbed20f8c	-0.41027486
146	0xbf2ac7a6	-0.6671089
147	0x3e2022ed	0.15638323
148	0x3f08d118	0.5344405
149	0x3d7ab905	0.061211605
150	0x3ea4194b	0.32050547
151	0xbefa9499	-0.48941496
152	0x3e765639	0.24056329
153	0xbda89242	-0.082310215
154	0x3e358748	0.17727387
155	0x3e37c5db	0.1794657
156	0x3d2f3b07	0.042780902
157	0x3ec0b2e6	0.3763649
158	0x3e31fa7e	0.17380711
159	0x3ebc755c	0.36808288
160	0x3dd01bae	0.101615295
161	0xbe7ff3f8	-0.2499541
162	0x3ec1373b	0.3773745
163	0x3e4f2a14	0.20230895
164	0xbe6793bf	-0.22614954
165	0x3f0037e7	0.500853
166	0xbe9f22a4	-0.31081116
167	0x3e52e244	0.20594126
168	0x3f02e20d	0.51126176
169	0x3ea7e5fa	0.32792646
170	0xbf010a76	-0.5040659
171	0x3e1f78d8	0.15573442
172	0x3e6679c9	0.22507395
173	0x3dabb488	0.08384043
174	0x3ea383f9	0.31936625
175	0xbcaf6268	-0.021409228
176	0xbd8ce03f	-0.06878709
177	0x3f1c571f	0.61070436
178	0x3ed517d9	0.41619757
179	0xbe56d775	-0.20980628
180	0x3e408a53	0.18802767
181	0xbf08edd3	-0.5348789
182	0x3e13f918	0.1445049
183	0xbefc41d9	-0.49268988
184	0xbe5595da	-0.20857945
185	0xbe3084f0	-0.17238212
186	0xbee4ad7b	-0.44663605
187	0x3da1f04d	0.07907162
188	0x3e987d5c	0.29783142
189	0x3e97d631	0.29655603
190	0xbdf2ac3d	-0.11849258
191	0x3eb7af66	0.35876006
192	0xbe85f37d	-0.2616233
193	0x3e6b3743	0.229703
194	0x3f10d6ba	0.56577647
195	0x3f18dea8	0.59714746
196	0x3f04ea8c	0.5192039
197	0xbcd37771	-0.02581379
198	0xbd818332	-0.06323852
199	0x3ec01114	0.3751303
200	0xbe9e79a6	-0.30952185
201	0xbe7ab86b	-0.24484412
202	0x3f01a7e2	0.50646794
203	0xbc59d865	-0.013296221
204	0xbf06bbe8	-0.5263047
205	0xbefe3c06	-0.4965517
206	0x3e948fdc	0.29016006
207	0x3eb121f5	0.3459622
208	0x3ecb6464	0.3972503
209	0x3e103961	0.14084388
210	0xbd8f7756	-0.070051834
211	0x3e73f34c	0.23823279
212	0xbea6efe3	-0.32604894
213	0xbd0581b4	-0.032594398
214	0xbeccb5f1	-0.3998256
215	0xbec146d7	-0.3774936
216	0xbc5b090c	-0.013368856
217	0xbed45b8f	-0.41476104
218	0x3e9cfb89	0.30660656
219	0xbe8a11c1	-0.2696667
220	0x3e00dd79	0.12584485
221	0x3f003697	0.500833
222	0xbdb3d57d	-0.08780954
223	0xbd9d2ef3	-0.076749705
224	0x3f206b47	0.6266369
225	0xbea9f56e	-0.3319506
226	0x3ea5ccc3	0.32382783
227	0x3f03c0c6	0.51466024
228	0x3f05a354	0.52202344
229	0xbe34f2bf	-0.17670725
230	0x3e598c6d	0.21244974
231	0x3e157591	0.1459563
232	0xbec9dbbd	-0.3942546
233	0x3cde9f0b	0.027175447
234	0xbee99862	-0.4562407
235	0xbc95e297	-0.018296523
236	0x3d92482e	0.071426734
237	0xbda883db	-0.082282744
238	0xbda3d200	-0.07999039
239	0x3e53e093	0.20691137
240	0x3def534e	0.11685811
241	0x3e75c143	0.23999505
242	0x3ccc92f1	0.02497241
243	0xbe8e52d2	-0.27797562
244	0x3f42e399	0.76128536
245	0x3e56c111	0.20972086
246	0xbdc0a70f	-0.09406864
247	0x3c3c9c3c	0.011511859
248	0xbebcb8ab	-0.3685964
249	0x3eabdafb	0.33565506
250	0xbe9ab6c3	-0.3021756
251	0x3dbed0c8	0.093171656
252	0xbeefd11f	-0.46839234
253	0xbd367ae2	-0.044550784
254	0xbe0894da	-0.13338032
255	0x3ef534cd	0.47891846
