model.pth (torch, 29387 bytes, 9 tensors)

conv1.bias f4 [16]
0	0x3a91f121	0.0011134484
1	0xbc8024d7	-0.015642567
2	0x39c2d000	0.00037157536
3	0xbb8151ce	-0.0039465195
4	0xbb725c48	-0.0036981273
5	0xbc16821e	-0.009186296
6	0x3c59a359	0.013283574
7	0x3b3a3dd9	0.0028418212
8	0x3c585cd2	0.013205724
9	0xbbc23fb9	-0.0059280065
10	0xbb9381f1	-0.004501574
11	0xbc6535fe	-0.0139899235
12	0xbcc5f7d5	-0.024166027
13	0xbc5cbf7c	-0.013473388
14	0x3c4d58ec	0.012533408
15	0xbbe47b4b	-0.0069727055

conv1.fc_self.weight f4 [16, 174]
0	0x3e10f7e3	0.14157061
1	0x3e07a65a	0.13247052
2	0xbdbba74d	-0.091627695
3	0xbc02e353	-0.007988769
4	0xbcda2c07	-0.026632322
5	0xbd6a6c38	-0.05723211
6	0x3d084efa	0.033278443
7	0x3e3a7f9d	0.18212743
8	0x3dd40dfb	0.10354229
9	0x3d442fb6	0.047897063
10	0x3cb9229f	0.022599516
11	0xbda68a46	-0.08131842
12	0xbdb3c590	-0.087779164
13	0xbe8edde4	-0.27903664
14	0x3dbc17c6	0.09184222
15	0x3dd74a25	0.10512189
16	0x3ce317ef	0.027721373
17	0x3c90c9c9	0.017674344
18	0x3e0f68f7	0.14004885
19	0xbd7ef65f	-0.062246677
20	0x3dc5f42f	0.09665715
21	0x3daf5f85	0.08563141
22	0xbcef8e74	-0.029242732
23	0x3d8abfea	0.06774886
24	0xbdb8c30c	-0.09021577
25	0xbcbae8e9	-0.022816138
26	0x3df4b69b	0.11948892
27	0xbc1b37b4	-0.00947373
28	0x3d354e48	0.044264108
29	0xbcc85058	-0.024452373
30	0xbb3da5f1	-0.002893802
31	0xbd290720	-0.04126656
32	0xbda6bf40	-0.08141947
33	0x3da6f71d	0.08152602
34	0xbb65cc4b	-0.0035064395
35	0xbc6ef284	-0.014584187
36	0xbccdf7e8	-0.025142625
37	0xbc2012eb	-0.009770135
38	0xbc863beb	-0.016385993
39	0x3dd9722f	0.10617482
40	0x3d96c075	0.07360927
41	0x3d302650	0.043005288
42	0xbe0a0d39	-0.13481607
43	0x381a83b8	3.6839134e-05
44	0x3e2734e1	0.16328765
45	0x3cfaed80	0.030630827
46	0x3d078cab	0.033093136
47	0xbc44e0f1	-0.012016521
48	0x3e51d6f3	0.20492153
49	0x3e3f80d0	0.18701482
50	0xbe13722c	-0.14399022
51	0x3db41c66	0.08794479
52	0xbdf3aff8	-0.11898798
53	0x3cae68c1	0.021290185
54	0xbe8b5ca5	-0.2721912
55	0xbe048f7b	-0.12945358
56	0x3db9f887	0.09080606
57	0x3de119da	0.10991259
58	0xbd4303ee	-0.04761117
59	0xbd59250a	-0.05301384
60	0x3c9683d1	0.018373402
61	0xbe622fa4	-0.22088486
62	0xbda56fbb	-0.080779515
63	0x3d64a4c8	0.05582121
64	0xbe3dfb52	-0.18552902
65	0xbe3bf1d3	-0.18353967
66	0x3d2d344a	0.042286195
67	0xbdddeff2	-0.108367816
68	0xbe5c658f	-0.21523117
69	0xbdf318b8	-0.11869949
70	0xbe94645e	-0.28982824
71	0xbe2292b0	-0.1587627
72	0xbe8ff6cc	-0.2811798
73	0xbd45fe72	-0.04833836
74	0x3c82aa1e	0.015950259
75	0xbdebe5fc	-0.115184754
76	0xbe6261bc	-0.22107595
77	0xbde4ca48	-0.111713946
78	0xbddefc29	-0.108879395
79	0x3d161a3d	0.036646117
80	0xbd9e4398	-0.07727736
81	0x3e313d6e	0.1730859
82	0xbd28f6a5	-0.041250844
83	0x3d07c5df	0.03314769
84	0xbdd40a12	-0.10353483
85	0xbd3cd7bc	-0.046104178
86	0xbdd1f6a2	-0.102521196
87	0x3cc736e5	0.024318168
88	0x3d83885a	0.06422491
89	0xbdb8cb2c	-0.09023127
90	0x3cb79222	0.022408549
91	0xbdc51f02	-0.09625055
92	0x3ccb8b73	0.024846768
93	0x3dddf7a2	0.10838248
94	0x3ce43836	0.027858835
95	0x3e680d9e	0.22661445
96	0x3e1fa7d3	0.15591364
97	0x3e5ed48f	0.21760772
98	0xbe0ea640	-0.13930607
99	0xbd9d9762	-0.076948896
100	0x3c85b9ad	0.016323889
101	0x3cda77ca	0.026668448
102	0xbc9180f4	-0.017761685
103	0x3ddec931	0.10878218
104	0xbd12f2ea	-0.035876192
105	0xbcdf6957	-0.02727191
106	0xbe14cec4	-0.14532
107	0xbdd33067	-0.103119664
108	0xbd5301e4	-0.051515475
109	0xbd7e69d4	-0.062112644
110	0xbe4c9cf5	-0.1998175
111	0xbe83edf3	-0.25767478
112	0xbd321307	-0.043475177
113	0xbe2d0de8	-0.16899836
114	0xbdab3463	-0.08359601
115	0xbde5364e	-0.111919984
116	0x3b460e4d	0.0030220926
117	0xbd6900b8	-0.05688545
118	0xbce77705	-0.028254995
119	0x3c7b7b96	0.015349289
120	0x3d6a37db	0.057182174
121	0x3e0f2beb	0.13981597
122	0x3e844f6b	0.2584184
123	0x3e3b0e51	0.1826718
124	0xbe65e40c	-0.22450274
125	0x3e122658	0.1427244
126	0xbe37d13c	-0.1795091
127	0x3de33031	0.11093176
128	0x3cca9a32	0.02473173
129	0xbd8716a5	-0.06596116
130	0xbe07c6e0	-0.13259459
131	0xbd9eade7	-0.07748013
132	0xbd545b97	-0.05184516
133	0xbdad1c70	-0.0845269
134	0xbe215a10	-0.15757012
135	0xbd735b78	-0.059413403
136	0x3cb68098	0.022278115
137	0x3d0e3257	0.034715977
138	0xbd86287d	-0.06550691
139	0xbe5c934c	-0.21540564
140	0x3d94863a	0.07252164
141	0xbdefe200	-0.11713028
142	0x3d3a7f17	0.04553136
143	0xbe18af07	-0.14910518
144	0x3c52e215	0.012871285
145	0xbd6ea0b5	-0.05825873
146	0xbddcebfe	-0.107871994
147	0x3d0734ce	0.033009343
148	0x3dcff4b2	0.10154094
149	0xbe902ba4	-0.28158295
150	0x3da4ff07	0.08056455
151	0x3b1605fe	0.0022891755
152	0xbc1239c4	-0.008924905
153	0xbeb05d28	-0.34446073
154	0xbee391dd	-0.44447222
155	0x3cac495e	0.021031078
156	0x3dc4693d	0.09590385
157	0x3dbae9cd	0.09126625
158	0x3db9886e	0.09059225
159	0x3d0d0fb0	0.03443879
160	0x3e039bd8	0.12852418
161	0xbea1867e	-0.31547922
162	0xbd893528	-0.06699592
163	0x3e1f63dd	0.15565439
164	0x3e3106a8	0.17287695
165	0x3c6f2da1	0.014598281
166	0xbc3eda2b	-0.011648695
167	0xbda40583	-0.08008864
168	0xbbd5bbba	-0.006522623
169	0x3bd21f8a	0.006412451
170	0xbe759c02	-0.23985294
171	0x3d017806	0.031608604
172	0xbe3a75db	-0.18209021
173	0x3d28c3d2	0.041202374
174	0xbd034364	-0.03204669
175	0xbe28baa7	-0.16477452
176	0x3cf5af59	0.029990839
177	0x3e0ce661	0.13759758
178	0x3d14e6df	0.03635299
179	0x3e35638b	0.17713754
180	0x3d63088e	0.05542808
181	0xbe1ddeb6	-0.15416989
182	0xbdab68db	-0.08369609
183	0xbe0ab349	-0.13544954
184	0x3e002f9b	0.1251816
185	0x3e33f184	0.175726
186	0xbf11a713	-0.5689556
187	0xbd4f4e44	-0.05061175
188	0x3d26694a	0.040627755
189	0x3e9c3125	0.30506244
190	0xbc51f870	-0.01281558
191	0x3c145c4a	0.009055207
192	0x3cadbd70	0.021208495
193	0xbdbb58d8	-0.09147805
194	0x3e8e0f1a	0.27745897
195	0xbd3e3558	-0.04643759
196	0x3da53586	0.080668494
197	0xbc870606	-0.016482364
198	0x3baeef6e	0.005338601
199	0x3dcde33d	0.10053108
200	0xbe20d7c7	-0.15707313
201	0xbd7f6f12	-0.062361784
202	0x3c237fa7	0.009979165
203	0xbd84a46f	-0.06476676
204	0x3e3bb4a7	0.18330632
205	0x3e8d8668	0.27641606
206	0x3e451d90	0.19249558
207	0x3d91c072	0.07116784
208	0x3da44d8c	0.080226034
209	0x3d53e5fb	0.051733
210	0x3e530337	0.20606695
211	0x3d8c43f6	0.068489
212	0x3a869d27	0.0010270224
213	0x3cbdc37e	0.023164507
214	0x3dc1d46c	0.094643444
215	0x3c319a16	0.01083996
216	0xbdc01df3	-0.09380712
217	0x3e026880	0.12735176
218	0x3da85d51	0.08220924
219	0x3df510e5	0.11966113
220	0x3c193e8a	0.009353289
221	0xbc39c11a	-0.011337543
222	0x3e66a8a7	0.22525273
223	0x3dbb444f	0.09143888
224	0x3dcbcd37	0.09951251
225	0xba04eb41	-0.0005070456
226	0xbd41b011	-0.04728705
227	0x3e97214e	0.29517597
228	0xbd9fdfdd	-0.078063704
229	0x3e384d36	0.17998204
230	0x3e0cec41	0.13761999
231	0xbde98654	-0.11402574
232	0x3c6d0d2a	0.014468471
233	0xbcfcbf16	-0.030852836
234	0x3db71eba	0.089414075
235	0xbe063377	-0.1310557
236	0xbe1cf1bb	-0.15326588
237	0x3c424a30	0.011858508
238	0x3cf802f5	0.030274848
239	0x3ca849a6	0.02054293
240	0xbdc06d54	-0.09395853
241	0xbdecfb87	-0.115714125
242	0x3d0fe741	0.03513265
243	0xbc959777	-0.0182607
244	0xbe12c03d	-0.14331146
245	0xbe103960	-0.14084387
246	0x3bcf254c	0.006321585
247	0xbd83935d	-0.06424592
248	0xbe375830	-0.17904735
249	0xbd77e37c	-0.06051968
250	0x3dea10d4	0.11428991
251	0x3e1516df	0.14559506
252	0x3b9d8c08	0.004807953
253	0x3dc88fdc	0.09793064
254	0xbd9da109	-0.07696731
255	0xbe146b52	-0.14494064

conv1.fc_neigh.weight f4 [16, 174]
0	0xbe00ae03	-0.1256638
1	0x3e819cce	0.25314945
2	0xbb867977	-0.004103835
3	0x3a7ab145	0.00095631584
4	0xbe56438a	-0.20924202
5	0xbd88f1ff	-0.06686782
6	0x3e413f49	0.18871798
7	0x3d966ec1	0.073453434
8	0x3d618cc7	0.055065896
9	0x3ee9d44a	0.45669776
10	0xbcaa7831	-0.020809265
11	0x3d152a5f	0.03641736
12	0x3c331742	0.010930838
13	0x378935b7	1.6356686e-05
14	0x3ea8df42	0.32982832
15	0x3ea39cce	0.3195557
16	0xbcd397aa	-0.025829155
17	0xbd48ed94	-0.049054697
18	0x3e8b1621	0.2716532
19	0xbe52c7b7	-0.20583998
20	0x3d41c069	0.047302637
21	0xbb9207fb	-0.0044565178
22	0x3cd10f89	0.025520103
23	0x3d18ecd4	0.037335232
24	0xbe217ad7	-0.15769516
25	0x3d821ac9	0.06352765
26	0x3cae588c	0.021282457
27	0x3e3b5870	0.18295455
28	0x3e2c7a50	0.16843534
29	0xbcfc1c05	-0.03077508
30	0x3e54cb02	0.20780566
31	0x3e340268	0.17579043
32	0xbdf0714e	-0.11740361
33	0xbe59ea5c	-0.21280807
34	0x3dbaba22	0.09117533
35	0x3e5137e5	0.20431478
36	0x3c152329	0.009102621
37	0x3c15405b	0.009109582
38	0x3d0f8505	0.035038967
39	0xbd593b13	-0.053034853
40	0x3c1eb854	0.009687502
41	0x3d2638b8	0.040581435
42	0xbe0644bb	-0.13112156
43	0x3e43dad5	0.19126447
44	0x3c370691	0.011170999
45	0x3aca2b10	0.001542421
46	0xbe67503a	-0.22589198
47	0x3d9161aa	0.07098706
48	0x3d3b330e	0.045702986
49	0x3eb6bde5	0.35691753
50	0xbe61fa30	-0.22068095
51	0x3e28a036	0.16467366
52	0xbe7af026	-0.24505672
53	0x3e2daa6b	0.1695954
54	0xbebe6628	-0.37187314
55	0x3e5be0c3	0.21472459
56	0xbdf8ce1d	-0.12148688
57	0x3e13b59d	0.14424749
58	0xbdc6d6ec	-0.09708962
59	0x3dd959f7	0.106128626
60	0x3e2ccf42	0.16875938
61	0xbea8406e	-0.32861656
62	0xbe7d30e9	-0.24725689
63	0x3d80e380	0.06293392
64	0xbdad1299	-0.08450813
65	0xbe04ca08	-0.12967694
66	0x3da4696d	0.08027921
67	0xbd595a4f	-0.05306464
68	0x3dc3a21a	0.09552403
69	0x3d9fc6b8	0.078015745
70	0x3db86fe5	0.09005717
71	0x3d365f61	0.044524554
72	0x3b22ff9b	0.002487159
73	0xbe022d67	-0.12712632
74	0x3e780358	0.24220026
75	0xbe1043b4	-0.14088327
76	0xbe5fc646	-0.21852979
77	0x3df677a4	0.120345384
78	0xbdf045c9	-0.117320605
79	0x3e76b7be	0.2409353
80	0x3ccfa557	0.025347395
81	0x3e8f20aa	0.27954608
82	0x3e187f1c	0.14892238
83	0xbdc8eae7	-0.09810429
84	0xbd5c86ff	-0.05383968
85	0xbc97da11	-0.0185366
86	0xbeaa4fbd	-0.3326396
87	0xbe96ff94	-0.29491866
88	0xbda2c4e8	-0.07947713
89	0xbe02be7c	-0.12767977
90	0xbe0f59d3	-0.13999109
91	0xbcd212f4	-0.025643803
92	0x3b8e7a5e	0.0043480834
93	0xbdebd545	-0.11515287
94	0xbe52d0ac	-0.20587415
95	0x3e0d3b91	0.13792254
96	0xbe37a224	-0.17932945
97	0xbda94e07	-0.08266836
98	0xbe618c27	-0.2202612
99	0xbc778289	-0.015106806
100	0xbd9c438f	-0.07630073
101	0xbe63d3ca	-0.2224876
102	0xbdff03f8	-0.12451929
103	0x3e97ad38	0.29624343
104	0xbeccf6b4	-0.4003197
105	0xbe1f06d2	-0.15529945
106	0xbd1e5263	-0.03865279
107	0xbe242e82	-0.16033366
108	0xbe5803c2	-0.21095183
109	0xbad859a7	-0.0016506211
110	0xbe929baf	-0.28634402
111	0xbe858fed	-0.2608637
112	0x3f76f391	0.964654
113	0xbf0a062e	-0.5391568
114	0xbe918c64	-0.28427422
115	0xbe5a904a	-0.21344104
116	0x3d0b3105	0.033982296
117	0xbd27011e	-0.04077255
118	0xbc3d7052	-0.011562424
119	0x3eaf8a8c	0.3428539
120	0x3dce7467	0.10080796
121	0x3d9fe402	0.07807161
122	0x3e69ab33	0.22819214
123	0x3e141915	0.14462693
124	0xbe0201f2	-0.12696055
125	0xbdb06678	-0.08613294
126	0xbe7114e4	-0.23543125
127	0xbd03519a	-0.032060243
128	0x3e0b2924	0.13589913
129	0xbe4b1a33	-0.19834213
130	0x3d9f5327	0.07779532
131	0xbe9936b5	-0.2992455
132	0x3e68ce2c	0.22734898
133	0xbd9fb7be	-0.07798718
134	0xbdf71d32	-0.120661154
135	0xbe62905d	-0.22125383
136	0xbb9e09f1	-0.0048229625
137	0x3e3952e8	0.18098032
138	0x3d008686	0.03137829
139	0xbeb22474	-0.34793437
140	0x3d1e288e	0.038612895
141	0x3c8104d8	0.01574938
142	0x3c015667	0.007894135
143	0xbe6732d2	-0.2257798
144	0x3f033262	0.51248753
145	0x3e00af2a	0.1256682
146	0xbd621cdd	-0.055203307
147	0x3e37cb67	0.17948686
148	0x3decb673	0.11558237
149	0xbe0021f6	-0.12512955
150	0x3d090535	0.03345223
151	0xbdd13c27	-0.10216551
152	0x3d7412e4	0.059588328
153	0xbe9c9492	-0.305821
154	0xbea6dd9d	-0.32590953
155	0x3de4c087	0.11169534
156	0xbdd553e3	-0.10416391
157	0x3ce3e31f	0.02781826
158	0x3bbd0ab5	0.0057690986
159	0x3ab2f7be	0.0013654155
160	0x3e2160c8	0.15759575
161	0xbf0d6f15	-0.5524762
162	0x3c20fa0a	0.009825239
163	0x3e6038a3	0.21896605
164	0xbc5d86a5	-0.013520871
165	0xbe47c311	-0.19508006
166	0xbbac9922	-0.0052672783
167	0xbd3d35c7	-0.046193864
168	0x3b8c95c3	0.004290314
169	0xbde2981d	-0.110641696
170	0xbea0f8d4	-0.3143984
171	0x3c0fefba	0.008785183
172	0xbe8411cc	-0.25794828
173	0x3da7e296	0.08197515
174	0x3e121b79	0.14268292
175	0xbde2f51f	-0.110819094
176	0x3dafc273	0.0858201
177	0x3d257f59	0.04040465
178	0xbdf00d26	-0.11721258
179	0xbd12b31c	-0.035815343
180	0xbd92cc3f	-0.07167863
181	0xbdc69ec4	-0.09698251
182	0x3d4b8f65	0.0496973
183	0xbee7a8a4	-0.4524585
184	0x3e23d73e	0.16000077
185	0x3e8ec4ec	0.27884614
186	0xbf2f1d86	-0.68404424
187	0xbe466e26	-0.19377956
188	0xbc0ebf95	-0.008712669
189	0x3e5f3a88	0.21799672
190	0xbd08825e	-0.033327453
191	0xbdc483b8	-0.09595436
192	0x3d46b3d9	0.04851136
193	0xbe830c18	-0.25595164
194	0x3eeee4e9	0.4665902
195	0xbd8fdeff	-0.07024955
196	0x3d149c66	0.036281966
197	0xbdc246ef	-0.09486186
198	0x3de3ccba	0.11123033
199	0x3e36ac50	0.1783917
200	0xbe7633fe	-0.24043271
201	0xbe294900	-0.16531754
202	0xbda0e66b	-0.07856449
203	0xb942c8cb	-0.00018576083
204	0x3db34a19	0.087543674
205	0x3ea731d3	0.326552
206	0x3e43f365	0.19135816
207	0x3d7113ea	0.058856882
208	0x3dd01346	0.10159926
209	0x3d5c4977	0.053781
210	0xbdc7646d	-0.097359516
211	0x3e7c6932	0.24649504
212	0x3dbbe682	0.09174825
213	0x3d526e38	0.051374644
214	0x3d296b33	0.041362
215	0x3df6dbbc	0.1205363
216	0xbe1adb29	-0.15122665
217	0x3ca1a8d1	0.019733818
218	0x3da547fd	0.08070371
219	0x3e642192	0.22278431
220	0x3def7730	0.11692655
221	0x3ec747da	0.38922006
222	0x3ebcf8c3	0.3690854
223	0xbd50f658	-0.05101618
224	0x3ebc7e6f	0.3681521
225	0x3deedc2a	0.11663087
226	0xbe104865	-0.14090116
227	0x3e8f10a3	0.2794238
228	0xbe4ff5da	-0.20308629
229	0xbc4181c1	-0.011810721
230	0x3d6424f2	0.055699296
231	0xbd2bf267	-0.04197922
232	0xbdbc23ef	-0.09186541
233	0xbe28be34	-0.16478807
234	0xbc299cde	-0.010352341
235	0xbec77e61	-0.38963607
236	0xbee53c1f	-0.4477243
237	0xbe180d79	-0.1484889
238	0xbd4b8201	-0.04968453
239	0xbd81961c	-0.06327459
240	0xbe2562f0	-0.16151023
241	0xbe387251	-0.18012358
242	0xbc3e778b	-0.011625181
243	0xbe8813e0	-0.26577663
244	0xbeacab3f	-0.337244
245	0xbe325430	-0.17414927
246	0xbde7741e	-0.113014445
247	0x3db25c46	0.08709006
248	0xbe4bd4aa	-0.19905344
249	0x3cb42f7e	0.021995302
250	0x3dedfe9e	0.1162083
251	0x3db9a540	0.09064722
252	0x3d83b914	0.06431785
253	0x3dab71a4	0.083712846
254	0xbe574b8a	-0.2102491
255	0x3d9b2cea	0.07576926

conv2.bias f4 [16]
0	0xbbbca73f	-0.005757242
1	0x3bdb5ee3	0.006694661
2	0x3b40af18	0.002940124
3	0x3c2a72c6	0.010403341
4	0x3b65db0a	0.0035073184
5	0x3c07cb2c	0.008288186
6	0x3c32f621	0.0109229395
7	0x3a868bc6	0.0010265044
8	0x3b9e9a2a	0.004840155
9	0x3bd385f4	0.0064551774
10	0x3ba71ce7	0.005099881
11	0x3b2a1781	0.002595395
12	0xbb3141d5	-0.0027047296
13	0x3bbdabc6	0.0057882993
14	0xbb982f93	-0.004644343
15	0xbc30265d	-0.010751334

conv2.fc_self.weight f4 [16, 16]
0	0x3ed88f71	0.42296937
1	0x3ee675d7	0.4501178
2	0x3eaa905d	0.33313265
3	0xbf126189	-0.57180077
4	0xbdd7ce1f	-0.10537361
5	0xbeb6d259	-0.35707358
6	0x3e0d9dcc	0.13829726
7	0xbebd4e04	-0.36973584
8	0xbeb2fdc0	-0.3495922
9	0x3df2f083	0.1186228
10	0x3e282a85	0.1642247
11	0xbec26cbc	-0.37973583
12	0x3acaa0e9	0.0015459332
13	0x3d1fedf2	0.03904528
14	0x3e35b82f	0.17746042
15	0x3e836c34	0.2566849
16	0x3e91b9b1	0.28461984
17	0xbde5ef94	-0.112273365
18	0x3db32678	0.08747572
19	0xbd176ce1	-0.03696907
20	0xbd57f9cf	-0.05272847
21	0x3edcea7c	0.43147647
22	0xbea696cb	-0.3253692
23	0xbd9e5b0f	-0.07732212
24	0xbf22ea10	-0.636384
25	0xbd2affdc	-0.041747913
26	0xbea67cb9	-0.3251703
27	0x3f1b08d7	0.60560364
28	0x3bfdac6d	0.007741502
29	0xbf1711fa	-0.59011805
30	0x3e995a58	0.2995174
31	0xbe1928c7	-0.14956962
32	0x3ec0dbc3	0.37667665
33	0xbe885203	-0.2662507
34	0xbed4d047	-0.41565153
35	0x3d655911	0.055993143
36	0xbdd7fd59	-0.10546369
37	0x3f03df52	0.51512635
38	0xbe6dff54	-0.23241931
39	0x3e287f9d	0.1645493
40	0xbedd171e	-0.431817
41	0xbc483d84	-0.012221698
42	0x3ea3aa3a	0.3196581
43	0xbe57ed28	-0.21086562
44	0xbe476164	-0.19470745
45	0xbe8c1631	-0.2736068
46	0xbeaf4893	-0.34235057
47	0x3eb435c4	0.3519727
48	0x3e4b3b6e	0.1984689
49	0x3ec62c5d	0.38705721
50	0xbdbfb936	-0.09361498
51	0xbea561ea	-0.32301265
52	0x3f04c2e2	0.5185987
53	0xbebe6f61	-0.3719435
54	0x3eec9834	0.46209872
55	0xbeaebccc	-0.34128416
56	0xbea26c54	-0.31723273
57	0xbea67cb0	-0.32517004
58	0x3ee8f8ca	0.4550231
59	0xbea8ce45	-0.3296987
60	0xbecd126e	-0.40053123
61	0xbdd8555d	-0.10563157
62	0x3cdbdb44	0.026837952
63	0x3c05dc01	0.008170129
64	0x3a414502	0.00073726487
65	0x3ec87c2a	0.3915723
66	0xbe1dbff1	-0.15405251
67	0xbd9f49ef	-0.077777736
68	0x3d6ef3e2	0.058338054
69	0xbf264cd6	-0.6496099
70	0xbe1a87b9	-0.15090837
71	0x3cdd4431	0.027010055
72	0xbd91de6c	-0.07122502
73	0x3e49579f	0.19662331
74	0xbde07693	-0.10960116
75	0xbdeee494	-0.116646916
76	0xbe5dd6d5	-0.21663983
77	0xbeabf35c	-0.33584106
78	0x3eb1b83e	0.34710878
79	0xbdb55906	-0.088548705
80	0x3e2703e3	0.16310076
81	0xbdd4c0ba	-0.10388322
82	0xbd946e4b	-0.07247599
83	0x3d928214	0.07153717
84	0xbeedde01	-0.46458438
85	0x3ca8fc49	0.020628111
86	0xbea74b88	-0.32674813
87	0x3e4722d6	0.19446883
88	0xbe9c56f6	-0.30535096
89	0xbdd40acf	-0.10353624
90	0x3d39d864	0.04537238
91	0xbee46766	-0.44610137
92	0xbee2f2f0	-0.44325972
93	0x3e69f5f3	0.22847728
94	0xbf12fafd	-0.5741423
95	0xbd83cecf	-0.0643593
96	0xbd6a9b81	-0.057277206
97	0x3ec7e912	0.39045006
98	0x3e767d04	0.24071127
99	0xbe82c793	-0.25542888
100	0x3e0be61b	0.13661997
101	0xbe9ceb0d	-0.3064808
102	0x3e3ec5cf	0.18630145
103	0x3d9ec9ad	0.0775331
104	0x3df9dded	0.12200532
105	0x3e961c79	0.29318598
106	0xbe921469	-0.28531197
107	0xbe8659e7	-0.26240465
108	0x3f19b85b	0.6004693
109	0x3c97f896	0.018551152
110	0xbe88220c	-0.26588476
111	0x3ea1a15f	0.3156843
112	0x3f124c4f	0.5714769
113	0x3d855dc1	0.06512023
114	0xbe9090b5	-0.28235403
115	0x3e8e5779	0.2780111
116	0xbe22507b	-0.15851013
117	0x3e3c1fa9	0.18371452
118	0x3e0943d3	0.13404779
119	0xbe73dff1	-0.23815896
120	0x3e2df18d	0.16986676
121	0x3e9a110c	0.3009113
122	0x3ea351eb	0.31898436
123	0xbe8f4549	-0.27982548
124	0xbe5a9047	-0.213441
125	0x3e9fcccb	0.31210932
126	0xbe9dced4	-0.3082186
127	0xbe1a5138	-0.15070045
128	0x3c50449a	0.012711668
129	0x3eeedd6f	0.46653315
130	0x3e905115	0.2818686
131	0xbd54d306	-0.05195906
132	0xbeb865e6	-0.36015242
133	0x3e43056e	0.1904504
134	0x3e0da7e5	0.13833578
135	0x3e9500cd	0.29102173
136	0xbe8a3980	-0.26996994
137	0xbeab2b61	-0.33431533
138	0x3eeab6fb	0.45842728
139	0x3eab8cdf	0.33505914
140	0x3ed7f075	0.42175642
141	0x3e80005c	0.25000274
142	0x3ead9654	0.33903754
143	0xbed0caa5	-0.40779606
144	0x3e668556	0.22511801
145	0xbf3379e1	-0.7010785
146	0xbed5d2cb	-0.41762385
147	0xbd8fcf16	-0.070219204
148	0x3d2b72fe	0.041857712
149	0x3e624e94	0.22100288
150	0xbf2cd668	-0.6751466
151	0x3ed3e5e2	0.41386324
152	0xbd8f9ea0	-0.07012677
153	0x3e941da2	0.28928858
154	0xbeb9ea80	-0.36311722
155	0xbda436af	-0.080182426
156	0xbde668ac	-0.11250433
157	0x3e448b54	0.19193774
158	0xbeb2de7a	-0.3493536
159	0x3e0bacb4	0.136401
160	0xbe98dd5b	-0.2985638
161	0x3df7b3c8	0.120948374
162	0xbc931d69	-0.01795836
163	0xbea60455	-0.3242518
164	0x3ecaa5cb	0.39579615
165	0x3eaa375e	0.33245367
166	0x3dd35705	0.10319332
167	0xbdb596bb	-0.0886664
168	0x3d5c4adc	0.05378233
169	0xbe52a0a4	-0.20569092
170	0x3db909bd	0.090350606
171	0xbd66e164	-0.056367293
172	0x3e95ab59	0.2923229
173	0x3ebde1d8	0.37086368
174	0xbf19bb26	-0.6005119
175	0xbec1f261	-0.37880233
176	0xbe0301bf	-0.12793635
177	0xbe4a74a6	-0.1977106
178	0xbe3ff179	-0.18744458
179	0xbe23d37a	-0.1599864
180	0xbc85b898	-0.016323373
181	0xbea8ee60	-0.32994366
182	0xbe9e234c	-0.30886304
183	0xbe1c0014	-0.15234405
184	0xbe342ede	-0.17596003
185	0xbd5ef99d	-0.05443727
186	0xbf08c6e8	-0.53428507
187	0x3e1641c1	0.1467352
188	0x3e884f02	0.26622778
189	0xbe737736	-0.23775944
190	0x3ed5e4d2	0.4177614
191	0xbe87a4d8	-0.26492953
192	0xbe8ce6c3	-0.27519807
193	0xbec9136d	-0.39272633
194	0x3d66a03b	0.05630515
195	0xbe10d680	-0.14144325
196	0x3ea96345	0.3308355
197	0x3e924d30	0.28574514
198	0x3e775764	0.2415443
199	0xbf1c3fb4	-0.61034703
200	0xbeb376f3	-0.3505169
201	0xbe23be30	-0.1599052
202	0xbeb633cf	-0.35586402
203	0x3ec7e936	0.39045113
204	0x3e73c9f2	0.23807505
205	0xbd8cd18b	-0.06875905
206	0x3ddaf952	0.10692085
207	0x3dc9591a	0.09831448
208	0xbeaf3f8a	-0.34228164
209	0x3ebe950b	0.37223086
210	0x3e9ac5a0	0.302289
211	0xbe256ebc	-0.16155523
212	0xbe7d9e56	-0.24767432
213	0x3ea65e4f	0.32493827
214	0x3edd15bc	0.43180645
215	0x3e3856d4	0.18001872
216	0xbeb58ace	-0.35457462
217	0xbeb15a87	-0.3463938
218	0x3e729f79	0.23693646
219	0xbe33a066	-0.17541656
220	0x3ea9d5b8	0.33170867
221	0x3d4aea38	0.049539775
222	0xbe95cfdd	-0.2926015
223	0xbda78579	-0.08179755
224	0x3d752d41	0.05985761
225	0x3d419940	0.04726529
226	0xbe977a55	-0.2958552
227	0xbec9e6e2	-0.39433962
228	0x3ea82112	0.3283773
229	0x3e806fb4	0.25085223
230	0xbe24271c	-0.16030544
231	0xbed03e9c	-0.40672767
232	0xbe769817	-0.24081455
233	0xbecc9acc	-0.3996185
234	0x3e25b33b	0.16181652
235	0xbe1a6430	-0.15077281
236	0xbeae0059	-0.3398464
237	0x3ea5a520	0.32352543
238	0xbee649ab	-0.4497808
239	0xbf28014d	-0.65626985
240	0x3e155e4b	0.14586751
241	0xbeed3aed	-0.4633402
242	0x3ed3150e	0.41227
243	0x3e93faa7	0.2890217
244	0x3f110f72	0.5666419
245	0x3e040857	0.12893806
246	0x3de6dd06	0.112726256
247	0xbdb89b37	-0.0901398
248	0xbef4ad4b	-0.47788462
249	0xbda128a9	-0.078690834
250	0xbed6e043	-0.41967973
251	0x3daf2223	0.08551433
252	0x3dc46f83	0.09591582
253	0x3e709dad	0.23497649
254	0xbf0f68f3	-0.56019515
255	0xbe9b5b86	-0.30343264

conv2.fc_neigh.weight f4 [16, 16]
0	0xbdcf4bbb	-0.10121866
1	0x3ecebdd7	0.4037921
2	0x3ea66e33	0.3250595
3	0xbf6a3585	-0.91487914
4	0xbc17f108	-0.009273775
5	0x3e6aca27	0.22928677
6	0xbe030f01	-0.12798692
7	0xbe425ace	-0.18979952
8	0x3d128f38	0.035781115
9	0xbe1ece47	-0.15508376
10	0xbec55031	-0.38537744
11	0x3eb89643	0.3605214
12	0x3e961300	0.2931137
13	0xbe1456a5	-0.14486177
14	0x3d61388d	0.05498557
15	0x3ec17bfd	0.37789908
16	0x3ee7fa35	0.4530808
17	0x3c970a01	0.018437387
18	0xbe9f56ef	-0.31121013
19	0x3ed05d7c	0.40696323
20	0x3e293d79	0.16527356
21	0x3e35f697	0.17769848
22	0x3e2071ad	0.15668364
23	0x3ec690af	0.3878226
24	0x3e3f26a8	0.1866709
25	0x3eca1819	0.3947151
26	0xbed1217d	-0.40845862
27	0x3ef67df0	0.48142958
28	0xbe0f46a2	-0.13991788
29	0xbf2435a7	-0.64144367
30	0xbd89efa0	-0.06735158
31	0xbefe8854	-0.49713385
32	0x3e35191c	0.1768536
33	0x3e1ccec1	0.15313245
34	0xbea55938	-0.3229463
35	0xbe9ec658	-0.310107
36	0x3e9b5a8c	0.3034252
37	0x3d9b0f9d	0.07571337
38	0x3e8d5514	0.27603972
39	0xbeb18a16	-0.34675664
40	0xbeb387bf	-0.35064504
41	0x3eea436d	0.45754567
42	0x3e50f3f1	0.20405556
43	0xbebb47f3	-0.3657833
44	0xbe1f7764	-0.15572888
45	0xbf059a95	-0.52189
46	0x3e89ade3	0.26890478
47	0x3efc0964	0.49225914
48	0xbe125004	-0.14288336
49	0x3f22f5ae	0.6365613
50	0xbf5349b1	-0.8253432
51	0xbd0db1df	-0.03459346
52	0x3f4a12db	0.7893502
53	0xbc249c07	-0.010046965
54	0x3eeebb79	0.46627405
55	0x3de26175	0.11053745
56	0xbf1555bb	-0.5833394
57	0xbdf8f3dd	-0.12155888
58	0xbe41442f	-0.18873666
59	0xbed6cda2	-0.4195376
60	0x3e6a6e49	0.22893633
61	0x3e4fe2bc	0.20301336
62	0xbf1b0d50	-0.6056719
63	0x3edada1b	0.42744526
64	0x3f046ead	0.5173138
65	0xbeb49706	-0.35271472
66	0xbe23302b	-0.15936343
67	0x3c05d3a8	0.008168139
68	0x3ee24fc2	0.44201475
69	0xbf656f55	-0.89623004
70	0x3ed105d1	0.4082475
71	0xbe61d23b	-0.22052853
72	0x3e28f89c	0.16501087
73	0x3f034e76	0.51291597
74	0xbef3c499	-0.4761093
75	0xbeefea60	-0.468585
76	0x3d23c102	0.03997899
77	0x3da20ae0	0.079122305
78	0xbe7c9539	-0.24666299
79	0xbeceb585	-0.40372863
80	0xbe296294	-0.16541511
81	0x3ea6bc94	0.3256575
82	0x3ea64a10	0.3247838
83	0xbd8e5bad	-0.069510795
84	0xbf2db0dd	-0.67847997
85	0x3ea7e13d	0.3278903
86	0xbe420654	-0.18947726
87	0x3f0709ea	0.527495
88	0x3dec5b1f	0.115408175
89	0xbf0efbaf	-0.5585279
90	0xbf418485	-0.75592834
91	0x3e7aad8a	0.24480262
92	0x3edfec5b	0.43735012
93	0x3e0fa397	0.14027248
94	0xbedd270d	-0.43193856
95	0x3e8b9495	0.27261797
96	0xbd11ef3c	-0.035628542
97	0xbec841bd	-0.39112654
98	0x3e032f98	0.12811124
99	0xbd9e8ba2	-0.077414766
100	0x3e6198de	0.2203097
101	0x3f27b7f7	0.65515083
102	0xbee6fcae	-0.45114654
103	0x3ec8fb83	0.39254388
104	0xbe042ca9	-0.12907661
105	0xbda30a85	-0.07960991
106	0x3e359cb9	0.17735566
107	0xbf096390	-0.53667545
108	0x3f10f4d6	0.5662359
109	0xbf0da410	-0.55328465
110	0xbebaa5b6	-0.36454552
111	0xbe3d426f	-0.18482374
112	0x3f4afb98	0.7929015
113	0x3dfda132	0.12384261
114	0x3ecbeac8	0.3982756
115	0xbda295bc	-0.07938716
116	0xbedec88e	-0.43512386
117	0xbe83fa0d	-0.2577671
118	0xbe2dd85d	-0.16977067
119	0x3cd0fe21	0.025511803
120	0x3bdff7e8	0.0068349726
121	0x3e764086	0.24048051
122	0xbd83ff25	-0.06445149
123	0x3ee5901f	0.44836518
124	0x3df31fcd	0.118713
125	0xbe8e3c9b	-0.27780613
126	0xbdf776e3	-0.12083223
127	0xbdc36cbd	-0.095422246
128	0xbe80abec	-0.25131166
129	0x3ee62fce	0.44958347
130	0xbebede0e	-0.3727879
131	0x3eab050d	0.3340229
132	0x3d3d2e08	0.046186477
133	0x3e0640bf	0.13110636
134	0xbed85bbf	-0.42257497
135	0x3da8a68d	0.08234892
136	0xbebd1fa8	-0.36938214
137	0x3e3e41db	0.1857981
138	0x3e58c23e	0.21167848
139	0x3f36b9eb	0.7137744
140	0x3f3889b7	0.72085136
141	0x3eed8e20	0.46397495
142	0x3e895431	0.26822045
143	0xbcfb3995	-0.030667106
144	0xbeec12b2	-0.46108013
145	0xbda7ba1d	-0.08189795
146	0xbf3abea7	-0.7294716
147	0xbecce502	-0.4001847
148	0x3eeaebce	0.4588303
149	0xbe81f59e	-0.25382704
150	0xbedebd99	-0.43504027
151	0xbea74377	-0.3266866
152	0x3efbab76	0.49154252
153	0x3f30e8df	0.69105333
154	0xbe0bc7ab	-0.13650386
155	0x3cb34d21	0.021887364
156	0x3d723fe6	0.05914297
157	0x3f46e652	0.7769519
158	0xbd6c8a54	-0.057749107
159	0x3ec5cc2e	0.3863234
160	0x3ec37c18	0.38180614
161	0xbf06881c	-0.52551436
162	0x3f15994d	0.58437043
163	0xbe9a7916	-0.30170506
164	0x3f2d6d7d	0.6774519
165	0x3e9e909e	0.3096971
166	0x3f1dd4f0	0.6165304
167	0xbe117da1	-0.1420808
168	0xbe1f69dc	-0.15567726
169	0xbec45afc	-0.38350666
170	0x3ef62ba4	0.4808017
171	0xbea5d83e	-0.32391542
172	0x3d79425d	0.060854305
173	0x3e24ac50	0.16081357
174	0xbf0b0f52	-0.5432025
175	0xbf165497	-0.58722824
176	0xbf12e7d3	-0.57384986
177	0xbedaf4b2	-0.42764813
178	0xbf0356dd	-0.5130442
179	0x3ea0b1cd	0.3138565
180	0x3d9969a7	0.07490855
181	0x3ee40c9c	0.4454087
182	0x3ec8ad42	0.39194685
183	0xbd69f928	-0.05712238
184	0x3f2357be	0.6380576
185	0xbe9b8900	-0.3037796
186	0xbdb936cd	-0.090436555
187	0xbdff3751	-0.12461723
188	0x3dc6fdf9	0.0971641
189	0x3d017345	0.03160407
190	0x3efe3a83	0.49654016
191	0xbe9939c4	-0.29926884
192	0xbe7d288d	-0.247225
193	0x3d632361	0.05545366
194	0xbdd59ca8	-0.104302704
195	0x3e758785	0.23977478
196	0xbde08d6e	-0.109644756
197	0x3f20c85b	0.6280572
198	0x3ea8e4a6	0.32986945
199	0xbf4e24fc	-0.80525184
200	0xbf1b83a1	-0.60747725
201	0xbf044a51	-0.516759
202	0xbe6cb3e3	-0.23115496
203	0xbee74dd1	-0.45176557
204	0x3f17764e	0.59164894
205	0x3df0663d	0.117382504
206	0xbe21f936	-0.15817723
207	0xbdd52c63	-0.10408857
208	0xbf15b07f	-0.58472437
209	0x3f1f61b2	0.62258446
210	0xbef7f121	-0.48426154
211	0x3e4ebc52	0.20189026
212	0x3badb599	0.005301189
213	0x3e524890	0.20535493
214	0x3ef55d64	0.47922814
215	0x3ea8ab31	0.3294311
216	0x3e3ab61e	0.18233535
217	0x3ef01997	0.46894524
218	0xbed525f2	-0.41630512
219	0x3e039b31	0.1285217
220	0xbeeca451	-0.46219113
221	0x3e343dea	0.17601743
222	0xbe9daba5	-0.30795017
223	0xbdcb4458	-0.09925145
224	0x3ebc0867	0.3672516
225	0x3ed9bdb6	0.4252755
226	0xbe4bc759	-0.19900264
227	0xbe972943	-0.29523668
228	0x3e47e442	0.19520667
229	0x3dcde186	0.10052781
230	0x3c67c8ff	0.014147042
231	0x3f1d9cb1	0.6156722
232	0xbe6a64b8	-0.22889984
233	0xbf78fbfd	-0.97259504
234	0x3edd64ca	0.43240958
235	0xbe374cc2	-0.17900375
236	0x3e2d6b69	0.16935505
237	0xbebe596e	-0.37177604
238	0xbe3dddc6	-0.18541631
239	0x3dd5d938	0.10441822
240	0xbe8a841e	-0.27053922
241	0x3d198b6c	0.03748648
242	0x3d9ddf7d	0.07708643
243	0x3f12533c	0.57158256
244	0x3f30b28a	0.6902243
245	0x3e8f5cd3	0.28000507
246	0x3dd76909	0.10518081
247	0x3f1f27de	0.6217021
248	0xbf25a64b	-0.6470687
249	0xbda882ef	-0.082280986
250	0x3e1d0f43	0.15337853
251	0x3eccf3c6	0.40029734
252	0xbda7a5bd	-0.08185909
253	0xbe84750e	-0.25870556
254	0x3ebf88d3	0.37409076
255	0x3f043f15	0.51658756

conv3.bias f4 [16]
0	0x3ac527a5	0.0015041722
1	0xbc997149	-0.018730776
2	0xbc28fcff	-0.010314225
3	0x3c2b7aef	0.010466321
4	0x3c0b478f	0.008500948
5	0x3c580d58	0.013186775
6	0xbc36f898	-0.011167668
7	0x3ca6d1b8	0.020363674
8	0xbc2dc1c9	-0.010605284
9	0x3c495d83	0.012290361
10	0xbbf539f3	-0.0074837147
11	0xbc5b6a04	-0.013391975
12	0xba3dbbc1	-0.00072377553
13	0xbc189c70	-0.009314641
14	0xbbb271d9	-0.0054457006
15	0x3be7fa4d	0.0070793987

conv3.fc_self.weight f4 [16, 16]
0	0x3de818de	0.11332868
1	0x3e11235c	0.14173645
2	0xbd551a58	-0.052027076
3	0x3eb364f3	0.35037956
4	0x3d44f1df	0.04808223
5	0x3e141c7f	0.14463995
6	0x3cb49358	0.022042915
7	0xbea94ad4	-0.33064902
8	0x3e4b0426	0.19825801
9	0xbe33836b	-0.175306
10	0xbd169fcf	-0.0367735
11	0x3e03ba15	0.12863953
12	0xbecea933	-0.40363464
13	0xbe85b6de	-0.2611608
14	0xbde51c33	-0.11187019
15	0x3e4030ff	0.1876869
16	0x3ec08cee	0.3760752
17	0xbf0c4433	-0.54791564
18	0x3ef128c3	0.4710141
19	0xbe20c81b	-0.15701334
20	0xbea69279	-0.32533625
21	0xbea38a0c	-0.3194126
22	0xbeb10885	-0.34576812
23	0xbe3f29d2	-0.18668297
24	0x3e64129b	0.22272722
25	0x3d0ea1d6	0.034822308
26	0xbd88bcc8	-0.06676632
27	0x3ef6254c	0.4807533
28	0x3e0f4aab	0.13993327
29	0xbd3e11ab	-0.04640357
30	0xbddb44fe	-0.107065186
31	0x3e401038	0.18756187
32	0xbdf96fe0	-0.121795416
33	0x3ea1dfcb	0.31616053
34	0xbea03f7a	-0.3129843
35	0x3e3b67cd	0.18301316
36	0xbede5ee6	-0.43431777
37	0xbdab87cf	-0.08375513
38	0x3ef83307	0.4847643
39	0x3da73635	0.08164636
40	0xbc39c69a	-0.011338854
41	0x3eada136	0.33912057
42	0xbe1d04fc	-0.15333933
43	0xbebd0fd4	-0.36926138
44	0x3cc44816	0.023960155
45	0x3dbd8bed	0.09255204
46	0x3e623fae	0.22094604
47	0xbed6f415	-0.41983095
48	0x3e2e80c0	0.17041302
49	0x3e8bd72a	0.27312595
50	0xbee168e7	-0.44025347
51	0x3e8dc08d	0.27685967
52	0xbd93ab99	-0.07210464
53	0x3e93baac	0.28853357
54	0x3cc3dd8d	0.023909355
55	0x3e9efb57	0.31051132
56	0xbbbd1c84	-0.0057712216
57	0x3ec2d9cb	0.38056788
58	0x3ec8bb26	0.39205283
59	0x3ee6e78a	0.45098525
60	0x3e78e9e0	0.24307966
61	0x3eb0da62	0.34541613
62	0xbe31da2f	-0.17368387
63	0xbe135af6	-0.14390168
64	0xbefdb734	-0.49553835
65	0x3e4a059c	0.19728702
66	0xbe07d83e	-0.13266084
67	0x3e5c79b9	0.21530809
68	0xbe21cc6f	-0.15800641
69	0xbf0df64d	-0.5545395
70	0x3e103025	0.14080866
71	0x3ee2eb4e	0.44320148
72	0xbe6ce3a6	-0.23133716
73	0x3eadad95	0.33921495
74	0xbe971671	-0.2950931
75	0x3ed6d0c8	0.41956162
76	0xbecd5cb0	-0.40109777
77	0x3f085046	0.5324749
78	0x3e822ac8	0.25423265
79	0xbed2234e	-0.4104256
80	0x3e49b418	0.19697607
81	0xbe19969c	-0.14998859
82	0x3e090a37	0.13382803
83	0xbdc488ff	-0.095964424
84	0x3e7a2b92	0.24430683
85	0xbe1e634a	-0.15467563
86	0xbdc67de1	-0.09691978
87	0x3e90cb80	0.28280258
88	0x3cfe0199	0.031006621
89	0xbe421462	-0.18953088
90	0x3e3961df	0.18103741
91	0xbe0bdb40	-0.13657856
92	0x3eb01668	0.34392095
93	0x3db943dd	0.09046147
94	0xbe4b80b6	-0.19873318
95	0x3edae91a	0.42755967
96	0x3ed4e04e	0.4157738
97	0x3d309eee	0.043120317
98	0xbeb4b7c0	-0.3529644
99	0xbe1f0b71	-0.15531708
100	0x3dc28b13	0.094991826
101	0xbed1c35f	-0.4096937
102	0xbf12c18a	-0.5732657
103	0x3eb7b6f8	0.35881782
104	0xbe07a656	-0.13247046
105	0x3e824f88	0.25451303
106	0x3eeb8cb0	0.46005774
107	0xbe14f10e	-0.1454508
108	0xbde420c1	-0.1113906
109	0xbe386f52	-0.18011215
110	0xbdb9871f	-0.090589754
111	0x3e7fae90	0.24968934
112	0xbefe67ae	-0.49688476
113	0x3e27960c	0.16365832
114	0xbdef0fb8	-0.1167292
115	0x3ebb6e66	0.36607665
116	0x3dabe4f0	0.08393276
117	0x3e6478ad	0.22311659
118	0x3ece3bab	0.40279898
119	0x3e44fb1f	0.1923642
120	0x3ec6a5cb	0.38798365
121	0xbe6cb1a3	-0.23114638
122	0xbc93f98d	-0.018063331
123	0xbc04d3ca	-0.008107135
124	0x3e49de1f	0.19713639
125	0xbeec1409	-0.46109036
126	0x3e414f63	0.1887794
127	0xbe983ca0	-0.29733753
128	0x3e103bbe	0.1408529
129	0xbd2ebd8f	-0.042661246
130	0xba0f5cb6	-0.0005468832
131	0x3e068009	0.13134779
132	0xbeafd413	-0.34341487
133	0xbda15298	-0.07877082
134	0xbe08e7ef	-0.13369726
135	0xbebf2179	-0.37330225
136	0xbe0fb946	-0.1403552
137	0xbe3f9707	-0.18709956
138	0xbc2bc3ad	-0.010483664
139	0xbda52717	-0.080640964
140	0xbec88058	-0.3916042
141	0xbeed88b1	-0.4639335
142	0x3d9b304e	0.07577573
143	0xbddfc686	-0.10926537
144	0x3e9bc4fd	0.30423728
145	0x3e738754	0.23782092
146	0x3db5f37d	0.08884332
147	0x3e67b93e	0.22629258
148	0xbea581d6	-0.3232562
149	0xbe8731a1	-0.2640505
150	0x3e237c08	0.15965283
151	0x3d4d66c2	0.050146826
152	0xbe3312bf	-0.1748762
153	0xbe7650ec	-0.24054307
154	0x3ec9c5e4	0.3940879
155	0x3e178ac3	0.14799027
156	0xbe9cc76f	-0.30620906
157	0xbe7eef04	-0.24895865
158	0xbecc561d	-0.3990945
159	0xbc35480c	-0.011064541
160	0x3ecb0413	0.39651546
161	0x3e1d0396	0.15333399
162	0xbeee5688	-0.46550393
163	0xbc384fad	-0.011249465
164	0xbdb4488c	-0.088029
165	0xbe706384	-0.23475462
166	0xbf09df39	-0.53856236
167	0xbe29f4b6	-0.16597256
168	0xbee4edbc	-0.44712627
169	0x3eb2a23e	0.34889406
170	0xbdfe1d68	-0.124079525
171	0xbf15e9da	-0.58559954
172	0xbdd6a364	-0.10480383
173	0x3f09a112	0.537614
174	0x3e1c5377	0.15266214
175	0xbe687d4d	-0.22704048
176	0xbe3091a1	-0.17243053
177	0x3e5d29bf	0.21597956
178	0xbe85fe3e	-0.26170534
179	0x3ea081f9	0.3134916
180	0xbeb9f836	-0.36322182
181	0x3da48139	0.0803246
182	0xbe05867d	-0.13039584
183	0x3f0a81aa	0.541041
184	0x3ea3b4f2	0.31973988
185	0x3bbdba6c	0.0057900455
186	0x3e271047	0.16314803
187	0x3ec2aac0	0.38020897
188	0x3e9e40cc	0.3090881
189	0xbdffdf47	-0.12493759
190	0xbf01db1a	-0.5072495
191	0x3e0e241c	0.13880962
192	0xbe46e6f8	-0.19424045
193	0x3e39a6b2	0.18129995
194	0xbd8fb879	-0.07017607
195	0x3e5a5dcb	0.21324842
196	0xbf144afa	-0.57926905
197	0x3ec0bedb	0.3764561
198	0xbe529fa2	-0.20568708
199	0xbe7b55bb	-0.24544422
200	0xbe9fcd43	-0.3121129
201	0xbdc030f6	-0.093843386
202	0x3d4dedb2	0.050275512
203	0x3eb55bf9	0.35421732
204	0xbec9dd02	-0.39426428
205	0xbd839df0	-0.064266086
206	0x3eb6aa02	0.3567658
207	0xbe15fba8	-0.1464678
208	0x3c9d97d0	0.019237429
209	0xbe53e43b	-0.20692532
210	0x3eb1ddc7	0.34739515
211	0xbe0f2ec6	-0.13982686
212	0xbee22d4b	-0.4417518
213	0xbeb6feae	-0.3574118
214	0x3de8d9bc	0.113696545
215	0xbddf24d3	-0.108956955
216	0xbe57ccbd	-0.21074195
217	0xbe86a57f	-0.26298138
218	0xbe9667cf	-0.29376075
219	0x3eb2ee79	0.34947565
220	0xbed613a1	-0.4181185
221	0x3d518ef0	0.051161706
222	0x3e3a9886	0.18222246
223	0x3b78c13c	0.0037956974
224	0x3e82033d	0.25393096
225	0x3d3f7e38	0.04675123
226	0xbebf295a	-0.37336236
227	0xbe2e03c1	-0.1699362
228	0xbe5813a0	-0.21101236
229	0x3bfd7d35	0.007735873
230	0xbd5e46ee	-0.054266863
231	0xbe8c125b	-0.27357754
232	0x3e8e2cfe	0.277687
233	0x3da7e926	0.081987664
234	0x3eeb293a	0.4592989
235	0xbcf9acdf	-0.03047794
236	0xbebcecbe	-0.3689937
237	0xbe3d58c9	-0.184909
238	0xbde277f4	-0.110580355
239	0xbda07d3b	-0.07836386
240	0xbd4833e2	-0.048877604
241	0x3e851c12	0.25997978
242	0xbd89ec8e	-0.06734572
243	0x3d30ff77	0.04321238
244	0xbef683ed	-0.48147526
245	0x3e98c73b	0.298395
246	0x3d22edb5	0.039777476
247	0xbe91e1e9	-0.28492668
248	0xbed25070	-0.41076994
249	0xbe4a22c0	-0.19739819
250	0xbe5363cf	-0.20643543
251	0xbee16138	-0.44019485
252	0xbe19d229	-0.15021576
253	0xbed44cb4	-0.4146477
254	0x3cff82e8	0.03119035
255	0xbdf72535	-0.120676436

conv3.fc_neigh.weight f4 [16, 16]
0	0x3efff24d	0.49989548
1	0x3d3fadc0	0.04679656
2	0xbf269865	-0.65076286
3	0xbe344b90	-0.1760695
4	0x3eebe6ff	0.46074674
5	0x3e51b537	0.20479284
6	0xbd084c7f	-0.033276077
7	0xbeb6152a	-0.35563022
8	0x3efd9799	0.49529722
9	0xbc455d57	-0.01204618
10	0xbe7c2cd1	-0.24626471
11	0xbe9a974a	-0.3019355
12	0xbc979ea3	-0.018508261
13	0x3dfe7427	0.12424498
14	0x3eb0b9f5	0.34516874
15	0x3eb20aa7	0.34773752
16	0x3d2119b9	0.03933117
17	0xbf1f245e	-0.62164867
18	0x3d8fb76f	0.07017409
19	0xbedaf6d9	-0.42766455
20	0x3e4dc6c4	0.20095354
21	0x3d5aef59	0.053450916
22	0x3cefd089	0.029274242
23	0xbee8dfb7	-0.4548318
24	0x3ec425e0	0.38310146
25	0x3ede9fdd	0.4348134
26	0xbe89b244	-0.26893818
27	0x3e8337d2	0.25628525
28	0xbe44b9da	-0.19211522
29	0x3cafb700	0.021449566
30	0x3e6b4ad2	0.2297776
31	0x3d97ee15	0.074184574
32	0x3ec7da30	0.3903365
33	0x3ebf669c	0.37382972
34	0xbe056676	-0.13027367
35	0x3e1c48f7	0.15262209
36	0xbed4cf85	-0.41564575
37	0xbed8045b	-0.42190823
38	0x3f1e9f90	0.61962223
39	0xbe217617	-0.15767704
40	0x3e0e71e1	0.13910629
41	0x3ebb42a1	0.3657427
42	0xbea461d9	-0.32105902
43	0xbf1d1a0f	-0.6136789
44	0xbe6045bf	-0.21901606
45	0xbdb88fc3	-0.09011795
46	0x3ef7968b	0.48357043
47	0xbe766f85	-0.24065979
48	0x3eba2810	0.3635869
49	0x3f0008cc	0.5001342
50	0xbe2bcee1	-0.16778137
51	0x3df0aa6a	0.11751254
52	0x3ef1a64f	0.47197196
53	0x3e906206	0.28199786
54	0x3d869603	0.06571581
55	0xbeb46886	-0.35235995
56	0xbe3373b9	-0.17524613
57	0xbd1c0271	-0.038088266
58	0xbf36fd76	-0.714805
59	0x3e86e765	0.26348415
60	0xbe5b4586	-0.2141324
61	0xbe43e007	-0.19128428
62	0x3d6409c4	0.055673376
63	0x3e5060ca	0.20349422
64	0x3de927c7	0.1138454
65	0x3f413912	0.7547771
66	0xbdbf3073	-0.09335413
67	0xbe285125	-0.16437204
68	0xbf1800d3	-0.5937626
69	0xbeab2561	-0.33426955
70	0xbe7a378a	-0.24435249
71	0xbec34e8e	-0.3814587
72	0xbdcfb68d	-0.10142241
73	0xbdeb3ef9	-0.114866205
74	0x3eb80371	0.35940126
75	0x3e6ac99b	0.22928469
76	0xbe8ba7b3	-0.27276382
77	0x3f053b34	0.5204346
78	0xbdc741ab	-0.09729322
79	0xbebc6531	-0.36795953
80	0xbf62334d	-0.8835953
81	0xbf158495	-0.5840543
82	0x3e29990b	0.16562288
83	0xbc9de056	-0.01927201
84	0xbd6e966c	-0.058248922
85	0x3eff9675	0.49919477
86	0x3e8929d7	0.26789734
87	0xbe489803	-0.19589238
88	0xbe528af6	-0.20560822
89	0xbf065ca1	-0.5248509
90	0xbe8da9a5	-0.2766849
91	0x3e86ada0	0.2630434
92	0xbefeed7a	-0.49790555
93	0x3f0f8659	0.56064373
94	0x3e520635	0.2051018
95	0x3d384b33	0.04499359
96	0xbe8b416b	-0.27198347
97	0x3ee06eee	0.43834633
98	0xbe93c0f4	-0.2885815
99	0xbe622925	-0.22086008
100	0xbeca1e57	-0.39476272
101	0x3e53550d	0.20637913
102	0xbe589a87	-0.21152698
103	0xbd2f93d6	-0.042865597
104	0x3eb7ad04	0.35874188
105	0x3e6abad9	0.22922839
106	0x3ed503b5	0.4160439
107	0xbeae45c4	-0.34037602
108	0x3dddd5d5	0.10831801
109	0xbefa0f4c	-0.48839796
110	0xbdc163d2	-0.09442867
111	0xbd56eb36	-0.05247041
112	0xbe573ba0	-0.21018839
113	0xbdd67745	-0.104719676
114	0x3c1fb7ec	0.00974844
115	0xbe354796	-0.17703089
116	0x3ea046b0	0.3130393
117	0xbeb5a760	-0.3547926
118	0x3e5bc6de	0.2146258
119	0x3e9efd29	0.3105252
120	0x3e20f1dd	0.15717264
121	0xbf08207c	-0.5317457
122	0xbf174480	-0.590889
123	0x3d1a4895	0.037666876
124	0x3e721247	0.23639785
125	0xbe9a04f8	-0.30081916
126	0x3f0bdb5b	0.54631585
127	0xbf26087b	-0.6485669
128	0xbee760d2	-0.45191056
129	0xbea3ea33	-0.32014617
130	0xbe96f086	-0.2948038
131	0x3eef5d33	0.46750793
132	0x3efe76b0	0.49699926
133	0xbeaa4e7a	-0.33262998
134	0x3df39dc7	0.11895328
135	0x3e9a4074	0.301273
136	0xbefb5d72	-0.4909473
137	0x3ecd7df4	0.40135157
138	0xbea92b00	-0.3304062
139	0xbe1d6fa7	-0.15374623
140	0xbeb1442d	-0.34622326
141	0x3d407b0f	0.046992358
142	0x3dfeb9fd	0.12437818
143	0x3ed2da8f	0.41182372
144	0x3f3fca90	0.7491846
145	0xbe5a7a5a	-0.21335736
146	0x3c76156f	0.015019759
147	0xbec0f187	-0.3768427
148	0x3e93e782	0.28887564
149	0xbf05891b	-0.5216233
150	0x3e89e27a	0.269306
151	0xbdde320f	-0.10849392
152	0xbecd88cd	-0.40143433
153	0xbe616d8e	-0.22014448
154	0x3cd24524	0.025667734
155	0x3ec3bf5e	0.3823194
156	0x3e2df86e	0.169893
157	0x3ea25c8b	0.3171123
158	0xbb5130aa	-0.0031919875
159	0xbe49d76d	-0.19711085
160	0x3e486bd1	0.19572379
161	0x3e676c82	0.22599986
162	0x3ebee139	0.37281206
163	0x3e166c98	0.14689863
164	0xbec34b25	-0.38143268
165	0xbe38347f	-0.17988776
166	0xbf546c29	-0.8297754
167	0x3e3f6365	0.1869026
168	0x3e0aea73	0.13565998
169	0xbebb3e5c	-0.36571014
170	0xbe04ed6e	-0.12981197
171	0xbeb8b1e9	-0.36073235
172	0x3e2ca7d1	0.16860892
173	0x3e8c3ff9	0.27392557
174	0xbe8ef3af	-0.2792029
175	0xbdf57c60	-0.11986613
176	0xbe4e6088	-0.20154011
177	0x3e3a396d	0.18185969
178	0x3ef125ee	0.4709925
179	0x3f34c9ec	0.7062061
180	0xbe9a99bb	-0.30195412
181	0xbd399a7a	-0.045313336
182	0x3f27f270	0.65604305
183	0x3d8bfd2e	0.068353996
184	0xbee596da	-0.44841653
185	0x3ed52c8b	0.41635546
186	0xbec7e459	-0.39041403
187	0xbecfa689	-0.40556744
188	0x3eb38d0a	0.35068542
189	0xbbe74e8d	-0.0070589245
190	0xbd944bb6	-0.07241003
191	0xbd8401fa	-0.064456895
192	0x3f0fe730	0.5621214
193	0x3d7399e5	0.059472937
194	0x3e6a79e9	0.22898068
195	0xbdb21db0	-0.08697069
196	0xbda66819	-0.08125324
197	0xbcf463c8	-0.029832736
198	0xbf04c6f7	-0.51866096
199	0xbeb0cb62	-0.3453017
200	0xbeb63368	-0.35586095
201	0xbe2d5266	-0.16925964
202	0x3e208e09	0.15679182
203	0x3ea6ac8c	0.32553518
204	0x3e2cdff0	0.168823
205	0xbe90cbc4	-0.2828046
206	0x3f2d45df	0.6768474
207	0x3e9bc471	0.3042331
208	0x3e7c5bcb	0.24644391
209	0x3ef23f9a	0.4731415
210	0x3e8da396	0.2766387
211	0xbe725e5d	-0.23668809
212	0xbf04d25f	-0.518835
213	0x3e3badd7	0.18328033
214	0x3e878b67	0.26473543
215	0xbd446b0e	-0.047953658
216	0xbe12ba50	-0.14328885
217	0xbeaf2278	-0.34205985
218	0xbda8d6a5	-0.08244065
219	0x3d94c24b	0.07263621
220	0xbed5ef05	-0.4178392
221	0xbee5db81	-0.4489403
222	0xbeefb511	-0.4681783
223	0x3f37b8f7	0.7176661
224	0xbccba6cd	-0.02485981
225	0xbe7abee4	-0.24486881
226	0x3e92664e	0.28593677
227	0xbda083c3	-0.078376316
228	0x3c072f3f	0.00825101
229	0x3ea0850d	0.3135151
230	0x3f268df6	0.65060365
231	0x3e4cc851	0.1999829
232	0xbea86975	-0.32892957
233	0xbd258ffa	-0.04042051
234	0x3ef767db	0.48321423
235	0x3efc425d	0.4926938
236	0xbc0e1b14	-0.008673448
237	0x3f2694ea	0.65070975
238	0xbe9e6329	-0.30935028
239	0xbe74ba89	-0.23899283
240	0xbd85c2c2	-0.06531288
241	0xbf0606b0	-0.52353954
242	0xbeebd692	-0.46062142
243	0xbe8394d3	-0.2569948
244	0x3e813467	0.25235292
245	0x3e4a4c7f	0.19755743
246	0xbce120c1	-0.027481439
247	0x3ef281e1	0.47364715
248	0xbf17e119	-0.59327847
249	0x3e88ec08	0.26742578
250	0xbefbc081	-0.49170306
251	0xbc232058	-0.009956442
252	0x3ed982fb	0.42482743
253	0x3e2976a1	0.1654916
254	0x3eb2dcbb	0.3493403
255	0xbe7e3cc4	-0.24827868
