model.pth (torch, 15233 bytes, 12 tensors)

conv1.bias f4 [16]
00000000: 814b 5f3d 7404 fa3c 0f8e f63c 075d 13bc
00000010: e9b1 92bd 6e7e b33b ae60 c4bc 08e7 38be
00000020: c6ac 4d3c d5c0 13be f785 a63d 8a4d 5b3d
00000030: a8af 803c 6b93 08bd cae6 233d 693c 6fbd
0.054515366 0.030519702 0.030097036 -0.008994347 -0.0716284 0.005477718 -0.023971882 -0.18056881
0.012553399 -0.14429028 0.081310205 0.053540744 0.01570876 -0.033343714 0.04001502 -0.05840722

conv1.fc_self.weight f4 [16, 40]
00000000: ed26 d6bd 99c8 22be 1fd6 883c 1341 bb3e
00000010: f5be 753e 296d ffbd af5d 6ebe d26a cf3d
00000020: f9e7 0c3f 6bf4 07be dbe0 1cbe d203 93bd
00000030: 5d1a 64be c344 f0bd f105 84be 12e1 cd3e
00000040: 2a63 743f 33f5 563e 4a43 19bc 2a94 19be
00000050: 0224 e73b 30cc 9bbe 9ff4 1dbe b87b 0dbf
00000060: ccb3 4c3f 64d6 14bd f389 a83b 66eb 67bc
00000070: 4f1c debe 17f1 15be 77be 96be 78f7 cf3d
00000080: 65d2 3abc 12c5 b2bd 5392 0abd cdd6 0a3e
00000090: 3eaa 2abe 2a07 9bbe edea c7be f726 79be
000000a0: 6d05 9abe e709 9b3d 7d15 143e d5ae bb3e
000000b0: 7c70 e4bd 8ed2 bbbe fa31 e1be 0d7e d1be
000000c0: be47 c73d 918f 74bd 12b4 213d 7043 153e
000000d0: d342 123d 57c0 c8be f7bd b7be 23d3 93be
000000e0: 78bd 9438 b241 4fbd 6844 d3bd 799d 763d
000000f0: 592b 2fbc 58c7 2b3e 25aa 883e ceff 123f
00000100: 6e4f 3c3e bced 30be 825d 4dbe 54df 9ebe
00000110: 8876 883d cd0d b03d 724c 123d 619c 8d3d
00000120: c4f8 a43d e9b4 2d3d 07e4 343e 895f ab3e
00000130: 8493 9c3e c464 ea3e b6c1 18bd d09a 3f3d
00000140: 828b 993d 30d4 cc3c a032 87bd d2b5 c6be
00000150: 7be6 03bd 7a95 e2bc a10c 1bbe 13ec 88be
00000160: 68d8 3ebe 71b4 cfbe 80bc ddbe 2e62 6ebf
00000170: c86e e7bc 5391 8fbd 4e9c 5bbe d91c 9abe
00000180: 630a 373e 5ee5 5b3d dc4d a3bc 24b9 68be
00000190: 8c3c 283e 908a 08be 28a8 90bd 7302 22bf
000001a0: aa2d be3e 5f48 3e3e 3455 073e 83a8 47be
000001b0: 81fd 603d c112 9c3d 3ae8 93bd 0f13 acbe
000001c0: 5705 cb3e f14b 623e f5a5 c93d 65c3 43bd
000001d0: a5c0 933e fb66 253e 3056 acbd 9d59 1c3e
000001e0: b6b1 633e f9c3 4b3d 3183 263e 320d c33e
000001f0: 4517 44bf 7c88 9dbe 1b5d 96be 9996 1f3f
00000200: c0ae 9abe ce8e 6bbe a58a 5f3d 4fe4 cf3e
00000210: e0d9 24bf ea27 89bd 2dca 643c 4305 1fbe
00000220: 08e2 48bf d86a 0d3e 4524 723d a86a 043d
00000230: bc67 0b3f da73 403c e773 d2be e067 83be
00000240: 82d6 efbe 93fd ae3d 9e45 523d 7e4c 223e
00000250: 1125 223f 24b5 96be e5b3 63be 18ad 62be
00000260: 9c56 a03d 05a7 6d3d 3f4f aabc 06fd 0c3d
00000270: 3beb b33d 495d 1b3e b8fa 9f3d 436c ca3e
00000280: 61d1 673c dfb6 fb3c 99bf 733d 95c2 3abe
00000290: bbe7 553d e180 163e a243 963e 1f40 2fbf
000002a0: fe7a febe 70b0 8ebd f8be 21bb b993 15bf
000002b0: 2f91 01be 78ed d73d d41a 4f3e 4b88 263f
000002c0: fd12 0ebf f7eb 813e e9fb 6e3e e670 c43d
000002d0: 6c0b 08bd 3427 85bd 755c 72be 4c0f f7be
000002e0: 91ff acbe 2e2d bd3e c17a a33e 429f 4c3e
000002f0: 6200 2fbf 2533 f4bd cc04 153e 6fd6 2f3e
00000300: 1444 fb3e b216 9d3d acbc 83bc 150c e7bd
00000310: 32b5 1dbc a020 2a3e 2ccd 003e 513c 89bd
00000320: 3998 b63d dc9f 95bb 0d1a 2a3d 9955 30be
00000330: 66ce 8cbe 5505 87bd 99fc 61be afdf 6bbe
00000340: 4006 f1bd 6fb1 93be 0d97 2bbe 9124 133e
00000350: 344c 71be 040d 1fbd e4b7 2abe c037 213e
00000360: 0ca6 24be 534b d83d 7aeb b13d 4433 133e
00000370: 62eb a13e eeee a7be 62d5 9d3e 303e 9fbe
00000380: ecd1 2bbf f1aa a23e 018e 3c3e 135b 9f3d
00000390: 52aa 44be eeb5 383e 086b 5dbc 0473 483f
000003a0: 79a2 27be dcfc 233e 945f b63e 2222 703d
000003b0: 4bfc 68be 4e25 983e 3aaa 11bd 5715 593e
000003c0: fe91 e63d 65e6 0e3e 92cf 37be 74de 7a3d
000003d0: c2d3 393e 58f4 183e 3a2b 6abd 8cf8 59bd
000003e0: 4ef3 033d d9d5 80bd 8a06 b2be c178 e0be
000003f0: f7ce d2bd 888d b3bd 18e5 a2be d06a 38bf
-0.10456643 -0.15896834 0.016703663 0.36573085 0.23998626 -0.124719925 -0.23277925 0.10127796
0.5504146 -0.13276832 -0.1532015 -0.07178463 -0.22275682 -0.11731865 -0.25785783 0.40210778
0.9546381 0.20991974 -0.009354422 -0.14997926 0.007053853 -0.3042922 -0.15425347 -0.55266905
0.7996185 -0.03633727 0.005143398 -0.014155244 -0.43380973 -0.1464275 -0.29442188 0.10154623
-0.011402701 -0.087289944 -0.033830952 0.13558502 -0.16666505 -0.30278903 -0.39046422 -0.2433127
-0.30082265 0.07570248 0.14461322 0.36656824 -0.11154267 -0.36684078 -0.43983442 -0.40916482
0.097304806 -0.059707228 0.03947837 0.14576507 0.03570826 -0.39209244 -0.3588712 -0.28872022
7.092481e-05 -0.05059976 -0.10315782 0.06020877 -0.010691487 0.16775262 0.2669231 0.57421577
0.18389675 -0.17278188 -0.20055202 -0.3102976 0.06663233 0.08596382 0.035717435 0.069145925
0.08055261 0.042408857 0.1766511 0.33471325 0.30581295 0.45780003 -0.037294112 0.0467785
0.07497312 0.025003523 -0.06601453 -0.38810593 -0.032202225 -0.027659167 -0.15141536 -0.2674261
-0.1863724 -0.40567353 -0.43307877 -0.9311856 -0.028251067 -0.0701014 -0.21446344 -0.30100134
0.17875056 0.05368554 -0.019934587 -0.22726876 0.16429347 -0.13334107 -0.07063323 -0.6328499
0.37144214 0.18582295 0.13216096 -0.19497876 0.05492926 0.076207645 -0.07222028 -0.3360829
0.3965251 0.22099282 0.09846107 -0.047793765 0.28857914 0.16152565 -0.084148765 0.1526856
0.2223576 0.04974744 0.16260983 0.38096005 -0.76598006 -0.30768192 -0.2936791 0.6233917
-0.3021145 -0.23003694 0.05457558 0.40603873 -0.6439495 -0.06697066 0.013964218 -0.15529351
-0.78469896 0.13810289 0.05911662 0.032328278 0.5445516 0.011746371 -0.4110405 -0.25665188
-0.46843344 0.08544459 0.051335923 0.15849492 0.6333781 -0.29435074 -0.22236593 -0.22136343
0.078290194 0.05802061 -0.02078974 0.03442099 0.08785101 0.15172304 0.07811493 0.39535722
0.014149041 0.030726848 0.059508894 -0.1823829 0.05222295 0.14697601 0.29348475 -0.68457216
-0.4970321 -0.069672465 -0.0024680477 -0.5842853 -0.1265304 0.105433404 0.20225078 0.65051717
-0.55497724 0.2537534 0.23338284 0.09591846 -0.033214018 -0.06501618 -0.23668082 -0.48253858
-0.33788732 0.36948532 0.3192959 0.19982627 -0.6835996 -0.119238175 0.14552611 0.17171644
0.49075377 0.076703444 -0.016081177 -0.11281601 -0.00962572 0.16614008 0.12578267 -0.067009576
0.08915753 -0.004566176 0.04152875 -0.17220153 -0.2750122 -0.06592814 -0.22069015 -0.23034547
-0.1176877 -0.2884631 -0.1675684 0.14369418 -0.23564225 -0.038830772 -0.16671711 0.15743923
-0.16078967 0.10561242 0.08687492 0.14375025 0.31624895 -0.32799476 0.3082686 -0.31102133
-0.6711719 0.31771043 0.18413545 0.07781043 -0.19205597 0.1803815 -0.013514288 0.783005
-0.16370572 0.16014427 0.35619795 0.0586263 -0.22752492 0.2971596 -0.03556273 0.21199547
0.112583145 0.13955076 -0.17950276 0.061247304 0.18147185 0.1493696 -0.05717013 -0.05321555
0.032214455 -0.06290788 -0.34770614 -0.43842128 -0.10293382 -0.08767229 -0.3181541 -0.7203798

conv1.fc_neigh.weight f4 [16, 40]
00000000: 2c79 da3e 85b7 e73e 222e 0d3f 098c 193e
00000010: 0f42 debc f803 603e 28ea 4cbe 820d 023f
00000020: 9224 433e a836 793e a3ee 2bbc 88da 633e
00000030: 117e bc3d f954 2f3e fbc5 9ebe 977a 16bd
00000040: c9fa d9bc 976f 5dbc 68b9 2f3d 1b79 d13e
00000050: 3ae1 c03e 6419 863c 4893 e73e 3cf6 8fbe
00000060: 8850 293e 037f 55bd 296f 3dbd e25f 52be
00000070: 5e38 f73d d56f 793e dcb5 63be eaf7 143f
00000080: fa02 7d3e a069 4f3e 016e eabb b38d 323b
00000090: 5241 1f3e cbca 8e3e 974a 5e3e e540 7bbe
000000a0: b4aa 01be 5e54 843e 31fc 6d3e a926 a53e
000000b0: f912 223e 16fd 6f3d 1528 d43b ff6f 4f3e
000000c0: 4842 cb3d dfab 3fbd 6896 37be c0fc 70be
000000d0: e508 d93e dfcd 863e b421 bb3e fa69 c8bd
000000e0: 71bc d23c 23f0 c13c dc60 ffbd 86a6 2ebb
000000f0: 8dd0 60bc da72 07be c3b1 00be df0e c63d
00000100: f1fe 993e 727c b43d 627a d2bb 9ce6 1a3f
00000110: 39b3 8d3e 91d1 adbd 4d93 173e f4fc 78be
00000120: 489f 2b3e 95ae d13d ecce 57be b0a6 24be
00000130: 2cf1 7ebe 6e33 0e3e e519 36be a39e be3e
00000140: 5cf9 c5bd 7e3d 5fbd ce6c 443f 44b4 533e
00000150: 4c0e a2bd 4292 71bc 07b7 8e3e c384 033f
00000160: 4671 b33d 0b5f 873e 5e44 353f 9ba5 9f3e
00000170: da0a 80be 9d1d e8bb 33c7 883c 36a8 d2be
00000180: 1afb 63be 089a b9bd 1cad 8a3d 8492 d73e
00000190: 7e87 0cbe af71 debd 0c9f 093f 7ba7 ee3e
000001a0: f0d2 4dbe 82e3 76be 962e f8bd ca31 b33e
000001b0: 1b2f dfbe bd6f 6abd 5d2f be3d 3e34 1dbe
000001c0: 4e77 cebe d217 98be ad06 843d 956b f03d
000001d0: ba13 b3be a879 81be c1f0 bf3d 9c8d 0d3f
000001e0: 285a b4bc ea22 19be f6dc a73f e18b f03e
000001f0: b566 873d d80d 443e deb0 3abf fa82 17bf
00000200: ac2d d7bd ab95 4fbe 44fb b0be cd98 443e
00000210: 6bb0 b0bd c226 f0bd 4803 6dbe 74c2 943e
00000220: 519f bfbd 54d9 b5bd c05c 503c 25f6 973d
00000230: fd17 cbbd 4d4f ff3e 5483 9f3e 215f 0b3f
00000240: cdf6 ab3d 14d2 62bd 8e49 47bd 8aa8 a53e
00000250: 15be 523e 6e42 ab3e c058 913e 1d42 923e
00000260: cc3b 383c e39c 583e 4e1f 8e3d bbb2 cc3d
00000270: fd00 ab3d d2ba 333d de98 a53e f40b 9d3e
00000280: 59cd b53c f2fb a13e ec0a 4a3f 8f28 ab3e
00000290: 3524 c5bd 3199 c7be f556 2b3f 510a 623e
000002a0: a344 af3d a85d 233d af40 333f 27f9 343f
000002b0: 7e62 d5bd 53e2 a3bd a071 30bf c71d 41bf
000002c0: 53a4 05be 948c 7abe a95d a3bd 32d0 563e
000002d0: c388 38bd 28c6 893e ec43 ec3e e71b d13e
000002e0: 483d 68be b35f 88be 3468 81be f4c6 d9be
000002f0: 8cbe 78bc d22c 993c 9ac7 3bbe 140a b4be
00000300: e263 c1bd 1d31 7b3d 9cc6 853d 03fc c53d
00000310: c5f8 f9bd 56a9 c8be 1bdf 77bd b036 15bf
00000320: b36b a43e 1f72 6dbb 0be1 05bf 4a51 f3be
00000330: 25c2 023e f6cb c0bc 9a1f 043f 56b0 513e
00000340: 168a a53e 568c 5f3e f1a3 4fbe c0e5 cf3e
00000350: 365c 2c3e 7b56 8f3e 0969 07bf 2e45 a2be
00000360: 872d a73c fdfd c3bc ec6d a2bc 85fe 7c3d
00000370: b9d2 e73e f4e4 93be 99a2 d73e e7af 11bf
00000380: ffdd 06bf 08a3 8bbe ace0 40be 6d4f 68bf
00000390: f992 3bbe e4e0 f03d 7619 01bf c8c9 b33e
000003a0: ed79 54bd c2d9 96bd 7031 a1be 7a20 8fbe
000003b0: bb80 02bf fa4b 16be 37cc 613d 131c f8bc
000003c0: b51b 45be 7601 703e 373b 143e 6fc3 67bc
000003d0: c135 72be 38ca 73be fdd8 8ebe 797a a8be
000003e0: 5dc2 a5be 6b19 2b3e 9b32 853e 36e9 693e
000003f0: 7325 7d3c a566 fd3d 982d 5d3e be74 c53e
0.42670572 0.45257202 0.5514852 0.14994825 -0.027131109 0.21876514 -0.20011199 0.5080186
0.19056919 0.24337256 -0.010493907 0.22251332 0.09203733 0.17122258 -0.31010422 -0.036738005
-0.026608841 -0.013515375 0.042901427 0.4091271 0.37671834 0.016369529 0.45229554 -0.2811755
0.16534626 -0.05212308 -0.04624859 -0.20544389 0.12071298 0.24359067 -0.22237343 0.58190787
0.24708167 0.20255136 -0.007154227 0.0027245104 0.15552261 0.27889094 0.21708141 -0.24536474
-0.12662774 0.25845617 0.23240735 0.32256058 0.1582755 0.05859097 0.0064745047 0.20257567
0.099247515 -0.04679477 -0.17928469 -0.23533916 0.42389598 0.26328942 0.3654915 -0.097858384
0.025724621 0.023674076 -0.12469646 -0.0026649549 -0.013721597 -0.13227406 -0.1256781 0.09670805
0.30077317 0.088127986 -0.0064232806 0.6050813 0.276758 -0.08487237 0.14802285 -0.24315244
0.1675998 0.10238377 -0.21075028 -0.16079211 -0.24896687 0.13886806 -0.17783315 0.37230405
-0.09666702 -0.054502003 0.7672852 0.20674235 -0.07912883 -0.014744343 0.27874014 0.51374453
0.087618396 0.264397 0.70807445 0.31181034 -0.2500828 -0.0070836083 0.016696548 -0.4114396
-0.22263756 -0.09062582 0.06771299 0.4210397 -0.13723561 -0.10861527 0.5375831 0.46612152
-0.20099998 -0.24110225 -0.121182606 0.34998924 -0.43590626 -0.05723547 0.092863776 -0.1535196
-0.40325397 -0.29705673 0.06446586 0.1173927 -0.34975988 -0.2528813 0.09372092 0.55294204
-0.022015646 -0.14954725 1.3114307 0.4698172 0.06611387 0.19145906 -0.7292613 -0.5918423
-0.10506758 -0.20271938 -0.345667 0.19198914 -0.08627399 -0.117261425 -0.23145783 0.29054606
-0.09356559 -0.08879343 0.012717426 0.07419995 -0.09916685 0.4986519 0.31154883 0.5444203
0.08396683 -0.055376127 -0.04865413 0.32355148 0.20580323 0.3344912 0.28388023 0.28566065
0.011244725 0.21153598 0.06939565 0.09995028 0.08349798 0.043879338 0.3234319 0.30673182
0.022192644 0.31637532 0.78922915 0.3342938 -0.096260466 -0.38984063 0.6692956 0.22074248
0.08558013 0.03988424 0.70020574 0.70692676 -0.104191765 -0.08002152 -0.6892338 -0.7543606
-0.13050966 -0.24467689 -0.07976849 0.20977858 -0.0450523 0.26908994 0.4614557 0.408416
-0.22679627 -0.26635513 -0.25274813 -0.42534602 -0.015182149 0.01869813 -0.1833786 -0.3516394
-0.09442879 0.061326135 0.06532022 0.09667208 -0.12205652 -0.39191693 -0.060515504 -0.5828657
0.32113418 -0.0036231352 -0.52296513 -0.47522956 0.12769373 -0.023534756 0.5161072 0.20477423
0.32331914 0.21830878 -0.20277382 0.40604973 0.1683205 0.27995667 -0.52894646 -0.31693405
0.020407451 -0.023924822 -0.019827805 0.061766166 0.45277956 -0.28885615 0.4211624 -0.5690903
-0.5268249 -0.2727282 -0.18835706 -0.90746194 -0.18317784 0.117616445 -0.50429475 0.35114884
-0.05187409 -0.07365753 -0.3148303 -0.27954465 -0.5097768 -0.1467742 0.055126395 -0.030286824
-0.1924885 0.23438057 0.14475714 -0.014145716 -0.23653318 -0.23807609 -0.27899924 -0.3290594
-0.3237485 0.16708915 0.2601517 0.22842869 0.015450823 0.123730935 0.21599424 0.3856563

conv2.bias f4 [16]
00000000: 958b 19bf fada d63e 90d4 9dbe 4044 233e
00000010: 5a0f 283e 6d66 1d3e 53ce b6be 4f78 ab3d
00000020: 9d13 343c 0d99 123d 4863 1fbe 3231 873d
00000030: 341f fbbe f091 82be 961e 113d 40fd 6cbc
-0.5997861 0.4196394 -0.30826235 0.15944004 0.16412106 0.15371104 -0.35704288 0.083725564
0.010991004 0.03579049 -0.15565217 0.0660118 -0.49047244 -0.25501966 0.03542956 -0.014464676

conv2.fc_self.weight f4 [16, 16]
00000000: a1c5 073c 883e 8c3e 96cd d3bd 2486 40be
00000010: 1715 d83d 6530 973d 190e 913d a0cd 5fbd
00000020: 44db e33c a895 45be 2a14 9b3e bd2f 4bbd
00000030: d587 e73e b7d1 91bd 3e68 403d dc51 a6bc
00000040: 7683 febd caa6 b3be b69f d03e 3d1e bfbd
00000050: 9a68 833e 6a4e 8bbe f5dd 993e 11e9 ddbe
00000060: bf24 b3bd 873c 883a d0d6 abbd 4c36 b43d
00000070: 52c2 12bc 8b25 ac3e fc91 d5bd 9ea9 4c3e
00000080: 2d9c d83d 686e 53be e79b 1a3b b6e2 203b
00000090: 85dc 89be 415e 0cbe 3aa4 04be ea49 af3d
000000a0: c329 6f3e 4e32 74be 462f 06be cef6 99bd
000000b0: 5e97 903e 89b2 343e b1a5 e53d b11d 463e
000000c0: 790e 7f3e e2ae 423e 0398 723d 9e6d 923e
000000d0: fbcd fd3e e5bd 013f ca3d 053e 7d81 d7bd
000000e0: d9dd b1be a211 343e e66e d03d 1683 823e
000000f0: 29e6 893e 67ea 2dbe 29ec 633e 3f2c e6ba
00000100: f96e 113d 8e9d 2ebe 0d19 453e 2b7f 8b3e
00000110: 5511 ca3e c646 e43c e0e5 ccbd b74c b3bd
00000120: 262b f0bc 475a 553e 342f 00bd 5abd d8bc
00000130: a224 a93d ad9c 7a3e 8963 263e ad7a 063f
00000140: 9dc4 e33d 207e a8be 84cc 2fbb bffc 01be
00000150: 1c25 a5be 4dea a9bd 9a5a dcbd a0ec ac3e
00000160: 3e26 9e3e b347 e43d e7a5 133e 39c1 57bc
00000170: 198c b63d c329 db3c 83e6 34be aca0 133d
00000180: fd55 b13e e2d5 afbe c06c 353f afad b1be
00000190: d055 56be db86 373d 03b4 6b3e 87b4 ec3b
000001a0: 3d2a 833e 3de0 aabc 270c aebe 0fa6 acbe
000001b0: ffad 9dbe 60d3 413d 79cd 4a3e 2213 943e
000001c0: 2ada bdbd cefa b53e 0f5d c23d 0ad3 c7be
000001d0: e152 4f3d e714 a03e 5a44 8abc dabf 62be
000001e0: 74a6 d23c 31b8 8fbe 5df1 873e a4e9 ac3e
000001f0: f735 9b3d a71e 32be 404e 3dbe 3207 debd
00000200: 2da4 18be 46c6 f43e a6f9 a1bd 5951 4a3e
00000210: a850 c9be 27f5 8dbe f710 c83c a71d 573e
00000220: da94 d43e a5ab c2be adb3 07be 51dc 0ebf
00000230: bc04 2ebe b00b 05be 53fb b73e 5956 353e
00000240: be45 cfbd 9c35 1a3e 586d 69be e15f 813e
00000250: 463a 2f3e 8bb1 cfbd 541e 7b3e 071f cabd
00000260: 0a6b 6dbe 7c72 173e 0e98 2bbe 4cf7 11bd
00000270: 55bb e3bd 5466 da3c a40b ce3c dc45 6fbd
00000280: 7916 39be b70f ce3d 071d 3fbe 9b02 6ebd
00000290: 95a5 9b3c 3c25 9dbd cff5 b6bc 50bf 7ebe
000002a0: d892 9b3c fbf8 82be a5e2 573e c629 bbbe
000002b0: ebac 073d fd93 3e3e cfb9 133e 802f d33c
000002c0: ac67 553e 5ba1 0b3e 03e6 683d af36 d6bd
000002d0: fe04 9dbd 313d f23e 6900 28be e330 6bbc
000002e0: 2107 81be cee0 c23d d051 abbd 3686 bb3e
000002f0: c56f 0b3d 316c 1cbe c60d d0bd fc62 66be
00000300: 3925 37be 31ce 963e 512c 8d3e 479a 8a3e
00000310: 9ed8 b93e a0b0 0abe 0937 efbb e65a c2be
00000320: 9643 02be 8543 88be 83b6 c1be a44d 08be
00000330: 934e 67be b681 34be 6575 133e 8d6a 623d
00000340: 5e1a 523e 4586 6ebd e308 cabd d5b2 da3b
00000350: 518f 443d 7153 663d a17e 90be cebc 0b3e
00000360: 816e fe3d c928 233e bafb 883e 3dae 9f3e
00000370: 2336 6cbe 7738 7c3d d849 9cbd 38ce 79bd
00000380: d6fc 1ebe 8be9 9a3e e0f8 613e 3543 6fbd
00000390: b25d 4cbe 8431 68bc 22bf 12be 5dea f93d
000003a0: 5bb2 8b3e df89 87be 3d2e 9dbe f530 253d
000003b0: f41b 5b3d e4cb f53d 929c 893d c921 6f3e
000003c0: c720 973e ae87 3d3e e4ba e33e 0ac6 d5bc
000003d0: d5d2 143e 8c47 5e3e 5c67 9fbd 4fd2 1d3d
000003e0: 6683 2abd c56f a9bd 4c52 4c3e 227e c7be
000003f0: 576a 02be 7d9b 8bbe 57a7 6e3d 23ce 0ebe
0.0082868645 0.27391458 -0.10341947 -0.1880117 0.105508976 0.073822774 0.07082767 -0.05463946
0.027814515 -0.1929537 0.3028882 -0.049606074 0.4522082 -0.07120078 0.046974413 -0.020302705
-0.12427418 -0.35088187 0.4074685 -0.09331939 0.25665742 -0.27208263 0.30052152 -0.43341878
-0.08747243 0.0010394015 -0.083905816 0.08799419 -0.008957462 0.33622393 -0.10428235 0.19986579
0.10576663 -0.20647585 0.002359146 0.0024549193 -0.26926056 -0.1370783 -0.12953272 0.0855902
0.23355775 -0.23847315 -0.13103971 -0.075177774 0.28240484 0.17646231 0.11213244 0.19347264
0.24907865 0.19012025 0.059227 0.28599256 0.49571213 0.5068038 0.13011852 -0.10522745
-0.3473957 0.17584851 0.10177402 0.25490636 0.2693341 -0.16983949 0.22258057 -0.0017560794
0.035506222 -0.1705229 0.19247837 0.2724546 0.39466348 0.027865779 -0.10004783 -0.087548666
-0.02931745 0.2083522 -0.031295016 -0.026457477 0.0825894 0.2447383 0.16248907 0.5253094
0.111214854 -0.32908726 -0.0026824782 -0.12694071 -0.32254875 -0.082966425 -0.107594684 0.3377428
0.3088855 0.11146488 0.14418755 -0.013168626 0.0891344 0.026753312 -0.17666058 0.0360419
0.34635916 -0.34342867 0.70869064 -0.34702823 -0.20931172 0.044806343 0.23017888 0.007223669
0.25618163 -0.020858878 -0.33993647 -0.33720443 -0.3079681 0.047320724 0.19804944 0.28920847
-0.09270127 0.3554291 0.09490406 -0.39028198 0.05061615 0.31265947 -0.016878296 -0.22143498
0.025714137 -0.28070214 0.26551333 0.33772004 0.07578652 -0.17394505 -0.18486881 -0.10841216
-0.14906378 0.4780752 -0.07908945 0.19757594 -0.39319348 -0.277261 0.024422152 0.21007405
0.41519815 -0.3802158 -0.13252135 -0.55804926 -0.16993994 -0.1299274 0.35933933 0.1770872
-0.10120724 0.15059513 -0.22795618 0.25268462 0.17112073 -0.101412855 0.24523288 -0.09869199
-0.23185363 0.14789766 -0.16757223 -0.03563623 -0.11119715 0.026660122 0.025152035 -0.058416232
-0.18074979 0.10061591 -0.18663417 -0.058107954 0.018999854 -0.076731175 -0.022334008 -0.24877667
0.018990919 -0.25580582 0.21082552 -0.36555308 0.03312389 0.1861114 0.14426349 0.025779486
0.20840329 0.13635771 0.05685998 -0.10459649 -0.07666968 0.4731231 -0.16406406 -0.014354917
-0.2520075 0.09515534 -0.08365214 0.36625832 0.03404214 -0.15275647 -0.10158877 -0.22498697
-0.17885293 0.29454187 0.27572873 0.2707083 0.36298078 -0.1354394 -0.007300262 -0.37959975
-0.12721094 -0.26614013 -0.37834558 -0.13310868 -0.22588567 -0.17627606 0.14400251 0.055277396
0.20517871 -0.05823352 -0.09864976 0.0066741505 0.04798824 0.05623192 -0.2822161 0.13646242
0.12423421 0.15933527 0.26754552 0.3118762 -0.23067527 0.061577287 -0.07631272 -0.06098768
-0.15526137 0.30256304 0.22067595 -0.058413703 -0.19957617 -0.014171962 -0.14330724 0.122029044
0.27284512 -0.26472375 -0.3069934 0.040329892 0.053493455 0.1200178 0.067193165 0.23352732
0.29517195 0.18508789 0.44478524 -0.026095409 0.14533551 0.2170698 -0.07783386 0.038530644
-0.041629218 -0.082732715 0.19953269 -0.3896342 -0.12735878 -0.27267066 0.058265056 -0.13945822

conv2.fc_neigh.weight f4 [16, 16]
00000000: 6993 403f e4d6 8dbe 2dc6 e93e 8a21 643e
00000010: 74f4 223f 12c9 ce3c 912b 0bbe 41c4 b7be
00000020: ce9a 46bc 16fd cf3d 2c35 cfbc c89f 61bd
00000030: c535 22be effb f9be d111 2a3e 6d84 d4be
00000040: b826 c53d 830d 6a3e a5d9 9bbd 7d59 d3be
00000050: 437d 16be 8636 dfbd 6605 d1be 6796 3b3e
00000060: 7d09 933e 9f5c e63e 176d 88be 9aad 813e
00000070: 7082 bf3e 6399 25be 4506 1dbc 978d 023e
00000080: 0173 1cbe 4169 abbe 1cff 46be 29ea ddbe
00000090: b82e 80be cef0 38be 1cca ffbd 2e07 0a3f
000000a0: 9779 393f adf5 6c3e 076d 08bf ab6a 783e
000000b0: ecbd b3be 7d64 9fbd 8f43 443e ef6f be3e
000000c0: 26a4 9d3d 61ec f83e 8d98 3f3d 9ef7 f9be
000000d0: e80d 27bf 663d 17be d542 fc3d 0865 383d
000000e0: 8623 1d3e d48a 27be 4092 06bf 1d79 f3bd
000000f0: f2df ca3e 4876 25bf ed53 803e 717b 05bf
00000100: bc45 833d 242d aebe 9f0e 0f3f b535 2dbd
00000110: 1d4a 12bc b024 573e ffcd d53d 9061 ba3e
00000120: 6279 ae3e ff38 01be 93b3 273f ce3b ce38
00000130: 6976 afbe 261c 273f 1e3a 25bd 2d55 bc3e
00000140: 2e6c 043f c4ef d2bd 814f 843e d3ea 00bd
00000150: c862 513e 4222 283f eef5 09bf 34a8 633e
00000160: 1b6c 893e 060a a9be c3ba 2cbe 3b06 093e
00000170: ba97 cfbd e0e7 53bf 350a 6e3c f55d eebe
00000180: 6165 64be ba98 053f 9a6b 0a3e 9500 433e
00000190: af3c 843e 3503 16bf df9d 05bd d5d3 c2be
000001a0: a451 fc3d 93be 9cbe f201 a7be eeb0 85bd
000001b0: dcd0 6a3e eafb 883e 8758 a3be aba5 92bd
000001c0: e73e 7c3e 88c6 1fbe 0353 cc3d 77d8 85be
000001d0: fb78 ecbe d9de 3cbe 8a9d 35bc 97f8 9ebe
000001e0: 0031 183f 6e42 52bf b635 293f 9125 07bf
000001f0: 411f 18bd 4231 ef3e f82b 6d3d 69f3 39be
00000200: 047c 75be d240 78bc 11cb febe 7272 e33e
00000210: 9096 b6be 0518 03bf dc8b adbe 08fd c1bd
00000220: 57bd 0b3e 9b7f 8bbd 4d8d 863e 3101 023f
00000230: c6e4 59be e6fc a23e f75e ebbe d956 adbe
00000240: 6ed9 283e 5731 13bf f515 57be 3c17 5abf
00000250: 0f22 633f bd34 76bd 1c6b 28be ba5a 75bf
00000260: f6dc 80bd 7b3c 4fbf 3620 2a3d 8ed2 71bc
00000270: 2bf9 163f ee69 04bf 6bbf ad3e 208b 793e
00000280: eee5 cfbe 38f1 83be 94b6 b43e 3a17 9c3c
00000290: bab7 4a3f 6f9c 33bc a3c2 153e f53c 4fbf
000002a0: 4c48 70be 4a7d 51bd 28de 11bf f68e a3bb
000002b0: 57e5 9c3e 98a4 a63e 658f 203f 3fd0 243f
000002c0: f6cd 823f f981 d83e 629d ed3e 8fcb 1f3f
000002d0: e5a2 e03e 9994 c93e 7ad6 793e ad57 91bd
000002e0: d30c 013f 6406 503e 12b5 473f cc3a afbe
000002f0: 342a 08bd 0965 7dbe a6c0 1d3f 377f 383e
00000300: 203e c23d 353b a3bd 4c17 823c ac67 6b3e
00000310: 5cff 01bf 5cdb 543e bd0b d3be b393 053f
00000320: 3d33 33be feab b13d c06e 90bd 85ef 8cbe
00000330: efe5 eb3d 8e03 3dbe 2a4a 8bbd 2566 cb3d
00000340: da2b 19bf 45f2 e73e c191 fd3e 1f47 5bbf
00000350: dbb1 073b c81c 6d3e ac8e c8ba bf33 dfbe
00000360: f2b3 07bf a696 15bf a648 213f ba6c 91be
00000370: a607 2e3f a4ca 9ebc db61 a2be 0a40 f0bd
00000380: bfb8 893c 1a73 333e 13a8 203f 3b05 233f
00000390: ee8b 363f 1ffb eabe 105d e1bd 8f7d bcbe
000003a0: d5e0 773e efd3 043e f63e 75be 87dc a2be
000003b0: 5294 08bf f74d b13d 0546 86bd 5b85 7c3f
000003c0: f57a 743f 93d0 ae3e 5522 2abe d721 d4be
000003d0: 92fa dabd 3730 5f3f 77ea 18be 1bb5 773e
000003e0: 78b1 b73d 068f d8bd 2185 1b3f 6174 b13e
000003f0: 0116 d4be e558 38be 8728 003d f5c9 433d
0.7522493 -0.2770301 0.4565901 0.22278419 0.63654256 0.025242362 -0.13590838 -0.35891917
-0.012121869 0.10155694 -0.025293909 -0.05508402 -0.15840824 -0.48825023 0.16608359 -0.41507283
0.09626526 0.22856717 -0.07609872 -0.41279212 -0.14696221 -0.108990714 -0.4082443 0.18319093
0.28718176 0.4499254 -0.2664573 0.2532776 0.37404203 -0.16171794 -0.009584014 0.12749325
-0.15278246 -0.3347874 -0.19433254 -0.43342713 -0.25035644 -0.1806061 -0.12489721 0.53917205
0.72451156 0.23140593 -0.5329136 0.2425944 -0.35105836 -0.077828385 0.19166397 0.37194774
0.076973245 0.48617843 0.046776343 -0.4882173 -0.65255594 -0.14769515 0.12317435 0.045018226
0.15345582 -0.16361552 -0.5256691 -0.11888335 0.39623982 -0.6463361 0.2506403 -0.5214148
0.06409785 -0.34018815 0.55881685 -0.042287547 -0.008928803 0.21010089 0.10439681 0.3640256
0.34076983 -0.12619399 0.65508384 9.833985e-05 -0.34270027 0.65277326 -0.040338628 0.36783734
0.5172757 -0.10299638 0.25841907 -0.031473946 0.20447838 0.65677273 -0.53890884 0.22232133
0.2684029 -0.3301546 -0.16868119 0.13381283 -0.101363614 -0.8277569 0.014528801 -0.4655606
-0.22304298 0.5218617 0.13517609 0.19043191 0.25827548 -0.58598644 -0.03262126 -0.3805224
0.12320259 -0.30614147 -0.32618672 -0.06527887 0.22931236 0.26754695 -0.31903479 -0.07160505
0.2463337 -0.15603077 0.09976771 -0.26141712 -0.4618605 -0.18444385 -0.0110849235 -0.31049034
0.5944977 -0.82132614 0.6609758 -0.52791697 -0.03713918 0.46717268 0.05790326 -0.1815926
-0.2397309 -0.015152173 -0.49764302 0.44423252 -0.35661745 -0.51208526 -0.33895767 -0.0947209
0.13646446 -0.06811448 0.2627968 0.5078307 -0.21278676 0.3183357 -0.4597089 -0.33855322
0.16489193 -0.5749716 -0.2100447 -0.851917 0.88723844 -0.06010889 -0.16447109 -0.9584156
-0.06292145 -0.8095166 0.041534625 -0.014759673 0.5897395 -0.51724136 0.33935103 0.24369478
-0.4060511 -0.25769973 0.35295546 0.019054044 0.79186594 -0.01096259 0.1462503 -0.8095239
-0.23465079 -0.051144876 -0.5697961 -0.0049914075 0.30643722 0.3254745 0.627188 0.6438026
1.0219104 0.4228666 0.46409136 0.6241998 0.4387428 0.39371184 0.24398223 -0.07096801
0.50410193 0.20314938 0.78010666 -0.34224546 -0.033243373 -0.24745573 0.61622083 0.18017279
0.09484506 -0.07970277 0.01588025 0.22988766 -0.5078027 0.20786804 -0.41219893 0.52178496
-0.17500015 0.08675383 -0.07052374 -0.2752649 0.11518466 -0.18458387 -0.06801255 0.09931592
-0.5983254 0.45302024 0.49525264 -0.856554 0.0020705375 0.2315551 -0.0015301309 -0.43594167
-0.5300895 -0.58432996 0.6300148 -0.28403264 0.6798042 -0.019383736 -0.31715283 -0.117309645
0.016811727 0.17524377 0.6275646 0.63679856 0.71307266 -0.45894715 -0.110040784 -0.36814544
0.2420686 0.12971471 -0.23949799 -0.31808874 -0.5335132 0.08657449 -0.06556324 0.98640984
0.9550012 0.34143505 -0.16614659 -0.41432068 -0.10692324 0.87182945 -0.14933191 0.2419018
0.08969396 -0.105741546 0.60750014 0.34659103 -0.41423038 -0.1800266 0.03128865 0.047800023

conv3.bias f4 [16]
00000000: 0277 9abd 895a 0ebe 53a6 8fbe 6314 8c3e
00000010: fb27 933e f571 393e d5ef edbd bf45 113e
00000020: 9470 743d 42f5 cc3c 829b 6abe 094f b33e
00000030: d985 333e cc0d 1bbe 2992 5dbe f273 063e
-0.0754223 -0.13901724 -0.28056583 0.27359304 0.2874144 0.18109877 -0.1161801 0.14186762
0.059677675 0.025019292 -0.22910884 0.35021237 0.17531528 -0.15141982 -0.21637787 0.13130167

conv3.fc_self.weight f4 [16, 16]
00000000: 6840 86be 9b6a 89be f8b5 c13e e580 ae3e
00000010: e751 113d a725 babe a438 9bbc 1577 dfbc
00000020: 5479 2a3c 94c3 bebd a205 84be a3b6 f23e
00000030: 5e38 8fbe 5248 013f b3d4 c43d c415 17be
00000040: d374 7c3e 6395 03be b216 a8bd 151b bcbb
00000050: 912b b2be f8c3 bd3d 49f1 943e 510d ebbc
00000060: 0bd9 ac3d 8ae4 3d3e 693c 4bbe 44df 343e
00000070: c4be f3bd c34e 0c3d c221 d5bb a751 cb3d
00000080: 4ac4 a43e bfed 7cbe f34d f1be 670c 83be
00000090: e97a 463e f10a bf3e 70c7 5a3e 8bed 913e
000000a0: d0db 61be 612e ea3e 6bad a23d dfb2 c9be
000000b0: a36c 073f 6798 a5be 2f82 323d 2bd1 22bf
000000c0: a2a2 213e a650 533d a001 d6be 4d75 8bbc
000000d0: 0bd1 1e3e 6876 0d3f 7750 f63d 8338 32bc
000000e0: c40a 03be 2ee0 f0bc 7f3b 9d3e dbb9 ddbd
000000f0: 7e26 313e 5182 663e e39e 353e c194 d0bd
00000100: ab16 25be d53e 06be 6043 d8be 37e5 243d
00000110: 905f 213e d939 3dbe 3bb8 e23d 4ab7 fb3d
00000120: f2d9 f43d 72fe 443e b27c a03e 7e24 91bd
00000130: a19b b5be 3839 41be beae 1abe aeb0 24be
00000140: f938 3b3c 1384 b73e 1e8b e63d 9205 0b3f
00000150: 3d7a b1be 7199 58be b8ae 5b3e 8cae 10be
00000160: 0dcd aabe 1fee c5bd 6e37 78bc e4f2 81be
00000170: 7d77 1f3d 8334 60be d19f 073e 5372 083f
00000180: f620 ac3e 48f2 edbd 36ac f2b9 cb80 873d
00000190: 776b a53d f570 adbe 5a7f 9e3e dc94 8f3e
000001a0: bf89 563e 5f33 b5bd e221 e1bd 15ce 46be
000001b0: c88c e1bc 3af1 ad3e fcc0 16be ddaa a3be
000001c0: 02d4 39be 60c6 7d3e 8432 5d3e 3246 863c
000001d0: a09e f13d d850 233e 3e38 73be 4eda 983d
000001e0: 924f 383e 0d27 cebd 3b10 2fbe b4bd cb3e
000001f0: b592 a3bd 8632 40be d552 36be d685 8dbe
00000200: 25ed 2ebe 2f7d 9a3e 909b 393e b88b 7ebc
00000210: ef68 36be e80e 81bd fab0 44be a25f 113e
00000220: 1e95 b93e 6cd5 7abe 1dcd d33d 37ca 9fbd
00000230: 25e1 79be 3db3 303e dfb5 93be 1a95 303f
00000240: 8dc9 8ebe a764 223d f5ca ae3e 768f 0abd
00000250: 9866 a93d 408f b33e 9e43 05bf 64cd d43e
00000260: 15a8 3f3d 93c4 96be 5f3e 0bbf 35c8 ec3d
00000270: 8cca 53be ccad aa3b 36c7 b83d 2fbe 6c3e
00000280: 2ec8 06be 5524 ab3d a40f 8e3d d582 31bd
00000290: 9424 ee3b 5ad6 b83c 994b b1bd 896d 8c3e
000002a0: 2002 c13d 4dfb 2fbe f7e0 203e ef37 113e
000002b0: 9335 c5bc cea6 abbe dcf1 593e 9d8b 203e
000002c0: 8e9d 7e3e a3f4 6f3e 7553 5abd b09f f8be
000002d0: 452a 47bb adbe febe fd75 05bf b2e5 6d3b
000002e0: cd0c 583d 747b 96be 51ec 3bbe ccfa 283e
000002f0: 2140 6abe 9718 d33b fc27 2d3d 2ffb 2d3d
00000300: 6f05 5a3e e3cf 003e c2e0 0bbf 04ee 5c3b
00000310: 323a 20bd 00b2 fb3e ed53 823e 35c9 84be
00000320: 0d0d 9b3e 00a3 8f3e 55ff 44be 980b 86bd
00000330: b475 dcbd 986c c0bd a534 ab3e a8b7 3d3d
00000340: 9dbc 243e 382c abbc 5e69 d5bd 2150 3ebe
00000350: 6788 f23d 4fe9 32bf 1375 e73e 5139 4b3e
00000360: a7fb 993e b206 7fbe db60 e33e a7fe 553e
00000370: 429d a43d b80f 48be 19a2 6cbe a06e 873e
00000380: aa23 283e b7ed abbe 1fd2 ba3e 08ee 083f
00000390: 208d 063f 4111 8c3e e7fe f4bc df03 b7be
000003a0: 2d58 fbbe 67ff a53e d10e 96be 7eb8 a93e
000003b0: 9ed2 463e fdff 0dbf b70d 503e 245c 193f
000003c0: 12c1 403e 99a0 433c da22 bfbd a613 43be
000003d0: 398a 97be c426 8b3e 6b01 b6bd 428f 42be
000003e0: 981a 7fbd 968e 42be f1fc d0bc fc7e 1bbe
000003f0: 5fcc 453d 7e09 d83d 7091 66bd 50db 9d3c
-0.26221013 -0.26839146 0.37834144 0.34082714 0.0354785 -0.3635685 -0.018947907 -0.027278462
0.010404903 -0.09314647 -0.25785547 0.47404966 -0.27972692 0.5050098 0.09610882 -0.14754397
0.2465394 -0.12849955 -0.08207454 -0.005740533 -0.34798864 0.09265894 0.29090336 -0.028692873
0.08439835 0.18544212 -0.19847263 0.17663294 -0.1190162 0.0342548 -0.0065042684 0.09927683
0.32181007 -0.24700068 -0.47129783 -0.255954 0.19382824 0.37313035 0.21365142 0.28501543
-0.22056508 0.4573851 0.07943233 -0.3939428 0.5290014 -0.32342836 0.043581184 -0.63600415
0.15784696 0.051590584 -0.41798115 -0.017023707 0.15509431 0.552588 0.12027066 -0.010877731
-0.12797076 -0.029403772 0.30709454 -0.10826465 0.1729984 0.2251065 0.17736392 -0.101846226
-0.16121928 -0.13109906 -0.42238903 0.04025766 0.1575911 -0.18479098 0.110702954 0.12290819
0.11955632 0.19237688 0.31345135 -0.070870385 -0.35470298 -0.18869483 -0.15105721 -0.16083023
0.011427158 0.35842952 0.11257003 0.54305375 -0.34663573 -0.21152283 0.21453369 -0.14129084
-0.33359566 -0.096645586 -0.015149934 -0.25380623 0.038932312 -0.21895032 0.13244559 0.53299445
0.33618897 -0.11618477 -0.00046286144 0.06616362 0.08077138 -0.33875242 0.30956537 0.28043258
0.20950983 -0.08847689 -0.10992791 -0.19414552 -0.02753295 0.33973104 -0.14722055 -0.31966296
-0.18147281 0.24782705 0.21601301 0.016390894 0.117978334 0.15948808 -0.23751923 0.07463513
0.17999104 -0.10066042 -0.17096035 0.3979317 -0.079869665 -0.18769273 -0.17805035 -0.2764117
-0.17082651 0.30173633 0.18125749 -0.015536241 -0.17813466 -0.06301671 -0.19208136 0.14196637
0.3624658 -0.24495476 0.10341857 -0.07802241 -0.24402292 0.17255874 -0.28849694 0.6897751
-0.27888146 0.03964677 0.3413922 -0.03382822 0.08271521 0.3507023 -0.520563 0.4156295
0.046791155 -0.2944685 -0.54392046 0.11561624 -0.20682734 0.0052087065 0.090223715 0.23119424
-0.131623 0.08356539 0.06936577 -0.04333766 0.007267544 0.022563148 -0.08656997 0.2742732
0.094242334 -0.17185707 0.15710817 0.14181493 -0.024073398 -0.335257 0.21283668 0.15678258
0.2486479 0.23433165 -0.053302247 -0.48559332 -0.0030390185 -0.4975485 -0.5213316 0.003630024
0.052746583 -0.29391062 -0.18351866 0.16501921 -0.22876026 0.0064421403 0.04227446 0.042475875
0.21291135 0.12579302 -0.5463983 0.0033711204 -0.039118 0.4915924 0.25454655 -0.2593476
0.30283394 0.28054047 -0.19238026 -0.0654518 -0.107646376 -0.093957126 0.33438602 0.046317726
0.16087575 -0.020895109 -0.10420488 -0.18585254 0.11842423 -0.6988725 0.45206508 0.19846083
0.30074808 -0.24904898 0.44409832 0.20897923 0.08037807 -0.19537246 -0.2310871 0.26451588
0.16419855 -0.335798 0.36488435 0.53488207 0.5255909 0.27356914 -0.029906703 -0.3574514
-0.4909071 0.3242142 -0.2930818 0.3314857 0.19416282 -0.5546873 0.20317732 0.5990622
0.1882365 0.011940145 -0.09332819 -0.19050464 -0.29597643 0.27178013 -0.08886989 -0.18999961
-0.06228122 -0.18999705 -0.025511237 -0.1518516 0.048290607 0.105486855 -0.056291044 0.019269615

conv3.fc_neigh.weight f4 [16, 16]
00000000: 6eba 56bf dbb7 01be 6049 fcbe 9340 2ebe
00000010: 9e70 b33e b9a3 17bf 4f40 9b3e 25c5 3cbd
00000020: a9b0 103c 2f3d 053e c0b1 4f3f 91d2 0bbe
00000030: 8043 01bf bfb5 0d3e 7be5 6c3e 6ab4 98be
00000040: 5a93 163d 1539 6b3e ca86 27bf 2781 e6be
00000050: 4224 863e bf00 863e 0c67 bd3e 9059 f1be
00000060: cb0b 84be 6e5a 9d3e 8d71 df3e 3ddd d13e
00000070: 225c e8be 9550 abbe ed80 413f e878 073d
00000080: 5d63 ebbe 818e ef3e f505 bbbe becf e33e
00000090: b147 e83d a5a9 dd3e eb00 68bf c9f6 3bbc
000000a0: 6b44 83be 7f0f 78be 8686 a9be 77b0 ad3b
000000b0: a742 f9be ac50 fdbe c74a e03d 5140 ac3e
000000c0: 4bdd 85bc 12ff 48bf bd54 bbbe c3ac fe3e
000000d0: e1ba 35bf d427 073e 75d5 9f3e f00d bebe
000000e0: 547c a2be 3460 e2be 5746 3ebe cf12 2dbe
000000f0: 1c99 643e 1096 1fbe c3fb 17bf 04a0 9fbe
00000100: 82a4 c53e 67ea e0be b153 d73d 4cc8 24bf
00000110: 8452 523f 468b 06bf 423e c63e cc2a 053f
00000120: aa4e 193f d9d4 1f3e 0480 13bf 6872 8f3e
00000130: 6a61 9dbe 30ac 293f 5a4d c5be 0d9d 55be
00000140: d2f1 b7be 941d df3c ca93 fd3d b940 913e
00000150: 89a5 9a3e c002 243e 1f08 6cbe 7f6a c4be
00000160: e0ac db3d f2d0 afbe be9e 2c3d 1c7f a6be
00000170: 9f46 cf3e 8d06 fe3d 76bf c53e e6aa 29bf
00000180: f89c aabe 9f35 40be 6ad1 ee3d 5d8a d8bd
00000190: 0608 4f3e 56fc c33c 9dfc 81be 98db 8bbe
000001a0: 0683 ed3a 7307 36bf bc32 05bf 7a06 07bf
000001b0: c46e dabe 8034 d9be 9597 b73e f3a8 e1be
000001c0: f3de cd3e f090 00bf a0be 0f3f 4fe4 e3be
000001d0: 6e67 1d3e 2236 b13e 1258 26be fc70 43be
000001e0: f5a6 dabe 19c2 cbbd 69fa b53e d8d1 933e
000001f0: 332d 7e3d 01aa 04bf 8b17 ad3d 413d 313f
00000200: da75 a2be c38a 3cbc 6e5c ab3e a4da b7bc
00000210: e6c2 f93e 3a4b 87be 7752 11be a270 673e
00000220: 8009 a2be bb2b 42be 10f3 6c3e eedd 1bbf
00000230: a75e 29bd 444a ddbe d146 c13e 9c74 14bf
00000240: 3b0b 1bbe 7a89 d2be 2b9e a9be 759e 113e
00000250: 7d23 2bbe 24c5 fbbe b566 81bd 8ffc e13e
00000260: b475 883e abad f43c 968e 383d 2b4c c2be
00000270: 9eb1 dcbd 0002 32be 1d07 16bf f7cc 25be
00000280: a45b 5f3f b750 d13d adce 20bf c1b6 243d
00000290: 8776 dfbd b913 02bf 12b8 8ebe 6737 17bf
000002a0: 0338 163e 8f44 bcbe 84c5 aebe 1740 4f3f
000002b0: 45c2 123e 36a2 b4be 1a72 223e 2522 03bf
000002c0: 2e11 9b3b 23aa 14bd 3693 653e 0e65 21bf
000002d0: d8ea 913d f9e3 0fbf 2ea5 92be 0162 9cbe
000002e0: 8a63 34bf 2613 3cbf fc44 8a3d 9fd6 1b3e
000002f0: 9f12 c63e 016c 28bf 3c56 f63d fbc1 cd3e
00000300: 0e9b 083f a077 e5bd 44fc f5be 1851 acbd
00000310: c07a 9a3e a92f ecbd e06e 88bd 83a8 833e
00000320: e2b8 61bc 2e85 ba3d 9cbf 5a3f 6372 77be
00000330: 838d d0be 149b bf3e 8e8d 573e 248b 0dbf
00000340: 1175 6ebf e417 17bf f1f5 f0be 5cb4 833e
00000350: 6b7a 8b3b c817 c53e 0d56 51bc 4217 5b3e
00000360: 8bc2 7b3f e8b6 6bbf d2c2 33bf c3b8 5c3e
00000370: 579b d2be 6908 16bf 6624 1a3f 9fa0 7fbd
00000380: 309e 39bf ff2f 323f be11 043e c164 023f
00000390: 3f93 913e ab99 8a3d ab7e 88be 2006 673e
000003a0: abed c23e ccc1 4b3e 1f04 47be a43a a53d
000003b0: c80f 493e deb2 04bf e8f3 eebe e6e3 d5bd
000003c0: 820a 683e 42fc d13d bcbf ec3e dd8f 043f
000003d0: 47c3 18bf 89a1 dfbd d1d1 523e 1776 04be
000003e0: fba6 c63d 70ef 993e fc6d a73e e065 0bbf
000003f0: 7756 883e 7255 d9be b33d da3e e41b 1ebf
-0.8387822 -0.12667792 -0.4927473 -0.1701682 0.35046858 -0.59234196 0.303225 -0.04608645
0.008831182 0.13011621 0.811306 -0.13654543 -0.5049362 0.13838862 0.23134415 -0.29825145
0.03676162 0.22970994 -0.65440047 -0.4502041 0.26199538 0.26172444 0.3699268 -0.47138643
-0.25790247 0.30733055 0.4364132 0.40989104 -0.45382792 -0.33459917 0.7558735 0.03307429
-0.45974246 0.4678841 -0.36527982 0.44494432 0.11341799 0.4329349 -0.906264 -0.011472412
-0.25638136 -0.24224661 -0.33110446 0.0053005773 -0.48683664 -0.4947561 0.10951763 0.3364282
-0.016340872 -0.78514206 -0.36588088 0.49741182 -0.7098828 0.13198787 0.31217542 -0.37120008
-0.3173548 -0.44214022 -0.1858152 -0.16901706 0.22324032 -0.15584588 -0.5936853 -0.3117677
0.38602072 -0.43928835 0.1051401 -0.6436813 0.8215716 -0.52556264 0.38719374 0.5201843
0.59885657 0.15608539 -0.5761721 0.28016973 -0.30738384 0.6627836 -0.38535577 -0.20860691
-0.35926682 0.027235784 0.12381704 0.28369692 0.30204418 0.16016674 -0.23049973 -0.383625
0.10726333 -0.343391 0.042143576 -0.32518852 0.40483567 0.12403593 0.38622636 -0.66276395
-0.33322883 -0.18770455 0.11661036 -0.10573266 0.20217904 0.023924034 -0.2538804 -0.27315974
0.0018120713 -0.71105117 -0.5203054 -0.5274426 -0.42662632 -0.42422867 0.35857835 -0.4407421
0.4020916 -0.5022116 0.56150246 -0.44510123 0.15371487 0.34611613 -0.16244534 -0.19086069
-0.42705503 -0.099491306 0.3554261 0.28871036 0.062054824 -0.51821905 0.08451756 0.6923409
-0.3173054 -0.011507693 0.33468956 -0.022443123 0.48781508 -0.2642458 -0.14191614 0.2260156
-0.31647873 -0.18961994 0.23139596 -0.6088551 -0.041350033 -0.43220723 0.3774934 -0.5799043
-0.15141003 -0.4112051 -0.33128485 0.14220603 -0.16712756 -0.49173844 -0.06318418 0.44138
0.266523 0.029867968 0.045057856 -0.37948737 -0.10776065 -0.17383575 -0.58604604 -0.16191469
0.8724921 0.10220473 -0.6281536 0.04021335 -0.10911279 -0.50811344 -0.2787481 -0.5906891
0.14669804 -0.36771056 -0.34135067 0.8095717 0.1433192 -0.35280007 0.15863839 -0.51223975
0.0047322726 -0.036295068 0.22419438 -0.6304482 0.07124871 -0.56207234 -0.28641647 -0.3054352
-0.70464385 -0.7346672 0.06751439 0.1521859 0.38686082 -0.657898 0.12028167 0.40187058
0.53361595 -0.11204457 -0.48044026 -0.08413905 0.30171776 -0.11532528 -0.06661773 0.25714502
-0.01377699 0.09107433 0.8544862 -0.24164729 -0.40732965 0.37423003 0.21050093 -0.55290437
-0.9314738 -0.5902083 -0.47062638 0.2572354 0.0042565367 0.38494706 -0.012776864 0.21395591
0.98343724 -0.9207597 -0.7021915 0.21554856 -0.4113414 -0.5860658 0.6021179 -0.06240904
-0.72507 0.69604486 0.12897393 0.5093499 0.28432652 0.06767591 -0.2665914 0.2256093
0.3807195 0.19898146 -0.19435166 0.080678254 0.19634926 -0.5183543 -0.4667046 -0.10443859
0.22660258 0.102531925 0.46240032 0.5178202 -0.5967297 -0.10919482 0.20587851 -0.12935673
0.09699818 0.3006549 0.327011 -0.54452324 0.26628467 -0.42448002 0.42625198 -0.6176131

conv4.bias f4 [16]
00000000: 78e9 ed3d adfa be3d c1bf f2bd 8822 9dbe
00000010: c7f3 963e b65f 1b3e 64cc 4bbd 4389 77be
00000020: d24d cf3c c139 c7bb 997d 2cbe eb81 e43e
00000030: e28f 70be 5b13 63bd 99fc 493e 418d 843e
0.11616796 0.09325156 -0.118529804 -0.30690408 0.29482862 0.1517323 -0.04975547 -0.24173455
0.025305662 -0.006079883 -0.16844787 0.4463037 -0.23492387 -0.05543838 0.19725265 0.25889018

conv4.fc_self.weight f4 [16, 16]
00000000: da20 debe 8525 3abf 2ffe 1b3d 73f6 ef3e
00000010: 2c88 2bbe 31e7 113f eb0a b03e a894 eebd
00000020: 36db cfbb f074 533e 9527 1abf acd7 03bf
00000030: 2252 49bf b6ac d4be 15ca c03e a7a9 473e
00000040: f028 9bbe 0e6f 523d 4a7d 7bbe 2126 c1be
00000050: 2a3a f93d 94f5 4dbe f480 01be 57d9 11bd
00000060: d87b 6b3e 5b5e 6dbe b997 15bf 1153 00bf
00000070: 54bb aa3d be63 f6be d86d e33e 9e71 0e3f
00000080: c44b d03e 51bb 243d d11b 123e 46c6 ddbd
00000090: 882e db3c d5f8 a93e 8e69 96be 0acc bbbe
000000a0: 0c64 3d3e a7b0 82ba 8c5b e9bd cf23 efbe
000000b0: e2d7 d73e 7978 c3be c9db 86bb 16b4 be3e
000000c0: 01c7 d83d 2676 033f 9e11 84bd 9a7f 183e
000000d0: e552 653e 565f 843d 2183 193e 1402 353e
000000e0: d673 1bbf 9b08 ae3c 1808 8d3e 9874 b73e
000000f0: 1d3b e8be b059 5cbe 1cce 033e 4982 0bbe
00000100: fc62 633e 1189 da3e 308d 53be 0520 e4bd
00000110: 1414 0e3e dc09 293f b470 773e 59eb c73d
00000120: 6ce3 673e 8b6c 673e 3edd 3c3e 1990 b7bd
00000130: d369 ab3e b8ec ca3e 7ecb a03e f8dc 37bb
00000140: da79 3cbf a37b aabe ee9e 0bbd 5ac6 b13e
00000150: 3350 11bf 3da3 a13e feba 19be 89f6 4c3d
00000160: d88c 783e eec7 3ebe f942 873d 295f fdbd
00000170: b233 68be a4ff 74be f575 1f3f b36a 163f
00000180: 0939 8d3d 6466 1dbf 7524 72bf 50b4 8cbe
00000190: d003 183f cb9b 143f b7a8 65be 63db 893e
000001a0: 0539 8ebe cb92 cf3e f7bf 0dbf 8fea 97be
000001b0: 8707 993e d8da 5fbe 5fde 033e 1688 043d
000001c0: f53c 3cbd 9c68 313f 0f57 b1bc 1bbc dabd
000001d0: c0b5 34bf 41e6 c53e c525 07be 572b 823e
000001e0: 6af2 83be 4d99 16bf 2a5d 4bbd 74a4 bdbe
000001f0: a220 f03e 318c a8be 4491 fc3e 3a5a ccbd
00000200: a2a0 ebbd 02a1 853e ae12 253f 7fea 87be
00000210: f0ae 27be 28e1 003f eb6e 5b3d 94ba f53e
00000220: a07f 5e3e 2014 10bf 55f0 52be 78e9 2e3f
00000230: 95ca a7be e095 a7bd 216a 1f3f 8918 8fbd
00000240: fcc4 0bbf f076 ac3d 23b4 fbbd 4727 d3bd
00000250: 8088 12bf 08e1 ccbd 2301 f1be caa7 1abe
00000260: 86be c63e 54ac 52be b55e aabe cf35 51be
00000270: 20c3 233e 7341 32be 38f6 f6bd cb30 853d
00000280: a812 2fbb 0817 fdbe 3034 5c3e 6fd4 653e
00000290: 2473 35bf 6b1a debe d3c4 c83e eb7c 17bf
000002a0: f20b 2bbf 5828 133d 89e3 c23e 12fc 74be
000002b0: 7545 fdbe 011b d13e bf25 243f efa1 34be
000002c0: efb7 633e e8dd b53e 821c 903d 50ae 01bf
000002d0: 7ae6 b23d 8780 d53e 8967 4dbe 50db c23e
000002e0: 835d 043f f923 b53d d43b 30be ea75 f6bd
000002f0: a9dd d33d c50c a9be 819a 653e c791 8dbe
00000300: b8b2 ae3d fb1c c53e 32b5 7e3d 5395 04bf
00000310: 05d0 17bf 050e 19be bbf6 a93e 9102 ae3d
00000320: 2e67 90be d61d 40be 1ff8 7abe 5ade 063f
00000330: d586 19bf 0e2f 35be ad9e 543e a879 d33e
00000340: 759d 073d 20e1 17be 3c40 26bd 58cf e1bc
00000350: 2660 303d 15fd ec3e 491f 6dbd e47f 08bd
00000360: a51e 1fbe 1c05 3fbe 178f e8be a169 533d
00000370: c436 8b3e 04df deb8 ca0c c33e 3496 993d
00000380: 6fce c53d 0883 c9be 79d1 b4bd 1ac1 543f
00000390: 3711 91be 76e4 10bc d516 97be 6c8d d3bd
000003a0: 7803 313e 85e8 1fbe e206 d53e 2f20 023e
000003b0: 7ee2 c9bc c1c3 35bf 616c 5dbe 5bd0 063f
000003c0: f93e 67bf a6ce 0c3f f099 6d3e 843a febe
000003d0: 33b3 0c3f ec6f 8cbe a264 31bf c80d 8b3e
000003e0: 653b f3be ec46 e43d c161 1abf cc3f a8be
000003f0: 81e6 ffbb 6a34 cebe 52f2 3abe fd4d 7cbe
-0.4338444 -0.727135 0.038084205 0.46867713 -0.16751164 0.56993395 0.3438333 -0.11649448
-0.0063432707 0.20650077 -0.6021665 -0.51500964 -0.7864095 -0.41538018 0.37654176 0.19498311
-0.3030467 0.05137544 -0.24559513 -0.37724403 0.12169297 -0.20113212 -0.12646848 -0.035607662
0.22996461 -0.23180525 -0.58434635 -0.5012675 0.08336511 -0.48122972 0.44419742 0.55642116
0.40682805 0.0402177 0.14268424 -0.10828833 0.026755586 0.33197656 -0.29377407 -0.36679107
0.18495196 -0.0009970859 -0.11394414 -0.46707007 0.42156893 -0.3817785 -0.004115556 0.3724677
0.10584832 0.51352155 -0.06448673 0.14892426 0.22394903 0.064634964 0.14991428 0.17676574
-0.60723627 0.021244338 0.27545238 0.3583114 -0.453576 -0.21518588 0.12871593 -0.13623919
0.22205728 0.42682698 -0.20659328 -0.1113892 0.13874847 0.6603067 0.24164087 0.09761686
0.22645348 0.226 0.18443772 -0.08963031 0.33479175 0.39633727 0.31405252 -0.0028055292
-0.7362343 -0.33297452 -0.034087114 0.34721643 -0.56763 0.31569853 -0.15012738 0.0500398
0.24272478 -0.18630955 0.06604571 -0.12371666 -0.2267597 -0.23925644 0.62289363 0.5875656
0.06895644 -0.6148436 -0.9458688 -0.27481318 0.5938082 0.5805022 -0.22427641 0.2692519
-0.27777877 0.40541682 -0.5537104 -0.29671142 0.29888555 -0.21860826 0.12877797 0.032356344
-0.04595657 0.69300246 -0.021647958 -0.106804095 -0.7058983 0.38652232 -0.13198002 0.2542369
-0.25770885 -0.5882767 -0.049649395 -0.3703953 0.46899897 -0.32919458 0.4932958 -0.09978147
-0.11505248 0.26099402 0.6448163 -0.26546094 -0.16375327 0.5034356 0.053572576 0.4799391
0.21728373 -0.5628071 -0.20599492 0.68324995 -0.32771745 -0.08182883 0.62271315 -0.069871016
-0.5459745 0.08421123 -0.12290218 -0.10310226 -0.5723953 -0.10003859 -0.4707118 -0.15103069
0.38817233 -0.2057355 -0.3327538 -0.20430683 0.15992403 -0.1740778 -0.12058681 0.06503447
-0.0026714 -0.49431634 0.21504283 0.22444318 -0.70878816 -0.4337953 0.39212665 -0.59174985
-0.668151 0.035927147 0.3806422 -0.23924282 -0.49467054 0.40840915 0.64120096 -0.17639898
0.22238134 0.35520864 0.070366874 -0.50656605 0.08735366 0.4169962 -0.20059027 0.38057947
0.5170519 0.08844752 -0.17210323 -0.12034209 0.10345013 -0.33017555 0.2242222 -0.27650282
0.08530182 0.38498673 0.06218452 -0.5179035 -0.5930179 -0.14946754 0.33196053 0.08496583
-0.2820372 -0.18761382 -0.24508713 0.5268303 -0.5997136 -0.17693731 0.20763655 0.41303754
0.033109147 -0.14831972 -0.040588602 -0.02756469 0.043060444 0.46286836 -0.057891164 -0.03332509
-0.15539034 -0.18654293 -0.4542167 0.051614407 0.2719022 -0.00010627325 0.38095695 0.07499352
0.09658515 -0.3935778 -0.08829016 0.8310715 -0.28333446 -0.008843532 -0.29509607 -0.103297085
0.1728648 -0.15616043 0.41606814 0.1270759 -0.024644133 -0.7100182 -0.21623375 0.52661675
-0.90330464 0.5500282 0.23203254 -0.4965402 0.54960936 -0.2742914 -0.6929418 0.27158952
-0.47506252 0.1114634 -0.6030541 -0.32861173 -0.0078094606 -0.40274364 -0.182565 -0.24639125
