model.pth (torch, 5527 bytes, 6 tensors)

conv1.bias f4 [16]
00000000: 4877 0e3f 2c51 403f 29f5 653d 6bfb e03e
00000010: ce20 3c3f eb49 8c3e 40f1 6c3e 2ebd e23e
00000020: 067e d43e 8b5a d43d e08f c53e 22ca 0f3f
00000030: 4191 88bc 5eef 543c 8a22 ac3e 5d8c c33e
0.5565076 0.7512386 0.056142006 0.43941817 0.73487556 0.27400145 0.23138905 0.44284958
0.41502398 0.10368832 0.3858633 0.56167805 -0.016670825 0.012996523 0.336201 0.38193026

conv1.fc_self.weight f4 [16, 10]
00000000: f5c4 453f a332 14bf 9687 a83f 1bfe b23f
00000010: 8417 0fbf 93a7 a13e a99b 8a3f c091 e13e
00000020: 9af2 853f 5561 0fbf 4e2d b4be 9cfc 58bf
00000030: 2ed8 ed3d 70a1 df3e 533c 69bf 47bf 3cbf
00000040: 25ae 193f b33f 123f 7b48 38be dbf0 603f
00000050: 8934 b7be e70d 97be 1962 3b3f b26e 21bf
00000060: 3ee1 02bf aeab 5dbd 16f6 1b3f 43b3 a1be
00000070: 3399 88be be94 113f 45d2 06bf d8bd 763f
00000080: f0df 17bf e865 0abf 431b 233d d650 d2bd
00000090: 60e4 5e3f ad5f 733f dba9 b3bd 549c 0fbf
000000a0: 53f2 913f 157a 4ebf 753f a33f e299 8c3f
000000b0: e18f 5abf d57e 57be 1bc9 b8bd 0c73 5ebf
000000c0: 88c0 76bf ad0a 4fbf 79d2 13bf 4405 8abe
000000d0: c877 cb3c 11ba 193f e324 2e3f 9cf0 24bf
000000e0: 7a42 ed3e 1b57 483f 01c2 04bf 0681 08bf
000000f0: 942a a0be c3b1 f0be 8437 343e d9cb b73f
00000100: 9376 0bbf 8e5e 213f a398 1dbf f64a b9be
00000110: 1d08 6ebe c062 b03e 54ae ec3f d4ed 2bbf
00000120: ced3 15bf f002 873f a13f 14bf 009e 2c3f
00000130: 930e 943e 048a 14bf 9d8d e2be 8aae 58bf
00000140: 7db6 e83f 68b7 0ebf 75a8 84be 8607 623f
00000150: 3fcf 093c 7719 ad3e 3515 18bf 2e2e 24bf
00000160: ad07 0dbf 5601 8d3f f978 dfbe 69f9 b7be
00000170: cb62 a7bd bfbb 01bf 9ddc 0bbe 47e4 99bd
00000180: 515b 6c3f 2d3d 22bf 55b2 423f 47fe 90be
00000190: ce8f 333f c56e e2be ebd7 fdbe 5cd5 9b3f
000001a0: a817 193f 85e0 ff3d 48de 19bf 3e64 2abf
000001b0: 22e9 e8be 9b8e 773f aca7 de3e 2f40 63bf
000001c0: a639 993f 7717 123f 2e92 22bf d360 913e
000001d0: dda1 2a3f c350 38bf 18f9 5bbe 76b2 6b3f
000001e0: d766 d6be 3970 15bf 6bd6 d33b 9dcf ffbe
000001f0: 2153 023f cfc1 1bbe 5dbd 61be 04d2 ecbe
00000200: db92 8d3f fcd5 89bd 6deb 6dbe eab9 1abe
00000210: e347 84bd 21ba 07bf e2d5 0b3f d72c 523e
00000220: ba14 03bf 607f aebe 5281 893e cdbe ddbe
00000230: 7c3a 9f3f c1a1 36bf 39ed 0cbf b5b6 23bf
00000240: 361f ad3f 4070 463f d620 8abe c9fa e0be
00000250: 4b03 f43e aa93 18bf 0b52 2f3f 28a1 e3be
00000260: ad27 183f b227 28bf 2b1b 263f 5ac5 d4be
00000270: 9630 15bf 5eb6 e8be e164 1d40 81c6 433f
0.7725366 -0.57889766 1.3166378 1.3983797 -0.55895257 0.3157316 1.0828754 0.4405651
1.0464661 -0.5600789 -0.35190815 -0.8476045 0.11613499 0.43677855 -0.9110767 -0.73729366
0.6003135 0.5712845 -0.17996399 0.87867516 -0.3578227 -0.29502794 0.7319656 -0.6305953
-0.5112494 -0.054118805 0.6092237 -0.31582078 -0.26679382 0.5686759 -0.52664596 0.9638343
-0.59326077 -0.54061747 0.03982092 -0.102693245 0.8706722 0.95067865 -0.08772632 -0.5609791
1.1402076 -0.8065503 1.275374 1.0984461 -0.8537579 -0.21044476 -0.09022733 -0.868943
-0.9638753 -0.80875665 -0.5774303 -0.26957142 0.02483739 0.6004954 0.68025035 -0.6442964
0.4633978 0.7825791 -0.51858526 -0.53321874 -0.31282485 -0.4701062 0.17599303 1.4359084
-0.54477805 0.63034904 -0.6156103 -0.36190003 -0.23245282 0.3445034 1.8490701 -0.6715977
-0.58526313 1.0547771 -0.5790959 0.6742859 0.2891737 -0.58023095 -0.44248667 -0.84641325
1.8180691 -0.55748606 -0.25909773 0.8829273 0.008411228 0.3380849 -0.5940736 -0.64132965
-0.5508984 1.1016033 -0.43646982 -0.35932472 -0.0817314 -0.506771 -0.13658376 -0.075142436
0.9232684 -0.63374597 0.76053363 -0.28318998 0.70141304 -0.44225135 -0.49578795 1.2174487
0.5980172 0.124939956 -0.601048 -0.6655921 -0.45490366 0.96701974 0.43487298 -0.8876981
1.1970718 0.57067055 -0.635043 0.28394184 0.66653234 -0.7199823 -0.2148174 0.92069185
-0.41875336 -0.58374363 0.0064647696 -0.49963084 0.50908095 -0.15210651 -0.22044893 -0.4625398
1.1060442 -0.067302674 -0.23234339 -0.15109983 -0.06459024 -0.53018385 0.54623234 0.20524918
-0.512035 -0.34081554 0.26856476 -0.43309632 1.2439723 -0.71340567 -0.55049473 -0.63950664
1.352515 0.7751503 -0.26978177 -0.43941334 0.47658762 -0.5960032 0.6848456 -0.4445889
0.5943554 -0.6568557 0.64885205 -0.41556817 -0.5827726 -0.45451635 2.4592822 0.7647477

conv1.fc_neigh.weight f4 [16, 10]
00000000: ec44 aabf c129 eebe e8cd a0bf 42ec 913f
00000010: 7d8c 75be cc40 76bf 27d8 ccbe 9d14 233f
00000020: 2a86 bbbf 40db 1cbe 7ce9 6e3f d7ce 43bd
00000030: 185b a93f 9ce1 f93f cc85 91be 5f2c 1e3f
00000040: a126 473f 9eff f7be e390 dd3e ac37 e53f
00000050: 096d d6be 319b 1cbf 4808 783f 161c bb3e
00000060: 3519 2ebe 3021 363f 1e05 53bf a7ab 3d3d
00000070: 782b 1fbf ffdf f33d 1033 ffbe e2be 783f
00000080: ed57 c3be c87f c2be 759d 5f3f 02f9 1d3f
00000090: 96eb 8f3f ff83 503f 8a04 d93e ce29 c3be
000000a0: b6c8 59bf 0043 65be bbc5 083e f20e 2b3f
000000b0: 0ba7 0bbf a99b 5bbf 9a78 443f 156e 00bf
000000c0: 8ffd f6be 3ab3 a9be cadb 8bbd d4cd db3f
000000d0: ccb3 8f3f 50ea 5fbf 280a d53f 8d7c 923d
000000e0: 65b3 1a3f 55b5 0040 242b 2cbc 8560 fdbe
000000f0: 0813 abbf 0765 2cbf ea9a 23be c776 d5bf
00000100: c8d0 fabe a6d2 3d3f cc1c 27bf 94d2 9dbe
00000110: 0cf7 413f 19c9 81bf d941 f33f 2e69 97bd
00000120: 4ab4 4bbe 1fc0 f3be e069 2abf bffd 483f
00000130: 8e11 b5be f145 6abd 5202 cc3f 36a4 a63d
00000140: 9d72 abbf 361f 443c aa9a 20bf 8272 743f
00000150: 87f0 ca3e 9468 71bf 0bf7 433d 1bea 57be
00000160: 4770 81be a64c aa3f 6f46 d2bc c04c a3bd
00000170: 59a0 db3e 9b0c ffbe 6b4b 07bf 5c6d 073f
00000180: cad6 003e 38b8 a9be 580b 2b3f 5405 debe
00000190: 7665 0d40 a5da 9abe c4e7 65bd 10fb eebb
000001a0: 668e 72be 984a 453d 46bc 643c 87a5 1dbf
000001b0: 91c2 1dbd 2c5f 6b3e b5c6 b2bf a1f2 4fbe
000001c0: 1f55 39bf ec5e 11bf a549 a2be 2835 a2bf
000001d0: 3dfa 38bf d4d2 11be 3ff9 4abf e91b 64bf
000001e0: c82c 983e 470b f33e fb23 323f 07fd 08bf
000001f0: fc07 413f 8f51 283e d243 8e3d 876d febe
00000200: c052 1dbc 89e0 01bf ac83 d5be 1ee5 24bf
00000210: 0f97 d3bd dc37 e73e 3d84 903f 3b19 d7be
00000220: 44dd 01bf cf9d 5dbe 70fb 8bbe fd02 13bf
00000230: ec4e 52bf ed81 90bd 6bd2 2e3e 2895 8ebe
00000240: decf 4abf 3fa9 94bf e326 06bf 1add 34bd
00000250: 14bd 32bd 0c8c 83be 446b 9a3f b05c 16be
00000260: d2c4 413f 7245 43be b967 91bf e3f5 81bd
00000270: 80b3 11be d8a0 6a3b 6e93 d4be f531 ddbd
-1.3302283 -0.4651623 -1.2562838 1.1400225 -0.23979373 -0.9619262 -0.4000866 0.6370333
-1.4650319 -0.15318012 0.9332502 -0.04780468 1.3230925 1.9521976 -0.2842239 0.61786455
0.7779332 -0.48437208 0.43274602 1.7907615 -0.41880062 -0.61174303 0.96887636 0.36544865
-0.17001803 0.7114439 -0.82429683 0.04630628 -0.62175703 0.11907958 -0.49843645 0.97166264
-0.3815302 -0.37988114 0.87349635 0.6170808 1.124377 0.8145141 0.42386276 -0.38117832
-0.85071886 -0.2238884 0.13356678 0.6681968 -0.5455176 -0.85784394 0.76746523 -0.5016797
-0.48240325 -0.33144552 -0.06829031 1.7172189 1.1226745 -0.8746691 1.6643724 0.071526624
0.60429984 2.0110676 -0.010508332 -0.494877 -1.3365183 -0.67341655 -0.15977064 -1.6676873
-0.48987412 0.7414955 -0.65278316 -0.3082472 0.7576759 -1.0139495 1.900447 -0.07393108
-0.19892994 -0.47607514 -0.665678 0.78512186 -0.35364956 -0.057195608 1.5938208 0.081367895
-1.3394352 0.011970332 -0.62736 0.95487225 0.39636633 -0.943002 0.04784302 -0.21085398
-0.25280973 1.3304641 -0.025668351 -0.07973623 0.42895773 -0.49814305 -0.52849454 0.52901244
0.12581936 -0.3314836 0.66814184 -0.4336344 2.2093177 -0.30244938 -0.056129232 -0.0072931126
-0.23687133 0.04816684 0.0139609035 -0.615807 -0.03851563 0.22985524 -1.396689 -0.203074
-0.7239551 -0.56785464 -0.3169681 -1.2672472 -0.72256833 -0.14240581 -0.7928657 -0.8910509
0.29721665 0.4746954 0.6958615 -0.5351109 0.7540281 0.16437362 0.069465294 -0.49692938
-0.009602249 -0.5073324 -0.4170202 -0.64412105 -0.103315465 0.45159805 1.1290356 -0.42011437
-0.5072825 -0.2164223 -0.2734027 -0.57426435 -0.82151675 -0.070560314 0.17072456 -0.27848172
-0.7922343 -1.161415 -0.52403086 -0.04415617 -0.04363735 -0.25692785 1.2063985 -0.14683795
0.7569095 -0.1906946 -1.1359779 -0.06345727 -0.1422863 0.0035801437 -0.4151873 -0.10800544

conv2.bias f4 [16]
00000000: 18a4 1bbe 9d54 cebe 5198 663e b9a8 db3d
00000010: f75b b1bd 8931 31be 468d 64bd 190e 7bbe
00000020: 2c93 fdbe 6061 673e 4769 b2bc 658b b33e
00000030: 2098 953e e998 b83d 4468 75be a803 c9be
-0.15199316 -0.4029893 0.22519042 0.10725541 -0.08660119 -0.17304052 -0.05579879 -0.24517097
-0.49526346 0.2259574 -0.021778716 0.35067287 0.29217625 0.0901354 -0.23965555 -0.39260602

conv2.fc_self.weight f4 [16, 16]
00000000: cd11 34bf 4c3f 29bf e5ea e4be 21c5 9c3e
00000010: 0be8 9abf 5a7f a0be dfb8 0dbf 911c 9ebf
00000020: d722 91bf 7859 773d 73a6 eebe 724c ca3c
00000030: c30d ae3e 530e c5be 1931 8f3d a977 4b3e
00000040: 7701 bd3f e850 8e3f a90c 583f 7351 77bf
00000050: 5394 9d3f 3fe2 b53e 1f81 853f c655 a13f
00000060: 56c6 243f 6d71 14bd 28b5 57bb e07d 9a3f
00000070: 05ca 313e dc22 11bd 30e9 2dbf 9882 aebd
00000080: 6099 60bf 9ad7 55bf 1c77 f0be e7af 5dbe
00000090: 1c50 e7be 8fec d1bc 82fe 013f be6d e23e
000000a0: 44d1 0f3e dbdb b9be 9348 453f 3651 8abf
000000b0: 00ae 343f 9b05 133f 6463 b73f 3419 093f
000000c0: b493 35be b8da 52bf 9269 453e b9e2 74bd
000000d0: 17e9 933d 1ca2 083e a1c3 fabe 5cf9 0fbd
000000e0: 0865 b33d 66af 01bf e1d9 04bf 855f 1bbe
000000f0: 8a26 563c 2a03 fe3e 56f6 ff3e b3be 45bf
00000100: 89fb 8bbf acaa 933d 5e8a 16bf f1e3 38be
00000110: 1578 7ebf 3b2f 75be e918 92bf 28f2 39be
00000120: 26a6 83be b08d 65bf ee6b 65be 0960 82bf
00000130: 9fbd 20bd 3abe 9c3d 9147 9a3f 1685 49be
00000140: f156 7fbf 2cba 22be 7a63 c4be 97f3 c13e
00000150: 02c8 24bf 0863 ba3e 2d0c 23bf 1f0c 22bf
00000160: 3158 24bf 9427 6f3e e8ac 1dbf 476b babf
00000170: eb95 5e3f 6321 303f 7ff8 b73f 57e0 fa3e
00000180: ea93 953e 4e82 153f 11f3 20bf 7269 67bf
00000190: b709 393f 1950 5d3f e3ce ff3c e2ee d9be
000001a0: 252b 4b3f 3eca f9bd 9d71 1c3f c24c ff3e
000001b0: a2c3 963e a084 8c3d 597a 353d 4e63 3b3f
000001c0: 7249 cabd f0ea b7be d059 1fbf e0b3 14be
000001d0: e289 87bd bfb3 09bf 894a 04bf 6ab4 803d
000001e0: 3f88 d83e cd00 523e 70e9 2dbd 9f9f d1bd
000001f0: d560 8ebe 8da0 883d c6fd b73e c16f 92be
00000200: 13d3 a23d 4dc4 243e 8a54 d53d 6194 9cbf
00000210: d28b 863d c984 5bbf 54f4 0a3f b458 33be
00000220: 9db7 223e 3d8b 21bf 9b41 293f 84a1 25bf
00000230: fad8 223f 90d6 413f ccd4 f2bd 5f40 683d
00000240: 8f27 95bf 61df dcbf f4ff 07bf 69f4 823f
00000250: 21cf 76bf 4220 5dbf 21ae a43e 856e 6dbe
00000260: 2df0 553e 7ae4 99bf 49d0 003c f53e 22bf
00000270: 5368 99bf 6165 e13d 2763 b93e 1a9c a8bf
00000280: 1eeb fd3e 75e4 7abf 6ffa 2cbd 3eb3 55bf
00000290: 0bab 013f d1a5 4bbf 12d1 873f 6d18 273f
000002a0: 6c36 983f 35e4 38bf 8a08 7a3f 487f 59be
000002b0: d2a8 dd3d 0174 443f e176 c43e 9988 3e3f
000002c0: 0d5b 893c d86d 92ba df6e 643d 4564 263f
000002d0: 54e8 29bf 676f 763d 9f0e 3d3e 9090 7ebf
000002e0: fad7 5f3f 0ac3 3cbf becc e53e 95d0 ea3e
000002f0: 3c16 d9be 3df9 a73e 461e 35be 5774 1cbe
00000300: ec3a a73f 57d2 7cbe 5323 cbbe 9767 d7bd
00000310: d0f1 8d3f edcf bcbd 5824 f3be 957c 86be
00000320: 063e b2be 959d 2bbf 81c0 3fbe 04d6 993f
00000330: afa6 aebe e72b fcbc 5995 b23e 86af 8c3e
00000340: 9067 9fbe 4037 95be 2a60 01bd c223 6c3f
00000350: c624 31bf 39b8 78be 4566 3abe 1dc3 ccbd
00000360: 5c59 2e3d 7788 cbbe f646 69bf b9e1 8abe
00000370: 5cc4 71bf d233 02bf db1c bbbe dae9 94bf
00000380: cb56 0f3f 0836 313e 40fd afbe 2e02 33bf
00000390: a4e2 693f b0f9 613e e721 563f 38b6 9f3f
000003a0: af17 ea3d ce8e 323f 142a 0d3f 74dc a23f
000003b0: cfc2 4e3e 24bd d0be cad8 53bf 1391 9cbf
000003c0: f344 5abe 116e b33e b9e4 1c3d dc6d 8bbf
000003d0: aa70 a03e ff2f e6be cd8e 7a3e 7e49 d9be
000003e0: 5b4c 98be 8ac5 6dbe ec7a 09bf 177e 21bf
000003f0: f251 f13d e4df 34bf 1fcf 22bf 9d61 f83e
-0.7033966 -0.6611221 -0.4471046 0.30619147 -1.2102064 -0.31347162 -0.55360216 -1.2352468
-1.1338757 0.06038806 -0.46611366 0.024694655 0.33994874 -0.3848749 0.069917865 0.19869865
1.4766072 1.1118441 0.8439432 -0.96608657 1.231089 0.35524175 1.043003 1.2604301
0.64365137 -0.036240984 -0.0032914374 1.2069664 0.1736222 -0.035433635 -0.6793394 -0.085210025
-0.8773403 -0.83532107 -0.46965873 -0.21649133 -0.45178306 -0.025625495 0.50778973 0.44224352
0.14044672 -0.3630055 0.77063864 -1.0806034 0.70578 0.5743043 1.4327207 0.5355408
-0.17732126 -0.8236499 0.19278553 -0.059786532 0.07222193 0.1334309 -0.48977378 -0.035149917
0.087595046 -0.5065826 -0.51894957 -0.15173157 0.013070712 0.4961179 0.49992627 -0.7724411
-1.0936137 0.072102875 -0.5880488 -0.18055703 -0.9940198 -0.23943798 -1.1413852 -0.18158782
-0.257127 -0.8966932 -0.22404453 -1.0185558 -0.039243337 0.0765347 1.205309 -0.19679675
-0.9974204 -0.15891331 -0.38357145 0.37881157 -0.6436769 0.3640368 -0.63690454 -0.63299745
-0.6419707 0.23354942 -0.6159196 -1.4563988 0.86947507 0.68800944 1.437271 0.48999283
0.29214412 0.58401954 -0.6287089 -0.9039527 0.7228045 0.86450344 0.031226581 -0.42565066
0.7936271 -0.12196778 0.6111086 0.4986325 0.2944613 0.06861234 0.044306133 0.731984
-0.0987729 -0.3592143 -0.6224642 -0.14521742 -0.06618096 -0.53789896 -0.5167623 0.06284411
0.42291448 0.20508118 -0.04245895 -0.102355234 -0.27808252 0.06671248 0.359358 -0.28600886
0.079504155 0.16090508 0.10416515 -1.2232782 0.06569637 -0.8574949 0.54279065 -0.17514306
0.15890355 -0.63103086 0.6611573 -0.6469958 0.6361233 0.7571802 -0.11856994 0.056702014
-1.1652697 -1.725567 -0.5312493 1.0230838 -0.96409804 -0.86377347 0.321641 -0.23186691
0.20892401 -1.202285 0.007862159 -0.63377315 -1.1984962 0.110056646 0.3620846 -1.3172638
0.49593443 -0.9800485 -0.04223102 -0.83476627 0.50651616 -0.7954989 1.0610678 0.65271646
1.1891608 -0.72223216 0.9766928 -0.2123996 0.108232155 0.7673951 0.38371947 0.7442718
0.01676705 -0.0011171652 0.055769797 0.6499675 -0.6637013 0.060164835 0.18462609 -0.99439335
0.8743893 -0.73735106 0.44882768 0.4586226 -0.42399776 0.3280734 -0.1768733 -0.15278755
1.3064857 -0.24689613 -0.39675388 -0.10517805 1.108942 -0.09219346 -0.47488666 -0.26266924
-0.34812945 -0.67037326 -0.18725778 1.2018437 -0.34111544 -0.030782653 0.34879568 0.27477664
-0.311337 -0.29143715 -0.03158585 0.9224206 -0.69196737 -0.24289025 -0.18203075 -0.099981524
0.04256569 -0.39752552 -0.911239 -0.27125338 -0.94440246 -0.5086032 -0.36545452 -1.1633866
0.5599181 0.17305768 -0.34372902 -0.699252 0.9136145 0.22067904 0.8364548 1.2477484
0.114302985 0.6974915 0.5514233 1.2723527 0.20191501 -0.40769303 -0.8275267 -1.2231773
-0.21315365 0.35044912 0.038304064 -1.0892901 0.31335956 -0.44958493 0.24468537 -0.42438883
-0.29745755 -0.23219886 -0.5370319 -0.6308302 0.11783208 -0.7065413 -0.6359729 0.48511973

conv2.fc_neigh.weight f4 [16, 16]
00000000: 0c94 f1be fe7c 33bf 25dc dfbe 3c24 073f
00000010: 5466 32bf c2ff 2e3f c2fe 35bd 4022 05bf
00000020: 69c0 34be 9a20 103f 5f77 ba3d 9fab 1cbe
00000030: f512 de3e 2085 a73e 4e81 05bf 8786 4a3e
00000040: aab0 8e3f 7cd5 353f 1b8b 29bf 86a6 76bf
00000050: 4233 503f d7c0 14be 8a6b 74be 5407 e7be
00000060: d60e e7be 968b f13e bd0b 183f 2502 d13e
00000070: b6a0 85bf ac85 36bf f336 2a3f b973 50be
00000080: 64af fabe 81b3 27bf 2a32 2fbf fa65 2bbe
00000090: 9483 933d 019d adbd 2f16 ed3e ebef 08bf
000000a0: 116d 283e eb09 6abf 3cf3 143f f93f 093f
000000b0: 2bf0 90bc 623f d03e 33ed 45bd 9aea 653f
000000c0: be34 2f3f 4b56 94bf dde0 dabe 58c4 18bf
000000d0: 3683 26be 74bd d63d ad35 583d 6fd1 01be
000000e0: 855c 6bbe e88f c7be 6583 03be 65bc 933e
000000f0: a6aa 1b3f 4335 1cbe 833a 543f f46e 55be
00000100: fa18 4bbf 5296 4d3f 34d9 283e 2905 813f
00000110: 944f 66be fcd1 b53e 4b28 19bf 3f86 913e
00000120: fc3f d23e 9a9d 87be e57d bc3e e953 c73d
00000130: 1609 933f d991 263f c33f af3e 9f36 163f
00000140: d0bc 963f 9212 4d3f 63f6 e63d ce8d bbbc
00000150: 61b0 2d3f 3321 88be fadd 46bf 8fda 933e
00000160: 8760 293f 8598 8abe b2bb 943e cf6f a139
00000170: d494 f73d 2cd7 6bbc 9fb6 883f 389b 883e
00000180: 4d4b 843f d1e8 27be fdd8 e7be 3664 5bbf
00000190: 5d33 19be 9779 23bf 282e 51bf 87ec 88bf
000001a0: d09b 3b3f 6e6d 3bbf 1f90 0f3f 0a07 5b3e
000001b0: 2046 19bf 0f3c cb3e 7b53 78be 523f a7bd
000001c0: 0599 4b3f 386c d7be a12e d03e 55a5 a63e
000001d0: e893 9dbc 2ee9 423f e4ad 603f 77b6 8fbd
000001e0: f76d 343e c025 4ebe 1234 1c3f d94d 133f
000001f0: 50b9 c13e bc8c 583e 517b a73e 42a7 1b3e
00000200: eda2 58bf b29a 873e fb84 02be 99ba a53f
00000210: 856e ffbd 407c b63f c43b 133f 5d34 343f
00000220: 2456 0b3f 48c2 0bbe 7b31 433f cd3b 05bf
00000230: 16e3 593f 3d63 323f c42e 843e 5809 e5bd
00000240: 9c99 713e 64eb 023f a03b 53be de03 22be
00000250: 2e10 adbe 46f9 7fbf 01be 1a3f 7f72 63be
00000260: 6bfa 01be ec08 9ebe 0a99 243f cab2 b93d
00000270: 9125 6bbf 426c 80be f5a5 b9be 3776 e3bf
00000280: 99e4 9c3e 2bea 81bf 6477 6ebd 2d62 71be
00000290: dd40 1ebf 78d3 24bf 5a54 cc3e 512b 883f
000002a0: 250d c63e 9b1a 32bf 174b 0f3f 58b3 e93e
000002b0: 91d2 5cbf d541 5dbe e926 f33e 891d 1fbf
000002c0: 9c2f 62be 94df 3a3e 000f 8cbe 091e 173e
000002d0: e9f2 cdbe da4b 593e f910 21be 6467 91be
000002e0: 9046 563f 8e24 5bbf 69e8 23bf 33cb f9be
000002f0: 2fdc 7ebd c28d 3b3e 9242 75bc b50e bdbe
00000300: 603c 1cbf 36b8 edbe f425 5c3f 72d3 053f
00000310: 439c 85bf fdae 91be 893c 073f 3dab 733e
00000320: dcb4 a3bf 2a83 703e a835 47be fa3b 84bf
00000330: 97f6 643f d360 93bc b9cf 8dbf 0ee5 1c3f
00000340: 8138 2cbf 27d7 29bf aeb9 013f ec64 d73e
00000350: 0ca4 5bbe 0b53 6bbe d824 04be c4e2 d03e
00000360: c79d 14bf 4fce 033c 0f5b e4bd 9cd9 5dbe
00000370: 9954 b03e fbf0 2d3f 7b5f 10bf 500d 0fbf
00000380: 1469 303f e5e1 3dbf d588 08be a63b 1dbf
00000390: 6e62 26bf acf2 38be c781 fd3e 2032 6dbe
000003a0: b36f 24be 2662 883e 7966 9dbe 7502 103f
000003b0: cf8d c43e 19f8 f7bb 2956 38be b928 9ebe
000003c0: b8ee e73e eda2 9e3f 6c14 9e3e fd29 8e3f
000003d0: 8fd1 9c3d f594 a73f cc80 b6bd 2f52 423c
000003e0: cee4 afbe 66cb 5e3f 6c28 d43d ca5d 9ebf
000003f0: e656 943e 4b80 a33e e165 59bf d49e 94be
-0.47183263 -0.701126 -0.43722644 0.52789664 -0.6968739 0.68359005 -0.04443241 -0.52005386
-0.17651524 0.56299746 0.091047995 -0.15299843 0.43373838 0.32718754 -0.5215043 0.1977788
1.1147664 0.71028876 -0.66227883 -0.96347845 0.81328213 -0.14526688 -0.23869148 -0.45122778
-0.45128506 0.47176808 0.5939291 0.4082195 -1.043967 -0.7129772 0.66490096 -0.20356645
-0.48961937 -0.65508276 -0.6843592 -0.1673812 0.07202831 -0.08477212 0.46305987 -0.53491086
0.16447856 -0.91421384 0.58183646 0.5361324 -0.017692646 0.40673357 -0.048321914 0.898111
0.68439853 -1.1588835 -0.42749682 -0.59674597 -0.1626099 0.10485354 0.052785564 -0.12677549
-0.22984512 -0.3897698 -0.12843092 0.2885467 0.60807264 -0.15254693 0.8290178 -0.20843107
-0.79334986 0.80307496 0.16489106 1.00797 -0.22491294 0.35511768 -0.5982711 0.28422734
0.4106444 -0.26487428 0.368148 0.097328015 1.1487148 0.65066296 0.34228334 0.58677095
1.1776371 0.8010646 0.11277463 -0.022894766 0.6784726 -0.2658783 -0.7768246 0.28877684
0.66162914 -0.27069488 0.2904945 0.00030791617 0.120889336 -0.014394563 1.0680732 0.26680923
1.033548 -0.16397406 -0.45282736 -0.85699785 -0.14961 -0.63857406 -0.81711054 -1.0697182
0.73284626 -0.7321385 0.56079286 0.21389404 -0.5987263 0.3969426 -0.24250595 -0.08166374
0.79530364 -0.42074752 0.40660575 0.32548013 -0.019235566 0.76137054 0.87765336 -0.07017224
0.17620073 -0.20131588 0.61016953 0.5754066 0.37836695 0.21147436 0.3271127 0.15200523
-0.84623605 0.2648521 -0.1274604 1.294757 -0.12472252 1.4256668 0.5751307 0.703924
0.54428315 -0.13648331 0.76247376 -0.52044374 0.8511213 0.69682676 0.2581693 -0.11183423
0.23593754 0.5114043 -0.20628214 -0.15821788 -0.33801407 -0.99989736 0.6044617 -0.22211646
-0.12693183 -0.30866182 0.6429602 0.090673044 -0.91854197 -0.25082594 -0.36259428 -1.7770451
0.30643156 -1.0149587 -0.05821933 -0.23572607 -0.61817724 -0.64385176 0.39908105 1.0638219
0.38681903 -0.69571847 0.55973953 0.4564464 -0.862588 -0.21607144 0.47490624 -0.6215444
-0.22088474 0.18249351 -0.27355194 0.14757551 -0.40224388 0.21220341 -0.15729131 -0.28399193
0.8370142 -0.85602653 -0.64026505 -0.4878784 -0.062221702 0.18315795 -0.014969485 -0.36925283
-0.61029625 -0.46429604 0.8599541 0.52275765 -1.0438312 -0.28453818 0.52826744 0.23795791
-1.2789569 0.23487535 -0.19454062 -1.0330803 0.89438766 -0.017990505 -1.1079017 0.6128701
-0.6727372 -0.6634392 0.5067395 0.42069185 -0.21449298 -0.22980897 -0.1290468 0.40798008
-0.5805325 0.008044793 -0.111501805 -0.21665043 0.34439543 0.6794583 -0.5639569 -0.5587969
0.68910336 -0.7417281 -0.13333447 -0.6141914 -0.6499394 -0.18061322 0.49513075 -0.23163652
-0.16058235 0.2663738 -0.30742243 0.5625375 0.3838944 -0.0075674173 -0.18001617 -0.30890444
0.45299315 1.2393471 0.30874956 1.1106564 0.07657158 1.3092333 -0.08911285 0.011860414
-0.34354252 0.8702911 0.10359272 -1.2372372 0.28972548 0.31933817 -0.8492108 -0.29027426
