model.pth (torch, 29451 bytes, 9 tensors)

conv1.bias f4 [16]
000000 fc 1c a4 3b e2 ba 8d bc 73 05 f0 bc e9 78 4b 3c
       0.005008338 -0.017301027 -0.029299473 0.012418964
000010 a6 ca 0a 3b 8c a5 57 3b 2e af ee 3b 8b 3c df 3b
       0.0021177917 0.003290507 0.0072840666 0.006812637
000020 92 e7 4c bc 6c bc a8 ba 18 90 d8 bc 5f a4 c4 3c
       -0.012506383 -0.0012873537 -0.026435897 0.02400416
000030 c2 81 9e 3b 86 b0 34 3c c6 d7 46 3a af 78 95 3b
       0.0048372457 0.011028415 0.00075852533 0.0045615057

conv1.fc_self.weight f4 [16, 174]
000000 ed 6f 38 3e 65 1b 4b 3e 46 93 20 3e 18 5f ee 3c
       0.18011446 0.19834669 0.1568118 0.029098079
000010 2e 25 bc bd 55 0e 3f be 6d 3b 86 3e fe 3f bf bd
       -0.09186779 -0.18657811 0.26217213 -0.093383774
000020 63 2f 28 3d d4 1c ac 3e 5b 88 0f 3e cf 2f f9 3d
       0.041060816 0.33615744 0.14016859 0.12167322
000030 6b 1e 5d be c7 fc cf bc b9 ec 30 be c3 b2 81 be
       -0.21593635 -0.025389088 -0.17277803 -0.25331697
000040 ba b1 6e bd a4 02 06 be 69 e9 c6 3d 7f ce 61 bd
       -0.058274962 -0.13086945 0.09712488 -0.05512857
000050 0d 15 37 3e 2a d6 69 3c f2 d4 eb bd 0e a0 32 bd
       0.17879124 0.014272252 -0.115152255 -0.04360967
000060 38 8c 8b bc 53 4c c0 bd 92 05 42 be d6 a7 43 3c
       -0.017034635 -0.09389558 -0.18947437 0.011941871
000070 27 c6 2f be a2 7a df bd 5d 79 d1 bd 7d 23 f3 bd
       -0.17165433 -0.10912062 -0.10228226 -0.11872003
000080 80 89 dc bc b5 79 6d bd 6b c2 4d 3e 48 15 a6 3c
       -0.026921034 -0.057977397 0.20093696 0.02027382
000090 35 5d 46 bd fa 27 0f be 97 6d d2 bd b8 43 e6 bd
       -0.048428733 -0.13980094 -0.10274809 -0.11243385
0000a0 d0 96 86 bc f6 b6 1e be d8 49 25 3e 92 97 ae 3c
       -0.016429335 -0.15499482 0.1614145 0.021312509
0000b0 cb 2a 85 bc 8e 59 52 3e 57 6c 2c 3d 6f 3c 5e bd
       -0.016255757 0.20541975 0.04209551 -0.054256853
0000c0 49 09 18 3d 40 6b 85 bd a4 28 c8 be 79 36 8e be
       0.03711823 -0.06514597 -0.39093506 -0.27775934
0000d0 28 97 91 3b e3 59 22 be d6 b6 bd bd 93 62 01 3d
       0.004443068 -0.15854602 -0.09263389 0.03158815
0000e0 83 c6 0e be c6 46 51 be b5 1e e2 bd ab 7e 29 3e
       -0.13942914 -0.20437154 -0.11041013 0.16552226
0000f0 11 05 ee bd a2 42 54 be 4a 2d 16 be 92 ce 09 bc
       -0.1162206 -0.20728543 -0.14665714 -0.008411067
000100 24 57 ee bd a9 6a 23 be 23 f3 95 bd 0c 90 8f be
       -0.116377145 -0.15958656 -0.07321765 -0.28039587
000110 47 a4 7e bd 61 0b d3 bc 96 22 ca 3d 87 d4 5d be
       -0.062168386 -0.025762262 0.09869878 -0.21663104
000120 fe ab ae bd 73 0d 50 bd ed 0b a7 bc 82 a4 78 be
       -0.08528899 -0.050794076 -0.020391429 -0.24281505
000130 90 8a 71 be 3e b5 e5 bb 38 44 fd bd 32 1b 7b 3c
       -0.23588014 -0.007010131 -0.12366527 0.015326308
000140 a4 58 f9 bc 9f 4c 8a 3e 3c ea c3 3d e5 92 9a bd
       -0.030437775 0.27011582 0.09566161 -0.07547549
000150 af aa 81 3c fb c5 96 3d 27 76 67 3d 82 f3 a1 bd
       0.015828459 0.073619805 0.056509163 -0.079077736
000160 54 40 88 3d d8 a1 e5 3d 9a d6 98 be b6 b0 6a bd
       0.066528946 0.1121251 -0.29851228 -0.05729743
000170 a4 63 81 3e ae 51 0d 3e ba 38 2f bc 74 eb 40 3e
       0.25271332 0.1380069 -0.010694677 0.18839818
000180 a5 7a 8d bd 82 0a eb 3c 95 4d ff bb 59 e1 9c 3d
       -0.06908158 0.028691534 -0.007791231 0.07660169
000190 a4 e2 0f be b9 7a 97 bd 9d 64 2c 3d 3d c1 c8 bd
       -0.140513 -0.07396454 0.04208814 -0.09802482
0001a0 0d d7 4a bc b6 9c 84 bd b4 33 35 3e 5c 54 98 bd
       -0.012380374 -0.06475203 0.17695504 -0.07437965
0001b0 4e 3f 35 3e c6 12 70 3e 47 02 87 be 64 89 2e be
       0.1769993 0.23444661 -0.26368925 -0.17044598
0001c0 87 bf 14 3d ec e8 ef 3d 02 a4 96 be 1b a4 33 3d
       0.036315467 0.11714348 -0.29422003 0.043857675
0001d0 33 03 2e 3b 56 12 cf bd f5 9c 0a ba d7 b7 b8 bd
       0.00265522 -0.10110919 -0.00052876706 -0.0901944
0001e0 2c 50 fb 3d 67 65 1c 3e 82 2f 17 3d 8b 3c 0e bd
       0.12271151 0.15273057 0.03691054 -0.034725707
0001f0 bc b0 66 3d ba f0 3d bd 0c 54 dd 3d b3 62 db 3d
       0.05632089 -0.046372153 0.10807046 0.10712185
000200 ac ce 39 bd 1e 84 c2 3e 29 6d 77 bd da 86 86 3d
       -0.045363113 0.37991422 -0.060406838 0.0656869
000210 59 19 6a 3e cf af c9 bd ed b5 5f be e4 44 4b be
       0.22861232 -0.09847986 -0.21846743 -0.19850498
000220 26 6e 6b 3d c1 95 bc 3d b6 0a 37 3e a1 b1 eb 3d
       0.057478093 0.09208251 0.1787518 0.115084894
000230 0c 85 e9 3d ea 82 a1 bd b5 02 9e 3d b5 cf bf 3d
       0.1140233 -0.07886298 0.0771536 0.09365789
000240 ba 07 f4 bd aa 08 4f 3e a3 b5 ba 3e 10 51 e7 3d
       -0.11915536 0.20218149 0.36466703 0.11294758
000250 e0 d7 d7 3d 63 27 4f 3d 4c ab aa bd 98 b9 28 be
       0.10539222 0.05057467 -0.083334535 -0.16477048
000260 e0 0f 82 bd be 16 ff bd 29 f9 8b be be 1d c9 bc
       -0.06350684 -0.124555096 -0.27338532 -0.024550315
000270 22 12 08 3d ab f4 7b be 8c 99 6a 3d cf 18 65 3a
       0.033220418 -0.24605052 0.05727534 0.00087393535
000280 25 35 c9 3d bf 42 77 be 6e e4 6a 3e bd 9a 01 3f
       0.0982459 -0.24146555 0.22938702 0.50626737
000290 de b9 ef 3d e7 28 04 be 4d 2e 95 3d 78 f8 af bd
       0.11705373 -0.12906228 0.07284222 -0.085923135
0002a0 e0 09 a8 bd 9f 30 35 be e0 00 b5 be 45 ad 07 3e
       -0.082050085 -0.17694329 -0.3535223 0.13249691
0002b0 89 e2 87 3e 4f 9d de 3e 3f e1 2a be 1e a6 22 3c
       0.2654002 0.43479392 -0.16687487 0.009927301
0002c0 12 21 2f 3e a9 db 05 3e d8 2c ed 3c cd 88 e1 3d
       0.17102459 0.13072075 0.028952047 0.11012421
0002d0 51 92 aa 3d a6 06 b4 3d fb 6d 8b 3a b7 29 02 be
       0.08328689 0.087903306 0.0010637635 -0.12711225
0002e0 2b 9a 7b 3d 90 41 3f be f7 f2 13 bd c1 85 2b be
       0.061426323 -0.18677354 -0.03612038 -0.16750242
0002f0 44 f1 83 be d7 12 bf be ae 46 0b be eb cb ac bc
       -0.2577001 -0.3731906 -0.13601181 -0.02109333
000300 5d 19 8d 3b 55 a4 5c 3b ac 9e 39 bd 34 d1 50 3c
       0.004306002 0.0033667285 -0.045317337 0.01274519
000310 5f 82 be 3c 2e 23 63 3d c1 22 38 be f2 f2 83 bd
       0.023255525 0.05545347 -0.17982008 -0.064428225
000320 61 7a 5b bd d2 25 22 3c cc 96 16 3c 36 96 61 bc
       -0.053583506 0.009896712 0.009191226 -0.013768723
000330 c8 24 eb 3c e3 ca f1 3d f3 b9 2c be 95 59 21 bd
       0.028704062 0.11806276 -0.16867809 -0.039392073
000340 a0 87 7c bb fa fd 15 be e5 ce 92 bb da 9c 2b 3e
       -0.0038532987 -0.14647666 -0.00448023 0.16759053
000350 57 07 a7 bd ee cf 04 be 62 0f b4 bd 13 d8 80 3d
       -0.08155697 -0.12969944 -0.087919965 0.06291213
000360 c2 d5 8a 3e fa 31 3e be 90 43 17 bd f5 ce 92 bd
       0.2711621 -0.18573752 -0.036929667 -0.0716838
000370 a6 9f 90 be fc e6 44 be 45 50 8e 3c 8e b9 9d be
       -0.28246802 -0.19228739 0.01737226 -0.3080563
000380 d6 e9 3f bc 76 64 07 3e fe bb 6b bd fc a8 c6 3d
       -0.011713466 0.13221917 -0.05755233 0.097002
000390 fd 6a 41 3e 4d 8f 06 3e 35 62 03 3e c6 17 79 39
       0.18888469 0.13140602 0.12830432 0.00023755347
0003a0 f5 17 b5 3d cc 53 28 3e b8 39 e5 3d 47 ca 02 3e
       0.0884246 0.16438216 0.111926496 0.12772475
0003b0 7d 4e f2 3d b9 95 3b bd ed 20 f2 3d 87 f8 be 3d
       0.11831377 -0.045797084 0.11822686 0.093247466
0003c0 59 98 03 bd 10 84 88 3b 15 02 8d be 2d 43 fe bd
       -0.032127712 0.0041661337 -0.2754065 -0.124151565
0003d0 70 52 15 bd e7 c7 4e be e8 cf 54 be 9d 80 ab bd
       -0.03645557 -0.20193444 -0.20782435 -0.083741404
0003e0 eb e3 97 ba 65 86 25 3e 9f b1 0e be 7b 3f b2 bd
       -0.0011588311 0.16164549 -0.13934945 -0.08703514
0003f0 54 35 ee 3c b3 a7 de bd 96 cf ae bc 87 52 e4 3b
       0.029078163 -0.1087183 -0.021339219 0.006967846

conv1.fc_neigh.weight f4 [16, 174]
000000 4a 39 0b bd 06 ad 03 bd 15 6f cc 3d c9 dd 41 3e
       -0.033990182 -0.03214743 0.09982125 0.1893226
000010 61 9e b9 be 9e c2 49 be c0 77 36 3e dd b5 bd be
       -0.36253646 -0.19703147 0.17819118 -0.37052813
000020 3b 33 cc bd 92 49 ab 3e bc 73 25 be 48 38 45 bd
       -0.09970709 0.33454567 -0.1615743 -0.048149377
000030 de 31 a4 be 12 97 3e bd 90 b5 55 3e 32 7b 7e bc
       -0.32069296 -0.04653079 0.20870042 -0.015532302
000040 27 33 e9 bd 78 43 1d be 9f 32 42 3b 3c 74 28 be
       -0.1138671 -0.15357769 0.0029632223 -0.1645059
000050 e0 f4 97 3e a4 97 b7 bd 59 62 33 3c b3 6c 18 3e
       0.29679012 -0.0896447 0.010948741 0.14885215
000060 33 59 cd bd c4 86 a7 3e d3 cd 98 bd c7 34 00 be
       -0.10026779 0.32720006 -0.07461133 -0.12520133
000070 80 df d4 3c 52 71 5d bd f2 45 61 be 3c 5d db bd
       0.02598548 -0.05406315 -0.21999338 -0.107111424
000080 4d 30 c4 3a f8 6c 87 3e 6f f3 8d 3e 8c a6 2b 3b
       0.0014968008 0.26450324 0.27724788 0.00261918
000090 eb 46 14 be b2 4e 10 be 56 a1 e4 bd 2c bb f0 3d
       -0.14480178 -0.1409252 -0.11163585 0.1175445
0000a0 98 eb 57 bd 68 58 96 be 41 e2 80 3e 9b 79 92 3d
       -0.052714914 -0.29364324 0.25172618 0.07152101
0000b0 15 b5 4c bd 03 8f 82 3d 15 c4 91 bd 3b 39 69 be
       -0.04997738 0.063749336 -0.07117478 -0.22775738
0000c0 f5 84 92 bd c7 19 d8 3d eb 58 fb 3c fb 31 44 bd
       -0.07154266 0.10551792 0.030682048 -0.047899228
0000d0 79 f5 94 3e 82 20 04 bd 50 c5 16 bc ee 37 c6 3b
       0.2909353 -0.032257564 -0.009202316 0.006049148
0000e0 ba c0 7d bd 6b 07 09 be 1f c6 4c 3d 71 6b 3f 3e
       -0.061951376 -0.13381736 0.04999363 0.1869333
0000f0 e1 34 7c be 4f fb 4a 3e fe 27 68 3e cd cc 16 3e
       -0.24629547 0.19822429 0.22671506 0.14726563
000100 02 5c eb 3d 81 35 dc 3b ee 66 ad 3c a9 fc 59 be
       0.114921585 0.0067202454 0.021167245 -0.21287788
000110 a9 fa 9c bd 09 e4 df bb 65 e3 1a bc 9c 11 47 be
       -0.07664997 -0.006832604 -0.009453629 -0.19440311
000120 f5 48 68 39 36 53 8e 3e 53 35 92 3e 3b dd af be
       0.00022152423 0.2779786 0.28556308 -0.34348473
000130 f5 19 0f 3b d6 a8 53 3e 89 5c 35 bc 36 f0 51 3e
       0.002183554 0.20669875 -0.011069425 0.2050179
000140 a7 89 18 3e 81 13 a5 3e e3 47 75 3e 24 37 9f bd
       0.1489626 0.32241443 0.23953204 -0.07774189
000150 1a 9b e2 3d c6 77 13 be 8e 51 4d bc b1 98 42 be
       0.110647395 -0.14401159 -0.012531651 -0.1900356
000160 a4 f5 89 bd 3e 87 63 3e 65 41 f9 3d c7 89 92 3e
       -0.06736305 0.2221956 0.12170676 0.2862074
000170 1b b7 d5 3e 1c 6a 64 be d9 db 99 be 7c d3 25 be
       0.4174126 -0.22306103 -0.30050543 -0.16193956
000180 9f b5 87 be 10 07 6a 3e f9 a1 b5 bd dc 69 b7 bc
       -0.26505753 0.22854257 -0.088687845 -0.022389345
000190 fd b4 6a be cf eb 07 be 1d d0 12 3e c4 c3 25 bd
       -0.22920604 -0.13273548 0.14337201 -0.0404699
0001a0 10 67 26 be d0 55 01 3e a7 1d 57 3e d3 75 51 be
       -0.16250253 0.12630391 0.21007405 -0.20455103
0001b0 a9 e5 2d 3d b4 af 0c bd 76 06 94 be cc 2b aa be
       0.04245535 -0.03434725 -0.2891118 -0.3323654
0001c0 68 ba 80 3d 34 cb 8c 3d 19 69 45 be c0 88 08 be
       0.06285554 0.068746954 -0.19278373 -0.13333416
0001d0 20 e1 d4 3d 8a f0 69 be 96 e8 75 3d 98 62 2b be
       0.10394502 -0.22845665 0.060036264 -0.1673683
0001e0 c9 09 7f 3c 10 55 91 3e 4f ac d2 ba 04 37 aa be
       0.015566298 0.2838521 -0.001607308 -0.332451
0001f0 b0 f1 bd 3e 4d 9f 46 3d ea 4a a4 3d a5 f3 b6 3b
       0.37098455 0.048491765 0.08022101 0.005583244
000200 54 b5 86 be 07 6c 45 3e bb c4 1c be 60 e7 8c bd
       -0.26310217 0.1927949 -0.15309422 -0.06880069
000210 b7 53 95 3e f9 e5 61 bd 3d 09 1e be 01 31 43 be
       0.29165432 -0.05515096 -0.15433212 -0.19061662
000220 f5 7f 8a bc b1 fd ac 3d a8 02 07 3e 41 12 62 3c
       -0.016906718 0.08446825 0.13184607 0.013798297
000230 b9 9a 28 3e 30 54 83 be 50 73 60 3d 5c 0a 21 3e
       0.16465272 -0.25650167 0.05479747 0.15726608
000240 10 26 53 be 09 6c 9c 3e e8 4a 7a 3e cd dd 4b 3d
       -0.20619988 0.30551174 0.24442637 0.049772073
000250 9a ce 81 bc b4 50 8e 3e e7 ed a1 3d a1 4b db 3b
       -0.015845586 0.27795947 0.079067044 0.0066923653
000260 42 0e 47 be 53 90 9a bc 1d 33 f5 bd 67 41 2e 3e
       -0.19439033 -0.018867647 -0.1197264 0.17017137
000270 ac d8 48 3d 27 b7 80 be 8a d3 70 3d 9f 3c 29 3b
       0.04903476 -0.25139734 0.05879549 0.0025823487
000280 e9 08 fd bc 82 bc 34 bf e8 26 17 be b9 70 96 3e
       -0.030888038 -0.7060014 -0.14760935 0.29382876
000290 58 ec e6 3d 90 55 5d be 9a b1 4d be cf 2c 8c 3c
       0.11275548 -0.21614671 -0.20087281 0.01711121
0002a0 99 57 a2 bd fb 32 47 3e 8b dd 90 be dd 8d 36 3e
       -0.07926864 0.19453041 -0.28294024 0.17827554
0002b0 94 6a ed 3d 40 11 8d 3e 4c f5 df 3b ef 02 21 bd
       0.11592594 0.27552223 0.0068346616 -0.03930944
0002c0 08 0b 09 3e ab ab c8 3c e1 43 08 be 60 09 97 3b
       0.13383114 0.02449592 -0.13307144 0.004609272
0002d0 74 5b fe 3d e7 b3 fe 3d 72 ed b9 bb d1 4f b0 be
       0.12419787 0.124366574 -0.0056740576 -0.34435895
0002e0 cc 00 4d 3c 74 45 bb bd 60 de 28 3b b1 6b 53 3d
       0.012512397 -0.091441065 0.0025767311 0.051616374
0002f0 54 96 ff bd bb 99 f7 be 36 97 43 3c 4b 87 b9 3d
       -0.12479845 -0.48359475 0.011937907 0.09059008
000300 9a 18 80 3d c9 d1 3a 3d cd 4f 42 be 10 8c 00 3e
       0.062546924 0.045610223 -0.18975754 0.1255343
000310 c1 0c 32 3e 1a 08 8a 3e d0 3f 84 be 3c 81 d4 3d
       0.17387678 0.26959306 -0.25829935 0.10376212
000320 46 4f 0b 3e 02 94 bc 3c e4 bb f7 bc 7c be 13 be
       0.13604459 0.023019794 -0.03024096 -0.14428133
000330 83 ab 6c bd 53 9c 04 3e 57 b0 35 be 90 38 a1 bd
       -0.057780754 0.12950258 -0.1774305 -0.078721166
000340 71 c8 11 bd e3 e0 20 3c 64 74 1e 3e b6 6a 03 3f
       -0.035591546 0.009819242 0.15474087 0.513347
000350 3a 71 f2 3d 3c 93 04 be 40 2d 37 be 38 d8 2a 3b
       0.118380025 -0.1294679 -0.17888355 0.0026068818
000360 4d df 03 3f 95 3f 9c be f6 aa 18 bd 6f d9 15 3d
       0.51512605 -0.3051726 -0.037272416 0.036584314
000370 fe 89 8b be 2e 0d ed bb ed 98 e4 3d 7b 71 26 bc
       -0.27253717 -0.007234237 0.11161981 -0.010158892
000380 e5 af fb 3d c6 3a ca bd 14 1f da bd 44 b9 1a 3e
       0.122894086 -0.098744914 -0.10650459 0.15109736
000390 cb 69 d7 bd 1f 97 3c 3e a3 22 76 3d 8d dd 4f 3c
       -0.10518225 0.18417023 0.060091626 0.012687099
0003a0 ca 2a b3 bd a8 79 20 3e a5 85 9a bd 85 bf f2 3e
       -0.08748396 0.15671408 -0.07545022 0.47411743
0003b0 7e 55 82 bd 13 fc 52 be af 93 23 3e 95 bb 4b 3b
       -0.063639626 -0.20603971 0.15974306 0.003108715
0003c0 bb 4c a1 bd 9b 23 79 3e 83 98 45 be 07 51 fb bc
       -0.07875963 0.24329989 -0.1929646 -0.030678285
0003d0 f8 b7 ad bd dd 59 30 be f7 9b 58 be f5 51 e4 3d
       -0.08482355 -0.1722178 -0.21153246 0.111484446
0003e0 60 e7 34 3c 32 57 46 3e 67 c1 0a 3e bd 55 cc 3d
       0.011041492 0.193692 0.1355034 0.09977291
0003f0 8e 8f 6f 3d 58 d7 03 be a4 41 13 3e 3e 6a 99 be
       0.058486514 -0.12875116 0.14380509 -0.2996387

conv2.bias f4 [16]
000000 2b 73 99 3b 39 93 9b bb ea 6f 9b ba 7c 39 8e 3c
       0.0046829185 -0.004747775 -0.0011858915 0.017361395
000010 18 6a 2f 3c 18 08 bd 3b 42 f0 43 bc 5b 7a bc 3a
       0.010706447 0.005768787 -0.011959137 0.0014379726
000020 a4 53 78 bb 24 cd 19 bc 69 f5 06 bc 3e 8e 80 bb
       -0.003789165 -0.009387288 -0.008237221 -0.0039232066
000030 36 a0 85 3b ba ef 56 bb ea d4 3e bb 83 64 27 bc
       0.0040779365 -0.0032796697 -0.0029118606 -0.010216835

conv2.fc_self.weight f4 [16, 16]
000000 4a da 40 3e 90 27 ca be ec e1 bf bd 5d 1b ea 3b
       0.1883327 -0.3948331 -0.09369263 0.0071443752
000010 fb b3 98 3d 90 38 1b 3e ed 94 0b 3f b7 22 cf be
       0.074562036 0.15158296 0.5452412 -0.40456173
000020 dc 01 88 bc 15 84 c5 3e 6f 24 c1 be a2 c0 ff 3e
       -0.01660245 0.38577333 -0.3772311 0.49951655
000030 f6 3b fc 3d d3 db c2 3e b7 cf f9 3d 5d 03 5d 3e
       0.12316124 0.38058338 0.121978216 0.21583314
000040 4f e5 6f 3e c0 7f 7d 3e 86 e7 37 3f e2 cf b9 be
       0.23427318 0.24755764 0.7183765 -0.36291414
000050 d8 91 ee bd f4 b0 5b be c2 86 ca 3c 56 49 23 bd
       -0.11648911 -0.21454221 0.02472246 -0.03986486
000060 1a c9 98 3e 8d be fc 3d e1 57 c7 3e 17 eb ef bd
       0.29840928 0.12341032 0.38934234 -0.11714762
000070 3d 80 2c bd 09 07 79 be 7b e1 8f be fe b3 81 3e
       -0.042114485 -0.2431909 -0.28101715 0.25332636
000080 28 ff 07 be 38 ac 8d be c1 c5 95 be 5b ec 8c 3d
       -0.13280928 -0.27670455 -0.29252437 0.06881019
000090 f9 b7 4b be d7 c2 4b 3d c6 11 54 be 7b e3 a1 3d
       -0.19894399 0.04974636 -0.20709905 0.079047166
0000a0 60 bb e6 3e 58 b2 a3 be e0 98 62 3e c6 65 36 3e
       0.4506483 -0.31972003 0.2212863 0.17812261
0000b0 32 1d f6 3d 4d 9f 8f 3e 0a 07 1a bf 17 79 1d be
       0.12017287 0.28051224 -0.6016699 -0.15378223
0000c0 4f cb 23 3e fb 8a 25 3d b7 ae 98 3d 5b 28 29 3e
       0.15995525 0.040415745 0.07455199 0.165193
0000d0 69 be 57 3d 7a d6 88 be 15 81 97 be 9c 8c a9 be
       0.052671824 -0.26726133 -0.2959067 -0.3311509
0000e0 39 83 28 bf 3a 4e 9b 3e 90 42 df be 81 f5 fb be
       -0.6582523 0.3033312 -0.4360547 -0.49210742
0000f0 d7 9a e3 be 79 08 36 3d d2 98 11 bc 4f 10 f8 bd
       -0.4445407 0.044441674 -0.008886533 -0.121124856
000100 5d 51 0e bf e8 60 a4 bc c3 c4 8c be b9 c7 f2 3e
       -0.555929 -0.02006574 -0.27493867 0.47418
000110 70 e5 83 3e 74 6d ce be c0 fa 12 3f 9d 69 c5 3e
       0.25760984 -0.4031788 0.57413864 0.3855714
000120 c0 74 a7 3d 80 97 70 be 13 d0 23 3f f0 1f d7 3d
       0.08176565 -0.23495293 0.6398937 0.105041385
000130 d5 46 a8 bd b5 94 87 3e 55 2f 44 3e 0e 9b 80 be
       -0.08216635 0.26480642 0.1915868 -0.25118297
000140 48 63 c2 be 31 02 00 3d 1c 95 ba be 0e 24 9c 3e
       -0.3796637 0.03125209 -0.36441886 0.30496258
000150 e1 cf ce 3d e4 39 fc bd 41 4b cd be 2d ce 85 bd
       0.100982435 -0.12315729 -0.40096477 -0.065334655
000160 38 c7 6b be 47 57 c8 be 75 61 80 be e7 9e 57 be
       -0.23025215 -0.39129087 -0.25074354 -0.2105671
000170 fd 92 51 bd 14 d9 b1 be c1 aa 9e bd 80 38 8c bd
       -0.05116557 -0.3473593 -0.077474125 -0.06846714
000180 c6 16 4f 3e d0 23 04 3f 72 f9 5b be 7f ab f3 3e
       0.20223531 0.51617146 -0.21481875 0.4759178
000190 46 13 73 3d 76 e8 1f 3e 76 d8 ce be 8f 05 1f 3d
       0.059344552 0.1561602 -0.40399522 0.03882366
0001a0 b5 52 52 be fb 9f da be 73 dc c5 3b 80 99 3f 3d
       -0.20539363 -0.4270018 0.0060382425 0.04677725
0001b0 f6 c3 81 bd a2 e7 88 3e 7a 78 ab 3e 9e 7a b8 be
       -0.06336205 0.26739222 0.33490354 -0.3603105
0001c0 9d 36 85 3e 8f 36 d0 be 14 cb c8 be 63 25 72 3d
       0.2601823 -0.40666625 -0.39217436 0.059117686
0001d0 a3 b6 58 be 2c da b7 be a5 55 0d 3e 19 ce db 3e
       -0.2116342 -0.3590864 0.13802202 0.42930678
0001e0 fe bf 94 3e 1e b7 8e be 35 d4 90 be 0d fd 70 3c
       0.29052728 -0.27874082 -0.282869 0.0147087695
0001f0 c1 9a d1 be 31 9d 06 3e fe 91 d1 3e b9 b2 4c be
       -0.4093838 0.13145901 0.40931696 -0.19990052
000200 1e ea 8c 3e 30 d5 9f bb 3d 43 d6 3d dc ca 48 3e
       0.27522367 -0.004877709 0.104620434 0.19608635
000210 e9 17 bc bd f6 bf a6 be b6 6f 72 be 17 d2 f9 be
       -0.09184248 -0.3256833 -0.23675427 -0.48793098
000220 81 6f 63 be 0e f5 ec 3c b6 8f b4 be b5 18 ce be
       -0.22210504 0.028925445 -0.35265893 -0.40253225
000230 7d 3f 76 3c 57 0e 09 3f f8 5e 33 3d 51 58 aa 3e
       0.015029785 0.53537506 0.04379174 0.33270505
000240 5d 67 b1 be ae d7 b5 3d 54 7c 02 be 12 8f 9f be
       -0.34649172 0.08879028 -0.1274274 -0.3116384
000250 82 17 9c 3e 57 8b db be c0 be e7 bc cc 56 45 3e
       0.30486685 -0.42879745 -0.028289199 0.19271392
000260 e6 8b e5 3e df bb f4 3e 8e ea 5b 3e 30 54 11 3f
       0.44833297 0.47799584 0.21476194 0.56769085
000270 24 c1 16 3e d6 c2 36 3e f2 73 8f 3e 4b a5 c4 be
       0.14722115 0.17847762 0.28018147 -0.3840736
000280 04 09 a9 3e 7c e4 d0 bd b6 20 74 be 95 fd 5c bd
       0.3301469 -0.1019983 -0.23840603 -0.053952772
000290 36 4b b2 3d f3 d4 21 3e 21 a2 9b bc 31 93 c2 be
       0.087057516 0.1580389 -0.018998208 -0.38002923
0002a0 a5 e0 5e 3e 37 e5 9f 3e 07 4a 9e be 02 e4 b7 3e
       0.21765383 0.31229565 -0.30915853 0.35916144
0002b0 14 13 e0 be d5 af a5 be a5 fa d5 3e 49 70 52 3d
       -0.43764555 -0.32360712 0.4179279 0.051376615
0002c0 aa 0b f9 3e be af 38 3e 67 fe a7 3e 00 e4 36 bd
       0.4864171 0.1803579 0.3281128 -0.04465103
0002d0 34 24 30 3c 02 29 c7 3e 56 d4 c9 3c 40 95 9c be
       0.010750819 0.38898474 0.024637382 -0.3058262
0002e0 40 55 b5 be a7 bb d9 be af bb 01 bf 78 05 92 be
       -0.35416603 -0.4252598 -0.5067701 -0.28519797
0002f0 cf f2 19 bf 5e 65 b5 be af e7 84 be 5d 7c ca 3e
       -0.6013612 -0.354289 -0.2595801 0.39548007
000300 2b aa 12 3f c5 6a 82 be 20 16 0c bf d8 1b 93 be
       0.57290906 -0.25472084 -0.5472126 -0.2873218
000310 e9 24 d9 bd ab 4e 96 3e cb b2 9b 3e e2 d7 9f 3d
       -0.10602743 0.29356894 0.30409846 0.07804848
000320 87 a0 25 3f 0a e9 a5 3e ef 07 8e be dd d8 ac 3d
       0.6469807 0.32404357 -0.27740428 0.08439801
000330 5c af bc 3e a7 bb d8 be 86 67 3d be d5 65 be 3e
       0.3685254 -0.42330667 -0.18496522 0.37187067
000340 e6 03 6f be a9 8b df 3e 7d d6 3a be 2e e2 a5 be
       -0.23341331 0.4366124 -0.18245883 -0.32399124
000350 dd db 92 3d cf 1a 36 3f 51 e1 4f bd 6f f0 4a 3e
       0.07170842 0.71134657 -0.050751988 0.1981828
000360 6b 80 59 3d 40 cd b4 bb 58 7d 07 be 99 d7 cd 3d
       0.053100985 -0.005517632 -0.13231409 0.100508876
000370 ba 3e 33 3f b6 3e 2f bf ff bf c6 bd 63 14 ed bd
       0.7001759 -0.68455064 -0.09704589 -0.11576154
000380 38 4e 68 bc 9d e7 78 be 9c d5 9a 3c 7c 61 d4 be
       -0.014178805 -0.24307103 0.018900685 -0.41480625
000390 9d 6d 73 3c 76 d9 b1 3e 2e 1e e8 bc 70 d6 d0 3d
       0.014857677 0.34736222 -0.028334703 0.10197151
0003a0 24 7e 91 3e bb c6 81 3e e7 7c 77 3e af 59 c6 3e
       0.2841655 0.25346932 0.2416874 0.38740298
0003b0 95 a5 af bb 81 8e ef bd 1f 37 0c be dc df 01 3c
       -0.005360315 -0.11697102 -0.13692902 0.007926907
0003c0 f6 6a 10 3f 57 61 6d 3e e7 bf ce be bb 35 5c 3e
       0.5641321 0.23181663 -0.40380785 0.21504872
0003d0 36 54 e8 bd f3 14 a3 3b 5e 5b f2 be e9 ab 08 bf
       -0.11344187 0.0049768626 -0.47335333 -0.53387314
0003e0 e0 a4 d6 bd 98 f0 0a bf d8 c3 32 3c 20 88 83 3e
       -0.10480666 -0.54273367 0.010910951 0.25689793
0003f0 d6 8d 12 3e 73 87 5a be f5 61 18 bf 98 19 c1 3e
       0.14311919 -0.21340732 -0.5952447 0.3771484

conv2.fc_neigh.weight f4 [16, 16]
000000 77 b7 44 3d 98 40 04 bf e4 ee c1 be c4 36 86 3d
       0.04802653 -0.5166106 -0.37877572 0.065534145
000010 03 50 10 be 1b a7 f2 3d 1c 53 32 3f 15 e8 06 3c
       -0.14093022 0.11848279 0.69658065 0.008234044
000020 c1 a1 14 bf 76 3f f9 3e e3 2c b4 3e 30 b2 41 3f
       -0.58059317 0.4868123 0.35190496 0.7566252
000030 c9 8d f4 3b 61 5b 5f bd 75 40 9f be 9c bf 1d 3f
       0.007463191 -0.054530505 -0.31103864 0.616205
000040 5e db 19 bc b5 ef e5 3e ad c4 17 3f a3 59 81 bf
       -0.00939068 0.44909444 0.5928448 -1.010548
000050 a5 15 bd 3e ea 9e d8 bd 64 dc 88 3e e2 b1 f7 3a
       0.36930576 -0.105771855 0.26730645 0.0018897618
000060 75 09 e5 be bc 22 7a be 75 84 08 3f 1c 04 40 be
       -0.44733778 -0.24427313 0.53327113 -0.18751568
000070 d7 10 eb be 14 42 21 be 67 6c d8 3e e2 27 3d 3d
       -0.45911285 -0.15747863 0.42270204 0.046180613
000080 78 2b 6e bd 7f b4 96 3e 6c 11 8b 3e 22 f2 77 bd
       -0.058146924 0.29434583 0.2716173 -0.06053365
000090 86 51 aa 3e 31 bf 62 bd fe 4e bc 3e 1c 45 c1 bd
       0.33265322 -0.055358116 0.36779016 -0.0943701
0000a0 8d 22 8f 3e c7 f5 32 bd 98 e6 fc be 94 0c 1a 3f
       0.27956048 -0.043691423 -0.4939468 0.6017544
0000b0 32 0e 43 3e 74 7b e8 be b6 6f 09 bf 56 6a eb be
       0.19048384 -0.45406687 -0.5368608 -0.45979565
0000c0 33 e7 15 be cc 76 ae 3e 2a 9e fc 3e 2a cd e3 3e
       -0.14638977 0.3407501 0.4933942 0.44492465
0000d0 e3 86 12 be 24 f3 0a bf 70 74 be 3d 12 1f 9c bc
       -0.14309268 -0.54277253 0.092995524 -0.019057784
0000e0 4b a6 16 bf 70 1e 05 3f 41 91 2a 3c 1f 77 53 be
       -0.5884749 0.5199957 0.010410608 -0.2065091
0000f0 00 d8 11 be 5c a9 76 be 95 f3 10 bf 2c f7 1a be
       -0.14242554 -0.24088043 -0.56621677 -0.15133351
000100 85 21 98 3e 60 9c 98 3e a7 5a 04 be cb c0 d1 3e
       0.29713073 0.29806805 -0.12925206 0.40967402
000110 ed 46 5a 3f 8c 7c f3 3d a3 91 45 3f a5 0f cf bd
       0.85264474 0.1188899 0.7717535 -0.10110406
000120 4b 54 ad be cb ec f9 bd 63 3c 9d 3d 5c 7b 77 be
       -0.33853373 -0.12203368 0.076775335 -0.24168152
000130 48 b1 3b be 8e df d4 3d 47 87 e0 3e 7c 12 cc be
       -0.18329346 0.10394202 0.43853208 -0.39857852
000140 c1 23 f9 be a0 ec 30 be 1a 63 06 be 74 27 ba 3e
       -0.4866009 -0.17277765 -0.13123742 0.36358225
000150 fd 10 c1 3e 83 ec 56 3e 7f 8c 93 be 8a 44 d4 bd
       0.37708274 0.2098866 -0.28818128 -0.10364635
000160 bc 75 b2 bc f3 c5 e6 be ee e5 12 bf 53 3a 16 3e
       -0.021784656 -0.45072898 -0.57382095 0.14670686
000170 f4 6e 8c 3e 8c 5b d2 be de a6 77 3e e8 5a 82 bd
       0.274284 -0.4108547 0.24184749 -0.06364995
000180 8d b6 cb bd 35 b4 f0 3e 1f d3 e0 be 82 09 23 3f
       -0.09946928 0.47012487 -0.43911073 0.6368638
000190 40 55 1f bf 6b 0e fe 3e 88 e3 94 bd 01 e1 14 3f
       -0.62239456 0.49620375 -0.07269961 0.5815583
0001a0 1d de 45 3e 93 08 04 3c 32 a7 fc 3e 6d f3 91 bc
       0.1932301 0.008058685 0.4934631 -0.01781627
0001b0 e0 b4 af be f6 52 d8 3d b0 f7 25 bf a7 d7 90 3e
       -0.34317684 0.105626985 -0.64831066 0.2828953
0001c0 87 9c 9b be b8 fe 6f 3c f0 92 07 3e e3 68 62 3d
       -0.30392858 0.014648132 0.13239646 0.05527581
0001d0 45 82 a3 be 80 e4 15 bf 03 b1 58 3d 54 00 37 3f
       -0.31935325 -0.5855179 0.052903187 0.71484876
0001e0 9b 04 5f be a9 79 b8 3e 85 c3 d6 bd ec b8 bc 3e
       -0.217791 0.3603032 -0.10486511 0.36859834
0001f0 84 ad 72 be 02 59 9c bd 64 f5 85 3e 55 54 54 bf
       -0.23699003 -0.076341644 0.2616378 -0.8294118
000200 80 34 31 3e 8e 7f 5e be b9 9d 2a be 49 50 0b be
       0.17305183 -0.21728346 -0.16661729 -0.13604845
000210 73 c4 61 bd 3b 50 81 3e 27 ad 3b 3e ef a8 ee be
       -0.05511899 0.25256523 0.18327771 -0.4661326
000220 c7 b0 de 3e b4 80 ad bd e7 a6 0a bf 7a 66 c9 be
       0.43494245 -0.08471814 -0.5416092 -0.39335996
000230 d4 84 1e bd 41 fd 34 3f 10 9b 2e bd 07 17 fd 3e
       -0.038700894 0.70698935 -0.042628348 0.4943163
000240 a1 7f 43 be 4b 92 35 3a 96 03 ec 3a e5 b5 d4 bc
       -0.19091655 0.00069264014 0.001800644 -0.02596564
000250 1a 56 26 3e 9b 30 67 bf 46 d4 ea be b1 f0 d0 3e
       0.16243783 -0.9030854 -0.45865077 0.40808633
000260 c1 0c 9f 3e 0a 39 13 3f 6a 40 28 3f 56 82 ff be
       0.31064418 0.5750891 0.6572329 -0.49904126
000270 57 9a fa be 1b a7 3a be 22 fe 32 bd 4a a9 fa 3e
       -0.48945877 -0.18227808 -0.04369939 0.48957282
000280 5f 69 04 3f 76 bd a1 be 85 5f a9 3e 30 62 96 3e
       0.51723284 -0.3158986 0.33080688 0.29371786
000290 28 df 6e be 4a e1 ac 3d 44 8d 84 be 60 61 d0 be
       -0.23327315 0.08441408 -0.25889027 -0.4069929
0002a0 00 e8 aa 3e 0e 31 3a 3e a5 5c b7 3e 9a 5a 91 3e
       0.33380127 0.18182775 0.3581287 0.28389436
0002b0 ff 2b c6 3e 29 c5 c9 3e 89 32 2f 3f bd 99 db be
       0.3870544 0.39408234 0.68436486 -0.4289073
0002c0 fe d7 d2 3d fe d3 4c 3d 5e 37 33 3e af ae 05 3d
       0.102951035 0.05000686 0.1750159 0.032637294
0002d0 4e 31 ef be 36 ff 05 3f e0 23 0c 3f 61 2f 89 be
       -0.46717304 0.52342546 0.5474224 -0.2679396
0002e0 ba b4 c8 3e 07 f4 b1 be a8 0b fa be 3e c6 62 3e
       0.39200383 -0.3475649 -0.48837018 0.22145936
0002f0 23 d0 fa 3d f9 48 a2 3e ac 34 88 3e 1c d6 0a 3f
       0.1224673 0.316963 0.26602685 0.54232955
000300 68 a3 f7 3e cc 26 2a be dd 4a f9 be b1 e6 d3 be
       0.48366857 -0.16616362 -0.4868993 -0.4138694
000310 ce 54 04 3d a8 22 9b bd 2e 50 fe 3e 72 3f c6 be
       0.03230744 -0.075749695 0.49670547 -0.3872028
000320 28 ae ad be 33 df c7 3e 29 a6 82 3e fe a5 0d bf
       -0.33921933 0.39037475 0.25517395 -0.5533141
000330 97 58 9f be 64 17 37 be 59 86 0b bf 7e df e4 be
       -0.31122276 -0.17880017 -0.54501873 -0.4470176
000340 fe 28 07 bf ee f8 b9 3e 78 a3 9d be 07 17 9e 3e
       -0.52796924 0.3632273 -0.3078878 0.30876943
000350 21 da 98 be 36 64 82 be 12 51 3b 3e 59 28 65 be
       -0.2985392 -0.2546708 0.18292645 -0.22378673
000360 7f 03 76 be eb c1 76 be 2a f8 2f 3d 55 42 3b bf
       -0.24024771 -0.24097411 0.042961277 -0.7314809
000370 23 b5 9f 3e f4 0a 12 bf f4 41 d2 3e bd bd ae 3d
       0.31192884 -0.57047963 0.41065943 0.085322835
000380 1c c5 d5 3d d4 c1 bc bd 50 31 bc bd 8c 45 64 be
       0.10437986 -0.09216657 -0.09189093 -0.22292155
000390 0a dd b9 3e 94 25 bc 3e 8c 3e 28 bf 89 41 bc be
       0.36301452 0.3674742 -0.6572044 -0.3676875
0003a0 42 a5 34 bf 22 0a d5 be a3 bf 5c 3e af b4 c0 be
       -0.70564663 -0.41609293 0.21557479 -0.3763785
0003b0 ec 16 07 bf 46 72 e5 be 2f 74 4b be b1 45 c3 be
       -0.5276935 -0.44813746 -0.1986854 -0.38139108
0003c0 c3 3c 1d 3f d4 c8 5c be 1e 0a 8a be d0 a3 d0 bd
       0.6142084 -0.21560985 -0.26960844 -0.10187495
0003d0 4d 3f 06 bf 15 cf 47 bf fd 5b 87 3e 48 40 17 bf
       -0.5244034 -0.7805036 0.2643737 -0.5908246
0003e0 31 f9 1c bd e1 c2 3c bf 78 16 74 be a0 1b dc bd
       -0.038323585 -0.7373486 -0.23836696 -0.107474566
0003f0 34 e5 b5 be c7 95 82 3e 24 82 14 3e 5c 83 66 3f
       -0.3552643 0.25504896 0.1450277 0.9004419

conv3.bias f4 [16]
000000 20 ae d7 3b bc 76 40 bc 86 90 a6 38 06 60 ad 3c
       0.0065820366 -0.0117470585 7.9424164e-05 0.021163952
000010 a1 d4 98 bc 02 41 a7 bc 05 03 87 bc a7 d5 70 3b
       -0.018656077 -0.02041674 -0.016480932 0.003674844
000020 9e 9c 4e 3b 73 de 84 bc 87 8e d0 3b 07 03 e5 bb
       0.0031526457 -0.016219353 0.006364647 -0.0069888863
000030 b3 8d d5 bc 28 fe 57 ba 79 d8 9b 3c 11 66 11 3c
       -0.026068544 -0.00082394714 0.01902412 0.008874432

conv3.fc_self.weight f4 [16, 16]
000000 b0 fe 31 bd 36 fe 2f 3e 7c 9b 0b 3f e1 45 dd bd
       -0.04345578 0.17186818 0.54534125 -0.10804344
000010 25 0d b9 3d 59 24 bb be 19 b3 3f be 99 b3 80 be
       0.0903571 -0.3655117 -0.18720664 -0.25137022
000020 37 08 59 3e 6b 01 86 3e 7a 60 c8 3e aa ef c3 3e
       0.2119454 0.26172957 0.39136106 0.38268787
000030 ad 61 8c 3e f8 10 56 3e 34 29 38 bf 5e 31 80 be
       0.2741827 0.2090491 -0.7193787 -0.25037664
000040 08 41 e0 3e fd d0 05 be c1 da 14 3d 61 6d df be
       0.43799615 -0.13068004 0.036341432 -0.43638137
000050 e4 6a a9 be 09 20 b2 be 0f ed 74 3d e4 1b 14 3d
       -0.33089364 -0.34790066 0.05979639 0.03615941
000060 b3 33 33 3e d7 47 82 3e 96 9c c0 be c9 e7 a9 3e
       0.1750019 0.25445434 -0.37619466 0.3318465
000070 fc be 2b be a5 df cd bd 43 af bb bd 76 63 d3 3d
       -0.16772074 -0.100524224 -0.09164288 0.10321705
000080 30 2f e1 bb a4 cb b6 bc d3 ea 8c 3d f0 b8 ff 3d
       -0.0068720803 -0.0223139 0.06880727 0.12486446
000090 dc 1d d7 bc ee 4d 46 3e 6b 99 ab be 6e f7 8a be
       -0.026259355 0.19365665 -0.33515486 -0.271419
0000a0 ac 88 34 be 12 79 22 3e bf 49 86 be 9d 8b a9 3e
       -0.17630261 0.15866497 -0.2622814 0.3311433
0000b0 02 37 a4 3e d4 ca a4 be 59 fd 50 be 3b 2c fc bc
       0.32073218 -0.32185996 -0.20409144 -0.03078281
0000c0 1e 53 9f 3e b7 6a 8e bc a4 4a 2c bb 67 39 ba 3e
       0.311181 -0.01738487 -0.0026289606 0.3637192
0000d0 97 b4 aa 3e c4 9b 35 bd b7 28 eb 3e 29 2f 23 3e
       0.33340904 -0.044338003 0.459295 0.15935959
0000e0 c4 2d 01 3e e0 25 04 bf 43 84 ef 3d 89 25 cb be
       0.12615114 -0.5162029 0.11695149 -0.39677075
0000f0 3d 13 01 3e 0c b1 05 3e 1c c6 9e 3e 19 91 b6 3c
       0.12604995 0.1305582 0.3101052 0.022285985
000100 0b c3 2a 3d 75 95 2e be b8 e9 b8 3c 78 56 06 be
       0.041689914 -0.17049201 0.022572383 -0.13118923
000110 05 0c a7 bd cb b8 1a be d4 ee 09 3f 62 d4 96 be
       -0.081565894 -0.15109555 0.5388005 -0.2945891
000120 d2 ed b6 3d d4 20 a7 3e e5 50 42 bd f2 35 3d 3e
       0.089320794 0.32642233 -0.04744043 0.1847761
000130 1d 2e 37 bb 27 3c 31 be 43 ed b3 3e 10 49 45 be
       -0.002795107 -0.17308103 0.35141954 -0.19266152
000140 33 fe 41 3e f2 d1 d5 3d c2 26 8f 3e 4c 0f 56 be
       0.18944626 0.104404345 0.27959257 -0.20904273
000150 67 79 d8 be d3 64 d7 3d f3 cb a1 3b dd 5b 75 be
       -0.42280123 0.105172776 0.0049376427 -0.23960824
000160 a6 9d 7f be 2c b6 62 bc 02 64 01 be d1 01 8e 3d
       -0.24962482 -0.0138373785 -0.12635806 0.0693394
000170 d3 7c ab 3e 11 97 c0 bd 0b 85 b5 be c1 a6 da be
       0.3349367 -0.09403814 -0.35453066 -0.42705348
000180 4a 20 6c be 6a 37 d8 3e d7 ec 76 be 52 c9 0e be
       -0.23059192 0.42229778 -0.24113785 -0.13943985
000190 07 9e f1 bc 25 e6 09 be de f8 ae bd dc a5 c2 3e
       -0.029494299 -0.134667 -0.085435614 0.38017166
0001a0 df 6e 0b bf 31 91 af 3b e1 27 64 be 58 76 c6 be
       -0.5446605 0.0053578843 -0.22280838 -0.38762164
0001b0 86 e4 3a 3c 8e 9a 74 be 3d 93 87 bd 49 e4 c7 3e
       0.011407023 -0.23887083 -0.0661988 0.39041355
0001c0 7b 69 88 3e 39 0d 7b be f6 aa f8 be 83 f0 e4 be
       0.26642975 -0.24516763 -0.48567933 -0.44714746
0001d0 ce 09 9d be 61 88 c3 3e e5 a1 9b be 56 1f db 3e
       -0.30671543 0.38189986 -0.30396953 0.42797345
0001e0 14 aa fd 3e c2 10 c8 bc d9 73 ab be c8 a8 21 be
       0.49543822 -0.024422053 -0.33486822 -0.15787041
0001f0 a8 61 d3 be 14 14 82 3e 72 4f 0a 3f a7 e8 c2 bd
       -0.41285443 0.25405943 0.54027474 -0.09517031
000200 03 d7 48 3e 98 7a a3 bd a3 bc 9c 3e 27 2b 9b be
       0.1961327 -0.07982367 0.30612668 -0.3030636
000210 6e ae c9 be bc 41 8a 3e 05 38 8e bc df 26 1b bf
       -0.39390892 0.27003276 -0.017360697 -0.6060619
000220 c4 28 b1 be 18 46 cd bd b2 73 c7 3e 9b 25 c4 be
       -0.34601414 -0.10023135 0.38955456 -0.3830994
000230 fb 5e 92 be fa 97 c8 be 2a 47 3a bd 1a 82 c3 3e
       -0.2858809 -0.3917845 -0.045478024 0.38185197
000240 7e 05 88 3e ed 79 53 3e c2 e9 ba be 40 f4 5e 3e
       0.2656669 0.2065198 -0.36506468 0.21772861
000250 26 b7 17 3e 8e 81 99 3e 54 79 4f bd 0e 4c 2d be
       0.1481596 0.29981655 -0.050652817 -0.16923544
000260 30 5c 0a be c1 10 ed bd 02 ba cb be a1 85 78 3e
       -0.13511729 -0.11575461 -0.3979035 0.24269725
000270 fc e5 02 bc 11 52 bc bd 04 f3 c9 3e db d2 bf bd
       -0.007989403 -0.091953404 0.3944322 -0.09366389
000280 94 f4 20 3d 2e 54 8f be e5 31 05 3e 8c 08 a0 3e
       0.039295748 -0.27993912 0.13007315 0.3125652
000290 1b 1e f5 3d 90 36 bd be 5b 8d ce be c6 20 05 3e
       0.11968633 -0.3695569 -0.4034222 0.13000783
0002a0 68 82 89 be 52 6e 6f be 1e bf 76 bd 2d 23 84 3e
       -0.26857305 -0.23381928 -0.060240857 0.25808087
0002b0 49 b2 8a be cb 74 8c be 33 bd c0 3d 5a 47 5f bd
       -0.27089146 -0.27432856 0.09411087 -0.054511406
0002c0 1d 15 8c bc b6 93 55 3d 99 d4 94 be ce b4 94 3d
       -0.017099911 0.05214282 -0.2906845 0.07261048
0002d0 ea 20 1d be 15 cb 97 be b7 99 73 bd 7f a4 a9 3d
       -0.15344587 -0.29647127 -0.059472766 0.08283328
0002e0 25 9d 08 be 96 78 e1 be 9f 86 b8 3e 41 e6 1b bf
       -0.13341196 -0.44037312 0.36040208 -0.60898215
0002f0 5f 9a d9 be 6b 2d a6 3e a8 b6 f7 be 6b 4b ab bd
       -0.42500588 0.32456526 -0.48381543 -0.08363994
000300 ea 10 de 3c 2f 4e 00 bf d7 21 fd bc 40 5e 6a be
       0.027107675 -0.501193 -0.030899925 -0.22887516
000310 d8 71 84 3e 7b a3 98 3e e4 41 56 be 54 c9 a8 bd
       0.25868106 0.29812226 -0.20923573 -0.08241525
000320 03 53 8a 3e 80 21 f5 bd 3f 7e d1 3d 2e 6b 13 3e
       0.27016458 -0.1196928 0.10229158 0.14396355
000330 86 b2 8b 3e 95 00 86 be d9 83 79 3e 4a 43 94 bd
       0.2728464 -0.2617232 0.24366702 -0.07239397
000340 05 a9 bd be 36 d5 e9 3d a9 0a ac be 28 68 b6 3e
       -0.37043014 0.1141762 -0.33601883 0.3562634
000350 65 af 83 be 1e 33 cd be ea d6 3e 3d 9c 8d 3f be
       -0.25719753 -0.40078062 0.046591677 -0.18706363
000360 26 71 e4 be 27 62 32 be 13 13 8f 3e f6 7c ee be
       -0.44617575 -0.17420255 0.2794424 -0.46579713
000370 ef 09 ce 3c 51 d4 6c 3e dc 7a dc bd 84 82 1a 3e
       0.025151221 0.23127867 -0.10765621 0.1508885
000380 72 28 c6 3e b8 8f ce 3e 4f 1f dd be 4c fe 31 be
       0.38702732 0.40344024 -0.4318795 -0.17382163
000390 15 e5 24 3e 98 24 6a bc e9 97 62 3d d9 cd ad 3e
       0.16103013 -0.014290951 0.055320654 0.33946112
0003a0 d3 25 8b bd ac 0a 0f bd 6a 37 88 3e 6f fe c3 bd
       -0.06794324 -0.034922287 0.26604778 -0.09570014
0003b0 1b 95 5c be ef a6 53 3e 7e c1 0b be 89 2e 7c be
       -0.21541254 0.20669149 -0.1364803 -0.24627127
0003c0 01 6f 44 be 59 11 3a bd 77 2c af be e5 76 80 be
       -0.1918297 -0.0454267 -0.3421361 -0.2509071
0003d0 bc 51 ca bd 3d 64 b0 3e 14 9f c6 3d 5b dc 54 3e
       -0.09878871 0.34451476 0.096983105 0.20787184
0003e0 50 eb 22 bd 24 c7 a6 be 97 12 43 be 37 7a d9 bc
       -0.039775193 -0.32573807 -0.1905006 -0.026547534
0003f0 cd 09 76 3e 0f 9d 44 be cd 25 cc 3e 8f fc ad bb
       0.24027176 -0.19200538 0.3987259 -0.0053096483

conv3.fc_neigh.weight f4 [16, 16]
000000 1d 7e b5 3b 83 13 aa 3d 49 41 93 3e 7e c4 9e be
       0.0055387155 0.08304503 0.28760746 -0.31009287
000010 01 65 3f 3e 51 53 e2 3e 24 87 71 be b2 4c 6e 3e
       0.18690874 0.4420419 -0.23586708 0.23271444
000020 d9 cc 0c be 5e 6b ba 3d 5b c2 f3 3e 45 70 1e 3e
       -0.13750018 0.0910251 0.4760922 0.15472515
000030 8b 8d 11 3d ac 92 ae 3e e2 80 1b bf 33 b1 5a 3e
       0.035535377 0.34096277 -0.60743535 0.21356659
000040 09 81 85 3e 8c 37 fa 3e 99 b4 21 bf 04 b3 05 3f
       0.2607501 0.48870504 -0.63166195 0.5222628
000050 12 f0 a4 3e df 63 09 3f 91 62 c3 3e 68 ad c6 3e
       0.3221441 0.53668016 0.38161138 0.38804173
000060 60 56 ab be 30 62 81 3e 58 a1 f1 be 26 82 a0 3e
       -0.33464336 0.25270224 -0.47193408 0.31349295
000070 f6 4b 09 bf 05 95 c8 3e 80 b0 6f bd 82 e3 5b 3d
       -0.5363153 0.39176193 -0.058517933 0.053683765
000080 01 9d 01 3e f7 69 95 be 80 b2 24 3e 91 fe 48 3e
       0.12657548 -0.29182407 0.16083717 0.1962836
000090 62 ef 4a be dc 08 2b 3f 90 37 f1 3d ec 25 7e be
       -0.1981788 0.66810393 0.11778176 -0.24819154
0000a0 b6 55 b2 3e e3 95 96 be 3d bb ee be b3 20 8b 3e
       0.34831017 -0.2941123 -0.46627226 0.27173385
0000b0 1f d9 d0 3e 61 c6 23 3e 36 0d c3 3e d6 ef b6 be
       0.4079065 0.15993644 0.38096017 -0.35729855
0000c0 f7 21 37 3f eb d5 9c be 17 f3 df be 1e fa ca be
       0.715362 -0.30631956 -0.4374015 -0.3964395
0000d0 37 35 47 3c b6 31 9c bc 0e 3e 98 be 47 c0 ce 3e
       0.0121586835 -0.019066673 -0.29734844 0.4038107
0000e0 4e 22 02 3e 87 ba 55 3e 1f ff b9 be 5a 0c 4f 3e
       0.12708399 0.20871936 -0.36327454 0.20219555
0000f0 f9 fc b9 3e 30 aa ce be 62 7b 60 bc a9 8e ca bd
       0.36325815 -0.40364218 -0.013701292 -0.098904915
000100 aa 43 4c 3e 01 30 1d be d3 78 52 be 66 91 89 be
       0.19947687 -0.15350343 -0.20553903 -0.26868743
000110 66 e9 0f be fe 6a 9e 3b 6e 00 b8 3e 6c 78 13 bf
       -0.14053878 0.004834532 0.35937828 -0.57605624
000120 71 07 0f 3f f8 4e ec 3e 00 bc ea 3d 04 cf ce be
       0.5587073 0.46153998 0.114616394 -0.40392315
000130 5c 24 4e bd 5e 2d 13 3e 8c 8b 5b be 9d b5 e1 be
       -0.050327644 0.14372775 -0.21439952 -0.44083872
000140 94 8f 74 be 05 66 c0 3d 7d 33 a6 3d 89 48 3c bd
       -0.23882896 0.09394459 0.08115289 -0.045967612
000150 50 93 9c be 8a c6 cb be af a8 18 3f 1e 01 c7 3d
       -0.3058114 -0.3979991 0.5963239 0.0971701
000160 24 24 17 bf c8 61 01 bf eb cd e3 3d 40 81 ce be
       -0.5903952 -0.5053983 0.1112326 -0.40332985
000170 d6 2f aa bd 73 d3 88 be 80 47 97 3d 84 3f b6 bd
       -0.08309905 -0.26723823 0.073866844 -0.088988334
000180 1f 39 2b 3f fb cf 2a be ad cc 0e 3e 1a a4 2e bf
       0.66884035 -0.16680901 0.13945265 -0.6821915
000190 81 cf 5b 3e 00 5a 12 3f 42 ab 90 3d d7 aa 94 bd
       0.21465875 0.5716858 0.07063915 -0.072591476
0001a0 75 13 82 be 94 59 66 be 9f ee cd be e3 a7 3a bd
       -0.2540547 -0.22495109 -0.40221116 -0.045570266
0001b0 dd b7 e6 3e 4e 45 5c 3e 48 8a be 3e 3f 3a 3f 3e
       0.45062152 0.21510813 0.37214875 0.18674563
0001c0 42 b2 84 be d4 d9 2c be 65 c7 fd be 4e e6 13 bf
       -0.2591725 -0.1687997 -0.49566188 -0.5777329
0001d0 b7 6e 12 bf eb 76 73 be 89 f6 14 bf 32 e9 eb bb
       -0.5720019 -0.23775832 -0.5818868 -0.00719943
0001e0 f3 e6 e5 bd 69 c7 0e 3f a2 aa 08 bf da 66 3c 3c
       -0.11225691 0.55773026 -0.53385365 0.011499131
0001f0 78 a7 d6 3e c0 41 01 bf a2 fb 83 be 11 92 e5 bd
       0.41924644 -0.5049095 -0.25777918 -0.112095006
000200 8a 75 1e be 44 a9 67 3c d7 8f cd be dc 8b 3d 3e
       -0.15474525 0.014139477 -0.40148804 0.18510383
000210 97 10 45 3e 4b f5 85 be bb b0 e0 be 2b ff af be
       0.1924461 -0.26163706 -0.43884835 -0.34374365
000220 e9 b2 b7 be fd 1f 49 be 0b e5 1e 3e c9 8e 86 be
       -0.35878685 -0.19641109 0.1551706 -0.2628081
000230 4f f1 0c bf c3 57 61 be 89 f1 9f 3e 12 92 ea 3e
       -0.5505571 -0.22006135 0.31238964 0.45814568
000240 d1 9f df 3e f5 ca 59 3f 2f b9 67 3e e2 ba 98 be
       0.43676618 0.8507531 0.22629236 -0.2983008
000250 6f 45 a0 3e 78 a3 d4 be a8 2f 99 be b3 9a 88 bb
       0.31302974 -0.41530967 -0.2991917 -0.004168832
000260 4a aa 9d 3e fd c9 5d be 7c 61 b5 3e 1a 4e fe bd
       0.30793983 -0.21659084 0.35425937 -0.124172404
000270 74 5a 9a be 20 1e fa 3e ea 9a c3 be 2e 19 2c bf
       -0.30147135 0.4885111 -0.38204128 -0.6722592
000280 61 67 7d be 2b bd a9 be b2 4a a4 3e c3 2a 3b 3e
       -0.24746467 -0.33152136 0.32088238 0.18278031
000290 2a 39 c9 be 9f 70 d5 3d 0c 3e ea be b8 d3 4b 3e
       -0.39301425 0.104218714 -0.45750463 0.19904983
0002a0 f7 2b cf be 26 3c 26 3d 07 d6 d5 3d 6b 09 d2 3e
       -0.4046323 0.040584706 0.10441213 0.4102281
0002b0 e5 8a 80 be 21 f3 0a bf 0e c1 4c 3e 93 d3 e2 be
       -0.25105968 -0.54277235 0.1999552 -0.44302043
0002c0 29 63 02 3f 54 4a 2a bf 98 c5 7b bd 49 ef 7a be
       0.50932556 -0.66519666 -0.061467737 -0.24505343
0002d0 7f 3f 42 be e6 f1 f7 3e 73 df 5f be c6 18 4d bd
       -0.18969534 0.4842674 -0.21862583 -0.050072454
0002e0 fc 2e b5 be e8 43 15 be 8d 5d 44 be df 81 d9 3e
       -0.3538741 -0.14576685 -0.19176312 0.42481896
0002f0 58 a1 e0 be e9 60 46 3e 4e bf 17 3e 60 3b f6 3d
       -0.43873096 0.19372906 0.1481907 0.12023044
000300 bd d0 23 bf 5f 61 78 3e 65 92 01 be b3 35 1c 3d
       -0.63990384 0.24255894 -0.12653501 0.03813715
000310 b6 0e f6 3e b1 3c d1 3e 6d c0 02 3e ec 71 47 3e
       0.480581 0.40866616 0.12768717 0.19477051
000320 0a 58 4f be 1a 3d dc bc 09 86 2f 3e c5 e7 b7 be
       -0.20248428 -0.026884604 0.17140974 -0.35919014
000330 ff 50 3b be d9 1a e1 bd a9 2a 32 3d e0 8d 7f be
       -0.18292616 -0.10991449 0.043497715 -0.24956465
000340 b5 a5 a5 3e 8b 94 84 be f8 12 fc be 8e 96 c0 3e
       0.32352987 -0.2589458 -0.49233222 0.37614864
000350 70 f9 71 bd 58 c0 d6 3e 87 79 92 be 5b 50 e8 3d
       -0.059075773 0.41943622 -0.28608343 0.113434516
000360 84 07 31 3d 17 31 4a 3e b6 b2 db 3e 37 c1 a6 bd
       0.043220058 0.19745289 0.42909783 -0.081423216
000370 af dc c3 3e 28 08 37 3f 44 34 95 3e 3f 88 03 be
       0.38254306 0.7149682 0.29141438 -0.12844943
000380 2a 77 54 be 01 7f d7 bd 04 83 b1 be bb b2 0c 3e
       -0.20748582 -0.10522271 -0.3467027 0.13740055
000390 20 cb 83 bd 9b 7c bd 3c 26 e1 39 3e 55 ed b6 be
       -0.064352274 0.023130706 0.18152294 -0.35727945
0003a0 74 b6 02 3e 88 dc d3 3c f2 d5 88 3e 6a b8 b8 3e
       0.12764913 0.025861993 0.26725727 0.36078197
0003b0 ee 21 b7 3e 5b 2f db be 47 cf 11 3f 36 8f d4 3e
       0.35768074 -0.42809567 0.56956905 0.4151551
0003c0 b3 01 80 be 57 6d d6 3e b8 18 c4 bd 14 c8 0d bf
       -0.25001296 0.41880295 -0.09575027 -0.5538342
0003d0 bb bc 39 3e 65 84 00 bf cb 73 f9 3d 81 b1 1c 3f
       0.18138401 -0.5020202 0.12180289 0.6120835
0003e0 5c f3 31 3f e0 56 f8 be 1e 03 bb 3e e1 fd 2c 3e
       0.6951196 -0.4850378 0.36525816 0.16893722
0003f0 d8 23 74 be c6 a2 04 3f 76 45 a8 3e cf de 24 be
       -0.23841798 0.5181087 0.32865494 -0.1610062
