model.pth (torch, 29451 bytes, 9 tensors)

conv1.bias f4 [16]
0	0x3c0d37f3	0.008619296
1	0xbb04423d	-0.0020181083
2	0xbb4b9e9f	-0.0031069887
3	0xbc98a865	-0.018634984
4	0xbc1a51d5	-0.009418924
5	0xbb5f0ac5	-0.0034033519
6	0x3c0574d3	0.008145529
7	0x3c74afff	0.014934539
8	0x3c11f085	0.008907442
9	0x3a91829f	0.001110155
10	0xbb70cc39	-0.003674282
11	0xbcadf3eb	-0.021234473
12	0x3c4a52eb	0.012348871
13	0x3b8f4527	0.0043722573
14	0xba2ecb42	-0.0006667861
15	0x3c256d85	0.010096912

conv1.fc_self.weight f4 [16, 174]
0	0xbe9f9269	-0.3116639
1	0x3e5f5fad	0.21813841
2	0xbc2666e0	-0.010156363
3	0xbe8cb199	-0.27479246
4	0xbd6607b0	-0.056159675
5	0xbd60e96b	-0.054910105
6	0xbde962ef	-0.11395823
7	0x3e13f638	0.14449394
8	0xbd276dd1	-0.040876213
9	0xbe1d801c	-0.15380901
10	0xbe0b3f77	-0.13598429
11	0x3cb52635	0.022112945
12	0x3ebb914c	0.3663429
13	0x3e72f157	0.23724876
14	0xbe487577	-0.1957606
15	0xbcf1e5af	-0.029528467
16	0x3e2ff09d	0.1718163
17	0x3d2862ce	0.041109852
18	0x3dbe3d44	0.09289029
19	0xbda0cf8f	-0.07852089
20	0x3e673b12	0.22581127
21	0xbd9ecacd	-0.07753525
22	0x3e2379de	0.15964457
23	0x3dd3fbbb	0.10350748
24	0xbe8f6016	-0.28002995
25	0x3de13a01	0.109973915
26	0xbd86c204	-0.06579974
27	0xbd7dd562	-0.061971076
28	0xbdefaab3	-0.1170248
29	0x3db23ce0	0.08703017
30	0x3e05309a	0.13006821
31	0x3e51749a	0.20454636
32	0x3e42dcd9	0.19029559
33	0xbdaa9151	-0.08328498
34	0x3e06986f	0.13144086
35	0xbe296acc	-0.16544646
36	0x3d4789b7	0.04871532
37	0x3df3c4f9	0.11902804
38	0xbc80be2b	-0.01571568
39	0xbda75d7a	-0.08172126
40	0x3dd72126	0.105043694
41	0x3e7a99c5	0.24472721
42	0x3e926392	0.2859159
43	0xbd4faa93	-0.05069978
44	0x3dccc565	0.099985875
45	0xbddc3117	-0.10751551
46	0x3e3efcfb	0.18651192
47	0xbdcaca83	-0.09901907
48	0xbcd8075a	-0.026370693
49	0xbe562c98	-0.20915449
50	0xbe5e00f2	-0.21680048
51	0x3e44d4e3	0.19221835
52	0x3d33d859	0.043907497
53	0x3d8b8d1c	0.06814024
54	0x3dbef7c4	0.09324601
55	0xbe2594b8	-0.16170013
56	0xbe6b8339	-0.22999276
57	0xbe2cd04e	-0.16876337
58	0xbdf9d535	-0.12198869
59	0xbd9b0d77	-0.075709276
60	0x3da207c3	0.07911637
61	0x3e29eea6	0.16594943
62	0xbee5586a	-0.44794017
63	0x3d4b45e6	0.049627207
64	0x3dae7d7d	0.08520029
65	0x3e1668af	0.14688371
66	0x3dcf30c6	0.10116725
67	0xbbfcfee0	-0.007720813
68	0xbe337703	-0.17525868
69	0x3e495c0e	0.19664022
70	0xbdbf5771	-0.0934285
71	0x3d99810b	0.07495316
72	0x3d48a85c	0.048988685
73	0x3ded051e	0.11573242
74	0x3d8d6569	0.06904108
75	0xbcf6836a	-0.03009196
76	0xbe3be039	-0.18347253
77	0x3e30cc3d	0.1726541
78	0x3c038c6f	0.008029087
79	0x3c5832f7	0.013195745
80	0x3dc011b2	0.09378375
81	0x3da96cec	0.08272728
82	0x3c6bbd40	0.014388382
83	0xbcc6f091	-0.024284633
84	0x3c1229c4	0.0089210905
85	0x3d5b5f5a	0.05355773
86	0xbb369559	-0.0027860014
87	0x3d486b87	0.04893067
88	0x3cfe8a14	0.0310717
89	0xbe16565f	-0.14681385
90	0x3c973d26	0.018461775
91	0x3da96828	0.08271819
92	0x3dceed6c	0.101038784
93	0xbbd85f60	-0.0066031665
94	0x3c2387a7	0.0099810725
95	0xbdf0d534	-0.11759415
96	0x3cff8944	0.031193383
97	0x3d09fb27	0.033686783
98	0xbd8eff58	-0.06982297
99	0x3cc192ff	0.023629664
100	0x3d97f969	0.07420618
101	0xbc8f4ca6	-0.017492604
102	0x3eafced5	0.34337488
103	0x3eb6a2b5	0.3567101
104	0x3e3511a5	0.17682512
105	0xbd8c1797	-0.06840437
106	0xbdd9a9bc	-0.106280774
107	0xbda25603	-0.07926562
108	0x3db8cfed	0.09024034
109	0xbd13231a	-0.035922147
110	0xbcbcdb7c	-0.023053877
111	0xbec3b5fd	-0.38224784
112	0xbeff71b8	-0.49891448
113	0xbe3970be	-0.18109414
114	0x3ddc3e02	0.107540146
115	0xbdb4edd4	-0.088344246
116	0x3c9c2490	0.019060403
117	0xbe094a35	-0.13407214
118	0xbdfc3c8b	-0.12316235
119	0xbdb29108	-0.08719069
120	0xbce9d254	-0.028542675
121	0x3dd38f01	0.1033001
122	0xbc542535	-0.012948324
123	0x3e1bda6d	0.15220042
124	0xbe12f76f	-0.14352201
125	0xbda7a5cf	-0.08185922
126	0x3e5af012	0.21380642
127	0xbb7e1208	-0.0038768072
128	0x3ea2a15f	0.3176374
129	0x3c1d0d82	0.00958574
130	0x3daeae85	0.08529381
131	0xbd5ef236	-0.05443021
132	0x3d601749	0.054709706
133	0xbe3a73ed	-0.18208285
134	0x3edc9e9f	0.43089768
135	0x3e734830	0.23758006
136	0x3da20718	0.07911509
137	0x3bb12b8e	0.0054068035
138	0xbe2827b6	-0.16421399
139	0x3f135952	0.57558167
140	0xbde2f686	-0.11082177
141	0xbe407c7e	-0.1879749
142	0xbbc1ab64	-0.005910324
143	0x3e445120	0.19171572
144	0x3e8e0a3b	0.2774218
145	0xbcbdd206	-0.023171436
146	0xbe9d28d9	-0.30695227
147	0xbda8a5cb	-0.082347475
148	0xbbe5fb09	-0.007018451
149	0xbcdfb187	-0.027306331
150	0x3e934675	0.28764692
151	0x3dd01fad	0.10162292
152	0xbd9ebb25	-0.07750539
153	0xbe8883e8	-0.26663136
154	0xbed03f3b	-0.4067324
155	0xbdbd1754	-0.09232965
156	0xbe88d96b	-0.26728377
157	0x3db724ee	0.08942591
158	0xbc0be8f1	-0.008539424
159	0xbc666d38	-0.014064126
160	0x3e3c4d2f	0.18388818
161	0xbe502ec4	-0.2033034
162	0xbda9e45a	-0.08295508
163	0x3df65b0d	0.12029085
164	0xbd8720fe	-0.0659809
165	0xbc82afa0	-0.015952885
166	0x3e1dc539	0.15407266
167	0xbc29abaf	-0.010355874
168	0xbe4ff1a3	-0.20307021
169	0xbd420fa3	-0.047378194
170	0x3d9da15a	0.07696791
171	0xbd9c120d	-0.076206304
172	0x3e43db49	0.1912662
173	0x3b4b6e45	0.0031041068
174	0xbdd69d67	-0.10479241
175	0x3d1b2743	0.03787924
176	0x3d13fb6b	0.036128443
177	0xbd579075	-0.052628
178	0x3c332cd0	0.010935977
179	0x3e306b77	0.17228495
180	0x3ca66742	0.020312909
181	0x3de5d995	0.11223141
182	0x3d864882	0.065567985
183	0xbeb883d4	-0.36038077
184	0x3dbba467	0.09162217
185	0xbcb1e09f	-0.021713553
186	0x3c93a236	0.018021684
187	0xbdd81f9b	-0.10552903
188	0x3c8561da	0.01628201
189	0xbe4096d8	-0.18807542
190	0xbc0dda63	-0.0086580245
191	0xbe03e829	-0.12881531
192	0xbe0664b6	-0.13124356
193	0xbe119247	-0.14215957
194	0x3e2b10a3	0.16705565
195	0xbd8162b4	-0.06317654
196	0xbc380f34	-0.011234093
197	0xbdc612ec	-0.09671578
198	0x3d55057d	0.052007187
199	0xbe2f00a3	-0.17090087
200	0xbe6b7bdc	-0.22996467
201	0x3d69b61a	0.05705843
202	0xbd689aa4	-0.0567881
203	0xbe321ff5	-0.17395003
204	0xbdef5500	-0.11686134
205	0xbd6985db	-0.05701242
206	0xbe45d89d	-0.19320913
207	0x3d4cad42	0.04996992
208	0x3cfc90c0	0.03083074
209	0x3e25c8d8	0.16189897
210	0x3baf182c	0.0053434577
211	0xbd7c7778	-0.06163737
212	0xbd377022	-0.044784673
213	0xbc99bc69	-0.018766599
214	0xbe106f64	-0.14104992
215	0xbd7b922e	-0.061418705
216	0xbd8a228b	-0.0674487
217	0xbdd2480b	-0.10267647
218	0x3dca5994	0.09880367
219	0xbda2101c	-0.07913229
220	0xbd8a9062	-0.0676582
221	0xbe99398f	-0.29926726
222	0xbe50bcc4	-0.20384508
223	0xbe3cfd7e	-0.18456075
224	0x3dfafc43	0.12255146
225	0x3e493284	0.19648176
226	0xbdaec1c3	-0.08533051
227	0x3e43bc69	0.19114842
228	0x3e36a252	0.17835358
229	0x3bc0df77	0.005886014
230	0x3d817547	0.06321197
231	0xbbc5491d	-0.0060206787
232	0x3e075252	0.13214996
233	0xbdd1af2c	-0.102384895
234	0xbdfabbe2	-0.12242867
235	0x3ea4a431	0.32156518
236	0xbda403d9	-0.080085464
237	0x3e2407ed	0.16018648
238	0x3cbbb4d3	0.022913372
239	0x3e9031d2	0.2816301
240	0xbe055c9b	-0.13023607
241	0xbd068c44	-0.03284861
242	0xbdc00804	-0.09376529
243	0x3ddf89cd	0.10914955
244	0x3d3a68da	0.04551015
245	0x3e43b977	0.19113718
246	0xbd13bbe7	-0.03606787
247	0xbb6f2211	-0.003648881
248	0x3c6f25f4	0.014596451
249	0x3e019188	0.12653172
250	0x3d7c7ec9	0.06164435
251	0xbd9af623	-0.07566478
252	0xbe3d0f01	-0.18462755
253	0xbe35aa11	-0.17740656
254	0x3e42919c	0.19000858
255	0x3dd9b23e	0.106297

conv1.fc_neigh.weight f4 [16, 174]
0	0xbe352f97	-0.17693935
1	0x3d19acb9	0.037518237
2	0x3e62cb17	0.22147785
3	0xbe97c356	-0.29641217
4	0xbb8d104b	-0.004304921
5	0x3d2428a9	0.04007784
6	0xbe07faba	-0.13279238
7	0x3e843bd2	0.2582689
8	0x3d4d8abd	0.05018114
9	0xbdc0d964	-0.09416464
10	0xbcdd6069	-0.027023511
11	0xbe9deaa1	-0.3084307
12	0x3f0ef288	0.55838823
13	0x3e245c32	0.16050795
14	0x3d8ab3fa	0.06772609
15	0x3e5adeb7	0.21374021
16	0x3d3f747a	0.04674194
17	0xb98eb02f	-0.00027215618
18	0xbdfce506	-0.1234837
19	0x3d1d9bb3	0.038478564
20	0x3dfa8616	0.12232606
21	0xbe5e6ba4	-0.21720749
22	0xbde94048	-0.11389214
23	0x3e908b98	0.28231502
24	0xbe038783	-0.12844662
25	0xbe379faa	-0.17932001
26	0xbe38df88	-0.1805402
27	0xbcb4ad33	-0.022055244
28	0x3db8a8fa	0.09016605
29	0x3dcaf48e	0.09909926
30	0x3d007ae7	0.03136721
31	0x3db2c049	0.08728082
32	0x3e0e2729	0.13882126
33	0x3c8a73f7	0.016901
34	0x3e20d9e7	0.15708123
35	0x3b6d73b7	0.0036232301
36	0x3dc3f683	0.09568503
37	0x3e8a2352	0.26980072
38	0xbe4d1db3	-0.2003086
39	0xbe13c6d4	-0.14431316
40	0xbd04634b	-0.032321256
41	0x3e148ae6	0.1450611
42	0x3e91f377	0.2850606
43	0xbd85e57a	-0.0653791
44	0xbde0b89f	-0.10972714
45	0xbe221881	-0.1582966
46	0x3e33b198	0.17548215
47	0xbe80a307	-0.2512438
48	0xbd6fa6e4	-0.05850877
49	0xbefabc15	-0.4897162
50	0xbead0d53	-0.33799228
51	0x3e754a9e	0.23954245
52	0x3e440c21	0.19145252
53	0x3ec0581f	0.3756723
54	0x3e514934	0.20438081
55	0x3da48e2d	0.080349304
56	0x3da15713	0.07877936
57	0x3d902ae2	0.07039429
58	0xbdcd7072	-0.10031213
59	0xbcf583aa	-0.029970009
60	0xbc4bddad	-0.012442988
61	0x3e905132	0.28186947
62	0xbea0519f	-0.31312272
63	0x3de962e9	0.11395819
64	0x3e4dd1e4	0.20099598
65	0x3ea8ebbe	0.32992357
66	0x3dec1316	0.11527078
67	0xbb3b0820	-0.0028538778
68	0x3c98505c	0.018593006
69	0x3e5c8cf7	0.21538149
70	0xbe90a6b9	-0.282522
71	0xbdb1eb4e	-0.08687459
72	0x3d9f616a	0.07782252
73	0xbe0d9404	-0.13825995
74	0xbc6e7f5e	-0.014556734
75	0xbe6b785c	-0.22995132
76	0xbec6ac23	-0.38803205
77	0xbd3211ac	-0.043473884
78	0xbdf46221	-0.11932779
79	0x3e5fc163	0.21851115
80	0x3c5fbce0	0.013655871
81	0x3e101f17	0.1407436
82	0x3dc96807	0.09834295
83	0xbe068ff4	-0.13140851
84	0x3e416dd0	0.18889546
85	0xbda09724	-0.07841328
86	0x3db0353e	0.08603905
87	0x3de4c8c8	0.111711085
88	0x3e9826be	0.29717058
89	0xbe49bd1c	-0.19701046
90	0xbdfddf09	-0.12396056
91	0x3e733f72	0.23754671
92	0x3e1e48c8	0.15457451
93	0xbe87cc7f	-0.26523206
94	0x3d933279	0.07187361
95	0xbd94e8c3	-0.07270958
96	0xbd9c4906	-0.076311156
97	0xbd871063	-0.065949224
98	0xbd006268	-0.031343848
99	0xbe438d3a	-0.19096842
100	0xbdfa850b	-0.12232407
101	0xbe8249fd	-0.25447074
102	0x3e1bd1b9	0.15216722
103	0x3e4f10a3	0.2022119
104	0x3d81d4fb	0.06339451
105	0xbe78581a	-0.24252358
106	0xbd00b161	-0.03141916
107	0xbe026095	-0.12732156
108	0x3e5fb4a9	0.2184626
109	0xbd673712	-0.056449004
110	0x3e0c86be	0.13723275
111	0xbd11422a	-0.03546349
112	0xbe56000a	-0.20898452
113	0xbdadad5e	-0.08480333
114	0x3e8d8048	0.27636933
115	0xbb365f22	-0.00278277
116	0x3dea34cb	0.11435851
117	0xbe07647f	-0.1322193
118	0x3df3243a	0.11872144
119	0xbe387be9	-0.18016018
120	0x3e596e69	0.21233524
121	0x3e5ff575	0.21870978
122	0x3d1fc855	0.03900941
123	0x3dfdde1e	0.12395881
124	0xbdf65cca	-0.12029417
125	0xbe674114	-0.22583419
126	0xbd41f393	-0.04735143
127	0x3dba8017	0.091064624
128	0x3d416960	0.047219634
129	0x3d7c0ca6	0.0615355
130	0xbc7f2073	-0.015571701
131	0x3df4199f	0.11918949
132	0x3e22066d	0.15822764
133	0xbe98ec6d	-0.2986788
134	0x3ebd23e4	0.36941445
135	0x3e900e32	0.2813583
136	0x3dbe4442	0.09290363
137	0xbe15eea1	-0.14641811
138	0xbc8aab4b	-0.016927382
139	0x3e18806b	0.14892738
140	0xbe25d6bb	-0.16195194
141	0x3b87161c	0.0041225087
142	0xbdd574a4	-0.10422638
143	0x3e4f9c06	0.20274362
144	0x3e86692d	0.26252118
145	0x3da2e0eb	0.07953056
146	0xbe8d188b	-0.27557787
147	0x3b83b30e	0.0040191477
148	0xbcefe7f4	-0.029285409
149	0x3e219c07	0.15782176
150	0x3eaf512d	0.3424162
151	0xbdab6c1d	-0.0837023
152	0xbbd0af61	-0.006368563
153	0x3d9e1751	0.07719291
154	0x3c668b72	0.014071332
155	0xbe094b02	-0.1340752
156	0xbde99ae7	-0.114064984
157	0x3d3e14c9	0.04640654
158	0x3e11f2b0	0.14252734
159	0x3e1e7b7c	0.15476793
160	0x3e3ae31b	0.18250696
161	0xbeeb57a4	-0.45965302
162	0xbea9496e	-0.33063835
163	0x3e222ca0	0.15837336
164	0xbe988f70	-0.29796934
165	0x3d2a0b03	0.041514408
166	0xbe84b01d	-0.25915614
167	0xbd968954	-0.07350412
168	0xbe9606c0	-0.29302025
169	0x3dc7e094	0.09759632
170	0x3d9774ef	0.0739535
171	0xbdcd8afd	-0.100362755
172	0xbe78a1f6	-0.24280533
173	0xbe016fa0	-0.12640238
174	0xbdfbbda6	-0.12292032
175	0xbde28dce	-0.11062203
176	0x3e3a173b	0.18172924
177	0xbdec9198	-0.11551207
178	0x3eac1610	0.33610582
179	0x3e0024ea	0.12514082
180	0xbe1e39a4	-0.15451676
181	0x3e21eb49	0.1581241
182	0x3e6b46a7	0.2297617
183	0xbe0271ca	-0.1273872
184	0x3dcb188d	0.09916792
185	0x3e5c75a5	0.21529253
186	0x3e88d8f0	0.2672801
187	0xbef9d283	-0.4879342
188	0xbe59f365	-0.21284254
189	0xbcf8dfb0	-0.0303801
190	0x3e2f26ef	0.17104696
191	0xbe754712	-0.23952892
192	0x3ccbd6b8	0.02488266
193	0x3d87f156	0.06637828
194	0xbc19f6bd	-0.009397206
195	0x3cfb1353	0.030648863
196	0x3e25e6e7	0.16201364
197	0x3ddf9fcf	0.10919153
198	0x3e6551c6	0.22394475
199	0x3cd7e927	0.026356293
200	0x3c4ecaac	0.012621563
201	0x3da1b0d5	0.07895056
202	0x3e86de17	0.26341316
203	0xbe821081	-0.25403216
204	0x3d9aff21	0.07568193
205	0xbdd6e21e	-0.10492347
206	0xbe8e2d98	-0.2776916
207	0x3da8088c	0.08204755
208	0x3e8c3c9a	0.27389985
209	0x3e91b98e	0.2846188
210	0xbdbce335	-0.09223024
211	0x3e7f02d4	0.24903423
212	0xbe270b04	-0.16312796
213	0x3e03e40e	0.12879965
214	0xbc845744	-0.016154893
215	0x3df7bbe3	0.120963834
216	0x3dde1b16	0.1084501
217	0xbe490cf5	-0.19633849
218	0x3e288ece	0.16460726
219	0x3c7f166a	0.015569309
220	0x3cd59ebd	0.026076669
221	0xbe04c141	-0.12964346
222	0xbdf67921	-0.12034822
223	0xbd26a55c	-0.040685043
224	0x3e588c44	0.21147257
225	0xbd17b7c9	-0.037040506
226	0xbeae82ea	-0.34084255
227	0x3e305d78	0.17223155
228	0x3e6a25e9	0.22866024
229	0xbe34064c	-0.17580527
230	0xbd985afe	-0.074392304
231	0xbdaac09e	-0.0833752
232	0x3dcb5337	0.09927981
233	0xbd940e50	-0.072292924
234	0xbe254b27	-0.1614195
235	0x3e4b96e3	0.19881777
236	0xbe1050ce	-0.14093325
237	0x3d278cfe	0.040905945
238	0xbe0bf34a	-0.13667026
239	0x3e32ea30	0.17472148
240	0xbe40b1d0	-0.1881783
241	0xbd9cfba8	-0.07665187
242	0x3dceb5a7	0.10093241
243	0x3e8bd583	0.27311334
244	0x3cc73f64	0.02432222
245	0x3da8a65b	0.08234855
246	0x3d0ae25e	0.033907287
247	0xbcae0cdb	-0.021246364
248	0x3dbca5a6	0.092112824
249	0x3d452c7d	0.04813813
250	0xbdb84123	-0.08996799
251	0xbe148a44	-0.14505869
252	0xbe20bf13	-0.15697889
253	0xbc11e741	-0.008905233
254	0x3e91d6a8	0.28484082
255	0x3e271b77	0.16319071

conv2.bias f4 [16]
0	0xbaf361f4	-0.0018568621
1	0xba290faa	-0.00064491725
2	0x3ba39de6	0.004993188
3	0x3c3406d9	0.010987961
4	0xbbdab9d2	-0.0066749835
5	0x3b9a2d24	0.004705088
6	0x3b89cea8	0.0042055435
7	0xbbbf2afb	-0.005833981
8	0xbab2d982	-0.0013645145
9	0xbaa9e098	-0.0012960611
10	0x3be0a6b7	0.0068558115
11	0x3bb8f339	0.005644229
12	0x3a185c45	0.0005812089
13	0x3b1ebd5b	0.0024221751
14	0x3bb66c56	0.005567114
15	0xbb929b13	-0.0044740527

conv2.fc_self.weight f4 [16, 16]
0	0x3dc0fee9	0.0942362
1	0x3ec0e547	0.37674925
2	0xbdb0ad45	-0.086267985
3	0x3e8f685b	0.28009304
4	0x3eadb916	0.33930272
5	0x3ef45243	0.4771901
6	0xbe470909	-0.1943704
7	0x3e7da7ee	0.24771091
8	0x3ea09bd3	0.31368884
9	0xbe34586a	-0.17611852
10	0xbea7830f	-0.32717177
11	0x3ec6fd83	0.3886529
12	0xbdfc6e22	-0.12325694
13	0xbe78edb8	-0.24309433
14	0xbea5d31e	-0.32387632
15	0x3e1727f0	0.14761329
16	0x3efb314c	0.49061048
17	0x3e8bfa2b	0.273393
18	0xbe9ddcba	-0.30832464
19	0xbe14f5d6	-0.14546904
20	0xbe93acb0	-0.28842688
21	0x3e4e560b	0.2015001
22	0x3ec0fa5c	0.3769101
23	0xbda68124	-0.081301
24	0x3ed7d815	0.42157045
25	0xbdcc06cf	-0.09962236
26	0xbe45b479	-0.19307126
27	0x3eb3acb6	0.35092705
28	0x3ef80572	0.48441654
29	0x3e5129aa	0.2042605
30	0x3e144280	0.14478493
31	0xbe9fcf88	-0.3121302
32	0x3a10937a	0.000551514
33	0x3e70808f	0.23486541
34	0xbe8c2a3c	-0.27375972
35	0x3e303f68	0.17211688
36	0x3ed25b6e	0.4108538
37	0x3ea07d6c	0.3134569
38	0x3e9a9a61	0.30195907
39	0x3e222c53	0.15837221
40	0xbdc6bb74	-0.097037226
41	0x3db2299c	0.086993426
42	0x3dbcd703	0.09220698
43	0x3e9d42b2	0.30714947
44	0x3d4f716f	0.050645288
45	0xbd82215a	-0.063540176
46	0x3e53f16a	0.20697561
47	0x3e8cffa7	0.27538797
48	0x3e877789	0.26458386
49	0xbe9a3d2e	-0.301248
50	0x3e3fc786	0.18728456
51	0xbdef0177	-0.11670201
52	0xbd737e42	-0.05944658
53	0xbe9d42f3	-0.3071514
54	0xbcf3aec4	-0.02974642
55	0xbe2ed697	-0.17074047
56	0x3e9f770f	0.31145522
57	0xbefc2e82	-0.49254233
58	0xbe3c8f99	-0.18414153
59	0x3d8627da	0.0655057
60	0xbe37561a	-0.17903939
61	0xbcae757b	-0.021296253
62	0xbd881fed	-0.06646714
63	0xbd02a583	-0.031896126
64	0x3e93d919	0.2887657
65	0x3e5e9dde	0.21739909
66	0xbdd1d382	-0.1024542
67	0x3e9f10a3	0.3106738
68	0x3f09b28c	0.53788066
69	0xbd5241bd	-0.051332224
70	0x3e5d67c5	0.21621616
71	0xbde5a94e	-0.11213933
72	0x3c96086d	0.018314565
73	0x3eb548e6	0.3540718
74	0xbc65ade4	-0.01401851
75	0xbda6ee52	-0.08150925
76	0x3ee13ecb	0.4399322
77	0x3ec14fbd	0.37756148
78	0x3e808fcf	0.25109717
79	0xbe6d0eca	-0.23150173
80	0xbee7d9d8	-0.4528339
81	0xbd8b54d1	-0.06803287
82	0xbd87acb4	-0.066247374
83	0xbd7137bd	-0.058891047
84	0x3e480f72	0.19537142
85	0x3e87c0e6	0.26514357
86	0xbd966368	-0.07343179
87	0xbec2a031	-0.3801284
88	0x3dbc1e90	0.09185517
89	0x3ec12b23	0.37728223
90	0xbe406680	-0.187891
91	0xbe710e91	-0.23540713
92	0x3d68ac0a	0.056804694
93	0x3e9eaa16	0.3098914
94	0xbe4d5887	-0.20053302
95	0xbe354031	-0.17700268
96	0x3e9afd55	0.30271402
97	0x3c7f53fc	0.015583988
98	0x3d8a4499	0.06751365
99	0xbd506046	-0.050873064
100	0xbe3a7eac	-0.18212384
101	0xbe2d5e2f	-0.1693046
102	0xbecdcb60	-0.40194225
103	0x3cbd4bee	0.023107495
104	0xbe9b6802	-0.3035279
105	0xbe1088a4	-0.14114624
106	0x3f1fd8d3	0.6244022
107	0xbe147060	-0.14495993
108	0xbe885987	-0.26630804
109	0x3e559418	0.20857275
110	0xbdefd1e3	-0.117099546
111	0xbd9ec9ef	-0.077533595
112	0xbef75f27	-0.48314783
113	0x3ccf00f6	0.025269013
114	0x3ec98ca0	0.393651
115	0x3d26823b	0.04065154
116	0xbec688ce	-0.3877625
117	0x3e8bbf25	0.2729427
118	0x3e267465	0.16255338
119	0x3c0eb848	0.008710928
120	0xbd255e71	-0.04037327
121	0xbe90572c	-0.28191507
122	0x3debff60	0.11523318
123	0x3eb66892	0.35626656
124	0xbe23a71a	-0.15981713
125	0xbdb99846	-0.09062247
126	0xbe882cab	-0.2659658
127	0xbcdb8e0c	-0.026801132
128	0xbdcab37e	-0.09897517
129	0xbd970e95	-0.07375828
130	0x3ce7b0ca	0.028282542
131	0x3dbfdc7e	0.093682274
132	0xbd4159ae	-0.047204666
133	0xbe7c4085	-0.24633987
134	0x3e2e9ce6	0.1705204
135	0x3ed91f4c	0.4240669
136	0xbbcd82ee	-0.0062717116
137	0x3cdf87ef	0.027286498
138	0xbe31f986	-0.17380342
139	0xbe9464eb	-0.28983244
140	0x3e477835	0.19479449
141	0x3d1ad684	0.037802234
142	0xbeb6724a	-0.3563407
143	0x3e63e81d	0.22256513
144	0xbe6801ae	-0.22656891
145	0x3f144651	0.57919794
146	0xbd92a044	-0.071594745
147	0xbebd0a70	-0.36922026
148	0x3e2b4fc0	0.16729641
149	0xbe255d9f	-0.16148995
150	0x3ebddae9	0.37081078
151	0x3cb13438	0.021631345
152	0x3ed029d9	0.40656927
153	0x3ee80c6f	0.45321986
154	0xbeadd22e	-0.33949417
155	0xbe644ae6	-0.22294196
156	0x3f24adc1	0.6432763
157	0x3ec38bd1	0.3819261
158	0x3e09519a	0.13410035
159	0xbe97c4c0	-0.29642296
160	0xbebcca48	-0.36873078
161	0x3edc2f48	0.43004823
162	0xbd4595f6	-0.048238717
163	0x3e3e74ca	0.18599239
164	0x3eb5c809	0.35504177
165	0xbe00860f	-0.1255114
166	0x3ec1d0c5	0.3785459
167	0xbd943e36	-0.07238428
168	0x3d939a47	0.072071604
169	0x3e32f9b6	0.1747807
170	0xbea02df8	-0.3128507
171	0xbc834bff	-0.016027449
172	0x3eb8fdc1	0.361311
173	0xbd7edf7b	-0.062224846
174	0x3ec096e4	0.3761512
175	0xbdab9497	-0.08377951
176	0x3e899099	0.26868132
177	0x3ee8187a	0.45331174
178	0xbef7b560	-0.48380566
179	0x3e0188d4	0.12649852
180	0xbde908b5	-0.11378614
181	0x3db9c968	0.09071618
182	0x3f03d144	0.5149119
183	0x3ed0525c	0.40687835
184	0xbdb8da62	-0.09026028
185	0xbe857067	-0.2606232
186	0x3daa143a	0.08304639
187	0xbe0a04c2	-0.13478377
188	0xbd7bd8b8	-0.061485976
189	0x3de90acb	0.11379012
190	0x3e3222c4	0.17396075
191	0xbd8d5674	-0.06901255
192	0x3ec6ca5e	0.3882627
193	0x3eb75989	0.35810497
194	0xbcb7a6c0	-0.02241838
195	0xbed59b8a	-0.4172023
196	0x3d43ebee	0.047832422
197	0xbdc77096	-0.09738271
198	0xbee1275e	-0.43975347
199	0xbe5413f1	-0.20710732
200	0xbea62089	-0.32446697
201	0xbd058053	-0.032593083
202	0x3e3abe73	0.18236713
203	0x3cb8a50c	0.022539638
204	0xbdf47066	-0.11935501
205	0x3df7cb62	0.12099339
206	0xbce1b72e	-0.027553167
207	0xbeb5adbc	-0.3548411
208	0x3e00f79f	0.1259446
209	0xbdd07b54	-0.10179773
210	0xbe642492	-0.22279575
211	0x3f043a28	0.5165124
212	0x3eba7838	0.36419845
213	0x3e41b4b4	0.18916589
214	0xbed76cc7	-0.42075178
215	0xbdad4180	-0.08459759
216	0x3dc1de9e	0.09466289
217	0x3ed5f130	0.41785574
218	0x3e788980	0.24271202
219	0x3e8443e4	0.25833046
220	0xbc8883c3	-0.016664391
221	0x3e2353f0	0.15949988
222	0x3e6828f5	0.22671874
223	0xbdec13ed	-0.11527238
224	0xbe3b0222	-0.18262532
225	0x3e965ef7	0.29369327
226	0x3f00937f	0.5022506
227	0xbe02978e	-0.12753126
228	0x3dd6c80f	0.10487377
229	0x3c784783	0.0151537685
230	0xbe210f44	-0.1572848
231	0x3cd0cba5	0.02548773
232	0xbe061359	-0.13093318
233	0x3e3156a4	0.17318207
234	0xbddcb4fa	-0.10776706
235	0xbeb41031	-0.35168603
236	0xbef53b74	-0.47896922
237	0x3b362186	0.0027790978
238	0x3e30db94	0.17271262
239	0xbe28ae0c	-0.16472644
240	0xbd877b9e	-0.06615375
241	0x3eee19d9	0.46504095
242	0x3de2a037	0.11065715
243	0x3e4ad34e	0.19807169
244	0xbd8852d8	-0.06656426
245	0x3eadcb92	0.33944374
246	0x3eb35e3e	0.3503284
247	0xbe98eee4	-0.2986976
248	0x3dd21ef9	0.10259814
249	0x3d9ce9e5	0.07661799
250	0x3e1d7c06	0.15379342
251	0x3e984cb8	0.29746032
252	0xbf21a8f7	-0.63148445
253	0xbe88aa2f	-0.2669234
254	0xbebf383f	-0.373476
255	0x3e914448	0.28372407

conv2.fc_neigh.weight f4 [16, 16]
0	0xbd5ef8fd	-0.054436672
1	0x3e0f6f8c	0.14007396
2	0xbd55d632	-0.052206226
3	0xbe33a40b	-0.17543046
4	0x3d96571c	0.073408335
5	0x3f3bd9cd	0.7337921
6	0xbdfba15b	-0.122866355
7	0x3de85d9c	0.113459796
8	0x3e88b508	0.26700616
9	0xbee2a916	-0.44269627
10	0x3d5785fc	0.05261801
11	0xbd083c54	-0.03326066
12	0x3bd06c58	0.006360572
13	0x3e8c6f43	0.27428636
14	0xbf210305	-0.6289523
15	0xbcf91e76	-0.030410033
16	0x3f35cc1e	0.71014583
17	0xbdbdbbd9	-0.09264345
18	0x3e943933	0.2894989
19	0xbeb6e072	-0.35718113
20	0xbf00cef1	-0.5031577
21	0xbe481d34	-0.1954239
22	0xbe4f637f	-0.20252798
23	0x3e4e394c	0.20139045
24	0x3efb02f8	0.49025702
25	0xbf21e152	-0.63234437
26	0xbde9340b	-0.113868795
27	0x3d69872a	0.057013668
28	0xbe9d3792	-0.3070646
29	0x3ed935b9	0.424238
30	0x3e8ea8bc	0.2786311
31	0xbf217891	-0.63074595
32	0x3eade6a0	0.33965015
33	0xbe71d3cb	-0.23615949
34	0x3e2ae67c	0.16689485
35	0x3d836070	0.06414878
36	0x3c1a67f2	0.009424197
37	0x3f066f3c	0.5251348
38	0x3e913509	0.28360775
39	0xbeeea27c	-0.4660834
40	0x3e9d2340	0.30690956
41	0xbf364bad	-0.7120922
42	0xbf05cba3	-0.5226385
43	0xbeb38108	-0.3505938
44	0x3f58697b	0.8453595
45	0xbddc3d51	-0.10753883
46	0x3f180e97	0.5939726
47	0x3ed5c326	0.4175045
48	0xbed47120	-0.41492558
49	0xbec2401c	-0.37939537
50	0x3e93a507	0.28836843
51	0xbc3448cf	-0.011003687
52	0x3f2a8fab	0.6662547
53	0xbe43f245	-0.19135387
54	0xbe9796da	-0.29607278
55	0xbdda6830	-0.106644034
56	0x3f342975	0.7037576
57	0xbe01d6ef	-0.12679647
58	0xbede41eb	-0.43409666
59	0x3e21b156	0.15790305
60	0xbf08c202	-0.5342103
61	0x3e0dfb13	0.13865308
62	0x3e7958fb	0.2435035
63	0xbcb51a51	-0.022107275
64	0x3e786963	0.24258952
65	0x3c6b5516	0.014363548
66	0x3f2e2692	0.68027604
67	0x3e345706	0.17611322
68	0x3f015a8c	0.5052879
69	0x3ed0ec7e	0.4080543
70	0x3f5b6e07	0.85714763
71	0x3d912b1c	0.070883006
72	0x3e7b3ee3	0.24535708
73	0xbe75565c	-0.23958725
74	0x3d7a0695	0.061041433
75	0xbd720a76	-0.059092008
76	0x3da01048	0.078156054
77	0xbdcf2114	-0.10113731
78	0xbd304d42	-0.04304243
79	0xbef2213d	-0.47290984
80	0x3ebbabdb	0.36654553
81	0xbe640f80	-0.22271538
82	0xbec230f8	-0.37927985
83	0xbe4061fd	-0.1878738
84	0x3c427fe0	0.011871308
85	0x3e84fcbf	0.2597408
86	0xbe9471e7	-0.2899315
87	0xbd6f363c	-0.05840133
88	0xbede00e6	-0.4336006
89	0x3eb193f9	0.34683207
90	0xbf13f8c5	-0.5780147
91	0xbe9dc2f7	-0.3081281
92	0x3ed8bca5	0.42331424
93	0x3f2d2bc1	0.6764489
94	0x3e3cb1a7	0.18427144
95	0xbef80b1e	-0.48445982
96	0x3c919efd	0.017776007
97	0xbe0347a2	-0.12820294
98	0x3eb9ac3d	0.3626422
99	0xbe5c42e0	-0.21509886
100	0x3ed3019a	0.4121216
101	0x3e66e270	0.22547317
102	0x3e1300fd	0.14355846
103	0x3e94d47d	0.29068366
104	0x3d937a0c	0.07201013
105	0x3da721cc	0.08160743
106	0x3f0355e9	0.51302963
107	0xbe4c9b69	-0.1998116
108	0xbe2c11e3	-0.16803698
109	0xbef040c8	-0.46924424
110	0x3e3c5292	0.18390873
111	0xbc213195	-0.009838481
112	0xbedb49bb	-0.4282969
113	0xbea24bfd	-0.316986
114	0x3ea02547	0.3127844
115	0xbe060009	-0.13085951
116	0x3d94fac9	0.07274396
117	0x3e177388	0.14790165
118	0xbed8b96d	-0.4232897
119	0x3f2fb545	0.6863597
120	0xbf30b585	-0.69026977
121	0x3b1cd8ab	0.0023932855
122	0xbe85861d	-0.26078883
123	0x3ebf41ec	0.37354982
124	0xbe333ab9	-0.1750287
125	0x3f18e51a	0.5972458
126	0x3f181800	0.5941162
127	0xbe21aa01	-0.15787508
128	0xbd40f512	-0.047108717
129	0x3ea15e15	0.3151709
130	0x3ddcab48	0.10774857
131	0x3e1cfd8b	0.15331094
132	0xbcc2979f	-0.02375394
133	0xbea5d267	-0.32387087
134	0x3c6ed1de	0.014576403
135	0x3f16f9b9	0.58974797
136	0xbf1a6bba	-0.6032063
137	0x3e37d6a1	0.17952968
138	0xbe8032c5	-0.25038734
139	0xbe1f5e62	-0.15563348
140	0x3e1d10cc	0.15338439
141	0x3ee6d805	0.45086685
142	0xbf067236	-0.5251802
143	0x3f2d2efe	0.6764983
144	0x3e940367	0.28908846
145	0xbe0c4995	-0.13699944
146	0x3ea0b0a1	0.31384757
147	0xbf1e5534	-0.6184876
148	0xbddebf0e	-0.108762845
149	0xbf49e0b7	-0.7885851
150	0xbebf1a8b	-0.37324938
151	0x3eea533b	0.45766625
152	0x3ef8b301	0.4857407
153	0xbe696a0a	-0.22794357
154	0x3da61817	0.081100635
155	0x3c6322d3	0.013863283
156	0x3ec8531f	0.39125916
157	0xbd09a505	-0.03360464
158	0x3d3b9e2b	0.045805138
159	0xbeaa311a	-0.33240587
160	0x3d80898e	0.062762365
161	0x3f0d9064	0.5529845
162	0xbe0d2cfa	-0.13786688
163	0x3ed0071e	0.4063043
164	0xbed393eb	-0.4132379
165	0xbda66bbc	-0.081260175
166	0xbf0ef36f	-0.558402
167	0xbedb1406	-0.42788714
168	0x3f4410b0	0.76587963
169	0xbe660800	-0.2246399
170	0x3d02deff	0.031950947
171	0x3f011927	0.50429004
172	0x3e92339d	0.28555003
173	0xbdc85652	-0.09782089
174	0x3e6cbe65	0.23119505
175	0xbeee039a	-0.46487123
176	0xbd25fdbe	-0.04052519
177	0x3e510f36	0.20415959
178	0xbef89959	-0.48554495
179	0x3e7e8f37	0.2485932
180	0x3ec4121e	0.38295072
181	0xbe25fd98	-0.1621002
182	0xbe2fab30	-0.17155147
183	0x3e904537	0.28177807
184	0x3e490b96	0.19633326
185	0xbedccc83	-0.4312478
186	0x3e39dfb2	0.18151739
187	0xbf2406c9	-0.64072853
188	0xbf05dfc1	-0.52294546
189	0x3e9a7ce5	0.30173412
190	0x3ecda06c	0.40161455
191	0xbe220219	-0.15821113
192	0x3f15daf2	0.5853721
193	0x3e5b337f	0.21406363
194	0xbe690a0c	-0.22757739
195	0xbd86b1eb	-0.06576904
196	0x3f2576df	0.6463451
197	0xbf0d69c8	-0.55239534
198	0x3e44639e	0.19178626
199	0x3f46ba99	0.77628475
200	0xbf0db8d6	-0.5536016
201	0xbd85b6a7	-0.06528979
202	0xbeacc514	-0.3374411
203	0x3e9bba8f	0.3041577
204	0xbe020eef	-0.12701009
205	0xbee6eb06	-0.45101184
206	0x3ee07c31	0.4384475
207	0xbf0b9957	-0.54530853
208	0x3ef61076	0.48059434
209	0xbe1c08c6	-0.15237722
210	0xbe0cac6a	-0.13737646
211	0x3f33ec29	0.70282227
212	0xbd9a1fc0	-0.07525587
213	0x3e9b5024	0.3033458
214	0xbec4514a	-0.3834327
215	0x3dfe5dcc	0.12420234
216	0x3dd98819	0.10621662
217	0x3db87d7d	0.0900831
218	0x3ee75927	0.45185205
219	0xbe18bb86	-0.14915285
220	0x3e145baf	0.144881
221	0x3cecbc04	0.028898247
222	0xbd95943c	-0.07303664
223	0xbc940899	-0.018070506
224	0x3e82c4aa	0.25540668
225	0x3d004b40	0.031321764
226	0x3ee3cd63	0.44492635
227	0xbe03defa	-0.12878028
228	0xbe6cef37	-0.23138128
229	0xbe1530c8	-0.1456939
230	0xbed63d34	-0.4184357
231	0x3ece5a06	0.40303057
232	0x3ea91c32	0.33029324
233	0x3ec038a6	0.3754322
234	0xbea99466	-0.33121032
235	0xbf12cd50	-0.5734453
236	0xbeb07c91	-0.34470037
237	0xbe363ce9	-0.17796673
238	0x3f199b84	0.60002923
239	0xbec43df7	-0.38328525
240	0x3e2f3370	0.17109466
241	0x3eaa4150	0.33252954
242	0x3ebcf17e	0.36902994
243	0x3ec7addb	0.3899983
244	0x3d65e781	0.056128982
245	0x3ed609ae	0.4180426
246	0xbd8350b0	-0.06411874
247	0xbf23297d	-0.6373518
248	0xbea0a04a	-0.3137229
249	0x3d6cbd5a	0.057797767
250	0xbe95fc21	-0.29293922
251	0xbc8699d3	-0.016430771
252	0xbeb01eab	-0.34398398
253	0xbebb644e	-0.36599964
254	0xbeaed563	-0.34147176
255	0x3f388749	0.7208143

conv3.bias f4 [16]
0	0xbba592f5	-0.005052919
1	0xb979b719	-0.000238147
2	0xbc49e7c5	-0.012323325
3	0xbae5555c	-0.0017496753
4	0x3a91dd9e	0.0011128669
5	0xba75e5c0	-0.0009380244
6	0xbc7a4f95	-0.015277763
7	0x3ba8bb59	0.0051492867
8	0xbc837bee	-0.016050305
9	0x3b830730	0.0039986596
10	0x3c72cf12	0.014819877
11	0xbc3377b5	-0.010953833
12	0xbc11c18a	-0.008896241
13	0x3c2a2af0	0.010386214
14	0x39dce03f	0.00042128746
15	0xbb66cd16	-0.0035217456

conv3.fc_self.weight f4 [16, 16]
0	0xbd71c84e	-0.059028916
1	0x3e963e6a	0.29344493
2	0xbf18b766	-0.59654844
3	0xbe9abeb7	-0.3022363
4	0x3ddf69ca	0.109088495
5	0x3e4e8146	0.20166501
6	0xbe8d9727	-0.27654383
7	0xbe9ea1a1	-0.30982688
8	0x3e086acc	0.1332199
9	0xbe44dc26	-0.19224605
10	0x3e8dcf0c	0.27697027
11	0x3e3a6543	0.18202691
12	0x3e77c8a9	0.2419764
13	0xbe864bfe	-0.26229852
14	0xbe863da2	-0.26218897
15	0x3edbcef8	0.42931342
16	0x3e26974e	0.16268656
17	0x3f0dfb2a	0.5546137
18	0x3de7a07a	0.11309905
19	0xbeb552dd	-0.35414782
20	0xbedae768	-0.42754674
21	0xbebac23f	-0.36476323
22	0x3ee37909	0.4442828
23	0x3e26e492	0.1629813
24	0x3e9481cb	0.29005274
25	0xbe322f3e	-0.17400834
26	0x3ef31c1e	0.4748239
27	0xbef03da8	-0.4692204
28	0xbdbd0e0c	-0.09231195
29	0x3de2ec9c	0.11080286
30	0x3e819645	0.2530996
31	0xbc266a6e	-0.010157211
32	0xbea20d3a	-0.31650716
33	0xbe6a645e	-0.2288985
34	0xbd8dda45	-0.06926397
35	0x3e966772	0.29375798
36	0x3d827172	0.06369294
37	0x3e9f62d1	0.31130078
38	0xbe058507	-0.13039027
39	0x3cad3035	0.021141151
40	0x3d832077	0.064026766
41	0xbe1bab05	-0.15201958
42	0x3e87c6b6	0.26518792
43	0xbd50bdd9	-0.050962303
44	0x3ed60412	0.4179998
45	0x3e5626b3	0.209132
46	0xbeb87843	-0.36029252
47	0x3e16573a	0.14681712
48	0xbd7aec90	-0.06126076
49	0x3ea4b6ef	0.32170817
50	0x3e9c5d7b	0.3054007
51	0x3e04d4ac	0.12971753
52	0x3dd3f8bc	0.10350177
53	0x3e1da125	0.15393503
54	0x3cc0ffb1	0.023559423
55	0xbe1ce814	-0.15322906
56	0x3f106d50	0.564168
57	0xbeafe53c	-0.3435458
58	0x3ec07a89	0.37593487
59	0xbde0dbc1	-0.10979415
60	0x3eb8e04c	0.36108625
61	0x3ead3829	0.3383191
62	0x3e9503ff	0.2910461
63	0x3ec94ff2	0.39318806
64	0xbdf0317e	-0.1172819
65	0x3e9ddb62	0.30831438
66	0xbe8d4397	-0.2759063
67	0x3ea7b6e4	0.32756722
68	0x3eb1d60c	0.34733617
69	0xbe26dafb	-0.16294472
70	0xbe9f4f88	-0.31115365
71	0x3df8afd3	0.12142911
72	0x3e7d4604	0.2473374
73	0x3cf36a81	0.029713871
74	0xbea6d6d8	-0.32585788
75	0xbda5ee12	-0.08102049
76	0x3d2908f0	0.04126829
77	0x3eaf63c0	0.3425579
78	0xbe8441ba	-0.25831395
79	0x3eac2c1e	0.3362741
80	0x3eb1b34f	0.34707114
81	0x3e67cab0	0.22635913
82	0xbdbe2920	-0.09285188
83	0xbec5e919	-0.38654402
84	0xbe896807	-0.2683718
85	0x3eb90f39	0.36144426
86	0x3ed40641	0.4141102
87	0xbe482b3d	-0.19547744
88	0x3eec8f2d	0.46202984
89	0x3e343038	0.17596519
90	0x3d238ff2	0.0399322
91	0x3e43517a	0.1907405
92	0xbe8061f7	-0.2507474
93	0xbe221e7b	-0.1583194
94	0x3e7739c2	0.24143127
95	0xbdf2ad0b	-0.118494116
96	0x3e4f24f5	0.20228942
97	0xbe22942c	-0.15876836
98	0xbc598596	-0.013276478
99	0xbd58d7b4	-0.052940086
100	0x3e14e743	0.14541344
101	0xbe2d55fe	-0.16927335
102	0x3e07e2ed	0.13270159
103	0x3e905b7c	0.28194797
104	0xbe8a7e81	-0.2704964
105	0x3d14d6a7	0.03633752
106	0x3dc88177	0.097903185
107	0xbdd6a6ea	-0.10481055
108	0x3c852ca2	0.016256634
109	0x3ccd3b1a	0.025052596
110	0xbe1745ee	-0.1477277
111	0xbec270c9	-0.37976673
112	0xbecc1aaa	-0.39864093
113	0xbe115659	-0.14193095
114	0x3f08598e	0.5326165
115	0x3e55de46	0.20885572
116	0xbecd052b	-0.40043005
117	0x3d2bfbff	0.04198837
118	0xbecbd945	-0.398142
119	0x3e98e13a	0.29859334
120	0xbe9ab8d6	-0.30219144
121	0x3ec95323	0.3932124
122	0xbf14695f	-0.57973284
123	0x3e3e3185	0.18573578
124	0x3da46fe3	0.08029153
125	0xbc114eeb	-0.008868913
126	0xbe76dc37	-0.24107443
127	0xbe0a2ed4	-0.13494426
128	0x3df963aa	0.121772125
129	0xbebe6f86	-0.3719446
130	0xbeca06b6	-0.39458245
131	0xbe965827	-0.2936413
132	0x3e6ab429	0.22920288
133	0xbeecaccb	-0.4622558
134	0x3e0ca426	0.13734493
135	0xbe177e67	-0.14794312
136	0xbea60ddb	-0.32432446
137	0x3e9e0d32	0.30869442
138	0xbd5a5d4d	-0.053311635
139	0x3eb54c69	0.3540986
140	0xbebd1385	-0.36928955
141	0xbdfff778	-0.12498373
142	0x3aa08e91	0.0012249519
143	0x3ea5c2d1	0.32375196
144	0x3e22dfcf	0.15905689
145	0xbf09fd87	-0.5390248
146	0x3ed0e203	0.40797433
147	0xbdb8f4bb	-0.09031054
148	0x3e6670c4	0.22503954
149	0xbf0a2bdb	-0.5397317
150	0xbed0ee67	-0.40806887
151	0x3ef89b6a	0.48556072
152	0x3badb651	0.005301275
153	0x3e1614d0	0.14656377
154	0xbe70132f	-0.23444818
155	0x3bf2501b	0.007394803
156	0x3f137cf4	0.5761254
157	0xbc7c32c4	-0.015392963
158	0xbcc4ebc1	-0.024038197
159	0xbe88b212	-0.26698357
160	0x3e20d1b5	0.15704997
161	0xbd6ec100	-0.058289528
162	0x3d969e19	0.073543735
163	0x3f0282ec	0.5098102
164	0xbe0c0955	-0.13675435
165	0xbdb3c69e	-0.087781176
166	0xbeba3a4d	-0.36372605
167	0xbec3512e	-0.38147873
168	0x3e8183ba	0.25295812
169	0x3d93f3d3	0.0722424
170	0xbe2cafe8	-0.16863978
171	0x3dad25f1	0.084545024
172	0x3c3dd202	0.011585714
173	0x3e7656e9	0.24056591
174	0x3ef88d93	0.48545513
175	0xbd8a68c1	-0.067582615
176	0x3e4be271	0.199106
177	0xbede4461	-0.43411544
178	0x3d2b8e6b	0.041883867
179	0x3e468485	0.1938649
180	0x3cba9f31	0.022780987
181	0xbe18e3b1	-0.14930607
182	0x3ca3528a	0.019936819
183	0x3ee0f6e0	0.4393835
184	0xbd1648fd	-0.0366907
185	0x3e5d9c95	0.21641763
186	0xbe0c3ce0	-0.13695097
187	0x3d328d83	0.043591987
188	0xbe70bddf	-0.2350993
189	0x3e8590c1	0.26087
190	0x3dd01c86	0.101616904
191	0xbeccf8f0	-0.40033674
192	0xbd2c9c5d	-0.042141307
193	0x3e732f16	0.2374843
194	0xbdea9f81	-0.11456204
195	0x3ebab849	0.36468723
196	0xbe6cb896	-0.23117289
197	0x3d864946	0.065569445
198	0x3c24df8c	0.010063063
199	0x3e997ac6	0.2997648
200	0xbee35ecb	-0.4440826
201	0x3d855ba6	0.06511621
202	0xbe915c0f	-0.28390548
203	0xbc1d921c	-0.009617355
204	0xbed84979	-0.42243555
205	0x3ecd3603	0.4008027
206	0xbdb75695	-0.08952061
207	0xbe283efa	-0.16430274
208	0xbd2e6f10	-0.042586386
209	0xbd8f018b	-0.06982716
210	0x3e9f2c0c	0.31088293
211	0x3e6994e9	0.22810711
212	0x3e7d6a61	0.24747612
213	0xbcb56077	-0.022140725
214	0xbe3d1b53	-0.18467455
215	0xbe413214	-0.1886676
216	0x3ea5d1b3	0.3238655
217	0x3da86f79	0.08224387
218	0xbe3c971b	-0.18417017
219	0x3e0e3f1f	0.13891266
220	0xbe36b50e	-0.17842504
221	0xbe63b828	-0.22238219
222	0x3e110459	0.14161815
223	0x3d454e3b	0.04817031
224	0xbd9081c7	-0.07056003
225	0xbef320df	-0.47486016
226	0xbe901e4f	-0.28148124
227	0x3d05e200	0.032686234
228	0x3ef36692	0.47539192
229	0x3e316b56	0.17326102
230	0xbe870e98	-0.26378322
231	0x3ea6e713	0.3259817
232	0x3ee362e8	0.44411397
233	0xbe9ebf45	-0.31005302
234	0x3ee8f2bc	0.45497692
235	0x3f3fe780	0.74962616
236	0x3d14da30	0.036340892
237	0xbe7fd5e6	-0.2498394
238	0x3e7e2535	0.24818881
239	0x3de3021f	0.11084389
240	0x3ebae8ef	0.3650584
241	0xbe7b2f48	-0.24529755
242	0xbe8e3876	-0.2777745
243	0x3e019b3c	0.12656873
244	0xbe71eaf7	-0.23624788
245	0x3e45a42b	0.19300906
246	0xbda5ee2f	-0.081020705
247	0xbeaee226	-0.34156913
248	0xbec786ea	-0.3897012
249	0xbd55d0ab	-0.052200954
250	0x3d7868a1	0.060646657
251	0xbe801aa1	-0.25020316
252	0x3d91e835	0.07124368
253	0xbd06bebf	-0.032896753
254	0xbed5a086	-0.41724032
255	0xbdb44d91	-0.08803857

conv3.fc_neigh.weight f4 [16, 16]
0	0xbecec800	-0.40386963
1	0xbea80b32	-0.3282104
2	0xbe7f6fdf	-0.24945019
3	0xbe456286	-0.19275865
4	0x3e13b113	0.14423017
5	0xbeb0b913	-0.345162
6	0xbf1a73d9	-0.6033302
7	0x3ed8ca7c	0.42341983
8	0xbe217e7f	-0.1577091
9	0x3ecd2f89	0.4007533
10	0x3e8eb64b	0.27873453
11	0xbd782129	-0.0605785
12	0x3cf4c921	0.029881062
13	0xbc628e74	-0.013827909
14	0xbf141271	-0.5784064
15	0xbf1d68b4	-0.6148789
16	0x3e4a9013	0.19781522
17	0x3e9b2354	0.3030039
18	0x3eac7318	0.3368156
19	0x3e86c9de	0.26325887
20	0xbee1bf20	-0.4409113
21	0x3ede69a6	0.43439978
22	0xbd576db3	-0.05259485
23	0xbeb78c2c	-0.3584913
24	0x3eef794d	0.46772233
25	0xbe613297	-0.21991955
26	0x3ef7f89d	0.48431864
27	0x3e742050	0.23840451
28	0x3e264890	0.16238618
29	0x3f081ed8	0.53172064
30	0x3e2a1ad5	0.16611798
31	0xbecb1e44	-0.39671528
32	0xbf2bf72a	-0.6717402
33	0x3e7517c0	0.23934841
34	0xbe9d74b9	-0.30753115
35	0x3ed6c201	0.41944888
36	0xbe8a90b0	-0.27063513
37	0x3ec912e4	0.39272225
38	0x3ed1d832	0.40985256
39	0xbe68c9f6	-0.22733292
40	0x3e90f7ed	0.28314152
41	0xbe2860b9	-0.16443147
42	0xbda02019	-0.07818622
43	0xbe9cdcc4	-0.3063718
44	0xbd621ff0	-0.05520624
45	0x3f26e7ab	0.6519725
46	0x3ecded5b	0.4022015
47	0x3da33de5	0.0797079
48	0xbf22bceb	-0.63569516
49	0xbe9f8ed9	-0.31163672
50	0x3ef999e6	0.48750228
51	0xbeec9bd9	-0.46212652
52	0xbe7f88ea	-0.24954572
53	0x3dfd6434	0.12372628
54	0x3b05dd4e	0.0020426097
55	0x3ed5ea5f	0.41780373
56	0x3c1673af	0.009182855
57	0xbe05193c	-0.12997907
58	0x3efdf1f7	0.49598667
59	0xbe00286c	-0.1251542
60	0x3d3c4767	0.045966532
61	0x3f01703d	0.5056189
62	0xbe8925be	-0.26786608
63	0x3d896195	0.067080654
64	0xbdae4552	-0.085093156
65	0x3efac8c3	0.48981294
66	0xbe803be9	-0.25045708
67	0xbd4bdb5d	-0.049769748
68	0x3f076714	0.5289166
69	0xbea56b3e	-0.32308382
70	0xbd221257	-0.03956827
71	0x3eb358ac	0.3502859
72	0x3f2d9fb1	0.67821795
73	0xbde09e4f	-0.10967695
74	0xbec51b83	-0.38497552
75	0x3df0e079	0.11761565
76	0x3d4efd7b	0.050534707
77	0x3f05ca7d	0.522621
78	0xbf1787ea	-0.59191763
79	0x3df80154	0.12109628
80	0x3eb24458	0.34817767
81	0xbed9d5b4	-0.42545855
82	0xbe3766ff	-0.17910384
83	0xbbca2654	-0.00616912
84	0xbc8ec84b	-0.017429492
85	0x3ee64613	0.44975337
86	0x3dd6d09c	0.10489008
87	0x3eb11f28	0.34594083
88	0x3d671c72	0.056423612
89	0x3e6b29ed	0.22965212
90	0x3e868c2c	0.26278818
91	0x3f13cd77	0.5773539
92	0xbd421e1a	-0.04739199
93	0x3f04f35b	0.5193383
94	0x3d81fd64	0.063471586
95	0xbda064d7	-0.07831734
96	0x3e381704	0.1797753
97	0xbe9d8c59	-0.3077114
98	0x3df34d3e	0.11879967
99	0x3eb6e0da	0.35718423
100	0x3efe2c73	0.49643287
101	0xbd6d3d90	-0.05792004
102	0xbeac17dd	-0.33611956
103	0xbc12d9b1	-0.0089630345
104	0xbf2bcc63	-0.67108744
105	0xbe7a46ff	-0.24441145
106	0x3e5742ef	0.21021627
107	0x3e05ba57	0.13059364
108	0x3ed2d66f	0.41179225
109	0x3d9a18a0	0.07524228
110	0xbefb9bf2	-0.49142414
111	0xbeaf6787	-0.34258673
112	0xbe2b7ed6	-0.16747603
113	0x3e6074b9	0.21919526
114	0x3d69c5c9	0.05707339
115	0xbea5a585	-0.32352844
116	0xbf3a46e3	-0.72764415
117	0xbd294528	-0.04132572
118	0xbea87473	-0.32901344
119	0x3ea38826	0.3193981
120	0x3c00a9af	0.007852956
121	0xbeaf38bf	-0.3422298
122	0xbb590095	-0.003311192
123	0x3ecc603e	0.39917177
124	0x3eebc9b3	0.46052322
125	0x3d9928c9	0.07478482
126	0xbec18ec6	-0.3780424
127	0x3eee75ef	0.4657435
128	0xbedd766b	-0.43254408
129	0x3a91a918	0.0011113016
130	0x3d523b58	0.051326126
131	0xbeed2a84	-0.463215
132	0xbe3f75b5	-0.18697245
133	0xbeaae497	-0.33377525
134	0x3ef1d25d	0.47230807
135	0xbeb6439c	-0.35598457
136	0xbe35bb60	-0.17747259
137	0xbd62c986	-0.05536797
138	0x3d891f7a	0.06695457
139	0x3ef7e509	0.48416927
140	0xbed44e9d	-0.41466227
141	0x3e3cfb3b	0.18455212
142	0xbe42941a	-0.19001809
143	0xbee3bc86	-0.4447977
144	0x3ed5ba1c	0.41743553
145	0xbeb02c7d	-0.34408942
146	0xbd082c41	-0.03324533
147	0x3e3e273a	0.18569651
148	0xbf019e93	-0.5063259
149	0x3ecb0d31	0.39658502
150	0x3eee396a	0.46528178
151	0xbea3eaaa	-0.32014972
152	0x3e206ebf	0.15667246
153	0x3e656000	0.22399902
154	0xbe6e8532	-0.23292997
155	0x3eb0445c	0.34427154
156	0x3f31d56b	0.69466275
157	0x3ea2624a	0.31715614
158	0x3e13870c	0.14406985
159	0xbdea2c0e	-0.11434184
160	0x3eac12ba	0.33608037
161	0xbe0def88	-0.13860905
162	0xbdadd540	-0.0848794
163	0x3f08be6e	0.5341557
164	0xbefe79e3	-0.49702367
165	0xbf028331	-0.5098143
166	0x3e2194fe	0.15779492
167	0x3d819a00	0.06328201
168	0x3ea7a12b	0.3274015
169	0x3ec2caed	0.38045445
170	0x3f672901	0.9029694
171	0xbe6921aa	-0.22766748
172	0x3e880baf	0.26571414
173	0x3eefa901	0.46808627
174	0xbef9c7ac	-0.4878515
175	0x3e85bed6	0.2612216
176	0xbe8b9e24	-0.2726909
177	0xbea3dc5d	-0.3200406
178	0x3d7c9fe4	0.06167592
179	0x3e33d923	0.175633
180	0xbdde28c5	-0.1084762
181	0xbe601c70	-0.21885848
182	0x3e2c7436	0.16841206
183	0x3f3125d6	0.6919836
184	0xbd37967a	-0.04482124
185	0xbc59f352	-0.013302641
186	0x3e36d719	0.1785549
187	0xbeaae6ed	-0.33379307
188	0xbf1e45e6	-0.61825407
189	0x3e4efc41	0.20213415
190	0xbe991572	-0.29899174
191	0xbf06c268	-0.5264039
192	0xbe2c8b15	-0.1684993
193	0x3e790b47	0.24320708
194	0xbf04b900	-0.5184479
195	0x3c84418c	0.016144536
196	0xbe2b58db	-0.16733114
197	0xbacef791	-0.0015790333
198	0xbea011ce	-0.31263584
199	0xbe8d369c	-0.27580726
200	0xbe3c4590	-0.18385911
201	0xbe75605b	-0.23962538
202	0xbd66764c	-0.05626516
203	0x3f3564e9	0.708571
204	0x3d85d503	0.065347694
205	0x3d25c06a	0.040466703
206	0x3e3743f9	0.17897023
207	0x3e1af5d3	0.15132837
208	0xbef62293	-0.48073253
209	0xbe8bffc0	-0.2734356
210	0x3ec914b0	0.39273596
211	0x3f155ac8	0.58341646
212	0x3d145121	0.036210183
213	0x3ec9409d	0.3930711
214	0xbe82c73d	-0.25542632
215	0xbee471e3	-0.4461814
216	0xbe84c8b0	-0.25934362
217	0x3db2cb6c	0.08730206
218	0xbefed45e	-0.49771398
219	0x3f16679c	0.58751845
220	0xbf00f490	-0.5037317
221	0x3ea4093c	0.32038295
222	0xbe96ade7	-0.29429552
223	0xbee88a99	-0.45418242
224	0x3d094d4b	0.033520978
225	0xbcd1dd18	-0.025618121
226	0xbed9bf71	-0.4252887
227	0x3e5f42a7	0.2180277
228	0x3db61fd1	0.08892787
229	0xbc64719e	-0.013943104
230	0xbe886425	-0.26638904
231	0x3e873e0c	0.26414526
232	0xbeb1a043	-0.34692582
233	0xbe22e84f	-0.15908931
234	0x3edc8cd5	0.43076196
235	0x3ea38f2a	0.31945163
236	0xbe87fb66	-0.2655899
237	0xbecb523d	-0.3971118
238	0xbe3ec52f	-0.18629907
239	0x3ed90373	0.42385444
240	0x3eb9690c	0.36212957
241	0xbe98f40b	-0.2987369
242	0xbec32ea5	-0.38121524
243	0xbb78efb2	-0.0037984666
244	0xbe8c3a43	-0.273882
245	0x3eeb41f1	0.45948747
246	0xbdc98f94	-0.098418385
247	0xbf0b77e4	-0.54479814
248	0xbd522b4d	-0.051310826
249	0xbec700b3	-0.3886772
250	0xbdded774	-0.10880938
251	0xbd676fb2	-0.056503005
252	0xbd932f36	-0.07186739
253	0xbdca3366	-0.09873085
254	0xbe945975	-0.289745
255	0xbe2697e6	-0.16268882
