model.pth (torch, 29387 bytes, 9 tensors)

conv1.bias f4 [16]
00000000: 2507 163b 7812 f43b e1b1 cf3c 3bd1 223c
00000010: 31df 153b 7cef c93b 2828 22bc 4b24 4c3c
00000020: d369 453c 6841 0fbc 3b2d f5b9 0a9a 0b3c
00000030: 6087 63b8 8af4 a6bc 2d1b a5bb 9735 153b
0.0022892442 0.0074484907 0.025353374 0.00993758 0.0022868628 0.006162582 -0.009897269 0.012459825
0.012049156 -0.008743621 -0.0004676374 0.0085206125 -5.4247095e-05 -0.020380277 -0.00503864 0.0022767538

conv1.fc_self.weight f4 [16, 174]
00000000: c8b0 00be 6b0a edbd 1718 32be b312 9c3c
00000010: 89fc fe3d 909f 31bd 49c3 853d 6c2c 853d
00000020: 0220 723e b082 53be 763a 943e 2802 5abd
00000030: e85a 79bd 658f 513e 58e7 31bb 7f04 a7be
00000040: f6a1 e6bb 2f64 d2bc 4341 003d c005 4f3d
00000050: feb1 9b3d d004 0dbe 6aaf 03bc 0cbb 303d
00000060: f0be 353d ad32 a7bd 78d0 7e3d 5908 fa3d
00000070: 63b0 643e 40df 30be dea9 153e fc4c 0bbd
00000080: 2923 80be 59b6 7dbd 142d 4ebd 464e f3bd
00000090: 2cfb 92bd 96dc 08bd 8fcb ac3c 79fb a9bd
000000a0: 850d 503e a3b8 333e a8dc a7bd 46fd e13c
000000b0: c11e 0fbe ae30 a23c 4ee0 25bc c2cf 65bd
000000c0: d2f3 f33c a5de 4e3e df0a 243e 0c61 73be
000000d0: 0074 20be 8a54 08be 3c13 233e 084b eebc
000000e0: 7110 bebb d8e7 bb3d 75cd 2e3e e2ee 0b3e
000000f0: b452 133e 255b 4b3e 46ee 06be d10e df3c
00000100: c636 c7bd 5f45 03bf 2d36 80be 197a 603e
00000110: 7780 07bf ade8 323d 8470 4f3d c466 153e
00000120: 3a52 1dbd 03ab 403c 2403 783d cc4e 7b3d
00000130: 9875 af3c 3a99 81be 333f 03be 10ea 48be
00000140: 47c1 68bd adb5 3dbe 493a 35be 366b 13be
00000150: 03b3 84be 6032 d53d 5cd8 863c 7d3e 2a3e
00000160: f4d8 c4be 693b 9d3e 2409 a93e 75ba f3bd
00000170: f5ed 4f3d 0034 d7bb bd8e 983d 14ac bf3c
00000180: 528c debb 93d5 6fbd 9f36 293e a12a 6f3e
00000190: a4e2 293d c09f 463e 6444 063e 8107 983e
000001a0: 16cf 693c 2101 6cbd 2923 33be d01c a3be
000001b0: 2cc9 3f3d b9d9 bebe 8553 2abf e52b ffbd
000001c0: c9dc 4b3e d70a 2dbe 8fe5 9e3e e498 c1bd
000001d0: c1e3 61be c131 88bd d1aa 113d 5799 41be
000001e0: 1bc2 d3bc 265f 75bd 2b88 103e 44a3 20be
000001f0: d557 643f 39be 06bd 9b60 0a3e c04c 083d
00000200: fe60 d93d 5828 e8bc e6dc 7ebe db05 0fbe
00000210: aedc febc b0f4 fbbd 3e12 53be 9b4a 95bd
00000220: 0a87 173d 81e9 033e 0cd8 03be 4418 db3d
00000230: bb21 f73d 727e 9b3e 3869 0b3d b0e0 023d
00000240: fbf1 72be 9627 d73c 0038 903e 5ac6 143d
00000250: 1f35 513d 18ae 463e 56fd 4cbc be04 7fbe
00000260: 0b67 5f3e 18bc a13e ac71 f4be 377c ab3d
00000270: aed8 013e fc2e 30be 2960 d53d 9133 b93c
00000280: 7db2 97bd 3b93 113e 14e6 f73d e235 75be
00000290: 7f49 a3bd db3a 54be 8faa 3c3e 326c 10be
000002a0: 1a0a 7f3d 2f38 5bbd 7959 a53d 5145 633e
000002b0: 0150 943e b84e 843d dea2 b8be 9df5 133e
000002c0: e483 863d 07ce 343e 99a6 513e a394 aabd
000002d0: 8b21 353d a571 123e 2f65 23bd 3e2f a73b
000002e0: 8266 b9bd b03a aabe 61ba 133f 4619 233e
000002f0: b563 0fbe 7717 5dbe 9059 45be 91db b13b
00000300: 4c44 85bc b1f4 b03d 0381 7c3e 6dcf 94bb
00000310: ef9a 96bc 32b6 7cbd 1c42 debb 3848 21be
00000320: c379 ecbd 0a3b 013d 0b32 553d 16c1 2fbc
00000330: 11d4 fcbd eefd 313e d0ae 17bd e87f 153e
00000340: e780 47bb d0f0 62be 5df0 7abd 9514 96bd
00000350: 940d 2bbd 01f4 c5bd 8170 80bd b8cc 4cbe
00000360: 1f1f c13d e76a d3bd ddc8 2dbe 7582 43be
00000370: 8f01 21be 8e1b 18bd f549 00be ffc3 abbd
00000380: 0a91 5b3e fb0a dc3d ee83 4fbd 8849 bbbd
00000390: e0e9 443e fa28 633d 9d8f 823e 6529 acbd
000003a0: f26f b5bd 490b 86bd e126 283d c76b d03e
000003b0: 67c9 763e 9c10 36bd 98e2 38bd d53f 35bd
000003c0: 24a3 aabd 15a6 073e 7dfb 643d f0df c0be
000003d0: 43b2 833d a2c6 4bbe fab0 9d3d db7f d3bd
000003e0: e03d 46ba 90b0 b7bd 66ed 2f3e b140 03be
000003f0: 1dc6 ff3d a918 61bc 9d1d 26be c9a0 77be
-0.12567437 -0.11574253 -0.17392002 0.019051885 0.12450511 -0.04336506 0.06531388 0.065026134
0.23645023 -0.20655322 0.28950852 -0.053224713 -0.06087771 0.20464857 -0.0027145948 -0.32620618
-0.00703835 -0.025682537 0.03131224 0.050542593 0.07602309 -0.13771367 -0.008037427 0.04314713
0.044371545 -0.081639625 0.06221053 0.122086234 0.22332911 -0.17272663 0.1461558 -0.034008965
-0.25026825 -0.06194148 -0.05033596 -0.11880164 -0.071768135 -0.033413492 0.021093158 -0.08299918
0.20317657 0.17550902 -0.08196384 0.02758659 -0.13976575 0.019798603 -0.010124279 -0.056106336
0.029779349 0.2020212 0.16019772 -0.23767489 -0.1566925 -0.13313499 0.15925306 -0.029088512
-0.0058003 0.0917508 0.17070563 0.13665345 0.14387017 0.19858988 -0.13176832 0.027228745
-0.09727244 -0.51277727 -0.25041333 0.21921577 -0.52930397 0.04367893 0.050644413 0.14589983
-0.038408495 0.011759522 0.06054987 0.061354443 0.021418378 -0.25312215 -0.12817077 -0.19620538
-0.05682495 -0.18526335 -0.17698015 -0.14396366 -0.25917825 0.10409999 0.01646059 0.166254
-0.38446772 0.3070939 0.33014786 -0.11900798 0.050764043 -0.006567478 0.074491 0.023397483
-0.00679163 -0.05855329 0.16524743 0.23356105 0.041475907 0.19396877 0.13112026 0.29693225
0.014270565 -0.057618264 -0.17493881 -0.3185792 0.04682271 -0.37275484 -0.6653369 -0.12459544
0.19908442 -0.16898666 0.31034514 -0.0945299 -0.22059537 -0.06650115 0.035563294 -0.18906151
-0.025849393 -0.059905194 0.14114444 -0.15687281 0.8919652 -0.032896254 0.13513415 0.03327632
0.10614203 -0.02833955 -0.24888954 -0.13967077 -0.031111088 -0.1230253 -0.20612428 -0.072896205
0.036994018 0.12882043 -0.12875384 0.10697988 0.120669805 0.30369908 0.03403589 0.03195256
-0.2372512 0.026263993 0.28167725 0.036321975 0.05107605 0.19402349 -0.012511572 -0.24904153
0.21816652 0.31588817 -0.47742975 0.083733015 0.12680313 -0.17205423 0.10418732 0.022607597
-0.07407091 0.1421632 0.12104431 -0.23946336 -0.07973003 -0.20725577 0.18424438 -0.14103773
0.062265493 -0.053520378 0.08073706 0.22194411 0.28967288 0.06460327 -0.36061758 0.14449163
0.06568125 0.17656718 0.20473708 -0.083291315 0.044221442 0.14301164 -0.039891418 0.0051020673
-0.09052755 -0.332479 0.57706267 0.1592761 -0.14002879 -0.21590982 -0.19272447 0.0054277857
-0.016267918 0.08640421 0.24658589 -0.0045413286 -0.018384425 -0.061697192 -0.006782783 -0.15750206
-0.11546662 0.031550445 0.052049678 -0.010727188 -0.12345136 0.17382023 -0.03703195 0.14599574
-0.0030441822 -0.22162175 -0.061264385 -0.073281445 -0.041760996 -0.09665681 -0.062714584 -0.19999969
0.09429764 -0.103231244 -0.16971155 -0.19092734 -0.15723251 -0.037135653 -0.12528212 -0.08386993
0.21442047 0.10744282 -0.050662927 -0.09144884 0.19229841 0.055459 0.25500193 -0.08406333
-0.088592425 -0.06545121 0.041052703 0.40707228 0.24100266 -0.044449434 -0.04513797 -0.044250328
-0.08331898 0.13246949 0.0559039 -0.3767085 0.06430485 -0.19899991 0.07699771 -0.10327121
-0.00075623207 -0.089692235 0.17180404 -0.12817647 0.12488959 -0.01373879 -0.16222234 -0.24182428

conv1.fc_neigh.weight f4 [16, 174]
00000000: a628 b7be 029b 48be 8ed4 5fbe 44cb a2be
00000010: 1156 8fbc 0d10 efbc d766 ca3d c087 ab3c
00000020: 1816 473d 18da dcbe 349f f23d 80a3 df3a
00000030: 876f 3d3e 92fa a43e f970 89be f486 dabe
00000040: 901b f8bc c711 9e3d ca4e 833e 4aee 883d
00000050: bbd0 0b3f a4a5 98bd 7384 6f3e 3cda f23d
00000060: 2a31 ac3e 5693 1abf 41d2 8b3d d868 e53c
00000070: d529 7a3e 5f90 fdbe 7fde 923e 9a73 bf3d
00000080: a465 38bf aada 0f3e d23b 90be 9963 65bd
00000090: 4446 923d c480 08be ac02 1b3e 55e1 de3b
000000a0: f91d 0e3f 9235 ab3e 5a5f 09bf eef3 0cbf
000000b0: 3006 6cbe bd72 be3e a242 78bd 28c5 613f
000000c0: d722 22be c3e4 1f3f 89ff b23e 4e1e 3ebe
000000d0: 7df3 33bf c57d e2be 77fe 7c3e f5e6 0bbe
000000e0: d38d 1abc bfcb 29bd f17e cdbc 5819 043e
000000f0: 4c47 c63e 4a2e 843d c216 60be 25ed d03b
00000100: c13c 4d3d b101 65bf c770 bfbe 8bb3 2c3f
00000110: b7d9 08be 5065 593f f9e1 323f b43b be3d
00000120: bbc1 ad3d ab0d 003d 5527 c73d 78a2 a23e
00000130: aeec 603d 94fd 00be 789e d03d e143 a0bd
00000140: e0bd 803d 783b bd3e bcd7 75be 2c29 24be
00000150: 2673 f8bd 871c b53e 3cc0 493e 71af cfbe
00000160: c82b 2ebf 4a2f e83e b203 5a3f af76 fbbc
00000170: 10e1 9fbd 4211 2fbe 9ed4 65bd 1d8e b6bd
00000180: df58 46bd 98b5 413e eabd 953b c8e2 f63d
00000190: e856 2bbe 7e85 753e 6640 db3b eb17 953f
000001a0: 3a4c cabe bca0 3dbd 46c3 d3be a770 0fbf
000001b0: ec5c 27bc 1dad 5cbe e543 4fbf af2c c8bd
000001c0: a48c cc3e a9e6 fcbb 7065 5b3f 4fc5 74bd
000001d0: 4a17 b7be 8bf8 d93c 267c 243f 163f 143e
000001e0: ab89 2f3e 6eb4 c8bd ae92 3ebd a80f 14bf
000001f0: dfba da3f 8e4e 663e c8de bc3e 4ffa 8b3d
00000200: 0e38 663e 1940 043d ae4d c2be 5645 2bbe
00000210: 6ff4 25bf 0c45 f03d 81aa 0fbf 2caf 93be
00000220: 1667 313e 8377 833e 2c21 74be c0e9 983e
00000230: 17e4 b7bc 18f1 833e 2f2f a5be 1742 043e
00000240: dbb1 35be 46c3 e1be ad9d 153f 9012 51bf
00000250: cd4e 4bbe 09ea 253e a3c5 9c3e 901b 08bf
00000260: 17e6 e73e 3d10 7d3f 6aa1 303e 416d 313d
00000270: e2d6 ae3e 89d8 993d 0600 c3bd a821 b13d
00000280: dcdf 973d d9ce ea3e af8f 5cbc 9e48 e6bd
00000290: d77b a7be 8fac f0be e743 943f 5f3c 2b3e
000002a0: 9261 babe fee7 5ebe 8568 f43e 9f81 873d
000002b0: 2282 483e ced2 18be dd3c babd 518f 203e
000002c0: 1748 4f3e bdd9 963e 4f31 003d 1692 89bd
000002d0: 3457 a7bd 2280 9e3e f480 443e f4e8 73be
000002e0: 14b1 643c b2cd 8cbe 86cf 323f 9a60 d13e
000002f0: ff49 b7be 3339 b1be f525 13be 9d33 babd
00000300: ddf5 183d 9bab 883d e224 2b3e 4ca9 e4bd
00000310: fe22 c93d 255f 99bc 47a8 a43d 9bc3 9e3e
00000320: b0fd 4abc ef81 033f 5b63 4c3e 8c20 49be
00000330: 377d 633e e870 f43e c324 bc3c 4715 183e
00000340: aacb f23e 7783 cbbe 41c5 cc3e d291 a9bd
00000350: 96bc be3d 80c3 6c3e efcb 983e 9b69 d8be
00000360: 78fb d13e 8d29 d8be eb73 83bd 5133 7a3c
00000370: 4246 c9bd 4d58 9bbe 81a7 bdbd 2fbc 47bd
00000380: 1ee2 e33c c4ed 393f 690a 433d a7d3 cd3d
00000390: 4a10 573d f7fe 09be a70d 073f a9d0 a1bc
000003a0: ee35 c7bd 79c0 05be d814 d43e b299 043f
000003b0: 6230 2a3f d3fd a73d d856 b8be e580 6ebe
000003c0: 9994 90be b4f3 cfb9 61c3 00be 3d01 4abf
000003d0: 86c4 7f3e 55ed 39be 44d1 dc3e cc1f 07be
000003e0: ee98 0c3e d735 083c f9fc 663e 0f9d b4bd
000003f0: 60ad 4d3e c62c 883d 8504 a2be 90b2 893b
-0.357732 -0.19590381 -0.21858427 -0.31795704 -0.017497094 -0.029182458 0.098828964 0.020938754
0.048605055 -0.43135142 0.11846772 0.0017062277 0.18499576 0.3222242 -0.26844004 -0.42681086
-0.03028658 0.077182345 0.2564605 0.06686075 0.5461537 -0.074534684 0.23390369 0.11858031
0.3363126 -0.60381067 0.06827212 0.028004095 0.2443002 -0.4952421 0.28685376 0.09348221
-0.7203009 0.14048257 -0.2817064 -0.056003187 0.07142308 -0.1333037 0.15137738 0.006801764
0.55514485 0.33439308 -0.5366112 -0.5505971 -0.23049235 0.37196913 -0.06061042 0.8819146
-0.15833603 0.6245844 0.34960583 -0.18566248 -0.7029341 -0.4423658 0.24706446 -0.13662322
-0.009433228 -0.041454073 -0.025084944 0.12900293 0.3872627 0.064541414 -0.21883681 0.006375926
0.050106768 -0.89455706 -0.3739073 0.6746146 -0.13364302 0.84920216 0.69876057 0.09288731
0.08484217 0.031263035 0.09724299 0.3176458 0.054913215 -0.12596732 0.101864755 -0.07825447
0.06286216 0.36959434 -0.24008077 -0.16031331 -0.12131338 0.35373327 0.19702238 -0.4056354
-0.68035555 0.4534858 0.8516189 -0.030696241 -0.07806599 -0.17096427 -0.05611097 -0.08913825
-0.048424598 0.18916929 0.0045697587 0.12054974 -0.16732371 0.23976704 0.0066910265 1.1647924
-0.3951128 -0.046295866 -0.4135992 -0.5603127 -0.010215025 -0.21550412 -0.80962974 -0.09774148
0.3995105 -0.0077179265 0.85701656 -0.05975848 -0.35759956 0.026607772 0.64251935 0.1447719
0.1714236 -0.09800039 -0.046526603 -0.5783639 1.7088279 0.22490904 0.3688872 0.06834852
0.2248232 0.03228769 -0.3794989 -0.16725668 -0.648261 0.1173192 -0.56119543 -0.28844583
0.1732448 0.25677118 -0.23840779 0.29865837 -0.022447629 0.25769877 -0.3226256 0.12915836
-0.17743628 -0.44094294 0.5844372 -0.8166895 -0.19854279 0.16202559 0.30619535 -0.5316706
0.45292732 0.988529 0.17249075 0.043317083 0.34148318 0.07512004 -0.09521489 0.086489975
0.07415745 0.45860937 -0.013461991 -0.112443194 -0.3271167 -0.47006652 1.1583222 0.16722248
-0.36402565 -0.21768185 0.47735992 0.0661652 0.19580892 -0.14924166 -0.0909364 0.15679671
0.20242344 0.29462996 0.031297024 -0.06717317 -0.081709296 0.30957133 0.19189817 -0.23819333
0.013958234 -0.27500683 0.69847906 0.40894014 -0.35798642 -0.34613952 -0.14369948 -0.09091876
0.03734385 0.06673356 0.16713288 -0.11165103 0.09821127 -0.018722126 0.08039909 0.3100861
-0.012389585 0.5137014 0.19959776 -0.19641322 0.22215734 0.4774239 0.022966748 0.14851867
0.47421008 -0.39748737 0.39994243 -0.08279766 0.09313314 0.23121452 0.2984309 -0.4226807
0.41012168 -0.422192 -0.06418594 0.015271024 -0.09827854 -0.30340806 -0.092604645 -0.04876345
0.027817782 0.72628427 0.04761735 0.10050135 0.05250577 -0.13476168 0.52755207 -0.019752817
-0.09727083 -0.13061704 0.41422153 0.5179702 0.66480076 0.0820271 -0.36003757 -0.23291357
-0.2823837 -0.0003966369 -0.12574531 -0.7890814 0.24977311 -0.18156941 0.43128407 -0.13195723
0.13730213 0.008313618 0.22557439 -0.08819019 0.20085669 0.06649165 -0.31644073 0.0042021945

conv2.bias f4 [16]
00000000: 899a 383b 5021 4a3c 2a8e 723a 7b23 da3b
00000010: 2a9a 4b3c 3cb4 ca3b e2dd 673c 2251 873b
00000020: e13c 60bc f523 df3b 4b04 4fba 5ff1 123b
00000030: 8f00 2c3c 34bc 1ebc 4c87 183b 18c8 b93c
0.0028168282 0.012337044 0.00092527515 0.0066570616 0.012426892 0.0061860364 0.014152022 0.004129545
-0.01368639 0.0068097063 -0.0007897063 0.00224217 0.01049818 -0.009688426 0.0023274003 0.02267842

conv2.fc_self.weight f4 [16, 16]
00000000: 0481 9fbe 6c96 89be 741b fcbd 63ca 9f3e
00000010: a9fe c1be 79be 49be 175f 73be 5aed 6e3e
00000020: 1fca babd 0b13 e63e ac3a 393e 6148 03bf
00000030: e84d b93d d765 1c3e bf50 133e 6003 123f
00000040: f7fc a4be ec5f 8dbe bf45 0cbe df88 873d
00000050: 1552 de3e 3756 083f 5c91 35be e9ef b03d
00000060: ece2 0bbd d204 113e eb73 a53e 71bb c43e
00000070: 2cbc 3a3e 98cb 3b3d 5086 93be 037a ef3e
00000080: f99d 4d3d 7b3f 823e d354 a5be cbfd 99be
00000090: c7ae ef3d 5611 5dbb 0cd4 06be 9591 75bf
000000a0: b5ff 8ebe 5090 bbbd e562 99bd 304f 523e
000000b0: 08ed b1be d087 4b3c a1de b3be df94 2e3b
000000c0: 6b85 9ebe 5a21 8e3d b8ad 04bf 1c2d ec3c
000000d0: df60 363e b558 4abe 276b dabe bd05 423e
000000e0: e13c 963e dbd0 bd3d f0d6 46be 46a7 46be
000000f0: 9d03 013e 16c6 133f d737 833d eb92 a33e
00000100: b4f2 203f 2b09 f53e 56c9 943e c7cc 7d3e
00000110: 24b8 9b3d 7fd9 f8be 530f f7bd 4074 8abe
00000120: 3636 ddbe 8736 9bbe 8bdb 8e3d 521e 6bbd
00000130: e065 193d 9655 9a3e ef4d f9be 6547 a9be
00000140: dd60 4b3d b78e 8b3e 6566 153f df0a 4bbe
00000150: 2bf4 f23e 8190 993c 7e7d f03e 6653 033e
00000160: 17c6 d53d 9492 333d f194 623e 3b1a 91be
00000170: ff1e d73d 40b9 19be 5054 443e d477 03bf
00000180: 5dca 8abd 6e4f 55be f843 69bd e0e6 143f
00000190: fdb9 513e 8e67 e6bd c710 d13e aff5 de3e
000001a0: 382a 5c3e 41b6 5cbb e128 5bbe cfbc 563e
000001b0: d2d3 403e 5490 01be 2a3d 6e3e 2106 913e
000001c0: 5991 6dbe 0111 d93e bff5 b7be 434b 1dbe
000001d0: eafb 4ebe 122e 843e 678e 933d 9d41 0d3d
000001e0: 642c 97be 42df efbd 8516 b73e bc56 0bbe
000001f0: f146 b63e a739 4d3e 1dd6 9abe b726 e4bd
00000200: 0385 a13e f784 eabb 4f09 c13e 81e3 bf3e
00000210: 8845 983e cb9d be3e be81 8cbe 508d 443d
00000220: 7505 82be e6fa d93d a833 f33e 0813 d43e
00000230: c93f 4d3e 0e69 533e 7346 4f3e 9011 983e
00000240: 673a 73be a16d 30be 87a7 9b3e 6921 843e
00000250: 0600 833e 5240 913e 028c c8be fe65 7e3e
00000260: 8df9 643d cee0 cc3e c391 cd3e 2551 d03d
00000270: be60 303e 503c 49be 2e5b 42bd b807 873e
00000280: 41f1 6abd 3820 79be 7d78 1f3e 8c68 1d3e
00000290: 7738 9c3d 769f dc3a 75b9 4ebe b884 353d
000002a0: 99a0 88be f744 a4be 162c 2ebf a209 e03e
000002b0: df64 393e f774 89be a902 2b3e 0a03 183d
000002c0: 8f80 bc3e 50e2 f23d 7804 903e d89e d13e
000002d0: 1ebb 65be fea6 5f3e b515 af3d 65ac 00bd
000002e0: f547 e6be aaac a3be fc0c a53e c47b 113f
000002f0: 3247 21bc e16d 123e b171 5dbd 29d8 213e
00000300: 846d f9bc 821e 7b3e 7b19 8abe adf9 80be
00000310: b77d 313f aad2 fb3b 10ab 773e 243d 213e
00000320: 4d0a 26bd adc8 a0bd efca dcbd 501d c73d
00000330: ee8c 9e3e 80ec 583e 3441 2d3d 4934 70be
00000340: dfb2 273e 0295 a5be 30f3 ca3e c849 8f3d
00000350: edcd 4d3e 720f 363e 8111 1cbc 5d7f 99be
00000360: 6be7 b3bc b2ee e43e 811c a83e ef48 8b3d
00000370: 555c b5be aa5e 0e3e b4a1 e2be 8760 de3d
00000380: 58e5 5dbd b0e6 083e b4f4 d93d 6036 e7bd
00000390: 8139 e43d 7859 bc3d 0bd1 bd3d 4322 863e
000003a0: e964 963e 6641 283e f12d 813e f03d 13be
000003b0: e7b2 623e 9c07 7abd 5e2a 36be 04b4 4dbe
000003c0: 6eb3 9a3e 62f5 4bbd b070 a53e bf56 653e
000003d0: c88f 9dbe 9321 36be d72f e2be ffca 2b3e
000003e0: 8b03 843d ba4e 0ebe 1163 9abd b5be 8abd
000003f0: 40d5 a03e b3c3 883e be50 733d 1cd7 643c
-0.3115312 -0.26872575 -0.12309924 0.31209096 -0.37889603 -0.19701566 -0.23766743 0.2333273
-0.09120583 0.44936404 0.18088788 -0.51282316 0.090480626 0.15273224 0.14386271 0.570364
-0.32224247 -0.27612245 -0.13698481 0.06617903 0.43422 0.53256553 -0.17731231 0.08639509
-0.034151956 0.14161995 0.32315 0.38424256 0.18235844 0.04584846 -0.2881341 0.46772775
0.050199483 0.25439057 -0.32291278 -0.3007644 0.11703258 -0.0033732257 -0.13166827 -0.95925266
-0.27929464 -0.09158385 -0.07489566 0.2053802 -0.34751153 0.012422517 -0.3513079 0.0026639027
-0.30961165 0.06939955 -0.51827574 0.028830104 0.17810391 -0.19760402 -0.42659876 0.18947501
0.29343322 0.09268352 -0.1941793 -0.19399747 0.12599035 0.5772413 0.06407135 0.31948027
0.62870336 0.47858557 0.29059857 0.24785148 0.076034814 -0.48603436 -0.1206347 -0.27041817
-0.43205422 -0.3031504 0.06975468 -0.057401963 0.03745067 0.30143422 -0.4869227 -0.33062282
0.049652923 0.2725732 0.58359367 -0.19828366 0.4745191 0.018745663 0.46970743 0.12824783
0.10438173 0.04384096 0.22127129 -0.28340325 0.10503959 -0.15012074 0.19172788 -0.5135472
-0.06776879 -0.20831081 -0.056949586 0.5816479 0.20481105 -0.1125022 0.40833113 0.43546817
0.2150048 -0.0033677968 -0.21402313 0.20970462 0.18830803 -0.12652713 0.2326552 0.28324988
-0.23199977 0.42395785 -0.35929677 -0.15360741 -0.20213285 0.258164 0.072048955 0.0344864
-0.29526055 -0.11712505 0.3575937 -0.13607305 0.35601 0.20041524 -0.3024148 -0.11140197
0.31546792 -0.007156964 0.37702414 0.3747826 0.29740548 0.3722976 -0.27442735 0.04798633
-0.25394788 0.10643558 0.47500348 0.4142077 0.20043863 0.20645544 0.20241718 0.297009
-0.23752747 -0.1722932 0.3040125 0.2580674 0.25585955 0.28369385 -0.39169317 0.24843594
0.055902053 0.40015262 0.4015027 0.10171727 0.17224404 -0.19651914 -0.047450237 0.26373076
-0.057358984 -0.24328697 0.15573306 0.15371913 0.07627957 0.0016832191 -0.20187934 0.044316024
-0.26685026 -0.32083866 -0.6803602 0.4375735 0.18104886 -0.2684705 0.16700234 0.037112273
0.36816832 0.11859572 0.2812841 0.409415 -0.22434661 0.21841046 0.08549062 -0.03141441
-0.44976774 -0.3196767 0.3223647 0.56829476 -0.009843634 0.14299728 -0.054063503 0.15805115
-0.030447729 0.24523357 -0.26972565 -0.25190488 0.6933245 0.007685025 0.24186349 0.1574598
-0.040537167 -0.07850776 -0.10780894 0.09722388 0.30966896 0.21183968 0.04229851 -0.23457445
0.16376828 -0.32340246 0.39638662 0.069964945 0.20098086 0.1777933 -0.009525658 -0.29979983
-0.021960935 0.4471336 0.32834247 0.0680102 -0.35422006 0.13903299 -0.44263995 0.10858255
-0.054173797 0.1336925 0.106423765 -0.11289668 0.111437805 0.09196752 0.092683874 0.26198015
0.29373863 0.16431198 0.25230363 -0.14379096 0.22138558 -0.061042413 -0.177896 -0.20088202
0.3021502 -0.049794562 0.32312536 0.22396372 -0.3077376 -0.17786245 -0.44177124 0.16776656
0.06445988 -0.1389722 -0.07538427 -0.06774656 0.31412697 0.26711807 0.059403174 0.013967302

conv2.fc_neigh.weight f4 [16, 16]
00000000: f771 68bf 10c7 91bd 952f b63e dd9e 903e
00000010: e612 abbd e2c2 1fbf e8fa 7c3e bbff 383f
00000020: a8aa 35bf 9705 4e3e 3e27 1f3f 3c4e 493e
00000030: faa7 823e 4a1b 7f3a c1f9 ec3e 03b7 b0bd
00000040: 5043 f8be 06c0 bfbe 558f cfbc 8406 f7be
00000050: e0a2 db3e e9f0 8c3e 2646 99bc bc3f 053f
00000060: 247a a23e 117d f2bd 516e 183f 1ebc 2bbe
00000070: ab46 8c3e 8a86 cc3d 9475 39bf ed42 633f
00000080: bcfd e43c cf8a 2fbf 0e3f 5abe e748 033f
00000090: a6d1 763f 2548 053e 12bc 6b3e 13c2 0ac0
000000a0: 4a21 613e 3b99 fcbe 6bdc 7c3f ac3d df3e
000000b0: b74b 4ebd a0d9 97bd 89b5 a2be 9a34 183e
000000c0: 8f43 e3be 8c3f b53e 8df4 83be aea3 d1bd
000000d0: b3d1 f5be 972b db3e 43fa 7fbf 1fc8 17be
000000e0: 6b06 69be bc8c acbe 9bab 313e c012 22bf
000000f0: 7105 0abf f0dd b23f ec33 f1be 41d0 cb3d
00000100: 60a3 593f 91a1 b93e e372 1c3e 3f4b 34bd
00000110: a1f2 c33e 6e00 3dbf 6178 e23c 90b3 a63e
00000120: a686 bbbe d695 0fbe 6aba f43d 43c8 c1be
00000130: 05e7 93bc 8cd5 1dbe aa60 4cbf ece5 863e
00000140: 2d06 09bf 44df 6e3f ef6c a63f c9c2 85be
00000150: f4d1 133f 1ba1 e33d 37d4 733f 9b2c 17bd
00000160: d407 d33e 0afc e3bb a0a5 2ebe 897c 9e3e
00000170: fc7c bd3e 2f06 1c3e c17f ce3e a76f 26bf
00000180: 9f6f c6bd 0af2 6b3b 09cd f03d 1de2 873f
00000190: cd9a b4be fc3d 7d3e 6fad 1c3e 4b28 ba3e
000001a0: 85f6 8dbd 770d 3e3e 347a 16bf 5450 613e
000001b0: f5ac 16bd d31c 5d3e 16e8 f7bd 3cfd d9be
000001c0: a77d 5cbe ba63 013f acec 72bf 7cd5 b8be
000001d0: d0c3 953e 9408 ac3e d1dc e2bd c8b2 883e
000001e0: f244 02bf 2d41 2e3f 9f54 313f 2500 c23e
000001f0: 98d4 be3e a8ba 40be f0fe 42bf a833 abbe
00000200: 2fc5 d03e 9f07 e93e a504 7fbb e06b e13e
00000210: 6db4 1a3f 8e33 0d3f 831a 0fbf 86b3 fdbc
00000220: 1d7b bd3e 176d 783e a883 e03e 182a bebe
00000230: 9d82 9e3e 7066 1ebe acb6 c23e 9277 823f
00000240: 5329 d9be 44f1 d83d 52be 2f3f 9a28 b9be
00000250: 45b8 923d 18d6 093f 8aac 57bf 2474 513f
00000260: 8729 a73e 27fa 433f b639 6a3f 2a26 7d3e
00000270: 461c c0be c0e3 09be 2104 84be 995f 02bf
00000280: 9825 edbe 22d8 abbe f5f7 153f ad18 ba3e
00000290: 59a8 dcbe 1811 a0be dda3 5bbf bb46 92be
000002a0: 2e5c 49bf f3ff f6be b662 41bf c90c c33e
000002b0: d52d 75be 5de3 6a3e a439 e3be 4be4 a53e
000002c0: fdb9 983e c94b c73d 7493 b5bd 1820 2b3f
000002d0: 9faf 2cbf ef69 97be 0755 eb3e 6d2a c73e
000002e0: 76b7 993e 20a0 00bf 307a 323f 2d8c 903f
000002f0: 2112 993c a435 02bd 4598 eb3e 1b3b 0abf
00000300: 1f4d 0abe 08b9 b5be dc22 4cbf efb2 ac3e
00000310: b2e3 2a3f 7c33 b1be 2eab 553e 64bb 22be
00000320: 9bee 3dbf 0743 3bbe 2731 a1be 7e51 79be
00000330: af9b 25bd 4261 113f a738 683f 676c 66be
00000340: b0d1 debe f31e cebe 30f4 5b3e 5832 cc3e
00000350: f0c1 3bbe bc2b c2be 5a1d 6a3f 65d0 6bbe
00000360: 3b00 ca3e bb6d a33c 3df1 443e e4c4 c73d
00000370: 906e 02bf cac3 77bc 5379 883e 96db d93e
00000380: a645 70bf 6646 203f eb3e 7dbe 8da3 ab3e
00000390: 3007 00bf df28 6f3e 55db a43e 7d2e 2dbe
000003a0: 7ce9 f6be 961f c0bb 16d1 90be 5a43 0cbf
000003b0: f366 133e 8d92 8fbe b2c8 c13e 0fed 8e3e
000003c0: 3d71 d03e f307 3fbe ebb8 e43e 2c69 9f3e
000003d0: 17f4 81be 8996 49bf 074f 1ebf 084b c63d
000003e0: 3fd2 a73e 7ea8 96bd fc21 a43e a59a 953e
000003f0: 898f ba3f 2014 7b3e a589 aebe 33f3 aebd
-0.90798897 -0.07118046 0.35583177 0.28246203 -0.08353214 -0.6240674 0.24705088 0.72265214
-0.70963526 0.2011932 0.62169254 0.1965875 0.2551878 0.00097315444 0.46284297 -0.08628657
-0.48488855 -0.3745119 -0.0253369 -0.4824716 0.428977 0.2752755 -0.018710207 0.52050376
0.3173381 -0.11840261 0.5954333 -0.1677098 0.27397665 0.09986599 -0.72445035 0.88773996
0.027953021 -0.6857118 -0.21313116 0.51283115 0.9641365 0.13015802 0.23020962 -2.1680954
0.21985355 -0.49335656 0.9877383 0.4360174 -0.050365176 -0.074145555 -0.31779125 0.14863816
-0.4438748 0.35400045 -0.25772515 -0.102362975 -0.4801155 0.42806694 -0.99991244 -0.14822434
-0.22756355 -0.33701122 0.17350619 -0.6330986 -0.5391455 1.397398 -0.47109926 0.09951831
0.85014915 0.36256078 0.15278201 -0.044017073 0.3827105 -0.7382878 0.027645292 0.3255887
-0.36626166 -0.14022002 0.11949618 -0.378481 -0.018054495 -0.15413493 -0.79835 0.2634729
-0.5352505 0.93309426 1.3001994 -0.26125172 0.5774224 0.11114713 0.9524569 -0.036907773
0.4121691 -0.0069575356 -0.17055368 0.30954388 0.37009418 0.15236734 0.40331843 -0.6501412
-0.09689259 0.003600242 0.11757857 1.0615879 -0.35274354 0.24730676 0.15300535 0.36358866
-0.069317855 0.18559824 -0.5878022 0.22003299 -0.03678604 0.21593027 -0.12104814 -0.42576015
-0.21532308 0.50542796 -0.9489238 -0.36100376 0.29250956 0.33600295 -0.11077274 0.266989
-0.5088645 0.680682 0.69269747 0.37890735 0.3727157 -0.18821204 -0.76170254 -0.33437848
0.4077544 0.45513627 -0.003891268 0.44027615 0.6043156 0.5515679 -0.5589983 -0.030969393
0.3700799 0.24260364 0.43850446 -0.3714149 0.30959025 -0.15468764 0.38029993 1.019274
-0.4241434 0.10592893 0.6864978 -0.3616379 0.07164053 0.53842306 -0.8424765 0.8181784
0.3264887 0.7655358 0.9149431 0.2472159 -0.3752157 -0.13465786 -0.257844 -0.5092712
-0.46317744 -0.33563334 0.5858148 0.3634695 -0.4309719 -0.31263041 -0.8579691 -0.28569588
-0.7865628 -0.4824215 -0.75541246 0.38095692 -0.23943265 0.22938295 -0.44379914 0.32400736
0.29829398 0.09731252 -0.08866015 0.66845846 -0.67455477 -0.29573008 0.45963308 0.38899556
0.30022782 -0.5024433 0.69717693 1.1292778 0.018685402 -0.031789437 0.4601461 -0.5399644
-0.13505982 -0.3549273 -0.7974069 0.33730265 0.66753685 -0.34609592 0.20866081 -0.15891796
-0.7419221 -0.18287288 -0.31482813 -0.24347493 -0.040431675 0.5678903 0.90711445 -0.2250229
-0.43519354 -0.40257987 0.21479869 0.3988216 -0.183357 -0.37923992 0.91451037 -0.23028715
0.394533 0.019949785 0.1923265 0.09754351 -0.50949955 -0.015122363 0.26655063 0.42550343
-0.93856275 0.6260742 -0.24731033 0.33523217 -0.5001097 0.23355435 0.32198587 -0.16912265
-0.4822501 -0.0058631403 -0.2828452 -0.5479027 0.14394741 -0.28041497 0.3784843 0.27915236
0.40711394 -0.18655376 0.4467233 0.31134927 -0.25381538 -0.78745323 -0.61839336 0.0968228
0.32777593 -0.07356356 0.32057178 0.29219547 1.4575053 0.24519396 -0.3408939 -0.0854248

conv3.bias f4 [16]
00000000: aeac a03b df77 d2bc 46f5 333d 7f06 743c
00000010: a0a5 e0bc 38eb 3b3c 65f6 fa3a 6d3a d1bc
00000020: 5e85 dc3c 4a8f 933a 8556 e3bb 9d89 813c
00000030: e98e 2abd 1533 dabc 0867 7d3c 9d42 493c
0.0049033975 -0.025691925 0.043935083 0.014894127 -0.027422726 0.011469655 0.0019146918 -0.025540555
0.026919063 0.0011257913 -0.006937804 0.01581269 -0.041640196 -0.026635686 0.015466459 0.012283948

conv3.fc_self.weight f4 [16, 16]
00000000: 8712 883e 5c03 4c3e 5be0 743e 0731 a4be
00000010: 3470 cd3d 4313 b13d 2a38 d53c 4f11 043e
00000020: 3f4b ce3e b1b9 39be 2611 893e 4020 a4be
00000030: b250 4ebe 145b 0ebe 4377 7cbe 3f9f 77be
00000040: 98f9 98be 5a5b 19bc 4750 a13d 38cc a03d
00000050: db84 86be 4fa5 eebd 1a2c 923e 8ec0 393e
00000060: 4dba 9b3d 9d21 03bc 8c66 aebe 99b4 c7be
00000070: a718 39be a4a6 633e d890 2fbd e482 a03e
00000080: 203b 80be c96f 8bbe a050 9a3d 4726 32be
00000090: 160c c5be b4a3 d4be 39e2 82bd dad3 e13e
000000a0: fd3f 913d 5615 ef3d 22c4 883e ca02 22be
000000b0: a68e f3bd 7427 e23e 06ec dd3d f0df 8d3d
000000c0: d237 c23b 8d1b d5bd a87a 6a3e ff7b 333e
000000d0: 6ad2 1f3e 77f8 32bd c394 a03d 0738 eebe
000000e0: b21d 29be ff79 aa3e b419 8cbe 6556 013e
000000f0: 07f4 103e 247b 5dbe 1f3e a33e 3dc2 7f3e
00000100: 65d1 26be 5e1d 873d 83b7 ddbd 470d 093e
00000110: 535c a2be bc8b 98bd 72aa f1bd 13f7 92bd
00000120: 4a7c f0bd cb9c 6fbd b857 afbd a68a 593e
00000130: 901b 0fbd 26ab 003e 39f5 f6bd 3c4c f83c
00000140: c5fb 643d 6679 abbd 35f8 8bbe 07c7 073e
00000150: 4dc8 d73e 4599 62be 5417 ab3d 7e0a 98be
00000160: 494c c53d cab0 fcbd 8fc1 a6bd bc72 3d3e
00000170: 0447 fcba 500a debd 29f8 d83e d301 a5be
00000180: 12e5 b4bb d9e8 b4be 7751 9c3d 7073 c4be
00000190: f10f a3bd 117c 99be 9640 c03e 5464 333e
000001a0: a8f9 923d 8b44 4a3e 1566 ccbe fc61 00be
000001b0: fb7e 633e 0e8b 523e 6203 97be 756b a13e
000001c0: ee45 d03e 26d7 193e fbbd 9c3e b2d1 86bd
000001d0: 78b0 b4bc 9b41 993e efd5 8f3d 1521 dc3c
000001e0: 3838 22be 3879 89be 5ace 7a3e b69e a53e
000001f0: cefb 0a3e 8814 393d 22f5 053e 9044 9c3d
00000200: ff15 5c3d 8796 443e 3249 4fbc cb17 8c3c
00000210: 65e1 983d 8629 443d e4bd aabd a068 f6be
00000220: fb96 a73d d047 aabd 60ba 90be e236 113e
00000230: 9a41 2cbd 32b0 aebe fe91 1c3e 4aab 4cbe
00000240: 1c92 c4bd a843 a53e 3011 66bd 659c d13d
00000250: 3fb0 443e 1872 4b3e 88fb 83be f09e 7abe
00000260: e741 d0be 20fd b53d d938 62be d334 963e
00000270: b04f 97bd c592 80be ac65 a5be e1df bc3d
00000280: 4a78 56bd 68e7 8e3e 21cc 8dbb 7113 c03c
00000290: e105 113e b8a3 323e 1a31 923e 1d7f 6e3d
000002a0: 97e9 03bd b78f 993d 3706 b3bd 9ea5 5fbe
000002b0: 3492 36be 7d57 423e d030 b2be b36c aabd
000002c0: cc5a 5f3e 910f 5abe 1270 03be 6a4d c3bd
000002d0: f965 30bd 3c21 0dbe 3368 8ebe 1656 703a
000002e0: 2122 97bd fb77 aa3e 02af 883e 23b9 343e
000002f0: 52ce 523e e403 05bd 40ff 57be 5a64 29be
00000300: f038 86be 37e5 45be 6e7f 563d 1f67 623e
00000310: 987e 753d 2d00 be3d 30b2 dc3e da85 933e
00000320: d5a9 7cbd 0388 9a3e a4a9 8d3c 967c 37be
00000330: d800 093e aa17 c43e 3817 b1be ced3 273c
00000340: 5178 56be 0a27 20be 4e16 db3e 9242 533e
00000350: 01f7 483c 887c 8b3e 4c11 d53e 109f 4c3d
00000360: 4309 083e 2aa5 593e 8b83 1abe 4a58 02be
00000370: 01a4 8bbd 4e41 fbbd b4a8 713d fb4d 8c3e
00000380: d85f 95bd 8958 84be 1298 923c 24c2 0d3e
00000390: 08bf 73be bfd6 1a3e 2539 7d3e 8975 e03e
000003a0: b292 403d 5902 94bd 610d b93e 1c35 803d
000003b0: 0d1f f9be f65c 923e 809e b13d 6620 78be
000003c0: 558c babd 0b27 76be 9bea 93be 62f6 503d
000003d0: 2ce2 08bd 7b30 dbbd 6479 fd3d 2356 a63c
000003e0: 828f b33d c1d3 3b3c e54c 0f3e 8ba2 b13c
000003f0: 84a6 903e 7cd5 9d3d 9fd2 87be 9b32 f23d
0.26576635 0.19923156 0.2391371 -0.32068655 0.10031167 0.08646252 0.026027758 0.12897228
0.40291783 -0.18137242 0.26770896 -0.32055855 -0.2014797 -0.13901931 -0.2465487 -0.24181841
-0.29877925 -0.009360159 0.0787664 0.07851452 -0.26273236 -0.11652624 0.28549272 0.1813986
0.076038934 -0.0080036195 -0.34062612 -0.39004973 -0.1807581 0.22231537 -0.042862743 0.31349862
-0.2504511 -0.27233723 0.07534909 -0.17397414 -0.38485783 -0.41531146 -0.06390805 0.44106942
0.07092283 0.116739914 0.26712137 -0.15821376 -0.118924424 0.44170725 0.108360335 0.06927478
0.0059270645 -0.104056455 0.22898352 0.1752777 0.1560761 -0.043693986 0.07840874 -0.4652712
-0.16515234 0.332962 -0.2736336 0.12630613 0.14155589 -0.21629006 0.31883332 0.2497644
-0.16290815 0.06597398 -0.10826018 0.13383971 -0.31711063 -0.07448527 -0.11800088 -0.07176032
-0.11742456 -0.05849914 -0.08561653 0.21244296 -0.034938395 0.12565288 -0.12058491 0.030309789
0.05590417 -0.08372764 -0.27337804 0.13259517 0.42145005 -0.2212878 0.08354059 -0.29695505
0.09633691 -0.12338407 -0.08142387 0.18500799 -0.0019247239 -0.10841811 0.4237683 -0.32227954
-0.0055204714 -0.353339 0.07632726 -0.38369322 -0.07962025 -0.29977468 0.37549275 0.17518741
0.071765244 0.1975271 -0.39921632 -0.12537378 0.22216408 0.20560858 -0.29494768 0.31527296
0.40678352 0.15023479 0.30613694 -0.06582965 -0.022056803 0.29932866 0.070232265 0.026871243
-0.15841758 -0.26850295 0.2449278 0.3234765 0.13572618 0.045185596 0.13081792 0.07630265
0.053731915 0.19198047 -0.0126517285 0.01710119 0.074648656 0.047891162 -0.08337 -0.48126698
0.08183094 -0.083144784 -0.28267193 0.14181092 -0.04205475 -0.341188 0.15290067 -0.19987217
-0.09598181 0.3227818 -0.056168735 0.10234908 0.19207858 0.19867742 -0.2577784 -0.24474692
-0.4067528 0.088861704 -0.22091998 0.29337177 -0.07388246 -0.25111976 -0.32304132 0.09222389
-0.05236081 0.27910924 -0.0043273126 0.02344677 0.14162399 0.17445266 0.28553087 0.058226693
-0.03220519 0.074981146 -0.0874142 -0.21840522 -0.1782921 0.18978687 -0.34802866 -0.08321514
0.2181198 -0.21295 -0.1283572 -0.0953625 -0.043066 -0.13782209 -0.27813873 0.0009168101
-0.073795564 0.33294663 0.2669602 0.17648749 0.20586517 -0.032474414 -0.21093464 -0.16542187
-0.26215315 -0.1932572 0.05236762 0.2210965 0.059935182 0.09277377 0.43104696 0.28813058
-0.061685402 0.30181894 0.017292805 -0.1791862 0.13379228 0.38299304 -0.34588027 0.010243369
-0.20944335 -0.15639892 0.42790455 0.20630863 0.012265922 0.27243447 0.4161476 0.04995638
0.13284783 0.21254411 -0.15089242 -0.12728992 -0.06818391 -0.12268315 0.05899878 0.27403244
-0.07293671 -0.25848797 0.017894778 0.1384359 -0.23803341 0.15120982 0.2472883 0.43839672
0.0470149 -0.0722701 0.3614302 0.0626013 -0.48656502 0.2858655 0.086728096 -0.24231109
-0.091087975 -0.24038331 -0.28889927 0.05101622 -0.03341882 -0.10702606 0.12376669 0.020304745
0.08767606 0.01146406 0.13994177 0.021683952 0.2825204 0.077067345 -0.2652788 0.118260585

conv3.fc_neigh.weight f4 [16, 16]
00000000: 888c 923e 77fb 66bd c07b 743d 775c 383e
00000010: 0c5e 5e3e dca8 513e d2c8 48be 577e 8a3e
00000020: 2c8a cd3d 4f1f ccbe 82dd 493e e049 b4be
00000030: 7d72 d53c 60ec 91be d649 9fbe 924a 2c3e
00000040: 30c9 a9be 495d 0cbf 7601 293d 32fa d23e
00000050: aff9 c93e b31e 9a3e 559a 003f 8472 933e
00000060: 8414 abbe 3013 c6be 6ee9 a1be 4a64 89be
00000070: 1606 5abe 360e 073e 6133 35be 1e76 b33e
00000080: b77d af3e 6ffe e1be 1e69 af3c 0823 edbd
00000090: 6ea6 283e 02d8 bbbd fe77 db3d 885d 3cbe
000000a0: bf24 e23e e4bb 47be ed56 b73e 13dc 2fbe
000000b0: 0c67 c03e d88f 323d 93a8 cabe 150f 92be
000000c0: 763c c6bd bc0e 92be 0813 b4bd fa96 953e
000000d0: 459d 53bf a6fd afbe 29c0 dfbe 60cb 44bc
000000e0: af52 8dbe 29cc 423e b6ed 80be 2321 01bf
000000f0: 04fc 0f3e 73fc 1a3f 7334 8cbe d669 e8bc
00000100: a08e 11bd 2c5a 873e 4005 13be dc84 053f
00000110: f31d 00be 4f47 503c 10f3 b93e da95 173d
00000120: 9759 cc3e 308a 3cbe 9cfd 75be 4f83 e23e
00000130: 8a89 c03e 749f b93d 7cf8 bbbe 0a4f de3e
00000140: eaa4 0fbd fe63 a4be ce73 453e 85ba bb3e
00000150: ed2b 1e3f 8225 92be 4b3e cf3e e979 013e
00000160: 60a0 933e 9fa7 933e c0e4 943b 9060 c23d
00000170: e82d b4be 5fb8 df3e c308 f13e bed2 eebe
00000180: 7f74 5d3e 9e26 24be 3010 683e e033 d8be
00000190: 4421 15be 5244 c6be 901b 90be 99fe 5f3e
000001a0: a276 00be c6b7 c6bd 32a5 a6be 36a0 8a3e
000001b0: 15c7 7dbe 7fbf bbbe 47bd 033e 954e 90bd
000001c0: 7cda 8a3e 41cd 57be 02c3 873e 067c 883d
000001d0: b997 8a3e 8944 c8bb 68e2 913e 9e83 cebe
000001e0: 1590 c7be 18c7 8c3e e8ee 5cbe 84bd efbd
000001f0: 7cc8 ec3d f1ea 233f a700 f73d becf e63e
00000200: a1af 65be 022f 8fbe 197c bebd 7fc1 4e3d
00000210: fa7f 85bd 5539 cb3e 69a8 c5be 27bd c3be
00000220: 0978 083f 0d46 87bd 4b5f 6abe b563 2a3e
00000230: 5508 893d f93f 083e 9d80 eebe 6583 f6be
00000240: 5ebe cabc cfc4 833e 18d0 ad3e 4988 333c
00000250: 4066 a53e b5f9 cbbe d999 063d 9988 4abe
00000260: a9f0 aabe 42ee 923d 9925 f93d 9930 213e
00000270: ef49 7fbe c548 0abc 1280 18bf f5d7 ecbe
00000280: f201 0dbe a677 85be 1e2d 95be 894d 93be
00000290: af56 a63d dc5d ccbd 4124 e93e 3c6d 793e
000002a0: 9c9a 833e 39b5 e83e ce1e 833d c5dd 08bf
000002b0: 4971 babd 48a6 1d3f 09da 01bf c657 313e
000002c0: a82a 523e feb8 47bf 7088 62bc 26bc 873e
000002d0: 9535 fc3e a291 553e d8cc bebe eeac 733e
000002e0: 1379 fc3c 07a3 1d3f 9086 d23c efea 2e3b
000002f0: 71e9 083f 5d6f 2cbd f261 61be 2831 833d
00000300: 0628 693e d165 ba3e 76e9 ba3e 104a 9abd
00000310: 9698 213d cf7f 9f3e a0fb 073f f242 a83e
00000320: 3d89 f13d 774c 08ba 0c06 c63d c546 c4bb
00000330: 0017 123f d363 f1be 1928 cabe 5f50 35bf
00000340: 1970 3ebe 72c8 a9be 8b98 f53e d016 bcbd
00000350: 3a72 9abe 05d5 8fbd 8347 cd3d 1d70 3ebe
00000360: de55 bf3e eeac a83e cccd af3e 6d39 613d
00000370: 306b 8ebe 8da9 08bf db81 8d3e 3078 243e
00000380: 9726 afbe 938e 52bd 8a60 9abd dcea a43e
00000390: 8afb 0abe 388b 503e e6d6 aebe 6449 0b3e
000003a0: 62cd aebe 175a 3a3e c285 583e e498 bd3e
000003b0: 1042 51be 9a70 7fbd 1fab 3f3e 67c3 04be
000003c0: f66f 08bf b564 133e 506e 8dbe 53da b2be
000003d0: 9b84 83bd 2c09 fbbd 2352 9a3e f8bb 89be
000003e0: 401d 8dbe f816 473e 5be6 d03d 5484 413c
000003f0: bf75 a13d df08 9cbe fddd 0f3d 5747 56be
0.28622842 -0.05639216 0.05968833 0.18004023 0.21715564 0.20474571 -0.19607857 0.27049515
0.1003612 -0.39867637 0.19713405 -0.35212612 0.026055569 -0.28500652 -0.3111102 0.16825321
-0.33161306 -0.5482984 0.04126116 0.4120651 0.39448306 0.30101547 0.5023549 0.28798306
-0.3341409 -0.38686514 -0.31623405 -0.26834327 -0.21291384 0.13189015 -0.17695381 0.35051054
0.342756 -0.4413943 0.021412428 -0.11578947 0.16469738 -0.091720596 0.10716246 -0.18395054
0.4416866 -0.19505268 0.35808507 -0.17173795 0.3757862 0.04359421 -0.39581737 -0.28527132
-0.09679501 -0.28526866 -0.087926924 0.29216748 -0.8266185 -0.34373206 -0.43701294 -0.012011379
-0.27602145 0.19023193 -0.2518136 -0.5044119 0.1406098 0.60541457 -0.27383766 -0.028370779
-0.03553641 0.26435983 -0.14357471 0.5215585 -0.12511425 0.012712314 0.36318254 0.037008144
0.39912102 -0.1841209 -0.24022526 0.44240806 0.37604934 0.090636164 -0.36713016 0.43419677
-0.035069384 -0.32107538 0.19282457 0.3666574 0.61785775 -0.2854424 0.40477213 0.12644161
0.28833294 0.28838822 0.0045438707 0.09491074 -0.35191274 0.4369535 0.47076997 -0.4664516
0.21626471 -0.16030356 0.22662425 -0.42227077 -0.14563471 -0.38724 -0.2814603 0.21874465
-0.12545255 -0.09703021 -0.3254791 0.27075356 -0.24782975 -0.36669537 0.12865172 -0.07046238
0.27119815 -0.21074392 0.26515967 0.066642806 0.2706888 -0.0061116857 0.28493047 -0.4033479
-0.38977113 0.27495646 -0.2157551 -0.11706069 0.11561677 0.6403037 0.12060671 0.4508037
-0.22430278 -0.27965552 -0.093010135 0.0504775 -0.0651855 0.39692178 -0.3860505 -0.3823025
0.5330816 -0.06605158 -0.22887914 0.16639598 0.06691042 0.13305654 -0.465825 -0.4814712
-0.024748977 0.2573609 0.33947825 0.010957786 0.32304573 -0.3983895 0.032861564 -0.1977867
-0.33386734 0.0717435 0.12165374 0.15741195 -0.24930547 -0.008440201 -0.5957042 -0.46258512
-0.13770273 -0.26067847 -0.29135984 -0.28770092 0.08122002 -0.0997884 0.45535472 0.24358076
0.25703895 0.45450762 0.0640236 -0.53463393 -0.09103639 0.6158185 -0.5072332 0.17318639
0.20524085 -0.7801665 -0.013826475 0.26510733 0.4925963 0.20856336 -0.37265658 0.23796436
0.030819451 0.61576885 0.02569893 0.0026690324 0.53481203 -0.04209839 -0.2201002 0.0640586
0.22769174 0.36405805 0.36506242 -0.075336576 0.039452158 0.31152198 0.53118324 0.32863575
0.11793754 -0.00051993824 0.09669122 -0.0059898817 0.57066345 -0.47146472 -0.39483717 -0.7082576
-0.1859745 -0.3316074 0.47967944 -0.09184039 -0.30165273 -0.07023052 0.100234054 -0.18597455
0.373702 0.32944435 0.34336698 0.054986406 -0.27816153 -0.53383714 0.27638134 0.16061473
-0.3420913 -0.0514055 -0.075379446 0.32210433 -0.13572517 0.20365608 -0.3414833 0.13602215
-0.3414107 0.18198429 0.21144775 0.3703071 -0.20435357 -0.062363245 0.18717621 -0.12965165
-0.5329584 0.14393885 -0.27623224 -0.34932193 -0.06421777 -0.12257609 0.3014079 -0.2690122
-0.27561378 0.19442356 0.10200187 0.011811335 0.078837864 -0.30475518 0.035123814 -0.20925651
