model.pth (torch, 29451 bytes, 9 tensors)

conv1.bias f4 [16]
-0.012625353 0.016787298 0.0061650067 0.031905834 0.0014172709 0.0037757817 0.001704053 0.02112684
-0.0063508954 0.00054353045 -0.0016752267 -9.883643e-05 0.0023570713 0.005558385 -0.002072632 -0.0074109444
00000000: 92da 4ebc 8485 893c d303 ca3b b1af 023d
00000010: b8c3 b93a 1b73 773b 885a df3a 3212 ad3c
00000020: 2c1b d0bb b67b 0e3a 4893 dbba 6846 cfb8
00000030: 1879 1a3b 1d23 b63b ffd4 07bb 82d7 f2bb

conv1.fc_self.weight f4 [16, 174]
0.18477413 -0.18285714 0.030001467 0.038685415 0.32495913 0.057354853 -0.29451975 -0.0035371175
-0.20548588 -0.07219407 0.022469273 -0.25780344 0.15012279 0.08673333 0.091085486 -0.17869559
-0.010190225 -0.027229289 -0.06753632 -0.15994419 0.083133474 0.03341301 -0.0017618036 0.052143518
0.048339996 -0.089920186 0.018438106 0.05145221 -0.09673426 -0.0073467935 -0.1666413 -0.29348284
0.15555698 0.17108162 0.11582352 0.2541212 0.18541427 0.122527 0.1651511 0.113502964
0.20363094 -0.018782856 0.26254317 0.11074836 0.087259024 0.016591359 -0.040791076 0.3907346
0.12973182 0.016804017 0.16707765 -0.0011750078 -0.0124208685 -0.26912513 -0.0555703 0.0068291086
-0.18384919 -0.21823587 -0.06683634 -0.065302156 0.11054 -0.38923654 0.063562214 0.07607706
0.13632208 -0.006765887 0.12994076 0.07377739 0.24612518 0.1439724 -0.08272753 -0.08781204
-0.122061945 0.037832618 0.013410698 -0.01435703 0.024836736 0.07209744 0.09485623 -0.08986865
-0.11141422 -0.21770428 -0.11394489 0.19919716 -0.005540905 -0.02842545 -0.087148696 -0.106018506
-0.022080649 0.10261186 -0.20038474 -0.10464919 0.041551426 0.10406799 0.010961287 0.047192987
-0.17701854 -0.32949558 0.07136362 -0.005641766 0.20956862 0.22558723 -0.059189245 0.21935149
-0.0178042 0.14541548 -0.13032575 -0.16219176 0.3542497 -0.031106314 -0.21094492 0.31202465
0.1948741 0.1762632 0.2884665 0.14128734 -0.08328489 0.11084088 -0.06513598 0.1374671
-0.09984563 -0.010677671 -0.21161802 -0.27795905 -0.16829804 -0.17791373 -0.31374645 -0.18642151
-0.1014579 -0.14311475 -0.40271682 -0.19247727 -0.107762404 -0.2624951 -0.004534244 -0.063212484
0.050773267 -0.050767917 0.13413717 0.03455206 -0.16662693 -0.20196778 -0.17642836 -0.16592485
-0.061664987 -0.13023724 -0.121597916 -0.28485662 -0.16802537 -0.220433 0.20416278 -0.2883143
-0.048789844 -0.121345356 0.36200768 -0.0793303 0.1336123 -0.0032007836 0.04698692 -0.032747503
-0.12804633 -0.0103608 0.16781884 -0.1693463 0.24870764 0.12207284 -0.09284955 -0.0866453
-0.064039856 0.058319252 0.008035299 0.13582772 0.09797363 -0.08437814 -0.085039005 -0.054110955
0.021060135 -0.12495365 -0.0781723 0.043965615 -0.009449931 -0.25247553 -0.059594978 -0.05720557
-0.14989422 -0.084759384 0.040607862 0.034514677 0.13963848 -0.045382507 -0.007994149 -0.13653055
-0.2059791 -0.08475357 -0.36347064 -0.037233185 0.025648238 0.013586339 -0.010617716 -0.13129815
-0.08325029 -0.25272915 0.010673169 0.031788033 0.0051749186 0.13259652 0.0111815175 0.08777521
0.10534035 -0.021894237 -0.15344106 -0.053404476 0.07397306 0.10837193 0.07428053 0.09852307
-0.0031803795 -0.05110501 0.03668451 -0.004707884 -0.07495143 0.16917768 0.20305878 0.17727624
-0.08913295 -0.12203212 0.11150265 -0.042812526 0.21075836 0.043273967 -0.14436409 -0.14981803
-0.03182967 -0.21245356 -0.01157236 -0.0048183654 -0.35819843 -0.041385975 0.107952975 0.026285963
0.0011665891 0.08140342 0.10168149 -0.1501917 0.031518847 0.0040271864 -0.061555907 0.079726905
0.107977934 -0.06239454 -0.09965859 -0.03988695 0.020619737 0.051621143 0.08659371 -0.23895362
00000000: 6e35 3d3e e73e 3bbe a3c5 f53c 9974 1e3d
00000010: 0b61 a63e ecec 6a3d 4bcb 96be fcce 67bb
00000020: e46a 52be 7cda 93bd 7b11 b83c d0fe 83be
00000030: cab9 193e 3ea1 b13d 078b ba3d fafb 36be
00000040: e7f4 26bc f50f dfbc 7b50 8abd 69c8 23be
00000050: e241 aa3d 15dc 083d 52ec e6ba 7194 553d
00000060: 2900 463d 1328 b8bd 830b 973c 8dbf 523d
00000070: 9d1c c6bd 5fbd f0bb 04a4 2abe 6243 96be
00000080: 544a 1f3e 0530 2f3e e234 ed3d 2d1c 823e
00000090: 3ddd 3d3e 70ef fa3d 5f1d 293e 3e74 e83d
000000a0: a184 503e 81de 99bc 0f6c 863e 09d0 e23d
000000b0: dcb4 b23d 9aea 873c 8b14 27bd 5e0e c83e
000000c0: 6bd8 043e 94a8 893c 6716 2b3e b802 9aba
000000d0: e680 4bbc c5ca 89be af9d 63bd b7c6 df3b
000000e0: f642 3cbe 3979 5fbe 7ee1 88bd 23bd 85bd
000000f0: cc62 e23d 034a c7be e82c 823d 4ace 9b3d
00000100: 0498 0b3e 60b4 ddbb 310f 053e 9a18 973d
00000110: 3d08 7c3e 806d 133e 0d6d a9bd ccd6 b3bd
00000120: 9dfb f9bd 60f6 1a3d 8bb8 5b3c c039 6bbc
00000130: 6976 cb3c d3a7 933d fc43 c23d 0e0d b8bd
00000140: 232d e4bd dfed 5ebe f05b e9bd 57fa 4b3e
00000150: 7b90 b5bb 7ddc e8bc 047b b2bd 3b20 d9bd
00000160: 7ae2 b4bc 2b26 d23d a831 4dbe 5152 d6bd
00000170: d431 2a3d 9921 d53d f896 333c 6f4d 413d
00000180: 5944 35be a5b3 a8be 1727 923d 90de b8bb
00000190: 2899 563e 5700 673e 6c70 72bd ad9d 603e
000001a0: 1dda 91bc cce7 143e 1d74 05be 9915 26be
000001b0: 3760 b53e abd2 febc f201 58be b2c1 9f3e
000001c0: 138d 473e 577e 343e e2b1 933e a1ad 103e
000001d0: 4591 aabd 8b00 e33d 0366 85bd 2dc4 0c3e
000001e0: de7b ccbd 66f1 2ebc 65b2 58be a650 8ebe
000001f0: 5256 2cbe 042f 36be 60a3 a0be 48e5 3ebe
00000200: 29c9 cfbd ac8c 12be e630 cebe c318 45be
00000210: 89b2 dcbd c265 86be ff93 94bb 8c75 81bd
00000220: a1f7 4f3d 05f2 4fbd 415b 093e 7686 0d3d
00000230: 40a0 2abe a4d0 4ebe a3a9 34be 34e8 29be
00000240: 6d94 7cbd e95c 05be 5408 f9bd bad8 91be
00000250: d80e 2cbe 30b9 61be 0c10 513e ef9d 93be
00000260: dcd7 47bd ea83 f8bd 1259 b93e ed77 a2bd
00000270: aad1 083e 3dc4 51bb 5b75 403d 3f22 06bd
00000280: 941e 03be 58c0 29bc b4d8 2b3e 1e69 2dbe
00000290: 37ad 7e3e 5301 fa3d e827 bebd 1773 b1bd
000002a0: 5427 83bd 2be0 6e3d 7da6 033c 6c16 0b3e
000002b0: 66a6 c83d 72ce acbd ee28 aebd 73a3 5dbd
000002c0: 4e86 ac3c b3e7 ffbd cc18 a0bd 4a15 343d
000002d0: e2d3 1abc 7944 81be dd19 74bd 6350 6abd
000002e0: df7d 19be 5496 adbd 6e54 263d 435f 0d3d
000002f0: 64fd 0e3e 02e3 39bd e4f9 02bc aace 0bbe
00000300: 2fec 52be 4893 adbd d318 babe d381 18bd
00000310: 411c d23c 3c99 5e3c eef5 2dbc 0673 06be
00000320: 217f aabd b765 81be 84de 2e3c 2b34 023d
00000330: 5d92 a93b 62c7 073e af32 373c 7dc3 b33d
00000340: aebc d73d 8b5b b3bc a71f 1dbe a7be 5abd
00000350: 307f 973d 1af2 dd3d 6420 983d 77c6 c93d
00000360: ea6d 50bb 7d53 51bd 7f42 163d 9844 9abb
00000370: 2380 99bd ea3c 2d3e a4ee 4f3e e787 353e
00000380: 568b b6bd faeb f9bd 805b e43d 305c 2fbd
00000390: 0ad1 573e 0b40 313d 2ed4 13be e669 19be
000003a0: d45f 02bd 6d8d 59be ff99 3dbc 61e3 9dbb
000003b0: c965 b7be 5784 29bd 7316 dd3d a955 d73c
000003c0: 3ce8 983a d6b6 a63d 633e d03d dacb 19be
000003d0: e819 013d 7df6 833b 0c22 7cbd dc47 a33d
000003e0: 8923 dd3d 6b91 7fbd ce19 ccbd 8060 23bd
000003f0: b9ea a83c b170 533d 0b58 b13d 42b0 74be

conv1.fc_neigh.weight f4 [16, 174]
0.342236 -0.39536524 0.34121117 0.26682344 0.31555054 0.20673664 -0.34590077 0.06648756
-0.25763994 -0.15929678 0.105064526 0.20501664 0.10716331 -0.05181904 -0.29846567 -0.32413757
0.08927214 0.13006969 0.1964871 -0.19808254 0.0010861533 0.14464766 0.14001095 0.1574958
-0.028844833 0.21869855 0.107222095 0.31203097 -0.15094052 0.11245986 -0.25093284 -0.2278453
0.12348848 -0.070950545 -0.023299133 0.062291775 0.00800669 0.21103682 -0.09158559 -0.16175024
-0.05780527 -0.3786113 0.27613637 -0.09652167 -0.08794385 0.051847868 -0.356531 0.70966345
-0.03272421 -0.34294754 -0.040250465 -0.23537102 0.20917612 -0.07697404 0.1837577 0.0040857927
-0.008739182 -0.062842764 0.22243267 -0.02773094 0.25540838 -0.6094539 -0.03326589 0.051600497
0.008920369 -0.039864875 0.034172725 -0.24911249 0.121162176 0.12602876 0.19517495 -0.26494527
-0.021104638 0.1272622 0.06872938 0.005717648 0.3700688 0.10689279 0.0067163194 -0.2089785
-0.056005813 -0.3177541 -0.101807185 0.22721627 -0.03762165 0.047706414 -0.37772903 -0.07660897
-0.18917008 0.13280359 0.14498167 -0.3279457 0.14219424 0.069776475 0.13605902 0.22250111
-0.21620408 -0.5533568 0.10988441 -0.09082447 0.23193188 0.25702846 -0.15524513 0.07028018
-0.27891004 -0.031309184 -0.3489614 -0.32460934 0.19213894 -0.31326777 -0.3486382 -0.023898775
0.22729991 0.1281744 0.4494091 0.22600195 -0.12261883 0.035128836 0.06742841 0.082469776
-0.09811682 0.11568972 -0.09313309 -0.23253953 0.12633945 0.10070327 -0.48165873 -0.056493305
-0.02997193 -0.15791202 -0.36975688 -0.28143618 0.12891029 -0.17076978 0.221964 0.09305355
0.08715209 -0.027163815 0.1624474 0.26596805 -0.14224935 -0.08970003 0.058597744 0.080279626
-0.008656162 -0.09550588 0.059611708 -0.23348701 0.039195612 -0.046773385 0.7446845 -0.40880007
-0.12700155 0.039587855 -0.37777224 0.021376012 0.12488008 0.21370299 0.26282752 -0.02496663
-0.31328878 -0.05374334 0.20637986 -0.30329642 0.028074896 0.052774593 -0.22049685 -0.29746503
-0.13891369 -0.19646052 0.06394881 0.067016855 0.10567736 0.10045573 0.16161765 0.12227075
0.04541216 -0.015470073 -0.016249279 0.0056537306 0.02196456 -0.31024343 0.16300647 -0.052866478
-0.00031466634 0.21656892 -0.15288943 -0.065340094 0.14643192 0.25020504 -0.049653627 -0.22084038
-0.2111736 0.1572232 -0.048882477 0.18678017 0.10729793 -0.123283274 0.19774763 -0.33406052
-0.020759562 -0.033262767 0.2149251 0.38909322 0.013827503 0.0026382199 -0.05469156 0.14527224
0.076444075 0.02540882 -0.16295537 0.04450008 -0.06567747 0.13129777 0.07617999 0.17572773
0.17263527 0.32116842 -0.027202055 -0.0068961806 0.10897124 0.2396873 0.08191413 0.23286332
-0.01048367 -0.061261266 0.0011729725 -0.100328974 0.32120448 -0.15797982 -0.31133163 -0.0788524
-0.08960975 -0.06814659 0.056466732 0.4098584 -0.3900165 0.10188186 0.31636286 -0.31748256
0.140697 -0.040708765 -0.0995709 0.062788576 -0.031424038 -0.09586041 0.12217191 0.07676787
0.2195912 -0.0034248321 -0.10595392 -0.037389144 0.03463252 0.0861541 0.28658837 -0.42264596
00000000: 8f39 af3e 506d cabe 3bb3 ae3e 159d 883e
00000010: d78f a13e c5b2 533e e819 b1be a12a 883d
00000020: 62e9 83be b21e 23be 122c d73d e2ef 513e
00000030: 7078 db3d 3440 54bd 7ed0 98be 5cf5 a5be
00000040: 50d4 b63d fd30 053e ea33 493e 26d6 4abe
00000050: 425d 8e3a 841e 143e 085f 0f3e 9446 213e
00000060: 004c ecbc 83f2 5f3e 4297 db3d 86c2 9f3e
00000070: 2790 1abe 5b51 e63d 457a 80be 4750 69be
00000080: 87e7 fc3d 854e 91bd d3dd bebc a925 7f3d
00000090: 7e2e 033c 091a 583e 3a91 bbbd dba1 25be
000000a0: 38c5 6cbd 57d9 c1be bf61 8d3e 27ad c5bd
000000b0: e81b b4bd 6e5e 543d 3b8b b6be 81ac 353f
000000c0: d209 06bd d296 afbe acdd 24bd 1a05 71be
000000d0: 4432 563e 91a4 9dbd fa2a 3c3e 1de2 853b
000000e0: c92e 0fbc b5b3 80bd 64c5 633e ff2b e3bc
000000f0: e3c4 823e 2c05 1cbf d041 08bd 0b5b 533d
00000100: bd26 123c 5a49 23bd b3f8 0b3d 5817 7fbe
00000110: e023 f83d af0d 013e f1db 473e e8a6 87be
00000120: a2e3 acbc 0651 023e fdc1 8c3d 1c5b bb3b
00000130: a879 bd3e 9bea da3d 9214 dc3b 76fe 55be
00000140: 5a66 65bd aab0 a2be 4980 d0bd 62ab 683e
00000150: 2919 1abd cd67 433d b365 c1be 2ae5 9cbd
00000160: cdb5 41be aafd 073e 1376 143e 80e8 a7be
00000170: 5e9b 113e f8e6 8e3d 0e53 0b3e 55d7 633e
00000180: 9a64 5dbe cba8 0dbf 140b e13d 2e02 babd
00000190: 8d7f 6d3e 3c99 833e 94f8 1ebe 0eef 8f3d
000001a0: 4ccd 8ebe 0f3e 00bd 12ab b2be 3233 a6be
000001b0: 12c0 443e a264 a0be b580 b2be 5dc7 c3bc
000001c0: 4fc1 683e 2640 033e f318 e63e 0e6d 673e
000001d0: 951f fbbd 41e3 0f3d e817 8a3d eae5 a83d
000001e0: 79f1 c8bd bbee ec3d 90bc bebd d81e 6ebe
000001f0: 215f 013e 843d ce3d f99b f6be 8665 67bd
00000200: b187 f5bc b0b3 21be c650 bdbe 6718 90be
00000210: 0f01 043e 46de 2ebe 884a 633e dc92 be3d
00000220: cc7c b23d a686 debc 9c58 263e f72c 883e
00000230: d0a9 11be a6b4 b7bd 3004 703d a569 a43d
00000240: 93d2 0dbc 9698 c3bd 682b 743d 3817 6fbe
00000250: 948b 203d 7395 3fbd a5a3 3e3f 3e4e d1be
00000260: b20c 02be e026 223d 5d6b c1be bf1c af3c
00000270: 21c1 ff3d f5d4 5a3e 5491 863e d186 ccbc
00000280: 6367 a0be fa21 5cbd 3e55 533e ab49 9bbe
00000290: 53fd e53c 2c2a 583d edc9 61be 564d 98be
000002a0: 643f 0ebe f22c 49be 98f7 823d 2240 893d
000002b0: 5f6d d83d bcbb cd3d 197f 253e 1669 fa3d
000002c0: 1a02 3a3d 3076 7dbc 351d 85bc ee42 b93b
000002d0: 05ef b33c 3ad8 9ebe 2beb 263e 858a 58bd
000002e0: cdf9 a4b9 3ec4 5d3e 0c8f 1cbe 07d1 85bd
000002f0: 40f2 153e e01a 803e 9a61 4bbd fb23 62be
00000300: e43d 58be 1eff 203e fe38 48bd 4d43 3f3e
00000310: 04bf db3d f17b fcbd 5b7e 4a3e fb09 abbe
00000320: f50f aabc 8a3e 08bd 5315 5c3e 3a37 c73e
00000330: c08c 623c fce5 2c3b 4204 60bd 3fc2 143e
00000340: b68e 9c3d 2826 d03c c6dd 26be b745 363d
00000350: e981 86bd ec72 063e 4104 9c3d f8f1 333e
00000360: 4dc7 303e 3070 a43e d8d6 debc 5bf9 e1bb
00000370: 502c df3d 9670 753e 98c2 a73d b973 6e3e
00000380: b3c3 2bbc 18ed 7abd 6dbe 993a 4779 cdbd
00000390: ea74 a43e 76c5 21be dc66 9fbe 5e7d a1bd
000003a0: 5185 b7bd 7090 8bbd a949 673d f6d8 d13e
000003b0: 3eb0 c7be 70a7 d03d 50fa a13e 138d a2be
000003c0: e012 103e 3cbe 26bd d4eb cbbd 4c97 803d
000003d0: 7eb6 00bd 7652 c4bd 4435 fa3d 7938 9d3d
000003e0: 84dc 603e 2673 60bb 5efe d8bd 5c25 19bd
000003f0: d4da 0d3d 9071 b03d b6bb 923e 0d65 d8be

conv2.bias f4 [16]
0.00071263063 0.0017170653 -0.0029682599 0.004710516 0.0059728143 -0.0037001753 -0.00020595988 -0.005445822
0.002184025 0.005951233 -0.006617148 0.006767938 -0.0068744933 0.012560075 0.0032181116 0.0020976146
00000000: d5cf 3a3a 270f e13a 2387 42bb ac5a 9a3b
00000010: 99b7 c33b a47e 72bb eff6 57b9 de72 b2bb
00000020: dc21 0f3b 9002 c33b a9d4 d8bb 94c5 dd3b
00000030: 6e43 e1bb c6c8 4d3c f4e6 523b 2278 093b

conv2.fc_self.weight f4 [16, 16]
0.1767686 -0.010496101 -0.09583032 -0.18960746 -0.09373206 -0.21781038 -0.22439964 0.12522873
-0.24062036 0.015117345 0.20332211 -0.7084539 0.2968133 -0.099987976 -0.116176926 -0.23321836
0.14653131 0.2485964 0.25087702 -0.16023077 -0.23647813 0.19478205 0.19379215 0.17232084
0.21042006 -0.31542853 0.3985619 0.188475 0.41863304 -0.42821127 -0.08438436 -0.1152471
0.22738935 0.42988864 -0.13550308 -0.35917205 0.055918477 0.13527478 -0.09155669 0.66902816
-0.38183394 0.18832801 0.26489565 -0.23504734 0.027991379 -0.05936118 -0.40378022 -0.15550002
-0.57514894 0.37043697 -0.07192367 -0.14216177 0.3016384 0.23582304 -0.28143236 0.408937
0.4147218 0.36778057 -0.16792217 0.41690975 0.13512208 -0.1295482 0.18662885 -0.29118732
-0.14063396 -0.21782118 -0.12593281 0.42127898 0.13211294 -0.56477815 -0.30173433 0.08541985
-0.06968799 0.1998342 0.38889912 0.08525786 0.3100638 0.37962458 -0.23912647 -0.32564437
0.3937431 0.04355346 -0.14915179 -0.5540073 -0.22320256 -0.16571622 -0.21314631 0.11462225
0.11806272 0.09504608 0.43623725 -0.24899192 0.06731864 0.41735303 0.19826497 0.40381292
-0.3473897 -0.32107976 -0.383753 -0.22834215 -0.19263035 -0.02418118 -0.12212286 -0.41093463
-0.1730814 -0.3104655 0.3868133 0.22805443 0.19756298 0.43277118 0.31200856 0.1334554
0.30905268 0.20034364 0.17246467 -0.4361685 0.035440803 -0.3334489 0.20078635 -0.21728131
-0.3840691 -0.3470718 0.28040546 0.20583056 0.14844805 0.5125658 0.31019932 0.35464737
0.22842695 0.44231895 -0.37595487 -0.2541668 -0.46921623 -0.086131595 0.09337726 0.1612661
0.16195947 0.40005907 -0.3136919 -0.09511465 0.26398647 0.0016459073 -0.39967975 0.24539992
-0.3633289 -0.17786242 0.27345735 0.17065889 -0.009748134 -0.3833089 0.26362002 -0.2630652
-0.010990339 -0.23151979 -0.41004744 0.08509853 -0.18252449 0.6227495 0.5573036 0.0012271792
-0.3240077 0.3536993 -0.37360182 -0.39025024 0.06969746 0.18108006 -0.47050655 0.15506165
-0.08647813 -0.07504714 0.24654247 0.3506835 0.4233794 -0.03777746 0.07979213 -0.30930978
0.08977877 0.32459632 0.3579061 0.17046374 0.29181904 -0.3628649 0.41495535 -0.12743632
-0.279803 0.21484026 -0.016531155 -0.18050805 0.03697605 0.41384408 0.34044024 -0.37411666
0.0059212777 0.122162126 -0.11584613 -0.062597446 -0.01625497 0.16503884 0.30343503 0.23789898
0.2627724 -0.06142452 -0.117972225 -0.2845179 0.61878234 0.093515255 -0.42575702 -0.476416
-0.1648936 -0.08716057 -0.64881724 0.02207047 0.1380766 0.25026396 -0.2757008 -0.097973794
-0.4705526 -0.4481782 0.07648751 0.21537587 -0.09533048 0.13138844 0.08975645 0.42703572
-0.18719742 0.18589756 -0.3050566 -0.085109614 -0.0084580835 0.38296887 -0.19833933 0.3143102
-0.39442477 -0.13618368 -0.25356296 0.24118443 -0.36600012 -0.14849375 -0.3818229 0.20389181
-0.16290882 0.017204152 -0.3036967 0.083714955 0.13080569 -0.4693622 -0.20253466 -0.08001174
0.21101415 0.11182234 0.35012817 0.06263672 -0.14438999 0.51748556 -0.056310676 0.3809525
00000000: d402 353e d7f7 2bbc b042 c4bd 7528 42be
00000010: 98f6 bfbd af09 5fbe 05c9 65be f63b 003e
00000020: 2f65 76be beae 773c ac33 503e 3c5d 35bf
00000030: eaf7 973e 7fc6 ccbd 2bee edbd cbd0 6ebe
00000040: 4e0c 163e 0e90 7e3e f472 803e 8913 24be
00000050: 5327 72be f274 473e 7371 463e e074 303e
00000060: 5b78 573e d97f a1be 4e10 cc3e 97ff 403e
00000070: 1257 d63e 823e dbbe b5d1 acbd ac06 ecbd
00000080: c1d8 683e 5d1a dc3e 52c1 0abe 66e5 b7be
00000090: c60a 653d 7985 0a3e 1382 bbbd 6e45 2b3f
000000a0: bd7f c3be 0fd9 403e 67a0 873e 40b0 70be
000000b0: 2d4e e53c b524 73bd 48bc cebe 663b 1fbe
000000c0: f63c 13bf eaa9 bd3e b84c 93bd db92 11be
000000d0: 5970 9a3e 987b 713e e717 90be 3160 d13e
000000e0: 6a56 d43e bc4d bc3e caf3 2bbe 3275 d53e
000000f0: 715d 0a3e 49a8 04be a21b 3f3e 8116 95be
00000100: 5902 10be 840c 5fbe 88f4 00be e1b1 d73e
00000110: 9d48 073e 4d95 10bf ec7c 9abe 9af0 ae3d
00000120: 94b8 8ebd 56a1 4c3e c91d c73e ac9b ae3d
00000130: afc0 9e3e 275e c23e 92dd 74be dcba a6be
00000140: b298 c93e 1d65 323d 3fbb 18be 6cd3 0dbf
00000150: 368f 64be 83b1 29be 0743 5abe 12bf ea3d
00000160: deca f13d 85a7 c23d 7d5a df3e bdf7 7ebe
00000170: 5bde 893d 4caf d53e f905 4b3e 91c0 ce3e
00000180: 10dd b1be 9164 a4be 467b c4be 86d2 69be
00000190: e440 45be 9c17 c6bc 8d1b fabd 0666 d2be
000001a0: 403c 31be 56f5 9ebe 650c c63e 1a87 693e
000001b0: f34d 4a3e 2f94 dd3e 96bf 9f3e 88a8 083e
000001c0: 273c 9e3e e226 4d3e 949a 303e 7a51 dfbe
000001d0: 602a 113d d0b9 aabe f09a 4d3e fe7e 5ebe
000001e0: b4a4 c4be 65b3 b1be 4e91 8f3e 3fc5 523e
000001f0: c402 183e 8337 033f 72d2 9e3e 5794 b53e
00000200: c1e8 693e a177 e23e 287d c0be 2722 82be
00000210: 1c3d f0be c365 b0bd 943c bf3d f122 253e
00000220: b4d8 253e 8bd4 cc3e 3a9c a0be 78cb c2bd
00000230: 3c29 873e 7cbb d73a d3a2 ccbe 1e4a 7b3e
00000240: 3f06 babe 9121 36be 9a02 8c3e 34c1 2e3e
00000250: a3b6 1fbc 1041 c4be 34f9 863e 7bb0 86be
00000260: d310 34bc 8613 6dbe bdf1 d1be 2348 ae3d
00000270: b3e7 3abe 836c 1f3f 73ab 0e3f 4dd9 a03a
00000280: 56e4 a5be 1318 b53e bd48 bfbe e1ce c7be
00000290: 8bbd 8e3d 0d6d 393e 3ce6 f0be 7bc8 1e3e
000002a0: 721b b1bd 51b2 99bd a175 7c3e ca8c b33e
000002b0: 2fc5 d83e 8abc 1abd 0e6a a33d da5d 9ebe
000002c0: efdd b73d 7d31 a63e 783f b73e 0c8e 2e3e
000002d0: 4e69 953e 6ec9 b9be 0775 d43e ab7e 02be
000002e0: 5742 8fbe 16ff 5b3e 586c 87bc 1ad7 38be
000002f0: 3374 173d 5fe3 d33e 2f4e ae3e 388c bfbe
00000300: 4707 c23b 2330 fa3d bc40 edbd 1733 80bd
00000310: 2529 85bc f1ff 283e d65b 9b3e ca9b 733e
00000320: 1b8a 863e 4798 7bbd 6c9b f1bd 55ac 91be
00000330: 8568 1e3f ed84 bf3d d3fc d9be ccec f3be
00000340: ded9 28be 3e81 b2bd e318 26bf 21cd b43c
00000350: f463 0d3e 9922 803e a828 8dbe 7ca6 c8bd
00000360: 45ec f0be 9d77 e5be 7ca5 9c3d 7e8b 5c3e
00000370: a03c c3bd b18a 063e 3bd2 b73d 6da4 da3e
00000380: aeb0 3fbe ee5b 3e3e 6130 9cbe f34d aebd
00000390: c693 0abc 7f14 c43e 7719 4bbe 44ed a03e
000003a0: 0bf2 c9be bc73 0bbe 01d3 81be 0df9 763e
000003b0: 5e64 bbbe bf0e 18be 4b7e c3be 04c9 503e
000003c0: 92d1 26be b9ef 8c3c 227e 9bbe bf72 ab3d
000003d0: edf1 053e 3e50 f0be 3f65 4fbe 32dd a3bd
000003e0: 1814 583e 1c03 e53d 0044 b33e ae47 803d
000003f0: f8da 13be ef79 043f 06a6 66bd 350c c33e

conv2.fc_neigh.weight f4 [16, 16]
-0.42134082 0.50131637 0.09358962 0.3811414 0.104147814 -0.34402627 -0.5283604 -0.112672105
-0.15522493 -0.47956982 -0.21289054 -0.4770086 0.43618813 -0.30811962 0.7179005 0.54606855
0.10232533 -0.4428619 0.035896678 0.21535158 -0.10022531 0.23509653 0.3276485 0.049838044
0.2116828 0.11733409 0.36279795 0.2353738 0.04958241 -0.736512 -0.09820653 -0.6602922
-0.37275818 0.14190362 0.21299946 0.54917645 0.19051716 -0.19411486 0.4207162 0.20190838
-0.104204826 -0.48929787 0.074783266 -0.7696234 -0.5674259 -0.5497773 -0.19973871 -0.093675904
-0.5410652 0.08196723 -0.41766384 -0.52995294 0.579597 -0.3164025 0.44774428 0.6021106
0.041001208 -0.35365477 -0.56394696 0.079674445 0.19554533 -0.026522955 0.5045986 0.26159406
-0.11963521 0.052031342 0.6870977 -0.0016507548 0.5002341 -0.54080284 -0.119625844 0.27623308
0.6976243 0.6185113 -0.48294142 0.5172382 -0.063483775 -0.41336346 -0.16070691 0.32042524
0.21676685 -0.39837524 0.3252239 -0.13699509 -0.35353217 0.456874 0.3523646 0.28811935
0.68320954 0.65587085 0.35624146 -0.527496 -0.45011503 0.21559991 -0.537475 0.07140832
-0.0015385059 -0.43155628 -0.02758377 -0.042534832 0.14441489 0.3647359 0.33997637 -0.304225
-0.08998831 -0.0070057083 -0.3717408 0.20986357 -0.2716183 0.6000531 -0.2119749 -0.3892139
0.4440563 -0.41262436 0.42167825 -0.45996276 0.31484297 -0.15915069 0.7383536 -0.07280304
0.24696648 0.45879456 0.3147495 -0.13070051 -0.041573286 0.117796846 -0.23673733 0.15300347
0.18034334 0.8129803 -0.004060474 0.58287084 -0.42002508 -0.2885835 -0.014952069 0.28325713
0.4115842 -0.30343127 -0.6862328 -0.30344898 -0.20902824 -0.0137965875 0.16142134 -0.36887822
-0.6391187 -0.7426396 -0.06387506 -0.002710687 0.67576486 -0.18794334 0.067719266 -0.22786538
0.10425102 0.054860797 -0.05905384 -0.6215551 0.5009293 0.86545825 -0.49099037 -0.11119031
0.17561431 -0.044694256 -0.25481558 -0.79612744 0.6301613 -0.22413217 -0.23619194 -0.316503
0.027196717 0.3044919 -0.5630521 0.15793215 -0.09387618 -0.31557754 -0.30975702 -0.7157222
-0.42910674 0.011668246 0.6862899 0.30493888 0.44429648 0.34874856 0.27686104 -0.107471086
-0.5631938 -0.24700199 0.28404862 -0.057912003 0.52703404 0.1850906 0.121764556 0.17280194
0.30839646 -0.2984429 -0.45785865 -0.15493447 -0.59552205 -0.30759078 0.20740415 0.71300894
-0.45825407 -0.34147942 0.24115035 -0.29903218 0.7278435 0.23762685 0.036404975 -0.39875308
0.4938593 0.46590152 -0.43724167 0.5407627 0.68941057 -0.31457183 -0.3294496 0.36190668
-0.2408457 0.3249185 0.15799616 0.17951907 0.21330237 0.6247862 0.007569983 0.09587451
-0.21472669 -0.16882595 -0.033607394 0.13492888 -0.5163051 -0.17806578 0.49457076 0.22915992
-0.37173674 -0.10732603 -0.24140921 0.5927658 -0.18621017 0.006265112 -0.27016264 0.3081954
0.5021322 -0.053674273 0.29681802 -0.003729058 0.8049131 -0.45891634 0.0047001755 0.17887016
0.20590022 -0.6958661 -0.6240636 -0.46005115 -0.5636331 -0.1565953 -0.3404896 0.07685991
00000000: fcb9 d7be 4556 003f eaab bf3d f724 c33e
00000010: 734b d53d 3624 b0be a142 07bf a2c0 e6bd
00000020: 49f3 1ebe 2d8a f5be faff 59be 793a f4be
00000030: 0d54 df3e dbc1 9dbe 54c8 373f 26cb 0b3f
00000040: f18f d13d ccbe e2be 6508 133d 2085 5c3e
00000050: ed42 cdbd 25bd 703e 8bc1 a73e fa22 4c3d
00000060: 60c3 583e db4c f03d a7c0 b93e d405 713e
00000070: ed16 4b3d 0d8c 3cbf 8120 c9bd e908 29bf
00000080: 29da bebe 2f4f 113e 881c 5a3e d496 0c3f
00000090: ee16 433e 0cc6 46be 1d68 d73e 12c1 4e3e
000000a0: 5769 d5bd 4085 fabe f827 993d 0a06 45bf
000000b0: d342 11bf 35be 0cbf 4e88 4cbe 27d9 bfbd
000000c0: 4083 0abf 6fde a73d 09d8 d5be ffaa 07bf
000000d0: 7860 143f 82ff a1be bd3e e53e ec23 1a3f
000000e0: e2f0 273d 3d12 b5be d45e 10bf 5b2c a33d
000000f0: 093d 483e ab46 d9bc 602d 013f a8ef 853e
00000100: 4e03 f5bd d11e 553d a3e5 2f3f 245e d8ba
00000110: 580f 003f 0e72 0abf 65fe f4bd 6c6e 8d3e
00000120: 8297 323f c256 1e3f 1944 f7be b969 043f
00000130: c803 82bd 60a4 d3be 5a90 24be c70e a43e
00000140: 21f8 5d3e d7f7 cbbe bf83 a63e 7148 0cbe
00000150: 2b02 b5be 64eb e93e 2269 b43e 6184 933e
00000160: d2e6 2e3f 27e7 273f 4865 b63e fa09 07bf
00000170: 7a75 e6be 39c6 5c3e f697 09bf 863e 923d
00000180: b1a7 c9ba f2f4 dcbe 5cf7 e1bc 0139 2ebd
00000190: 7fe1 133e aabe ba3e 6211 ae3e 61c3 9bbe
000001a0: cb4b b8bd 2490 e5bb cf54 bebe 7ae6 563e
000001b0: 8e11 8bbe 149d 193f f30f 59be 0b47 c7be
000001c0: 595b e33e 8043 d3be 36e6 d73e 3d80 ebbe
000001d0: 1933 a13e 66f8 22be be04 3d3f c319 95bd
000001e0: c8e4 7c3e 1fe7 ea3e d926 a13e 5bd6 05be
000001f0: c048 2abd 793f f13d 456b 72be f1ac 1c3e
00000200: edab 383e 7a1f 503f ba0d 85bb 0637 153f
00000210: 870d d7be 37c1 93be 86f9 74bc 1407 913e
00000220: 2abb d23e 585b 9bbe f4ac 2fbf aa5d 9bbe
00000230: 800b 56be 150b 62bc a34b 253e 9bdd bcbe
00000240: 489d 23bf a11d 3ebf edd0 82bd c8a5 31bb
00000250: edfe 2c3f 3874 40be 66b0 8a3d 8b55 69be
00000260: 8f81 d53d b7b5 603d 70e2 71bd 3c1e 1fbf
00000270: e73c 003f ac8e 5d3f 1763 fbbe bfb7 e3bd
00000280: 3dd4 333e 5311 37bd 3077 82be 02cf 4bbf
00000290: 4052 213f e782 65be 4ddc 71be ae0c a2be
000002a0: a6cb de3c 5de6 9b3e 2f24 10bf f7b8 213e
000002b0: 2842 c0bd 6193 a1be 7998 9ebe 9239 37bf
000002c0: e1b3 dbbe 2c2c 3f3c b2b0 2f3f f320 9c3e
000002d0: d47a e33e 2c8f b23e bbc0 8d3e cd19 dcbd
000002e0: 782d 10bf 17ee 7cbe d26e 913e 2335 6dbd
000002f0: b4eb 063f 6488 3d3e b25f f93d fef2 303e
00000300: 24e6 9d3e 82cd 98be 736c eabe 24a7 1ebe
00000310: 2274 18bf 8a7c 9dbe c161 543e c187 363f
00000320: 47a0 eabe 64d6 aebe 1ef0 763e bf1a 99be
00000330: f453 3a3f 7454 733e 621d 153d 5d29 ccbe
00000340: 20db fc3e a58a ee3e 24de dfbe 6d6f 0a3f
00000350: 367d 303f 8f0f a1be 9ead a8be d54b b93e
00000360: 41a0 76be b85b a63e bfc9 213e d9d3 373e
00000370: f06b 5a3e fdf1 1f3f 9f0d f83b db59 c43d
00000380: 50e1 5bbe b6e0 2cbe e8a7 09bd cc2a 0a3e
00000390: 922c 04bf e056 36be 6138 fd3e e6a8 6a3e
000003a0: 4754 bebe c0cd dbbd fa33 77be 80bf 173f
000003b0: e1ad 3ebe 924b cd3b c252 8abe cacb 9d3e
000003c0: bc8b 003f 8ed9 5bbd 88f8 973e 3663 74bb
000003d0: c90e 4e3f 15f7 eabe ee03 9a3b bd29 373e
000003e0: 82d7 523e 4824 32bf a2c2 1fbf d38b ebbe
000003f0: 424a 10bf 855a 20be a754 aebe ba68 9d3d

conv3.bias f4 [16]
0.0001993336 0.013665089 -0.018578712 0.0032521614 -0.0060729743 -0.018286988 -0.0031675952 0.010259429
-0.008318814 0.0065421993 0.0026013604 -0.008855529 -0.003374127 -0.009077993 -0.008406825 -0.020728793
00000000: 3504 5139 8ae3 5f3c 6232 98bc 3722 553b
00000010: cdff c6bb 98ce 95bc 6e97 4fbb 2a17 283c
00000020: a34b 08bc f25f d63b 967b 2a3b c816 11bc
00000030: 7520 5dbb ddbb 14bc c8bc 09bc 6ecf a9bc

conv3.fc_self.weight f4 [16, 16]
-0.4766197 0.53528714 0.3693823 -0.15261324 0.23332825 0.06439094 -0.06340929 -0.40541062
-0.27185374 0.5271183 -0.46020725 -0.4515966 0.055349622 0.30909073 -0.2110695 -0.076955974
-0.43071875 0.3131024 -0.13544287 0.3713941 0.13576493 0.028176138 0.42032906 -0.56342715
0.19657059 -0.20891695 -0.37087935 0.5251254 -0.3908809 0.13751812 -0.43130186 0.017410045
0.06526358 -0.06924644 0.038696248 0.19480366 -0.31309116 0.32155693 -0.14254226 -0.044800676
-0.061272796 0.06745283 0.011723127 0.32644334 0.008237116 0.3101944 -0.0314293 -0.37982512
-0.08869436 -0.3727407 -0.06556179 -0.24053073 0.13681269 -0.071065426 -0.33171198 0.2216386
0.109677285 -0.0975842 -0.018800853 -0.14481677 0.29264468 -0.0052787224 -0.3067646 0.14687575
0.14716926 -0.5415227 0.39534038 -0.17815258 -0.12201956 -0.40328553 0.22593243 0.4134366
0.053588312 0.30683178 0.32985148 0.05702257 0.08545723 -0.29469368 0.19014531 -0.15092069
0.15564805 -0.40810466 -0.1691504 -0.1407493 0.23463139 0.19186105 -0.29530045 -0.0443945
0.18660916 0.34633663 0.3608548 -0.29875854 0.10767301 0.19226705 -0.2990296 -0.43706188
-0.25921622 -0.0068604853 0.3355097 -0.40407518 -0.18444447 -0.6568877 0.39439276 0.24854288
-0.15263042 -0.43417606 -0.25785106 0.12670226 0.101092465 0.20741236 -0.13452055 0.19286358
0.07878755 0.2867207 0.17752714 0.32956713 0.053367216 0.33915052 -0.09354449 -0.3680279
-0.18746628 0.41250807 -0.45075795 -0.18264824 0.17883705 0.4311891 0.103638574 0.4497629
-0.16933785 -0.0054572 -0.38328817 0.12391681 0.061159037 0.57545406 -0.3555163 -0.043829992
-0.20775343 -0.4639295 0.18437026 0.3219441 0.124851435 0.4681144 -0.05658443 -0.04301508
0.06700442 -0.05684213 -0.30337673 -0.28353965 -0.032275774 -0.15279458 -0.28054085 0.28526297
-0.24140082 0.18926302 0.31782642 -0.19924846 0.16312763 0.021866003 0.12507534 0.13457136
0.053335823 0.38482183 -0.20041575 0.40200344 -0.2253546 0.42970052 0.1978557 -0.14228661
-0.31522027 0.03554979 -0.319027 -0.008907303 0.21213996 -0.019223826 -0.39679834 0.36801437
0.07086316 -0.18444282 -0.3146811 -0.32731256 -0.20984443 0.27866793 -0.18466373 0.08527843
0.115573965 0.1687032 0.35611174 0.028780855 0.07685984 -0.21105884 0.3937811 0.31721488
0.7134926 0.12817238 -0.28063232 0.17242825 -0.31122157 -0.07518742 0.14016819 -0.051874842
-0.1741786 0.20872957 -0.20134686 -0.48089787 -0.024707347 -0.05678278 0.3686897 0.31394884
0.07171388 -0.0630336 -0.09922075 0.41787326 -0.18460236 -0.45049784 0.39960843 0.48847452
0.29862672 -0.29068556 -0.36779228 -0.043876898 -0.30742535 0.027359497 -0.20229979 -0.26378828
-0.051720973 -0.4602592 0.42494258 -0.31686473 -0.28653464 0.15500166 0.18524513 -0.08785972
-0.4251299 0.08129368 0.22743747 -0.4425925 0.10026295 -0.44074628 -0.30034208 0.037785344
-0.43874925 0.15743509 0.3264172 0.11506054 -0.21510315 -0.14566678 0.16234837 -0.21899314
-0.24050702 -0.18157594 0.047066785 -0.26962972 0.22717759 -0.16160873 -0.2471047 0.46701738
00000000: 7f07 f4be 9408 093f ad1f bd3e a546 1cbe
00000010: 9aed 6e3e 66df 833d bbdc 81bd fb91 cfbe
00000020: 6a30 8bbe 3af1 063f 49a0 ebbe ab37 e7be
00000030: 49b6 623d 2441 9e3e 9a22 58be 189b 9dbd
00000040: 2b87 dcbe f54e a03e 89b1 0abe 5e27 be3e
00000050: f605 0b3e a5d1 e63c 5f35 d73e c33c 10bf
00000060: cd49 493e 53ee 55be e6e3 bdbe 9e6e 063f
00000070: 8b21 c8be 8dd1 0c3e 99d3 dcbe 839f 8e3c
00000080: e9a8 853d 14d1 8dbd f57f 1e3d 9c7a 473e
00000090: 7c4d a0be 1ca3 a43e 99f6 11be ea80 37bd
000000a0: 2ff9 7abd b624 8a3d 5c12 403c 9523 a73e
000000b0: f8f4 063c cdd1 9e3e 02bc 00bd 7078 c2be
000000c0: 63a5 b5bd ded7 bebe 4245 86bd b04d 76be
000000d0: a018 0c3e c08a 91bd 27d6 a9be 3bf5 623e
000000e0: 7c9e e03d 3ada c7bd 3f04 9abc d94a 14be
000000f0: 86d5 953e 22f9 acbb 4010 9dbe 9966 163e
00000100: 8ab3 163e 3ba1 0abf 0e6a ca3e a16d 36be
00000110: 64e5 f9bd 717b cebe d55a 673e f6ad d33e
00000120: 6b7f 5b3d 0e19 9d3e 4be2 a83e 8090 693d
00000130: 3304 af3d 17e2 96be 74b5 423e f48a 1abe
00000140: 3462 1f3e 18f3 d0be c335 2dbe 9620 10be
00000150: 3643 703e 3977 443e 9f31 97be 02d7 35bd
00000160: 7916 3f3e 0953 b13e f6c1 b83e e1f6 98be
00000170: ab83 dc3d a7e1 443e 681a 99be 93c6 dfbe
00000180: fdb7 84be eccd e0bb edc7 ab3e f1e2 cebe
00000190: 03df 3cbe cb29 28bf d9ed c93e 0682 7e3e
000001a0: 264b 1cbe 534c debe 0e05 84be 3dbe 013e
000001b0: 9109 cf3d e863 543e c1bf 09be 087e 453e
000001c0: 5e5b a13d 0ecd 923e adc9 353e 06bd a83e
000001d0: 9597 5a3d 23a5 ad3e 4194 bfbd 276e bcbe
000001e0: 29f7 3fbe 4234 d33e bfc9 e6be 2408 3bbe
000001f0: 0f21 373e d1c4 dc3e 7640 d43d 5347 e63e
00000200: e766 2dbe 50d2 b2bb 593e c4be 19c8 fd3d
00000210: e681 7a3d f550 133f 3c06 b6be 1487 33bd
00000220: 51bd 54be 2b88 edbe 8fcb 3c3e dbd5 a43e
00000230: 1cb2 ff3d b1ac ef3e 13c5 67bd 9530 30bd
00000240: 9d39 893d 4bd3 68bd 3254 9bbe 1c2c 91be
00000250: 9a33 04bd 2f76 1cbe 0da3 8fbe fd0d 923e
00000260: c731 77be 2ace 413e 25ba a23e ca07 4cbe
00000270: ee0a 273e 5520 b33c c013 003e 13cd 093e
00000280: aa76 5a3d 5e07 c53e c939 4dbe 65d3 cd3e
00000290: 5bc3 66be b501 dc3e af9a 4a3e 95b3 11be
000002a0: 8d64 a1be a89c 113d 8257 a3be f0ef 11bc
000002b0: 383b 593e 497b 9dbc 2729 cbbe 616c bc3e
000002c0: b420 913d 94de 3cbe e21d a1be 8395 a7be
000002d0: 75e1 56be 90ad 8e3e 7d18 3dbe 75a6 ae3d
000002e0: 0bb2 ec3d 88c0 2c3e 4754 b63e d4c5 eb3c
000002f0: b168 9d3d cf1f 58be ad9d c93e fd69 a23e
00000300: 73a7 363f 9f3f 033e 0aaf 8fbe 0891 303e
00000310: 6f58 9fbe ddfb 99bd 4088 0f3e b77a 54bd
00000320: e05b 32be 34bd 553e df2d 4ebe 3f38 f6be
00000330: 1067 cabc 0f95 68bd e5c4 bc3e e7bd a03e
00000340: bade 923d c317 81bd 4034 cbbd 7cf3 d53e
00000350: 6708 3dbe a7a7 e6be 7a99 cc3e 5519 fa3e
00000360: 9ae5 983e bdd4 94be 454f bcbe 43b8 33bd
00000370: db66 9dbe 0621 e03c ad27 4fbe 420f 87be
00000380: 5fd9 53bd 18a7 ebbe 1392 d93e 183c a2be
00000390: abb4 92be c1b8 1e3e e6b0 3d3e ccef b3bd
000003a0: a0aa d9be 4d7d a63d 5ee5 683e 7c9b e2be
000003b0: a956 cd3d 7fa9 e1be 70c6 99be cec4 1a3d
000003c0: bea3 e0be aa36 213e 2820 a73e dca4 eb3d
000003d0: 0044 5cbe ac29 15be a73e 263e bd3f 60be
000003e0: 7947 76be 0bef 39be 1ac9 403d e80c 8abe
000003f0: 3ea1 683e c27c 25be 0409 7dbe e71c ef3e

conv3.fc_neigh.weight f4 [16, 16]
-0.25008714 0.20282581 -0.32208478 0.40234938 -0.10069063 0.4432148 -0.17778158 -0.3139446
0.081079684 0.57149464 0.21411407 -0.08503136 -0.046083324 0.35042283 -0.11495136 -0.4516753
0.2390311 -0.314738 -0.43396366 -0.039616875 -0.44966722 0.38823676 0.05710922 -0.26767904
0.29276168 -0.002268166 -0.16784722 -0.34643862 -0.5860153 -0.5199274 -0.5671297 0.42682412
-0.12435674 -0.44220546 0.048230704 0.1304533 -0.4820553 0.40790752 0.0661783 -0.3286545
0.11697555 0.53041875 0.1917067 -0.019009368 0.29263905 -0.11515812 0.16112597 -0.7002238
-0.08126167 -0.24139622 -0.6721335 0.38388 0.45420077 -0.049164116 -0.27945504 0.4644694
0.45699507 0.053517696 -0.11597671 0.014385456 0.11392055 0.08992195 -0.42456922 -0.07768963
-0.651773 -0.043596637 0.19787063 0.42938283 0.5034276 -0.050436858 -0.28274673 -0.38682786
0.46713266 0.37775716 0.015762987 0.20228939 -0.7188186 -0.22835535 0.35701972 -0.3759314
0.19379498 0.3035538 0.38941985 -0.27853182 0.09785932 -0.6226277 0.16945156 -0.34970427
-0.51429147 0.38653943 0.2630373 -0.13666981 -0.38354537 0.34574974 -0.55713785 -0.57035065
-0.38478607 -0.21853778 0.26657936 -0.37302163 -0.18207645 -0.41768605 0.04772758 -0.39786494
0.35068452 -0.26128832 0.4156978 0.4379612 0.2595384 0.3383476 -0.4660926 -0.011027851
-0.052743338 0.1904919 -0.058124315 0.6363968 -0.32470137 -0.0930843 0.19153152 0.21246111
-0.06339633 -0.28114882 -0.34379527 0.3689728 -0.40715435 0.6241549 -0.18358907 0.40155593
-0.26777038 -0.39510262 -0.2733537 -0.1119694 0.33430582 0.27815622 0.4272877 -0.34443915
-0.19122063 -0.51757044 0.13084035 0.03434343 -0.29573816 0.17577434 0.21104176 -0.31459036
0.22310701 0.2943989 -0.5133695 -0.3267115 -0.10029467 -0.6655155 0.39774963 0.33485022
-0.3293138 0.5699414 -0.2537503 -0.49132404 0.11559278 -0.32558492 0.6153205 0.22724445
0.19965604 0.35187066 -0.2948043 0.49194625 -0.49306938 -0.15061243 0.30394715 0.4864466
-0.30615136 -0.26572514 0.0779699 0.20652616 -0.18590045 -0.25561994 -0.047072876 0.2691102
-0.41022876 -0.73708344 0.14353722 -0.23883122 -0.46716878 0.17583199 0.2817199 -0.10844846
0.015631184 -0.07355026 0.35380092 0.23836067 -0.016394986 0.017085874 -0.23431693 0.14151613
0.50590783 -0.23973717 -0.22000678 0.2555059 -0.23663624 -0.06735131 -0.35572994 -0.091328345
-0.13315302 -0.27457824 0.17518118 -0.5787463 -0.24192071 -0.04401818 -0.10864244 0.16005085
0.18749928 -0.0638443 -0.42636338 0.38754776 -0.3184838 -0.17280999 0.12883975 0.1686316
0.5736218 -0.3420446 0.21786936 0.49913904 -0.103665724 -0.029920842 0.049969964 -0.17572303
-0.507789 -0.065092966 0.45731676 0.4420172 0.023692494 -0.35171545 -0.1972437 0.38066798
-0.1508831 -0.37568122 0.32724994 0.29830223 -0.28497463 -0.19268124 -0.6475697 -0.14598578
-0.45834798 -0.37197846 -0.16288914 0.32256058 -0.0046798903 -0.26460028 0.04676056 0.25094357
0.58839655 0.13070521 0.6193005 -0.48317316 0.5501088 -0.26316494 -0.31613126 0.21296206
00000000: 6c0b 80be 92b1 4f3e 4ce8 a4be bd00 ce3e
00000010: e436 cebd 0ded e23e 600c 36be 59bd a0be
00000020: 1b0d a63d 794d 123f b840 5b3e ec24 aebd
00000030: dec1 3cbd 9f6a b33e 9e6b ebbd fc41 e7be
00000040: 92c4 743e 5725 a1be 7c30 debe 4e45 22bd
00000050: c83a e6be f8c6 c63e 5ceb 693d 3a0d 89be
00000060: dce4 953e 83a5 14bb 24e0 2bbe 6760 b1be
00000070: 1905 16bf f619 05bf 692f 11bf b188 da3e
00000080: bfae febd c168 e2be 8f8d 453d 8d95 053e
00000090: f4cf f6be 41d9 d03e 7d88 873d 6745 a8be
000000a0: e190 ef3d 86c9 073f c34e 443e 89b9 9bbc
000000b0: c9d4 953e 05d8 ebbd 35fe 243e de41 33bf
000000c0: 856c a6bd 9230 77be f110 2cbf eb8b c43e
000000d0: 018d e83e 5060 49bd bb14 8fbe efce ed3e
000000e0: 42fb e93e 5f35 5b3d 3385 edbd fab0 6b3c
000000f0: 2d4f e93d 0029 b83d 2361 d9be be1b 9fbd
00000100: 98da 26bf 6392 32bd 999e 4a3e 11d8 db3e
00000110: a2e0 003f e196 4ebd 2ec4 90be 4d0e c6be
00000120: 032c ef3e 6369 c13e 6121 813c f324 4f3e
00000130: 7f04 38bf fcd5 69be 4acb b63e 157a c0be
00000140: 3172 463e 676b 9b3e 0a62 c73e b99b 8ebe
00000150: 786a c83d 8764 1fbf b684 2d3e 700c b3be
00000160: 9ba8 03bf 7fe8 c53e d3ac 863e 2cf3 0bbe
00000170: 0f60 c4be 1c06 b13e 96a0 0ebf 8002 12bf
00000180: ae02 c5be 5ec8 5fbe 177d 883e b1fc bebe
00000190: 4072 3abe f2da d5be ff7d 433d f4b4 cbbe
000001a0: ec8c b33e 95c7 85be 58d6 d43e 733c e03e
000001b0: 38e2 843e e63b ad3e b0a3 eebe 29ae 34bc
000001c0: 6609 58bd 4f10 433e c313 6ebd e7ea 223f
000001d0: 423f a6be fba2 bebd d720 443e 688f 593e
000001e0: efd5 81bd bdf2 8fbe ef05 b0be 01ea bc3e
000001f0: 8976 d0be 9ec8 1f3f c6fe 3bbe bd98 cd3e
00000200: 3319 89be e44a cabe 04f5 8bbe 3650 e5bd
00000210: 222a ab3e 7e6a 8e3e 74c5 da3e 545a b0be
00000220: 57cf 43be 7f7f 04bf 03fb 053e b2ab 0c3d
00000230: fe6a 97be 30fe 333e 551b 583e fd11 a1be
00000240: 2a76 643e 74bb 963e 2f6c 03bf bb46 a7be
00000250: 4b67 cdbd 395f 2abf d7a5 cb3e 7d71 ab3e
00000260: d29b a8be aee7 113f 8feb 81be d38e fbbe
00000270: e8bb ec3d 11b3 a6be a585 1d3f c5b2 683e
00000280: a272 4c3e 6428 b43e 97f0 96be 61e0 fb3e
00000290: 9773 fcbe 253a 1abe f69e 9b3e 870f f93e
000002a0: dfbf 9cbe 200d 88be afae 9f3d 987b 533e
000002b0: b05c 3ebe 9ee0 82be 7dcf 40bd d0c8 893e
000002c0: 8109 d2be 80b1 3cbf 6cfb 123e 2c90 74be
000002d0: bf30 efbe 4d0d 343e 973d 903e 3a1a debd
000002e0: f80c 803c 85a1 96bd 6525 b53e d214 743e
000002f0: c74e 86bc adf7 8b3c c7f0 6fbe 9be9 103e
00000300: 2d83 013f a97d 75be 7549 61be abd1 823e
00000310: c550 72be 7cef 89bd 3c22 b6be 5b0a bbbd
00000320: 4459 08be 8595 8cbe b262 333e b828 14bf
00000330: 10ba 77be 684c 34bd ed7f debd 5fe4 233e
00000340: d0ff 3f3e cdc0 82bd 4d4c dabe a96c c63e
00000350: 4f10 a3be 1af5 30be 91ee 033e c3ad 2c3e
00000360: e1d8 123f 7820 afbe 2519 5f3e 278f ff3e
00000370: b24e d4bd 8e1c f5bc 4ead 4c3d bdf0 33be
00000380: 76fe 01bf 764f 85bd 6c25 ea3e 1450 e23e
00000390: c316 c23c 0c14 b4be 41fa 49be eae6 c23e
000003a0: 1981 1abe 4a59 c0be 4e8d a73e 12bb 983e
000003b0: 32e8 91be 3b4e 45be 21c7 25bf 4c7d 15be
000003c0: 96ac eabe f673 bebe 69cc 26be a926 a53e
000003d0: c459 99bb b079 87be 0088 3f3d ad7b 803e
000003e0: 28a1 163f 96d7 053e 7a8a 1e3f 7962 f7be
000003f0: eed3 0c3f 8ebd 86be f5db a1be ba12 5a3e
