model.pth (torch, 11393 bytes, 12 tensors)

conv1.bias f4 [16]
000000 f2 73 dc bc a6 76 04 3b 78 1d dd 3d ab ce 2d be
       -0.026910756 0.0020212322 0.10796636 -0.16973369
000010 bb 09 78 3d 3b 23 06 be b3 89 2f 3e 13 61 54 bd
       0.060556155 -0.13099377 0.17142372 -0.05185039
000020 43 e0 b8 bc 25 07 b9 3d 24 ee f1 3c cb 5c 93 bd
       -0.022567874 0.09034566 0.0295325 -0.07195433
000030 4d b5 7d 3e fc 29 0d be b8 f4 26 3d ac b0 a5 bc
       0.24776192 -0.13785547 0.040760726 -0.020225845

conv1.fc_self.weight f4 [16, 10]
000000 77 18 f3 be 5c 16 9b bd 61 9b aa 3e 9f e8 4a 3f
       -0.47479603 -0.07572624 0.3332167 0.792612
000010 9b 2c 0a be 52 3c d9 3c a2 44 01 be 61 9e 8d 3d
       -0.13493578 0.02651802 -0.12623838 0.06914974
000020 c2 d8 0f be 58 1d a3 3e 5c 5f ba 3e db d8 c4 bc
       -0.1404753 0.31858325 0.36400878 -0.024029186
000030 df 0d 11 bf 98 60 8a 3e 03 3e c0 3d 0e 19 a0 bd
       -0.5666179 0.2702682 0.09386828 -0.07817279
000040 0e 0c 81 3e 0d 00 fb 3d b8 0c 27 3f 9e 27 19 bf
       0.2520451 0.12255869 0.6525378 -0.59826076
000050 27 f8 62 bf d3 6d a9 be 23 d6 d5 bc fa 43 d6 3e
       -0.886599 -0.33091602 -0.026103085 0.41848737
000060 c6 98 b1 3e 3d 76 b9 3c 60 dd 80 be 1d bd 78 be
       0.3468687 0.022639388 -0.25168896 -0.24290891
000070 86 3f 20 3f 83 fd 01 3e 61 91 99 3e 67 7f dc 3d
       0.6259693 0.12694363 0.29993728 0.107664876
000080 23 ec f7 3d f9 9e 5b be ac 22 20 3e b8 6d 54 3e
       0.121055864 -0.21447362 0.15638226 0.2074498
000090 af 7c a2 3d bc b5 55 3e cc df 40 3e 2e 9d 57 3e
       0.07933938 0.20870107 0.18835372 0.21056053
0000a0 f9 04 88 be b5 60 3a be df e7 63 bc 79 77 e8 3e
       -0.26566294 -0.18200953 -0.013910263 0.4540365
0000b0 85 a0 02 bf 20 41 25 3f 8d b4 6c 3e c7 60 1e bf
       -0.51026183 0.645525 0.2311575 -0.6186642
0000c0 6a 39 ce be e7 ea 61 3f 35 04 a2 3e 91 14 0e 3f
       -0.40278178 0.8824906 0.31643835 0.5550013
0000d0 b7 6e fe 3e 17 37 82 bf d8 ca 9d bd 79 c0 f1 bd
       0.49693844 -1.0173062 -0.07704705 -0.11804289
0000e0 12 6d bd be b8 98 41 3e 17 2c 36 3e eb 2a ae be
       -0.36997277 0.18905914 0.17790256 -0.3401712
0000f0 0b 7b 67 be 27 94 a6 be 34 ed ea be c3 73 fd 3d
       -0.22605531 -0.32534906 -0.45884097 0.123755954
000100 63 52 02 bf 89 d2 50 be 00 a4 ba 3d 6f 1c 9b be
       -0.5090696 -0.20392813 0.09113312 -0.3029513
000110 f1 8f fe 3e f2 a3 f8 bd b3 2b 14 bf ff 46 32 3f
       0.49719194 -0.12140645 -0.5787918 0.6963958
000120 f1 2c 0d 3f fc be 78 bf 8f 65 ae be 41 df e3 bc
       0.551467 -0.9716642 -0.34061858 -0.027816417
000130 9c c6 d9 be 70 25 bf bd 09 47 0c 3e 43 d9 37 be
       -0.4253434 -0.093333125 0.13698973 -0.17953973
000140 26 d4 45 bf 1f d9 bb bd 57 76 9b be 6a be a0 3d
       -0.7727684 -0.09172272 -0.30363724 0.078488186
000150 4d 45 d5 3d 40 7d fa be ff 6d 0c 3f c2 57 2a 3f
       0.10413609 -0.48923683 0.5485534 0.6654016
000160 b2 10 12 be f2 ce a7 be 15 d0 78 3f a7 b6 49 bf
       -0.14264181 -0.32775074 0.9719251 -0.7879433
000170 bd 87 fc be 8f e0 60 3d cc 4d bc bd 27 f2 fb 3e
       -0.4932231 0.054901656 -0.09194526 0.49208185
000180 91 6c c3 3e e3 f7 20 bf aa 13 94 3e 11 f1 4e 3f
       0.38168767 -0.62878245 0.28921252 0.8083659
000190 3a 30 93 bf ae bf 9a be 37 b4 5a 3e 53 e3 2b 3f
       -1.1499093 -0.30224365 0.21357809 0.67143744
0001a0 35 69 b9 be f9 e5 05 bf 32 dc 89 3d 61 62 3d 3f
       -0.3621308 -0.52304035 0.06731452 0.7397824
0001b0 ab 04 01 bf ff f4 bd be ab 92 bd be c9 cc ca 3c
       -0.5039775 -0.3710098 -0.3702596 0.024755852
0001c0 6e e5 23 3e a6 9f dd 3e 5c f9 8b 3e 10 10 d3 bc
       0.16005489 0.43285865 0.27338684 -0.025764495
0001d0 fa ab 84 3e b3 14 74 3e 0c a9 73 bd 0d 8f 9c be
       0.25912458 0.23836021 -0.059487388 -0.3057789
0001e0 15 b0 dc 3d 6a 78 c8 be ad 01 2a bf af 86 a6 bc
       0.107757725 -0.3915437 -0.6640881 -0.020327894
0001f0 05 90 93 3f 63 14 0e be 62 95 a4 3d 28 44 dd be
       1.1528326 -0.13874964 0.08036305 -0.43216062
000200 9c 0a 42 bf c2 93 7b be 09 d9 b9 3d cf fe ce 3d
       -0.7579744 -0.24568084 0.09074599 0.10107195
000210 15 9d 81 3d a6 a6 1b bf fa 4f f3 3e 56 cd 8e 3e
       0.06328789 -0.6080116 0.47521955 0.27891034
000220 08 ee b3 3e f8 ab 56 3d 94 2a 05 3f 2e 18 a2 be
       0.3514254 0.052410096 0.52018094 -0.31659073
000230 d2 09 d3 be c2 19 b9 be 64 7d 94 3d 38 91 6b 3e
       -0.4121843 -0.36152464 0.07250479 0.23004615
000240 94 cc 31 3d 9d b5 ef bd d5 96 d1 3e 58 d8 3e bc
       0.04340799 -0.11704562 0.40935388 -0.01164826
000250 ea 29 58 3e 12 42 88 be 45 0a d8 3e 65 c3 e6 bd
       0.21109739 -0.26612908 0.42195335 -0.11267737
000260 ea 3b 1d 3e 0a 34 7d 3e e6 26 79 3e c9 3f 01 3e
       0.15354887 0.24726883 0.24331245 0.12621988
000270 1e 91 db 3d 19 95 7d be fb ef 9b be 2b 49 46 be
       0.10721038 -0.24763907 -0.30456528 -0.19363849

conv1.fc_neigh.weight f4 [16, 10]
000000 e0 7f e1 3d 3b 83 c7 bd 5a d6 03 be a1 30 de bd
       0.11010718 -0.09741827 -0.12874737 -0.10849119
000010 b1 86 a9 3e 6a 9e 73 3d 81 4c 22 3d 00 96 2a be
       0.33110574 0.059477247 0.03962374 -0.16658783
000020 45 a0 a6 3e 3e 85 1c 3f ce fb 06 be e5 c1 61 3e
       0.3254415 0.6114081 -0.13181993 0.22046621
000030 b0 65 29 3f 3e 7c df be b6 84 1c be ec 26 4b 3d
       0.6617079 -0.43649477 -0.15285 0.049597666
000040 66 6f b0 be 3d 6c d3 bc 92 d2 dd 3e cc 52 ce 3e
       -0.3445999 -0.025808448 0.43324715 0.40297544
000050 f1 22 56 bf 26 ae 2c 3e 19 6a e6 3d 23 78 33 be
       -0.83647066 0.16863307 0.11250705 -0.17526297
000060 e4 f5 c7 be 89 db a9 be d9 fd 25 3e 6d cd af 3e
       -0.39054787 -0.33175305 0.16210116 0.34336415
000070 25 47 22 bd f4 f1 4f be dc 61 9c 3d f8 e6 10 3e
       -0.03961863 -0.20307142 0.07635853 0.14150608
000080 09 91 11 3e 40 e9 0d 3e 89 63 47 3d 78 80 22 3e
       0.14215483 0.13858509 0.04867891 0.1586932
000090 76 5e 5a bd f1 3e 69 be f0 5b da 3c e3 42 b6 bc
       -0.05331274 -0.22777916 0.026655167 -0.022248691
0000a0 72 55 36 bf b4 82 a9 3e 50 3f 62 3e 07 27 76 be
       -0.7122413 0.3310753 0.22094464 -0.24038325
0000b0 c7 ef 93 3d be 3f 25 bf b2 81 a6 be 6e b2 cf 3e
       0.07223468 -0.6455039 -0.32520825 0.4056582
0000c0 c4 2a bc be 84 03 25 bf 9a e3 df 3d 81 41 37 bd
       -0.36751378 -0.6445849 0.109320834 -0.044740204
0000d0 34 f9 51 be 3b e1 05 3e d1 01 4d bd ad d6 50 be
       -0.2050522 0.130742 -0.05005056 -0.20394392
0000e0 c4 b6 67 3e d8 62 de 3e ae ac 2b bc f6 c6 3e bd
       0.22628313 0.43434787 -0.010478182 -0.046576463
0000f0 24 b5 c6 bd c2 95 04 be dd 54 44 bc 27 b0 64 3e
       -0.097025186 -0.12947753 -0.011983124 0.22332822
000100 ae d6 7f 3d 91 84 dd 3d a9 38 ed 3d ce 83 fe 3d
       0.062460594 0.10816301 0.11583073 0.124274835
000110 aa 7d ef bb 89 e7 7c 3e 8f 2b ee be e4 15 0c bf
       -0.0073086815 0.24697699 -0.46517608 -0.547209
000120 16 d5 98 3c 61 62 8d 3f 20 b7 e7 bd 70 32 38 bb
       0.018656295 1.1045648 -0.11314225 -0.0028106235
000130 46 21 2c 3e ab 64 57 3e c7 b5 25 be 4e 31 b8 3d
       0.16809568 0.21034496 -0.16182624 0.08993779
000140 6c 00 b3 be bf c5 9c 3c ce 95 a0 3e cf 18 a7 3e
       -0.3496126 0.019137261 0.31364292 0.32636115
000150 aa 92 56 3d 8e a0 2d 3d 8b b3 ed be d0 56 c1 be
       0.052385963 0.042389445 -0.46426043 -0.37761545
000160 9c 1e 16 3e c1 88 36 be 54 c6 58 be 2e 8f f3 3e
       0.14660114 -0.17825605 -0.21169406 0.47570175
000170 c7 24 f3 3e fb f8 ea bd cc 14 d6 be a8 27 90 be
       0.47488996 -0.114732705 -0.41812742 -0.28155255
000180 a0 cc 14 bd c5 ab b8 3e 52 86 01 3d 89 64 a7 bc
       -0.036327958 0.3606855 0.03162224 -0.020433681
000190 df 01 7f bf c6 ea 23 3f a5 22 bc 3e 99 68 31 bf
       -0.9961223 0.6403011 0.36745182 -0.6930023
0001a0 78 90 ba bd bb 53 3d 3e ca 9a 81 bd 5b 61 60 3e
       -0.091095865 0.18488972 -0.06328352 0.21912138
0001b0 c6 15 0a 3d c8 2c 11 bc 4d e2 7d 3d cf ac 45 3d
       0.03371217 -0.008860774 0.061983395 0.048260506
0001c0 4c 9b d5 be bf 4b 06 bf b7 26 95 3d 28 b1 05 3b
       -0.41720045 -0.5245933 0.07282775 0.0020399783
0001d0 73 b9 e9 bd 78 57 0d bc 41 e1 35 be 0f a2 7c bc
       -0.11412325 -0.008626811 -0.17761709 -0.015419497
0001e0 8e 9d 20 be 21 b2 ab bd e7 5e 3e 3e 01 72 48 3e
       -0.15685102 -0.08383585 0.1859089 0.19574739
0001f0 e3 67 06 be 72 e8 ac bd 6e 76 9a 3e 1e a1 d0 3e
       -0.13125567 -0.08442773 0.3016848 0.40747923
000200 03 12 9c be 97 86 ec 3b d5 6f 41 be 10 8a ec 3d
       -0.30482492 0.007218193 -0.18890317 0.11549771
000210 49 83 19 3e d6 62 17 3f 60 e6 61 be e9 a2 ad be
       0.14991488 0.59135187 -0.22060537 -0.33913353
000220 8f 70 ac be 9b c4 09 3e 61 02 59 be 3d 31 e8 be
       -0.33679625 0.13453905 -0.21192314 -0.45350066
000230 0b cc d9 3c 8f 31 74 3e 41 51 71 be e4 5b c2 bd
       0.026586553 0.2384703 -0.23566152 -0.09490183
000240 66 b2 2e bc 02 e8 0a 3c 27 aa c3 be 73 a1 50 3d
       -0.010662651 0.008478167 -0.38215753 0.05093522
000250 d8 2b 3d 3f 7a 30 1f 3e 98 1a 55 be 0e 74 a4 3e
       0.73895025 0.15545836 -0.20810926 0.32119793
000260 dc d6 13 3c 35 68 0f bf 79 5b 00 bf 91 87 e4 3d
       0.009023394 -0.5601838 -0.50139576 0.1115867
000270 be f6 e0 be 95 be fb 3d e0 c7 44 3e e3 1d e0 3d
       -0.4393825 0.1229221 0.19216871 0.109432004

conv2.bias f4 [16]
000000 3e 36 69 3b 60 dc 0e 39 c4 3b 0f bc 9f de f6 3c
       0.003558531 0.00013624271 -0.008742277 0.03013545
000010 ce 2e bb 3b 30 1d d6 3c bb a4 91 bc 32 28 24 3d
       0.0057123667 0.026136965 -0.017778745 0.040077396
000020 8f 81 0c 3e d4 d1 ca 3d 52 91 f1 3d 9e 97 59 bc
       0.13721298 0.09903303 0.11795296 -0.013280777
000030 88 5a 00 3d 0d 55 6f bd 17 2a c0 bc 69 e5 72 bd
       0.031336337 -0.05843072 -0.02345757 -0.059300814

conv2.fc_self.weight f4 [16, 16]
000000 b9 c1 bc bc b8 fa 9b be 35 c1 24 be e7 c1 0b be
       -0.023041593 -0.3046472 -0.16089328 -0.13648187
000010 b6 f0 93 3e e2 d8 e9 bd 0c e6 8b be e2 c4 77 3e
       0.28894585 -0.1141832 -0.2732395 0.24196199
000020 98 07 0f 3d d3 7a 1f bb 7d 78 01 3f c4 04 18 3d
       0.03491935 -0.0024334684 0.50574476 0.03711392
000030 85 ca e6 3d fd ba 34 bd 77 3f 7d 3d e5 58 74 3e
       0.11269096 -0.04412364 0.061828103 0.23862036
000040 62 1a 28 3d fd 47 a4 bd f0 b1 be 3e 41 ad 85 be
       0.041040786 -0.08021543 0.3724513 -0.26108745
000050 7f 02 c7 3e 7e 00 c9 be b3 18 8d be 68 05 d3 3e
       0.38869092 -0.39258188 -0.27557907 0.41215062
000060 8c bf a8 3e 88 e8 d9 bd d8 8f a7 3e 98 37 02 3e
       0.3295864 -0.10640055 0.32726932 0.1271652
000070 43 ca 31 bd 74 84 65 be 88 f7 0d bd 5d 77 13 be
       -0.043405782 -0.22413808 -0.034659892 -0.14401002
000080 fc 9b a6 be 55 2b 08 bc 97 4c b7 bd 92 89 c0 bb
       -0.32540882 -0.008311112 -0.08950155 -0.0058757747
000090 a8 fc cc 3c 17 2e 14 3e 0b 0d 8c 3d 62 47 40 be
       0.02502282 0.14470707 0.06838425 -0.1877723
0000a0 23 09 14 bd 27 f1 a1 be 35 4d 63 3d d5 b5 0c be
       -0.036141526 -0.31629297 0.055493552 -0.13741238
0000b0 cc 1b 3f 3d 67 47 0a 3e 1d f1 67 3b f5 73 85 bd
       0.04665737 0.135038 0.0035391517 -0.06516258
0000c0 01 56 3b bf cc 38 1e 3e 43 0f 14 bf e4 4e 27 3c
       -0.73178107 0.15451354 -0.5783579 0.01021168
0000d0 1e 0a 9a bd d5 47 09 3f 7a 67 ce be 37 73 dc 3e
       -0.07521461 0.5362523 -0.4031332 0.43056652
0000e0 65 4d e5 3d 0c 3a 7c bf 8a c1 17 3e 10 6e b2 3e
       0.111964025 -0.9852607 0.14819923 0.34849596
0000f0 df db 45 3e 0c cf 33 3e cf b8 8a be cc fd ac be
       0.19322155 0.17559451 -0.27094123 -0.33787382
000100 70 17 df be 69 8d 6c 3d 98 35 d5 bd 26 4d 7a 3e
       -0.4357257 0.057752047 -0.10410613 0.24443492
000110 00 a6 ef be a2 ff 54 be 42 e9 ab be b0 02 9b be
       -0.46806335 -0.20800641 -0.335764 -0.30275488
000120 16 90 ed bd 00 cb 55 bd 3f a6 cf be ba a3 00 3e
       -0.11599748 -0.05219555 -0.40556523 0.12562457
000130 17 d3 20 3e 66 63 36 3e 98 4e 4a be 88 00 35 3c
       0.15705524 0.17811355 -0.19756544 0.01104749
000140 fc 3f 6c be 1a d3 02 3e ef ce b0 be 60 ea 28 bc
       -0.23071283 0.12775841 -0.34532878 -0.010309786
000150 b5 a9 9d be e2 7b 00 3f 9b 2d bb be 28 d8 5f be
       -0.3079354 0.5018903 -0.36558232 -0.21859801
000160 12 d4 c0 3d 9b 20 05 3f d3 98 d0 be da 5a ea bc
       0.09415449 0.52002877 -0.40741596 -0.028607775
000170 07 83 17 be 13 e8 60 3e e2 61 cb bd 5b f2 87 3e
       -0.14796077 0.2196353 -0.09930779 0.2655209
000180 36 5e a7 be 9d 49 7c 3e cf a1 dd bd 4e 30 96 3c
       -0.32689065 0.24637456 -0.10821878 0.01833358
000190 49 2d b2 3d 19 62 b4 3e af 34 a4 be 66 b1 83 3d
       0.08700044 0.35231093 -0.32071444 0.064303204
0001a0 65 9f 96 3e 0a 10 ee bc 92 8d 0d 3d e1 65 49 bd
       0.29418483 -0.029060382 0.03455884 -0.049169425
0001b0 85 40 52 bd b0 46 96 3e ea 46 30 be 65 f4 63 3c
       -0.051331062 0.29350805 -0.17214552 0.013913249
0001c0 81 b7 7e 3d 50 32 04 3e f6 83 93 3d 15 19 af bd
       0.06218672 0.12909818 0.07202904 -0.08549706
0001d0 75 96 95 be 92 52 80 3f 35 af 86 bc 87 2b ed 3e
       -0.29216352 1.0025198 -0.016440967 0.4632227
0001e0 76 a7 06 3e 17 21 35 bf 96 5a d1 3e 67 44 35 be
       0.13149819 -0.70753616 0.40889424 -0.17701875
0001f0 5d 70 35 bf a5 7b af 3d e8 7e 91 bd ff 9c 0b be
       -0.7087458 0.08568505 -0.071042836 -0.13634108
000200 ad 43 ee be f2 db 8d 3d 37 68 1a bf 1b e3 4f be
       -0.46536008 0.06926717 -0.6031527 -0.20301478
000210 0d fe 4d bd 33 e0 49 3e 36 b8 27 3e 59 2c 9a 3e
       -0.05029111 0.19714431 0.16378865 0.3011196
000220 d2 ad 2d 3d 82 4c 8b be b4 41 20 bf 0e 78 cb 3b
       0.042402096 -0.27206808 -0.62600255 0.00620938
000230 b3 55 2d 3e bc 42 49 3e aa e1 1d be 5e e3 49 be
       0.16927223 0.19654363 -0.15418115 -0.1971564
000240 ef 6d af 3d 06 a8 0b bf d4 e7 fb bd f5 97 e0 3e
       0.0856589 -0.5455326 -0.12300077 0.43865934
000250 6c 9c f4 3e c7 05 88 3e 87 fc e9 be 37 8b 0c 3f
       0.4777559 0.26566908 -0.45700476 0.54899925
000260 97 f4 59 bf 85 30 41 be 42 de 0e bf 81 35 14 be
       -0.8513884 -0.18866165 -0.5580789 -0.14473535
000270 e3 1f 5c 3e ae 25 b4 3d 4d d6 e8 be 11 c2 f0 3e
       0.21496539 0.08796249 -0.45476 0.4702306
000280 33 78 e5 bd d5 98 72 be fb d2 11 be 08 0c a0 3e
       -0.11204567 -0.23691113 -0.14240639 0.3125918
000290 df b1 ee 3e 7e 04 4f 3e 9e c7 6c 3c 2a d3 17 3f
       0.4662008 0.20216557 0.014451889 0.59306586
0002a0 c0 f9 6d bf 91 1d 51 be ce 97 18 bf 26 fc 10 bf
       -0.92959213 -0.20421435 -0.59606636 -0.5663475
0002b0 47 21 3b bf 00 a9 01 be e7 e1 3f be 21 28 24 3d
       -0.7309765 -0.12662125 -0.18738519 0.040077332
0002c0 08 a4 0f 3e a8 a2 03 3e 9d af 6a 3d 30 09 ba 3b
       0.14027417 0.12855017 0.057296384 0.0056773648
0002d0 1f 69 1c bf 0c 26 14 3f e6 b0 1c bf 9b e4 ea 3e
       -0.610979 0.57870555 -0.61207426 0.45877537
0002e0 48 0d 46 3e 22 83 85 bf bf 66 83 3e 7f ed f3 3d
       0.19341004 -1.0430644 0.25664327 0.11910533
0002f0 fd 7e f1 bd af e3 08 bd 93 19 dc be 1b 11 b5 3d
       -0.11791799 -0.03342026 -0.42988262 0.08841153
000300 a0 1e db be b5 f9 cb 3d d3 3e 71 be e0 91 ac 3d
       -0.42796803 0.09959737 -0.23559122 0.08426261
000310 ad 6d 1e be 10 63 15 be 70 f5 e2 bc b3 dd 14 3f
       -0.15471525 -0.1458857 -0.027704924 0.58150786
000320 df 01 b2 3b 77 bf c9 bd ff 7e 2c 3e 8a ab bd bd
       0.005432352 -0.09850972 0.1684532 -0.09261234
000330 a7 d4 5f 3e 2f b6 e3 3d db 3a 47 be f6 3a 83 bb
       0.21858464 0.11118733 -0.19456045 -0.0040048314
000340 5c 26 06 be d2 d6 42 3e 77 fe c8 be fe c4 0a bd
       -0.1310057 0.1902726 -0.3925664 -0.033879273
000350 b9 ed 0e 3f 11 bd d4 3d 9a 19 e3 3e 5c d9 a8 3d
       0.55831486 0.10387624 0.4435547 0.08244583
000360 6c fd 50 bd b3 b6 a2 3d 52 05 f9 3e d2 83 df bd
       -0.051022932 0.07945003 0.48636872 -0.109138146
000370 0d 00 07 bf f7 ae 5f be 64 11 97 bc 37 8a a1 bd
       -0.5273445 -0.21844088 -0.01844091 -0.078876905
000380 60 58 03 be b9 47 22 3f a0 b6 e5 3e a9 49 8e 3e
       -0.12826681 0.6339069 0.44865894 0.27790573
000390 15 8a 3e 3f 82 c4 35 3e 9c 83 eb 3e 33 c1 ba 3d
       0.74429446 0.17750743 0.45998847 0.09118881
0003a0 66 ff 28 bf ea 18 80 3e 81 f9 e5 be ee 2d 02 3d
       -0.6601471 0.25019008 -0.4491692 0.031782083
0003b0 ea b6 2a 3e 83 1f aa 3e 7e 6a 94 3d f0 8c 7c 3e
       0.16671339 0.33227167 0.07246874 0.24663138
0003c0 e7 cc 14 3e 2c 89 92 3d ef 95 08 bf a6 c5 79 3d
       0.14531289 0.0715507 -0.5335378 0.060979508
0003d0 7a 25 c6 3e f4 41 17 3e 95 ff be 3d 80 55 ec 3c
       0.38700467 0.14771253 0.09326092 0.028849363
0003e0 6c 4d c6 ba 92 2b a6 3e 61 e0 38 3e 1e 1b 92 be
       -0.0015129275 0.32455117 0.18054344 -0.28536314
0003f0 53 01 28 bf 89 d9 b4 be 3a 05 8c be b6 15 84 3d
       -0.6562702 -0.35322216 -0.27347738 0.064494535

conv2.fc_neigh.weight f4 [16, 16]
000000 0a d8 a2 3e 83 14 d0 be ee bd 0d bf 3b 80 b7 3e
       0.3180545 -0.4064065 -0.55367935 0.3584002
000010 4e f0 9c bf 0a cf 70 3e 0f 54 e0 3e 42 55 96 3e
       -1.2260835 0.23516479 0.43814132 0.29361922
000020 6b 73 18 3e 25 98 5a bf 04 25 4f be cf fe 1b be
       0.14887778 -0.85388404 -0.20228964 -0.1523392
000030 70 15 2f bf ed 37 95 be 57 86 ca 3d c7 5e 2c bf
       -0.68392086 -0.2914423 0.098889045 -0.6733212
000040 bb 05 9c 3d 79 ad 9e be 79 82 c1 bd 30 71 5a 3e
       0.076182805 -0.30991724 -0.09448714 0.2133224
000050 3b e4 66 3d 9b 01 be 3e 8f df 43 3e c0 8f ba bd
       0.05637 0.371106 0.1912825 -0.091094494
000060 9f a0 2e bd 09 56 90 3e ee de 5e bd 44 91 04 3c
       -0.04263365 0.2819064 -0.05441182 0.008091275
000070 5c fc ea 3b be 9d e8 bc bf ec 87 3d 4c d5 60 bc
       0.007171197 -0.02839553 0.066369526 -0.013722729
000080 0b 5c 0e 3e a5 97 a1 be b9 f0 27 bf e9 d1 74 3e
       0.13902299 -0.31561008 -0.6560169 0.239082
000090 84 02 e9 be 2e a1 dd 3e b7 ff bf be e4 c0 8f 3f
       -0.45509732 0.43287033 -0.37499782 1.123074
0000a0 b9 8c 19 3f ff 5a f3 be cf fa 13 3e 67 2d 31 3e
       0.5998035 -0.47530362 0.14451145 0.17302476
0000b0 af 2c 05 bf ec 6c 86 3e d8 7f 27 3e 90 1a 98 3e
       -0.52021307 0.26254976 0.16357362 0.29707766
0000c0 c3 02 27 3f 1f 00 8b be 5a 35 4e 3e d3 b5 4e be
       0.6523859 -0.2714853 0.2013754 -0.20186548
0000d0 38 0d 11 be 90 82 ce be 12 77 79 3e 68 4c 9b 3d
       -0.14165199 -0.40333986 0.24361828 0.07582933
0000e0 84 c3 16 be 36 b4 00 3f ed ed 37 be 71 47 be be
       -0.14723021 0.5027498 -0.17961855 -0.3716388
0000f0 79 96 5c be e4 ec 65 be 42 37 b0 3e e3 5b 17 3d
       -0.21541776 -0.22453648 0.34417158 0.036952864
000100 f4 27 a1 bd d9 ea d1 3e ca a9 bf 3e f0 d7 93 be
       -0.078689486 0.40999487 0.37434226 -0.28875685
000110 8c 54 0b 3f 76 f6 26 3e 9c f6 a2 3e 34 84 e8 3e
       0.54425883 0.16304955 0.31828773 0.45413363
000120 04 8b ee 3d 99 13 f9 3d 7d 9d c8 3d 4b 26 a7 be
       0.11647609 0.12161941 0.097956635 -0.32646403
000130 2c c6 ac 3e 8d 64 d5 bd c9 0b 94 be 7a f9 81 3e
       0.33744943 -0.10419569 -0.2891524 0.25385648
000140 78 87 ae be d9 46 94 3e 97 26 ae 3e f2 96 df 3d
       -0.3408773 0.28960302 0.34013817 0.109174624
000150 df 14 02 3d fe 06 1a bf 70 c3 d9 3c 78 26 6f bc
       0.031758185 -0.6016692 0.02658245 -0.014596574
000160 8e 10 70 bc f4 7d ff be 8e c3 30 3e 54 96 80 be
       -0.014652384 -0.49900782 0.17262098 -0.2511469
000170 2f 43 96 3e af 85 ac bb 9c c6 21 3e cd 19 78 3d
       0.29348132 -0.0052649598 0.1579842 0.06057148
000180 b6 c5 76 bd 88 d2 2a be ee f0 5a be f1 e1 22 3f
       -0.060247146 -0.16681874 -0.2138097 0.6362601
000190 a8 fb 91 be f1 0f f2 3e c9 2a db be 3d f8 80 3f
       -0.2851231 0.47277787 -0.4280608 1.0075756
0001a0 05 24 84 3e 5c 19 c7 be e3 ee 7c 3e e9 d6 10 3e
       0.2580873 -0.38886535 0.24700503 0.14144482
0001b0 e0 4f a5 be a2 69 1c bf 7b 3c d2 be 67 14 45 3e
       -0.32287502 -0.6109868 -0.41061768 0.19246064
0001c0 06 17 1a 3d fb 76 82 be 9d 41 81 bd 3b 33 93 3d
       0.037619613 -0.254814 -0.06311343 0.07187506
0001d0 32 5c 1e 3e a6 c8 66 bf ca 95 3c 3d 33 8d 93 be
       0.15464857 -0.90149915 0.046041287 -0.28818664
0001e0 7c 90 33 be b5 33 13 3f 53 7b f6 be b7 53 5e 3e
       -0.17535585 0.57500774 -0.48140964 0.21711622
0001f0 50 0c 14 3f e1 fd 8a be 1b 35 81 3d 89 fe 4a 3d
       0.5783129 -0.2714682 0.06308957 0.04955915
000200 4b 48 66 3e 1e ef a7 3d 57 be 9c 3e 0c 5d a2 3e
       0.22488515 0.08199905 0.30613968 0.31711614
000210 18 f3 bf bd f5 51 85 3e f7 68 92 bd 2e 20 99 3d
       -0.09372538 0.2603909 -0.07148927 0.07476841
000220 09 99 cd 3d 0b 9b dd 3d 4d 65 67 3c 17 59 b3 3d
       0.10038955 0.10820588 0.014123273 0.08757227
000230 d0 9a 0b be b0 04 ab bd b1 3d 45 3e ff 49 c3 bc
       -0.13633275 -0.083505034 0.19261815 -0.023838995
000240 3d 75 88 bb b8 86 ea 3d 81 6b d3 3e a1 3d 18 bf
       -0.0041643665 0.11451477 0.41292956 -0.5946904
000250 42 29 a0 be 9c 1d 74 3e 0d 4f ec 3e 56 7a 86 be
       -0.31281477 0.2383942 0.4615406 -0.2626521
000260 8f f0 38 3f 5f ff 81 3e 8e 68 34 3d ef 36 23 3e
       0.72242063 0.25390145 0.044045024 0.15938924
000270 1f fb 5c be 4e 66 21 bc 7b d6 cd 3e fa b1 0c bf
       -0.2158017 -0.0098510515 0.40202698 -0.5495907
000280 de ba 1f 3e c2 97 8f bd 45 bf 41 3e 15 cb d9 be
       0.15598628 -0.070113674 0.1892062 -0.42537752
000290 c2 39 d0 be cd 42 5f 3e e2 fd 70 bd 8d 6a 56 be
       -0.40669066 0.21802826 -0.05883587 -0.20939083
0002a0 b9 1f 62 3f 01 f0 4a 3e 34 a3 ee 3d b4 45 20 3f
       0.88329655 0.19818117 0.11652222 0.6260636
0002b0 82 3a 07 3f e7 b2 36 3e 4d 81 cb 3c 61 e2 88 be
       0.5282365 0.17841683 0.024841929 -0.26735213
0002c0 48 1f 19 be ef 58 e3 be a1 2e 3d be a3 f8 e6 bc
       -0.14953339 -0.44403788 -0.18474819 -0.028194731
0002d0 99 d4 13 3e 9b 94 10 bf 6d f8 3e 3f 4a 07 5b be
       0.14436568 -0.56476754 0.7459782 -0.213895
0002e0 c4 18 b3 be d9 3e 1a 3f f6 65 33 be ad 63 74 be
       -0.34979832 0.6025215 -0.17519364 -0.23866148
0002f0 e7 a5 2a be f3 dc 6f be cb 24 5c 3e 62 3d 08 be
       -0.16664849 -0.23424129 0.2149841 -0.13304666
000300 2b ce 1e bd a2 b1 45 be a6 b7 4c be 60 a4 a7 3e
       -0.038770836 -0.19306043 -0.19991931 0.32742596
000310 66 19 55 bf 75 63 66 3e 52 b8 55 3a 7b 63 bf 3e
       -0.8324188 0.22498877 0.0008152771 0.37380585
000320 c2 c9 73 3d 85 5b 2a bf 6a 8a 82 3e 29 20 9b 3e
       0.059518583 -0.665459 0.25496227 0.30297974
000330 83 39 28 bf 97 a6 9f 3e 70 3c b4 be d6 7a 3d 3e
       -0.65712756 0.31181785 -0.3520236 0.1850389
000340 03 10 89 3e b7 c4 07 3e 7e c7 97 3e fa d6 05 3e
       0.26770028 0.13258635 0.29644388 0.13070288
000350 1a 49 a7 be 08 25 59 bd d9 76 8d be 98 d2 36 be
       -0.3267296 -0.05301383 -0.27629736 -0.17853773
000360 aa fb 24 3d c0 7c a7 bd f9 87 45 be 7f 3a 40 3e
       0.040279068 -0.08178091 -0.1929015 0.18772314
000370 b2 6a 22 3f 22 54 97 3d 7f 7e 19 3e 8f 96 07 bc
       0.63444054 0.07389094 0.1498966 -0.008275642
000380 f5 f9 ba 3d 07 dc 44 be be cb 66 3e aa 54 c9 be
       0.09129707 -0.19224559 0.22538659 -0.39322406
000390 7f 5e 8a bd f1 80 b5 be aa 69 39 be 3c fa 28 be
       -0.06756305 -0.35449937 -0.18106714 -0.16501707
0003a0 33 4e 93 3e 6c 1c cb 3e 67 bc bb bc 6d 04 a5 3d
       0.287706 0.39670122 -0.022916986 0.08057485
0003b0 3b 70 d8 3e 43 c6 b6 3e 9f 57 a0 bd dc 44 73 be
       0.42273125 0.35698137 -0.078292124 -0.23756737
0003c0 e9 ce b2 bd 2d bb 8d 3e 5c 5a 9c 3e 34 8a 5c bc
       -0.08730871 0.27681866 0.3053769 -0.013460685
0003d0 13 dd 7f be 61 29 a6 be cf 30 8a be f2 3c c2 bd
       -0.24986677 -0.32453445 -0.26990363 -0.09484281
0003e0 c4 68 67 bd 08 bb b5 be 44 ec 79 bd df 05 52 3e
       -0.056496397 -0.35494256 -0.061016336 0.20510052
0003f0 d0 8d 1b 3f 0b 0e 6a 3e b4 7e 6d 3e c2 da 5b be
       0.60763264 0.2285692 0.23192865 -0.21470168

conv3.bias f4 [16]
000000 b6 78 cb 3c 07 03 18 3d 8d ef 27 bc e8 8e 89 bc
       0.024837833 0.037112262 -0.010249984 -0.016791776
000010 f5 1b 9d 3d 51 7c 71 3c 88 40 e3 3b b1 bc e0 bc
       0.07671348 0.014739112 0.006935183 -0.027433725
000020 62 71 07 bb 5b 60 b5 bb a0 82 79 bd d1 84 ce bd
       -0.0020666947 -0.005535168 -0.06091559 -0.100839265
000030 82 76 68 3e 84 a6 3d 3d ca 87 b9 3d 5d 8d b2 3d
       0.22701457 0.04630138 0.09059103 0.08718369

conv3.fc_self.weight f4 [16, 16]
000000 b9 3a df bd fe fd 4e bd 6c b3 11 ba 92 6c 0e be
       -0.10899872 -0.050535195 -0.0005558047 -0.13908604
000010 28 02 07 bd e2 29 2a 3c 8e f8 29 3c 2c bc f5 3e
       -0.03296104 0.010385962 0.010374201 0.47995126
000020 42 4c 8e bb 32 5a 8f 3e d5 50 f9 be fe c5 57 be
       -0.0043425867 0.279985 -0.48694482 -0.21071622
000030 5f f0 ac 3c 2d b2 9b bd 1d 4f 0c 3d fe 79 78 3e
       0.021110712 -0.07602344 0.034255136 0.24265286
000040 02 7a 05 be 7b 03 81 bd e3 16 97 3b cd a8 2a be
       -0.13034824 -0.06299492 0.0046108826 -0.16665955
000050 66 15 83 3d 65 2a b6 3c 21 c2 85 3c 0a 92 eb 3e
       0.06400566 0.022237012 0.01632792 0.46009856
000060 4b df 0a 3d 0f ec 0d 3e 4f 14 05 3e 11 50 d5 bd
       0.033904355 0.1385958 0.12996028 -0.10415662
000070 0a 54 00 3a 08 f3 f3 bd fa a5 51 3d a3 cf 08 3e
       0.00048953353 -0.11911589 0.05118368 0.13360457
000080 8f ee 16 be dc 2f 29 bd 5c e4 7e bd bc e5 42 be
       -0.1473944 -0.041305408 -0.0622295 -0.19032949
000090 28 2d 6c 3d a3 54 20 3d f8 ef 54 bc 33 27 fc bd
       0.05766025 0.039143216 -0.012996666 -0.12312164
0000a0 3d 18 69 bd 75 a6 59 3e e5 b8 51 3c 5f 5b 5e be
       -0.05690788 0.21254905 0.01280043 -0.21714543
0000b0 70 e5 99 bc 04 cf 88 be e1 11 a2 bb c8 95 d3 3d
       -0.018786162 -0.2672044 -0.004945979 0.10331303
0000c0 a9 cb 63 3d e1 e5 6f bc ab 35 17 40 53 06 45 3e
       0.055614147 -0.01464221 2.3626506 0.19240694
0000d0 e8 b3 a9 3e e7 2f c8 3d 50 34 f3 3f 99 5a 6e bd
       0.3314507 0.09774762 1.900034 -0.05819187
0000e0 b9 83 8b 3e 45 59 8d 3d 0e 76 c8 bd 1b 65 a6 3d
       0.27248934 0.069017924 -0.09788142 0.08124753
0000f0 68 94 03 40 ba 4a 0d be d9 5b 37 be 59 3d ab bd
       2.055933 -0.13798037 -0.17906131 -0.083613105
000100 a0 0b d9 3b 8e 28 86 be 8c ba 82 bd e4 6e 1b 3e
       0.0066237003 -0.26202816 -0.06383237 0.1517902
000110 b5 aa c4 3e b9 d9 3a 3e 21 1e a3 bd 7b 88 3c be
       0.3841149 0.18247117 -0.07964731 -0.18411438
000120 b3 00 88 3e 38 f5 41 3d 16 7b 7d bd 50 60 45 ba
       0.26563033 0.047353 -0.061884962 -0.00075293053
000130 59 dc 32 bd 3c 3d 31 bf 1b 63 b4 3d 39 8a 0c bd
       -0.04366717 -0.6923406 0.08807965 -0.034311507
000140 d2 1b 87 bc 47 b0 51 3d 43 d5 31 bd 88 0a c3 3d
       -0.016492758 0.0511935 -0.043416273 0.09523493
000150 31 f1 d6 3c 75 21 0b bd e9 35 46 bd f5 4a b4 bd
       0.026238056 -0.033967454 -0.048391256 -0.088033594
000160 3a 05 8c bc 47 bd 9d bd de 58 1b bf 83 c2 87 3d
       -0.017092336 -0.077021174 -0.60682476 0.06628897
000170 2a 75 a6 bc 34 96 f2 bd fb d1 3a bd 00 35 29 be
       -0.02031954 -0.11845055 -0.04561041 -0.16524124
000180 4a 92 6c bd 68 d7 6b 3e ac 02 89 bd ee c4 f4 3c
       -0.0577567 0.2303139 -0.06689963 0.02987906
000190 de 41 af be 20 8e 9d be ff 87 b9 bc 83 ce c8 bd
       -0.3422994 -0.30772495 -0.022647856 -0.09805014
0001a0 46 0c f6 be 2c b8 d6 bc 6f 01 07 be f4 bc be 3c
       -0.4805624 -0.026210867 -0.1318414 0.02328346
0001b0 15 1e 30 bd bc a8 fd bd 8c 49 b7 bc b6 99 06 be
       -0.04299744 -0.12385699 -0.022373937 -0.13144574
0001c0 87 1a 53 3e 40 89 9e 3d 48 a0 38 3d b8 df 7b 3e
       0.20615588 0.07741022 0.04507473 0.2459706
0001d0 fc 10 d1 bc a9 64 1b 3c 88 31 5e 39 81 d8 be 3a
       -0.025520794 0.0094844485 0.00021190022 0.0014560373
0001e0 a8 2e a8 bd f0 8e f5 3d 69 a8 66 bd 9f 16 99 3d
       -0.08212024 0.11990154 -0.056312952 0.07475018
0001f0 bc fd e1 3d c7 b6 59 3d 84 3a 21 be e4 08 bd 3d
       0.11034724 0.053152826 -0.15744978 0.092302114
000200 4d bc cb bc bd 64 b0 bc 77 28 5e 3c 1b f0 b9 bb
       -0.024870062 -0.02153241 0.013559452 -0.0056743748
000210 56 61 90 3d 05 45 31 bd 09 f6 ab bc 72 c0 64 be
       0.07049815 -0.043278713 -0.020991342 -0.22339037
000220 f4 4c dc 3c 59 53 98 3e 8b ec f5 be 52 fd 6a 3e
       0.026892163 0.2975109 -0.4803203 0.22948197
000230 42 af 5a bd 25 dc 86 3e 98 31 8b 3d 07 8a 22 3e
       -0.053389795 0.26339832 0.06796569 0.15872966
000240 55 67 59 be 6b b0 00 bd a0 6f 6b 3c cf 61 a8 be
       -0.21230824 -0.031418245 0.014369875 -0.32887122
000250 95 36 c8 3d bb 13 e9 3d f6 09 db 3c 36 f7 97 be
       0.09776036 0.113807164 0.026738148 -0.29680794
000260 88 10 28 be 12 46 03 3c 18 3d 58 3c d8 0e c0 3f
       -0.16412556 0.0080123115 0.01319816 1.500453
000270 3b 80 29 bd d0 d1 67 3f 8a 0a 44 3e 5e 13 db bd
       -0.041382056 0.90554523 0.19144645 -0.106970534
000280 38 55 0d bb e5 54 3b 3c 84 01 96 bc f0 b6 e5 3c
       -0.0021565687 0.011433815 -0.01831127 0.028041333
000290 a2 27 d4 bc 20 79 4f 3d 37 6e 34 bb bd 79 df bc
       -0.025897805 0.050652623 -0.0027531513 -0.027279729
0002a0 20 04 c5 bc d3 ab 48 3f e8 24 b9 3c 56 0c 8a bd
       -0.024049819 0.7838718 0.022600606 -0.06740634
0002b0 58 57 b8 bc f2 b4 90 bb 40 be 4a 3d 34 66 3b 3f
       -0.022502586 -0.0044161016 0.049497843 0.73202825
0002c0 fe 6f 10 40 6a 60 88 3f 5b 71 9d bd d9 e3 13 3d
       2.2568355 1.0654423 -0.076876365 0.036105964
0002d0 ab 21 7a bf 91 63 81 bf ce 4a ca bd 7a ff 1a bd
       -0.97707623 -1.010851 -0.09877549 -0.037841298
0002e0 e6 4e 73 bf 31 f8 26 3c 96 d7 ad 3d b3 9a 51 bd
       -0.95042264 0.010191009 0.084883854 -0.051172923
0002f0 b1 da ac bd 51 57 25 40 75 7a 25 be 23 a7 9d 3e
       -0.084401496 2.5834544 -0.16159995 0.30791578
000300 71 48 59 bf 7a 32 61 be 0e fe 4f bf 5b 77 89 bf
       -0.8487616 -0.21991912 -0.8124703 -1.0739549
000310 4b f9 b9 3e 14 90 8d 3e b1 be 0d bf 58 6f 16 be
       0.36323008 0.27648985 -0.55369097 -0.14690912
000320 a1 6c 61 bd d9 d3 ce bd 19 6b 4c bd 20 47 b2 be
       -0.055035237 -0.100990005 -0.049906824 -0.3481989
000330 44 62 4a bf f7 e9 8a be 2c b3 25 40 cc 94 4a bd
       -0.7905619 -0.27131626 2.5890608 -0.04945831
000340 71 6e 86 bd d7 48 f6 bb aa 40 2e bd 88 98 cd bd
       -0.06564034 -0.0075160074 -0.042542137 -0.10038859
000350 db 20 40 3b 94 79 89 bc 3a 5d 7c bc 63 9f 54 3f
       0.0029316458 -0.016781606 -0.015403086 0.83055705
000360 d4 27 28 bc ed ae 0d be e6 5c 0c bb 99 3b 3e bd
       -0.010263402 -0.1383626 -0.0021417676 -0.046443556
000370 05 f1 a4 bd 15 fd b0 bd 99 40 96 3d 91 9a 19 be
       -0.08053783 -0.086420216 0.0733654 -0.15000369
000380 76 a0 2b be 9f c9 31 3d 91 c5 8e be 00 f2 ca 3d
       -0.1676043 0.04340517 -0.27885106 0.09909439
000390 f9 8e f8 3d 96 d9 0e 3e 85 f4 87 be e6 65 03 bd
       0.12136645 0.1395019 -0.2655374 -0.0320796
0003a0 f6 de 1b bd 44 37 94 3a 11 b1 99 bc 26 65 91 3f
       -0.03805443 0.0011307974 -0.01876119 1.1358993
0003b0 93 0e 4d be 78 7f 47 3f 20 62 40 3d 82 26 9c bd
       -0.20025091 0.77928877 0.04696858 -0.07624532
0003c0 22 cf f2 bf ec 6c 91 3d 5a af 73 3e 6f e0 92 bf
       -1.8969462 0.07100853 0.2379736 -1.1474742
0003d0 88 28 b1 be 78 da 92 3d a7 e4 1b 3e 2c e3 9c be
       -0.34601235 0.07170576 0.15223943 -0.30642068
0003e0 f4 db 05 bf eb df 8c 3c 54 7f 78 3b 12 13 21 be
       -0.52288747 0.017196616 0.003791769 -0.15729931
0003f0 b5 45 ec 3e 06 36 42 bf 66 38 c3 be e7 c4 35 be
       0.46146932 -0.75863683 -0.38128966 -0.17750894

conv3.fc_neigh.weight f4 [16, 16]
000000 fb c0 f4 be c3 8f 36 bd 7e 18 d5 3d c1 38 a5 be
       -0.47803482 -0.044570696 0.10405062 -0.32269862
000010 82 7a 75 be 00 8d da 38 dc 71 00 3e d7 e5 b5 3f
       -0.23972514 0.00010421313 0.12543434 1.4210767
000020 88 42 da bd bf bf 93 3f 58 a2 ae bf 2a 75 34 bf
       -0.10657221 1.1542891 -1.3643293 -0.7049128
000030 c8 3c 50 3e 65 56 0c bf a4 74 b1 3d 2d 80 55 3f
       0.20335686 -0.5481933 0.086648256 0.83398706
000040 78 54 80 3e e9 78 92 3d 0c f9 76 3d ba a0 37 be
       0.25064445 0.07151968 0.060296103 -0.17932406
000050 85 c0 07 bd 4d 8e 23 bd b5 1d cd 3d 21 e8 79 40
       -0.033142585 -0.03993063 0.10015432 3.904793
000060 25 29 8f bd e8 9d e4 bd 5e 52 9d 3c 9d 7b 6a be
       -0.069902696 -0.11162931 0.019204315 -0.22898717
000070 b2 d4 96 3d 1b 40 1a be 92 cb 97 3d 94 53 fc bd
       0.07364787 -0.15063517 0.07411875 -0.12320629
000080 fb 01 2e bf 1a c3 6a bd 78 08 2a bf 4a 5c 9d bf
       -0.6797177 -0.05731497 -0.6641917 -1.2293789
000090 fc 43 90 3e c9 b8 ef 3d ff 6b 01 bf 6c 13 8a be
       0.28176868 0.11705167 -0.50555414 -0.26967943
0000a0 43 c4 a2 3b 28 52 31 be 25 1a 5b 3d 1c 52 f0 be
       0.004967244 -0.17316496 0.05349173 -0.46937644
0000b0 6d 62 32 bf 4e 9e 2b bf 02 1f 9f 3f dc 80 c8 3d
       -0.69681436 -0.6703843 1.2431338 0.09790203
0000c0 06 95 7b 3f 5a 72 f7 3e 0a ea b7 3f a2 fa a8 3f
       0.98274267 0.4832943 1.4368298 1.3201487
0000d0 23 c1 41 bf 5c 5a 0f bf a5 38 be 3f 18 af 8d 3f
       -0.7568533 -0.5599725 1.4861037 1.1069059
0000e0 6a 55 99 3e c7 8a 88 3e 96 9f c3 3e a2 05 a8 3f
       0.29947978 0.2666838 0.38207692 1.3126719
0000f0 0f bb c9 3f 0b 4e 65 3f 72 88 04 c0 86 ba 50 3f
       1.5760211 0.8957221 -2.070828 0.8153461
000100 fe f2 8f 3e 87 60 02 be 64 16 0f 3d 23 bc 14 3e
       0.28115076 -0.12732135 0.034933463 0.14524893
000110 8f 8d 1a 3f 5e 8d 98 3e 53 92 33 3d 74 00 57 3e
       0.6037225 0.29795355 0.043840718 0.20996267
000120 8f 22 10 3f 77 fc 2b 3e a8 b5 f2 3d 9b 4c 0a 3f
       0.5630273 0.16795526 0.118510544 0.5402314
000130 76 81 08 3d f9 86 ce 3e 6a 0c 78 bd 8c 10 8c 3e
       0.03332659 0.4033735 -0.060558714 0.27356374
000140 fb df 7c 3d 2d 7f 83 3d e4 60 7e 3d e6 b2 2e 3d
       0.061737042 0.06420741 0.06210412 0.04265108
000150 da ef f5 bd 89 f1 88 bc f1 af af 3c 24 b7 56 bd
       -0.12008639 -0.016716735 0.0214462 -0.05242075
000160 a8 e5 58 bb ec b1 81 3b f3 d1 3c c0 af da 62 bd
       -0.003309587 0.0039579775 -2.9503143 -0.055384334
000170 c3 e5 6d 3d fa 0b 9d bd 2a c5 9a bd 9e 97 00 be
       0.058080446 -0.076683 -0.07557137 -0.12557837
000180 0b 20 48 3e 98 b5 05 3f 13 b6 5c bd c1 4d af bc
       0.19543473 0.52230215 -0.053884577 -0.02139938
000190 d3 3b 3c bf d4 c0 11 bf 58 b8 a2 bd 04 08 81 3c
       -0.73528785 -0.5693486 -0.07945317 0.015750892
0001a0 9f da 8c bf c9 88 a3 3d b8 17 a5 3d d6 63 90 3d
       -1.1004218 0.07985074 0.080611646 0.07050292
0001b0 6c 18 8b bd 30 a4 38 3f 4c 08 0c bd 1d 39 aa 3e
       -0.067917675 0.7212553 -0.0341876 0.332467
0001c0 de 3c 08 3f 87 2f 98 3d f7 63 5e 3d 6f f3 0b 3f
       0.53217876 0.0743094 0.054294553 0.54668325
0001d0 b6 c0 5b 3e 6c 1d 6e bd 23 ce 8a bc e6 26 e9 3d
       0.21460232 -0.058133528 -0.016943997 0.113843724
0001e0 65 b4 94 3c c0 99 4b 3e ba d6 d8 bd 70 a4 fe bf
       0.018152425 0.1988287 -0.10587831 -1.9893932
0001f0 8a 90 9e 3d 8a 57 bd bf a6 e5 82 be c9 a5 2a 3e
       0.077424124 -1.479234 -0.25565833 0.16664805
000200 86 2f b5 3d e8 9d 31 be 18 89 28 be 2e 7a 0b 3e
       0.08846955 -0.17345393 -0.16458547 0.13620827
000210 a0 b9 34 3e 83 f0 3e 3e f4 41 a6 bd f5 e3 38 bf
       0.17648935 0.18646435 -0.08118048 -0.72222835
000220 7f 8f 3e 3e f4 3f a1 3f 07 71 bf bf 1b 6f 8c 3f
       0.18609427 1.2597642 -1.4956368 1.0971407
000230 a9 58 30 be db 0b a6 3f d9 a7 24 3e cd a6 65 3f
       -0.17221321 1.2972368 0.16079654 0.8970764
000240 06 71 2f 3f 09 f5 9f 3e d5 33 2d 3f d2 2b c1 3e
       0.68531835 0.31241634 0.67657214 0.37728745
000250 0a 5b 2a be a9 e2 78 bd c4 49 11 3f 64 fb 66 3e
       -0.16636291 -0.060763035 0.5675318 0.22556835
000260 3a 49 a9 3e 3c 9f bb 3d 87 a7 97 3e 85 8c f5 3f
       0.3306368 0.09161231 0.2962 1.9183508
000270 e8 40 d2 3e 00 97 40 3f 2a 1c 5a be 8d de 67 3f
       0.41065145 0.7523041 -0.21299806 0.9057396
000280 6a 14 5d bd 54 e2 cf 3d 44 75 a6 bc b0 09 ba 3c
       -0.053974546 0.101505905 -0.020319588 0.022709697
000290 3d 6c 9b 3d 80 d1 9f bd e7 88 2a bb cc 81 ce bd
       0.07589004 -0.07803631 -0.0026021542 -0.100833505
0002a0 0d 00 c2 bd e3 5f 1f 40 0c 49 96 be 1f 72 c0 bc
       -0.09472666 2.4902275 -0.29352605 -0.023491917
0002b0 1b 49 b6 3b b5 2b b9 3c c2 bd 3c bd d0 e2 ce 3f
       0.005562914 0.022603849 -0.046079405 1.6162968
0002c0 6f 11 a7 3f c7 bf 04 3d 1d 9e 72 3f 4d 13 ae 3f
       1.3052195 0.032409456 0.9477251 1.359964
0002d0 ac 50 b7 3d 9b 3a f1 3c ee 09 54 3f a1 d9 61 3f
       0.08950934 0.02944689 0.8282765 0.882227
0002e0 6b 90 11 3f 33 0b be 3d 76 b0 1c 3e 03 e2 79 3f
       0.5686099 0.0927948 0.1530169 0.9761049
0002f0 da f0 82 3f f0 9d 10 3f 23 88 01 c0 5a a6 86 3e
       1.0229752 0.56490993 -2.0239341 0.2629879
000300 e8 5f 6a bf 3d 66 9b be 73 21 6c bf 5f 55 9d bf
       -0.9155259 -0.3035144 -0.9223854 -1.2291678
000310 8c 74 f1 3e a2 0f 39 3d fa c9 8b bf d3 dc 6b bf
       0.4715923 0.045180924 -1.0921013 -0.92133826
000320 6e 89 13 be d1 72 82 bc ae f8 4b be b0 d4 8b bf
       -0.14407894 -0.01592389 -0.19919083 -1.0924282
000330 1d 5b bb bf eb cc 3b bf 22 f1 0e 40 f1 a1 50 bf
       -1.463718 -0.73359555 2.2334676 -0.814971
000340 33 0e d4 bd 73 29 c9 bd 52 f3 2a be 85 21 87 be
       -0.10354271 -0.09822359 -0.16694382 -0.2639276
000350 6d ec 23 3e 35 39 6f 3d d6 db 51 be b1 35 1a 40
       0.16008158 0.058404166 -0.20494017 2.409527
000360 50 00 28 3e d6 0b ab be 6b 63 bb bd 95 7d 5d be
       0.16406369 -0.33407468 -0.09149822 -0.21629937
000370 43 0b 89 be 88 d2 22 bd 85 96 82 3e ed 4f a0 be
       -0.26766405 -0.03975156 0.25505462 -0.3131098
000380 95 e5 b8 bf 94 34 bf be 7f 82 9e bf 23 50 de bf
       -1.4445063 -0.373448 -1.2383574 -1.7368206
000390 69 7e 0c 3f f0 c3 ab 3d 23 6c 93 bf 76 5b 9c bf
       0.54880387 0.083869815 -1.1517376 -1.2215412
0003a0 7a fe 9f be 91 52 f1 3d f2 5a 9d be fc 5b 28 c0
       -0.31248838 0.117833264 -0.30733448 -2.6306143
0003b0 a6 ee b0 bf d6 2a fd bf 46 ac 52 40 d8 a2 b7 be
       -1.382283 -1.9778697 3.2917647 -0.35866427
0003c0 50 97 7c c0 55 ae 89 3e c3 5a 71 3f 6f f5 72 be
       -3.9467354 0.26890817 0.94279116 -0.23726438
0003d0 d4 49 2f bf 1b 2b 6d be 41 31 50 3f c8 5f 5c 3e
       -0.6847203 -0.23160975 0.81325155 0.21520913
0003e0 93 11 e8 bd c9 8a e8 bd 66 48 a8 3e 8d 13 20 be
       -0.11331477 -0.11354596 0.32867736 -0.15632458
0003f0 6b ce 76 3f 78 d9 42 3e cb 75 16 bf e7 b7 95 3d
       0.9640872 0.1902827 -0.5877349 0.07310467

conv4.bias f4 [16]
000000 44 8d 41 3e 3d d0 8c 3d a1 ef 29 3e 14 6a 1e 3d
       0.18901545 0.06875656 0.16595317 0.038675383
000010 2d 44 46 3d 46 8a 52 be 9e 57 81 3d ca 93 1b bd
       0.04840486 -0.2056056 0.0631554 -0.03798274
000020 fc b5 2e bd 2a 68 85 ba 11 a2 cd 3d 4d c4 07 bd
       -0.042654023 -0.0010178138 0.10040677 -0.03314619
000030 75 82 25 3d ba 51 8e bc bc 04 b9 3d ac 7b ad bd
       0.040407617 -0.017372955 0.09034106 -0.08470854

conv4.fc_self.weight f4 [16, 16]
000000 45 4a 86 bc c7 58 de 3e a8 88 6c be da 6d 16 bf
       -0.016392836 0.43427107 -0.23099005 -0.5876137
000010 37 29 a1 bc c9 55 06 bf ab a7 85 be 82 d0 16 bf
       -0.019672973 -0.5247465 -0.26104483 -0.5891191
000020 54 3c 91 3e 69 ce 0c 3f 12 bd 50 3f db 09 b3 bd
       0.2836634 0.55002457 0.815385 -0.08742114
000030 98 a1 1a 3d 31 7d 0b bf 0e e8 9f 3e 98 ec 0d 3f
       0.037751764 -0.544879 0.3123173 0.5543914
000040 24 83 0c 3e 92 db 99 be fd 10 ca 3d 74 13 07 3f
       0.13721901 -0.3005033 0.098665215 0.5276406
000050 3f 5e 27 3d 61 82 3e 3e 1e 7e 6c bf 8a 6d 0e 3f
       0.040861364 0.18604423 -0.9237994 0.55635893
000060 9a a1 fa bc 4b 76 45 bd 73 35 ae be b0 9f c3 be
       -0.030594636 -0.048208516 -0.34025154 -0.3820777
000070 b8 ac 12 bf d8 ad ff 3e 38 1c 80 3e a8 ae 33 3f
       -0.572948 0.4993732 0.2502153 0.7018838
000080 60 f8 de 3e a0 ae 3c 3f 65 c7 be be cb 7e aa 3d
       0.4354887 0.73703957 -0.372615 0.08324965
000090 7e d3 d9 bd cd a5 81 3e 81 17 ad 3e 2a 04 8f be
       -0.10636042 0.25321808 0.33806995 -0.27932864
0000a0 b0 a0 bd 3e 51 e5 96 3e 08 7b 69 3e 84 c0 d8 3e
       0.37036657 0.2947183 0.22800839 0.42334378
0000b0 06 45 46 bf d1 7c 6f 3e b4 af 41 be bc 8e 50 bd
       -0.7744907 0.23387457 -0.18914682 -0.050917372
0000c0 67 41 d0 bc b7 09 96 bd 22 19 45 3f 57 af 4e be
       -0.025421811 -0.07326072 0.76991475 -0.20184074
0000d0 27 00 60 be 9a 1a be be db 5e 28 3e b4 45 8c 3e
       -0.21875058 -0.3712967 0.16442434 0.2739693
0000e0 b2 bf 15 bf 9e 74 b0 be 21 8e 4d 3d 2b 52 71 bc
       -0.5849563 -0.34463972 0.050184373 -0.014729063
0000f0 93 97 9a bd 5b 40 43 3e 17 22 a8 3f f7 d9 80 3d
       -0.07548442 0.19067518 1.3135403 0.062915735
000100 72 e5 ae 3d f9 f1 9f 3d 4d 96 ec 3e c3 34 2e bf
       0.08539857 0.078098245 0.4620842 -0.6804926
000110 67 f4 c1 be 81 a5 e5 bd cc 37 39 3f d2 b3 9f 3e
       -0.37881777 -0.11213208 0.72350764 0.3119188
000120 0f b6 a1 bd 8b 73 19 3e 5a fa 7e 3f 08 c6 bc 3e
       -0.07896053 0.14985482 0.99600756 0.36869836
000130 c4 b8 9f 3d 2c 7a a7 be 7f fd 70 3f 96 76 b2 3d
       0.07798913 -0.32710397 0.94136804 0.08714025
000140 50 24 fa 3c 90 76 23 3e 15 82 74 3e ba ae c5 3d
       0.030534893 0.15963197 0.23877747 0.09652467
000150 00 97 7f bd 30 79 ed be 16 e2 8d be 21 8b e3 be
       -0.062399864 -0.4638152 -0.27711552 -0.44442084
000160 72 66 7e bd 94 97 4d 3d 5e 54 01 3e 16 ee 08 bf
       -0.06210942 0.050193384 0.1262984 -0.5348829
000170 ac 65 7c 3d 38 4c f6 be 3f 8b 48 3e 15 05 8f 3f
       0.0616204 -0.48105025 0.19584368 1.1173426
000180 f4 33 ec 3e 61 d9 02 bf ca f9 bd 3e a5 4b ff 3d
       0.46133387 -0.51112944 0.37104636 0.124656
000190 32 6f ad be 5c c8 c1 3e af 21 aa 3e 16 31 f2 bd
       -0.33873898 0.37848175 0.33228824 -0.11825769
0001a0 46 51 0c 3e f5 86 13 bf 0f db f9 be ea f6 c7 bc
       0.13702878 -0.57627803 -0.4879994 -0.02440973
0001b0 f4 c1 89 3e 44 37 0c bf 71 2a 94 bf 9e c2 09 3f
       0.26905787 -0.5477183 -1.1575452 0.5381259
0001c0 64 96 f9 3e 1e f8 cb 3d df 20 65 bc 46 cc 3a be
       0.4874755 0.09959434 -0.013984888 -0.18241987
0001d0 d4 cd 16 3d 31 c5 0a bf 1b 14 57 be bf 6c 28 bf
       0.036817387 -0.5420714 -0.21003763 -0.65790933
0001e0 11 db 5b 3c a8 e5 2c be 82 20 c5 bd c7 0f 40 be
       0.013418929 -0.16884482 -0.09625341 -0.18756019
0001f0 b9 1a 16 3f 96 6d 73 3f 4d 1d 2f 3e 75 72 23 3d
       0.58634526 0.9508909 0.17101021 0.039904077
000200 dd 1b 35 bf 07 fe a0 bd 72 42 0b be 7b d8 a3 3e
       -0.7074564 -0.07860952 -0.13599566 0.320011
000210 6f 7a 8c 3d fe e3 19 3f dd 89 b7 3e 32 3b e1 be
       0.0685929 0.60113513 0.3584737 -0.43990475
000220 ca a0 75 3e 05 b5 9e 3e 30 53 94 be 1f 49 d3 3e
       0.23987117 0.30997482 -0.28969717 0.41266724
000230 55 63 95 3e 80 6c 49 bf 38 c2 92 be 93 a8 72 3d
       0.29177347 -0.7868118 -0.28663802 0.059242796
000240 b5 78 8e 3f 07 72 a4 bb c5 f0 9b 3e 86 5d 58 3e
       1.1130587 -0.005018476 0.3045713 0.21129426
000250 fa f6 a7 3e c8 96 43 3f f8 6e 8f be 11 9f 17 3f
       0.32805616 0.7640195 -0.2801435 0.5922709
000260 c6 3f 81 3f b1 ec 2d bd f8 81 fb 3e 65 c7 b8 be
       1.0097587 -0.042462055 0.49122596 -0.36089626
000270 53 a6 87 3e bb 56 46 be 40 1a dc 3e cf 4a f1 3d
       0.26494083 -0.19369023 0.42988777 0.11781847
000280 4c 7d 2e be 1f ec b1 bd ea 89 11 3f 92 2b 8d be
       -0.17039984 -0.08687615 0.56851065 -0.27572304
000290 3a 1a 49 bd 36 0e 31 bf 7c 72 9f 3d d1 21 c8 be
       -0.049097277 -0.6916231 0.07785508 -0.390883
0002a0 63 ea 02 3e 9b dd 29 bc 27 08 18 3f f7 12 49 3e
       0.12784724 -0.010367776 0.5938744 0.19636141
0002b0 92 6b f2 3e 3f 5d 95 be 3f bf 1b bf 81 d2 5d be
       0.47347695 -0.29172704 -0.60838693 -0.21662332
0002c0 10 54 2c 3f 47 d2 c6 3e 50 ce d7 3e 34 bd 84 be
       0.6731577 0.38832304 0.4214959 -0.259256
0002d0 c9 92 c6 be 46 1a f0 bc db 51 63 3f d7 7c ea bc
       -0.38783863 -0.029309403 0.88796777 -0.028623981
0002e0 1d 5d a6 3d 66 09 9a 3d a4 50 c2 3e 86 39 5e 3f
       0.08123229 0.07521324 0.3795215 0.86806524
0002f0 ca 78 2a bf f8 86 7c 3d 48 2a 1d bf 9f 34 7f 3d
       -0.6659056 0.061652154 -0.6139264 0.062306043
000300 0c e4 f4 3c f0 32 5e bd d6 d0 f8 3c 0c 4a 51 bf
       0.029893897 -0.054247797 0.030373018 -0.8175361
000310 26 3b 0c bf 06 a9 26 3f 59 1f 44 3f 77 be 2d bf
       -0.54777753 0.6510166 0.7661033 -0.6786875
000320 c6 0d ac bd c6 b7 88 3d 7a 98 6f bf 39 04 12 3f
       -0.084010646 0.06675677 -0.93592036 0.57037693
000330 28 da 36 3f dc 9b dd 3e 11 d8 3a 3f 40 16 30 3e
       0.7142663 0.43282974 0.7298594 0.17195988
000340 68 ef 78 3e 71 be c1 3d 85 6f 5f bc 2d b6 ac 3d
       0.24310076 0.09460152 -0.013637428 0.08433185
000350 7d a1 9d 3d f4 97 30 3f 21 c6 04 be 55 2f 33 bf
       0.07696817 0.6898186 -0.12966205 -0.699941
000360 8f db 37 3f 3e e5 00 3e 62 46 de be 46 a6 0e be
       0.71819395 0.12587449 -0.43413073 -0.13930616
000370 56 ed 80 3e 17 91 82 3e 5f c8 5a 3e ed 1c 7c be
       0.25181073 0.2550132 0.21365498 -0.2462041
000380 f1 8d 86 3c 30 5a 96 be 9a 21 22 3f 4c d3 2d bf
       0.016425105 -0.29365683 0.6333252 -0.6790054
000390 f0 9e 44 3e da f4 74 be d6 26 42 bd e4 2e 6c 3d
       0.19201255 -0.23921528 -0.047400318 0.057661906
0003a0 29 db bd 3e c0 42 7a be db 63 2f 3f a1 39 94 be
       0.37081268 -0.24439526 0.6851174 -0.28950217
0003b0 d4 ca 3b 3f 62 81 91 bd ba ab ad 3e de 8f 1e bf
       0.73356366 -0.07104756 0.3392008 -0.61938274
0003c0 f8 e8 4b be bd c6 78 3e 91 55 1e be dc ec 4b be
       -0.1991309 0.24294563 -0.15462328 -0.19914573
0003d0 6f d4 c8 3e ca ff 7d bf fc 48 0f bf b0 5c 11 bf
       0.39224574 -0.9921843 -0.5597074 -0.56782055
0003e0 9f 1d 7e 3e 32 05 8b 3e ce b1 40 3f 6b cf 0c bf
       0.24815987 0.271524 0.7527131 -0.55003995
0003f0 dc 52 40 be f1 d8 24 be da 28 1b bf 5d 69 a6 be
       -0.18781608 -0.16098382 -0.6060921 -0.3250226
