model.pth (torch, 29451 bytes, 9 tensors)

conv1.bias f4 [16]
00000000: d0c0 5cbc cc44 74ba 799d 69bb 2aad 3ebc
00000010: e015 853c c2d8 73bb 3ef4 1ebc e05e ed3b
00000020: a176 3ebc 5612 533c 93a7 1cbc e369 74bc
00000030: 983a da3b 7dba 37bb 3b40 5f3c 3978 85bc
-0.013473704 -0.0009318113 -0.003564684 -0.011637965 0.016245782 -0.0037208055 -0.009701787 0.007243976
-0.011624963 0.01288279 -0.009561437 -0.0149178235 0.006659817 -0.002803474 0.013626154 -0.016292678

conv1.fc_self.weight f4 [16, 174]
00000000: 5ed4 4ebc d41f 523e c764 593d 65fa e1bd
00000010: 603c 83be c6f3 143d 3e34 423d b114 b9bd
00000020: 5251 583e 10c9 02bd 22b2 e53d 2da5 123e
00000030: 963e 823d fd6c 4e3e 731b 193d 18c2 96bd
00000040: b65a e7bd 522d 81bd ca01 ba3c a0f7 e8bd
00000050: 86ce 0a3d 7625 30be 1e65 7c3d b7e8 a73d
00000060: 5981 b93d 72f3 82bd 09dd 25bc f644 b7bd
00000070: e4b3 093e 41ab 67bc 5457 f03b 2107 ba3e
00000080: 913d b9bb 0578 24be e560 063e 688a c8bd
00000090: d9d4 223e 5e81 24bd c2bc bbbd 31f7 f1bd
000000a0: 1c58 753c 5c1b c7be a3c5 eebd 15d8 bb3d
000000b0: 811a f7bd 6cfe a1bc b3d3 563d c1e9 e9bd
000000c0: b245 74bd d24e 0c3d 1582 51bc 7982 b03d
000000d0: 8855 d0bd 8dd0 7d3d ffd8 8f3d 44cc 5f3d
000000e0: b2e2 723d e640 a73d ba48 f93d abdb 15be
000000f0: 447c 323d ff70 8bbe 3f48 aebd 1b85 8a3d
00000100: 2920 2cbc dac8 38bd c869 5a3e 2360 d13d
00000110: c20f b0bb 4351 90bd 0c1d 0e3d 6dac c0bd
00000120: 76f5 803d 298e 44be 5437 3e3c 9efe 00be
00000130: f2e2 633d 3439 0fbd f448 493d ff10 203e
00000140: 30ee 2a3e 3d9a 9a3d e9e8 01be fefa 29be
00000150: 98e3 2f3c f1a7 c7bd 5949 21bd 3e59 89bd
00000160: 8347 2cbe d67b 6ebd 57b4 1c3e 130a 6a3e
00000170: 0912 933d 0286 5abd a176 c83d 1149 f0bd
00000180: 7dbb c1bc 23af 94bd 7775 d43d 6e75 5ebe
00000190: 59cf 54bd 0260 d13c f84b aa3d 7ab0 e93d
000001a0: 0cff 653e ef7b c43d a69a d3bb eb7c d9bb
000001b0: 644b 2bbe e26e 393d 77c1 e5bc 8557 dfbd
000001c0: d9bc 89be 9682 963e e12b c83d 121f 143d
000001d0: 9185 733d 0937 6d3e de99 10be b8d2 363e
000001e0: 8f39 bd3d 56ab e73d a90c d4bd 1d6d 18be
000001f0: 4406 463e c109 a43e 83c8 993e 2c7c 27bd
00000200: f402 663c 9dad b83d c75e a9be 47fd 4c3e
00000210: ab10 21be 0eb0 93bc 8bfd 00be 30b6 843d
00000220: a693 ca3d 3d59 30be 6f66 963d 94b4 993d
00000230: 3b0d 4a3e 4e25 ee3d b3c3 d6bc 6c8a b83d
00000240: f2ed 723d 92cc 0bbe 245e dcbd 15bb a9bd
00000250: ada4 863d 024d 843d c2cd 87bb 3b26 83bc
00000260: 7114 13be 711b ca3d 3111 243e bcc5 70bc
00000270: 6bc2 0bbe 9b00 e9bd df4a 6b3c 5983 91be
00000280: 908d 053d 4ea5 b93d 7c07 303d 95fd 00be
00000290: 1b55 deba 76ae ab3d 18fc 513e 5516 083e
000002a0: 3236 6e3e 7025 f83d 7328 493e be6f 183e
000002b0: 4aec 05be 8841 433d f059 2e3e 648a 18bd
000002c0: b9de 8bbd c634 2abd ee2c c2be 6b59 853d
000002d0: 4b86 a8be fe21 953c 8634 76be afa9 01be
000002e0: 1172 69be f04d a2bc 8926 a8be 2f36 af3e
000002f0: bef4 21be a0c6 94be 1172 f43d 7add c8bc
00000300: d42a 8abd a643 14bd f7e9 2b3e 6ade 69bd
00000310: 8c93 66bd 491a bb3b fff1 b3bd daaa 55be
00000320: acbc 7abd 3410 053e fccb 4ebb 4b46 67be
00000330: 406f a0be 4fda 84be 34b9 f93c 19a2 f63d
00000340: 466b 263d 8557 3abd c89a 9b3c 91fd 28be
00000350: 8483 ecbc c23b f63d 9385 243a 83de 073d
00000360: 0066 0f3e 66a7 30be 874e 253d 3cb8 253d
00000370: b79a bb3d d422 b63e de0d e13d f6ca 2fbe
00000380: 39dd 8c3d 81d2 1a3d 1c02 b9be 6afc 3bbe
00000390: d076 153e 0827 0c3e cd51 4c3c fc82 6bbc
000003a0: 941b dd3c b327 343e 3b3e debe 7847 383d
000003b0: 0037 73bc 9483 a0bc f982 1abe 1d75 69bc
000003c0: 73b5 cd3c 4f5b 8bbd d6cf 7e3e b0ff 8abe
000003d0: 6758 bdbb 96d2 753d 7d3b 713e 2ea2 36be
000003e0: 87ab 093e 9fec f7bd 18a7 f03d 51cb 05be
000003f0: 4a6b 6bbc 7415 9cbb 5d4d 893d 9419 21bd
-0.0126238745 0.20519954 0.053074624 -0.11034087 -0.25632 0.036365293 0.047413103 -0.0903715
0.21124771 -0.03193003 0.11215617 0.14320822 0.063595936 0.20158763 0.037379693 -0.07361239
-0.112965986 -0.06307472 0.022705931 -0.11375356 0.033888362 -0.1720179 0.06161987 0.08198684
0.09057874 -0.0639409 -0.0101235 -0.089487 0.13447529 -0.014139951 0.007334629 0.36333564
-0.0056530912 -0.16061409 0.131229 -0.09792024 0.15901507 -0.040162437 -0.09166862 -0.11814726
0.01497462 -0.3888806 -0.1165879 0.09172074 -0.12065602 -0.019774638 0.052447986 -0.11421538
-0.05963678 0.034254856 -0.012787362 0.08618636 -0.10172564 0.061966468 0.070238106 0.054638162
0.059298225 0.08166675 0.121720746 -0.14634578 0.04357554 -0.27234647 -0.085098736 0.06763669
-0.010505714 -0.045113422 0.21329415 0.10223415 -0.005372972 -0.070467494 0.03469567 -0.094078876
0.06296818 -0.19194855 0.011609871 -0.12597129 0.055636354 -0.034966663 0.04914184 0.15631483
0.16692424 0.0754895 -0.12686504 -0.16599652 0.010735415 -0.09748829 -0.03937659 -0.06706475
-0.16824155 -0.058223568 0.15303169 0.22855406 0.07181174 -0.053350456 0.09788252 -0.11732686
-0.023648972 -0.07259967 0.10373967 -0.21724483 -0.051955555 0.025558475 0.08315271 0.11410613
0.22460574 0.09593951 -0.0064576445 -0.006637206 -0.16727978 0.04527176 -0.028046353 -0.10905365
-0.26901892 0.29396504 0.09773994 0.036162443 0.05945355 0.23165525 -0.14121196 0.1785382
0.09239494 0.113119766 -0.10353977 -0.14885373 0.19338328 0.32038692 0.3003579 -0.040889904
0.01403879 0.09017489 -0.33080122 0.20018493 -0.15729015 -0.018028285 -0.12596719 0.06480062
0.09891443 -0.17221542 0.073437564 0.07505146 0.1973161 0.11628209 -0.026216364 0.09010777
0.059308954 -0.13652256 -0.107601434 -0.08287636 0.06574378 0.064600006 -0.0041444013 -0.01600944
-0.14363267 0.09868515 0.16022183 -0.014695581 -0.13648383 -0.113770686 0.014361112 -0.28420523
0.032605708 0.090647325 0.042975888 -0.12596734 -0.0016962619 0.08382885 0.20506322 0.13289769
0.23262861 0.12116516 0.19644336 0.14886376 -0.13078418 0.047669917 0.17026496 -0.037241355
-0.0682959 -0.041554235 -0.37924904 0.06511196 -0.32914957 0.018204685 -0.24043474 -0.12662385
-0.22797419 -0.019812554 -0.328419 0.34221026 -0.15816018 -0.2905779 0.11935819 -0.02451967
-0.0674645 -0.036197327 0.1678847 -0.057096876 -0.056293055 0.0057099205 -0.087863915 -0.20865956
-0.061215088 0.12994462 -0.003155469 -0.22585408 -0.31334877 -0.25947806 0.03048382 0.120426364
0.040629648 -0.04549362 0.018994704 -0.16502978 -0.028871305 0.12023117 0.00062760076 0.033171188
0.14003754 -0.17251357 0.040358093 0.040458903 0.09160369 0.35573447 0.10988973 -0.17167267
0.068781324 0.03779841 -0.36134422 -0.18358007 0.14596105 0.13686764 0.012470675 -0.014374491
0.02699069 0.17593269 -0.43406853 0.044990033 -0.014844656 -0.019593991 -0.15089025 -0.014249113
0.025110936 -0.06804525 0.2488397 -0.271482 -0.0057783606 0.060015284 0.23557849 -0.17835304
0.13444339 -0.12105679 0.117506206 -0.1306584 -0.014368841 -0.0047632996 0.06704209 -0.039331034

conv1.fc_neigh.weight f4 [16, 174]
00000000: 5f83 03be 0bb7 4a3d 45a6 033e 85be 49be
00000010: 7ca8 ea3d c8cb 293e 6aee 893c 236d a4bd
00000020: b02f 6eba 8bc3 333e 2c81 683e add9 e7bd
00000030: 7cfe 03be 4d94 2bbe d469 18be 241b 01bf
00000040: 451e 07be 297f 9cbc b933 283e 23cd 4b3e
00000050: 8f1b 0cbe 2705 b1bc 57c4 3f3c cbdb 13bd
00000060: cb47 bebd 2849 9ebb 1658 57be 5ab9 e3bd
00000070: 9715 4b3d d21e f53d 4335 b23d cd5d ac3e
00000080: f0c5 023f 106d cf3b d7ff 22be 0d63 c7bd
00000090: 9c97 6f3e 5b19 10be 65fc 65bb b2d7 193d
000000a0: afba b93e 9e1d a3be ae95 89bd 799d 5d3e
000000b0: 85d2 573e 7268 6d3d 91fa 92bd fd8b 1ebe
000000c0: 2888 8ebe c2db d73d 1979 323e c970 173d
000000d0: 0ef9 b2be 402d 573e 7c4b 51bd 5d95 7dbd
000000e0: c568 6f3d bce5 e63d ff70 163e 39af 3cbe
000000f0: e2d5 8e3d bcb2 353d fdc0 4ebe 56fb 9a3e
00000100: e29f 71bd b3be 203d 5c9a b6bb 6d17 93bd
00000110: 94f8 5dbe 2b6f babd 7167 113e e918 073c
00000120: e435 fdbc 721b 70be ce10 1f3e 3b09 f3bd
00000130: c485 863d b08b 15bd 6d50 c9bd ae72 083e
00000140: 571b b13d d8b2 553e 6d1e 8cbe 3bf8 2dbe
00000150: 5ce7 8ebd 045b b4bd 1d55 92bd 32c3 c8be
00000160: 3c48 8cbe ff2a 10bd f155 c53d 9634 5abd
00000170: 146c 05bd d727 30bc 646d 4bbd 15d7 64bb
00000180: fd27 c03e 0cb7 9bbe 4c97 be3c 59af b3bd
00000190: a62a e93c dc5a 653c 24d0 0c3e aad6 433e
000001a0: 34d0 a43e f8eb 343e 6c22 cfbd b658 e03d
000001b0: 504c c63c e4b1 f13c 3fb5 543e c3f8 b33d
000001c0: caac d23d 6464 a63e 9c05 de3d cd62 aebe
000001d0: 0b98 60be 7a4c 4ebe e47b 59bd d0da bebe
000001e0: a825 c5bd 36ff c53d 2080 95be 3ee4 81be
000001f0: 601a 1b3d 2ce6 3c3d 119a e63d 9a94 b5bd
00000200: fa65 893e eaf9 ae3d 92c6 0bbe 3bb4 173e
00000210: 9728 0ebe d6f5 813d a8e3 09bd 3005 0d3e
00000220: 99cf 433d f6b4 83bd 24b8 8bbd b9db f13d
00000230: 143a ee3c 8337 dc3c ab7a 843d fa09 d03e
00000240: 9efb bb3d c1fe 77be a67b f3bb 44fa 383c
00000250: 712b 803c ea8b 5dbd 3a6c 4a3e 6ceb f03e
00000260: 7b44 03be c7af ad3d d985 aa3e ddcf 623e
00000270: 7bf4 2b3d 8358 413d 0da2 8c3d 8e2a 03be
00000280: 1daf 763e c504 cc3e 8e62 c53d 4040 5bbd
00000290: 3918 0b3e 9320 b5bd 08f0 babc 6a12 213c
000002a0: 1b5f 8a3d 5eed 31be c861 353d 9d91 3ebe
000002b0: 0e70 1b3d 1814 24be b908 923e 830e 06bd
000002c0: ccce 583e 6396 94bd 9ee1 a0be 39f2 713e
000002d0: 480e 2bbd fd58 f5bc 6fbb 3dbe 9e39 25be
000002e0: cba5 71be 77a7 913c d251 d1be fad3 6fbe
000002f0: 2c3a 00be 24e7 05bf 4b64 85bd a500 613e
00000300: ead8 8abe b99f 8fbd 9e7c d93e a040 99bd
00000310: a216 bfbd 74f6 a1be 94fd 07be 1bf6 443d
00000320: de3c b5be aef7 e83d a4ae 6e3e 5b95 fabc
00000330: bdb3 00bf 5240 eebe 9e05 963e 3ceb 8abd
00000340: f21c 053c c2db b93d c10a 983d 7c35 013e
00000350: babb 2c3d cb05 3a3e d56f b33c 7fcd 9f3d
00000360: 0d07 9b3e 9571 10be 3a8b 1e3e a4a6 6e3e
00000370: eda3 093d ea22 2c3d 9df4 a53e 7cd9 2fbe
00000380: 1885 943e 7035 b2bd 2699 fcbe 61b8 74be
00000390: 19af 5e3d 69a4 24bd 7b33 683e 2019 5b3d
000003a0: 65c0 84bd 7a1c 8f3e 1bc0 97be 3263 a73d
000003b0: 451b 523d 1628 323e 1f11 b5be e528 06be
000003c0: cae0 333e 0d8a 953d 4713 9cbd d1d1 b3be
000003d0: 7685 123e 19a9 9abc 3c09 933e 248c bcbe
000003e0: 722a 5d3e 4f39 bebd 5abb 2f3e 32fb 27be
000003f0: 3c89 c3bd 3080 603e 2a66 193e 3248 083e
-0.12843083 0.04949097 0.12856396 -0.19701584 0.11457917 0.16581643 0.016837317 -0.08028629
-0.00090860855 0.17555062 0.22705525 -0.11320815 -0.12890047 -0.16755791 -0.1488412 -0.5043204
-0.1319514 -0.019103603 0.1642598 0.19902472 -0.13682388 -0.021608902 0.011704526 -0.036098283
-0.09291037 -0.0048304982 -0.21029696 -0.111193374 0.049581137 0.11968769 0.08701565 0.33665314
0.5108328 0.00633014 -0.15917908 -0.09735689 0.23397678 -0.14072172 -0.0035093066 0.03755922
0.3627524 -0.31858534 -0.06718002 0.21642102 0.210764 0.057960935 -0.07176698 -0.15483089
-0.27838254 0.10539962 0.17429008 0.036972795 -0.3495564 0.21013355 -0.051097378 -0.061910022
0.058449525 0.11274287 0.14691542 -0.18426217 0.06974389 0.044359908 -0.20190807 0.3026988
-0.058990367 0.039244365 -0.0055726003 -0.071822025 -0.21676856 -0.09103235 0.14199616 0.008245685
-0.030909486 -0.2344797 0.15533754 -0.11866995 0.065684825 -0.03651017 -0.09829793 0.13324997
0.08647793 0.20869005 -0.27366963 -0.16989224 -0.06977722 -0.08806422 -0.0714514 -0.39211422
-0.2739886 -0.035197254 0.09635533 -0.053272806 -0.032573774 -0.010751686 -0.04966487 -0.0034918238
0.3753051 -0.3041309 0.023265503 -0.08773679 0.02846272 0.013998713 0.13751274 0.19124857
0.32190096 0.1766814 -0.10113987 0.1095442 0.02420631 0.02950377 0.20772265 0.08787682
0.10286863 0.32498467 0.10840914 -0.34059754 -0.21933 -0.20146361 -0.053096667 -0.37276316
-0.09626323 0.09667818 -0.29199314 -0.25369447 0.03786695 0.046117947 0.112598546 -0.08866234
0.26835614 0.08543761 -0.13649967 0.14814846 -0.13882671 0.063457176 -0.033664376 0.1377151
0.047805402 -0.06431 -0.068222314 0.11809487 0.029080428 0.026881939 0.064687096 0.40632612
0.091788515 -0.24218275 -0.0074305115 0.011290137 0.015645714 -0.05408851 0.19767848 0.47054613
-0.12819092 0.084807925 0.33305243 0.22149606 0.0419812 0.047203552 0.06866846 -0.12809202
0.24090238 0.3984739 0.096379384 -0.05352807 0.13583459 -0.08844104 -0.022819534 0.00983105
0.06756421 -0.17375705 0.044282705 -0.18610235 0.03794866 -0.1602329 0.2852228 -0.032728683
0.21172637 -0.072552465 -0.31422132 0.23627557 -0.041761667 -0.02994966 -0.18528531 -0.1613526
-0.23598401 0.017780049 -0.40882736 -0.23420706 -0.12522191 -0.5230582 -0.0651327 0.21972902
-0.27118617 -0.070128866 0.42477888 -0.07483029 -0.09330489 -0.3163334 -0.13280326 0.048086267
-0.35398 0.11375366 0.23308808 -0.030588796 -0.5027426 -0.46533448 0.2930116 -0.06783149
0.008124577 0.090751186 0.07423926 0.12618059 0.042171218 0.18166272 0.021903912 0.07802867
0.30278817 -0.14105828 0.15482798 0.23305756 0.033603597 0.042025484 0.32413188 -0.17172807
0.29007792 -0.08701599 -0.49335593 -0.2389846 0.054366205 -0.040195856 0.22675888 0.053490758
-0.06482009 0.27951413 -0.29638752 0.08173217 0.051295538 0.17398104 -0.35364625 -0.13101538
0.17566219 0.07301722 -0.07620864 -0.35121015 0.14308724 -0.01887946 0.28717983 -0.3682567
0.21598223 -0.092882745 0.17161313 -0.16404417 -0.0954766 0.219239 0.14980379 0.1330879

conv2.bias f4 [16]
00000000: acef 7bba 3d0d 99bb 2890 28ba c17a 3d39
00000010: 2fd3 c43b cab4 96bb ded6 e83b b8ee 073b
00000020: b402 f0bb 50a4 ad3a cb92 993b d624 3f3b
00000030: 4ca5 c8bb 6c84 fcbb cc3b 02bb dd6d bf3a
-0.0009610604 -0.0046707676 -0.00064301724 0.00018070174 0.0060066204 -0.0045991885 0.0071056923 0.0020741653
-0.007324541 0.0013247821 0.0046866885 0.0029166243 -0.0061232205 -0.0077062156 -0.0019872067 0.0014604885

conv2.fc_self.weight f4 [16, 16]
00000000: 3be6 67bd 0d25 033e 6dff d13e 2380 46bf
00000010: aa9e 1abf 32c7 b4be 167c df3c b6a9 cfbd
00000020: 871c 823d b18c 55be 470a d43e 1b15 d83e
00000030: 59fd 17be e0cd e83e 78ec 82bc 3b20 063f
00000040: 8fe2 f23e bce4 a2bb d14d 03bf a83d cfbe
00000050: b698 803e 7503 abbe eb08 18bc 0efd 0dbe
00000060: 03af c23e b6da 3e3e 3362 cdbe ed1c ccbd
00000070: 9dce d7be 85ef 8b3e 4cc5 083f 961d c73e
00000080: 6fc4 5d3e a3f3 053e a43e bd3d 9a3d abbe
00000090: 0805 acbe 4230 f8be cd72 953d 460c a63e
000000a0: ba6f a5bd 642d 0cbf 4c54 f0be 83a6 1c3e
000000b0: 2ab4 153e 5b16 773e c9bc f63e fb7c 1ebd
000000c0: 3491 973d 22d6 2fbe aff4 c1be 218f 5d3e
000000d0: a410 dd3d 2bb0 80be 0b6b 0c3f 71e1 efbe
000000e0: eae4 c3be 4b6f f3be 3c1e c8be 73f9 22be
000000f0: e171 263e bea8 9f3e 6e1f c8be aa00 d03e
00000100: 4ca1 c1be 288c fcbe 44f1 4f3d e7f5 d8bd
00000110: 57c0 a23e 8977 0bbe dac3 3ebd cc77 63bd
00000120: 619c d43e 19cd acbe 5f23 ad3e 8208 eebc
00000130: 58e8 31be edee 873d 0377 263e c258 c6be
00000140: d9d7 1dbe 1b36 713d b935 6d3e 58a1 41be
00000150: f7e0 523e c43c 803e 046e 69bd 1ea4 dc3e
00000160: 32a3 863e 8263 45be 443d e43d e684 323e
00000170: 4070 b1be 3897 ca3e 31c4 a6be 0da7 07bf
00000180: 803b b23e 8c6c 03be 06c6 0dbf bf70 a33e
00000190: e181 0b3f 05af 253f 0136 783e 3229 0ebf
000001a0: a2d2 93be 72d3 f23e 70d3 60be e84c 5ebe
000001b0: c7d2 8dbe dfbc 8e3e a7c5 db39 f2fe 39be
000001c0: 03d5 52bd 02c2 a0be 9458 4dbe 0930 113e
000001d0: da5b 7f3e 163c a03e adc8 493e 7ecd 173e
000001e0: 8a66 283e 5243 7dbd 01e8 aabe 68d6 983e
000001f0: 5fe1 353e c6b1 423e 29c7 913e 5061 0ebc
00000200: 2c78 c33d e8a1 4bbe ec60 b6be cce6 223e
00000210: 4fc1 d13c 0730 953e cf0e a1be 9561 efbd
00000220: 6e57 fe3e 652c bcbd 668e 54be ca15 cdbe
00000230: 98e6 833e b9ef bebe 2b86 11be 699f a83d
00000240: c9da 83be 1045 903d 138a 79be 0355 013d
00000250: 6b14 b73b 437f 74be 263e 70be bea2 56be
00000260: 6992 e0bd fded 36be cc94 95be bb36 55be
00000270: a4cf f83e 3de6 d4bd 54ee 823e 7439 f93d
00000280: ad84 debd 1a2a 783d 72b2 32be 16ff 863e
00000290: 2528 a1be 899f 5e3e 5b50 84be 8bc4 b9bd
000002a0: 7583 2ebf 52aa 923e 9feb 9b3e 8870 12be
000002b0: 8b0f 9fbe b679 273e 11ee bf3d 61b5 b4be
000002c0: 0cb6 37be b65a cc3d b565 adbe 399a cdbd
000002d0: 39dc 743e 8d74 0f3f 2555 88be 079a cc3d
000002e0: d3e9 113e e547 443f 354a b03e 036b 94be
000002f0: c987 3bbd 46e7 683e 95bc 1d3e 6395 b3bd
00000300: aa69 493e 16b7 c6bd a465 853c 2846 39be
00000310: dc34 1e3e f5f6 a1bd d1c1 2bbe 06fe 43be
00000320: d575 153e 487c 963e 4df4 103e 52ba c4be
00000330: ca0b 08bf 3866 893e ae40 ad3e 4171 13bf
00000340: 7d74 abbe 1a7d 5cbe 7472 9d3e b218 9b3e
00000350: 0862 08be 752e 433e 5d4d d13e 0b03 f0be
00000360: 4131 313d 56ea 893e d0a1 1b3e cf76 dfbe
00000370: a349 5a3e 567b 3f3d 949b c7be bbc8 04be
00000380: 8e3b 823e e3bf 85bd ddaf a93e 13ac e2be
00000390: bd09 1d3e 3b58 8abe cab6 aa3e 4ccb 353e
000003a0: d376 e3bc e742 62bd fecb c83e be9c 9b3c
000003b0: 74e3 953a 3632 2bbf 5550 e93d 18c8 1a3e
000003c0: c7d6 21be ee21 91be b0c0 edbe 0779 23be
000003d0: b149 943e b225 d0bd ec09 323e df6e dfbd
000003e0: fe29 d0bc e428 ae3b 30e5 a6be 5de5 99be
000003f0: 40b5 aa3e c358 cbbe db69 5fbe 26bd d43e
-0.05661605 0.12807103 0.41015187 -0.7753927 -0.6039835 -0.35308224 0.027280848 -0.10139792
0.063530974 -0.20854451 0.4141409 0.42203602 -0.14842738 0.4546957 -0.015981898 0.5239293
0.47438475 -0.004971115 -0.51290613 -0.40476727 0.2511651 -0.33401075 -0.00927947 -0.13866064
0.38024148 0.18638119 -0.40113983 -0.09966455 -0.4214982 0.27331176 0.5342605 0.3888976
0.21656965 0.13081221 0.092404634 -0.33445436 -0.3359759 -0.48474318 0.07297287 0.3243124
-0.08077951 -0.5475676 -0.46939313 0.15297894 0.14619508 0.24129622 0.48190907 -0.03869341
0.07400742 -0.17171529 -0.3788199 0.2163663 0.107941896 -0.25134405 0.54850835 -0.46851686
-0.38260585 -0.47545847 -0.39085567 -0.1591547 0.16254379 0.31183428 -0.3908648 0.40625507
-0.37818372 -0.4932568 0.0507672 -0.10593777 0.3178737 -0.13619818 -0.046573497 -0.05553417
0.41525558 -0.33750227 0.33816049 -0.029056791 -0.17373788 0.06637368 0.16256337 -0.38739592
-0.1541437 0.05888949 0.23165025 -0.18909204 0.2059363 0.2504636 -0.056989685 0.4309396
0.26296383 -0.1927624 0.11144498 0.17433509 -0.34655952 0.39568496 -0.32571557 -0.52989274
0.3481102 -0.12834376 -0.55380285 0.31921956 0.54495054 0.64720184 0.24239351 -0.5553161
-0.28871638 0.47426945 -0.21955657 -0.21709025 -0.27699873 0.27878472 0.00041918198 -0.1816366
-0.051472675 -0.31398016 -0.20053321 0.1417848 0.24937382 0.31295842 0.19705458 0.14824483
0.16445366 -0.06183178 -0.3338013 0.2985108 0.17761753 0.19013128 0.2847226 -0.008690193
0.09544405 -0.19885981 -0.3562082 0.15908355 0.025604872 0.29138204 -0.3145661 -0.11688534
0.4967608 -0.09188155 -0.20757446 -0.40055686 0.25761867 -0.3729227 -0.14211337 0.0823353
-0.25752857 0.070444226 -0.24369077 0.031575214 0.005587151 -0.23876671 -0.23461208 -0.20960519
-0.109654255 -0.17864223 -0.29215086 -0.2082166 0.48595917 -0.10395477 0.25572455 0.121691614
-0.1086515 0.060587026 -0.17450884 0.2636649 -0.3147594 0.21740545 -0.25842556 -0.09070691
-0.6816934 0.2864557 0.30453202 -0.1430074 -0.31066546 0.16355023 0.093715794 -0.3529463
-0.17940539 0.09978239 -0.3386666 -0.10039181 0.23912133 0.5603722 -0.2662746 0.09990316
0.14249353 0.766722 0.34431615 -0.28987893 -0.04578379 0.22744474 0.1540397 -0.08768728
0.19669214 -0.097028896 0.016283818 -0.18093169 0.15449852 -0.079084314 -0.16773154 -0.19139871
0.1459573 0.29391694 0.14155693 -0.384234 -0.5314299 0.268358 0.3383841 -0.57594687
-0.3348731 -0.21532097 0.30751383 0.3029228 -0.13318646 0.1906069 0.40879336 -0.46877322
0.043259863 0.26936597 0.15198445 -0.4364533 0.21317153 0.04674848 -0.38985884 -0.12967198
0.25436062 -0.0653074 0.33141986 -0.44271907 0.15335746 -0.2702044 0.33342582 0.17753333
-0.02776662 -0.055239584 0.39218134 0.018995639 0.0011435584 -0.6687349 0.11392275 0.15115392
-0.15804587 -0.283462 -0.4643607 -0.15964137 0.28962472 -0.1016344 0.17386597 -0.10909819
-0.025410648 0.005314933 -0.3259673 -0.30057803 0.33341408 -0.39716157 -0.21817724 0.4155056

conv2.fc_neigh.weight f4 [16, 16]
00000000: 7362 96bd c40f 273e 2a76 bbbe 9992 c1be
00000010: e397 dbbe 7fda a73e 3b69 a3bd 3f00 293e
00000020: 6dc3 923d 30d5 1bbf 588b b5be 652b f83e
00000030: 4b64 e5be 1c11 5f3f 82ec 06bd da6e b03d
00000040: 5a32 d5be 2239 143f e65d 973e d744 5abe
00000050: ab30 ccbd 0ebf 7cbe ba58 f7bd 7f22 3d3d
00000060: cb4a 1c3f b31e 3fbe ca48 133e eaeb 8b3e
00000070: 6ca6 efbe 84ff 9cbe 0631 9cbe 8f3a 4e3d
00000080: 6d2f 10bf bb21 a3be de3d c43e 8e7a a9be
00000090: fbc1 e83e 82cc e93d 1115 803e c68c c43e
000000a0: 1d36 2cbe 4bf4 8dbd ce49 873e bf3b 4ebf
000000b0: d246 f7be 2d11 4c3d 908a 333e 9e6c acbe
000000c0: 537d df3e be13 0e3f e6b7 663d d5dd d03e
000000d0: 9dbf 8cbe 3fc2 c03e c3a5 173e 0e29 a3be
000000e0: b1d2 b4be b8e8 e6be a07b e2bd 16a9 05bf
000000f0: 5995 9f3e e053 a93d b777 bd3e dc84 2e3f
00000100: 9078 cd3e 360d 14bf 0b85 a6be 4f64 8bbe
00000110: 6c67 f53e 372d 72be 7db3 943e c15a a33b
00000120: 3d53 5c3f aeac 31bf 965a 3b3f 09ba 99be
00000130: faf7 a5be 682c 51be b38d 103f ba32 d83c
00000140: 93ac 2cbf d4b9 18bf d16f 25bf 6cb2 27be
00000150: 4bab 863e 5096 90be 7dc9 8c3f 8ce7 bb3c
00000160: 9017 193e 38f4 08bf f54c f9be f4d3 0b3f
00000170: dacb 5ebd 3082 ee3c ac8c 96be 3183 96be
00000180: 6603 ae3e f742 f53d 404b b93e e829 c33e
00000190: 8d06 88be 16ad 393f 626b bbbe 0038 a2be
000001a0: 20da 01be 256f 173e 418e 9bbe d035 a6be
000001b0: bfb9 fabb 2d76 553d dec5 7fbe be61 d73e
000001c0: dac9 333e e1ec f1be 128f c43e f16b 07bd
000001d0: 24f7 0abf ba12 243f 4614 2abd a61f 993e
000001e0: 9341 09bc d074 383f 5dbe 03be 343f efbe
000001f0: 7abc 053f f57e 693e c4dc 173e d033 443d
00000200: f6fe 88be 62b5 d2bc 7f20 e4be 3a07 703e
00000210: b2fa 28bf 481e 50be d298 cabe 520e 15be
00000220: b77d d93e bd5f d3be 1f39 e1be 0e00 65be
00000230: 3c84 ae3e c690 323c 3ac3 82bd 4fd7 ebbe
00000240: 2af7 c2bd b766 933d 1779 59bf 7cf5 59bc
00000250: 7fa0 e93e 7abd 3b3e 8426 82be 11bd 74be
00000260: 2c94 00bf 973c cd3e f863 a8be e2d6 07be
00000270: 0d40 e03d d402 ed3e 48d4 e63e 7c73 0abf
00000280: b687 afbe 073a 03be 0629 e13d 1b47 283e
00000290: dfc7 50be b0a4 083f 02b9 36bf ecb6 de3e
000002a0: aa54 a1be 1ad1 6ebe d385 953e fbfd 98bd
000002b0: 918b 15bf 0904 853e e50e 83be 55d0 d63e
000002c0: 83a2 04bf 070e 483f e40c ffbd 398c f63d
000002d0: 155c 073e c96d 3a3e 8a52 bcbd a29a a63e
000002e0: ef3f 173f f851 693e dcc9 063e ba85 0a3c
000002f0: cbd7 ca3e 38ac 893c d48c 68bd 4191 db3e
00000300: 31d5 a8be b4ef 3fbf 24f4 a1be 7b3c 15bf
00000310: 1d85 d33e 15c5 dfbe bfb9 3c3e 98dc acbe
00000320: e93a 183e 20cf dabd 7c6c 3cbf 564f 6c3e
00000330: 8f6b db3e 5a20 093d 64f4 d83e 4e97 423e
00000340: 7faf 5f3e 5ee1 ba3e 4df4 023f fcfa 113f
00000350: 6a6e 0fbf 50da 92be a173 523d 788a cfbe
00000360: d5cb 95bc 9e9a 6cbd 8e12 a5be 0f96 ccbd
00000370: e3e8 87be 9dc2 523f 7230 da3e 8a58 a2be
00000380: 636d 1d3f 2afe e4be b4d7 b2be 94d1 b1be
00000390: 9f9a b3be 7738 e2bd b43b d03e 9be6 a33e
000003a0: 174f 82bd b2dd 1ebc 2d88 8ebe 9141 12bf
000003b0: e797 e03d 040d 15bf e1fd ae3e 0e28 dabe
000003c0: 966e aabe b51a 2ebf 71e6 de3c 2fe0 11bf
000003d0: 2286 ec3d 5310 f2be 3d70 d43e 4c53 bfbe
000003e0: e4d2 fc3d dabd 1f3f a46a 59be 02f8 2bbf
000003f0: acec 5cbe af4e ccbe 780d 1dbf 695a db3e
-0.073429964 0.16314608 -0.3661359 -0.37807158 -0.42889318 0.32783887 -0.079790555 0.16504
0.07166181 -0.60872173 -0.35457873 0.48470607 -0.4480308 0.8713548 -0.032940395 0.08614893
-0.41639978 0.5789968 0.29563826 -0.21315323 -0.0997022 -0.24682257 -0.1207747 0.046175476
0.61051625 -0.18664055 0.14383236 0.27328426 -0.46806657 -0.30663693 -0.30506152 0.050348815
-0.56322366 -0.31861672 0.3832845 -0.33101314 0.45460495 0.1141596 0.25016072 0.38388652
-0.16817518 -0.06931361 0.26423496 -0.80559915 -0.4829622 0.049821068 0.17533326 -0.33676618
0.43650302 0.55498874 0.056327723 0.40794244 -0.2748994 0.37648198 0.14809327 -0.3186726
-0.35316995 -0.45099425 -0.11058736 -0.5221113 0.3116863 0.08267951 0.37005398 0.6817148
0.40131044 -0.5783266 -0.3252338 -0.27224967 0.47930467 -0.2365006 0.2904319 0.004985184
0.8606451 -0.69404113 0.731851 -0.30024746 -0.32415754 -0.20427096 0.56466216 0.026391376
-0.6745083 -0.5965855 -0.64623743 -0.16376656 0.2630256 -0.2823968 1.0998989 0.022937559
0.14950395 -0.5349765 -0.48691526 0.5462029 -0.054393627 0.029114813 -0.294042 -0.29396966
0.33986968 0.11975663 0.36190224 0.3811791 -0.26567498 0.72529733 -0.36605364 -0.3168335
-0.12680864 0.14788492 -0.3038197 -0.3246293 -0.007651537 0.052114654 -0.24977824 0.4206676
0.17557469 -0.47251037 0.38390404 -0.033061925 -0.54283357 0.64091074 -0.04152324 0.29906958
-0.0083774505 0.7205324 -0.12865587 -0.46727908 0.5224072 0.22802337 0.14830309 0.047900975
-0.2675702 -0.025721256 -0.44556043 0.23440257 -0.6600753 -0.20324051 -0.39569718 -0.14556244
0.42478725 -0.4128398 -0.43988892 -0.22363302 0.34085262 0.0108987745 -0.06384893 -0.46062705
-0.09519799 0.07197326 -0.84950393 -0.013303157 0.4563026 0.18333998 -0.2542001 -0.23900248
-0.5022609 0.4008529 -0.3288877 -0.13265565 0.10949717 0.4629122 0.45083833 -0.54082465
-0.34283227 -0.12815104 0.10994153 0.16433375 -0.20388745 0.53376293 -0.7137605 0.43498933
-0.31509906 -0.23321953 0.29203662 -0.07470318 -0.58416086 0.2597964 -0.255973 0.4195582
-0.51810473 0.78146404 -0.124536306 0.12038464 0.1321872 0.18205942 -0.091954306 0.3253985
0.5908193 0.22785175 0.1316294 0.008454734 0.39617762 0.016805753 -0.05677493 0.42884257
-0.32975152 -0.7497513 -0.31631577 -0.5829541 0.41312495 -0.4370505 0.18430232 -0.3376205
0.14866222 -0.10684037 -0.73603034 0.2307714 0.42855498 0.03347812 0.42373955 0.1900303
0.2184429 0.36500067 0.51154023 0.57023597 -0.56027853 -0.28682184 0.051379804 -0.4053533
-0.018285671 -0.057764642 -0.3224072 -0.09989559 -0.26544866 0.82328206 0.42615086 -0.31708175
0.61495036 -0.44725162 -0.34930193 -0.34730208 -0.35078904 -0.11045926 0.4067055 0.32011876
-0.063627414 -0.009696411 -0.2783827 -0.57131296 0.10966473 -0.58222985 0.3417807 -0.42608684
-0.33287495 -0.680095 0.027209492 -0.569827 0.11549021 -0.4727808 0.4149188 -0.37368238
0.12344912 0.62399065 -0.21232086 -0.67175305 -0.21574658 -0.3990378 -0.61348677 0.42842415

conv3.bias f4 [16]
00000000: d2e4 b83a f930 a03c b418 a0bb 1a68 bd3b
00000010: 0af7 9b3c cea8 913b ec4f 3cbc 9a95 703c
00000020: 8f1e 54bb 0546 763a 2b40 45bc eec6 cabb
00000030: 3a60 35bb ad32 f23a daf5 4fbc 0baa 6339
0.001410628 0.019554602 -0.0048857573 0.005780232 0.019038696 0.004445172 -0.011493664 0.014684105
-0.0032366847 0.0009394589 -0.012039225 -0.006188265 -0.0027675764 0.0018478237 -0.012692893 0.00021711753

conv3.fc_self.weight f4 [16, 16]
00000000: 8e0e 913e a788 b7be 072e a4be a73e 80be
00000010: 1632 34bc 209e a33b 12fb 213e 3f16 0f3e
00000020: 8c33 0c3d 508a f03e a568 09be d8ae 1dbd
00000030: 5f1f b93c 6bde 41be 3424 72be f481 ffbd
00000040: d89f dcbd 6da4 acbe 92bd b33e fca0 b03e
00000050: dfa9 56be 294a 123e b856 46bd 6e01 79be
00000060: fbac 33bd 38d4 db3e cf55 debe 95db e23e
00000070: cb99 7c3c ffec 07bd ef3c 7e3d 2879 94be
00000080: b21e d83d e552 c93e e47f f1be 62ac e3be
00000090: eec7 2dbe cbaf 8c3e 41da f53e a459 923e
000000a0: b2c3 adbe aced 913e de3c 5fbe 4ff3 d7be
000000b0: 863c b3be 1fdf af3d d9e8 e9bd 253e ddbe
000000c0: 1e03 313e 4ad8 19be aff2 b0be be94 3bbd
000000d0: 41a3 6e3e b215 59be 04b0 323e 54e9 e03c
000000e0: b412 9d3d ca57 e3bd 1d2f a6bd e257 c63b
000000f0: 3359 a1be 1922 14bf d53b 63be 7c52 73be
00000100: 58d9 08be 05f9 0b3c 40ef 82be 36bf f73d
00000110: e031 d23d b061 46be f2ab d0bd 6a73 a0be
00000120: 24b7 ecbe a217 75be 357d f13a aea0 ffbd
00000130: 74fc c03e db3d 8bbe c648 033e 9db3 de3e
00000140: 5845 d83c 008c aabe e626 0f3e 9214 5dbe
00000150: b416 c0bd a4e7 dbbd a909 873e 0cb8 b8be
00000160: c1df 8d3d 535d c53e 56bb d6bc 4651 3fbe
00000170: cb85 4bbe a682 5e3e cea7 683e 27db 1d3d
00000180: 9682 2b3f 3b96 9dbe 68fb 09be e2b4 9eba
00000190: d8a2 6bbc f850 80be 8b47 53be 486f 573e
000001a0: 9f8b 373e ca79 95be 16ec a23e 9367 1e3d
000001b0: b771 6abc 24b5 b8bd 82d1 f1be 0afd c53e
000001c0: dc12 fe3d d1f6 903e af04 aabe 8bcd 0f3d
000001d0: ecb6 3b3e 72d1 ca3e 5195 10bf 263a 313e
000001e0: 3369 98be c97b 9d3e aaea 813e d5d5 90be
000001f0: 28e0 123d 8456 013e ab58 863e 3e99 a63e
00000200: 0654 a5be 12a9 8b3e 7582 11be 1915 adbe
00000210: bf4c 913e 3a54 3d3e 13f9 1abe bfd3 683c
00000220: 9f39 863d 1996 44bd 2f78 253d 5e2f 88be
00000230: 3558 dfbe 7004 ae3e 2d58 dfbd 3d41 b33d
00000240: 4697 2dbe bac5 13bc 92a8 4dbe 0bbc 4fbd
00000250: 5fce 05be 2154 613e 3a9b 3bbe c4c4 9d3e
00000260: 2998 90be 71f9 943e 2d75 783e 7476 3a3e
00000270: 813f c03d 870d 16be a7fc 51be b652 95bd
00000280: 6054 14be 2add 47bd 60ce 86be ec5c cc3e
00000290: e6fd b7be 4277 1bbe 6566 01bf 00cb 1e3e
000002a0: 1abf bdbd 1178 14be 153f 19be 92f3 d13e
000002b0: 7ef9 a33e a8b7 5e3d 7321 703e 63d7 f03d
000002c0: 8031 6abe bad3 b03e 669d aabe 860d a13e
000002d0: c5a1 85be e42c bb3e 6788 b4bc 1212 98be
000002e0: 6259 8f3e 0fe0 3dbd 2777 433e 003f 08bf
000002f0: 9001 e63c f0db aebe 9740 8c3e dd83 623d
00000300: 498f 123e 369f 13bf d223 81be cb6b ea3e
00000310: 5853 b43e 46d0 e0be 2905 ab3d 1dc2 86bd
00000320: 3216 17bc 10c9 7a3e d63f dcbe 6fda 913e
00000330: 278f ca3e ae7c 93be 07de 873d b69f cbbd
00000340: 80ed 3b3e d69f 363e cb5f 95be d1d7 6ebe
00000350: cd20 cebd d8cf e63e 1a73 cf3e 0df2 eabe
00000360: 7fee 29be 8f13 ec3d c0fa 253d 53fe 9bbe
00000370: 625b b5be dd3b cf3e e240 2c3e 1dba 3cbd
00000380: 4c10 d33e a719 c9be 5850 e5bc 25cd 643d
00000390: d411 25be 4668 943e 2d87 a53e a9af 193e
000003a0: bbe5 1b3e 1f1d d7be e8d2 9ebe e482 523e
000003b0: 3220 d53d 40f1 94bd 738c 903d 486b 723e
000003c0: f751 23be 1d97 c4bd 3666 9e3d 9063 febc
000003d0: 0273 083e 80a6 a8bd b23a a6be 0a0d c3be
000003e0: 6006 b7be d68d 1cbe 4240 a1bd 3dbe 853d
000003f0: b488 b13c 34db c33d 553f a0be e1ff c23e
0.28331417 -0.35846445 -0.32066366 -0.250478 -0.01099827 0.004993215 0.15818432 0.1397333
0.034228846 0.46980524 -0.13418825 -0.038496822 0.022597967 -0.18932502 -0.23646623 -0.124759585
-0.10772675 -0.33719197 0.35105568 0.3449782 -0.20963238 0.14286102 -0.048422545 -0.24316952
-0.04386614 0.42935348 -0.43424842 0.44308153 0.0154175265 -0.033185 0.06206983 -0.28998685
0.1055273 0.39321056 -0.47167885 -0.44467455 -0.16970798 0.2747787 0.48018077 0.28584015
-0.33938366 0.28501642 -0.21800563 -0.42177817 -0.35007113 0.08587479 -0.11421365 -0.43211475
0.17286345 -0.15023914 -0.34560153 -0.04579615 0.23304464 -0.21199682 0.17449957 0.02745501
0.07669583 -0.11100729 -0.08114455 0.006052957 -0.31513366 -0.5786453 -0.22190793 -0.23761934
-0.1336416 0.008543258 -0.25573158 0.120970175 0.10263419 -0.19373202 -0.10189046 -0.31338054
-0.46233475 -0.23934796 0.0018424155 -0.12481819 0.37692606 -0.2719563 0.1282073 0.4349641
0.026400253 -0.33309937 0.13979682 -0.21589878 -0.0937933 -0.10737541 0.26374558 -0.36077917
0.06927443 0.38547763 -0.026212376 -0.18683347 -0.19875257 0.21729526 0.22720262 0.038539078
0.66996133 -0.3077868 -0.1347481 -0.0012108351 -0.014382087 -0.25061774 -0.2063276 0.21038544
0.17924355 -0.2919448 0.31820744 0.038672995 -0.014309338 -0.09018925 -0.47230154 0.38669616
0.12405941 0.28313306 -0.33206698 0.03510813 0.18331498 0.3961292 -0.5647784 0.17307338
-0.2976776 0.30758503 0.25374347 -0.2828814 0.035858303 0.1263066 0.26239523 0.3253879
-0.32290667 0.27277428 -0.14209922 -0.3380516 0.28378865 0.18489161 -0.15134077 0.01421064
0.06553959 -0.047994707 0.04039782 -0.26598638 -0.43621984 0.3398776 -0.1090549 0.087526776
-0.16952237 -0.00901931 -0.20083836 -0.05071644 -0.13067006 0.22004749 -0.18320933 0.30814183
-0.2824109 0.2909656 0.24263449 0.18209249 0.093871124 -0.14653598 -0.20506535 -0.072911665
-0.14485312 -0.048794903 -0.26329327 0.39914644 -0.35935897 -0.15182212 -0.50546867 0.15507126
-0.09264965 -0.14498927 -0.1496547 0.41006142 0.32026285 0.054374367 0.2345026 0.11759832
-0.22870445 0.34536535 -0.3332321 0.3145563 -0.26099983 0.36557686 -0.022037698 -0.29701287
0.2799788 -0.046356257 0.19088422 -0.5322113 0.028076917 -0.34152174 0.27393028 0.055301536
0.14312471 -0.5766481 -0.2522264 0.45785365 0.35219836 -0.439089 0.083505936 -0.06579993
-0.0092216 0.24490762 -0.43017453 0.28486964 0.39562342 -0.2880606 0.06634145 -0.09942572
0.18352318 0.1783441 -0.29174647 -0.23324515 -0.1006485 0.45080447 0.40517503 -0.45887795
-0.16594885 0.11527168 0.040522337 -0.3046747 -0.35421282 0.4047536 0.16821626 -0.04607593
0.4122337 -0.39277384 -0.027992412 0.055859704 -0.16120082 0.28985804 0.32329693 0.15008415
0.15224354 -0.42014405 -0.31020284 0.20557743 0.104065314 -0.07272577 0.070580386 0.23673737
-0.15949236 -0.09599135 0.07734339 -0.031053334 0.13325122 -0.08234882 -0.32466656 -0.38095886
-0.3574705 -0.15288481 -0.07873584 0.06530426 0.02167163 0.09563294 -0.31298319 0.38085845

conv3.fc_neigh.weight f4 [16, 16]
00000000: dfd4 aa3d 2b3f ee3e 59ab f5be d475 14bf
00000010: b43a aebe 3a31 4bbd b60e 22bf c0d7 1a3f
00000020: 0846 1ebe a479 eb3e 1134 07be 19cc bdbe
00000030: f977 373f 005c 043f 1b11 f5bd ec08 88be
00000040: ca9a 06be af2c 803d e2c2 8ebe da0f c83e
00000050: 987a f7be 8d36 8bbd bac3 14bf cd6f 963d
00000060: cc13 febe 3116 a53e 8451 fabe 87f8 9c3e
00000070: f582 1c3e 6877 6b3d 1b29 a33e 3f68 09bf
00000080: 5194 5bbe 7bbb e23e 7ba6 cbbe b878 0cbe
00000090: 994c f63d c227 1fbf 9144 4fbe 4c6a c0be
000000a0: da18 06be 89a7 d8be 8332 12bf 292f bbbe
000000b0: a9c6 ea3e ab0c cb3e def1 d23e f559 0a3f
000000c0: 324a 82be 1d82 a33e 4119 2bbe 34a1 e7be
000000d0: 1e3d 0e3f 339f 50be ce27 003f 478c a8be
000000e0: 5095 cebe 3c05 613d b079 b5be 8525 1ebe
000000f0: d900 c4be 3d48 45be 3964 17be e158 e1be
00000100: 59fd e1be df77 2fbf 949d 9c3e 7c25 c7be
00000110: c163 23be e7d2 87be e198 133f a753 4cbe
00000120: 418b 27bd 9a83 043f 23d3 e03e 0332 183e
00000130: 7a5e c03e 9eb1 b4be dc00 75bd 226b b4be
00000140: 325d b53e 0b87 a7be 49f6 cabe 9334 bcbe
00000150: abe9 c4be 79cb c2be df6c c0be 8e30 da3d
00000160: b343 963e 1412 0cbf a5d1 fc3d 83bb 44bf
00000170: 9744 babe 3989 fe3d 258c 203e d33b 163e
00000180: b4fc 753e a9a8 58be cf83 663c 15d6 a53e
00000190: 1f37 063d 4951 833d 10b9 0f3f 6c56 cfbe
000001a0: a6b5 e2be b61d c53e 01a1 9dbd 0203 2e3e
000001b0: 8b14 15be e4c0 71bd 29db 263c 2a37 2c3e
000001c0: a329 95be 25e1 15bf df04 92be dbd5 02be
000001d0: 71b2 abbe 0ab9 ecbd 23ba 36bf 0027 bebe
000001e0: 33f4 e73e 38df cd3d 8b32 e33d 9ccc e0bd
000001f0: fee5 81be 6501 0cbf 770d 7e3e f847 98be
00000200: 3b6b b1be 1541 debe 6bce 80be 326b 843e
00000210: 3fac 81be d88b de3e 9cdd 0a3e 9656 373c
00000220: 9ea3 103f 1335 c03e 758e 6bbe de0a d63d
00000230: bf15 0ebf be56 b23c cb4b ccbe c918 b83d
00000240: 943d 12bd b1b8 f1bd 1185 e1bc adfd c93e
00000250: 1765 6f3e 2aef 273f 2740 fa3e 18d9 f5be
00000260: 8757 083d 4582 683e baa9 113d c251 a5be
00000270: 8f1b 39bd 8519 c6be 6444 ba3e e689 f33d
00000280: ff14 413e ea28 cebe 2aea f8be 089b 213e
00000290: eda3 ca3e ac06 86be 107a 6bbe 7f44 0f3e
000002a0: 13c1 ef3e 07ad 34be 05dd a8be 962f 0e3f
000002b0: 823b b6bb 18c7 b2be 46a1 223d baf9 c43e
000002c0: 4a32 f73e 52b4 123e ed38 01bf 3428 bdbe
000002d0: fc34 b8be 6175 053f 3eb4 143f 2b63 7cbc
000002e0: 280e fabe 3b53 913e 7286 bbbe 06b1 cebd
000002f0: 566d 83be 4fb5 a3be d722 98be 6da0 b23e
00000300: b25d 283d 217e 96be 72c5 12be 3268 0b3f
00000310: 0580 103f 6d26 b53e c7dd 36be afb4 bf3e
00000320: 738a f2be e5f2 83be 59b6 23bd 290c 80be
00000330: f504 2b3e 1dd3 f13e cbba 613e 67eb cfbe
00000340: d388 af3e fd8d 3cbd 6e4b 55be 5287 06ba
00000350: c034 ec3e 0ff1 1f3e 2460 ca3d 0471 f0be
00000360: b24f 233f e39e ef3e 7a2c 13be 2302 f43e
00000370: 5852 183c b227 72bd 9563 a03e d82a 52be
00000380: a9fd 32be b2d5 6ebd d2d2 64be dbf7 d0be
00000390: 8365 44be 6f97 3c3f 6474 ae3e b264 0b3f
000003a0: 4437 cfbe 803a ecbd 8a10 8f3d d4fb 543e
000003b0: fdb1 dcbe 1b59 abbd 9995 123f 5ddb 0cbf
000003c0: bc19 93be cf73 81be cb76 013f 1464 06bf
000003d0: f267 02bd 5f35 843e f37b 1f3c f3d2 e2be
000003e0: 6d6e 20bf 1edb 09be 9d6b d7be f98b bc3c
000003f0: 89e2 b1be 1b8e 1e3f 206e 38bf 1c48 d53e
0.08341383 0.46532568 -0.4798229 -0.5799229 -0.34029162 -0.049607493 -0.633037 0.6048546
-0.15456402 0.45991242 -0.13203456 -0.37069777 0.7166744 0.5170288 -0.11966153 -0.26569307
-0.13144985 0.06258523 -0.2788306 0.39074594 -0.4833572 -0.06797514 -0.58111155 0.07345543
-0.4962448 0.32243493 -0.48890316 0.3065836 0.15284331 0.05748692 0.31867298 -0.5367469
-0.21443297 0.4428366 -0.39775452 -0.13717926 0.120263286 -0.6217004 -0.20241 -0.37581098
-0.13095418 -0.4231532 -0.57108325 -0.36559418 0.4585469 0.39658102 0.41200155 0.54043514
-0.25447232 0.31935206 -0.16708852 -0.45240176 0.5556201 -0.2037323 0.5006074 -0.32919523
-0.4034829 0.054936633 -0.35444403 -0.15444 -0.38281897 -0.19265838 -0.14784326 -0.44013122
-0.441386 -0.68542284 0.30588973 -0.38895786 -0.15956022 -0.26528093 0.5765515 -0.19953786
-0.040904287 0.5176331 0.43911085 0.14862828 0.3757208 -0.3529176 -0.059815273 -0.35237986
0.35422665 -0.32720217 -0.39641026 -0.3675886 -0.38459525 -0.38045862 -0.37583062 0.10653792
0.29348525 -0.54715085 0.12344674 -0.7684862 -0.36380455 0.12428517 0.15678461 0.14671259
0.2402218 -0.21158089 0.014069512 0.32389894 0.03276741 0.06411988 0.5614176 -0.40495622
-0.44279212 0.3849923 -0.07696725 0.16993335 -0.14558618 -0.059021845 0.010184088 0.16817918
-0.2913333 -0.5854667 -0.2851934 -0.12776892 -0.33534577 -0.11558731 -0.7137777 -0.3713913
0.45303497 0.10052341 0.11093625 -0.10976526 -0.25370783 -0.5468963 0.24809824 -0.29742408
-0.34652123 -0.4340903 -0.25157484 0.25863034 -0.25326726 0.43466067 0.135611 0.011190077
0.5649966 0.37540492 -0.23003562 0.104512915 -0.5550193 0.021769878 -0.39901575 0.089891024
-0.035703257 -0.11802805 -0.027529271 0.39451352 0.23378406 0.6559931 0.4887707 -0.48017192
0.033286598 0.22705944 0.035562254 -0.3228894 -0.045192298 -0.38691345 0.36380303 0.118915364
0.18855666 -0.4026559 -0.48616153 0.15781796 0.3957819 -0.26176965 -0.22995782 0.13990973
0.4682699 -0.1764413 -0.32981125 0.5554136 -0.005561293 -0.3491752 0.039704584 0.38471776
0.48280555 0.14326599 -0.50477487 -0.36944735 -0.35977924 0.5213223 0.5808753 -0.015404503
-0.48838925 0.28383812 -0.3662601 -0.10092358 -0.25669354 -0.31974265 -0.2971408 0.3488802
0.04110498 -0.29393104 -0.14333132 0.54455864 0.5644534 0.3538088 -0.17858039 0.37442538
-0.47371253 -0.2577125 -0.039968822 -0.25009277 0.1670111 0.4723138 0.22043912 -0.40609285
0.34284076 -0.046033848 -0.20829555 -0.00051318586 0.46133995 0.156193 0.098816186 -0.46961224
0.6379348 0.46800908 -0.14372435 0.4765788 0.009296976 -0.059119888 0.31325975 -0.20524156
-0.17479576 -0.058309264 -0.22346047 -0.408141 -0.19179349 0.7366857 0.34073174 0.54450524
-0.40471852 -0.115345955 0.069855765 0.2079919 -0.43104544 -0.08366605 0.5725952 -0.5502222
-0.2873057 -0.25283667 0.5057189 -0.5249646 -0.03183741 0.2582197 0.009734142 -0.44301566
-0.62668496 -0.13462493 -0.4207429 0.023015963 -0.34743145 0.61935586 -0.7204304 0.41656578
