model.pth (torch, 31873 bytes, 12 tensors)

conv1.bias f4 [16]
0	0xbc3ad305	-0.01140285
1	0xbc67a05b	-0.014137353
2	0x3c891928	0.016735628
3	0xbcb06cd5	-0.02153627
4	0xbd0ce95c	-0.034402236
5	0x3c8d99c7	0.01728524
6	0x3c72d3d7	0.014821014
7	0xbbf1f19a	-0.0073835375
8	0xbba28462	-0.004959629
9	0xbaf049f0	-0.0018332582
10	0x3c1c125d	0.0095258625
11	0x3ca54a12	0.020176921
12	0x3c8a88d1	0.016910942
13	0xbcee1626	-0.029063296
14	0x3ce1a26b	0.027543267
15	0xbc767ec7	-0.0150448745

conv1.fc_self.weight f4 [16, 170]
0	0xbe0264e8	-0.12733805
1	0x3cd049ff	0.02542591
2	0xbd9aa8de	-0.0755174
3	0x3d04f593	0.03246076
4	0x3d911d46	0.070856616
5	0xbce8b6b7	-0.028407438
6	0xbe15ceee	-0.14629719
7	0xbdb92ef1	-0.090421565
8	0x3dadf3b5	0.08493749
9	0xbe11513f	-0.14191149
10	0x3bda5596	0.0066630347
11	0x3d32ad51	0.04362232
12	0xbdb219ea	-0.08696349
13	0x3dea559b	0.11442109
14	0x3c95c6c5	0.018283257
15	0xbdcc6ce9	-0.099817105
16	0xbd12f26d	-0.035875726
17	0x3a086a27	0.0005203806
18	0xbdfb1d38	-0.122614324
19	0xbd4bf2a4	-0.049791947
20	0x3d7e52f5	0.062090833
21	0xbd31df05	-0.04342558
22	0x3ae8550d	0.0017725542
23	0x3e25222c	0.16126317
24	0x3e442c8e	0.19157621
25	0x3e06d2ef	0.13166402
26	0x3dd1ea46	0.10249762
27	0x3c477495	0.012173791
28	0x3c6c7bb2	0.014433788
29	0x3d3ef5b9	0.046621058
30	0x3d34df37	0.044158187
31	0x3d76b798	0.060233682
32	0xbd022592	-0.03177411
33	0xbd647559	-0.055775974
34	0x3dfa09c8	0.12208897
35	0x3dc01abb	0.093800984
36	0x3e1f66d1	0.15566565
37	0x3da13428	0.07871276
38	0xbe5e32cd	-0.21699066
39	0x3e2545af	0.16139863
40	0x3dd0697d	0.1017637
41	0x3e2dcdc1	0.1697302
42	0x3dc5ff48	0.09667832
43	0xb99d40be	-0.0002999361
44	0x3b58c555	0.0033076603
45	0xbe603f74	-0.21899205
46	0x3d19fb3c	0.03759311
47	0x3d4b0610	0.04956633
48	0x3df722af	0.12067162
49	0xbda41048	-0.08010918
50	0x3c8c29ba	0.01710974
51	0x3c82917b	0.015938511
52	0xbcc4ecb3	-0.024038648
53	0x3d645ee2	0.05575455
54	0x3d804dd3	0.06264844
55	0xba9ed4f5	-0.001211791
56	0xbcd46694	-0.02592782
57	0xbe069c71	-0.13145615
58	0x3dd2929e	0.10281871
59	0xbe3b1b41	-0.18272115
60	0xbe651bba	-0.22373858
61	0xbe940005	-0.28906265
62	0xbcee0d95	-0.02905921
63	0xbe6d28fc	-0.23160166
64	0x3c63a2ad	0.013893765
65	0x3e83dd2d	0.2575468
66	0xbd16e433	-0.03683872
67	0xbe436b5c	-0.19083923
68	0x3e2a7d8b	0.16649453
69	0xbce58572	-0.028017733
70	0x3d976907	0.07393079
71	0x3e8bebe5	0.2732841
72	0x3e00f6d9	0.12594165
73	0x3dfd21cb	0.12359961
74	0x3d9e0934	0.07716599
75	0xbde0d025	-0.109772004
76	0x3d8b2adb	0.067952834
77	0x3e1ec150	0.1550343
78	0xbe34b52c	-0.17647237
79	0xbe3e8c83	-0.18608288
80	0xbcde2846	-0.027118813
81	0xbd83c207	-0.06433492
82	0x3e027d22	0.12743047
83	0x3c7d7f99	0.015472316
84	0x3ea352e1	0.3189917
85	0xbd62cc5c	-0.055370674
86	0xbcf2dd17	-0.02964644
87	0xbd55ea2b	-0.052225273
88	0x3cef508f	0.029213218
89	0xbd9f52cb	-0.077794634
90	0xbdeead1f	-0.11654114
91	0xbddaeeca	-0.10690077
92	0xbd1dce6e	-0.038526945
93	0xbd2ce9e8	-0.042215258
94	0xbda4b21e	-0.08041786
95	0xbdfb5f02	-0.12273981
96	0x3c691aa6	0.014227545
97	0x3ca58705	0.020205984
98	0x3ccf8e7c	0.025336497
99	0xbdac2fd3	-0.08407559
100	0x3dade098	0.084901035
101	0x3c8a3c36	0.016874414
102	0xbd3be902	-0.04587651
103	0xbe0c222e	-0.13684914
104	0xbee8406c	-0.4536165
105	0x3e6b2ab5	0.2296551
106	0xbc146546	-0.009057349
107	0xbd9091e2	-0.07059075
108	0x3d3ca256	0.046053253
109	0x3d80e4b8	0.06293625
110	0xbcb26739	-0.021777736
111	0xbe227c47	-0.1586772
112	0x3dae4146	0.08508544
113	0x3e0e77d0	0.13912892
114	0x3c39e469	0.011345961
115	0xbd9adc6a	-0.07561572
116	0xbe22b804	-0.15890509
117	0xbe226883	-0.1586018
118	0x3e0d4544	0.13795954
119	0xbe34dff8	-0.17663562
120	0x3cd44e14	0.025916137
121	0x3e286d12	0.16447857
122	0xbdec0b12	-0.11525549
123	0x3d2f401a	0.04278574
124	0x3dde14e9	0.10843832
125	0xbe34764a	-0.17623249
126	0x3b158025	0.0022811976
127	0x3c560fb8	0.013065271
128	0x3d21bbab	0.039485615
129	0x3d99bba6	0.07506494
130	0x3e334c24	0.17509514
131	0x3d69870e	0.057013564
132	0x3d5f93fa	0.05458448
133	0x3d3e32ec	0.04643528
134	0x3cab7c54	0.020933308
135	0xbeeb8d05	-0.46006027
136	0xbd757e1a	-0.059934713
137	0xbd83a457	-0.0642783
138	0xbce4e83e	-0.027942773
139	0x3da98a52	0.08278336
140	0xbdae06b6	-0.08497374
141	0x3c79c525	0.015244757
142	0xbda6e3c9	-0.08148915
143	0xbe98016f	-0.29688594
144	0x3d6ddf3b	0.058074217
145	0xbd100e1b	-0.035169702
146	0x3d0a2664	0.03372802
147	0x3d8466bb	0.06464907
148	0xbe3ade10	-0.18248773
149	0x3de45a42	0.11150028
150	0x3e6f55f6	0.23372635
151	0x3e353e34	0.1769951
152	0xbdc87c37	-0.09789317
153	0xbcf246e8	-0.029574826
154	0x3e190b82	0.14945796
155	0xbe14ea85	-0.14542587
156	0xbe3cac08	-0.18425
157	0xbcdc01d7	-0.026856346
158	0x3d897a29	0.06712753
159	0x3e5a132f	0.2129638
160	0x3d7b4126	0.061341427
161	0x3d6c7aca	0.05773429
162	0xbd926e64	-0.071499616
163	0xbc9cf63f	-0.019160388
164	0x3d781d38	0.06057474
165	0xbe102011	-0.14074732
166	0x3dd7b416	0.105323955
167	0x3c82089f	0.015873251
168	0x3d4cc3e2	0.049991496
169	0x3e484f9a	0.19561616
170	0xbe8bc194	-0.27296126
171	0xbe386385	-0.18006714
172	0xbd969741	-0.07353068
173	0x3db53db2	0.08849658
174	0x3d8541ce	0.06506692
175	0x3af006b9	0.001831255
176	0xbaa97ec6	-0.0012931458
177	0x3d8dfc6e	0.06932913
178	0x3c855a39	0.016278373
179	0x3e7e29a3	0.2482057
180	0x3b9f87d8	0.0048684888
181	0xbe3504e6	-0.1767765
182	0xbd495ffd	-0.049163807
183	0x3e2504ab	0.16115062
184	0xbe502d32	-0.2032974
185	0x3dfdf7b1	0.12400759
186	0xba92a840	-0.0011189058
187	0x3da073cb	0.07834586
188	0xbce9e4d0	-0.02855149
189	0x3dc62cf8	0.09676546
190	0x3e334ae3	0.17509036
191	0xbdde61f5	-0.108585276
192	0x3bfaf32e	0.007658384
193	0x3d9bc727	0.07606345
194	0x3e2c238d	0.16810437
195	0x3dd9e598	0.10639495
196	0xbe35c911	-0.17752482
197	0x3e0073b4	0.12544137
198	0x3c9850ff	0.01859331
199	0xbdbc602c	-0.09198031
200	0xbe34d2ea	-0.17658582
201	0x3af423dd	0.0018626411
202	0xbc520314	-0.012818117
203	0xbd1466af	-0.03623074
204	0xbdc424d1	-0.09577335
205	0xbde4a5ee	-0.11164461
206	0xbd64f05a	-0.05589328
207	0xbc2c6d37	-0.010524086
208	0xbd0cc47e	-0.034367077
209	0x3d3cac86	0.04606297
210	0xbc51918e	-0.012791051
211	0xbc9f29fc	-0.0194292
212	0xbd7573ff	-0.059925076
213	0xbe179343	-0.1480227
214	0x3e1ce4f3	0.15321712
215	0x3d3de96d	0.04636519
216	0xbdfdde49	-0.12395913
217	0x3cb4d422	0.022073809
218	0xbc9c85f5	-0.019106844
219	0xbd7697e4	-0.060203448
220	0xbdd519de	-0.104053244
221	0x3d05bc5f	0.032650348
222	0xbd62ef99	-0.05540428
223	0xbd005ea0	-0.03134024
224	0x3be76d11	0.0070625623
225	0x3d0c280a	0.03421787
226	0xbba3677e	-0.0049867025
227	0x3dbb3df3	0.09142675
228	0x3c0aaba5	0.008463775
229	0x3e1894ee	0.14900562
230	0xbe41d5a6	-0.18929157
231	0xbd98e8a6	-0.07466249
232	0xbd381835	-0.04494496
233	0x3d9768e9	0.07393057
234	0xbd208312	-0.0391875
235	0xbe49ff0a	-0.19726196
236	0x3dda7ca1	0.10668302
237	0xbe9e15af	-0.30875918
238	0x3cf6ccc9	0.030126946
239	0x3d7eecf9	0.062237713
240	0xbe059992	-0.13046864
241	0xbc58e6c9	-0.013238617
242	0xbd9fc96a	-0.078020886
243	0xbd4767d6	-0.04868301
244	0x3d8d90ae	0.06912361
245	0xbcb887fa	-0.022525776
246	0xbd9f8641	-0.07789279
247	0xbd6cefea	-0.057845987
248	0xbcc3ae0f	-0.023886709
249	0x3e41d706	0.18929681
250	0x3ca48540	0.02008307
251	0x3df817f4	0.12113944
252	0xbea3e381	-0.3200951
253	0xbe1718ed	-0.14755602
254	0x3e1392cd	0.14411469
255	0xbe0da508	-0.13832486

conv1.fc_neigh.weight f4 [16, 170]
0	0xbed32ca8	-0.41245008
1	0x3e1d9eef	0.1539266
2	0xbde0e7de	-0.10981725
3	0x3e2c9243	0.1685267
4	0x3e8a66d5	0.2703158
5	0x3ba0de72	0.00490933
6	0xbdfc5ed1	-0.12322772
7	0x3c6207ee	0.013795836
8	0x3d95eb2e	0.073202476
9	0x3e8c96fd	0.27458945
10	0xbd1382f6	-0.036013566
11	0xbeff5457	-0.49869034
12	0x3d6b8109	0.057496104
13	0x3d9e3aac	0.077260345
14	0xbdabff7a	-0.08398338
15	0xbe47097a	-0.19437209
16	0x3dc20036	0.094726965
17	0xbe841741	-0.2579899
18	0xbd640a68	-0.055673987
19	0xbdf93ca9	-0.12169773
20	0x3cb9f262	0.022698585
21	0xbd7ac26a	-0.061220564
22	0xbccfd8f9	-0.025372015
23	0x3e2d9f2d	0.16955252
24	0x3e132dd1	0.14372946
25	0x3e3a492a	0.18191972
26	0xbd8f96ce	-0.070111856
27	0x3d526aae	0.05137127
28	0xbdd1ac7e	-0.102379784
29	0x3d8c04eb	0.068368755
30	0x3d36cc74	0.044628575
31	0xbcd722a1	-0.02626163
32	0xbd585ec0	-0.052824736
33	0xbd0014a4	-0.031269684
34	0x3e1198b0	0.14218402
35	0x3cca813f	0.024719832
36	0x3d3e74f4	0.046498254
37	0xbd9be321	-0.07611681
38	0xbeaad6f8	-0.33367133
39	0x3d08455d	0.033269275
40	0xbceafaf9	-0.028684126
41	0xbdd6829d	-0.10474131
42	0xbe436f48	-0.19085419
43	0xbe7b4d58	-0.24541223
44	0x3edb2007	0.42797872
45	0xbc9e2df3	-0.01930902
46	0x3e3326e2	0.17495301
47	0x3e26c359	0.16285457
48	0xbcd34f52	-0.025794659
49	0x3d0c66bf	0.034277674
50	0xbd5fa5b0	-0.05460137
51	0x3d485ce4	0.048916712
52	0x3c70f059	0.014705741
53	0xbe82e2b5	-0.2556359
54	0xbc8ce3a1	-0.017198386
55	0xbc9c5e4d	-0.019087935
56	0xbe5bb7a2	-0.21456769
57	0xbe636231	-0.22205426
58	0xbe1f6444	-0.15565592
59	0xbe53a657	-0.20668922
60	0xbe57092c	-0.20999593
61	0xbe9ce3f9	-0.3064268
62	0xbe34d6b0	-0.17660022
63	0xbcd96fc1	-0.026542546
64	0x3e1c6687	0.15273486
65	0x3e196b2e	0.14982292
66	0xbe3fcb53	-0.18729906
67	0xbe73ccc1	-0.23808576
68	0x3dedff5d	0.11620972
69	0xbe7cc1ae	-0.24683258
70	0x3dc96373	0.098334216
71	0xbd6d5794	-0.05794485
72	0xbdae0e2a	-0.08498795
73	0x3e22a436	0.15882954
74	0x3d9fb235	0.07797662
75	0xbca55e90	-0.020186692
76	0x3e7be84a	0.2460033
77	0x3db2e8e2	0.08735825
78	0xbde93a23	-0.11388042
79	0xbe41776b	-0.1889321
80	0x3e3eca9f	0.18631981
81	0x3e442754	0.19155627
82	0x3ebc1c83	0.36740503
83	0x3bc6f5c1	0.0060717766
84	0x3eff8fbc	0.49914348
85	0x3deccc26	0.11562376
86	0x3e102e2f	0.14080118
87	0xbe301c23	-0.17198233
88	0x3c8f32a6	0.017480206
89	0xbe008264	-0.1254974
90	0x3e61a9d6	0.22037444
91	0xbbc38dbc	-0.005967824
92	0xbd894d9e	-0.067042574
93	0xbe375817	-0.17904697
94	0xbd8178fc	-0.06321904
95	0xbdbf2c02	-0.09334566
96	0xbbd3b745	-0.0064610564
97	0x3c281ef0	0.010261282
98	0xba52cd42	-0.000804145
99	0xbe86f0be	-0.26355547
100	0x3c94f794	0.01818446
101	0xbd94d600	-0.0726738
102	0xbecab568	-0.39591527
103	0x3d009d06	0.03139975
104	0xbe80b7c8	-0.25140214
105	0x3e9963ce	0.29958957
106	0x3e1e1ba0	0.15440226
107	0xbdb5f6d0	-0.088849664
108	0xbc838d6e	-0.01605865
109	0x3e0f93eb	0.1402127
110	0xbef2a52d	-0.47391644
111	0xbdeb2dec	-0.11483368
112	0x3e00fa89	0.12595572
113	0x3db145f6	0.08655922
114	0xbb936b5a	-0.0044988813
115	0x3dd6a18c	0.10480031
116	0xbcd2bc8a	-0.025724668
117	0xbeb34ea7	-0.35020944
118	0x3e357927	0.17721997
119	0xbe3a915c	-0.18219513
120	0xbe061930	-0.13095546
121	0xbe8e650a	-0.27811462
122	0xbc1bd510	-0.009511247
123	0xbd53ec88	-0.051739246
124	0xbcab2d7b	-0.02089571
125	0x3d26b6b8	0.040701598
126	0x3dfcf9c8	0.123523295
127	0xbd032f81	-0.032027725
128	0x3e17cb24	0.14823586
129	0x3cb46f5e	0.02202576
130	0x3e5c1dec	0.2149579
131	0xbd417545	-0.047230978
132	0xbdd08d46	-0.10183196
133	0x3e2c97a5	0.16854723
134	0x3d758dac	0.059949562
135	0xbefe35f4	-0.49650538
136	0x3e38f567	0.18062364
137	0xbe3bd945	-0.183446
138	0xbda2b49a	-0.07944603
139	0x3cc80122	0.024414603
140	0x3de89b96	0.11357801
141	0x3e499471	0.19685532
142	0xbd9fdf77	-0.078062944
143	0xbe39dbb0	-0.1815021
144	0x3e805ad9	0.2506931
145	0xbdd32e0e	-0.103115186
146	0x3e0ea530	0.13930202
147	0xbdf176ee	-0.11790262
148	0x3befbb0f	0.0073160003
149	0x3e26ec98	0.16301191
150	0x3be4353b	0.0069643534
151	0x3da82550	0.08210242
152	0xbe273b0c	-0.16331118
153	0xbdbc9066	-0.09207229
154	0x3c9d35a9	0.019190626
155	0x3db8c8eb	0.09022697
156	0x3e2f50e3	0.171207
157	0x3de4e28a	0.111760214
158	0x3dcaf29a	0.09909554
159	0x3d8f65ec	0.07001862
160	0x3d947431	0.07248724
161	0xbe26c0f0	-0.16284537
162	0xbdb44745	-0.08802656
163	0xbdbe5062	-0.092926756
164	0xbe02905b	-0.1275038
165	0xbe712146	-0.23547849
166	0x3d2fe4e4	0.042942896
167	0x3deca1c1	0.115542896
168	0xbc855b70	-0.016278952
169	0xbdcce3dc	-0.10004398
170	0xbe4335f2	-0.19063547
171	0xbe446c30	-0.19181895
172	0xbd8d584a	-0.069016054
173	0x3aac6f27	0.0013155685
174	0xbe236c55	-0.15959294
175	0x3e965903	0.29364786
176	0x3e0c56f3	0.13705043
177	0x3dfb827f	0.122807495
178	0x3ed74432	0.42044216
179	0x3eeff0cd	0.46863404
180	0x3e217b1a	0.15769616
181	0x3e07c4a5	0.13258608
182	0xbdcbcb88	-0.0995093
183	0x3d06d9eb	0.032922667
184	0xbe748075	-0.23877127
185	0x3e342aed	0.175945
186	0x3be2744e	0.0069108373
187	0x3d4d461a	0.050115682
188	0xbcd3d209	-0.025856989
189	0xbcb35efb	-0.021895876
190	0x3d0a8d16	0.033825956
191	0xbe262a9d	-0.16227193
192	0x3dfa45cd	0.12220345
193	0xbe0c2dbf	-0.13689326
194	0x3de3347a	0.110939935
195	0x3d986634	0.07441369
196	0xbe85921c	-0.26088035
197	0xbc5e89b1	-0.013582633
198	0xbdcc7157	-0.09982555
199	0x3d5eecb7	0.054424968
200	0x3e8d7d6c	0.27634752
201	0x3eb261a5	0.34840122
202	0x3e8a3450	0.26993036
203	0xbd23ca34	-0.039987758
204	0xbd7475eb	-0.059682768
205	0x3d540632	0.05176372
206	0x3e528bee	0.20561191
207	0xbc489c5a	-0.012244308
208	0xbd857bbd	-0.06517742
209	0x3d483381	0.048877243
210	0xbd2694c9	-0.040669236
211	0x3e91a079	0.28442743
212	0xbe0962ad	-0.13416548
213	0xbe83f4a0	-0.25772572
214	0x3e8650a3	0.26233396
215	0xbd12c2cf	-0.035830315
216	0x3d159fe5	0.03652944
217	0xbcae510e	-0.021278884
218	0xbe0c0df7	-0.13677202
219	0xbc426b13	-0.011866349
220	0xbe91db19	-0.2848747
221	0x3e254d89	0.16142859
222	0x3cd5af85	0.02608467
223	0x3df93ca0	0.121697664
224	0xbe5da817	-0.21646152
225	0xbcee8028	-0.029113844
226	0xbe3b0b18	-0.1826595
227	0xbd613e7d	-0.054991234
228	0xbd957f93	-0.072997235
229	0x3ea04ae7	0.31307146
230	0xbea176fc	-0.3153609
231	0xbe57815c	-0.2104544
232	0xbe851e28	-0.2599957
233	0x3e57bdde	0.21068522
234	0xbe5a36e6	-0.21310005
235	0xbcd4c383	-0.025972134
236	0x3e2366da	0.15957204
237	0xbe05d125	-0.13068064
238	0x3d1425c7	0.03616884
239	0x3de9348f	0.11386978
240	0xbd8bd36f	-0.06827437
241	0x3db3a256	0.087711975
242	0xbe7ea40c	-0.24867266
243	0xbdab7829	-0.08372528
244	0x3d1cd1b8	0.03828594
245	0xbcba7bc7	-0.0227641
246	0xbe42d546	-0.1902667
247	0xbe8e9bbc	-0.2785319
248	0xbe0cc273	-0.13746051
249	0xbbae5751	-0.0053204675
250	0xbcb7d9ba	-0.022442687
251	0x3e8291ad	0.25501767
252	0xbed7a3be	-0.42117113
253	0xbec88b42	-0.39168745
254	0x3debee1a	0.11520024
255	0xbe095f6b	-0.13415305

conv2.bias f4 [16]
0	0x3b5d88d2	0.0033803475
1	0xbbde7720	-0.006789103
2	0x3cdc0058	0.026855633
3	0xbb8cd419	-0.004297745
4	0x3cac9394	0.021066464
5	0xbc12f885	-0.0089703845
6	0x3c235ccc	0.009970855
7	0xbb18a015	-0.0023288776
8	0xbc1fc357	-0.0097511625
9	0x3c36c963	0.011156413
10	0x3bb45793	0.0055036037
11	0xbc364c85	-0.011126642
12	0xb916cfd8	-0.00014382543
13	0xbb7836dd	-0.0037874498
14	0x3c64b8f9	0.013960117
15	0x3b661441	0.0035107287

conv2.fc_self.weight f4 [16, 16]
0	0x3e8a6592	0.27030617
1	0x3e7dda4b	0.24790303
2	0x3edbaeef	0.429069
3	0xbe665760	-0.22494268
4	0xbdb34862	-0.0875404
5	0x3e434f7e	0.19073293
6	0xbf0c3169	-0.54762894
7	0xbe8ed70f	-0.27898452
8	0xbec37c97	-0.38180992
9	0xbed93e3e	-0.424303
10	0xbe362b84	-0.17790037
11	0xbe90fecb	-0.28319392
12	0x3e9a418a	0.30128127
13	0x3d15d051	0.03657562
14	0xbb3a5c76	-0.0028436459
15	0x3e92848a	0.28616744
16	0x3ea67f55	0.32519022
17	0x3ee85a7c	0.45381534
18	0xbede70c5	-0.4344541
19	0x3f28bec6	0.659161
20	0x3c5bcbc8	0.013415284
21	0x3e4e84df	0.20167874
22	0x3e696af6	0.22794709
23	0xbef16252	-0.47145325
24	0x3f0f1a1c	0.55899215
25	0xbe50d5b0	-0.20394015
26	0xbf29b2ef	-0.66288656
27	0x3e62c46b	0.2214524
28	0x3e6445a7	0.22292195
29	0xbe9c348c	-0.3050884
30	0xbe97efe9	-0.29675224
31	0x3e0b4500	0.1360054
32	0x3ee615a9	0.449384
33	0x3f0cf048	0.5505414
34	0x3e57fc00	0.21092224
35	0xbdd8e688	-0.10590845
36	0xbef64d45	-0.48105827
37	0xbe704829	-0.23465027
38	0xbeb44b2d	-0.35213605
39	0x3eb4264b	0.35185465
40	0x3f214a44	0.63003945
41	0xbe57f236	-0.2108849
42	0xbea61934	-0.32441103
43	0xbdd45cfd	-0.103692986
44	0x3ee1714f	0.4403176
45	0xbeba807a	-0.36426145
46	0x3e031a0c	0.12802905
47	0xbe83f836	-0.25775307
48	0xbe147f66	-0.14501724
49	0xbf0595dc	-0.5218179
50	0xbeeccce6	-0.46250075
51	0x3ec50be8	0.38485646
52	0xbe2800aa	-0.16406503
53	0x3e31dc56	0.17369208
54	0x3eb49e24	0.35276902
55	0x3ebacf73	0.36486396
56	0x3eeae6bd	0.45879164
57	0x3e64821b	0.22315256
58	0xbdbb607d	-0.09149263
59	0xb83e7030	-4.5404013e-05
60	0xbed0e583	-0.40800104
61	0x3dbc6478	0.091988504
62	0xbeedc15d	-0.46436587
63	0x3de5df6d	0.11224256
64	0xbefad1a5	-0.4898807
65	0x3eeca565	0.46219936
66	0x3e13fd5f	0.14452122
67	0xbeb7d8e8	-0.35907674
68	0x3ec79d37	0.38987133
69	0xbf090ed2	-0.5353824
70	0x3ee309a1	0.44343284
71	0xbdba15c2	-0.09086181
72	0xbec8290c	-0.39093816
73	0x3cddc980	0.027073622
74	0x3e1e43bb	0.15455525
75	0xbe8201be	-0.25391954
76	0x3ee10cbe	0.43955034
77	0x3eaa17d6	0.3322131
78	0xbdca0326	-0.09863882
79	0xbda43648	-0.08018166
80	0x3e226ecf	0.15862583
81	0x3f2bb7a2	0.67077076
82	0xbebaefc5	-0.36511055
83	0xbe94bef1	-0.29051927
84	0xbd3a2521	-0.045445565
85	0xbd6129c5	-0.054971475
86	0x3eba897a	0.3643301
87	0x3f03a845	0.51428634
88	0xbb824b5f	-0.00397627
89	0x3ed1ce57	0.40977737
90	0xbdb8515d	-0.08999894
91	0xbeeebf89	-0.46630505
92	0xbec36197	-0.38160393
93	0xbe9e1c0e	-0.3088078
94	0xbeac334a	-0.3363288
95	0xbc8e9c7a	-0.017408598
96	0xbe5cfaf4	-0.21580106
97	0xbf14d0cc	-0.581311
98	0xbead8c79	-0.33896235
99	0xbebeaff3	-0.37243614
100	0x3e93acb6	0.28842705
101	0xbc08fc3f	-0.008360921
102	0x3ee01fce	0.43774265
103	0x3e71f1d6	0.2362741
104	0xbdaebe29	-0.08532364
105	0xbdbbef41	-0.091764934
106	0x3e8223de	0.2541799
107	0x3e5ac624	0.21364647
108	0xbe0defc2	-0.13860992
109	0xbe11234d	-0.14173622
110	0xbd90aead	-0.07064567
111	0xbf08565c	-0.53256774
112	0xbf09ec63	-0.5387632
113	0x3e81bb6e	0.2533831
114	0x3eddff42	0.4335881
115	0x3e65ffae	0.22460815
116	0xbeb8569e	-0.36003584
117	0xbe2c2554	-0.16811115
118	0xbc47346c	-0.012158494
119	0x3eb92674	0.3616215
120	0xbdc16240	-0.09442568
121	0x3e457135	0.19281466
122	0x3e7f3c34	0.2492531
123	0x3da29eac	0.079404205
124	0x3e717b81	0.23582269
125	0xbb2cd9d0	-0.0026374944
126	0x3dcae559	0.09907026
127	0xbead47bf	-0.338438
128	0x3f045ca4	0.5170386
129	0x3f021eea	0.5082842
130	0x3dcf93a8	0.10135585
131	0x3def602c	0.11688265
132	0xbe1f6d8b	-0.15569131
133	0x3e07a15a	0.13245144
134	0x3ec193e1	0.37808135
135	0x3eccecf2	0.40024525
136	0xbeeaa666	-0.45830077
137	0x3ee59765	0.44842067
138	0x3e808af9	0.25106028
139	0xbf25f8a6	-0.6483253
140	0xbeb2827f	-0.34865186
141	0x3e8c41aa	0.27393848
142	0x3e402c6f	0.1876695
143	0x3ed448e7	0.4146187
144	0x3e422cc2	0.18962386
145	0x3e0894db	0.13338034
146	0xbef49de6	-0.47776717
147	0x3ea34157	0.31885788
148	0x3d90e394	0.07074657
149	0xbeb9d044	-0.36291707
150	0xbde57336	-0.11203615
151	0xbebdd6d0	-0.3707795
152	0x3efc2f98	0.4925506
153	0xbe388246	-0.18018445
154	0xbee8ce74	-0.4547001
155	0xbe9cabab	-0.30599722
156	0x3ec59d05	0.3859636
157	0xbf1c6b8d	-0.6110161
158	0xbdd8bdcd	-0.105830766
159	0x3e919845	0.28436485
160	0x3ee15019	0.44006422
161	0xbe797060	-0.24359274
162	0x3e133acc	0.14377898
163	0x3e86ffc4	0.2636701
164	0x3e781f76	0.24230751
165	0x3ed0ef85	0.4080774
166	0x3e186b94	0.14884788
167	0xbe78509c	-0.242495
168	0xbda86b25	-0.08223561
169	0xbeb34249	-0.3501151
170	0x3dc48060	0.09594798
171	0x3f052d2b	0.52022046
172	0x3e85a73b	0.2610415
173	0x3ec0412d	0.37549725
174	0x3ed90de8	0.42393422
175	0xbc838534	-0.016054727
176	0x3e37a854	0.17935306
177	0xbf02504d	-0.5090378
178	0x3e38189a	0.17978135
179	0xbeb87ea0	-0.36034107
180	0xbe53407f	-0.20630072
181	0x3da6a2ee	0.08136545
182	0x3efbdff0	0.49194288
183	0xbed5c67d	-0.41752997
184	0x3e8809e4	0.26570046
185	0x3eaf0e15	0.3419043
186	0x3e2d2578	0.16908824
187	0x3e451eca	0.19250026
188	0xbed83878	-0.42230582
189	0xbdd814ec	-0.105508655
190	0x3e9fd01f	0.3121347
191	0x3e515aba	0.20444766
192	0xbc6dbdea	-0.014510611
193	0x3eacb06c	0.3372835
194	0xbd24b3ea	-0.040210642
195	0x3d8fd334	0.07022706
196	0x3ec3607b	0.38159546
197	0xbea78bc6	-0.32723826
198	0xbf0faa05	-0.56118804
199	0x3ede8b2a	0.4346555
200	0xbe4e66d5	-0.20156415
201	0x3e170b0f	0.14750312
202	0x3da41adc	0.080129355
203	0xbf098f05	-0.53733855
204	0xbd1a629b	-0.037691694
205	0x3ec5148f	0.38492247
206	0x3c943cf6	0.018095475
207	0x3ecad8f4	0.39618647
208	0x3db803a4	0.089850694
209	0xbee75e90	-0.45189333
210	0x3e4c672d	0.19961233
211	0xbe8d93e6	-0.276519
212	0xbe8bb5fd	-0.27287284
213	0x3e3f88d4	0.1870454
214	0xbf27632d	-0.65385705
215	0xbec296bb	-0.38005623
216	0xbd7122ad	-0.05887096
217	0x3ef7cd12	0.48398644
218	0x3d8000ad	0.06250129
219	0x3c43a3a9	0.011940875
220	0xbec50282	-0.38478476
221	0x3d5a5428	0.053302914
222	0xbd812060	-0.06305003
223	0x3ec22ac6	0.3792326
224	0xbee77b67	-0.45211336
225	0xbe1043f8	-0.14088428
226	0xbd8b72c7	-0.068090014
227	0xbee41089	-0.44543865
228	0xbe943f40	-0.28954506
229	0xbec19619	-0.37809828
230	0xbd997996	-0.07493894
231	0x3eaa7646	0.3329336
232	0xbec85eba	-0.3913477
233	0x3ee17ebd	0.44042006
234	0x3f1a3fc7	0.60253567
235	0xbd9b67e5	-0.07588176
236	0xbe835ad3	-0.2565523
237	0x3e27262d	0.16323157
238	0x3d9ac7e0	0.075576544
239	0xbe16f5df	-0.1474223
240	0x3ead0f2a	0.33800632
241	0xbed09ad3	-0.40743122
242	0x3ee38923	0.44440565
243	0x3d0acd5f	0.033887263
244	0xbc73410b	-0.01484705
245	0x3e293c98	0.16527021
246	0xbf105495	-0.5637906
247	0xbdf81339	-0.121130414
248	0xbe92197e	-0.28535074
249	0xbd93b54b	-0.07212313
250	0x3ef175b1	0.47160104
251	0x3b4af7e4	0.0030970508
252	0xbee57df7	-0.44822666
253	0xbe43587a	-0.1907672
254	0x3e7a9336	0.24470219
255	0x3e1ce184	0.15320402

conv2.fc_neigh.weight f4 [16, 16]
0	0x3a8a9552	0.0010573065
1	0x3dd12967	0.10212975
2	0x3e9a34d3	0.30118427
3	0xbefb7d29	-0.49118927
4	0xbd81f663	-0.06345823
5	0xbda7a5b7	-0.081859045
6	0xbeb12212	-0.34596306
7	0xbe0414a7	-0.12898503
8	0xbdebe096	-0.11517446
9	0xbe190207	-0.1494218
10	0x3e38b4c3	0.18037705
11	0x3e35c166	0.17749557
12	0xbdfe6599	-0.12421722
13	0x3eb273a9	0.34853867
14	0x3e838882	0.25690085
15	0x3cd1fcbd	0.02563321
16	0xbe020c5b	-0.12700026
17	0xbec7d1d4	-0.39027274
18	0xbeab6f0d	-0.33483163
19	0x3ede5cb6	0.43430108
20	0x3e9aadf2	0.30210835
21	0xbe635eda	-0.22204152
22	0xbeab3ad8	-0.33443332
23	0xbf135c82	-0.5756303
24	0xbef4deab	-0.47826132
25	0x3f016c42	0.50555813
26	0xbebdf128	-0.3709805
27	0x3e3e44c4	0.1858092
28	0xbf1c1c4c	-0.6098068
29	0x3e3777cf	0.17916797
30	0xbe586901	-0.21133806
31	0xbece3a95	-0.4027907
32	0xbf112ebd	-0.5671194
33	0xbe84c403	-0.25930795
34	0xbe60a1d3	-0.21936731
35	0xbec395ab	-0.38200125
36	0xbacca665	-0.0015613554
37	0xbf047626	-0.5174278
38	0xbe67f4f1	-0.22652031
39	0xbea682bb	-0.32521614
40	0x3f12b068	0.57300425
41	0xbefb3a52	-0.49067932
42	0xbe9a331e	-0.30117124
43	0xbdb8216b	-0.08990749
44	0x3cca7f67	0.024718953
45	0x3e3d98b4	0.18515283
46	0xbed5a969	-0.41730812
47	0xbf07afbe	-0.53002536
48	0xbf0b58db	-0.5443246
49	0xbf25b61d	-0.6473101
50	0xbea2d9ab	-0.31806692
51	0xbebf5165	-0.37366787
52	0x3e4cf0e4	0.20013767
53	0x3ebe73f0	0.37197828
54	0x3d84159e	0.06449436
55	0x3e3bdbce	0.18345568
56	0xbefc6d2f	-0.4930205
57	0xbe27afc0	-0.16375637
58	0x3e9195c1	0.28434566
59	0xbe517022	-0.20452932
60	0xbf1feeb0	-0.62473583
61	0x3eccfc85	0.40036407
62	0xbecdf7fb	-0.40228257
63	0x38953e5a	7.1164875e-05
64	0x3e0cfc8c	0.13768214
65	0xbd4b4fd0	-0.049636662
66	0x3eeb2800	0.45928955
67	0x3d5fc1e5	0.05462827
68	0x3ebeb0fd	0.37244406
69	0x3e2de3b8	0.16981399
70	0xbdf94615	-0.1217157
71	0xbee40b17	-0.4453971
72	0xbf05be13	-0.52243155
73	0x3e914632	0.28373867
74	0x3f4a1a36	0.78946245
75	0x3f023080	0.50855255
76	0x3e9e57ec	0.30926454
77	0x3ee7c4fa	0.4526747
78	0x3e81af7c	0.25329196
79	0x3d6dff3a	0.05810473
80	0x3e811bd5	0.25216547
81	0x3ea65cd4	0.32492697
82	0x3ba15680	0.0049236417
83	0xbf160dcd	-0.5861481
84	0x3ef937ce	0.48675388
85	0x3f2131f0	0.62966824
86	0x3f1fe15c	0.62453246
87	0x3ec7e4e0	0.39041805
88	0xbe637d6a	-0.2221581
89	0x3e9e9304	0.3097154
90	0x3e9c4c50	0.30526972
91	0x3e255f21	0.1614957
92	0x3ed55e48	0.41673493
93	0x3e2952f2	0.16535547
94	0xbd52c099	-0.051453207
95	0xbf1f0d13	-0.62129325
96	0xbee6a8ac	-0.4505056
97	0xbeea4512	-0.4575582
98	0xbe96e8af	-0.29474398
99	0xbe0e1a84	-0.13877302
100	0x3d8b7d46	0.068110034
101	0x3ebe873b	0.37212548
102	0xbedcbb7e	-0.43111795
103	0xbf04cfde	-0.5187968
104	0x3f017ded	0.5058277
105	0xbea65084	-0.32483304
106	0x3e83440c	0.25637853
107	0xbe0a873b	-0.13528149
108	0xbee31acb	-0.4435638
109	0x3dc45634	0.095867544
110	0xbf09ea7e	-0.5387343
111	0xbf039e63	-0.51413554
112	0xbe8d5d17	-0.27610084
113	0x3b59f808	0.003325941
114	0x3f1da519	0.61580044
115	0x3f0af085	0.54273254
116	0xba857f6a	-0.0010185067
117	0x3ef86df0	0.48521376
118	0xbe9e14f4	-0.3087536
119	0x3e230e60	0.15923452
120	0xbf0110ce	-0.50416267
121	0x3ed7be7d	0.4213752
122	0x3cfe051c	0.031008296
123	0x3e3be89b	0.1835045
124	0xbe814f88	-0.2525599
125	0xbe98d362	-0.29848772
126	0x3ea5276b	0.32256636
127	0x3eb74c90	0.358006
128	0x3e83e175	0.25757948
129	0x3db12ced	0.08651147
130	0x3e96c0d8	0.29444003
131	0x3e6c6bdf	0.23088025
132	0xbef2efd7	-0.47448608
133	0x3d0c8186	0.03430321
134	0x3effbffa	0.49951154
135	0xbf28a909	-0.6588293
136	0xbeb7355d	-0.357829
137	0x3ef34220	0.47511387
138	0xbea0c989	-0.3140376
139	0xbf20559d	-0.62630635
140	0x3e0d433e	0.13795182
141	0x3e434bd9	0.19071902
142	0x3ee0c58c	0.43900716
143	0xbef071cb	-0.46961817
144	0x3de0862f	0.109630935
145	0xbea38086	-0.31933993
146	0xbdfb1dba	-0.12261529
147	0x3d2a3c7a	0.04156158
148	0x3f3a54de	0.7278575
149	0x3e82ab47	0.255213
150	0xbe8517f1	-0.25994828
151	0x3e7f44d2	0.24928597
152	0xbe4bf3d8	-0.19917238
153	0x3d899035	0.067169584
154	0x3d17351b	0.03691588
155	0xbe576230	-0.2103355
156	0xbe8dd386	-0.27700442
157	0xbe7ca8de	-0.24673793
158	0x3f1f8a80	0.6232071
159	0x3ec52fcb	0.38513026
160	0xbde02089	-0.109437056
161	0x3ed7ecd8	0.42172885
162	0xbdeacdba	-0.114650205
163	0x3c6a275d	0.0142916115
164	0xbe0e917d	-0.13922687
165	0x3f0b2e36	0.5436739
166	0xbe193544	-0.14961725
167	0xbc9875ea	-0.018610913
168	0xbf1bfa74	-0.60929036
169	0xbf1c7db3	-0.611293
170	0x3dd19a67	0.10234528
171	0x3e632000	0.22180176
172	0x3e71cb90	0.23612809
173	0xbef7245c	-0.48269928
174	0x3cee3e43	0.029082423
175	0x3efa4f0d	0.48888436
176	0x3eb7c518	0.35892558
177	0xbeb3b95f	-0.35102364
178	0x3d471216	0.048601232
179	0xbdedb075	-0.11605922
180	0xbf3244b4	-0.6963608
181	0xbe141570	-0.14461303
182	0xbe6e6dd4	-0.23284084
183	0xbf0eef55	-0.5583394
184	0xbd5dbe5d	-0.054136623
185	0x3e3c36a4	0.18380219
186	0x3de8a5e6	0.113597676
187	0x3e1bb7ef	0.15206884
188	0x3ef54328	0.479028
189	0xbf1d22a7	-0.61381
190	0xbeb1ae56	-0.3470332
191	0xbe85589b	-0.26044163
192	0xbe9ff8db	-0.3124455
193	0xbeecf79c	-0.4628266
194	0xbd10d0c4	-0.035355344
195	0xbe446271	-0.19178177
196	0xbd5d0d10	-0.053967535
197	0xbedaa445	-0.42703453
198	0xbea7991e	-0.32734007
199	0x3e14da68	0.1453644
200	0x3cbb1226	0.022835802
201	0xbebfe71c	-0.3748101
202	0x3e1971b6	0.14984784
203	0xbdd2dd73	-0.10296144
204	0x3e8eaa08	0.278641
205	0xbe9129bc	-0.28352153
206	0xbcebf051	-0.028801115
207	0xbedc28d8	-0.4299991
208	0x3f364451	0.7119799
209	0xbe57a56e	-0.210592
210	0xbd484326	-0.048892163
211	0x3eccff97	0.4003875
212	0xbda3df7a	-0.08001609
213	0xbea6a4b8	-0.32547545
214	0xbc0af083	-0.008480194
215	0x3cd8b7ad	0.026454771
216	0xbeffc486	-0.49954623
217	0x3ee7376b	0.45159468
218	0x3c30771c	0.010770585
219	0xbe703f5b	-0.23461668
220	0x3e2d0741	0.16897298
221	0x3ebbad6d	0.3665575
222	0x3ed5f2ac	0.41786706
223	0x3f23484a	0.6378218
224	0x3ef005e3	0.4687949
225	0xbe3a0d56	-0.1816915
226	0x3dcf056c	0.10108456
227	0x3e94057c	0.28910434
228	0x3d20d76b	0.03926794
229	0xbe77356f	-0.24141477
230	0x3e8f4474	0.27981913
231	0x3e784cd1	0.24248053
232	0xbec78d16	-0.38974828
233	0xbd5fa329	-0.05459896
234	0x3edc4bb4	0.43026507
235	0xbec9a7ba	-0.39385778
236	0x3f15ff81	0.58592993
237	0x3e179a07	0.1480485
238	0x3f070472	0.5274116
239	0x3e25058d	0.16115399
240	0xbdcfa4e9	-0.10138876
241	0x3ebf0742	0.37310225
242	0x3f04ebf8	0.5192256
243	0x3eb6217e	0.35572428
244	0x3e9371a3	0.28797635
245	0xbe166cad	-0.14689894
246	0x3e661a87	0.22471057
247	0x3d546a57	0.051859226
248	0x3ef48627	0.477586
249	0xbdcfac8f	-0.10140335
250	0xbe2528e2	-0.16128877
251	0xbec0bb31	-0.37642816
252	0xbec72239	-0.38893297
253	0xbe284554	-0.16432697
254	0x3f116bfb	0.5680539
255	0x3edcb1fa	0.43104535

conv3.bias f4 [16]
0	0x3b8266f4	0.003979558
1	0xbc3efaac	-0.0116564445
2	0x3c768444	0.015046183
3	0x3c8b7fe7	0.017028762
4	0x3b82a89a	0.003987384
5	0xbab8fca8	-0.0014113383
6	0x3c06e872	0.00823413
7	0x3a98f25c	0.0011668908
8	0x3bf76764	0.007550167
9	0xbcd72f3b	-0.026267638
10	0x3c31e4b0	0.010857746
11	0xbc55cc94	-0.0130492635
12	0xbd126ee8	-0.0357503
13	0xbbdac43a	-0.006676224
14	0x3c1dcb10	0.009630933
15	0xbbaf3ad5	-0.0053475895

conv3.fc_self.weight f4 [16, 16]
0	0x3ee7bbb6	0.452604
1	0x3e5dcc14	0.21659881
2	0x3ecd54b2	0.4010368
3	0x3e9c4bf7	0.30526707
4	0xbd8c7106	-0.06857495
5	0xbf0f2562	-0.55916417
6	0x3db221f8	0.08697885
7	0x3d67de01	0.056608204
8	0x3ec59e08	0.3859713
9	0x3e2f7620	0.17134905
10	0x3f022c11	0.5084849
11	0xbe669b1c	-0.22520107
12	0xbde5b584	-0.11216262
13	0xbda09a28	-0.07841903
14	0x3f23d967	0.64003605
15	0xbe83ee1f	-0.2576761
16	0xbea4d756	-0.32195538
17	0x3e74e401	0.23915102
18	0x3eb8d498	0.36099696
19	0x3e8412d9	0.2579563
20	0xbeb1b086	-0.3470499
21	0xbe49e211	-0.19715144
22	0x3edd4070	0.43213224
23	0x3f383e14	0.71969724
24	0x3d112aa0	0.03544104
25	0xbe165344	-0.14680201
26	0x3e1dfd7f	0.15428732
27	0xbe6734ba	-0.22578707
28	0x3ed61dc9	0.418196
29	0xbca8ef47	-0.020621909
30	0xbf074a50	-0.52847767
31	0xbe02e433	-0.12782364
32	0xbe60b246	-0.21943006
33	0x3d1c8715	0.03821476
34	0x3d6e9913	0.05825145
35	0xbdd84acd	-0.10561142
36	0xbc71f0a0	-0.014766842
37	0x3f0c9271	0.5491095
38	0xbe321fb4	-0.17394906
39	0xbf199a73	-0.60001296
40	0xbe67155b	-0.2256674
41	0xbe264ba8	-0.16239798
42	0x3e36ff57	0.17870842
43	0xbeb82f95	-0.35973802
44	0x3eb58702	0.35454565
45	0xbe3ef717	-0.18648945
46	0xbb9ed9b6	-0.0048477305
47	0xbaa0d206	-0.0012269623
48	0xbc7d5d64	-0.015464161
49	0x3ea8323a	0.3285082
50	0x3ed63ed1	0.418448
51	0x3e1a2acf	0.15055393
52	0x3eb2fd2b	0.34958777
53	0x3e0edfb2	0.1395252
54	0x3e846fc1	0.2586651
55	0x3dfc63dd	0.12323735
56	0xbd54919f	-0.051896688
57	0x3d05575a	0.032554008
58	0xbea840ab	-0.32861838
59	0xbe918608	-0.2842257
60	0xbd7798c2	-0.060448416
61	0x3f08cd76	0.5343851
62	0xbe09ee3f	-0.1346979
63	0x3f09eecb	0.53879994
64	0x3ec00fff	0.37512204
65	0xbe48c287	-0.19605456
66	0xbe86483e	-0.2622699
67	0x3e009852	0.12558106
68	0xbdd18274	-0.1022996
69	0x3e524300	0.20533371
70	0x3e9a3464	0.30118096
71	0x3ebeeaf1	0.3728862
72	0xbea1bd87	-0.3158991
73	0xbeaef560	-0.3417158
74	0xbe618e5a	-0.22026959
75	0xbd918c7e	-0.07106875
76	0xbd5524d8	-0.05203709
77	0xbe8b2a6b	-0.271808
78	0xbee03a19	-0.43794325
79	0x3e12f710	0.1435206
80	0x3ec3d26f	0.38246486
81	0xbdfde067	-0.12396317
82	0xbf05b0a2	-0.52222645
83	0x3f12f818	0.5740981
84	0xbe4a3e53	-0.19750337
85	0xbd33b1e4	-0.04387082
86	0xbce10cda	-0.027471948
87	0x3e5c02d0	0.21485448
88	0x3e9683cb	0.29397425
89	0xbe36a881	-0.17837717
90	0xbe01e0a9	-0.12683357
91	0xbeb562f7	-0.35427067
92	0xbe4a963d	-0.19783874
93	0xbd049fed	-0.03237908
94	0x3e1558ae	0.1458461
95	0x3ec44aca	0.3833831
96	0xbf079084	-0.5295489
97	0xbeaaa03c	-0.33325374
98	0x3eb5b525	0.35489765
99	0x3f01b51f	0.50666994
100	0x3bfce611	0.0077178557
101	0xbeb5b4a4	-0.3548938
102	0xbe9a5947	-0.30146238
103	0x3e6a4167	0.22876512
104	0x3ea15a0e	0.3151402
105	0xbdeaf4d6	-0.1147248
106	0xbcc99429	-0.024606781
107	0x3e185021	0.14874317
108	0xbea225d9	-0.316695
109	0xbeb0fe9c	-0.34569252
110	0xbe3d8e3d	-0.18511291
111	0x3e63b81a	0.22238198
112	0xbe13925a	-0.14411297
113	0x3e86eb78	0.26351523
114	0xbee44ce2	-0.44589907
115	0xbee174ce	-0.44034427
116	0xbe42ad00	-0.19011307
117	0x3db5e3ce	0.08881341
118	0x3ebfb110	0.37439775
119	0x3e9bdd0a	0.30442077
120	0x3da8beee	0.08239542
121	0x3d658221	0.056032304
122	0x3dd10586	0.10206132
123	0x3e1a545e	0.15071246
124	0x3ee507a6	0.44732398
125	0x3d3520d5	0.044220764
126	0xbdeca79f	-0.11555409
127	0x3ec1ba71	0.37837556
128	0x3ea64781	0.32476428
129	0x3dae7988	0.08519274
130	0xbef2018b	-0.47266802
131	0xbeabd28c	-0.33559072
132	0xbec33565	-0.38126674
133	0x3e7b5407	0.24543773
134	0x3d32bfcf	0.043639954
135	0xbd92fe5e	-0.07177423
136	0xbd2f5729	-0.04280773
137	0x3ef1f16f	0.47254512
138	0x3e9633c4	0.2933637
139	0x3e869630	0.2628646
140	0xbeb1b50a	-0.34708434
141	0xbecf04c2	-0.40433317
142	0x3f03dfc9	0.51513344
143	0xbd8634c1	-0.06553031
144	0xbee7fe77	-0.4531133
145	0xbe468f96	-0.19390711
146	0x3d258cb0	0.040417373
147	0x3ebf9cbb	0.37424263
148	0xbc9b415a	-0.01895206
149	0x3e5967dd	0.21231027
150	0xbeccfb18	-0.4003532
151	0xbe77d1b3	-0.24201088
152	0xbe7a2892	-0.24429539
153	0xbe61964d	-0.22029991
154	0xbda366af	-0.0797857
155	0x3a38b052	0.0007045317
156	0xbeceadd7	-0.40367004
157	0x3dd3a33b	0.10333868
158	0x3e503e17	0.20336185
159	0xbe8d18d5	-0.27558008
160	0x3de13152	0.10995735
161	0x3a440e22	0.00074789126
162	0xbe25abe9	-0.1617886
163	0x3eda6b97	0.4266021
164	0xbdf41b4b	-0.11919268
165	0xbf070c9f	-0.52753633
166	0x3d8f7603	0.07004931
167	0x3f145c3b	0.5795323
168	0xbdd7a11f	-0.10528778
169	0x3ce172d3	0.027520573
170	0x3e4c830b	0.19971864
171	0x3e872f89	0.26403454
172	0x3e687cb9	0.22703828
173	0xbe9b73fa	-0.3036192
174	0xbedad9d6	-0.4274432
175	0xbe7ee908	-0.24893582
176	0x3ecdbea0	0.40184498
177	0x3f0a88e1	0.5411511
178	0xbf096b35	-0.5367921
179	0xbebff760	-0.3749342
180	0x3e10dee0	0.1414752
181	0x3e0aab67	0.13541947
182	0x3eb15823	0.34637555
183	0x3f02915b	0.51003045
184	0xbe5d852c	-0.21632832
185	0xbe96c290	-0.29445314
186	0x3e0d9cc7	0.13829337
187	0x3e813a0a	0.25239593
188	0x3eba0d43	0.36338243
189	0x3ef4d847	0.47821257
190	0x3eadd921	0.3395472
191	0x3ce219ad	0.027600134
192	0xbe05355e	-0.13008639
193	0xbc806e14	-0.01567749
194	0xbe8ce9a9	-0.2752202
195	0x3f0e40a3	0.5556738
196	0x3ed6caa1	0.4195147
197	0xbd1df39a	-0.038562395
198	0xbdca5a68	-0.09880525
199	0x3eed21d4	0.4631487
200	0xbe51f11b	-0.2050213
201	0xbe84b442	-0.25918776
202	0x3edee57a	0.43534452
203	0xbf09a0fb	-0.5376126
204	0xbd9f1051	-0.07766784
205	0x3f00bbec	0.50286746
206	0x3d0f346d	0.034962106
207	0x3be6e9a2	0.007046894
208	0x3e562d21	0.20915653
209	0x3ddbb85e	0.107285246
210	0xbef4a2e5	-0.4778053
211	0x3e01671d	0.12636991
212	0xbe856e38	-0.26060653
213	0x3edb27d6	0.4280383
214	0x3ebd18de	0.36933035
215	0x3ec7d161	0.3902693
216	0x3e2373b4	0.15962106
217	0x3e2b8d3c	0.16753095
218	0x3d379af3	0.044825505
219	0x3e161136	0.14655003
220	0x3f009a9f	0.50235933
221	0x3e8fdb43	0.2809697
222	0x3dec91a7	0.115512185
223	0xbc0afb3f	-0.008482753
224	0xbe3d5281	-0.18488504
225	0xbe1963e6	-0.14979514
226	0x3d82c10f	0.06384479
227	0x3e67a254	0.22620517
228	0x3d62eab4	0.05539961
229	0xbe817535	-0.25284734
230	0xbe3e212c	-0.18567342
231	0x3e9976b9	0.2997339
232	0xbac366f1	-0.0014907998
233	0xbed370e3	-0.41297063
234	0xbef8554c	-0.48502576
235	0xbeea7520	-0.45792484
236	0x3e6bc6a5	0.23024996
237	0xbec8659f	-0.3914003
238	0x3d1fb6a2	0.03899253
239	0x3efbf92f	0.4921355
240	0xbe0b4e4d	-0.13604088
241	0x3ec556e1	0.38542846
242	0xbf0e4731	-0.5557738
243	0xbe729de1	-0.23693039
244	0xbe8d8585	-0.2764093
245	0x3e5c6403	0.21522526
246	0x3ec5c130	0.38623953
247	0xbe84bbdd	-0.25924578
248	0x3f0737ee	0.52819717
249	0x3ef58f52	0.47960907
250	0xbdb9e13f	-0.090761654
251	0x3e5c9f04	0.21545035
252	0x3e22062e	0.1582267
253	0x3e5726db	0.21010916
254	0x3d184eba	0.037184455
255	0x3e9c0ad7	0.3047702

conv3.fc_neigh.weight f4 [16, 16]
0	0x3da438b6	0.08018629
1	0xbeefb4a1	-0.46817496
2	0xbe2253ce	-0.15852281
3	0x3ea3fd42	0.32029158
4	0x3c00a1bc	0.0078510605
5	0xbef6026b	-0.4804872
6	0x3d475fe4	0.048675433
7	0x3e945d5f	0.28977486
8	0x3d8a3021	0.06747461
9	0x3d2a2f97	0.04154929
10	0x3de6caa9	0.11269123
11	0x3ca5495c	0.020176582
12	0xbd2f9022	-0.042862065
13	0x3ef31fa8	0.4748509
14	0xbe37eb0b	-0.17960756
15	0xbf37e211	-0.71829325
16	0x3bf640ed	0.007515064
17	0x3e8f4943	0.27985582
18	0xbd1c11b0	-0.038102806
19	0x3dacfff9	0.084472604
20	0x3ee68227	0.45021173
21	0x3da270b7	0.07931655
22	0xbdc1c92a	-0.09462197
23	0xbd14ecb6	-0.036358558
24	0x3e8c12a1	0.27357963
25	0xbcc8c7e2	-0.024509374
26	0xbdb702dc	-0.08936092
27	0x3e850c12	0.2598577
28	0xbed0f648	-0.40812898
29	0xbe6abedb	-0.22924368
30	0xbd9e0cc8	-0.077172816
31	0xbebea0f8	-0.37232184
32	0x3ea4cef9	0.32189158
33	0xbeb1eff4	-0.34753382
34	0x3da7b96c	0.08189663
35	0xbe3b2da4	-0.1827913
36	0xbe8e61c8	-0.27808976
37	0x3f020034	0.5078156
38	0x3e811144	0.25208485
39	0xbee2a467	-0.44266054
40	0xbedf2905	-0.43585983
41	0x3ef70cb5	0.48251882
42	0xbef752f6	-0.48305482
43	0x3ec7381b	0.38909993
44	0x3f149c0f	0.58050627
45	0x3eeefdda	0.46678048
46	0xbef322ee	-0.47487587
47	0xbedd4534	-0.4321686
48	0x3f1cba2a	0.61221564
49	0x3e493077	0.19647394
50	0x3f12e805	0.57385284
51	0xbef6009f	-0.4804735
52	0xbeb4f6ac	-0.35344446
53	0x3eb7c1e5	0.35890117
54	0x3d88007d	0.06640718
55	0x3ef57558	0.4794109
56	0x3e64f14b	0.22357671
57	0x3e8d0c6c	0.2754854
58	0x3ee74cac	0.45175683
59	0xbf11ee83	-0.57004565
60	0xbe1c5218	-0.15265691
61	0x3e9137e0	0.28362942
62	0xbe808035	-0.25097814
63	0xbd4366b2	-0.04770536
64	0x3ed08166	0.40723723
65	0xbf029d9b	-0.51021737
66	0xbef55587	-0.47916815
67	0xbc6e7e01	-0.014556409
68	0x3c1ecf07	0.009692914
69	0xbea6907e	-0.32532114
70	0x3e792e4e	0.2433407
71	0xbe837791	-0.2567716
72	0x3e865140	0.26233864
73	0x3f14d491	0.5813685
74	0x3f013cb3	0.50483245
75	0xbd6c366f	-0.0576691
76	0xbdd22534	-0.10261002
77	0xbf0ff980	-0.5624008
78	0x3e0a8473	0.13527088
79	0x3daad8dc	0.08342144
80	0x3ee742ab	0.4516805
81	0xbeab43cb	-0.3345016
82	0x3ee0ea0f	0.43928573
83	0x3e8807c8	0.26568437
84	0x3e40d5b4	0.18831521
85	0xbf1359e3	-0.5755903
86	0x3c6c6393	0.014428037
87	0xbd2ed69e	-0.042685144
88	0xbed60c49	-0.41806248
89	0x3eacbed2	0.33739334
90	0xbf35ce71	-0.7101813
91	0x3e10fa87	0.14158069
92	0xbde7feb0	-0.11327875
93	0x3eba2416	0.36355656
94	0xbea70c99	-0.326268
95	0x3eea51c8	0.4576552
96	0x3f0cd4a9	0.55011994
97	0x3e0d20d5	0.13782056
98	0xbee6a49f	-0.4504747
99	0xbda8f632	-0.08250083
100	0xbe0a214e	-0.13489267
101	0x3f078d98	0.5295043
102	0x3e431ae6	0.1905323
103	0x3ea6c449	0.3257163
104	0x3e9e5bd7	0.30929443
105	0xbe8da1cf	-0.27662513
106	0x3e678620	0.22609758
107	0x3eaae456	0.33377331
108	0xbf1b941c	-0.6077287
109	0xbd9e0972	-0.07716645
110	0x3ed30e9a	0.41222078
111	0xbe25d698	-0.16195142
112	0x3ede9203	0.43470773
113	0x3d149818	0.03627786
114	0xbe9373e4	-0.28799355
115	0x3d7ac59e	0.06122362
116	0xbe0f0906	-0.13968286
117	0xbe8e1852	-0.2775293
118	0x3ec132b8	0.37734008
119	0xbd0e03a4	-0.03467144
120	0x3e83d38b	0.25747332
121	0x3dfec391	0.12439645
122	0x3eea6ad0	0.45784616
123	0xbea9e19c	-0.3317994
124	0x3edd948e	0.432774
125	0xbe997f87	-0.29980108
126	0x3f0bdf6f	0.5463781
127	0x3ecc9a97	0.39961693
128	0xbef5b82c	-0.47992074
129	0xbf20126c	-0.6252811
130	0x3ec495f6	0.3839566
131	0x3cd2e0f7	0.025742037
132	0xbf287b20	-0.65812874
133	0xbd6ac476	-0.057316266
134	0x3e93dd85	0.28879943
135	0x3f0a4c35	0.5402253
136	0xbf0726d0	-0.527936
137	0x3f005e4d	0.5014389
138	0xbda2a991	-0.079424985
139	0x3eb98aba	0.36238652
140	0xbeb139a0	-0.34614277
141	0xbe9ae3ca	-0.30251914
142	0x3d999096	0.07498281
143	0x3dc3fd7d	0.095698334
144	0xbeef94aa	-0.4679311
145	0x3e98362d	0.29728833
146	0xbebbcfa0	-0.36681843
147	0x3e6588d7	0.22415482
148	0xbeb3078e	-0.349667
149	0xbe92d1c4	-0.28675663
150	0xbf13640e	-0.57574546
151	0x3eecd4f0	0.46256208
152	0x3eb992b1	0.3624473
153	0x3e0c84ee	0.13722584
154	0x3ecb37d1	0.39691022
155	0xbf228b4e	-0.6349381
156	0x3e6cf7a5	0.23141344
157	0xbdf9b025	-0.121918
158	0xbe918dcc	-0.28428495
159	0xbda719a7	-0.0815919
160	0x3e9dc888	0.30817056
161	0x3d94d6d9	0.072675414
162	0x3e4eb2e7	0.20185433
163	0xbee12d34	-0.439798
164	0x3ecfaed0	0.4056306
165	0x3e8ba377	0.2727315
166	0x3d5986c7	0.05310705
167	0x3ed3d263	0.4137145
168	0xbe9af9b3	-0.3026863
169	0xbe8994f8	-0.26871467
170	0x3ece5bd4	0.40304434
171	0xbea2d26c	-0.31801164
172	0xbe9af3ba	-0.30264074
173	0xbf048a3f	-0.51773447
174	0xbe4330aa	-0.19061533
175	0xbe550c14	-0.20805389
176	0xbee6b1ae	-0.45057434
177	0xbdd0386c	-0.101670116
178	0xbebf956b	-0.37418684
179	0x3edacb7a	0.42733365
180	0xbeafe962	-0.34357744
181	0x3e012ce5	0.12614782
182	0xbe8324d8	-0.25614047
183	0x3e19cc62	0.15019372
184	0xbed6f09e	-0.4198045
185	0xbec41577	-0.38297626
186	0xbee3044c	-0.44339216
187	0xbe20d7f3	-0.15707378
188	0x3ea557e8	0.3229363
189	0x3f014907	0.50502056
190	0x3ed8f82e	0.42376846
191	0xbecf0820	-0.40435886
192	0xbdd702c4	-0.104985744
193	0xbeef1897	-0.46698448
194	0xbebc585c	-0.36786163
195	0x3f295f6d	0.66161233
196	0xbdefa842	-0.117020145
197	0x3e7ed286	0.24884996
198	0xbebff715	-0.37493196
199	0x3f152b94	0.5826962
200	0xbf14ce4f	-0.581273
201	0x3f031ed2	0.51218903
202	0x3e4ff79a	0.20309296
203	0x3e1bfc84	0.15233046
204	0x3e5bd00a	0.2146608
205	0x3ec81043	0.39074907
206	0x3e698126	0.22803172
207	0xbde242d8	-0.11047906
208	0x3ee51ec5	0.44750038
209	0x3b827b76	0.003982003
210	0x3ee954e5	0.45572582
211	0xbdab388d	-0.083603956
212	0xbea8ca38	-0.3296678
213	0xbeb7cc69	-0.3589814
214	0x3d13502d	0.035965133
215	0x3daea7c4	0.085280925
216	0x3f1da833	0.61584777
217	0x3e83148a	0.25601608
218	0xbe84e0a3	-0.25952634
219	0x3ee5f2c9	0.44911793
220	0x3e89e72d	0.26934186
221	0xbe821365	-0.25405422
222	0xbe388f20	-0.18023348
223	0xbefe24fa	-0.49637586
224	0x3ed00d3c	0.40635097
225	0xbf15137c	-0.58232856
226	0xbea3cdec	-0.31993043
227	0x3e9d4051	0.30713132
228	0xbdbae1b1	-0.091250785
229	0x3dc1aee6	0.09457187
230	0xbd491257	-0.049089756
231	0xbdf0c9f5	-0.1175727
232	0x3ea89c8b	0.32931933
233	0xbdcf75d3	-0.10129895
234	0xbf37c426	-0.71783674
235	0x3eb92a94	0.36165297
236	0x3e5d87cf	0.21633838
237	0xbe17dbb5	-0.14829905
238	0x3e2bd65e	0.16780993
239	0xbdcdc88c	-0.10048017
240	0x3e047fe6	0.12939414
241	0xbe218f99	-0.15777434
242	0xbedf7be2	-0.43649203
243	0x3f0bec23	0.5465719
244	0x3b245a78	0.0025078338
245	0xbdcb85e7	-0.09937649
246	0x3ee3863c	0.4443835
247	0xbecdd419	-0.4020088
248	0x3e51e3c8	0.20497048
249	0xbe8459cc	-0.2584976
250	0x3e04c50f	0.12965797
251	0xbec69d18	-0.38791728
252	0x3cfd4ab3	0.030919408
253	0xbe576f16	-0.2103847
254	0x3d1efb9a	0.038814165
255	0x3ef7baec	0.48384798

conv4.bias f4 [16]
0	0xbd3cd08a	-0.046097316
1	0x3cfbe29f	0.03074771
2	0x3c6704f0	0.014100298
3	0xbad6fe62	-0.0016402716
4	0x3c1a01c5	0.009399836
5	0x3c7f82c5	0.015595143
6	0xbc3c9d10	-0.011512056
7	0x3c0ad71f	0.00847414
8	0xbcbd68bb	-0.023121228
9	0xbc2ce365	-0.010552262
10	0x3c9918d1	0.018688591
11	0xbbe754a0	-0.0070596486
12	0x3c353c57	0.011061749
13	0xbca5d7ab	-0.02024444
14	0xbd02d912	-0.031945296
15	0x3b1157c8	0.0022177566

conv4.fc_self.weight f4 [16, 16]
0	0xbee82248	-0.45338655
1	0x3e9697a3	0.29412565
2	0xbe63b4e8	-0.22236979
3	0xbeb3080f	-0.34967086
4	0x3ebc98fc	0.36835468
5	0xbeb5c652	-0.3550287
6	0xbe18bfa0	-0.14916849
7	0x3e9b4b70	0.30330992
8	0xbd6fe35f	-0.058566447
9	0xbe5f695d	-0.21817537
10	0xbef8cf37	-0.48595592
11	0xbe813f53	-0.25243625
12	0x3e5a2a50	0.21305203
13	0xbe4de123	-0.20105414
14	0x3e542870	0.2071855
15	0xbc149ccf	-0.009070589
16	0xbd0a93b5	-0.03383227
17	0x3f25d18a	0.64772856
18	0xbee9fea5	-0.4570209
19	0xbec56375	-0.38552442
20	0x3ebc3cd3	0.36765155
21	0xbe6cd4a5	-0.23127992
22	0xbea81d17	-0.32834694
23	0x3ed29ac8	0.41133714
24	0xbea1b93b	-0.31586632
25	0xbe4c38c8	-0.19943535
26	0xbcf1f773	-0.029536938
27	0x3ea3d11f	0.31995484
28	0xbcd47ec7	-0.025939358
29	0x3e820d7a	0.25400907
30	0x3e474f19	0.19463767
31	0x3ef3ebf4	0.47640955
32	0x3d9aacf4	0.075525194
33	0x3ea74558	0.32670093
34	0xbeb46f18	-0.35241008
35	0xbe1c5540	-0.15266895
36	0x3d38b8d2	0.045098133
37	0x3db46859	0.08808965
38	0xbe850553	-0.25980625
39	0x3dbfa1ac	0.09357008
40	0xbe2fe1c1	-0.17175962
41	0x3cce0893	0.025150573
42	0xbde107bf	-0.109878056
43	0xbdff0714	-0.12452522
44	0xbb1de547	-0.0024092959
45	0x3ed1b56c	0.40958726
46	0xbe7ebe79	-0.24877347
47	0x3dcbafa9	0.09945614
48	0x3eca726f	0.3954043
49	0xbd309553	-0.043111157
50	0x3ee46e10	0.4461522
51	0x3dffd1bc	0.124911755
52	0x3efaf547	0.49015257
53	0x3e0efd57	0.13963829
54	0xbd860d35	-0.06545488
55	0xbf0e310e	-0.555436
56	0x3e1077d2	0.14108208
57	0x3e9fb971	0.31196168
58	0x3efeba0b	0.49751315
59	0x3eec826d	0.46193257
60	0xbf17d901	-0.59315497
61	0xbdc0855b	-0.094004355
62	0x3effefeb	0.4998773
63	0x3e6f8fa2	0.23394635
64	0x3e0e66f5	0.13906462
65	0xbf0e4967	-0.55580753
66	0xbdd7a97c	-0.105303735
67	0xbeb9f5ec	-0.36320436
68	0x3e8b0afd	0.2715682
69	0xbe3873f1	-0.18012978
70	0x3e4f1ccc	0.20225829
71	0xbed2d205	-0.41175857
72	0xbe051123	-0.12994818
73	0xbe41b558	-0.18916833
74	0x3ee51ef4	0.44750178
75	0xbeb223e1	-0.34792998
76	0xbeca1549	-0.39469364
77	0x3ed9a5f4	0.42509425
78	0x3de5b9ae	0.11217056
79	0x3d440b5b	0.047862392
80	0x3d03430a	0.032046355
81	0xbebaac37	-0.36459514
82	0xbe8feb3f	-0.28109166
83	0x3e0b6b42	0.13615134
84	0xbea1b0b6	-0.31580132
85	0x3e1f951d	0.15584226
86	0xbe773342	-0.24140647
87	0xbd44fb37	-0.04809114
88	0xbe2682eb	-0.16260879
89	0xbe613800	-0.21994019
90	0xbe6fdb34	-0.23423463
91	0xbef53191	-0.4788938
92	0x3d965006	0.07339482
93	0xbf022579	-0.5083843
94	0xbe13a7c5	-0.14419468
95	0xbca288a4	-0.019840546
96	0x3dad06ec	0.08448586
97	0xbe81755c	-0.2528485
98	0x3f0ea138	0.5571475
99	0x3db1f8f3	0.086900614
100	0x3cb6e182	0.022324327
101	0xbdeb87b6	-0.11500494
102	0x3eb8b503	0.360756
103	0xbe4322af	-0.190562
104	0xbe83bd5c	-0.25730407
105	0xbe768282	-0.24073222
106	0x3e7402b3	0.23829155
107	0x3e89f191	0.26942113
108	0xbeb2c4da	-0.3491581
109	0x3ee6084e	0.4492821
110	0xbde891d6	-0.11355941
111	0xbea3e2ee	-0.3200907
112	0xbee2fc7e	-0.4433326
113	0x3eb2068c	0.3477062
114	0xbe6c1d51	-0.23058058
115	0xbe7970af	-0.24359392
116	0xbee565f0	-0.44804335
117	0x3f0a13cf	0.53936476
118	0xbeda5d05	-0.42649093
119	0xbe5c9503	-0.21541218
120	0x3e16e945	0.14737423
121	0x3ecdad71	0.40171388
122	0x3ce51791	0.027965339
123	0xbea03f45	-0.3129827
124	0xbe4e15d8	-0.2012552
125	0xbf077007	-0.52905315
126	0x3f048255	0.5176137
127	0xbbd01949	-0.0063506705
128	0x3e5adfcf	0.21374439
129	0xbe315f31	-0.17321469
130	0x3ee4835b	0.44631466
131	0x3eaae69d	0.3337907
132	0xbdc38667	-0.095471196
133	0x3c94c4aa	0.018160183
134	0x3da3a4db	0.07990428
135	0xbd80e0d0	-0.062928796
136	0xbea28183	-0.31739435
137	0x3e399a9e	0.18125388
138	0x3e95969a	0.29216462
139	0x3e928b56	0.2862193
140	0xbed2ad75	-0.41147962
141	0xbef9f43f	-0.48819157
142	0x3ebf70d5	0.37390772
143	0x3ebc2c64	0.36752617
144	0x3ef30759	0.47466543
145	0xbedb7722	-0.4286433
146	0x3ce58bfe	0.028020855
147	0xbf286f8e	-0.6579522
148	0xbe25c91c	-0.16189998
149	0xbce7fbf7	-0.028318388
150	0x3e44a355	0.19202931
151	0x3e5b292a	0.21402422
152	0x3e5c1928	0.21493971
153	0x3ea96841	0.33087352
154	0xbe03dfc5	-0.1287833
155	0xbedb7af3	-0.4286724
156	0x3e8eb507	0.27872488
157	0xbebb0b6d	-0.36532155
158	0x3ef9dc4c	0.48800886
159	0x3e6a4c63	0.22880702
160	0x3c9f0d8c	0.01941564
161	0xbe3a5852	-0.18197754
162	0xbc8586ed	-0.01629969
163	0x3db97bcd	0.09056816
164	0x3df0e819	0.11763019
165	0xbdf167c9	-0.117873736
166	0x3c12d5ab	0.008962075
167	0x3e0d55ee	0.13802311
168	0x3e85cbc8	0.26132035
169	0xbe826abd	-0.2547206
170	0x3d0a486b	0.03376047
171	0xbe9f5bb6	-0.31124657
172	0xbecd073a	-0.40044576
173	0x3e9b18e3	0.30292425
174	0x3e90486e	0.2818026
175	0xbcf86abc	-0.030324332
176	0xbeba1ad1	-0.36348584
177	0xbe213bf3	-0.15745525
178	0x3e80a8ac	0.25128686
179	0x3c5dbd18	0.013533853
180	0x3dc009aa	0.09376843
181	0x3ead6cb7	0.33872005
182	0x3ee7867c	0.4521979
183	0xbdde95a9	-0.10868389
184	0xbe9a6116	-0.30152196
185	0xbecd8e8f	-0.40147826
186	0xbd488568	-0.04895535
187	0xbdb5a5ee	-0.08869539
188	0x3ef10abe	0.47078508
189	0xbdf6c7dc	-0.12049839
190	0xbebbbf0e	-0.366692
191	0x3e7d9479	0.24763669
192	0x3d5f92c9	0.054583345
193	0x3e88e3ec	0.2673639
194	0x3e9d219f	0.30689713
195	0x3e7bbad6	0.24582991
196	0xbd53ff05	-0.051756877
197	0xbf1417fb	-0.5784909
198	0x3e317420	0.17329454
199	0x3ce05392	0.0273836
200	0x3e6416c6	0.22274312
201	0xbe829452	-0.25503784
202	0x3d889980	0.06669903
203	0x3ee1e9df	0.44123742
204	0x3e584a6a	0.21122137
205	0x3ef1d180	0.47230148
206	0xbec1cf1a	-0.37853318
207	0x3c8c34f4	0.017115094
208	0x3db0a2c6	0.086247966
209	0xbe88f913	-0.2675253
210	0x3e9c30b1	0.305059
211	0x3e97819f	0.2959108
212	0xbdd654f3	-0.104654215
213	0x3ed475e9	0.41496208
214	0xbef23c95	-0.47311845
215	0x3dffc65c	0.12489006
216	0xbd572739	-0.05252764
217	0xbe0756f0	-0.13216758
218	0x3ead086e	0.33795494
219	0xbec544aa	-0.3852895
220	0x3e16ff00	0.14745712
221	0xbdcf758a	-0.10129841
222	0xbde9f1bb	-0.114230596
223	0xbefa0444	-0.4883138
224	0xbea1d329	-0.31606415
225	0x3eb1b484	0.34708035
226	0xbee8e518	-0.45487285
227	0xbeba207e	-0.36352915
228	0xbf0efaf6	-0.55851686
229	0x3f043ed7	0.51658386
230	0xbf1571ac	-0.58376575
231	0xbde23713	-0.11045661
232	0x3ca130b0	0.019676536
233	0xbe18d18c	-0.14923686
234	0xbe8f0b31	-0.27938226
235	0xbe8d691e	-0.2761926
236	0xbd8cd4cb	-0.068765245
237	0xbeeeb384	-0.46621335
238	0x3e0cb0aa	0.13739267
239	0xbe4e2917	-0.20132862
240	0x3dcf937b	0.101355515
241	0x3e45962c	0.19295567
242	0x3e942f3d	0.2894229
243	0x3f180f0c	0.5939796
244	0x3eb0ae60	0.34508038
245	0xbdded0b1	-0.108796485
246	0xbdc2fcc2	-0.09520866
247	0x3e9dbe80	0.30809402
248	0x3eb2e423	0.3493968
249	0xbe68f684	-0.22750288
250	0x3e7d49a9	0.2473513
251	0x3db9bc90	0.090691686
252	0xbe0bbb38	-0.13645637
253	0x3e57d1db	0.21076147
254	0x3edb5e86	0.42845553
255	0xbdd8c3a6	-0.10584192
