model.pth (torch, 29451 bytes, 9 tensors)

conv1.bias f4 [16]
0.012405491 0.004944715 -0.0003522839 -0.010581329 0.012596526 0.039187685 0.011325581 0.017964175
-0.00015525459 -0.002899785 -0.0030615386 0.013333807 -0.02254394 -0.017781207 0.007630463 0.018651651
00000000: 6740 4b3c 4707 a23b bfb2 b8b9 505d 2dbc
00000010: a961 4e3c 4483 203d ee8e 393c 9b29 933c
00000020: d6cb 22b9 520a 3ebb 18a4 48bb 0a76 5a3c
00000030: 12ae b8bc e5a9 91bc f708 fa3b 59cb 983c

conv1.fc_self.weight f4 [16, 174]
-0.031064704 -0.05365851 0.024207843 0.066000246 -0.11807915 0.20590103 0.07378027 -0.07463318
-0.3292947 -0.17696567 -0.14568123 0.1417266 -0.008608723 0.07774499 -0.0018138079 0.40237656
-0.11817822 -0.07865481 0.08688674 -0.1277188 -0.028788747 0.06251243 -0.18264723 -0.048576992
-0.14545642 -0.13687257 -0.16017999 0.08451642 0.03230153 -0.12661904 0.089289606 -0.03208494
-0.1856152 -0.044288028 0.04683419 -0.11991019 -0.084891364 -0.034198314 0.043248847 -0.03019825
0.037641905 0.05585865 0.16164689 0.038153797 0.015267748 -0.050575376 0.22025062 -0.2607723
0.039230794 0.18634154 0.09943206 -0.1416613 0.2513856 0.12192713 0.10498344 0.20415789
-0.112514906 0.08845503 0.0932196 -0.084213965 0.021968624 -0.10353489 -0.022824857 -0.0896791
0.019836187 -0.080853425 -0.11763202 -0.30852988 -0.19530296 -0.2834377 0.04914703 -0.19634347
0.05276761 0.018108403 -0.085239574 -0.003368593 -0.22851759 -0.019261653 0.15027592 0.10587935
0.111191206 -0.05000126 -0.10458417 0.25720614 -0.073892854 0.033287626 0.10320362 0.15917282
0.051619727 0.38069132 -0.1758007 -0.0070577445 -0.03763566 -0.0779141 -0.0899213 -0.02171926
0.23712595 0.08080148 0.046315167 0.11530984 -0.03976132 -0.10440282 -0.08479188 -0.08265776
-0.102703914 -0.011273561 0.104224555 -0.1290653 -0.0031691832 -0.07696774 0.16554332 -0.03182457
0.41135025 -0.07116461 0.012759089 0.21548437 -0.12911278 0.10327537 -0.16036555 -0.2638903
-0.052293047 0.035725184 0.010864065 0.10253017 0.4723452 -0.35195673 0.17407696 0.04704875
-0.015999183 0.0072623445 -0.048935875 -0.19519965 0.2639633 0.18466511 0.0037896151 0.033908583
-0.14350913 0.16807261 0.17708248 -0.11486495 -0.13335116 -0.023498682 -0.032117452 -0.30217046
-0.033205915 -0.022815311 0.30527416 0.044065796 -0.08691097 0.10126976 -0.20497975 -0.23033579
0.061038103 -0.2986487 -0.0072084838 0.084794275 0.28947386 0.0411594 0.1354565 0.049012583
0.024424544 0.12935671 0.024235666 0.028244732 -0.10307295 0.015712215 -0.05522373 -0.023586182
-0.060554788 -0.017245417 0.14225213 -0.0761961 0.1805842 0.032041393 0.26488793 -0.082933635
-0.025960622 0.014132484 -0.044170633 0.16443013 0.05793679 -0.015266976 -0.17787814 -0.6176502
-0.1253258 0.13497631 -0.04929439 -0.100346215 0.05545434 0.32419798 0.010113882 -0.012134595
-0.012269915 -0.16389184 -0.14668211 0.111688554 0.0069688135 0.11748466 -0.019199243 -0.11665393
0.19536453 0.18136458 -0.031231396 0.060780566 -0.015220815 -0.28963414 -0.15283778 0.2876819
-0.22051384 -0.1369568 -0.15079254 -0.028970601 -0.014408635 -0.03747007 -0.21129438 -0.08974259
0.051898375 -0.06731045 -0.060103923 -0.12888147 0.051912118 -0.23168041 0.11022926 -0.06824181
-0.19225374 -0.08138989 0.10260129 0.21897407 -0.02217558 0.010630316 -0.088210836 0.030654892
0.2120176 -0.13112234 -0.13851841 0.02729064 0.122447826 0.09586618 -0.040090047 -0.1855711
0.25620678 -0.14439292 0.17724332 0.0805062 -0.02109719 0.08546949 -0.14281389 0.028064428
0.10080482 0.17154846 -0.3653584 -0.017771587 0.13058801 -0.09049038 -0.16841835 0.12168216
00000000: 687b febc 07c9 5bbd 874f c63c 232b 873d
00000010: 7bd3 f1bd b8d7 523e 1c1a 973d 48d9 98bd
00000020: 5199 a8be 7d36 35be 762d 15be c720 113e
00000030: 9a0b 0dbc c438 9f3d 4bbd edba 4d04 ce3e
00000040: 6c07 f2bd c615 a1bd adf1 b13d b8c8 02be
00000050: 61d6 ebbc 8406 803d e007 3bbe abf8 46bd
00000060: 87f2 14be 5328 0cbe 3906 24be f216 ad3d
00000070: 9c4e 043d 6ca8 01be 78dd b63d 7f6b 03bd
00000080: e911 3ebe 5d67 35bd 35d5 3f3d 7993 f5bd
00000090: 86db adbd 8813 0cbd b425 313d 5262 f7bc
000000a0: 662e 1a3d 0acc 643d c386 253e 2847 1c3d
000000b0: 9425 7a3c 2028 4fbd 6189 613e f283 85be
000000c0: 78b0 203d 51d0 3e3e 09a3 cb3d a90f 11be
000000d0: 9db5 803e eeb4 f93d 8f01 d73d c40e 513e
000000e0: 376e e6bd e927 b53d ebe9 be3d 5f78 acbd
000000f0: 8bf7 b33c 1a0a d4bd 32fb babc ada9 b7bd
00000100: 807f a23c 7b96 a5bd 0ee9 f0bd a1f7 9dbe
00000110: 80fd 47be bf1e 91be 654e 493d 430e 49be
00000120: d922 583d 1358 943c 1692 aebd 9dc3 5cbb
00000130: 8400 6abe 9dca 9dbc eee1 193e 46d7 d83d
00000140: 37b8 e33d 1fce 4cbd 3a30 d6bd 86b0 833e
00000150: 2355 97bd 9b58 083d 6b5c d33d 33fe 223e
00000160: 356f 533d f9e9 c23e 1905 34be a744 e7bb
00000170: da27 1abd 6d91 9fbd a928 b8bd 97ec b1bc
00000180: 25d1 723e 3f7b a53d f9b4 3d3d 9127 ec3d
00000190: c4dc 22bd 25d1 d5bd 5da7 adbd 7948 a9bd
000001a0: 6e56 d2bd beb4 38bc af73 d53d b229 04be
000001b0: 12b2 4fbb 43a1 9dbd 3084 293e 7b5a 02bd
000001c0: 809c d23e c0be 91bd 7f0b 513c efa7 5c3e
000001d0: 2436 04be 0a82 d33d de36 24be a11c 87be
000001e0: 3c31 56bd 9254 123d 31ff 313c 56fb d13d
000001f0: 3bd7 f13e ac33 b4be 3b41 323e 31b6 403d
00000200: b810 83bc f6f8 ed3b fc70 48bd 6be2 47be
00000210: 3326 873e da18 3d3e 315b 783b bae3 0a3d
00000220: 0ff4 12be 3a1b 2c3e 1c55 353e 513e ebbd
00000230: 358d 08be 4f80 c0bc 978d 03bd 16b6 9abe
00000240: ed02 08bd 2de7 babc e54c 9c3e 567e 343d
00000250: 61fe b1bd 8566 cf3d 36e6 51be 25dd 6bbe
00000260: 1703 7a3d 7be8 98be 2535 ecbb 9fa8 ad3d
00000270: eb35 943e c296 283d 1cb5 0a3e 6bc1 483d
00000280: fb15 c83c 1676 043e e089 c63c 7f61 e73c
00000290: e917 d3bd e7b6 803c 4732 62bd cf37 c1bc
000002a0: 4c08 78bd 4346 8dbc 8baa 113e b30c 9cbd
000002b0: 11eb 383e d63d 033d 649f 873e 1cd9 a9bd
000002c0: 5fab d4bc ef8b 673c 44ec 34bd 5f60 283e
000002d0: 214f 6d3d 5722 7abc b025 36be 531e 1ebf
000002e0: 6855 00be 3b37 0a3e eae8 49bd 5182 cdbd
000002f0: 1724 633d 47fd a53e b2b4 253c 2ed0 46bc
00000300: c107 49bc 43d3 27be d633 16be f8bc e43d
00000310: a55a e43b cc9b f03d bb47 9dbc 41e8 eebd
00000320: a40d 483e a3b7 393e fcd8 ffbc 0bf5 783d
00000330: ba60 79bc ed4a 94be 8281 1cbe 0b4b 933e
00000340: 61ce 61be 673e 0cbe 5c69 1abe c153 edbc
00000350: 3212 6cbc 377a 19bd 8e5d 58be f7ca b7bd
00000360: 6493 543d 10da 89bd 882f 76bd 81f9 03be
00000370: cda1 543d a13d 6dbe e1bf e13d 5dc2 8bbd
00000380: 2ade 44be beaf a6bd a020 d23d bd3a 603e
00000390: 90a9 b5bc c72a 2e3c e2a7 b4bd f81f fb3c
000003a0: 241b 593e ef44 06be c5d7 0dbe 9f90 df3c
000003b0: edc5 fa3d 7d55 c43d 7635 24bd 5a06 3ebe
000003c0: 892d 833e bddb 13be 467f 353e 6fe0 a43d
000003d0: 04d4 acbc a10a af3d ce3d 12be 5fe7 e53c
000003e0: c272 ce3d 66aa 2f3e 4210 bbbe b895 91bc
000003f0: ddb8 053e 0553 b9bd dc75 2cbe 7f34 f93d

conv1.fc_neigh.weight f4 [16, 174]
-0.17701387 0.2529747 -0.14626083 -0.07397451 -0.3973799 0.1681267 0.132434 0.050848253
-0.2697484 -0.047435544 0.18064432 -0.038522966 -0.03662701 0.12020147 0.2816222 0.48738462
0.15788428 -0.03250959 0.20689675 0.11399346 0.17143092 -0.06592936 0.06271828 0.14580433
0.14246456 0.20901364 0.119761206 0.23426354 0.28204942 0.05322313 -0.051671382 0.31851485
0.11409075 -0.16723569 0.035712082 -0.07151747 -0.14807123 -0.20127429 -0.07368457 -0.08948609
0.014925453 0.042709112 0.021507911 -0.0912895 -0.16056953 -0.32917526 0.08267486 -0.9325035
-0.15700677 0.23231821 0.059288274 -0.19922645 0.21432625 0.13496175 -0.106448025 -0.03334697
-0.5998419 -0.06613972 0.07830815 -0.07092524 -0.073057346 -0.32148725 -0.01864579 0.078215025
0.10467387 0.092588134 0.010107871 -0.14363104 -0.03522025 -0.07925175 -0.08044218 -0.19916233
0.10742116 0.3077765 0.14567316 0.08015744 -0.06556698 0.17697997 0.15325321 -0.034723736
-0.22139004 -0.13658355 -0.22353427 0.037187394 -0.17292179 -0.27494898 -0.111794 0.10962804
-0.39357024 0.25301263 0.08738721 -0.018588582 -0.037503213 -0.3839337 -0.1528844 -0.15465823
0.15946625 -0.096479945 -0.022718724 0.03807242 -0.030427221 -0.30704194 -0.08392421 0.08060309
-0.2011018 -0.14826243 0.23455533 0.13463876 0.0422387 -0.014645499 -0.14891665 -0.26450607
0.13649555 -0.22233123 0.11784214 0.21320947 0.11226201 0.12635934 -0.18580656 0.06470406
0.08143911 -0.00775281 -0.047037188 0.19174166 0.014884986 -0.22271688 0.2718681 -0.044695683
0.0783524 0.30170205 0.3419689 -0.36354047 0.38655573 0.08699704 0.09353582 -0.0005389641
-0.025347853 0.23844607 0.41182604 -0.080379814 -0.062447023 0.14177437 -0.015170865 -0.13309628
-0.18978518 -0.20309544 0.12939069 0.31008348 -0.103167675 -0.15761627 -0.15064439 -0.12687539
-0.03522097 -0.014879755 0.069729686 -0.18868358 0.09279622 -0.14266996 0.02802236 -0.012452406
0.03805852 0.27504513 0.08970866 0.13796523 -0.08947833 -0.0032480836 -0.11467326 0.1468448
-0.080383375 -0.12281447 0.26209715 0.039829846 -0.09780236 0.07516743 0.4878152 -0.15410428
0.013873264 0.03529675 -0.22011165 0.030759582 -0.17689504 0.17514512 -0.07830825 -0.39166668
0.056377184 0.28524983 -0.4172698 0.1575786 0.0076089688 0.39360425 -0.10076973 0.0067078834
-0.040275455 -0.16091986 -0.11381772 0.136062 -0.015456888 -0.033124875 -0.24142836 -0.28081343
0.2797717 0.2501924 -0.07686603 0.17594583 -0.14462435 -0.22574875 0.00092171517 0.6748214
-0.04242056 -0.057344668 0.20337483 -0.002224002 0.017609201 -0.17151831 -0.18901826 -0.094572596
0.016883118 0.21502334 0.07319639 -0.32346418 0.08029763 -0.4362903 -0.001360214 0.23061804
0.21752141 0.10180217 0.040215857 0.020279432 -0.23765987 0.2576371 -0.08767085 -0.1027659
0.067646116 0.08693246 -0.28884634 0.007902949 0.078632616 0.19214335 -0.46415663 -0.4218414
-0.013135497 -0.22045687 0.17768843 0.07681076 0.21463273 -0.09602722 0.15055376 0.053644527
-0.12931643 0.110673316 -0.3153182 -0.051485002 0.16390124 -0.14515987 -0.15085664 -0.11596304
00000000: 2043 35be e685 813e 66c5 15be f37f 97bd
00000010: 6175 cbbe 6829 2c3e c79c 073e 4246 503d
00000020: 761c 8abe c64b 42bd d3fa 383e 42ca 1dbd
00000030: 3406 16bd 302c f63d c930 903e 7a8a f93e
00000040: 6bac 213e c728 05bd bedc 533e 6775 e93d
00000050: 968b 2f3e f905 87bd 7172 803d bb4d 153e
00000060: 3be2 113e ac07 563e 5d45 f53d c8e2 6f3e
00000070: c868 903e 7f00 5a3d 5fa5 53bd 6114 a33e
00000080: 69a8 e93d d53f 2bbe d546 123d c077 92bd
00000090: fc9f 17be d91a 4ebe f0e7 96bd 7c44 b7bd
000000a0: e389 743c c0ef 2e3d 5c31 b03c fdf5 babd
000000b0: 576c 24be a989 a8be 7051 a93d 8db8 6ebf
000000c0: 62c6 20be d3e4 6d3e 43d8 723d 0502 4cbe
000000d0: 5778 5b3e 6a33 0a3e 6c01 dabd d596 08bd
000000e0: 3d8f 19bf 4374 87bd 0660 a03d 4141 91bd
000000f0: 179f 95bd fa99 a4be 0ebf 98bc 332f a03d
00000100: 415f d63d d99e bd3d 7c9b 253c 0414 13be
00000110: 1c43 10bd be4e a2bd dfbe a4bd 36f1 4bbe
00000120: a0ff db3d e294 9d3e 582b 153e 9529 a43d
00000130: fb47 86bd 3d3a 353e 69ee 1c3e 7a3a 0ebd
00000140: 12b4 62be 8fdc 0bbe 2be6 64be cf51 183d
00000150: 6912 31be 1dc6 8cbe 41f4 e4bd aa84 e03d
00000160: 0a82 c9be df8a 813e 11f8 b23d 1547 98bc
00000170: f89c 19bd f592 c4be ba8d 1cbe ba5e 1ebe
00000180: 1f4b 233e 4797 c5bd 9e1c babc d3f1 1b3d
00000190: 8242 f9bc 9a34 9dbe 75e0 abbd 3c13 a53d
000001a0: a1ed 4dbe 1bd2 17be 462f 703e bede 093e
000001b0: 7d02 2d3d adf3 6fbc 9b7d 18be 576d 87be
000001c0: 7dc5 0b3e ccaa 63be 3857 f13d 9553 5a3e
000001d0: a0e9 e53d 5864 013e 1344 3ebe 9083 843d
000001e0: 8cc9 a63d 490b febb 11aa 40bd ed57 443e
000001f0: 28e0 733c e50f 64be 4c32 8b3e d212 37bd
00000200: 3977 a03d b178 9a3e 8c16 af3e fa21 babe
00000210: a2ea c53e 812b b23d b58f bf3d 4549 0dba
00000220: 4da6 cfbc 352b 743e ddda d23e 2c9e a4bd
00000230: 73c8 7fbd 4d2d 113e 388f 78bc 644a 08be
00000240: 0c57 42be 40f8 4fbe fe7e 043e 43c3 9e3e
00000250: 9349 d3bd 2966 21be 8642 1abe 9feb 01be
00000260: dd43 10bd 37ca 73bc 70ce 8e3d 4536 41be
00000270: f20b be3d 1318 12be 268f e53c 2d05 4cbc
00000280: 40e3 1b3d b7d2 8c3e 2db9 b73d c246 0d3e
00000290: 6a40 b7bd cddd 54bb d0d9 eabd 7c5e 163e
000002a0: 0aa0 a4bd 2786 fbbd 9931 863e 9f24 233d
000002b0: 9b4c c8bd 62f1 993d eac2 f93e 83cd 1dbe
000002c0: b04c 633c 5393 103d f364 61be 85fb fb3c
000002d0: f923 35be 3e59 333e 1360 a0bd 8988 c8be
000002e0: c3eb 663d 440c 923e 63a4 d5be 495c 213e
000002f0: a854 f93b 7f86 c93e 5c60 cebd cecd db3b
00000300: e0f7 24bd 2dc8 24be 4419 e9bd d653 0b3e
00000310: e33e 7dbc f3ad 07bd ff38 77be c7c6 8fbe
00000320: 3c3e 8f3e 3819 803e f06b 9dbd 252b 343e
00000330: 6818 14be ae2a 67be 429f 713a 18c1 2c3f
00000340: 2ec1 2dbd 3ee2 6abd 7e41 503e 90c0 11bb
00000350: 2c41 903c 7fa2 2fbe 018e 41be 47af c1bd
00000360: 774e 8a3c 142f 5c3e fde7 953d 199d a5be
00000370: 1573 a43d 7161 dfbe 3549 b2ba 2327 6c3e
00000380: efbd 5e3e a87d d03d 62b9 243d 0d21 a63c
00000390: 1c5d 73be 03e9 833e c68c b3bd ee76 d2bd
000003a0: 0c8a 8a3d a509 b23d abe3 93be 5f7b 013c
000003b0: 230a a13d 3ac1 443e f0a5 edbe 99fb d7be
000003c0: 4536 57bc 72bf 61be f5f3 353e f64e 9d3d
000003d0: afc8 5b3e eba9 c4bd c42a 1a3e 5dba 5b3d
000003e0: 876b 04be b1a8 e23d 6371 a1be f0e1 52bd
000003f0: bad5 273e caa4 14be 2a7a 1abe 087e edbd

conv2.bias f4 [16]
0.0052226307 -0.01400257 0.007931047 0.005024204 0.00058293296 0.0014596817 -0.0054126256 0.011907189
-0.0046902383 -0.010276752 -0.004061673 0.004586957 0.0031802442 0.01027141 0.0011072523 0.004899031
00000000: 9a22 ab3b 096b 65bc 39f1 013c 14a2 a43b
00000010: f8cf 183a ca52 bf3a 655c b1bb 5f16 433c
00000020: 92b0 99bb d25f 28bc c817 85bb 2f4e 963b
00000030: a56b 503b 6b49 283c 3921 913a 0d88 a03b

conv2.fc_self.weight f4 [16, 16]
-0.40980905 -0.28907055 0.010138737 0.36784303 0.120710924 -0.11293212 0.37749612 0.4520663
0.11827634 -0.13617766 -0.23990455 -0.20986488 -0.33199447 -0.30257717 -0.20763695 0.24066572
-0.44229338 0.12962869 -0.35018095 0.32002574 -0.06009164 -0.3629771 0.14491832 -0.19032745
-0.16785419 -0.030113662 0.30780834 -0.020379761 0.28091925 0.12425759 0.06838235 0.206956
0.30107504 -0.14825667 0.34716415 -0.39445257 0.2065251 0.20106192 0.33848873 0.1486733
-0.25991374 0.24248473 -0.43286753 -0.051551208 0.3231128 0.3838284 -0.06782409 0.35702047
-0.16962576 -0.10566138 -0.00052819063 -0.37414217 0.18424374 -0.08456366 -0.5283606 0.110181995
-0.2932736 0.6323202 0.32687518 0.33832243 -0.315468 -0.07411983 0.5474295 0.21523671
-0.7380626 0.3192992 0.20173912 0.20568879 0.017818075 -0.44913328 0.16656178 -0.03373952
-0.529359 0.18443379 0.14829636 -0.065618105 0.19946244 -0.24027722 0.46897537 0.16325612
-0.39871338 0.41529724 -0.03865741 -0.32781538 -0.4204136 -0.019672923 -0.40074852 -0.4671939
-0.21717204 0.25284326 0.31130663 0.077670254 0.52634156 0.5533694 -0.49963045 0.3086856
-0.18778546 -0.12694544 -0.5750791 0.124755576 0.052845057 0.32985944 -0.103499286 -0.30304167
-0.28379905 0.09631342 0.082036346 -0.4098576 -0.5852697 -0.4294679 -0.42341602 -0.40356055
0.32659498 -0.4895478 -0.61777294 -0.14567132 0.258295 0.114061326 -0.18939972 0.1807897
-0.18646926 -0.18582183 0.22567692 0.20435056 0.32970676 -0.071359545 -0.082895935 0.13054828
0.33409816 -0.2115155 -0.1262986 -0.56270504 -0.23557405 0.060317528 -0.19744556 -0.13575849
0.25773382 0.08305337 0.10929673 -0.16582783 -0.07915308 0.3470615 0.15478589 0.252609
0.60464126 0.26567477 0.35235646 0.26570034 -0.08352449 -0.22324575 -0.526384 -0.08975732
0.19330259 0.44737297 0.2757293 0.06886801 0.03338194 0.43815285 -0.20345788 0.09733319
-0.15016684 -0.6866715 0.03889717 0.049268443 0.49094918 0.3110526 -0.07732655 0.47160378
0.17029138 0.285195 -0.15672615 0.17627211 -0.2110223 -0.43041882 0.27472532 -0.5786876
0.2261602 0.3388265 0.1082722 0.08447854 0.07711386 -0.21336195 -0.39033166 0.3759651
0.15849307 0.5911869 -0.0032268486 0.087474704 0.15385605 -0.36627358 -0.35949185 -0.23075107
0.25372803 0.26919997 -0.18289103 0.5690905 0.24897838 -0.27234802 0.18771783 0.34137926
-0.22938728 0.21890616 0.18608785 0.35064718 -0.28377613 -0.32127425 0.10754807 -0.47590923
0.07723104 0.071547374 -0.36419806 0.2658454 0.088588834 -0.0046645724 -0.56909126 0.031700484
0.247751 0.3930745 0.2277988 -0.63904065 -0.040834513 0.26642868 0.0835858 0.17215192
-0.3619973 0.108681336 -0.19572628 -0.34690392 0.37604576 -0.04120522 0.4903823 -0.37476975
-0.1791703 -0.28209823 0.31542063 0.17140497 -0.11587677 -0.0026630422 -0.2912777 0.25288492
0.111889765 -0.018355776 0.1190269 -0.020213027 -0.46559665 0.27043015 0.09016232 0.03484224
0.0027751424 -0.15633799 -0.013727878 0.36068723 -0.1486851 -0.07820023 0.15267076 0.10575717
00000000: 7ed2 d1be 0e01 94be f21c 263c ec55 bc3e
00000010: 4a37 f73d f548 e7bd 2c47 c13e 3c75 e73e
00000020: de3a f23d 2872 0bbe 8aa9 75be d2e6 56be
00000030: 2efb a9be 65eb 9abe c89e 54be 1371 763e
00000040: 4774 e2be 62bd 043e eb4a b3be 6ada a33e
00000050: a722 76bd 22d8 b9be 7865 143e 33e5 42be
00000060: f8e1 2bbe edb0 f6bc 0e99 9d3e 75f3 a6bc
00000070: a6d4 8f3e c37a fe3d 0c0c 8c3d 46ec 533e
00000080: 8226 9a3e 99d0 17be 80bf b13e b0f5 c9be
00000090: 517b 533e 2de3 4d3e 654e ad3e d03d 183e
000000a0: 6a13 85be eb4d 783e d0a0 ddbe 5c27 53bd
000000b0: 0a6f a53e 2885 c43e 5be7 8abd 63cb b63e
000000c0: 60b2 2dbe fe64 d8bd 4676 0aba 908f bfbe
000000d0: 64aa 3c3e b62f adbd a442 07bf 19a7 e13d
000000e0: f527 96be bddf 213f 2f5c a73e 9938 ad3e
000000f0: 0685 a1be 23cc 97bd 5724 0c3f 0367 5c3e
00000100: acf1 3cbf 2f7b a33e b394 4e3e 15a0 523e
00000110: 36f7 913c ccf4 e5be 2c8f 2a3e 7332 0abd
00000120: 1284 07bf 36dc 3c3e 00db 173e c962 86bd
00000130: e23f 4c3e 3b0b 76be 8a1d f03e 9d2c 273e
00000140: 2924 ccbe d7a1 d43e 3b57 1ebd 6bd7 a7be
00000150: 7440 d7be 1c29 a1bc e92e cdbe 0a34 efbe
00000160: 5962 5ebe ac74 813e 9563 9f3e 9511 9f3d
00000170: 52be 063f 9ea9 0d3f 90cf ffbe 0a0c 9e3e
00000180: d54a 40be fcfd 01be 6238 13bf da7f ff3d
00000190: 0f74 583d 56e3 a83e 6ff7 d3bd 4728 9bbe
000001a0: 1c4e 91be f83f c53d ac02 a83d dbd8 d1be
000001b0: 3cd4 15bf 37e3 dbbe fcc9 d8be 7d9f cebe
000001c0: 7537 a73e 02a6 fabe 5e26 1ebf dd2a 15be
000001d0: 3e3f 843e fc98 e93d 00f2 41be ef20 393e
000001e0: ccf1 3ebe 1448 3ebe da17 673e 4641 513e
000001f0: 53cf a83e f424 92bd 58c5 a9bd 73ae 053e
00000200: ea0e ab3e 8597 58be 6c54 01be 700d 10bf
00000210: 533a 71be 830f 773d 2b2f 4abe 4604 0bbe
00000220: b0f5 833e e317 aa3d f7d6 df3d c5ce 29be
00000230: 031b a2bd 0cb2 b13e 3180 1e3e f855 813e
00000240: c5c9 1a3f 8606 883e 1168 b43e e009 883e
00000250: e30e abbd 899a 64be 1ac1 06bf b0d2 b7bd
00000260: 1df1 453e 120e e53e 642c 8d3e ac0a 8d3d
00000270: 80bb 083d 9255 e03e 4357 50be a056 c73d
00000280: 56c5 19be b4c9 2fbf a452 1f3d b5cd 493d
00000290: b15d fb3e 4942 9f3e 625d 9ebd 0d76 f13e
000002a0: dd60 2e3e 1405 923e d27c 20be ad80 343e
000002b0: 3b16 58be db5f dcbe cca8 8c3e df24 14bf
000002c0: 8a96 673e ab7a ad3e d1bd dd3d 1603 ad3d
000002d0: dfed 9d3d 8e7b 5abe 8dd9 c7be 7f7e c03e
000002e0: 024c 223e 0658 173f 8979 53bb f025 b33d
000002f0: 718c 1d3e 3688 bbbe 510f b8be 024a 6cbe
00000300: a4e8 813e 94d4 893e c947 3bbe eaaf 113f
00000310: 30f4 7e3e 3371 8bbe 1a39 403e 43c9 ae3e
00000320: 80e4 6abe f028 603e d08d 3e3e 0788 b33e
00000330: 1b4b 91be 0f7e a4be 2a42 dc3d 60aa f3be
00000340: 4f2b 9e3d 6e87 923d 2b78 babe e31c 883e
00000350: 106e b53d 45d9 98bb f7af 11bf 5ed8 013d
00000360: 70b2 7d3e 1041 c93e 1744 693e 2b98 23bf
00000370: 1742 27bd 5769 883e 082f ab3d 9848 303e
00000380: b657 b9be 5294 de3d 786c 48be 649d b1be
00000390: 1289 c03e cec6 28bd 6413 fb3e d2e1 bfbe
000003a0: 6b78 37be 2e6f 90be d07e a13e c984 2f3e
000003b0: cd50 edbd 6f86 2ebb 5a22 95be 227a 813e
000003c0: 7626 e53d da5e 96bc 60c4 f33d ca95 a5bc
000003d0: af62 eebe d275 8a3e 06a7 b83d bdb6 0e3d
000003e0: 2adf 353b 1117 20be e5ea 60bc ffab b83e
000003f0: e840 18be 7127 a0bd b955 1c3e 3797 d83d

conv2.fc_neigh.weight f4 [16, 16]
0.10602533 0.24974053 0.1080223 0.5822511 0.11711427 0.4266523 -0.37298232 0.03717222
-0.2200373 -0.60339093 0.2590622 -0.054675415 -0.21713617 -0.2954244 -0.022403028 0.6962416
-0.4057345 0.031579703 0.07430726 -0.08366915 -0.2168727 -0.40091506 0.86647516 0.26203185
0.6367841 0.20763722 0.3984267 -0.3503956 0.39709172 -0.29269308 -0.2862193 0.08289888
0.13915889 -0.3734682 -0.62290144 -0.3518195 0.42371362 -0.23769173 0.33001965 -0.38404688
-0.6201306 0.5116706 -0.17507514 -0.3083095 -0.16352506 0.41438958 0.24606568 0.6712293
-0.3577507 -0.46343362 0.4854169 -0.7946721 0.3167861 -0.39335248 -0.23177852 -0.33242545
0.15649076 0.73842466 0.09269608 0.19308656 0.42386666 -0.4229818 -0.6610777 0.16199121
-0.8249253 -0.33169675 0.46833712 -0.37435573 0.058832873 0.19974805 0.0111073395 -0.25514057
-0.43004745 -0.3472423 -0.12535071 0.28121322 0.44759426 -0.36199474 0.59798634 -0.31700483
0.05129137 -0.05770065 0.4665035 0.2592402 -0.4832041 0.62971884 0.025628481 0.7893341
0.08184303 -0.38455108 -0.21330954 -0.317157 0.6430298 0.5415001 0.016296457 0.2334
0.09283553 0.39495978 0.15156363 -0.07001561 -0.2652894 0.0427307 0.29313195 -0.40373006
-0.76185757 -0.25666997 -0.077334546 -0.7628796 -0.58567035 -0.2448947 -0.35430443 -0.32035378
0.5526142 -0.2986797 -0.053746954 -0.42676142 0.057887927 -0.4456451 0.19309038 0.5609794
0.1642489 -0.60721874 0.40492278 -0.50743777 0.41536602 -0.3833103 -0.17492291 -0.45826888
-0.32612723 -0.50582796 0.3688787 -0.31587088 -0.8277203 -0.27009517 0.02428862 0.49366483
-0.17318788 -0.12986939 0.24341623 -0.31405422 -0.23780291 0.23597953 0.32902336 0.17003332
0.42108583 -0.40727055 0.7303666 0.46235564 -0.6141222 -0.7488687 0.35985115 -0.06849327
-0.37541145 -0.08171623 -0.18235122 0.37488538 0.321633 0.6993536 -0.5190688 0.18782923
0.3068044 0.19396721 0.5091331 -0.23656748 0.6524765 0.23154338 -0.026207995 0.47549003
0.18505903 0.58141124 0.31934547 -0.44399434 -0.058175907 0.30274177 0.052884262 -0.23430778
0.53280216 0.772054 0.41732708 0.3536205 -0.28907642 -0.1944885 0.11077657 0.6679018
-0.5182179 -0.09988952 0.21675168 -0.54994214 0.34951603 0.17468143 0.39100057 0.27602294
-0.28446364 0.11371407 -0.5375895 -0.18184924 0.24738564 0.004710466 -0.1987877 -0.03732647
-0.6749866 0.48479116 0.6169102 0.66236526 -0.4529185 0.49670196 0.24298832 -0.020520149
-0.42916897 -0.23146656 -0.27049008 0.6314124 -0.19377421 -0.68686414 -0.07805196 -0.197699
-0.46298876 -0.44960395 -0.19543101 -0.3912359 -0.0054651415 0.21195117 0.11973234 -0.07803675
0.119105436 0.10275503 0.35065976 -0.5877883 0.554921 0.5796456 0.41364217 0.33589023
-0.182155 -0.030108664 0.47529167 0.6137756 -0.16939802 -0.032199282 -0.18518339 -0.24384348
0.38648683 0.17415942 0.34480217 0.2838142 -0.24741988 0.251704 0.31445548 0.14290985
0.5651018 -0.119270585 -0.55143803 -0.23552616 -0.16846399 -0.32900986 0.4205504 -0.087487265
00000000: cf23 d93d fbbb 7f3e cc3a dd3d 680e 153f
00000010: 9bd9 ef3d 2c72 da3e 8af7 bebe e641 183d
00000020: 7551 61be d477 1abf cda3 843e 54f3 5fbd
00000030: f258 5ebe de41 97be 8e86 b7bc e43c 323f
00000040: 6fbc cfbe b859 013d 682e 983d bb5a abbd
00000050: e113 5ebe bd44 cdbe 51d1 5d3f 0a29 863e
00000060: 4804 233f da9e 543e 96fe cb3e 0d67 b3be
00000070: 9b4f cb3e dedb 95be 568b 92be e3c6 a93d
00000080: ab7f 0e3e 3937 bfbe 7876 1fbf af21 b4be
00000090: fef0 d83e 7665 73be 56f8 a83e cba1 c4be
000000a0: e1c0 1ebf d8fc 023f e646 33be beda 9dbe
000000b0: 1d73 27be df2a d43e a4f8 7b3e afd5 2b3f
000000c0: 1a2b b7be 2c47 edbe 9088 f83e a16f 4bbf
000000d0: ca31 a23e 7f65 c9be 5957 6dbe ab33 aabe
000000e0: 1d3f 203e 6609 3d3f 71d7 bd3d 7cb8 453e
000000f0: 0d05 d93e 1291 d8be 633c 29bf 06e1 253e
00000100: 4e2e 53bf 28d4 a9be e2c9 ef3e 8eab bfbe
00000110: bdfa 703d c18a 4c3e 8ffb 353c c9a1 82be
00000120: 2e2f dcbe bec9 b1be f05b 00be 2efb 8f3e
00000130: 132b e53e 6057 b9be a215 193f 754e a2be
00000140: e616 523d 8457 6cbd 8cd9 ee3e 22bb 843e
00000150: 8766 f7be 4135 213f d2f2 d13c cd11 4a3f
00000160: 529d a73d e1e3 c4be d16d 5abe 6762 a2be
00000170: 9a9d 243f c09f 0a3f 2680 853c 6900 6f3e
00000180: 8e20 be3d 2b38 ca3e 7f33 1b3e 5864 8fbd
00000190: 03d4 87be 6306 2f3d 6415 963e b5b5 cebe
000001a0: 1909 43bf 3f6a 83be 9361 9ebd 144c 43bf
000001b0: 7eee 15bf adc5 7abe 6467 b5be 6905 a4be
000001c0: 2078 0d3f 8cec 98be c425 5cbd 7980 dabe
000001d0: e41b 6d3d 982b e4be 7cb9 453e 599c 0f3f
000001e0: dd30 283e b072 1bbf 0a52 cf3e 71e7 01bf
000001f0: dbaa d43e 3f41 c4be fe1e 33be 38a2 eabe
00000200: 26fa a6be f17d 01bf abdd bc3e d4b9 a1be
00000210: 7ae5 53bf ea49 8abe eef8 c63c a3c1 fc3e
00000220: 2a58 31be 7bfc 04be 1b42 793e b7cb a0be
00000230: 9b82 73be 9ea4 713e c075 a83e 371d 2e3e
00000240: 9098 d73e c485 d0be 4ef9 3a3f e1b9 ec3e
00000250: 1d37 1dbf dcb5 3fbf 693e b83e 3346 8cbd
00000260: ee35 c0be d75a a7bd 47ba 3abe faf0 bf3e
00000270: 15ad a43e d608 333f b1e1 04bf 4e56 403e
00000280: 7715 9d3e 579f 463e 8c56 023f bf3e 72be
00000290: b308 273f b519 6d3e 26b2 d6bc 6e73 f33e
000002a0: 1d80 3d3e 5ed7 143f 4081 a33e 3a53 e3be
000002b0: dc49 6ebd f800 9b3e 2b9d 583d 61ee 6fbe
000002c0: b965 083f 55a5 453f e5ab d53e bf0d b53e
000002d0: d301 94be fe27 47be d4de e23d 9dfb 2a3f
000002e0: eea9 04bf e092 ccbd 27f4 5d3e 02c9 0cbf
000002f0: c4f3 b23e b0df 323e 3a31 c83e e152 8d3e
00000300: 38a5 91be ece2 e83d 779f 09bf b036 3abe
00000310: a952 7d3e 415a 9a3b 018f 4bbe a4e3 18bd
00000320: eccb 2cbf 8c36 f83e d4ed 1d3f c590 293f
00000330: efe4 e7be b84f fe3e eed1 783e df19 a8bc
00000340: 09bc dbbe 9205 6dbe ad7d 8abe 3ea4 213f
00000350: bf6c 46be 54d6 2fbf b5d9 9fbd 9b71 4abe
00000360: dd0c edbe 7d32 e6be 111f 48be 1250 c8be
00000370: ee14 b3bb ba09 593e 3b36 f53d bbd1 9fbd
00000380: 8ded f33d 3b71 d23d ad89 b33e 4b79 16bf
00000390: 4d0f 0e3f a763 143f e8c8 d33e cef9 ab3e
000003a0: d786 3abe 72a6 f6bc 6e59 f33e 6620 1d3f
000003b0: ad76 2dbe 65e3 03bd b7a0 3dbe 1bb2 79be
000003c0: 9ae1 c53e d956 323e e989 b03e 1850 913e
000003d0: a35b 7dbe 59df 803e 4f00 a13e f656 123e
000003e0: 83aa 103f 2344 f4bd 0b2b 0dbf c52d 71be
000003f0: d381 2cbe fb73 a8be 6252 d73e 862c b3bd

conv3.bias f4 [16]
0.0018959263 -0.0038959633 0.0064370334 0.02101999 -0.004387759 -0.00401104 -0.0031175634 -0.0010123128
-0.013299431 0.0006247905 -0.010672846 -0.0011878021 0.008830969 0.004640565 0.0031406512 0.00855553
00000000: bb80 f83a 6b53 7fbb c0ed d23b 1d32 ac3c
00000010: 31c7 8fbb 0b6f 83bb 0950 4cbb 95af 84ba
00000020: dbe5 59bc fbc8 233a 29dd 2ebc 06b0 9bba
00000030: c5af 103c e10f 983b 62d3 4d3b 7e2c 0c3c

conv3.fc_self.weight f4 [16, 16]
-0.36024976 -0.39633253 0.045986187 -0.3381811 0.36234263 0.23383497 0.37834144 0.21374263
0.06847257 0.14410205 -0.24549149 -0.09773192 0.015292289 -0.26637697 -0.18224594 -0.14627181
-0.30110872 0.0056059808 -0.28042233 0.30491376 -0.50078243 0.2210823 -0.30781066 -0.009984518
-0.44086242 -0.1297024 0.08217858 0.14070514 0.16626024 0.14814612 0.25231776 0.01196285
-0.3414178 0.27345774 -0.2601316 -0.2012634 0.32492426 -0.39431858 0.28729278 -0.119687475
0.03204154 -0.27927077 0.042387474 0.27718276 -0.64171636 0.028406247 -0.26613146 -0.05287817
-0.11328378 -0.34503618 -0.18315902 -0.14633682 0.3161681 0.25721467 -0.1407506 -0.11199874
-0.33073786 -0.4548694 -0.024277795 -0.16234328 0.050355833 0.37353057 -0.3461195 -0.39201584
-0.30582696 -0.09978844 -0.17279014 -0.051645067 0.36084318 -0.1474622 0.28117567 0.07758638
-0.11571435 0.14834607 -0.3007953 -0.24785562 -0.41177174 -0.6228129 0.07165364 -0.39192614
-0.15851152 0.21737 -0.11176419 -0.298127 0.1254859 0.003695338 0.3213366 -0.34908614
-0.031592533 0.32053077 0.21636905 -0.043763183 -0.18275575 -0.2093998 0.058492567 -0.2923527
0.2598636 -0.22195846 -0.12052638 -0.21967149 -0.033675946 0.53914976 -0.17697667 0.063876316
0.24384749 0.122350484 0.32861057 -0.38590258 0.32418877 0.17070445 -0.067510575 -0.2929777
0.500861 -0.019131301 0.036710102 -0.074249625 -0.087934375 0.6330043 -0.2648384 0.3810923
0.17539386 -0.43556443 0.12520619 0.11967388 0.37880394 0.20563544 0.09696078 0.39171183
-0.048311077 -0.118695766 -0.3775576 0.056302533 0.1965751 -0.10748301 -0.18769118 0.25763533
-0.103290185 0.16418935 -0.3499534 0.21730836 -0.17953406 0.018374499 0.13515316 -0.18794987
0.2858345 -0.38287276 -0.1408571 -0.11156781 0.15455592 0.07016344 -0.24527922 0.14144135
0.2135215 0.21515943 0.35141474 -0.49140593 0.080970004 0.3545114 0.30743605 -0.007543597
-0.31027558 0.11769593 0.12067783 -0.2648474 0.4299588 0.02499983 -0.35263896 -0.17496839
-0.107328236 -0.08457917 0.31007725 0.018673517 0.3529424 0.34769744 0.24520378 0.38543987
0.058882285 0.3833348 0.1458934 -0.23111941 -0.2721636 0.16308548 -0.25343803 0.06379568
-0.27337673 0.4358196 0.150324 -0.3708771 -0.08449806 -0.073328085 -0.07157977 0.25889847
0.24990432 0.11868423 -0.3150613 0.36808872 -0.8207288 0.31166473 -0.7274318 -0.019772805
-0.40335628 -0.4560299 -0.40209603 -0.116197705 0.40009788 0.2633165 -0.10627158 -0.033598837
0.0018687777 -0.07751723 -0.014675608 -0.023039328 0.042384755 -0.33843842 -0.30119067 0.15179561
-0.1214752 -0.35589498 -0.5422404 0.36593685 -0.040576655 0.05845106 -0.34574696 0.007406131
0.1268326 -0.07629324 -0.40883613 -0.22058906 -0.14645481 -0.03227873 -0.18871693 0.0010103825
-0.40965953 0.3236634 -0.12248244 0.10179889 -0.42306253 -0.005736457 0.024601243 -0.4563159
0.19112086 0.12917617 0.29455844 0.30635765 0.24239293 0.3230804 0.12943505 -0.22955084
0.37405264 -0.015905732 0.255575 0.18570766 0.13809861 0.07638791 -0.051471494 0.35598972
00000000: a872 b8be 19ec cabe 035c 3c3d 1326 adbe
00000010: f984 b93e 6f72 6f3e f8b5 c13e 59df 5a3e
00000020: 593b 8c3d 7d8f 133e 1f62 7bbe ac27 c8bd
00000030: 828c 7a3c 9062 88be ae9e 3abe 47c8 15be
00000040: ec2a 9abe 60b2 b73b 8493 8fbe a81d 9c3e
00000050: 4733 00bf 6663 623e 5c99 9dbe 1b96 23bc
00000060: b8b8 e1be b5d0 04be 3e4d a83d 0215 103e
00000070: 2040 2a3e 9eb3 173e cb2f 813e d4ff 433c
00000080: 50ce aebe a702 8c3e f82f 85be fe17 4ebe
00000090: 795c a63e 20e4 c9be 0a18 933e b51e f5bd
000000a0: fd3d 033d 94fc 8ebe 7d9e 2d3d e6ea 8d3e
000000b0: 8647 24bf 38b4 e83c 6242 88be c896 58bd
000000c0: 5401 e8bd 95a8 b0be 0a8e 3bbe 52d9 15be
000000d0: c9e0 a13e a4b1 833e ed20 10be 985f e5bd
000000e0: 7956 a9be a4e4 e8be 3ae2 c6bc 513d 26be
000000f0: eb41 4e3d 663f bf3e 9336 b1be 4db6 c8be
00000100: 5a95 9cbe e25d ccbd e6ef 30be c789 53bd
00000110: 70c0 b83e 5500 17be 42f6 8f3e 9ce5 9e3d
00000120: a5fb ecbd 08e8 173e d701 9abe ddcd 7dbe
00000130: bfd3 d2be ab70 1fbf 25bf 923d 8baa c8be
00000140: d850 22be 3e96 5e3e a0e4 e4bd 1aa4 98be
00000150: 607f 003e 7c2d 723b 3b86 a43e 6bbb b2be
00000160: 2c67 01bd 9c1c a43e d98f 5d3e 0641 33bd
00000170: 5324 3bbe e76c 56be e795 6f3d 41af 95be
00000180: d70c 853e 1449 63be 89d6 f6bd 90f1 60be
00000190: caef 09bd b805 0a3f 5f39 35be 96d1 823d
000001a0: 28b3 793e e492 fa3d a53f a83e 0695 c5be
000001b0: 12fc a53e 26cd 2e3e fc42 8abd 2c01 96be
000001c0: 6d38 003f 3fb9 9cbc 555d 163d 3010 98bd
000001d0: f016 b4bd 920c 223f e698 87be 881e c33e
000001e0: 739a 333e 4d02 dfbe 0d36 003e 9417 f53d
000001f0: 97f2 c13e 1992 523e 6093 c63d 748e c83e
00000200: d6e1 45bd c416 f3bd 3b4f c1be 7c9d 663d
00000210: fc4a 493e 0d20 dcbd 1e32 40be c7e8 833e
00000220: ce89 d3bd 4121 283e 182d b3be 1586 5e3e
00000230: c7d7 37be 1e86 963c 9765 0a3e ee75 40be
00000240: e658 923e e607 c4be d83c 10be aa7d e4bd
00000250: e843 1e3e dab1 8f3d 7a2a 7bbe 00d6 103e
00000260: 61a5 5a3e c152 5c3e a2ec b33e 8f99 fbbe
00000270: 9ad3 a53d 8582 b53e 4268 9d3e 4730 f7bb
00000280: 71dc 9ebe 900a f13d f025 f73d 149a 87be
00000290: 8f23 dc3e 72cc cc3c 188d b4be ea2a 33be
000002a0: e8ce dbbd d837 adbd 72c2 9e3e 34f9 983c
000002b0: deb4 b43e 6605 b23e b316 7b3e 6058 c53e
000002c0: 8d2e 713d 7544 c43e 1465 153e 91aa 6cbe
000002d0: 0759 8bbe e1ff 263e a1c2 81be 4fa7 823d
000002e0: 09f8 8bbe bf23 df3e 89ee 193e 9ae3 bdbe
000002f0: 520d adbd 092d 96bd 6a98 92bd 578e 843e
00000300: ebe6 7f3e b810 f33d b74f a1be 2076 bc3e
00000310: 481b 52bf 8592 9f3e f838 3abf 94fa a1bc
00000320: b784 cebe c07c e9be 88df cdbe 10f9 edbd
00000330: a1d9 cc3e 6cd1 863e eaa4 d9bd ef9e 09bd
00000340: c6f1 f43a 5ac1 9ebd f671 70bc f9bc bcbc
00000350: a39b 2d3d cd47 adbe aa35 9abe 4f70 1b3e
00000360: fdc7 f8bd de37 b6be 44d0 0abf 135c bb3e
00000370: b533 26bd 616a 6f3d bf05 b1be 21af f23b
00000380: 68e0 013e a13f 9cbd f852 d1be 19e2 61be
00000390: 40f8 15be b436 04bd 033f 41be d06e 843a
000003a0: e5be d1be 36b7 a53e 13d8 fabd f07b d03d
000003b0: a79b d8be e4f8 bbbb 8c88 c93c 3da2 e9be
000003c0: 30b5 433e c246 043e 5dd0 963e e9da 9c3e
000003d0: da35 783e cb6a a53e 9f8a 043e 600f 6bbe
000003e0: d483 bf3e bd4c 82bc bada 823e 262a 3e3e
000003f0: b969 0d3e 4471 9c3d c6d3 52bd 4944 b63e

conv3.fc_neigh.weight f4 [16, 16]
-0.5015195 -0.5116715 0.08392999 -0.42226434 -0.17422149 0.17233938 0.046062358 0.41238338
0.035988037 0.3854334 -0.22630271 -0.011809907 0.40902287 0.15310894 0.40266293 0.18849044
-0.4134089 -0.29861113 -0.65057576 -0.005893021 0.17969923 0.068921745 -0.061538093 0.24966305
-0.388306 0.29110393 0.3441772 -0.21687166 -0.28366828 -0.41658965 -0.09504291 0.29864207
0.018674113 0.28434116 0.1507562 -0.43023852 -0.07806064 0.47618276 -0.039334837 0.5199091
-0.39001998 0.37511113 0.4925303 -0.58147115 -0.1811295 0.45986536 -0.43078655 0.2882514
0.2723509 -0.49998072 0.049207706 0.08672189 0.061290454 -0.32680002 0.4215321 -0.705693
-0.17577602 0.38108864 -0.69951665 -0.1540897 -0.03410032 -0.26843634 0.40127867 0.5220091
0.44360146 0.5062483 -0.09685775 -0.21852562 0.5005517 0.29105026 -0.44214037 0.04885148
0.16260836 0.5256256 0.09130365 -0.7478482 0.108118705 -0.3446975 0.17726663 0.08169174
0.26686433 0.46794352 -0.79287595 0.044993788 -0.40028766 -0.14202133 0.059884194 -0.28437093
-0.037667748 0.14138673 -0.17330304 0.21579185 0.3625811 0.041730218 0.25826755 -0.02151507
0.53603536 0.41189775 -0.08880852 -0.37187424 -0.10201051 -0.10808011 -0.41119456 -0.37181056
0.62762165 0.31465742 0.19545497 0.27243012 0.29195002 0.10963337 0.23500302 0.25651798
0.46789265 -0.0982148 0.016881531 -0.18768057 -0.10138939 0.5400173 0.34599906 0.2075298
-0.29333305 -0.40499577 -0.16937795 0.40810212 -0.33421126 -0.42242944 0.42981625 -0.13739732
-0.08495816 0.06741842 -0.081175745 0.22437218 0.2992614 0.2704651 0.117375575 0.40688255
-0.085256025 -0.25427142 -0.45778525 0.15339206 0.097470105 0.28228617 -0.23356351 -0.69450855
0.3441315 -0.5980593 -0.5526503 -0.2812069 0.3532701 -0.4263831 -0.11441599 0.5177102
0.0042955517 0.31192112 -0.2527888 -0.34163994 -0.19554164 0.23200355 0.20496364 0.06230832
-0.3363869 -0.2415603 0.27978468 -0.43822876 0.47454032 0.41513863 -0.38749245 0.13064554
-0.5496223 -0.28465036 0.2870525 -0.00048779012 0.35142747 0.5904061 0.108835615 0.24769011
-0.81406003 0.08800307 0.21653742 0.2145473 -0.29551202 0.083272345 0.22164313 -0.4782216
-0.54311556 -0.39736566 -0.16068996 0.1157103 -0.5260802 0.07712782 0.36767265 -0.038304728
-0.31358662 -0.38021266 -0.060603816 0.13211453 0.22779843 0.22851686 -0.02452564 -0.2127367
0.41811734 -0.53002334 -0.44912556 -0.3940499 0.23089932 -0.65653205 -0.86322796 0.20306496
0.4087872 -0.2709751 0.44654742 0.06806017 -0.050484106 -0.64496815 -0.5172053 0.18913697
-0.526706 0.62791175 -0.49670362 0.47035557 -0.24340305 -0.30122846 0.3056425 0.45829448
0.336905 -0.55615455 0.44855818 0.45811382 0.058513198 0.67864347 0.25694373 -0.2805981
-0.41012922 0.08046553 0.42474702 -0.36374354 -0.3905529 0.4779982 0.14791434 -0.63564074
-0.1431444 -0.48022258 -0.39650598 0.14017358 0.45335126 0.08885542 0.10746375 0.06312308
0.07294977 0.25676632 0.15192187 0.48393843 -0.35516608 -0.41148728 -0.21597317 0.0642012
00000000: 9563 00bf e7fc 02bf 7de3 ab3d 0833 d8be
00000010: 1e67 32be bc79 303e e2ab 3c3d ea23 d33e
00000020: 3168 133d 8757 c53e e6bb 67be 577e 41bc
00000030: 726b d13e 97c8 1c3e d629 ce3e a303 413e
00000040: 55aa d3be 8fe3 98be 228c 26bf 3e1a c1bb
00000050: 1303 383e d826 8d3d 5e0f 7cbd aca7 7f3e
00000060: 0bd0 c6be 930b 953e fe37 b03e 9b13 5ebe
00000070: f83c 91be 3d4b d5be dba5 c2bd 9de7 983e
00000080: 74fa 983c 2a95 913e d55f 1a3e 3948 dcbe
00000090: 42de 9fbd 3ace f33e 911d 21bd c318 053f
000000a0: b3b0 c7be 910e c03e ee2c fc3e 4bdb 14bf
000000b0: 037a 39be 7973 eb3e 0e90 dcbe b095 933e
000000c0: 9471 8b3e 79fd ffbe 058e 493d 3f9b b13d
000000d0: b30b 7b3d 5552 a7be 0ed3 d73e 4ca8 34bf
000000e0: a1fe 33be 0d1e c33e 8613 33bf b1c9 1dbe
000000f0: c7ac 0bbd 7d70 89be 6674 cd3e 63a2 053f
00000100: bb1f e33e 7d99 013f 5b5d c6bd 2ec5 5fbe
00000110: 2824 003f 8a04 953e 3960 e2be 7d18 483d
00000120: ce82 263e 668f 063f 68fd ba3d fb72 3fbf
00000130: 576d dd3d 317c b0be 6285 353e 004e a73d
00000140: 71a2 883e 4b96 ef3e ebf9 4abf 684b 383d
00000150: 81f2 ccbe 0a6e 11be 2149 753d 1199 91be
00000160: 7f49 1abd afc7 103e 5a76 31be 8af8 5c3e
00000170: 3ba4 b93e 4eed 2a3d a53b 843e 5f40 b0bc
00000180: 9d39 093f 43e4 d23e 3ee1 b5bd 4d66 bebe
00000190: e3ea d0bd 1b59 ddbd 1888 d2be f45d bebe
000001a0: d0ab 203f c71a a13e 5925 483e f67b 8b3e
000001b0: 797a 953e 7687 e03d a2a4 703e 5356 833e
000001c0: a08f ef3e d724 c9bd 234b 8a3c 562f 40be
000001d0: 3ea5 cfbd 933e 0a3f ca26 b13e b182 543e
000001e0: c02f 96be 9b5b cfbe 6a71 2dbe c3f2 d03e
000001f0: bd1d abbe ac48 d8be e010 dc3e e2b1 0cbe
00000200: 8bfe adbd ab12 8a3d 783f a6bd d2c1 653e
00000210: ca38 993e 677a 8a3e 9b62 f03d e952 d03e
00000220: b69a aebd dd2f 82be d462 eabe cf12 1d3e
00000230: 689e c73d d087 903e 462b 6fbe 50cb 31bf
00000240: 0132 b03e 6a1a 19bf 7d7a 0dbf 5afa 8fbe
00000250: d2df b43e e34e dabe ee52 eabd a888 043f
00000260: b3c1 8c3b 20b4 9f3e 896d 81be 6eeb aebe
00000270: 113c 48be 5792 6d3e fde1 513e 0237 7f3d
00000280: e73a acbe 955b 77be f03f 8f3e 855f e0be
00000290: f3f6 f23e 0d8d d43e 6965 c6be f2c7 053e
000002a0: 0cb4 0cbf b1bd 91be 8cf8 923e 15be ffb9
000002b0: 4dee b33e db24 173f 35e5 de3d 7aa2 7d3e
000002c0: 3d66 50bf f43a b43d fcbb 5d3e 4ab2 5b3e
000002d0: 5a4d 97be b18a aa3d 6bf6 623e 76d9 f4be
000002e0: 9f09 0bbf 8373 cbbe e98b 24be 86f9 ec3d
000002f0: 31ad 06bf 31f5 9d3d 973f bc3e 6be5 1cbd
00000300: 6d8e a0be 3cab c2be b53b 78bd 0849 073e
00000310: fe43 693e 5300 6a3e ffe9 c8bc a6d7 59be
00000320: 7a13 d63e 9caf 07bf c9f3 e5be e9c0 c9be
00000330: df70 6c3e 7c12 28bf 82fc 5cbf 43f0 4f3e
00000340: 8e4c d13e 40bd 8abe dda1 e43e 2163 8b3d
00000350: 6cc8 4ebd a21c 25bf 9167 04bf 1fad 413e
00000360: 34d6 06bf d3be 203f f04f febe 72d2 f03e
00000370: a63e 79be 9e3a 9abe 2c7d 9c3e 93a5 ea3e
00000380: d07e ac3e 2560 0ebf 6ba9 e53e e58d ea3e
00000390: 89ab 6f3d 94bb 2d3f 218e 833e 8eaa 8fbe
000003a0: 75fc d1be 1dcb a43d 7178 d93e 983c babe
000003b0: 8df6 c7be 2ebc f43e db76 173e 5ab9 22bf
000003c0: 7294 12be bcdf f5be d502 cbbe aa89 0f3e
000003d0: a81d e83e d5f9 b53d f415 dc3d ac46 813d
000003e0: b066 953d e076 833e 6891 1b3e c7c6 f73e
000003f0: 54d8 b5be 76ae d2be 1228 5dbe eb7b 833d
