model.pth (torch, 28875 bytes, 9 tensors)

conv1.bias f4 [16]
000000 33 5c f4 3c af 8d d5 3c 94 57 a0 bb 3b cb 06 bd
       0.02982912 0.026068537 -0.0048932526 -0.03290866
000010 fb 30 ef 3c 78 1d 89 3a 0b 13 2d 3b 1f 6b 86 bb
       0.02919816 0.0010461053 0.0026409056 -0.0041021253
000020 53 0d 32 bc 29 38 14 bc 2b b6 3c bd be 5e 5d bb
       -0.010867435 -0.009046593 -0.046072166 -0.0033778395
000030 3e 14 be bc 10 a0 15 3c 3f 68 af 3c 3f 2c 87 3b
       -0.023203012 0.0091324 0.021412013 0.0041251476

conv1.fc_self.weight f4 [16, 170]
000000 96 fe 4d 3f 10 2f e7 3c 85 13 0c be 73 b0 83 bd
       0.8046659 0.028220683 -0.13679321 -0.064301394
000010 c8 f5 12 bf 8b f5 4d be 06 4f 04 bb a9 80 66 3e
       -0.5740628 -0.20113198 -0.0020188703 0.22510017
000020 f2 b3 b5 3e bb d6 d9 be c2 16 e2 bc 99 63 e5 be
       0.3548885 -0.4254664 -0.027598742 -0.4480255
000030 3b aa 0a 3f 75 09 e8 bd 32 39 87 bd df 10 32 bc
       0.54166 -0.11329929 -0.06602706 -0.01086828
000040 8c 0f a0 3d 3c 8a 46 3e 25 d9 c0 be 84 9d 56 be
       0.07815465 0.1938867 -0.37665668 -0.20958525
000050 b5 ba d3 bd 64 08 09 3d 88 6c aa 3d e3 1d a7 bd
       -0.10338346 0.033455268 0.08321482 -0.08159997
000060 fe bf 4d bb d7 e6 d4 bc 9e 0f bc bd c3 fb 09 be
       -0.0031394954 -0.02598898 -0.09182666 -0.13474946
000070 21 0c 78 3e c6 f1 a0 3d 3f bf 85 bd 96 34 22 3c
       0.24223377 0.078586146 -0.06530618 0.009900233
000080 ba d5 e5 bd c5 42 10 be c2 a1 82 3c 8b 73 a3 3d
       -0.11222406 -0.1408797 0.015946273 0.079810224
000090 b4 83 36 3d e0 f9 06 bd 1d 5e fd 3d ce cf 8b 3d
       0.044559196 -0.032953143 0.12371466 0.06826745
0000a0 5e 43 7f 3e 1f 30 8e bd bb 8a 76 3e a7 68 ce bb
       0.24928042 -0.06942772 0.24076359 -0.0062990966
0000b0 6a 48 a2 3f ab 1f 2c 3e 28 b5 c0 be 9a 7e ca 3c
       1.2678349 0.16808955 -0.3763821 0.024718571
0000c0 a2 9a 4b bd f9 3b 30 3e 53 b8 74 3e 0f 33 87 3e
       -0.049708016 0.17210378 0.23898439 0.26406142
0000d0 d5 3d 56 be 3d 68 20 be 28 d1 22 be 27 4c ec 3d
       -0.20922025 -0.15664764 -0.159001 0.115379624
0000e0 e1 c6 8c 3e 8c 5a 10 3f d5 11 0a bf 39 6b 6c be
       0.27495483 0.56388164 -0.5393346 -0.23087777
0000f0 b9 34 44 3d f6 b7 a7 3e d9 64 ac 3e 56 04 d5 be
       0.047901843 0.3275754 0.3367069 -0.4160487
000100 7c d3 4e 3d 6c 6b 67 3f b8 49 4a 3e 4d d6 24 bc
       0.050494656 0.9039829 0.19754684 -0.010060859
000110 69 65 6a 3d 9d 41 1a 3d ba ff bf bc 78 61 6d bc
       0.05722562 0.03766023 -0.02343737 -0.01448857
000120 66 ba 30 3e 3b 7a 51 3e 9a b3 d2 bb 3e 98 14 3e
       0.17258605 0.20456783 -0.0064301016 0.14511201
000130 c9 3b 44 be 79 ad b0 bc 26 a1 3d 3f c1 14 3f be
       -0.19163431 -0.021567093 0.7407402 -0.1866026
000140 f1 8a e0 3d 20 31 e2 3e 65 db c3 3e f6 c3 17 bf
       0.10964001 0.44178104 0.38253322 -0.5928339
000150 5b fb 3a bf 19 d0 01 be 56 29 d1 bd 85 46 ab bc
       -0.7303979 -0.12677039 -0.10212962 -0.02090765
000160 a4 d2 6f 3b bb 42 a3 bd dd 2c 5a be e6 3d d1 3c
       0.0036594057 -0.07971712 -0.21306176 0.02554221
000170 3c 5c 98 3e 67 aa 49 bd 05 ca 21 3e 3e 56 19 be
       0.2975787 -0.049234774 0.1579972 -0.14974305
000180 b7 05 d9 3d 26 fa 46 3c 4b 4a 2d be 24 92 d2 be
       0.10596793 0.012144601 -0.16922872 -0.4112712
000190 0e a1 3d 3d 6a ce 01 be 65 ca 38 be c2 31 09 3f
       0.04629617 -0.12676397 -0.18045957 0.5359155
0001a0 66 13 8b 3f 3a 81 7c be a8 ec 44 be c3 89 8b bd
       1.0865295 -0.24658671 -0.19230902 -0.06813385
0001b0 9b 68 cc 3d 1e 63 87 3d c7 4d fb 3d f8 a2 37 be
       0.099808894 0.06610702 0.12270694 -0.17933261
0001c0 ff 26 37 bd 05 14 3e 3e e7 ec dd 3d e7 58 10 be
       -0.044714924 0.18562324 0.10836201 -0.14096414
0001d0 15 56 57 be 6e 29 18 bd ef 30 ab bd ad 36 cd 3d
       -0.21028931 -0.037148885 -0.08358943 0.10020194
0001e0 69 50 15 be af f8 95 bd 43 57 6c 3e f5 93 e8 bd
       -0.14581455 -0.07322823 0.23080163 -0.113563456
0001f0 69 a0 4d be 23 f8 f0 bc 5a 27 41 3e 7c 2d df bd
       -0.20080723 -0.029415196 0.18862668 -0.10897347
000200 28 30 e5 3d 48 97 18 3e 44 bc f6 3c c5 97 ef be
       0.11190826 0.14901459 0.030119069 -0.46795478
000210 c2 b6 53 3e aa fd fe 3c 70 cc 99 bd 13 56 21 be
       0.20675185 0.031126816 -0.075096965 -0.15755491
000220 28 ef 84 be bf 5c 90 bd 1f 8b 83 be 05 ba a3 be
       -0.25963712 -0.0704894 -0.25692078 -0.3197786
000230 b0 a4 ab 3c 62 07 52 3d f0 25 58 3e 4c 2a 35 3d
       0.020952553 0.051276572 0.21108222 0.04422979
000240 a6 36 5c bf e9 47 09 be 1a a9 9e bc 2f 39 71 3c
       -0.86020887 -0.13406338 -0.019367743 0.014723106
000250 ce 6b 0c 3e 22 37 b0 3e a2 32 cf 3d 5d 27 51 3e
       0.13712999 0.34417063 0.10117079 0.20425172
000260 8d 1f 92 3e 3f d5 b6 be 15 ad 70 3e 79 c4 a1 3e
       0.28539696 -0.3570957 0.23503526 0.3159521
000270 50 f7 64 3f e8 b7 13 3f 87 b6 d0 bc a8 ec aa be
       0.8943987 0.57702494 -0.02547766 -0.3338368
000280 a1 db 82 be b0 07 e2 3e af 87 28 be 28 9c 14 b9
       -0.2555819 0.4414649 -0.16458009 -0.00014172553
000290 d3 7e 11 3e 3e 35 ea be 03 ce a1 3e f4 6b fa 3d
       0.14208536 -0.45743746 0.31602487 0.12227622
0002a0 89 c5 25 3e 4c fa 7d bc a4 a1 01 3e aa 66 c0 3d
       0.16188635 -0.01550157 0.12659317 0.093945816
0002b0 16 f4 68 bd ed 5d a9 3d 1b 84 45 3e dd 12 9a 3d
       -0.056873403 0.08269868 0.19288675 0.07523129
0002c0 83 b2 c1 3d 6b e1 b5 3e 74 f5 9b 3e d9 a8 10 3c
       0.094578765 0.35523543 0.30460703 0.008829319
0002d0 e4 b5 f3 bd 51 f7 f0 be f9 3a 85 be 1c 51 9b 3e
       -0.11899927 -0.47063687 -0.26021555 0.3033532
0002e0 42 8b 91 bc 09 be f0 3d 2a ae b8 3c 7c 74 75 3d
       -0.017766599 0.11754996 0.022543985 0.05992554
0002f0 e6 6b 47 be 0b 34 87 bd 2c c0 60 bd dd 4f 8b 3c
       -0.19474754 -0.06601723 -0.05487077 0.017005855
000300 64 36 56 bd f1 e8 cd bd 17 7c 26 3e 4c 44 9b be
       -0.052297965 -0.10054196 0.16258274 -0.30325544
000310 f7 c2 b4 3d 82 79 7f be ec 8e b9 3d 18 6a 8a 3c
       0.08826249 -0.24948695 0.09060463 0.016896293
000320 11 57 b6 be 8a 4b 2e be df 6e 4f 3c 80 93 7b 3e
       -0.356133 -0.17021003 0.012660711 0.24567986
000330 0b 70 7e 3e ab 68 c8 bc 55 72 36 bd 9b bb 2d 3e
       0.24847429 -0.024463972 -0.04454263 0.16966097
000340 97 01 81 3e ae 84 25 3e 40 72 03 3e fe 16 84 3e
       0.25196525 0.16163895 0.12836552 0.25798792
000350 53 07 8c 3d 17 b7 8d 3b ad 9d 5b bf 98 6d 44 3c
       0.068373345 0.0043248045 -0.8578747 0.01198902
000360 35 ed 64 bf 4b 1b 19 3f 5d 70 38 3d bd 68 8f bc
       -0.8942445 0.5980727 0.045029033 -0.017505998
000370 e2 63 64 bc c4 54 a1 bd 11 92 4f 3e 35 12 3f 3d
       -0.01393983 -0.07877496 0.20270564 0.046648223
000380 42 64 d0 3d 98 0a ef bd ac 20 e9 bd d0 00 6b be
       0.10175373 -0.116719425 -0.11383185 -0.22949529
000390 c8 ff ec 3d aa e3 12 3e f1 8d 63 bc 1a 52 f6 3d
       0.11572224 0.1434466 -0.013888822 0.120273784
0003a0 04 12 26 3e e6 df f0 3c f3 f4 2a 3f dc 2f 00 bf
       0.1621781 0.029403638 0.6678001 -0.5007303
0003b0 38 82 bb bd cd 13 45 3e 03 f1 2e be 6c a6 cf bc
       -0.09155697 0.19245835 -0.17084126 -0.02534791
0003c0 4f ee 7d bd 96 2c e7 ba f3 70 48 bd 2c 20 ad bd
       -0.061994847 -0.0017637189 -0.04893584 -0.08453402
0003d0 ca 2b f5 bd 0a a8 18 bd 86 74 58 bc 2a 9d 8a bd
       -0.11971243 -0.03726963 -0.013211375 -0.06768258
0003e0 4c e4 1c 3e f9 e7 5d 3d 18 fd 30 bd 2b de 32 3d
       0.15321463 0.054176304 -0.04321012 0.043668907
0003f0 bb fb c7 3e 37 aa bf be c8 59 ea bd e9 cb 85 bf
       0.39059243 -0.3743455 -0.11442906 -1.0452853

conv1.fc_neigh.weight f4 [16, 170]
000000 0c ca 21 bf a8 19 9c 3e 40 e2 e4 3d de b6 67 3f
       -0.63198924 0.30488324 0.11175966 0.9051341
000010 5b d0 80 3e 7a af 6d 3d e7 dc 11 bd ff 51 8b 3d
       0.25158963 0.058028676 -0.03561106 0.06802749
000020 9b 88 57 3f f5 f4 91 bf 19 42 6d be af 9a 5b bf
       0.8419282 -1.140288 -0.23169746 -0.85782903
000030 35 05 26 3f f4 94 c0 3e 49 f9 84 3e 3a 1c 5f 3e
       0.64851695 0.37613642 0.2597144 0.21788111
000040 98 8c 87 be 77 06 2b be f8 39 b0 be 71 86 a7 bd
       -0.26474452 -0.16701685 -0.34419227 -0.081799395
000050 95 27 19 be 61 62 91 3d ed b7 c1 3e e7 9e 1c be
       -0.14956506 0.070988424 0.37835637 -0.15294991
000060 6f 7c ea 3a 7d 14 4a 3d b5 e0 99 be 25 4f 67 be
       0.0017889867 0.049335945 -0.3005425 -0.22588785
000070 32 8d b1 3e cb 9b 8c 3e 05 74 5b be 0c 78 ac 3e
       0.34678036 0.2746261 -0.21430977 0.33685338
000080 d6 cd 63 be 7e f4 bf 3e 61 1f 54 3e c6 32 3b bd
       -0.22246489 0.3749122 0.20715095 -0.04570272
000090 af 36 be bd 28 b6 08 bf b5 18 81 bd fb e6 9a bc
       -0.09287774 -0.5340295 -0.063035406 -0.018908968
0000a0 fa 7a 93 be b3 ca 7b 3e 78 96 dc 3e 19 90 e8 3d
       -0.2880476 0.24589042 0.4308355 0.113556094
0000b0 f0 fb ba 3f 0e d3 4b 3f b7 bc 28 3e 07 b0 5c 3e
       1.4608135 0.7961892 0.16478239 0.21551524
0000c0 05 95 54 be 74 00 5c 3c ac 55 b0 3d a4 40 0c 3e
       -0.20759971 0.013427842 0.086100906 0.13696533
0000d0 8c de c7 be 9d 85 ce bd a8 15 ef be e0 e2 f7 bd
       -0.39036977 -0.100840785 -0.4669621 -0.1210382
0000e0 87 54 3b 3f 1e c4 e5 3f 2d 9b 94 be af ff 2b bf
       0.73175853 1.7950475 -0.2902464 -0.6718702
0000f0 6e 58 b3 be 25 7e 85 3e 45 eb 8d 3e 16 14 d4 bf
       -0.35028404 0.26072803 0.2771856 -1.656863
000100 a0 ea 14 be 9a 85 35 bf 36 b6 b4 3e a1 fe bd be
       -0.14542627 -0.70906985 0.35295266 -0.3710833
000110 f0 95 89 3d 4c 3c 35 be 18 e6 6c be be b2 3c be
       0.067180514 -0.17698783 -0.23134649 -0.1842756
000120 f1 21 1a 3c 29 82 ee 3d 7e 27 33 3e 7b 16 34 3e
       0.009407506 0.1164592 0.17495534 0.175867
000130 46 69 b2 be a9 47 cf be 3f bb 8f 3e 82 e7 03 bf
       -0.34845942 -0.4048436 0.28072545 -0.5152513
000140 a6 10 8e 3d 18 50 3e 3f b9 16 26 3e f8 6d ab bf
       0.06936769 0.74340963 0.16219606 -1.3392935
000150 75 f5 c0 bf 85 fb a4 be b8 0f 14 be d3 7f 87 3d
       -1.5074908 -0.32223144 -0.14459121 0.066161774
000160 0b 34 5f 3e 8b 4d 22 3e 71 a0 35 bf d7 a4 7d bc
       0.21797197 0.15849893 -0.7094794 -0.015481195
000170 78 e2 f2 3e 94 31 15 be ec f0 83 3e d6 82 45 bd
       0.47438407 -0.14569694 0.25769746 -0.048220478
000180 b3 95 f1 3e e1 e0 87 3e 6f a8 5f 3e 10 ab 3f bf
       0.47184524 0.26538756 0.21841596 -0.74870396
000190 dc 89 62 bc b8 07 9f bd 14 80 b9 bf 3a 11 0d 3f
       -0.013826814 -0.07765144 -1.4492211 0.5510441
0001a0 84 05 ad 3f 15 ef 80 be 8d 2a ce be 8c fa ab bd
       1.3517308 -0.25182405 -0.4026684 -0.083973974
0001b0 b6 bd 18 be e6 1f 8d 3e 17 be 31 3f d9 cd 5c be
       -0.14916119 0.275634 0.6943068 -0.215629
0001c0 ac 42 81 bd 6c 3d 06 3e d7 b7 24 bd 3c ac 56 be
       -0.06311545 0.13109368 -0.040214386 -0.2096414
0001d0 3f d2 08 3d 57 33 05 3e cd c2 04 3e 53 82 17 3f
       0.03340363 0.13007866 0.12964936 0.59183234
0001e0 21 81 91 be 76 32 32 bd 7c c1 ba 3e da 61 9d bf
       -0.2841883 -0.043505155 0.36475742 -1.2295487
0001f0 8e e6 10 bf bd 01 73 3c 27 32 2c 3f b3 e9 04 bf
       -0.566018 0.014831957 0.67264026 -0.51919097
000200 a6 ad c5 3e 08 1d d5 3e d1 4d 7e 3e b8 a9 60 be
       0.38609046 0.41623712 0.24834372 -0.21939743
000210 c4 72 74 3e a0 6d c7 3d 95 d4 f9 be 11 94 30 bf
       0.23871905 0.09737706 -0.48795 -0.6897593
000220 d3 a1 df 3e 14 76 c0 3e 9f 28 9a 3e a1 90 3c 3e
       0.4367815 0.37590086 0.30109116 0.18414547
000230 06 49 8c 3b c4 01 9a 3b 0d 24 7b 3f 8f d1 9c bf
       0.004281166 0.0046999175 0.98101884 -1.2251452
000240 10 02 8f bf 6d 1a a0 3d cb 02 9e 3e 62 e0 30 bd
       -1.1172504 0.0781754 0.30861506 -0.043182738
000250 23 24 9d 3e 5f 37 29 3e b6 50 ae be 43 e8 e4 3d
       0.30691633 0.16525029 -0.34045953 0.11177113
000260 0e 60 d2 3e 51 00 64 bf 12 9d 0c be aa fc 35 bf
       0.4108891 -0.8906298 -0.13731793 -0.7108866
000270 34 d7 d8 be 29 3c 87 3f 15 81 f0 3e 12 eb b6 bf
       -0.42351687 1.0565234 0.46973482 -1.4290488
000280 fa 1f 3a be 36 e3 ee 3e ca 2a 81 be 73 5c 8f 3e
       -0.1817626 0.46657723 -0.25227958 0.2800022
000290 ba a7 d2 3c 82 a2 ab be 3b ec 68 be 12 f9 f8 3d
       0.025714744 -0.3352242 -0.22746365 0.121568814
0002a0 57 df 9b 3d e6 1a 0c 3f 72 1b 8a bf 93 42 9f bd
       0.07610958 0.54728544 -1.0789626 -0.0777637
0002b0 dc e9 05 3d 14 82 bc 3e ca a9 09 3f 49 3b 16 be
       0.03269373 0.36817992 0.537747 -0.14671053
0002c0 e7 4d a8 be 9d d0 7e 3d 15 e5 9a 3e e2 dd 1b bf
       -0.32871935 0.062210668 0.302529 -0.6088544
0002d0 f4 d9 4e be 7a db 9e 3e 8b 71 c3 be 27 29 9f 3e
       -0.2020033 0.31026822 -0.38172564 0.31086084
0002e0 bd 4d aa bd bb 87 23 3f dd f0 a9 be 1d e9 0c be
       -0.08315609 0.63878983 -0.33191577 -0.137608
0002f0 ac e3 8b be 8a 94 0c 3d 94 2c c9 bd 76 c0 9e be
       -0.27322137 0.034321345 -0.09822956 -0.3100621
000300 a4 3b 0f be c7 1b dc bb 3e 6d 0e 3e f1 c5 0d bf
       -0.13987595 -0.0067171785 0.1390886 -0.5538016
000310 81 b6 e1 3e 01 ae 8e be a5 2a 44 3f 23 a4 21 3e
       0.44084552 -0.2786713 0.7662757 0.1578527
000320 22 e5 06 bf 84 46 a3 be b7 ab c7 3d 91 a9 9e 3d
       -0.5269338 -0.31889737 0.09749549 0.07747186
000330 f0 7e ac 3b db a2 25 bd ca ef aa be da 4a 28 3f
       0.0052641556 -0.040438514 -0.3338607 0.65739214
000340 1a 50 37 3f 58 6c d8 be 99 96 18 be 87 9e 76 3e
       0.716066 -0.4227016 -0.14901198 0.24083911
000350 f3 3d ff bd 2f 55 2d bf d6 6d c1 bf 90 94 2b 3e
       -0.12462988 -0.67708105 -1.5111644 0.16755891
000360 f2 48 58 bf b4 a7 af 3f 88 a0 6a be 90 97 06 bf
       -0.84486306 1.3723054 -0.229128 -0.52575016
000370 c9 d8 73 be 6f 51 20 bf 08 6e 1e 3d d8 fc 04 be
       -0.23813166 -0.6262426 0.038679153 -0.12987077
000380 27 a3 2f 3e 0b 73 e2 be 88 9d 98 be 4b 70 32 bf
       0.17152081 -0.44228396 -0.29807687 -0.69702595
000390 f8 bf 82 3e 24 6b 36 3e fa 3e 49 3e 02 0f 40 3e
       0.25537086 0.17814308 0.1965293 0.18755725
0003a0 77 15 4a 3f 6c d8 a7 3f bb 01 97 3f cc 8e 34 bf
       0.78939 1.3112922 1.1797403 -0.7053039
0003b0 8e 26 1c be 1b e6 61 3f 6b 17 af be 47 99 11 3e
       -0.15249082 0.8824174 -0.34197554 0.14218627
0003c0 63 96 24 bf b2 40 fb 3d 57 f8 8f 3d 45 fc 03 be
       -0.6429197 0.12268199 0.07029789 -0.12889202
0003d0 33 e8 90 be 77 34 42 3e a4 ac 1a 3f 24 0b 92 3e
       -0.28302154 0.18965326 0.6041968 0.28524125
0003e0 76 e0 02 3f d5 71 45 3b 7c fe 57 be 0a 0f 12 3f
       0.5112375 0.0030127664 -0.21093172 0.570542
0003f0 87 be fb 3e 1c 04 a0 3e 51 d2 9e 3e 0b c9 db bf
       0.49168798 0.31253135 0.31019834 -1.7170728

conv2.bias f4 [16]
000000 a0 93 8f 3c be f6 0e bd 17 33 11 39 63 1a 62 3c
       0.017526448 -0.03490328 0.0001384731 0.013800236
000010 1d a9 53 3c 28 23 54 3c 89 45 88 ba f5 60 81 3c
       0.012918738 0.012947835 -0.00103967 0.015793303
000020 3b 2f 04 3d 63 2e 9d bc 2f 60 be 3c d6 59 93 bc
       0.032271605 -0.019187158 0.023239223 -0.017987173
000030 43 ff 29 3c bb bb 9b 3b 97 09 c7 3a 50 8a d2 3b
       0.010375801 0.004752604 0.0015185353 0.0064251795

conv2.fc_self.weight f4 [16, 16]
000000 75 1d 53 3e 71 5a f1 3e d4 99 cc bd 20 b5 96 3f
       0.20616706 0.47139314 -0.09990278 1.1774025
000010 be 0d 56 be 5f 0a d8 3e 01 27 82 3d 69 6d 19 bd
       -0.2090368 0.42195413 0.06355096 -0.037457857
000020 a7 fb 49 bf 81 84 81 be c0 81 43 3e 12 bf 35 3e
       -0.78899616 -0.25296405 0.19092464 0.17748669
000030 75 99 0f 3e 49 28 19 be c8 12 ea bc 7c 2c 4a 3e
       0.14023383 -0.14956774 -0.028573409 0.19743532
000040 6f 27 9d be 28 4d e6 bd 12 bf 21 3e f8 aa b1 3e
       -0.30694148 -0.11245185 0.15795544 0.3470075
000050 63 1c 8e be de 3e bb 3e 92 5e a9 bd a5 e4 f8 3e
       -0.27756032 0.365714 -0.08269991 0.48611942
000060 9e b6 6b be 7d 89 ba bd 7f 3c 2b 3f 0a 4f 91 be
       -0.23018882 -0.09108255 0.66889185 -0.28380615
000070 cc 40 5d 3e a7 a0 0d be 6d 0e 4a 3e a6 2c 8d be
       0.2160675 -0.13830815 0.19732065 -0.27573127
000080 9a 51 19 3e 7e 24 f8 3e 26 d0 5d 3e d8 e5 a1 bd
       0.14972535 0.4846534 0.21661434 -0.07905167
000090 af e7 09 3e d3 85 d2 be 24 6d 82 3d 05 0e 85 bd
       0.13467287 -0.41117725 0.06368473 -0.06496815
0000a0 2c d1 48 3e c9 9a 60 be 32 38 a2 be 30 21 2c be
       0.19611043 -0.21934046 -0.316835 -0.16809535
0000b0 77 06 58 be 38 46 bf 3e 40 95 35 3e b0 cc 73 3d
       -0.21096216 0.3735826 0.17732716 0.059521377
0000c0 83 76 bb 3e 83 d6 55 be 3d 70 db 3d a6 1e 88 3e
       0.36613855 -0.20882611 0.10714767 0.26585883
0000d0 fe 4c 1b 3e 9d 5e 94 3e 2c e8 6a ba e0 17 20 bf
       0.15166089 0.28978434 -0.0008960988 -0.6253643
0000e0 57 13 7d 3e df 4e f1 3c 83 06 eb 3e ef a0 45 bc
       0.24714409 0.029456554 0.45903406 -0.012062295
0000f0 41 24 22 3e 4a e3 28 3d d1 57 ba be 2e e1 7e 3d
       0.15834142 0.041232385 -0.36395124 0.062226467
000100 98 5d 2c bd e4 ce 10 bf fc 86 39 3e d4 44 16 3e
       -0.042081445 -0.5656569 0.18117899 0.14674693
000110 f5 47 63 bd 72 ca 74 bd ef 67 07 3e c8 e0 29 bd
       -0.055488545 -0.05976338 0.13223241 -0.041474134
000120 b4 b3 84 3a 50 03 82 bc 26 79 be 3e fe 43 83 3e
       0.0010124356 -0.01587072 0.37201804 0.2563781
000130 7c d6 89 bc 38 12 83 be 4a 8f 90 be 37 cd 90 be
       -0.016825907 -0.25599837 -0.2823432 -0.28281567
000140 18 17 28 bf 4f 8a 28 be 7e e4 5a bb 6d 9c 24 bd
       -0.6566024 -0.1645901 -0.0033400352 -0.04018824
000150 9e 96 91 bd 3d 5b fa 3e 36 c6 15 bf 67 a4 cb bd
       -0.07108806 0.48897734 -0.5850557 -0.09943467
000160 aa 5d 36 3c de 3d 8d be 8e 0b b0 be 72 f3 b8 3c
       0.01113073 -0.27586263 -0.34383816 0.022577021
000170 7f 80 d3 3e 4f b3 9b 3e ae b3 de 3d 14 e0 99 bc
       0.41308972 0.3041024 0.10874115 -0.018783607
000180 84 69 58 be 5f a9 19 3e cc b3 79 3f 09 a5 e0 3d
       -0.21134001 0.15006016 0.97539973 0.10968978
000190 35 5e 16 be 39 6b 95 be 1a 3e 12 bd 74 63 4b 3d
       -0.14684375 -0.29183367 -0.035703756 0.049655393
0001a0 7a 65 89 be b6 97 3c be 75 58 cd 3e 5e 4f 0d be
       -0.26835233 -0.18417248 0.4010655 -0.13799807
0001b0 3f 9c ae be 2d db 84 bd 2b f1 9f bd a5 09 91 3e
       -0.3410358 -0.06487117 -0.07809671 0.2832767
0001c0 12 77 24 3e 68 d1 49 3e d0 63 9f bc ed fa 77 3d
       0.16061047 0.19708788 -0.019456774 0.060542036
0001d0 e0 f9 bd be 77 5b ca be 82 28 59 3f 3a b5 f2 bd
       -0.37104702 -0.39522907 0.84827435 -0.118509725
0001e0 90 dc 27 3e 4e f8 c5 3d 6c f1 bf 3e 9a 4d 96 3e
       0.16392732 0.09666501 0.37488878 0.2935608
0001f0 a1 ad 1e be 5b a9 a4 bb a3 ec b5 bd 95 fc b6 be
       -0.15495922 -0.0050250716 -0.088830255 -0.3573958
000200 cf fe a6 3c 2a 40 37 3e a1 7d 63 be c3 51 ea bd
       0.020385174 0.1789557 -0.22215892 -0.11441376
000210 23 40 74 be 9a ca df 3d 80 99 9e be 49 44 bc 3e
       -0.23852591 0.10927315 -0.30976486 0.36770847
000220 2c c5 b7 bd e6 93 6e 3e 4d b4 ec 3e 87 80 11 be
       -0.089731544 0.23298606 0.4623131 -0.14209186
000230 dd be 0b 3f 3e c3 d2 3e be 51 cb 3e a6 cf 2d bf
       0.5458811 0.41164583 0.39710802 -0.6789497
000240 2f de 2d be 02 60 fb be d2 c0 c2 3d dd f4 ff be
       -0.16979288 -0.49096686 0.09509434 -0.49991503
000250 5a b7 6d 3e 4b fb 83 be 35 f8 ba 3e 75 04 6f 3e
       0.23214474 -0.2577766 0.36517492 0.23341544
000260 fe 5e 23 be cd 78 84 3f 32 44 e8 3d 35 fc e2 3d
       -0.15954205 1.0349365 0.11341132 0.11083261
000270 5b d2 d5 be 01 85 76 3e c7 ec 04 bd d2 56 f8 bd
       -0.4176205 0.24074174 -0.03245237 -0.12125935
000280 ef fb e8 3d 01 cc 02 3e 83 f4 45 3e 4b 26 01 bf
       0.113761775 0.12773134 0.19331555 -0.50449055
000290 c9 6f 5f 3d ec 99 d3 be fb 11 7b 3d 78 b0 1f 3d
       0.054549966 -0.4132837 0.061296444 0.038986653
0002a0 d9 21 06 3f aa ea 4f 3e 1b e3 d7 3d 40 2e 2b 3e
       0.523954 0.20304361 0.10541364 0.16716862
0002b0 51 0b 12 bd 20 fd c0 3d 6f bc 0d 3b 75 b8 b5 bd
       -0.035655323 0.0942328 0.0021627208 -0.08873073
0002c0 2c cf 8f bc 7d 18 87 be d1 c9 7a 3e 5c 28 e8 3d
       -0.017554842 -0.2638587 0.2449105 0.11335823
0002d0 73 32 64 3e 00 50 71 be ac 45 54 3e 64 70 3d 3b
       0.2228487 -0.23565674 0.20729703 0.0028906101
0002e0 bb 42 33 3e 44 41 33 be 81 db 9e be 42 a1 2c 3e
       0.17505924 -0.17505366 -0.31026843 0.1685839
0002f0 3a 23 12 be 6b dc 49 bd e2 92 88 be 49 a3 17 bd
       -0.1427125 -0.049282473 -0.26674563 -0.037020955
000300 44 fa 51 be 3a 01 47 3e 8d 92 8e be 67 eb ac 3d
       -0.20505625 0.19434062 -0.27846184 0.08443337
000310 fe 4e 27 be 5a 40 14 3f e7 3c 51 be 5e 1c b3 3e
       -0.16338727 0.5791069 -0.20433389 0.3498258
000320 96 79 31 3e 4e 0f 11 be 6b a4 29 bf 10 a3 d8 3e
       0.17331538 -0.14165995 -0.66266507 0.42311907
000330 b9 2a 42 3f 91 66 40 be 20 20 c1 3e aa 9e 63 be
       0.7584644 -0.18789126 0.37719822 -0.22228494
000340 d2 10 43 be f7 7b 7c be 60 2c 3b be ff 86 c9 3e
       -0.19049385 -0.24656664 -0.18278646 0.39360806
000350 d8 af 91 bd a4 5b eb 3e 7d f9 39 bd bd 1b c9 be
       -0.07113618 0.45968354 -0.045403946 -0.39278975
000360 bb 5f 0c be 19 42 a4 be a2 3b 01 bf 3f c6 48 bd
       -0.13708393 -0.32081679 -0.5048162 -0.049017187
000370 09 64 01 3e 8b bb 7c 3e 53 75 8c bf cd f8 68 bd
       0.12635817 0.24680917 -1.0973305 -0.0568779
000380 d4 02 64 3e f7 20 e9 be 22 b3 b9 3e 09 c9 7d 3e
       0.22266704 -0.45532963 0.3626948 0.2478372
000390 a9 50 21 3f ee 09 ac 3e 8b de 03 3d 56 46 b0 3d
       0.630137 0.33601326 0.032194655 0.086071655
0003a0 17 65 4d 3d 92 0f ae bd 80 f0 e2 bd 60 9e 25 3e
       0.050145235 -0.084990636 -0.11081028 0.16173697
0003b0 cb 79 ae 3d cb af e7 be 7c 69 c4 3c 1b 9e b6 3e
       0.08519324 -0.45251307 0.02397608 0.356675
0003c0 04 ee 2d bd fa a7 a7 be 6b e0 a4 3e c9 b5 76 be
       -0.042463318 -0.32745343 0.32202467 -0.24092783
0003d0 c7 e4 83 3d 95 21 0b be ff 85 44 be ae d6 a8 bd
       0.0644012 -0.1358703 -0.1919174 -0.08244072
0003e0 ec e7 8c be a1 74 9f 3d ef 30 52 3e 3b 5e f8 bd
       -0.27520692 0.07785917 0.20526479 -0.12127348
0003f0 d7 8b 02 bd 32 82 27 bf 94 e1 3a bd 01 5c db 3e
       -0.031871643 -0.6543304 -0.045625284 0.4284363

conv2.fc_neigh.weight f4 [16, 16]
000000 84 32 5e bf d3 1d 5b 3e 93 a6 2b bf 95 ef ea 3f
       -0.8679583 0.21398096 -0.6705105 1.8354365
000010 7c a7 2c 3e 84 03 c9 bd 49 9d 03 bf 97 fd 59 be
       0.16860765 -0.09815124 -0.51411873 -0.21288143
000020 16 54 c1 be dd c4 b9 3e 88 91 4b 3d 2e de 7e 3e
       -0.37759465 0.36283007 0.049699336 0.24889442
000030 15 36 b8 3e c3 0b 9f be 87 56 d1 3e a6 ba d4 3e
       0.3597876 -0.3106366 0.40886328 0.4154865
000040 50 43 f1 be cc 75 7c 3f 93 f2 cf be 2a 5c 94 3f
       -0.47121668 0.98617244 -0.40614757 1.1590626
000050 52 e0 77 bf b7 4b 70 bd 5a 64 bb 3e e4 b7 95 3f
       -0.9682666 -0.058665957 0.366 1.1696744
000060 cf a6 b4 be 77 ba 13 bf 75 55 1b 3f 01 02 b5 be
       -0.35283515 -0.577064 0.6067727 -0.3535309
000070 8a 2f 81 3d c7 97 07 3e 38 6d b6 be b2 4e 31 bf
       0.063078955 0.13241492 -0.35630202 -0.69260705
000080 b4 6d 36 bf c4 13 7e 3f bb ca 4e 3e 12 20 61 3e
       -0.71261144 0.9924891 0.20194523 0.2198489
000090 7f ac 3d 3e 0d 5f 5f be ce 15 93 be ce bb 8e 3e
       0.18522833 -0.21813603 -0.28727573 0.2787766
0000a0 50 53 19 3e a5 27 42 3e 08 2b 55 bf 56 1d 83 3f
       0.14973187 0.18960436 -0.83268785 1.0243328
0000b0 2e 6b 5d 3f 58 d7 1a 3f 42 1b e4 be 27 64 dd 3e
       0.8649167 0.6048484 -0.44552046 0.43240473
0000c0 7d f7 4b 3f 7d f8 f0 be 1f b4 c0 3e 54 a4 05 3f
       0.7967451 -0.47064582 0.3763742 0.5220387
0000d0 b7 94 38 bf 31 d0 fe 3e 19 8d 92 3d b7 8a 5c bf
       -0.7210192 0.49768212 0.071558185 -0.8614916
0000e0 f5 30 a3 3e 1f 4b a9 bd bf a4 30 3f bf cf 17 3f
       0.3187329 -0.08266281 0.6900138 0.5930137
0000f0 06 b8 33 3f d0 f6 4d 3f 4c 19 fc bd 17 86 34 3c
       0.7020267 0.8045473 -0.123095125 0.011018298
000100 43 2c cc 3e f5 8b ce be a0 74 0b 3f 01 4e 7d 3e
       0.3987752 -0.40341154 0.5447483 0.24736787
000110 3b c7 a5 3c c9 0d e5 bd 50 bc 04 3f 36 88 25 bf
       0.020236602 -0.1118427 0.5184984 -0.64660966
000120 1b 27 1d bf 59 97 5f be 08 ea e8 3e 71 fb 16 3f
       -0.61387795 -0.21835078 0.45491052 0.5897742
000130 86 65 06 3f 6c 44 d7 be 39 c7 85 bf 35 1e 60 bf
       0.5249866 -0.4204439 -1.0451423 -0.8754609
000140 ef 35 d8 bf f9 5b f9 bc 09 84 69 be 34 3d d5 be
       -1.6891459 -0.030439364 -0.22804274 -0.41648257
000150 50 51 d9 3e fc 6d 71 3e 0d 60 a4 be 11 9d 49 bf
       0.4244485 0.23577112 -0.3210453 -0.7875529
000160 cc 0c 0d 3f 62 ba 5f be b0 4f 1a be d3 f4 18 3f
       0.5509765 -0.21848443 -0.15069461 0.5974857
000170 93 bd 82 3d 36 38 14 3f 26 48 8e 3e 04 e3 62 be
       0.06383815 0.5789827 0.2778942 -0.22156912
000180 76 36 1e be 09 14 bd be 0b 18 f1 3f 22 17 43 3d
       -0.15450463 -0.36929348 1.8835462 0.047629483
000190 79 0f ed 3e d6 3a 1d be cc c6 23 bf 6b 83 00 3f
       0.46300867 -0.15354475 -0.63975215 0.5020053
0001a0 e6 c5 20 be 3c 74 9b be ca 1c d5 3e 03 87 46 bf
       -0.15700492 -0.30362117 0.41623527 -0.7754976
0001b0 2e 21 f4 be 17 42 0d 3f 85 20 df bd f1 9e c5 3e
       -0.47681564 0.5517897 -0.108948745 0.38597825
0001c0 08 a0 3a be c7 86 b7 3d 5c f8 b3 3e 8d 54 fe 3c
       -0.1822511 0.089612536 0.3515042 0.031046176
0001d0 8c f7 17 bf 5d e3 79 bc 5a 6a d9 3f 60 9a 0d bd
       -0.593621 -0.015251962 1.6985581 -0.03457105
0001e0 26 fc fd be a7 7c d6 3d 96 a9 b5 3d 9a 0f 56 bf
       -0.49606436 0.10472994 0.088702366 -0.83617556
0001f0 ea 7d 02 3f 44 bf 4a bb d3 5e d2 3e d6 d7 0e 3f
       0.5097338 -0.0030936757 0.4108797 0.5579809
000200 8f 9a 60 3d 7b 08 d3 be 03 39 2c be 8a b7 44 be
       0.0548349 -0.41217408 -0.16818623 -0.1921064
000210 28 11 75 3e 31 81 b3 be 68 4e 1a bf 58 06 9e be
       0.23932326 -0.35059503 -0.6027589 -0.30864215
000220 c5 ef 4b bf c7 01 0f 3e ce 28 95 be fb 94 03 bf
       -0.79662734 0.13965522 -0.29132694 -0.513992
000230 28 04 aa 3f 3a 08 0c 3f 84 60 23 3f c9 3d a2 bf
       1.3282518 0.5470005 0.63819146 -1.2675105
000240 a2 d2 1b be 5d 64 76 bf b8 0e cb bc d1 15 32 bf
       -0.15217069 -0.9624689 -0.024787292 -0.6956454
000250 b7 0f 84 be 7f 6a 87 bd cd ec 23 bf e3 a2 1b 3f
       -0.2579324 -0.066121094 -0.64033204 0.6079542
000260 29 ee 48 3f b1 d0 e8 3f 16 8a 5f bd f0 34 06 3e
       0.78488404 1.8188688 -0.05457505 0.13106132
000270 a0 ad 30 be e5 fa 9a 3f be 12 10 3f ea 2b 66 be
       -0.17253733 1.2107817 0.562786 -0.2247769
000280 7c ab 5d be 55 6e 98 be 52 52 01 3f aa bb 03 bf
       -0.21647447 -0.29771677 0.50516236 -0.5145823
000290 e7 40 17 bf f1 1a f5 be 11 2f 0b bf 8d 1d 1c 3e
       -0.5908341 -0.47872117 -0.5436869 0.15245648
0002a0 49 3d bc 3f fa 79 fe 3d 61 a6 a4 be ed fc f1 bd
       1.4706203 0.12425609 -0.32158187 -0.1181582
0002b0 97 c6 74 3e b0 a2 e5 be e0 59 0f be f2 6b 40 be
       0.23903881 -0.44850683 -0.13999128 -0.18791178
0002c0 0c 8a 7c 3d 5c e6 89 bf 89 1a 85 3e bc 4b c8 3e
       0.06165509 -1.0773425 0.25996807 0.3912028
0002d0 0f ab bb be 2d e0 c5 be 17 a6 de 3d 3e f2 70 be
       -0.36653945 -0.38647595 0.10871523 -0.23529908
0002e0 7f 63 1c 3e b7 05 13 bf 22 ae 65 bf 84 a8 ff 3e
       0.1527233 -0.57430595 -0.8971883 0.49933255
0002f0 ff 93 46 3e 71 15 29 3f 73 fe 32 3e 5a ea a7 be
       0.19392394 0.6604834 0.17479877 -0.32795984
000300 29 09 18 be 8a 38 22 be bb 0c 47 3d bd 31 25 bf
       -0.14847244 -0.1584188 0.048596125 -0.6452902
000310 87 63 48 be 3d 18 b0 3f 0d f9 64 bd fb 48 b4 3f
       -0.19569217 1.3757397 -0.055901576 1.4084772
000320 ff 35 4a bf 42 2e c1 3a 79 81 9c bf 80 cd 72 3f
       -0.7898864 0.0014738517 -1.2227012 0.9484482
000330 66 ae f6 3e e9 6f 01 be 42 2f 84 3d ab b6 45 3f
       0.4817993 -0.12640347 0.06454326 0.77231854
000340 be 60 81 be 06 77 64 bf a7 29 02 bf bd 5d 4a 3e
       -0.2526912 -0.89244115 -0.50844806 0.19762321
000350 6b e0 80 3d 76 9d 45 3f b4 f5 f5 be 2e ee db 3a
       0.06292804 0.7719339 -0.4803902 0.0016779357
000360 98 7e 51 bf c1 28 22 be 96 f2 b9 be 5d cb 86 bf
       -0.8183379 -0.15835859 -0.3631789 -1.0530812
000370 43 d0 03 3f a1 b9 9e be 83 2d bb bf c9 23 ca 3e
       0.5148966 -0.31001 -1.4623264 0.39480427
000380 a7 44 37 bf e1 6a c0 be 55 4e ae bd 6b 4c 5e 3f
       -0.7158913 -0.37581542 -0.085110344 0.86835355
000390 f9 2f 80 3f d1 41 05 3e 62 a5 47 3a 45 85 cb 3e
       1.001464 0.13013388 0.00076158915 0.39750114
0003a0 60 f2 87 3e ba 46 a6 3d cf 7f 9e be a8 ee 37 bf
       0.26552105 0.08118959 -0.30956885 -0.71848536
0003b0 69 3e 64 3f 10 e6 41 be 88 fc 9f be 79 7b 6a 3d
       0.8915773 -0.18935418 -0.31247354 0.05724666
0003c0 48 83 bf be 8d 46 e6 be 09 76 4d 3e 8c fd 4e 3e
       -0.37404847 -0.449757 0.20064558 0.20213908
0003d0 75 0e 3e bf bf 39 42 bf b4 7c 3f bd 8f 96 4c be
       -0.7424081 -0.75869364 -0.046749786 -0.19979309
0003e0 27 6b 00 be aa 85 1f be 64 32 e3 bc d5 ac 06 bf
       -0.12540875 -0.15578333 -0.027733989 -0.5260747
0003f0 03 61 43 3f e0 10 09 bf 2b 38 2b be 64 c5 d7 3e
       0.76319903 -0.53541374 -0.16720645 0.42142785

conv3.bias f4 [16]
000000 eb a6 8c bb 12 63 4f bb 82 63 5a bc 7a ee ab 3c
       -0.004292359 -0.0031644744 -0.013329389 0.020987738
000010 16 dd a4 bb aa a9 e7 3c a7 c7 e4 3c 7e 7d c4 bc
       -0.0050312383 0.028279144 0.027927233 -0.02398562
000020 b1 a3 0b bc 33 09 af 3c ee 97 29 bc 11 1e 62 bc
       -0.008522914 0.021366691 -0.010351164 -0.013801114
000030 2a 04 ba bb 89 a0 de bc d1 43 05 bc f2 82 fb bc
       -0.005676766 -0.027176159 -0.0081338445 -0.030702088

conv3.fc_self.weight f4 [16, 16]
000000 23 d5 f3 bd 17 20 9c 3c 9d 05 ec bd 25 e5 22 be
       -0.11905887 0.01905827 -0.11524508 -0.15907724
000010 df d9 0e be c0 25 91 bd 84 25 db 3c 57 84 0c 3e
       -0.13950299 -0.07087278 0.026751287 0.13722359
000020 72 16 00 3e cc aa 23 be de f6 9c 3b a3 78 7a 3d
       0.12508562 -0.15983123 0.004790171 0.061150204
000030 a1 11 9a bc 7c c8 6e 3e 97 43 82 3d 16 77 63 3e
       -0.018807234 0.23318666 0.06360548 0.22213396
000040 8b 1a 41 bc ce 2a 56 be 56 eb 4c 3e 27 bc c8 3b
       -0.0117861135 -0.20914766 0.20011649 0.006125945
000050 0e b6 8d 3e aa 14 80 bc 25 ff 1a be b5 e9 71 bd
       0.2767796 -0.015634853 -0.15136392 -0.05906077
000060 4b 92 43 3e 8c c2 4f 3e 45 37 d1 be d7 b0 23 be
       0.19098775 0.20289057 -0.4086248 -0.15985428
000070 9d 8f 95 3d c7 8b ab bd 9d 94 01 3c dd b3 1c bd
       0.07302783 -0.0837627 0.007908967 -0.03825747
000080 96 be 89 3d e6 21 9a bd 3a b7 e4 3c 51 de 58 bd
       0.067258045 -0.07525997 0.0279194 -0.052946392
000090 dc b3 c6 3d 3c 52 85 bc 7b 42 b8 3b 13 91 50 3e
       0.09702274 -0.016274564 0.0056231595 0.20367841
0000a0 1e 48 3b 3d 48 56 2f be da 9e 6d be 33 26 36 3e
       0.045723073 -0.17122757 -0.23205128 0.1778801
0000b0 47 dd 1a 3d c8 8c 67 be bc 4f e2 bd d8 c9 1c 3d
       0.037808683 -0.22612298 -0.110503644 0.03827843
0000c0 1c 2f 2a 3e 29 4a 86 3d 3f fb 03 3e 40 55 6d bd
       0.16619533 0.06557114 0.12888812 -0.05794263
0000d0 f1 e0 b4 3d 25 af 1f be 7f f4 6d be 3f b8 96 3c
       0.08831967 -0.15594156 -0.23237799 0.018398402
0000e0 d3 e2 d2 3d af 8f d6 3d be 51 11 be 1a e5 d2 3d
       0.102971695 0.10476624 -0.14191338 0.10297604
0000f0 70 ad 8d bd 08 2f 5f 3e cb d1 54 be e2 70 df 3d
       -0.06917846 0.21795285 -0.20783155 0.109102026
000100 7b 2c 7b bd 86 72 02 be 14 5b f7 bb a6 c3 7c 3d
       -0.061321717 -0.12739 -0.007548699 0.061710022
000110 e0 e1 d8 bd 50 25 44 3e 36 53 3f be ca 7c bc 3d
       -0.10589957 0.19154859 -0.18684086 0.09203489
000120 70 44 0d 3c 6c f9 a4 3c 7a 9d 13 be 55 af 05 3e
       0.008622274 0.020138465 -0.14415541 0.13055165
000130 ef 8f 01 be 1d 12 43 be b5 b6 0a 3c 6a c4 2b 3d
       -0.12652563 -0.19049878 0.008466412 0.041935362
000140 f8 0d 32 3e 55 ee 84 3d bb 6d 05 3e fb a4 38 3d
       0.17388141 0.06490771 0.1303014 0.045079213
000150 be 48 3c 3d f7 56 7f 3d 77 47 ca 3d 49 2e d5 bd
       0.04596781 0.062338796 0.09876912 -0.10409219
000160 0f ee 29 bc a8 36 e6 3d 58 8b 02 be 50 f5 a2 3e
       -0.010371699 0.112408936 -0.12748468 0.31827784
000170 f4 d0 44 3d 93 11 8c bd d7 b6 68 bd c4 e9 52 be
       0.048050836 -0.068392895 -0.056814995 -0.20596987
000180 00 46 67 3d 00 17 87 be fd 41 3c be 05 bc db bd
       0.05646324 -0.26384735 -0.18384548 -0.10729221
000190 47 a0 59 be e3 da af 3d 5f da da 3d db 31 28 3e
       -0.21252547 0.08586671 0.10686182 0.16425268
0001a0 f1 3f df bd d3 3e c1 bd 5d b9 ff bd ed 4b af 3e
       -0.10900868 -0.09435811 -0.12486527 0.34237614
0001b0 b5 97 97 3d 9b 10 c1 3d 0a 46 4f be 5e 14 26 3e
       0.07401983 0.09426995 -0.20241562 0.16218707
0001c0 54 6a 04 bc c1 0a 34 bd b4 7f 1a be b4 f2 0a 3e
       -0.008081991 -0.04395557 -0.15087777 0.13569146
0001d0 f9 72 6f be 33 fc 98 3b 87 04 ca bd 82 a3 1b bc
       -0.23383702 0.0046687364 -0.09864145 -0.0094994325
0001e0 be 0e d7 bc b7 9d dc 3d 4e 13 ee bd 4a ff 71 3e
       -0.026252147 0.10772269 -0.11624776 0.23632541
0001f0 c5 df 89 3c fd c5 0b be 67 6d e3 bd 47 57 ee 3c
       0.016830334 -0.13649745 -0.11104851 0.029094351
000200 bb 5f 90 3e 38 e0 f5 3d 19 af 16 3e ea 04 01 be
       0.28198037 0.12005657 0.14715232 -0.12599531
000210 9c 0b 5d 3e 56 3e be 3e 06 50 32 be cb d5 0e 3e
       0.2158646 0.37156934 -0.17413339 0.13948743
000220 17 29 9b be 64 12 9a bc 81 95 46 3e 5f ac d6 bd
       -0.30304787 -0.018807597 0.19392969 -0.10482096
000230 8a 31 e5 bd 15 0b 93 bd ac 2e ea bd 9e 43 e4 3d
       -0.111910895 -0.07179848 -0.11434683 0.111457095
000240 6e 7f 45 be 93 f2 5d 3e 4b 26 7b bd 33 d4 63 3d
       -0.19286892 0.21674566 -0.061315816 0.05562229
000250 04 2f 21 3d bd 99 90 bd 58 84 0c 3e a6 4e 8b bd
       0.03935148 -0.07060573 0.1372236 -0.068021104
000260 9b 16 a5 be 75 6c da bc 75 2e 59 be a2 eb a5 bd
       -0.3224381 -0.026663044 -0.21209128 -0.08101584
000270 5c 19 70 3e 65 38 9b bd 96 51 45 be df 77 6b be
       0.23447174 -0.07579116 -0.19269404 -0.22994946
000280 82 a5 c9 3d 19 09 30 bc 1c 72 09 be 12 c4 a0 bd
       0.09846021 -0.010744357 -0.13422436 -0.078498974
000290 e0 cc 94 3e 06 0f 25 be 6b c1 f5 bd de f2 ce be
       0.29062557 -0.16119012 -0.11999782 -0.40419668
0002a0 ff d3 f8 3d 03 a3 6a be 46 2a bb 3d f3 35 3a 3e
       0.1214981 -0.22913747 0.091389224 0.18184642
0002b0 96 6d bd bd 55 ed fc bd 47 81 55 be 2b 00 fd bd
       -0.092494175 -0.12349955 -0.20850097 -0.12353548
0002c0 60 fb 14 be 5d d3 2f be 35 8f bb 3e cd 55 8a bd
       -0.14549017 -0.17170472 0.36632696 -0.067546465
0002d0 f2 65 82 3e a8 12 b9 bd 24 63 28 be 7f 00 2c 3d
       0.25468403 -0.090367615 -0.16444069 0.04199266
0002e0 05 a0 d2 3d 4a 31 18 3c f8 d5 24 be 5f 67 43 be
       0.102844276 0.009289095 -0.16097248 -0.19082402
0002f0 eb 37 dd 3d 27 0b 01 3e d4 a3 52 bd d3 b3 70 3e
       0.10801681 0.1260191 -0.05142577 0.23506097
000300 0c ca 58 be ae 78 ee bd 6b 09 63 bd a6 05 43 3c
       -0.21170825 -0.116441116 -0.055428904 0.011903202
000310 ef dc 45 be e0 2b 1f 3e bb 20 12 3e 48 54 61 3e
       -0.1932256 0.1554408 0.14270298 0.22004807
000320 ea 0d 7d 3e ce 26 de bc 2d 8c 6a be 02 04 3b bd
       0.24712339 -0.027118113 -0.22905035 -0.04565812
000330 08 a3 01 3e 63 5e 23 bc 06 b1 21 3d a7 c9 aa 3d
       0.12659848 -0.009971234 0.039475463 0.083392434
000340 09 3d 46 3d 0f 9f 9e bc 90 06 41 bd b7 c0 7c be
       0.04839805 -0.019362954 -0.0471254 -0.2468289
000350 f0 9c bc 3e 37 2b 30 3e d8 cf a3 3e 38 ce 4d 3e
       0.36838484 0.17203985 0.3199451 0.20098197
000360 2a fa 4d be 07 1e 04 be cf 06 b1 bc 1b 24 92 3d
       -0.20114961 -0.1290208 -0.021609692 0.07135793
000370 27 6f 84 bd 71 29 a7 3d 5d d6 df 3b 56 e1 be be
       -0.06466513 0.08162201 0.006830974 -0.37281293
000380 08 65 25 bd 9f 66 34 bd 41 7d ab bd 87 0a 30 be
       -0.040379554 -0.04404318 -0.083735 -0.17191516
000390 ba ba a0 3e 50 b3 ea bd ba 12 ca bd e8 26 06 be
       0.3139246 -0.114599824 -0.09866853 -0.13100779
0003a0 05 bb c1 bd d4 76 0c be 10 d5 0f 3e 86 84 7f be
       -0.09459499 -0.13717204 0.1404612 -0.24952897
0003b0 2c 20 ee 3c f2 d1 ee 3d bd 54 07 be 08 e5 fa 3d
       0.029068075 0.11661138 -0.13215919 0.122507155
0003c0 a9 29 de 3d 32 99 9a 3d fb a5 9b 3e 97 fe f5 3d
       0.1084779 0.07548751 0.3040007 0.1201145
0003d0 3d 97 5e 3e 22 39 09 be 6f 6e 4c 3e 88 44 f3 bd
       0.2173738 -0.134007 0.19964002 -0.11878306
0003e0 15 40 69 bd 74 e1 0a 3e 19 15 22 3e 80 e4 d7 3d
       -0.05694588 0.13562566 0.1582836 0.1054163
0003f0 7f 1b b4 3e fd 9a 4b 3e 64 bd 23 be 81 c4 75 3e
       0.35177228 0.19883342 -0.15990216 0.24000742

conv3.fc_neigh.weight f4 [16, 16]
000000 0f 50 5d 3e f7 5e 02 3f 66 67 9c be 1f fd 3b be
       0.21612571 0.50926155 -0.30547637 -0.18358277
000010 98 5a 88 3e 20 99 cc 3d c8 15 3d 3d 9d 5c d3 3e
       0.26631618 0.09990144 0.04616335 0.41281596
000020 c9 28 4d 3e 92 78 4e bd 51 30 84 3e f2 87 04 3f
       0.2003509 -0.050407954 0.25818112 0.51769936
000030 0a 58 1f 3d 75 e9 2a 3d ab cd c7 3d f2 91 f5 be
       0.03890232 0.04172655 0.09756025 -0.4796291
000040 07 ab df 3d 02 3f af bc 28 a2 01 3e 56 90 38 be
       0.10921293 -0.02139235 0.12659514 -0.1802381
000050 1a 71 42 3f af eb 75 3d 2e fc 81 3e fb 2c 83 3d
       0.7595383 0.06003922 0.2538771 0.06405064
000060 66 bb 9a be 37 60 ad 3e 58 9e b7 be 1f 9f ba bd
       -0.302211 0.3386247 -0.35862994 -0.09112381
000070 1e a3 72 bd eb 3e 02 3e a2 aa ed bd 93 c3 0d bc
       -0.059237592 0.12719314 -0.11604811 -0.008652586
000080 23 5a 42 3c bf c6 d5 be e3 92 da bd fa cf 36 3e
       0.011862311 -0.41753194 -0.10672548 0.17852774
000090 04 0a 75 3d f6 16 7d be 14 db 90 3d be e8 eb 3d
       0.059824005 -0.2471579 0.07073036 0.115190014
0000a0 7f 91 87 3e a2 52 58 be 2b 0b 0a 3c c0 c9 02 bd
       0.26478192 -0.21125272 0.008425514 -0.031930685
0000b0 f7 af ce 3e a3 08 2d bf e5 0d fd 3e ac a7 09 be
       0.40368626 -0.67591304 0.49424663 -0.13442868
0000c0 41 4e 08 3d 80 2e 6a bd 89 fa f5 3e 2b 6d 29 3e
       0.033277754 -0.057173252 0.48042706 0.1654555
0000d0 02 17 cd be de b4 9b be 2a 14 a1 3d 8a d8 b6 3d
       -0.40056616 -0.30411428 0.07865174 0.0892802
0000e0 18 33 ef 3c 8e 7f df 3d e5 ca a1 be c7 a5 80 be
       0.029199168 0.10913001 -0.3160011 -0.25126478
0000f0 30 c9 b8 be b9 e7 dd 3d eb b6 e1 be ca ba 01 3f
       -0.36090994 0.10835213 -0.44084868 0.5067564
000100 8a b3 8c 3d a0 7f 20 3e 3d e5 6f 3e 19 72 50 3d
       0.06870182 0.15673685 0.23427291 0.050890062
000110 e6 06 d3 3d 1b 05 88 3e e7 d8 c7 3e 75 bf 29 3e
       0.1030405 0.26566395 0.3903267 0.16576941
000120 30 c7 54 be dc e6 97 be c9 11 ad 3e 7e 0d f8 3e
       -0.20779109 -0.2966832 0.33802631 0.48447794
000130 8b 2e c0 be c5 7f 27 3e 29 74 d2 be c9 8e 2d be
       -0.3753551 0.16357334 -0.41104248 -0.16949
000140 4e 7a 2f 3e a3 7d 35 3e f0 96 68 3e 15 4c 0d bf
       0.171365 0.17723708 0.22713828 -0.55194217
000150 e8 39 1a 3d 53 87 bf bc dd 73 c0 bd 98 36 f3 bd
       0.03765288 -0.023379957 -0.09397099 -0.11875647
000160 d2 52 e5 3d e5 64 c9 3e 49 84 35 be b2 d9 ce 3e
       0.11197437 0.3933479 -0.17726244 0.40400463
000170 df b6 80 3d 2d 1c 3d bd 9b 7d f1 be 27 9e c8 3c
       0.0628488 -0.04616945 -0.47166142 0.024489475
000180 2d 38 87 bd 18 d7 44 be c1 1b d7 be 78 f8 9e 3d
       -0.066025116 -0.19222677 -0.42013362 0.077622354
000190 5c 13 af be 7d 4e 77 bd 2a 9c 50 be 90 cd ee 3c
       -0.34194458 -0.060377587 -0.20372072 0.029150754
0001a0 fc 7c 57 be fa 75 f4 3d f4 bd 9d be 7c d0 da 3e
       -0.21043772 0.11936565 -0.30808985 0.42737186
0001b0 31 dc 5f 3d df 5e 36 3e 0c cc e2 3d 12 08 cd 3c
       0.05465335 0.17809628 0.11074075 0.025028262
0001c0 af 90 a1 3d f5 2c d1 3e 58 8e e7 be 0e 18 ef 3e
       0.07888924 0.40854612 -0.45225787 0.4669804
0001d0 ef 2b 51 3e c3 c7 ab 3e 9e de 0c be a1 c0 38 3e
       0.20426916 0.33550844 -0.13756797 0.18042232
0001e0 de ac f1 bd f5 79 bd 3e 67 3e aa 3e 2a e1 7f be
       -0.1180055 0.37007108 0.33250734 -0.24988237
0001f0 a4 c6 98 3e 8a 8b 81 bc e8 8e 8a be d6 76 08 3e
       0.2983905 -0.015813608 -0.27062154 0.13326582
000200 b0 38 8c 3e 68 27 0d 3d 23 37 df bd 76 84 90 bd
       0.27387 0.03446141 -0.10899188 -0.07056515
000210 d3 72 30 3e ea 09 b5 3e cc 7e 33 bd db c6 41 bd
       0.17231302 0.35359126 -0.043822095 -0.047308784
000220 ae c2 b8 be f9 fb b1 3d 6b e4 4d bc 8c 4c a1 be
       -0.3608603 0.08690638 -0.012566666 -0.31503713
000230 d2 a1 79 3e 9b dd 77 be ec f3 50 3e 4e 98 ce 3e
       0.24378136 -0.2420563 0.20405549 0.40350574
000240 4d 2e 8e be e3 6c 64 3e 55 3c de bd 16 4e 27 3e
       -0.277697 0.22307162 -0.10851351 0.16338381
000250 5f 47 77 be 66 5a d4 bc 70 fa 0a 3e 5f dd 13 be
       -0.2414832 -0.025922012 0.13572097 -0.14439915
000260 ff 56 51 be 60 c2 89 be 37 96 96 be 94 84 bb bc
       -0.20443343 -0.2690611 -0.2941148 -0.022890367
000270 7f 17 39 3e 5f 51 93 bd 7c 49 90 be d5 02 4a bd
       0.1807537 -0.07193255 -0.28181064 -0.049319107
000280 fe eb 07 bd 5a 20 b6 bd 52 af 52 be 59 df 09 3e
       -0.033184044 -0.08892889 -0.20574692 0.13464107
000290 d7 e2 58 bc fc 5c 62 3e 5b c7 bb bd ca 54 03 bf
       -0.013237677 0.22105783 -0.091688834 -0.5130125
0002a0 b5 74 52 3e 9d 8c 9b be c5 6c 23 be e4 54 7e bc
       0.20552333 -0.30380717 -0.15959461 -0.015523169
0002b0 16 0a 6e 3d d1 85 b4 bd c8 29 ad be f7 eb e6 3e
       0.058115087 -0.08814586 -0.3382094 0.45101902
0002c0 bf b9 c7 be 7c 38 f2 3d 83 3b d9 3e cc f5 9b 3e
       -0.390089 0.1182718 0.42428216 0.30460966
0002d0 cd 16 5a be 59 45 6e 3e 5d 6a a4 be dd 3d b4 3e
       -0.2129776 0.23268642 -0.321124 0.35203448
0002e0 f0 69 d9 3d 51 c6 a9 be 9a bc 32 3e 3e 7e 0f be
       0.10615909 -0.33159116 0.17454758 -0.14013001
0002f0 ed 10 d9 3d ca 81 a4 3e a7 b0 94 3d 88 b5 ac be
       0.105989315 0.3213027 0.07260256 -0.33732247
000300 fc 4d f3 bd 60 6c 26 be 03 71 c5 bd 3b 77 f4 bd
       -0.11880109 -0.1625228 -0.09640696 -0.11936804
000310 3d 8a eb bc b8 fd e1 3e 8c 16 c4 3e 69 0f 0d 3e
       -0.02875244 0.44138885 0.38298452 0.1377541
000320 cd 87 4c 3e 8c 4c 10 be ce f2 8b be ce cd 24 be
       0.19973679 -0.140917 -0.27333683 -0.16094133
000330 7a 2c 48 3e 9c 51 05 be c0 b5 b9 be 89 24 15 3f
       0.19548216 -0.13019413 -0.36271477 0.58258873
000340 88 6e 39 be 4f 8a a0 be bc 28 ce bd 97 4b 67 bd
       -0.1810857 -0.3135552 -0.10066363 -0.056468572
000350 c5 5f 8c 3e fd ca a0 3e c6 95 e8 3d db f1 a4 3d
       0.27416816 0.31404868 0.11356692 0.08053943
000360 a3 8d 98 3e 01 ca b4 3d ad df bf 3a f1 a8 1a bf
       0.2979556 0.08827592 0.0014638804 -0.60414034
000370 62 0d a9 bd ae ea 76 3e 82 d8 e1 bc 88 0d ad be
       -0.08254506 0.2411296 -0.02756906 -0.33799386
000380 2b 30 63 be ed b6 64 bd 4b f0 9f 3d 05 59 2e bf
       -0.22186343 -0.055838514 0.07809504 -0.68104583
000390 e9 91 bd 3e 74 47 64 bd e9 04 5d be 3d d9 08 3e
       0.37025383 -0.055732206 -0.21583904 0.1336412
0003a0 67 69 9e bd e7 c1 f0 3d 7f 46 a1 3e 7a b5 1f 3e
       -0.07734948 0.11755734 0.31499097 0.15596572
0003b0 f7 85 3a bb d9 69 0b bd 98 12 91 be 9e f1 db 3d
       -0.0028461197 -0.03403649 -0.28334498 0.10739444
0003c0 d9 98 a0 3c 8d af 10 3d fe 8e 1f 3e bf c7 bb 3e
       0.019604133 0.03532367 0.15581891 0.36675832
0003d0 f1 e8 9c 3c 34 bc 91 be 0a be 85 3e 6c 28 87 bd
       0.019154044 -0.284639 0.2612155 -0.06599507
0003e0 c7 f2 31 3d 84 bd 87 3d 86 4e 46 3e b3 e6 58 3d
       0.04344442 0.06627944 0.19365892 0.052954387
0003f0 a1 70 61 3e 57 d7 f1 3d 78 64 bd bd 1f 34 31 3e
       0.22015621 0.11808651 -0.092476785 0.17305039
