model.pth (torch, 11393 bytes, 12 tensors)

conv1.bias f4 [16]
0.0048110457 0.03874521 -0.14876395 0.086490944 0.18754815 0.06438532 0.17874305 -0.108517915
-0.031271175 0.14686142 -0.11456677 0.022882126 -0.034099013 -0.18137635 -0.037352968 -0.03202898
00000000: faa5 9d3b 4cb3 1e3d 9455 18be 2a22 b13d
00000010: 9f0c 403e 73dc 833d 6b08 373e a43e debd
00000020: 3416 00bd d762 163e fca1 eabd 4c73 bb3c
00000030: 68ab 0bbd b9ba 39be 6dff 18bd d230 03bd

conv1.fc_self.weight f4 [16, 10]
-0.43914527 1.0517973 0.057892088 -0.051908296 0.57046366 -0.04030364 0.010211894 -1.2781059
0.007991731 0.14643049 0.45547968 -0.0930349 -0.069945894 -0.0011233331 -0.8262123 1.0623821
0.011199528 0.036008053 -0.09309345 -0.10595237 -1.5437799 0.14406663 0.28447986 0.008790431
1.4771141 0.14366932 0.05671962 0.18585697 0.14001136 0.038234252 -1.0928056 0.6964789
0.57865256 -0.67559636 0.8758702 -0.045337196 0.3800698 -0.9144349 -0.30020404 0.6837957
0.31450734 -0.21476945 -1.4767617 0.91341877 -0.27305135 -0.13037862 0.78830516 -0.11654032
-0.5336293 -0.2746821 -0.34736738 -0.8089224 0.7986252 -0.8438441 -0.02713633 -0.022172801
-0.09635231 0.69887155 -0.1394332 -1.2904266 -0.16764829 -0.25826845 0.05039191 -0.27517498
-0.074707724 -0.17508425 -1.7268704 -0.025483856 -0.18797453 -1.4064816 0.054976378 0.16642174
-0.46881565 1.4153606 0.05601824 0.096767224 0.76953363 -0.04868822 0.08166015 0.73266053
-0.08673961 0.0714162 1.0218048 -0.22248603 0.18912068 -0.07048877 -1.6419024 -0.02801013
0.17853399 0.064343356 0.18628898 0.66883755 -0.17866111 -0.057555918 0.7935876 -1.0499665
-0.22800016 -1.0158808 0.5103681 -0.4445098 0.12606551 0.09812144 -0.031022359 0.08422275
0.025716381 1.3073454 0.23408775 0.008199163 0.436924 0.6399791 -0.0011366267 0.08304046
-1.1038209 0.08287466 -0.05713613 0.0075040944 1.3163428 -0.09414511 0.0074235937 0.4560328
0.12005989 -0.08901445 1.2555692 0.004020738 0.06343302 0.052199785 -1.1379573 0.15668553
0.44415694 -0.64102095 0.12573923 0.24784283 0.23358028 0.173171 0.2734162 -1.0144762
-0.17584682 0.120764636 1.6252817 0.21950136 0.041523024 0.055497758 0.048496246 -0.95420253
0.12513055 -1.1257218 -0.06994454 -0.014099219 0.06898454 0.027699316 -0.14714646 0.7668654
-0.14974815 0.07313254 0.11221281 0.0035166668 0.13076632 -0.8611853 -0.1506618 0.2514056
00000000: a6d7 e0be 4ba1 863f 4120 6d3d cb9d 54bd
00000010: e809 123f 6e15 25bd ca4f 273c f998 a3bf
00000020: c0ef 023c e0f1 153e a234 e93e 1589 bebd
00000030: cb3f 8fbd ce3c 93ba a682 53bf 23fc 873f
00000040: 3a7e 373c 2e7d 133d c7a7 bebd 8efd d8bd
00000050: 949a c5bf 3486 133e 58a7 913e bd05 103c
00000060: 1312 bd3f 0d1e 133e d552 683d 4a51 3e3e
00000070: 235f 0f3e 859b 1c3d 0ee1 8bbf 714c 323f
00000080: 9322 143f e2f3 2cbf 0839 603f 7fb3 39bd
00000090: 8298 c23e 6818 6abf 58b4 99be 3c0d 2f3f
000000a0: 1b07 a13e 86ec 5bbe 8706 bdbf d0d5 693f
000000b0: 63cd 8bbe f981 05be 5ece 493f b1ac eebd
000000c0: ee9b 08bf 22a3 8cbe 23da b1be 8a15 4fbf
000000d0: b372 4c3f 2b06 58bf 024d debc bca3 b5bc
000000e0: 5c54 c5bd 3fe9 323f 94c7 0ebe b32c a5bf
000000f0: feab 2bbe c33b 84be bf67 4e3d bce3 8cbe
00000100: 5d00 99bd 4949 33be 170a ddbf 85c3 d0bc
00000110: 657c 40be 9707 b4bf e92e 613d 766a 2a3e
00000120: 9b08 f0be 892a b53f 6273 653d e52d c63d
00000130: 2800 453f 4d6d 47bd 703d a73d a48f 3b3f
00000140: 89a4 b1bd a842 923d 80ca 823f 61d3 63be
00000150: daa8 413e 6b5c 90bd dc29 d2bf 8075 e5bc
00000160: 9dd1 363e 73c6 833d 8ac2 3e3e f038 2b3f
00000170: f0f2 36be c1bf 6bbd 8f28 4b3f 4d65 86bf
00000180: e078 69be 6208 82bf 7ca7 023f ca96 e3be
00000190: 5117 013e e5f3 c83d 9a22 febc fa7c ac3d
000001a0: 29ab d23c 1857 a73f b3b4 6f3e c855 063c
000001b0: 81b4 df3e acd5 233f ddfa 94ba 1e11 aa3d
000001c0: 014a 8dbf 31ba a93d 9307 6abd e8e4 f53b
000001d0: ec7d a83f 27cf c0bd 9e41 f33b 227d e93e
000001e0: f6e1 f53d 354d b6bd 7eb6 a03f 65c0 833b
000001f0: 2ce9 813d 71cf 553d 96a8 91bf 2c72 203e
00000200: 8a68 e33e f319 24bf c9c1 003e 83ca 7d3e
00000210: ab2f 6f3e bd53 313e 35fd 8b3e 5bda 81bf
00000220: 3011 34be 7353 f73d 3b09 d03f f7c4 603e
00000230: 0c14 2a3d 9e51 633d 00a4 463d 9e46 74bf
00000240: 3922 003e a717 90bf 153f 8fbd 6900 67bc
00000250: c447 8d3d ade9 e23c 90ad 16be 4a51 443f
00000260: 9457 19be 83c6 953d d4cf e53d e177 663b
00000270: 9be7 053e a476 5cbf 1647 1abe 3cb8 803e

conv1.fc_neigh.weight f4 [16, 10]
0.34744886 -1.0245862 -0.034626927 0.015772011 -0.5246346 0.02999714 -0.08052822 1.2441169
0.029380554 -0.0365463 -0.38110194 0.023506107 0.04055488 -0.013488943 0.7047068 -1.0619193
-0.029643198 -0.010551509 -0.049014837 -0.13041703 1.4034015 0.041655093 -0.053914692 0.108380556
-1.2992762 -0.041859876 -0.0071935295 -0.04622528 0.057269163 0.07326514 0.9874337 -0.7917998
-0.62702006 0.5715476 -0.947369 -0.0072970404 -0.45202664 0.8102574 0.24524531 -0.76529425
-0.4585656 0.02133255 1.2516211 -1.0429571 0.034599267 -0.020560678 -0.8164702 0.031476922
0.19541165 -0.11440615 0.20915915 0.72334504 -0.84360886 0.72874314 -0.009437547 -0.026706219
-0.06184112 -0.77431905 0.025267992 1.0743998 0.023021696 0.08377768 -0.1800131 0.05869495
-0.05916706 -0.0067315428 1.443738 -0.056784112 0.013171007 0.9509123 0.001501835 -0.027083814
0.38563633 -1.1102064 0.002777651 0.03763282 -0.38803816 0.046326034 -0.035522446 -0.21578975
-0.009152406 -0.021616451 -0.66699386 0.05230035 -0.07714831 -0.017601348 1.1503589 -0.019748483
-0.0023432402 0.08995011 -0.31035817 -0.7742319 0.052055087 -0.078149326 -0.93424857 0.88242894
0.051553585 0.893537 -0.5797577 0.32700062 -0.045154486 0.00942955 0.128116 0.053193606
0.07861643 -1.1965612 -0.18443288 0.0763589 -0.27668315 -0.3609659 0.06968989 -0.039332855
1.0972074 -0.04818122 0.027105736 0.009345119 -1.124724 0.1002285 -0.030970493 -0.26082534
-0.059162635 0.12532963 -1.2049675 0.004001805 0.0033254903 -0.046454757 1.0706646 -0.11034107
-0.34665817 0.6859412 -0.0076721827 -0.015986973 -0.0032263887 -0.0057148957 -0.031354185 1.1311835
0.1899927 -0.06583406 -1.1008215 0.09927698 0.025095709 0.016747955 0.019090753 0.92512226
-0.024210837 1.1101761 0.10303822 -0.004236778 -0.004218275 0.09464944 0.14073104 -0.7190416
0.07544487 -0.042601734 -0.06536404 0.018677715 -0.086284764 0.8912273 0.19621064 -0.09310656
00000000: d1e4 b13e a425 83bf f7d4 0dbd 4e34 813c
00000010: 744e 06bf 90bc f53c fbeb a4bd 393f 9f3f
00000020: 7daf f03c 93b1 15bd cb1f c3be e18f c03c
00000030: e01c 263d ba00 5dbc aa67 343f f9ec 87bf
00000040: 4bd6 f2bc 3de0 2cbc c8c3 48bd 0b8c 05be
00000050: a9a2 b33f 889e 2a3d a7d5 5cbd a0f6 dd3d
00000060: af4e a6bf 4375 2bbd b3b7 ebbb b856 3dbd
00000070: 1293 6a3d 090c 963d 74c8 7c3f 64b3 4abf
00000080: 6384 20bf f250 123f c686 72bf 031c efbb
00000090: 0970 e7be 076d 4f3f 9621 7b3e 53ea 43bf
000000a0: 1cc9 eabe 9ac1 ae3c 1f35 a03f 9e7f 85bf
000000b0: f6b7 0d3d de6e a8bc 3104 51bf f2ed 003d
000000c0: fe19 483e c64d eabd d12d 563e 242d 393f
000000d0: c0f6 57bf e98e 3a3f f19f 1abc 00c7 dabc
000000e0: 1d4d 7dbd c639 46bf d2fe ce3c ef85 893f
000000f0: ff97 bc3c a293 ab3d 5b55 38be 1e6a 703d
00000100: 2959 72bd 4694 dcbb 68cc b83f 7596 68bd
00000110: 35cb 573c fd6e 733f 38d9 c43a e0de ddbc
00000120: 2072 c53e 3e1b 8ebf 4009 363b df24 1a3d
00000130: f0ac c6be 5ec0 3d3d fc7f 11bd fdf7 5cbe
00000140: f9f3 15bc fc14 b1bc 1cc0 2abf e438 563d
00000150: efff 9dbd b430 90bc f63e 933f 92c7 a1bc
00000160: 0c91 19bb c337 b83d 44e7 9ebe 1034 46bf
00000170: b737 553d c10c a0bd ea2a 6fbf dde6 613f
00000180: da29 533d d7be 643f 006b 14bf a06c a73e
00000190: e9f3 38bd 667e 1a3c d730 033e 8ae1 593d
000001a0: a701 a13d eb28 99bf f9db 3cbe 0e62 9c3d
000001b0: 6aa9 8dbe 86d0 b8be 93b9 8e3d 7d1b 21bd
000001c0: 4b71 8c3f ac59 45bd d90c de3c 451c 193c
000001d0: f5f6 8fbf 9a44 cd3d d5b5 fdbc e68a 85be
000001e0: 8554 72bd 6956 003e 603c 9abf 9321 833b
000001f0: 78f0 593b 5847 3ebd 8a0b 893f 80fa e1bd
00000200: 2e7d b1be d899 2f3f ef66 fbbb 1df7 82bc
00000210: d271 53bb 0544 bbbb 3f6d 00bd 9fca 903f
00000220: 728d 423e 02d4 86bd b8e7 8cbf bb51 cb3d
00000230: 8495 cd3c 0233 893c 3664 9c3c d0d4 6c3f
00000240: ce55 c6bc 401a 8e3f b405 d33d abd4 8abb
00000250: 7539 8abb 91d7 c13d cc1b 103e 1c13 38bf
00000260: d782 9a3d 287f 2ebd 95dd 85bd 0202 993c
00000270: 11b6 b0bd 7927 643f 71eb 483e a7ae bebd

conv2.bias f4 [16]
-0.024998438 -0.061147474 -0.02744306 0.108713046 -0.021075474 0.06609673 0.009685181 0.074569695
-0.042021867 0.09592658 0.102066755 -0.06977818 0.033364806 0.0018402893 0.057546515 0.104376346
00000000: 86c9 ccbc c675 7abd 45d0 e0bc f2a4 de3d
00000010: 79a6 acbc b95d 873d 98ae 1e3c ffb7 983d
00000020: 1f1f 2cbd 2875 c43d 6008 d13d dde7 8ebd
00000030: 89a9 083d dd35 f13a e5b5 6b3d 44c3 d53d

conv2.fc_self.weight f4 [16, 16]
-0.7682225 -0.16366255 -0.35347074 0.056584403 -0.18246296 -1.1070032 -0.0045426255 -0.109447904
0.1112121 0.51216906 0.62030864 -0.2024162 0.5812443 0.25379908 0.18088259 -0.39697155
0.271755 0.052287742 0.018601289 0.4568828 -0.22154668 -0.23322228 -0.18959822 -0.058432534
-0.0089191105 -0.44479582 0.2942762 0.13294962 0.21079352 -0.023987964 0.045496594 -0.32640582
-0.21718535 -0.28402194 -0.29560655 0.38968366 0.24945945 -0.051484 0.12113606 -0.12494772
0.17711008 0.46964076 -0.23237471 -0.0486174 0.13654642 -0.011878573 0.08881975 -0.4370627
-0.43552458 0.2675318 0.32501772 0.0049760262 0.3998809 0.39206457 0.39638594 0.03225362
0.066221826 -0.18754455 -0.9400766 -0.15322705 0.07050473 -0.05582615 0.18244478 0.44857794
-0.9461227 -0.018561676 -0.36972648 0.13204236 -0.11074735 -0.3698515 -0.39448512 0.028663972
0.037132435 0.09071648 0.43812394 0.2727293 0.0014237489 0.038479473 -0.29849854 0.0730143
0.8517505 -1.6195841 0.5468228 0.28685722 -1.8252568 -0.04827686 0.033431187 -0.24140696
2.013904 0.25189015 0.040257644 -0.253374 0.18320087 2.1836634 1.7658175 0.35199234
-0.43098566 -0.03781115 0.21556126 0.30430275 -0.15943061 0.45214632 0.33444485 -0.056134135
-0.044614643 -0.17692168 0.011434906 -0.1286849 -0.29009157 0.067776114 0.3417187 0.3891737
-0.8062479 0.3883314 -0.1785918 0.03395197 0.066761345 -0.09347825 -0.22664542 0.157297
-0.10697643 -0.19514497 0.34212026 0.5855725 -0.038941912 -0.21726568 -0.15009975 0.17762302
-0.031007146 0.3049402 -0.2106379 -0.4014731 0.015827883 -0.058870167 -0.30752057 0.054552015
-0.07073357 0.41853875 0.20899259 0.3478973 0.6560475 0.11790632 -0.23462643 -0.5315121
-0.042966433 0.11384154 -2.0795984 -0.04908874 0.21182995 -0.5517235 -0.6930675 0.7302857
-0.27026927 0.037057508 0.23371677 0.8537985 -0.31099036 0.2922587 -0.07812095 0.022476615
-1.2221118 -0.5121312 0.031603772 -0.38269106 -0.8272602 0.22323604 -0.055948667 0.19557022
-0.07344384 -0.64414644 -0.010399619 0.15372974 -0.08276851 0.5195014 -0.24685581 0.16665468
-0.00891575 -0.026803993 0.14525078 1.3064159 0.16866203 -0.088571236 -0.09109581 -0.059733868
-0.024584793 -0.34081906 0.09887606 -0.018906306 0.0076573496 -0.3621746 0.4085479 -0.015598476
-0.28205308 -0.16041073 -0.20309913 -0.17526938 -0.3410972 0.16024157 0.10507108 0.086191446
-0.028036077 -0.55918366 0.1308729 0.24519715 -0.05483104 0.108029 -0.28480506 -0.07356634
-0.33965787 0.20156732 0.019489307 0.21581997 -0.17946419 0.05908335 -0.14423908 0.09930131
-0.072912686 0.32639292 0.34186083 -0.077113666 0.30123428 0.08551739 0.3516793 0.04468043
0.11105543 -0.028090931 0.052733146 -0.1480967 0.30726445 -0.38672268 -0.19650978 -0.04103024
0.02959968 0.68643796 0.12506832 -0.30765375 0.18970115 0.15306278 0.08815687 0.13263676
0.07594459 0.18117125 -0.49105975 0.09657029 -0.092688836 -0.062435977 0.41926536 -0.5980188
0.21018998 -0.14878696 0.25945756 -0.6577069 1.0950507 0.40192786 0.0935526 -1.0403773
00000000: 3baa 44bf 2897 27be 1efa b4be 0cc5 673d
00000010: 92d7 3abe 48b2 8dbf 4eda 94bb 3926 e0bd
00000020: 2bc3 e33d 831d 033f 8ccc 1e3f 3146 4fbe
00000030: 6dcc 143f f4f1 813e 4939 393e db3f cbbe
00000040: 7923 8b3e ac2b 563d bb61 983c 8bec e93e
00000050: 22dd 62be d2d1 6ebe 0926 42be f456 6fbd
00000060: 7621 12bc 47bc e3be 5fab 963e f223 083e
00000070: 42da 573e 6882 c4bc a35a 3a3d aa1e a7be
00000080: d665 5ebe 536b 91be be59 97be 9e84 c73e
00000090: 4c72 7f3e e3e0 52bd 2f16 f83d 97e4 ffbd
000000a0: 585c 353e c174 f03e a3f3 6dbe 0a23 47bd
000000b0: d3d2 0b3e 599e 42bc 21e7 b53d afc6 dfbe
000000c0: 14fd debe eef9 883e b968 a63e ef0d a33b
000000d0: 30bd cc3e b0bc c83e 19f3 ca3e 5f1c 043d
000000e0: 4f9f 873d ae0b 40be dca8 70bf 8de7 1cbe
000000f0: c964 903d f6a9 64bd ced2 3a3e 02ac e53e
00000100: 1935 72bf a80e 98bc ca4c bdbe 1d36 073e
00000110: 82cf e2bd 2d5d bdbe f4f9 c9be b5d0 ea3c
00000120: 2e18 183d 90c9 b93d c851 e03e 2da3 8b3e
00000130: 169d ba3a a79c 1d3d cdd4 98be 8588 953d
00000140: 520c 5a3f 884e cfbf 94fc 0b3f f3de 923e
00000150: 04a2 e9bf f5bd 45bd 24ef 083d 6333 77be
00000160: cee3 0040 bff7 803e 33e5 243d 3dba 81be
00000170: 0299 3b3e 24c1 0b40 4f06 e23f 5738 b43e
00000180: 27aa dcbe dddf 1abd 17bc 5c3e 92cd 9b3e
00000190: c741 23be b97f e73e 5b3c ab3e e8ec 65bd
000001a0: d8bd 36bd f52a 35be 7959 3b3c f9c5 03be
000001b0: e286 94be 34ce 8a3d c1f5 ae3e c641 c73e
000001c0: 4366 4ebf 60d3 c63e c5e0 36be 3911 0b3d
000001d0: 2cba 883d 8671 bfbd bd15 68be 7712 213e
000001e0: 7516 dbbd 15d4 47be 632a af3e 14e8 153f
000001f0: 8e81 1fbd e57a 5ebe c0b3 19be cfe2 353e
00000200: b302 febc 1f21 9c3e 76b1 57be e28d cdbe
00000210: 7aa9 813c d821 71bd 5673 9dbe ef71 5f3d
00000220: c3dc 90bd b64a d63e 2702 563e 981f b23e
00000230: bbf2 273f de78 f13d e941 70be 2d11 08bf
00000240: 92fd 2fbd c125 e93d 2418 05c0 4611 49bd
00000250: f3e9 583e c03d 0dbf df6c 31bf 01f4 3a3f
00000260: bc60 8abe 9dc9 173d 7353 6f3e 8a92 5a3f
00000270: 213a 9fbe efa2 953e e0fd 9fbd e120 b83c
00000280: 296e 9cbf 081b 03bf f572 013d 15f0 c3be
00000290: 53c7 53bf fd97 643e 6e2a 65bd 8f43 483e
000002a0: b969 96bd c8e6 24bf 2a63 2abc 546b 1d3e
000002b0: 8982 a9bd 0bfe 043f c5c7 7cbe 86a7 2a3e
000002c0: 5e13 12bc 0c94 dbbc 9fbc 143e a338 a73f
000002d0: bdb5 2c3e d664 b5bd 7190 babd 80ab 74bd
000002e0: 0c66 c9bc d67f aebe 887f ca3d 66e1 9abc
000002f0: 81ea fa3b f36e b9be 312d d13e c090 7fbc
00000300: 4369 90be b642 24be 38f9 4fbe d179 33be
00000310: 4ba4 aebe 5e16 243e 822f d73d 2485 b03d
00000320: eaab e5bc a926 0fbf 8c03 063e f614 7b3e
00000330: 8396 60bd 4f3e dd3d f8d1 91be f3a9 96bd
00000340: a3e7 adbe aa67 4e3e 0aa8 9f3c e9ff 5c3e
00000350: 76c5 37be 6201 723d 69b3 13be 7c5e cb3d
00000360: 3f53 95bd f91c a73e 6208 af3e c5ed 9dbd
00000370: 613b 9a3e be23 af3d 4f0f b43e d402 373d
00000380: 0771 e33d f41e e6bc b6fe 573d a9a6 17be
00000390: c451 9d3e 8400 c6be dc39 49be 530f 28bd
000003a0: 077b f23c 66ba 2f3f e911 003e cb84 9dbe
000003b0: 0541 423e 7dbc 1c3e 978b b43d eed1 073e
000003c0: d688 9b3d f584 393e 2f6c fbbe a5c6 c53d
000003d0: a5d3 bdbd debc 7fbd f3a9 d63e c317 19bf
000003e0: 0b3c 573e 9c5b 18be 9fd7 843e 7b5f 28bf
000003f0: 9f2a 8c3f 7dc9 cd3e 8198 bf3d 152b 85bf

conv2.fc_neigh.weight f4 [16, 16]
0.51957005 -0.13267094 -0.17283797 0.20942219 0.35775167 -0.69051194 -0.6837274 1.0640018
-0.122411445 0.35800114 0.31543553 1.4536251 -1.2350101 0.040498335 -0.053658057 0.5541915
0.22028688 0.16190463 0.24362826 2.3009994 0.39910904 0.0966416 -0.051193763 -0.13657728
-0.004652714 -0.23308888 -0.3057958 -0.21349837 -0.16477688 -0.3720644 0.85212624 -0.07898462
0.6636768 -0.5639993 1.4341526 0.14749593 -1.2063642 0.122907124 0.6413147 -0.60676414
1.1852689 -0.057348862 -0.630298 -0.45981285 0.26515082 1.2051734 0.92969537 0.7341147
-0.9735507 0.44733572 0.83377856 -0.18870127 -0.2816673 -0.017513238 0.21300474 -0.837047
-0.1530181 -0.56715363 -0.5634632 -0.37798694 0.33411938 0.63730836 -0.025579136 0.07644182
-0.8127757 1.5028007 -0.10282172 0.039966498 0.84305173 1.0493698 1.3419635 -0.31171152
-0.036922805 -0.83255917 -0.64246786 -0.15383849 -0.22487676 -0.82188845 0.13010977 -0.375623
0.657893 -1.1417243 0.5102405 -0.120496005 -0.7091916 0.42502028 0.06028576 -0.07376684
1.0653999 0.16952577 -0.088957325 -0.18713285 -0.123061106 1.1043154 1.496775 0.27945036
-0.1723142 -0.0676631 0.16809234 1.1719304 -0.71197975 0.13863227 0.24901158 -0.030127909
0.017761242 -1.2408735 0.28935528 0.17962168 -0.76763284 0.22207522 0.15755838 0.04609416
0.2987156 -0.28056517 0.46219376 0.37517354 -0.7446437 -1.144314 -0.76044506 -0.02255094
0.053346053 0.7308083 0.9030576 0.30312726 0.253365 0.43991268 0.012416895 0.6220587
-0.13500272 -0.018394608 -0.7387171 0.29429603 -0.16448826 -0.4054516 -0.2549642 0.03443971
-0.06991503 -0.36311013 0.36268514 0.9389026 0.19683395 0.011997162 -0.20914963 -0.7558629
-1.0182915 0.56217384 -0.32346594 -0.004021368 0.18171282 -0.33446226 -0.5951698 0.4611883
-0.49552038 -0.19444329 0.25293633 0.579675 -0.23989958 0.16485457 -0.31093433 1.0166534
-0.06171997 -1.151083 -0.5405824 0.3822524 -0.94201994 -2.3320305 -0.693625 -0.09053426
0.27834147 0.017270016 1.6406063 0.03682126 0.5380749 0.6497066 0.24059331 0.0617791
-1.6034675 1.3843138 -1.3365498 -0.691214 1.2212979 0.12807779 -0.29573405 0.1543798
-2.0552177 -0.20207645 0.16221263 0.24490957 -0.1855632 -1.9819293 -2.653115 -0.071164265
0.72380066 -0.57700604 0.27276373 -0.5238451 -0.5265763 0.7314395 0.2844618 0.16064985
-0.049462795 -0.90531844 -0.2972192 0.041183323 -0.85143435 0.072380595 -0.36003873 0.638174
-0.37688166 -0.117999054 0.30038318 0.12344129 -0.31722355 0.75551236 0.28995484 0.21647722
0.056694087 0.4163578 -0.057596575 -0.16451333 0.5199568 0.05924389 0.6561088 0.29798925
0.0592767 0.02253168 -0.082602285 -0.06794891 0.3798708 -0.11550201 -0.04173931 0.06402686
-0.041783497 2.9326782 -0.08464379 -0.98958313 -0.011859466 -0.07538364 0.29343218 0.07346658
-0.4523768 0.49807394 -0.36030942 -0.017363414 0.2705823 0.66240585 0.75038403 -0.4577568
0.1575248 0.24960521 0.019633198 -1.3456768 0.45664403 0.016749982 -0.10060151 -0.33623314
00000000: 8b02 053f e4da 07be 70fc 30be c572 563e
00000010: 3a2b b73e 64c5 30bf c208 2fbf 3631 883f
00000020: dab2 fabd ed4b b73e c480 a13e 6310 ba3f
00000030: d014 9ebf 95e1 253d 8dc8 5bbd 7fdf 0d3f
00000040: e292 613e 54ca 253e b079 793e 9343 1340
00000050: 0558 cc3e 08ec c53d 8db0 51bd eada 0bbe
00000060: cb75 98bb daae 6ebe 4491 9cbe 519f 5abe
00000070: 45bb 28be 3a7f bebe f224 5a3f b0c2 a1bd
00000080: b9e6 293f 4262 10bf 5092 b73f 2c09 173e
00000090: 246a 9abf bbb6 fb3d 332d 243f e554 1bbf
000000a0: e4b6 973f a4e6 6abd 365b 21bf 976c ebbe
000000b0: d9c1 873e 1f43 9a3f 8400 6e3f f1ee 3b3f
000000c0: 9e3a 79bf 3009 e53e 8372 553f e83a 41be
000000d0: b236 90be ec77 8fbc ea1d 5a3e b648 56bf
000000e0: c7b0 1cbe fb30 11bf 203f 10bf 8187 c1be
000000f0: b211 ab3e a426 233f 568b d1bc 878d 9c3d
00000100: 1112 50bf c65b c03f 3294 d2bd e9b3 233d
00000110: 3dd2 573f c051 863f 76c5 ab3f a798 9fbe
00000120: 5e3c 17bd 9922 55bf c678 24bf d687 1dbe
00000130: 1846 66be 4867 52bf 7f3b 053e a851 c0be
00000140: ad6b 283f 0624 92bf 1f9f 023f 9cc6 f6bd
00000150: 958d 35bf 429c d93e 33ee 763d 1213 97bd
00000160: 065f 883f 2a98 2d3e 422f b6bd c19f 3fbe
00000170: 7607 fcbd 355a 8d3f 5396 bf3f 1e14 8f3e
00000180: 2273 30be f492 8abd 6620 2c3e d101 963f
00000190: 4e44 36bf 9ef5 0d3e e4fc 7e3e cece f6bc
000001a0: 0680 913c f1d4 9ebf 6026 943e bfee 373e
000001b0: 9683 44bf b067 633e fc56 213e 3bcd 3c3d
000001c0: 40f1 983e 3da6 8fbe a9a4 ec3e bf16 c03e
000001d0: f8a0 3ebf e278 92bf 87ac 42bf c0bc b8bc
000001e0: 6481 5a3d 4116 3b3f c82e 673f 7f33 9b3e
000001f0: 0fb9 813e 3c3c e13e 3b70 4b3c 3d3f 1f3f
00000200: 273e 0abe 4ab0 96bc 901c 3dbf f8ad 963e
00000210: 9c6f 28be 5a97 cfbe ab8a 82be a710 0d3d
00000220: 9c2f 8fbd 92e9 b9be deb1 b93e ec5b 703f
00000230: d78e 493e bf8f 443c 522b 56be 3b80 41bf
00000240: 6057 82bf a0ea 0f3f 549d a5be aec5 83bb
00000250: ed12 3a3e a33e abbe 0c5d 18bf df20 ec3e
00000260: d9b4 fdbe 241c 47be df80 813e 9565 143f
00000270: 3ca8 75be a3cf 283e c932 9fbe b321 823f
00000280: 14ce 7cbd b056 93bf 9c63 0abf 96b6 c33e
00000290: 3828 71bf fd3f 15c0 6891 31bf 076a b9bd
000002a0: c682 8e3e d979 8d3c 63ff d13f e4d1 163d
000002b0: 47bf 093f 2c53 263f 185e 763e 150c 7d3d
000002c0: 6c3e cdbf 3231 b13f 1014 abbf 67f3 30bf
000002d0: 7d53 9c3f d326 033e 746a 97be bd15 1e3e
000002e0: b088 03c0 21ed 4ebe 111b 263e 93c9 7a3e
000002f0: 4804 3ebe dcaf fdbf a3cc 29c0 92be 91bd
00000300: 004b 393f abb6 13bf b0a7 8b3e b61a 06bf
00000310: b4cd 06bf 9e3f 3b3f faa4 913e 6581 243e
00000320: 8099 4abd f3c2 67bf 1d2d 98be d8af 283d
00000330: 9af7 59bf 473c 943d ff56 b8be 5f5f 233f
00000340: a2f6 c0be 7da9 f1bd d3cb 993e c9ce fc3d
00000350: 206b a2be 4269 413f f674 943e 34ac 5d3e
00000360: 0f38 683d d92c d53e 63ea 6bbd 2f76 28be
00000370: e41b 053f b9a9 723d bff6 273f 0c92 983e
00000380: 20cc 723d 5c94 b83c 632b a9bd cc28 8bbd
00000390: 6d7e c23e 518c ecbd d7f6 2abd 8420 833d
000003a0: 2c25 2bbd 00b1 3b40 b959 adbd 5255 7dbf
000003b0: 354e 42bc bd62 9abd be3c 963e a575 963d
000003c0: ef9d e7be 8c03 ff3e 7a7a b8be b83d 8ebc
000003d0: c389 8a3e 6e93 293f 2b19 403f 195f eabe
000003e0: 2e4e 213e 8298 7f3e cdd5 a03c 233f acbf
000003f0: 3fcd e93e 4237 893c 2a08 cebd c026 acbe

conv3.bias f4 [16]
-0.014166856 -0.035289586 -0.0387252 0.0035706582 -0.035862952 0.06775979 -0.08423674 -0.08622235
-0.00852518 -0.02393526 -0.027164033 -0.023554392 0.035943 -0.03775544 0.040335428 -0.010050747
00000000: 1a1c 68bc d08b 10bd 519e 1ebd b401 6a3b
00000010: 08e5 12bd a5c5 8a3d 5084 acbd 5895 b0bd
00000020: 32ad 0bbc e113 c4bc 1b87 debc 24f5 c0bc
00000030: f838 133d 73a5 1abd c336 253d e3ab 24bc

conv3.fc_self.weight f4 [16, 16]
0.29537922 -0.07197818 0.13691562 0.27002314 0.14895274 0.19285324 -0.11223638 -0.13904981
-0.013788712 -0.5330766 0.29060057 -0.15664527 -0.025073856 0.3383808 0.12614559 0.38528514
-0.26227012 0.26827514 -0.5410445 -0.10817433 -0.033414457 -0.012448067 -0.008997557 0.65918696
-0.18351844 0.023979304 -0.06501485 0.12910862 -0.14355074 -0.06579299 0.30541995 -0.063688815
0.12174829 0.119884394 -0.012313702 0.8040132 -0.52673954 0.14960934 0.04305158 -0.6356639
-0.21424168 -0.6554266 0.3025 0.032282062 -0.22829522 0.28644815 0.4086674 -0.6747798
0.14401592 0.15074532 -0.42855713 -0.034896243 -0.020664264 0.07916359 -0.43626037 0.22176638
0.16368084 -0.077489085 0.4663708 -0.53186613 0.13905202 -0.24819571 0.39644188 -0.05840169
-0.25255144 0.32885084 0.034537815 -0.10610536 0.1517096 -0.07855021 0.33078977 0.18864195
-0.026887275 -0.059880737 -0.15625726 0.38184962 -0.22398311 0.4719446 -0.098401815 -0.09285624
-0.6892193 -0.17009462 -0.011760177 0.13091843 -0.061874315 -0.06256533 0.041884948 -0.67503226
-0.19125897 -0.16516757 -0.279823 -0.42207327 0.48853663 0.106222905 -0.5042575 -0.15645783
-0.86258787 0.22669074 0.04732257 0.09814155 0.3554189 -0.04032435 -0.2896731 0.57798386
-0.15355389 0.29868984 -0.35468432 -0.11671842 0.07153092 0.75347066 0.1985844 -0.16900894
-0.29882398 0.49697474 0.24732639 -0.5493634 0.12626141 0.07965851 0.055747494 0.26390725
-0.037828334 0.022218531 -0.122957714 0.12385743 0.53495955 -0.8652669 -0.038044013 0.1640229
-0.04875502 -0.3266713 -0.46408367 0.25590095 -0.24541405 0.024749821 -0.24278207 -0.2577149
-0.015309155 0.018824419 -0.02174587 0.0377116 0.16067225 -0.2252256 0.21626778 -0.20049302
0.1588155 -0.2889079 -0.17742419 0.08879538 -0.363929 0.21170363 -0.25437775 0.3226401
0.2973922 -0.27218744 -0.10197287 -0.19665858 0.5134469 -0.122173384 -0.13668825 0.62679744
0.036526233 0.42969653 0.56788766 -0.6080561 -0.14045015 1.834132 0.0214128 -0.06043075
0.010142477 0.2686894 0.7043537 -0.55865145 0.29037285 -0.14261785 -0.24117611 -0.29480737
-0.26805636 -0.20618176 -0.24848348 0.13111123 -0.29233736 0.021747986 0.24882525 0.20763654
0.030341262 -0.0152157685 0.16845521 0.057337712 0.324486 -0.072664745 -0.28649765 -0.19527136
-0.006635595 0.19727194 0.029214524 -0.054326996 -0.24243668 0.114477664 0.06384403 -0.054216087
-0.013141657 0.43615344 0.18114157 -0.16431119 -0.3589753 -0.36911216 0.54129344 -0.47170028
-0.16631673 0.54203475 -0.32397726 0.04339752 -0.14295653 -0.13512854 0.44086558 -0.23076944
-0.396362 0.44242662 0.667489 -0.30459547 0.4867787 0.65459627 0.21230958 -0.23450269
0.30342174 -0.3354402 -0.3376204 -0.06639372 0.30083665 0.34935874 -0.46139076 0.0055342955
0.56582093 0.53858876 0.030672211 0.5788568 -0.21242456 -0.32827407 -0.387418 -0.08709787
-0.36489955 -0.1690751 -0.06345691 -0.35340813 -0.10907968 0.034385454 -0.14332527 -0.12381835
-0.78220403 0.27488202 -0.053685732 -0.06454089 0.26284078 -0.10670063 0.1589187 -0.319924
00000000: f23b 973e 4c69 93bd 9c33 0c3e 7940 8a3e
00000010: 1187 183e 527b 453e 30dc e5bd 1363 0ebe
00000020: 0dea 61bc b577 08bf 99c9 943e 9e67 20be
00000030: b067 cdbc 4040 ad3e 4f2c 013e 1844 c53e
00000040: 4548 86be 5c5b 893e e481 0abf 818a ddbd
00000050: 99dd 08bd faf2 4bbc 7d6a 13bc 7ac0 283f
00000060: 42ec 3bbe 3f70 c43c 8126 85bd 0d35 043e
00000070: f7fe 12be 7abe 86bd 0160 9c3e 486f 82bd
00000080: 2b57 f93d f385 f53d 69bf 49bc cfd3 4d3f
00000090: 67d8 06bf 3133 193e db56 303d dfba 22bf
000000a0: 2c62 5bbe 0aca 27bf 48e1 9a3e 323a 043d
000000b0: 39c6 69be 55a9 923e da3c d13e 5ebe 2cbf
000000c0: e978 133e fb5c 1a3e d76b dbbe 5def 0ebd
000000d0: 1a48 a9bc 8520 a23d 855d dfbe ba16 633e
000000e0: f39b 273e 99b2 9ebd 27c8 ee3e 6128 08bf
000000f0: a763 0e3e 0427 7ebe 6efa ca3e 9c36 6fbd
00000100: 6c4e 81be 235f a83e 8677 0d3d c44d d9bd
00000110: c359 1b3e efde a0bd 475d a93e 5b2b 413e
00000120: b442 dcbc 8145 75bd e701 20be cb81 c33e
00000130: d45b 65be b9a2 f13e e486 c9bd 6a2b bebd
00000140: ad70 30bf 492d 2ebe c2ad 40bc 7b0f 063e
00000150: ec6f 7dbd 4022 80bd 8d8f 2b3d eace 2cbf
00000160: 64d9 43be b021 29be f644 8fbe fd19 d8be
00000170: 7921 fa3e 658b d93d 0517 01bf 7b36 20be
00000180: 8fd2 5cbf 9e21 683e 50d5 413d 70fe c83d
00000190: 77f9 b53e 252b 25bd 0850 94be c0f6 133f
000001a0: 3b3d 1dbe e0ed 983e 2f99 b5be 110a efbd
000001b0: ce7e 923d 74e3 403f b559 4b3e ae10 2dbe
000001c0: 75ff 98be 7973 fe3e 2143 7d3e 14a3 0cbf
000001d0: ac4a 013e 0024 a33d 7c57 643d da1e 873e
000001e0: e2f1 1abd a303 b63c 41d1 fbbd f7a8 fd3d
000001f0: 1cf3 083f 2282 5dbf 0ad4 1bbd 9ef5 273e
00000200: 58b3 47bd 7641 a7be 609c edbe 7305 833e
00000210: d24d 7bbe 23c0 ca3c dd9b 78be 35f3 83be
00000220: 40d3 7abc ab35 9a3c 6524 b2bc 7b77 1a3d
00000230: 4487 243e 8aa1 66be 4d75 5d3e 0b4e 4dbe
00000240: 88a0 223e bceb 93be b0ae 35be 5ada b53d
00000250: e754 babe d6c8 583e cd3d 82be 1531 a53e
00000260: ca43 983e 275c 8bbe 27d7 d0bd de60 49be
00000270: 4271 033f 0a36 fabd 01f8 0bbe cc75 203f
00000280: 889c 153d 2f01 dc3e 1661 113f 91a9 1bbf
00000290: 2ad2 0fbe d6c4 ea3f e569 af3c 3c86 77bd
000002a0: a22c 263c a891 893e 8650 343f c803 0fbf
000002b0: c0ab 943e 6a0a 12be dff6 76be fef0 96be
000002c0: af3e 89be 5021 53be 7472 7ebe 0642 063e
000002d0: 3ead 95be d528 b23c 0ccc 7e3e ac9e 543e
000002e0: 3d8e f83c 8f4b 79bc 867f 2c3e f3da 6a3d
000002f0: 0723 a63e 41d1 94bd d2af 92be 37f5 47be
00000300: 686f d9bb a801 4a3e 4c53 ef3c fc85 5ebd
00000310: 5241 78be 4473 ea3d a9c0 823d b011 5ebd
00000320: 1b50 57bc 814f df3e 2d7d 393e 3141 28be
00000330: 9ccb b7be 45fc bcbe 3592 0a3f b382 f1be
00000340: ef4e 2abe cac2 0a3f 59e0 a5be 99c1 313d
00000350: 3263 12be 235f 0abe 22b9 e13e d34e 6cbe
00000360: f6ef cabe be85 e23e 8fe0 2a3f f0f3 9bbe
00000370: 0f3b f93e 9f93 273f af67 593e 7921 70be
00000380: 185a 9b3e d1be abbe 95dc acbe 6ef9 87bd
00000390: 4307 9a3e 26df b23e 693b ecbe 0959 b53b
000003a0: a4d9 103f f4e0 093f 4a44 fb3c f62f 143f
000003b0: d385 59be 8a13 a8be a75b c6be 5e60 b2bd
000003c0: 1dd4 babe 0622 2dbe b2f5 81bd e9f1 b4be
000003d0: 2b65 dfbd c3d7 0c3d dcc3 12be 7a94 fdbd
000003e0: 863e 48bf 56bd 8c3e 92e5 5bbd 042e 84bd
000003f0: 1193 863e dc85 dabd 95bb 223e 14cd a3be

conv3.fc_neigh.weight f4 [16, 16]
-0.60550356 -0.2613819 -0.25345752 0.40128657 0.77332824 -0.025925228 -0.2873686 -0.34628603
0.3515677 0.08747399 -1.057035 -0.20751312 1.1594038 0.15178736 0.0074088676 -0.3124086
-0.24704511 -0.0006036954 -0.23933014 0.0858502 -0.105598405 0.75457346 1.0408058 -0.4310313
0.2117568 0.46361014 -0.06789629 -0.0717176 1.9625981 -0.6132095 -0.056311194 -0.23569831
-0.4106613 0.616352 0.0027690227 0.48767 0.1124825 0.1470976 -0.3719034 -0.14156869
-0.5926136 -0.4689543 -0.66487825 -0.5254602 0.25878528 0.16824415 -0.09999658 -0.4263392
0.08627877 -0.06479341 -0.4374295 -0.2373715 0.41717133 -0.58583677 -0.39117008 0.7237789
0.22801092 -0.11352791 0.21830943 0.07687842 0.033970024 -0.48400792 -0.43307585 0.4274955
0.05022447 0.29070002 0.16501233 -0.20772126 0.4536778 0.18448128 0.08979169 0.304477
0.6846996 0.013567027 -0.29570183 -0.008398375 -0.7648716 -0.010714037 0.023531973 0.15872115
0.8795867 -0.400692 -0.43043324 0.25884074 0.53432083 -0.53802323 0.40566307 -0.7693341
0.26919028 0.6292208 -0.49586055 0.9708177 -0.3509218 -0.4704645 0.055948615 -0.071173616
0.2913654 -0.49676585 -0.26507783 0.26438424 -0.14532168 0.23717524 -0.9499568 -0.28608334
0.13942352 0.16741887 -0.098685876 -0.6380372 -0.30046862 -0.013673152 0.09646038 -0.202182
-0.3500195 -0.05161 0.34442067 -0.2022711 -0.020117773 0.008993729 -0.2497015 0.42932376
0.26760024 -0.45121783 -0.66417396 -0.37066588 0.10453335 -0.5127997 -0.12357456 0.19378115
-0.41712263 0.69632494 0.5036215 0.24950597 0.5187888 -0.39872786 0.15328875 -0.6566187
-0.46452424 -0.16810004 -1.1772046 -0.22929688 0.5597728 1.166555 -0.054912325 -0.21761467
0.4372658 -0.3591014 0.33308524 0.7542204 0.23141377 -0.10048167 0.17773971 -0.119889155
0.36824477 0.13164186 0.305676 0.6607744 -0.5976436 0.81120557 0.07863084 0.5527806
0.5899458 0.98808974 0.9511412 -0.13365494 -0.5090365 0.8808032 -0.24646801 0.49908438
-0.1860349 -0.29144567 0.6433082 -1.1417202 0.23169681 0.46422678 -0.02885356 -0.10970196
0.08448356 -0.26486623 -0.32162565 0.0165924 0.06017266 0.32935014 -0.2328687 0.040569812
0.3359074 0.2717832 0.24083897 -0.6864404 0.18171205 0.2404863 -0.1392684 0.09690698
0.27425537 0.080857806 -0.06410331 0.2971521 -0.085826345 0.09335833 -0.41800022 0.23847803
0.23982716 0.40718532 0.28838232 -0.25429085 -0.0063104667 -0.38475055 0.341552 0.15982242
0.37246162 0.64631927 0.14096954 0.3812879 -0.32846847 -0.57452035 0.2839026 -0.20057337
0.1599463 0.37095445 0.32538804 0.3336603 -0.01607906 0.7662016 0.523309 0.07637064
0.09390737 -0.36707523 -0.50433826 0.18192062 0.08332802 0.24911961 0.55073816 -1.1350743
0.36186236 -0.13539553 -0.3429844 1.1945889 -0.9801182 -0.33941758 -0.123344176 0.30725807
-0.24435857 0.1882222 -0.29623616 -0.24895458 0.44168442 0.31423268 0.27579278 -0.012877491
-0.61300194 0.27676752 -0.20364548 0.18153359 -0.09954241 -0.29823503 0.3729345 -0.5581404
00000000: 4802 1bbf d9d3 85be 2fc5 81be 6f75 cd3e
00000010: d7f8 453f 2561 d4bc fa21 93be 674c b1be
00000020: ae00 b43e 9025 b33d ec4c 87bf 527e 54be
00000030: 5867 943f 256e 1b3e 16c6 f23b 05f4 9fbe
00000040: 65f9 7cbe 5041 1eba f612 75be 3bd2 af3d
00000050: fa43 d8bd ba2b 413f 2039 853f 22b0 dcbe
00000060: c6d6 583e 4f5e ed3e 360d 8bbd ade0 92bd
00000070: 6a36 fb3f 4cfb 1cbf 91a6 66bd e65a 71be
00000080: 3342 d2be 3fc9 1d3f 7e78 353b e2af f93e
00000090: 3a5d e63d c1a0 163e 1f6a bebe 62f7 10be
000000a0: 86b5 17bf c71a f0be 7635 2abf 8f84 06bf
000000b0: 817f 843e 3248 2c3e 02cb ccbd 2249 dabe
000000c0: ecb2 b03d 68b2 84bd c2f6 dfbe 8411 73be
000000d0: 7b97 d53e 66f9 15bf 7247 c8be 9349 393f
000000e0: b27b 693e 5281 e8bd 828c 5f3e 6f72 9d3d
000000f0: 2724 0b3d e3cf f7be 1ebc ddbe b1e0 da3e
00000100: 2db8 4d3d a2d6 943e fef8 283e e2b4 54be
00000110: 7548 e83e a9e8 3c3e b5e4 b73d 69e4 9b3e
00000120: 7948 2f3f 3c48 5e3c 3b66 97be 5699 09bc
00000130: a0ce 43bf ee89 2fbc 20c6 c03c cc87 223e
00000140: 982c 613f 8027 cdbe bf61 dcbe c686 843e
00000150: 40c9 083f e4bb 09bf 12b3 cf3e 14f3 44bf
00000160: 4fd3 893e 9d14 213f 6fe1 fdbe 8287 783f
00000170: 06ac b3be b9e0 f0be 602a 653d 79c3 91bd
00000180: d92d 953e 1858 febe 48b8 87be 5f5d 873e
00000190: 35cf 14be 11de 723e 5e30 73bf 8479 92be
000001a0: 0ac5 0e3e da6f 2b3e d21b cabd 6856 23bf
000001b0: 06d7 99be 5b05 60bc 058d c53d cc08 4fbe
000001c0: c235 b3be 0265 53bd e857 b03e 2820 4fbe
000001d0: 07ce a4bc 6f5a 133c c0b1 7fbe 53d0 db3e
000001e0: e602 893e 0606 e7be 4e07 2abf ebc7 bdbe
000001f0: 9515 d63d d746 03bf a914 fdbd 916e 463e
00000200: 1991 d5be 5a42 323f 57ed 003f 7e7e 7f3e
00000210: 58cf 043f 0f26 ccbe baf7 1c3e 2a18 28bf
00000220: 1fd6 edbe 6b22 2cbe a4ae 96bf cdcc 6abe
00000230: 454d 0f3f ad51 953f bfeb 60bd 61d6 5ebe
00000240: 4ee1 df3e 24dc b7be 268a aa3e 9714 413f
00000250: bbf7 6c3e 55c9 cdbd 6601 363e 7288 f5bd
00000260: 948a bc3e 20cd 063e 9181 9c3e 8328 293f
00000270: 2cff 18bf 2bab 4f3f 3509 a13d 0883 0d3f
00000280: b006 173f 73f3 7c3f fd7d 733f d7dc 08be
00000290: 3750 02bf 527c 613f 1c62 7cbe fd87 ff3e
000002a0: ef7f 3ebe 5e38 95be d9af 243f e323 92bf
000002b0: ee41 6d3e 22af ed3e 4d5e ecbc 6cab e0bd
000002c0: b705 ad3d 8c9c 87be 1eac a4be c9ec 873c
000002d0: 9b77 763d 95a0 a83e 2275 6ebe 882c 263d
000002e0: 0efc ab3e 2b27 8b3e 7e9e 763e 8fba 2fbf
000002f0: b912 3a3e 0a42 763e 609c 0ebe 2b77 c63d
00000300: 336b 8c3e c798 a53d 9948 83bd 5224 983e
00000310: b9c5 afbd a732 bf3d 2004 d6be 9633 743e
00000320: 4095 753e 987a d03e d9a6 933e 6932 82be
00000330: 08c8 cebb 06fe c4be e7df ae3e 7da8 233e
00000340: 4ab3 be3e 2e75 253f 525a 103e 2b38 c33e
00000350: 052d a8be c413 13bf ae5b 913e 1b63 4dbe
00000360: f6c8 233e beed bd3e 4399 a63e 86d5 aa3e
00000370: 3cb8 83bc ca25 443f 94f7 053f 3668 9c3d
00000380: 8252 c03d 49f1 bbbe 501c 01bf 6649 3a3e
00000390: e2a7 aa3d 3619 7f3e 2dfd 0c3f 1d4a 91bf
000003a0: 0646 b93e 20a5 0abe a79b afbe 4ae8 983f
000003b0: 07e9 7abf 24c8 adbe df9b fcbd ee50 9d3e
000003c0: 2239 7abe 52bd 403e 44ac 97be f3ed 7ebe
000003d0: 7624 e23e 1be3 a03e b634 8d3e 1dfc 52bc
000003e0: b2ed 1cbf 79b4 8d3e 7188 50be f1e3 393e
000003f0: e4dc cbbd 43b2 98be 45f1 be3e 4ae2 0ebf

conv4.bias f4 [16]
0.031677898 -0.0061457343 -0.0077604097 0.03435434 0.0008620016 0.0045281993 0.061288513 0.011397346
0.0001860722 0.093560115 0.06932058 -0.13159229 -0.054142334 0.1084808 -0.05287859 0.112166576
00000000: afc0 013d 2862 c9bb 094b febb 23b7 0c3d
00000010: f3f7 613a 4a61 943b aa09 7b3d efbb 3a3c
00000020: 601c 4339 729c bf3d f3f7 8d3d 21c0 06be
00000030: 5ac4 5dbd 2f2b de3d 3897 58bd 97b7 e53d

conv4.fc_self.weight f4 [16, 16]
-0.67240465 -0.45036185 -0.31466478 0.10723004 -0.27661142 -0.03508588 -0.89072967 -0.24510115
0.2732498 -0.4914752 -0.45808116 0.57214427 0.41706094 -0.36668777 0.50344884 0.4733788
0.2865911 -0.17586829 0.29705906 -0.93419117 0.6913127 0.075822994 0.30820492 -0.44021043
-0.13681792 0.044819426 0.132357 -0.7244652 -0.57078356 0.07393 -0.50270456 -0.5300651
0.20404436 -0.1646264 -0.11810192 0.9281 -0.18691878 -0.62433434 -0.04604637 0.11828057
-0.34022886 0.5613877 0.4256284 0.06252995 0.20085806 -0.10484476 -0.23095529 -0.7970471
0.008190258 -0.5776624 0.3064709 -0.122081235 -0.1100877 0.0735611 1.2663004 -0.11404052
0.24555227 0.70147634 0.013228149 0.0979679 -0.29968503 -1.0896326 0.30958426 -0.33212364
0.09628652 -0.7416587 0.23102427 0.119780436 -0.33745286 -0.0076345466 -0.13521975 -1.0016397
0.1606048 -0.36400676 -0.23274052 -1.23391 0.8222984 -0.3017031 0.30578035 0.47082534
0.48856914 -0.15594788 0.70980656 -0.025440747 -0.21085069 -0.08944109 -0.33686438 -0.105415694
0.5973509 -0.13258739 0.7350915 -0.25196102 0.21104577 -0.2195157 -0.41924506 0.086427055
0.14703631 -0.32249707 -0.27915043 0.4187073 -0.16042826 0.3348412 -0.32973772 0.60248107
0.06768363 0.35410446 -0.6877554 0.03657895 -0.77203417 -0.57678664 0.24605449 -0.13317375
0.11125218 -0.06626738 0.12625612 0.24905826 -0.27457082 -0.23790926 -0.12071709 -0.69390875
0.025564807 -0.07240064 -0.12551045 0.60839033 0.2543589 0.45109287 -0.15693773 -0.45030513
-0.15555486 -0.5225455 0.40489215 -0.016649656 0.25785485 -0.26951382 -0.6212918 0.8353625
-0.4954545 -0.3188361 1.0780321 0.3666961 0.043985344 0.11248956 -0.06105596 0.4523469
0.15944995 -1.1028976 0.58787733 -0.28042683 -0.063050956 -0.6767303 -0.84656984 0.6492884
-0.43571407 0.8122368 0.35501572 -0.39607155 -0.86974925 -0.31538355 -0.40898448 -0.45720753
-0.6666328 -0.5919885 -0.78359395 0.29574376 -0.03781205 -1.0778338 0.93565 0.12192252
0.078579314 -0.62784255 0.67072165 0.064462095 0.5924041 -0.8277221 0.37776667 0.23196836
-0.09396898 0.51284856 0.3012378 0.17919028 0.15492429 -0.35924852 0.2914631 -0.032798264
0.066616364 0.24857001 0.3244391 -0.091336876 0.26810044 0.19076435 -0.28069997 0.15846519
-0.13281977 0.32483265 -0.38628384 0.12337547 -0.075971685 -0.6648942 0.29610428 0.28972173
-0.6936962 -0.25270572 0.46218508 -0.4619011 0.27060145 0.35224524 0.5998065 0.2259705
0.13045743 0.36092764 0.035828765 0.49893132 -0.30565032 0.30722255 0.076113015 0.75656134
-0.0037971523 0.11016506 -0.032206643 -0.28782916 0.14083113 -0.23558433 0.42234948 0.6850223
-0.585224 0.5772403 -0.52013 -0.35378736 1.3913385 -0.29010287 -0.50167173 0.49481708
0.3552632 -0.43476748 -0.60595 -0.20006302 -0.027121391 -0.3076168 0.4560535 -0.21366122
0.3404167 -0.10505253 -0.5487401 0.5843054 0.31798527 0.036005642 -0.26095596 -0.40607238
-0.63504744 0.18362807 -0.8322115 -0.47218797 -0.35197523 0.457276 0.30291113 -0.44233188
00000000: b622 2cbf d495 e6be be1b a1be 6c9b db3d
00000010: 03a0 8dbe 36b6 0fbd dc06 64bf ccfb 7abe
00000020: 66e7 8b3e a3a2 fbbe 9d89 eabe 0c78 123f
00000030: 0389 d53e 80be bbbe 06e2 003f b55e f23e
00000040: 12bc 923e d116 34be 2018 983e 2727 6fbf
00000050: def9 303f 1649 9b3d 09cd 9d3e 4363 e1be
00000060: ff19 0cbe 9394 373d 9888 073e 8d76 39bf
00000070: df1e 12bf 9d68 973d 3fb1 00bf 59b2 07bf
00000080: 01f1 503e d393 28be 6bdf f1bd f697 6d3f
00000090: a367 3fbe 60d4 1fbf 1e9b 3cbd 153d f23d
000000a0: 7a32 aebe 1bb7 0f3f f7eb d93e b40f 803d
000000b0: bcad 4d3e d9b8 d6bd 8b7f 6cbe 470b 4cbf
000000c0: 6f30 063c afe1 13bf c1e9 9c3e ba05 fabd
000000d0: a975 e1bd 34a7 963d 2216 a23f 138e e9bd
000000e0: 0e72 7b3e f493 333f e1ba 583c 65a3 c83d
000000f0: 5170 99be 1579 8bbf d481 9e3e 1c0c aabe
00000100: de31 c53d 58dd 3dbf a091 6c3e 724f f53d
00000110: 9fc6 acbe 382b fabb 0c77 0abe bb35 80bf
00000120: 9675 243e 185f babe 8853 6ebe c3f0 9dbf
00000130: 2682 523f d478 9abe 3e8f 9c3e 0510 f13e
00000140: bc25 fa3e cdb0 1fbe e2b5 353f 1d69 d0bc
00000150: 3ee9 57be e42c b7bd 7d79 acbe 2fe4 d7bd
00000160: fdeb 183f fdc4 07be f52e 3c3f 0901 81be
00000170: 621c 583e b9c8 60be 4aa7 d6be ab00 b13d
00000180: b090 163e 561e a5be ceec 8ebe ce60 d63e
00000190: 4e47 24be 4e70 ab3e 62d3 a8be 333c 1a3f
000001a0: b79d 8a3d 2e4d b53e bd10 30bf cfd3 153d
000001b0: 08a4 45bf 4aa8 13bf b5f5 7b3e b35e 08be
000001c0: 2fd8 e33d 31b7 87bd 4949 013e 2109 7f3e
000001d0: 8c94 8cbe 7c9e 73be 863a f7bd 01a4 31bf
000001e0: 496d d13c c946 94bd d085 00be 78bf 1b3f
000001f0: 543b 823e a5f5 e63e 49b4 20be 658e e6be
00000200: c649 1fbe 8bc5 05bf 064e cf3e dc64 88bc
00000210: 8d05 843e b7fd 89be fb0c 1fbf 51da 553f
00000220: 36ac fdbe 7c3e a3be f5fc 893f 97bf bb3e
00000230: fa29 343d ed60 e63d d015 7abd 039a e73e
00000240: d946 233e c02b 8dbf 217f 163f 1b94 8fbe
00000250: dc20 81bd 323e 2dbf cdb8 58bf c437 263f
00000260: ea15 dfbe c0ee 4f3f 9fc4 b53e e4c9 cabe
00000270: e3a7 5ebf f479 a1be 6a66 d1be 1b17 eabe
00000280: 72a8 2abf 8f8c 17bf 9d99 48bf ba6b 973e
00000290: cfe0 1abd 75f6 89bf c286 6f3f 84b2 f93d
000002a0: 31ee a03d 4aba 20bf 6ab4 2b3f b404 843d
000002b0: cca7 173f 98e5 53bf a26a c13e 1d89 6d3e
000002c0: cf72 c0bd 0b4a 033f d73b 9a3e a87d 373e
000002d0: 79a4 1e3e 6cef b7be a73a 953e 7957 06bd
000002e0: 296e 883d 2389 7e3e e21c a63e d40e bbbd
000002f0: 7644 893e bb57 433e e8b7 8fbe b344 223e
00000300: e801 08be 7750 a63e ffc6 c5be 47ac fc3d
00000310: 0b97 9bbd 8236 2abf fb9a 973e 6856 943e
00000320: 1396 31bf a562 81be 86a3 ec3e 4d7e ecbe
00000330: 468c 8a3e 7d59 b43e eb8c 193f d064 673e
00000340: a296 053e 82cb b83e 2fc1 123d ed73 ff3e
00000350: 337e 9cbe 464c 9d3e 24e1 9b3d 01ae 413f
00000360: a5d9 78bb 389e e13d 1deb 03bd 585e 93be
00000370: 0936 103e 053d 71be 313e d83e 9f5d 2f3f
00000380: 3dd1 15bf 05c6 133f 3d27 05bf 9e23 b5be
00000390: 6117 b23f 5d88 94be 8f6d 00bf aa58 fd3e
000003a0: 0fe5 b53e d899 debe 8a1f 1bbf 52dd 4cbe
000003b0: ae2d debc f37f 9dbe d87f e93e 02ca 5abe
000003c0: 194b ae3e c825 d7bd 3b7a 0cbf 0a95 153f
000003d0: f7ce a23e a77a 133d 059c 85be b8e8 cfbe
000003e0: 7892 22bf ff08 3c3e d00b 55bf 9fc2 f1be
000003f0: 1936 b4be 1420 ea3e 2b17 9b3e 5379 e2be

conv4.fc_neigh.weight f4 [16, 16]
0.36098 -0.26296607 0.19609976 0.72223824 0.18116385 -0.022130772 -0.527599 0.5370351
-0.792172 0.98384404 0.039617404 0.47904754 0.110909306 1.5853548 -0.41398597 -0.31264398
-0.6576733 0.21962163 -0.6684146 1.1252117 -0.566593 -0.994714 0.35952887 0.9991363
-0.3273326 -0.51516443 0.04798664 1.3982084 0.7170383 0.23092923 0.44119146 0.61989635
-0.5174569 0.98495716 -0.5831088 0.17026791 0.2883739 -0.46357027 -0.57033837 0.965418
-0.625913 -0.52160984 -0.099101014 -0.19497126 -0.54858667 -0.8991486 0.79401433 -0.39162678
-0.10476423 0.45153284 -0.41641423 0.8006062 0.8131024 0.6650121 -0.5538942 -0.38768223
-0.055198383 0.7038282 -0.6957704 0.087470375 -0.40598434 1.13031 0.23488818 -0.29197004
0.09313886 0.22049838 0.038010906 0.05240234 0.023643645 0.25152272 -0.47444692 -0.6234416
-0.2834724 -0.31199044 -0.8572838 -0.50508654 0.42390874 -0.026571855 -0.05979347 0.14616337
0.4002641 1.5946821 -0.33937323 -0.97856474 0.11439376 -0.3469834 0.7499025 0.812451
-0.044143666 0.36889285 -0.6388372 0.850094 -1.176717 0.46871808 -0.20402357 -0.7921516
-0.36308378 0.92172176 0.409666 -0.80408734 -0.05589995 -0.40741447 0.50293946 -0.79971975
0.28307867 -0.76098984 0.38715464 -0.21668047 1.1171123 0.9875328 -0.36297357 0.7606529
0.85417736 0.6537017 -0.43790132 -0.009783269 -1.7480202 0.70132107 1.7772636 -0.9173379
0.17347546 0.40348527 0.043397028 0.112262845 0.27176824 -0.048834268 0.43505064 0.52187145
-0.47248128 -0.90594566 -1.1652949 0.24683836 0.8340403 0.28510445 1.424133 -1.2579299
-0.14398856 0.29923093 -0.6646774 0.27714145 0.11924254 -0.20115916 0.2942098 -0.41097373
0.057512503 -0.47368857 0.6827033 0.4027545 -1.1188835 0.2468998 -0.5808991 -0.23420212
0.36812153 0.5634807 0.051996224 0.4190449 0.6119908 0.28421545 -0.9443171 -0.30537564
-0.35853094 -0.35469562 0.8132558 -0.9356022 0.09454675 -0.8940364 0.71240395 1.0127561
0.11356945 0.09019391 1.0501527 0.09936874 -0.40967414 0.42103297 -0.81875163 -0.51704913
-0.81619 0.9870366 -0.51965946 -0.43896234 -0.46746048 -1.0269587 -1.5349224 -1.8530803
-0.4574675 -0.34403202 -0.09881958 -0.07358745 -0.16993655 0.9495099 -0.50011504 -0.9114215
-0.10024439 0.84185064 0.020271473 -0.28144947 -0.10271807 1.4968385 -0.53924173 -0.15376253
0.11095521 0.016826147 -0.35343602 1.4287413 -0.46213466 -0.09445065 -0.38874137 -0.030953128
-0.13356522 -0.7339995 0.41208372 0.6589068 -0.861256 -1.0060554 0.18392575 -0.5438092
-0.4458458 0.14889172 0.048547916 1.0713304 0.23714112 -0.73672533 -0.7310526 -1.2028455
0.92670506 0.635311 0.13622932 0.22466572 -1.0445056 0.02942976 0.41932827 -0.98507327
-0.026643101 0.5900948 -0.16987798 -0.8886132 -0.32825163 -0.17216618 0.17797899 -0.10380721
0.25651753 -0.4955369 0.81824046 -1.0950917 0.62226295 -0.2791698 0.7062382 -0.518496
-0.40909973 0.42368507 0.21099934 0.5482271 -0.15648896 -0.14195728 -0.9613751 -0.4923129
00000000: 5fd2 b83e 7da3 86be 60ce 483e 9be4 383f
00000010: 0483 393e 984b b5bc ba10 07bf 227b 093f
00000020: c9cb 4abf 34dd 7b3f dc45 223d b845 f53e
00000030: 6b24 e33d e8ec ca3f f8f5 d3be df12 a0be
00000040: 475d 28bf 7ee4 603e 381d 2bbf f006 903f
00000050: 3d0c 11bf 94a5 7ebf 2b14 b83e 66c7 7f3f
00000060: 2398 a7be d1e1 03bf a48d 443d 7ef8 b23f
00000070: d28f 373f b678 6c3e d9e3 e13e 87b1 1e3f
00000080: 0e78 04bf 2726 7c3f 9e46 15bf b65a 2e3e
00000090: bea5 933e 1559 edbe b201 12bf a225 773f
000000a0: d63b 20bf 3988 05bf 79f5 cabd 8ca6 47be
000000b0: 2d70 0cbf 9a2e 66bf 8644 4b3f 4e83 c8be
000000c0: a18e d6bd 502f e73e 3f34 d5be 87f4 4c3f
000000d0: 7b27 503f 3c3e 2a3f 03cc 0dbf 497e c6be
000000e0: b317 62bd 162e 343f 021e 32bf ab23 b33d
000000f0: 2edd cfbe 00ae 903f 8786 703e 197d 95be
00000100: 96bf be3d 54ca 613e 53b1 1b3d d6a3 563d
00000110: 51b0 c13c 96c7 803e b5ea f2be de99 1fbf
00000120: 4b23 91be 36bd 9fbe f376 5bbf 5a4d 01bf
00000130: 910a d93e 38ad d9bc ffe9 74bd daab 153e
00000140: 6bef cc3e 8b1e cc3f 54c2 adbe 3883 7abf
00000150: 4747 ea3d cfa7 b1be 9cf9 3f3f cafc 4f3f
00000160: fdcf 34bd 86df bc3e d68a 23bf c39f 593f
00000170: aa9e 96bf d1fb ef3e 8eeb 50be 72ca 4abf
00000180: 1ee6 b9be f5f5 6b3f bebf d13e abd8 4dbf
00000190: 59f7 64bd a198 d0be a4c0 003f 6fba 4cbf
000001a0: b0ef 903e 3bd0 42bf 2239 c63e 7ce1 5dbe
000001b0: 89fd 8e3f f3ce 7c3f acd7 b9be 26ba 423f
000001c0: 5eab 5a3f ff58 273f 9a34 e0be 014a 20bc
000001d0: 20bf dfbf c789 333f 607d e33f a8d6 6abf
000001e0: 8da3 313e 9f95 ce3e 15c1 313d 10ea e53d
000001f0: 3525 8b3e 7106 48bd f5be de3e 5e99 053f
00000200: 11e9 f1be 0eec 67bf 6228 95bf 32c3 7c3e
00000210: aa83 553f 36f9 913e fd49 b63f d903 a1bf
00000220: bd71 13be cc34 993e 4c28 2abf 7ce5 8d3e
00000230: 6f35 f43d abfc 4dbe aba2 963e 266b d2be
00000240: 3b92 6b3d 4f87 f2be a5c5 2e3f d635 ce3e
00000250: 9337 8fbf 4dd3 7c3e ceb5 14bf aed2 6fbe
00000260: 6d7a bc3e 4540 103f fef9 543d 0e8d d63e
00000270: 6eab 1c3f b084 913e c4be 71bf 325a 9cbe
00000280: 5e91 b7be aa9a b5be 8831 503f a083 6fbf
00000290: baa1 c13d 92df 64bf 1b60 363f fea1 813f
000002a0: 1a97 e83d 96b7 b83d 676b 863f d781 cb3d
000002b0: cfc0 d1be a291 d73e b599 51bf 555d 04bf
000002c0: d4f1 50bf 6eae 7c3f 6708 05bf acbf e0be
000002d0: fb56 efbe 6273 83bf 5678 c4bf bc31 edbf
000002e0: 2e39 eabe f724 b0be ec61 cabd 04b5 96bd
000002f0: d903 2ebe 1513 733f 8a07 00bf eb52 69bf
00000300: ee4c cdbd 8683 573f 5c10 a63c 251a 90be
00000310: da5d d2bd 6798 bf3f bf0b 0abf ed73 1dbe
00000320: 7c3c e33d fdd6 893c 91f5 b4be ffe0 b63f
00000330: ea9c ecbe 586f c1bd 1c09 c7be 6a91 fdbc
00000340: 52c5 08be 64e7 3bbf a3fc d23e 1eae 283f
00000350: 467b 5cbf 6cc6 80bf 0857 3c3e 1437 0bbf
00000360: e745 e4be 1277 183e 2eda 463d 5b21 893f
00000370: 1fd5 723e 089a 3cbf 4326 3bbf d7f6 99bf
00000380: 8b3c 6d3f bea3 223f b37f 0b3e c50e 663e
00000390: 5cb2 85bf ae16 f13c 32b2 d63e c32d 7cbf
000003a0: a242 dabc 7410 173f 7ef4 2dbe 287c 63bf
000003b0: 9910 a8be 554c 30be 2040 363e e098 d4bd
000003c0: 4456 833e 03b7 fdbe 3578 513f f72b 8cbf
000003d0: a04c 1f3f 58ef 8ebe 07cc 343f 27bc 04bf
000003e0: 8575 d1be 40ed d83e 3610 583e 9c58 0c3f
000003f0: a43e 20be 405d 11be ae1c 76bf 7010 fcbe
