model.pth (torch, 31873 bytes, 12 tensors)

conv1.bias f4 [16]
00000000: a076 223c c831 ac3c fe54 dfbc 8579 7b3c
00000010: 6985 88bb 7725 dcbc e1ae 563c 1fc0 a4bb
00000020: 0772 ab3c 7f48 66bc 4c86 0cbd 5ef3 d13b
00000030: 8671 ecbb d705 88bd cce0 9dbd adb2 ec3b
0.009915978 0.021019831 -0.027262207 0.015348797 -0.0041662944 -0.026873333 0.013103218 -0.0050277854
0.020928396 -0.01405537 -0.034307763 0.0064071855 -0.0072156815 -0.06641739 -0.07708892 0.0072234483

conv1.fc_self.weight f4 [16, 170]
00000000: 03f5 36be a10c 4bbe 3ff4 193e ba9f 5dbd
00000010: 3766 a9be fa2e 33bd da3f 2dbe 3499 4dbe
00000020: 3552 c3bd a35a 7cbe 6344 6d3d 79ea 293e
00000030: 332f e63c 5dcf dd3d d9c7 263d 7dff 423e
00000040: b0c9 b8bb f831 da3e 5891 30be 1342 27bc
00000050: f860 e13d 968d ccbd 122f 8cbe 0d84 c3bd
00000060: 086b fc3d 9c49 873d 3984 83be e555 40be
00000070: 0c49 1b3b b8d6 7a3e d7a5 c33d cf58 9f3e
00000080: e58c 213e 8e09 9bbd 4d55 0cbd f2a6 afbd
00000090: f08a 60bd ff80 ae3d 913d e33d f8db d9bd
000000a0: 5ea7 01be 73f4 e6bc 680a 093e eeb4 3d3b
000000b0: 63c6 df3c b59c ee3d b235 dcbc 09be 12be
000000c0: 4db4 02be 2ef4 e63c b98a 09bd 494c 01bc
000000d0: 6228 80be 3cd4 1fbe 2441 a0bd 5be8 fcbd
000000e0: f1c4 043e 3a82 033e ad52 82be f75f 09be
000000f0: eb8a 82bd e9de 8abd 6f73 32be 9270 253c
00000100: 9dd1 30bd 76ea b83e 9855 aabd 3681 21bb
00000110: 2caf 023e 7f63 d63e 5abb e7bd 3bf7 c23c
00000120: 0883 8bbc 3b05 653d c6e6 e13d ff34 b63d
00000130: 33d7 253e 2b08 733d ec33 f73a 7b8e 1abd
00000140: 1f47 92bd f931 463d b738 613c 4dba b5be
00000150: 5b9b 18bd cfce ce3d 57b4 e9bd 0e60 a9bd
00000160: f02d 563d a463 0e3e 67cf ed3d 20ea 13be
00000170: 5664 1dbd fc33 08bd cdd0 033d c095 12bd
00000180: 96ca 923d 4869 81be c487 05be 57a7 0ebd
00000190: 1226 88bd 63c3 073e 542f e8b9 16d9 89be
000001a0: 9a6d 11bd e85a 123d c346 4f3d 7f9e 853e
000001b0: 51ec 723e 800d adbd fd27 00be 8717 51bd
000001c0: f751 acbc 5b6d 08bb 2b2e 7d3d ff73 723e
000001d0: e7ff 593e c12b adbd d32a 8f3e ba16 27be
000001e0: 6096 e2bb cc3d 763d 7688 5a3d 3c85 9a3e
000001f0: e98d f8bd 913d 003e 6990 e43c 43f3 15bd
00000200: 68b6 2b3b b661 f33d e6fa bf3c 00ee a9bd
00000210: c4d7 733d 2727 b6bd ec85 b8bd b506 543e
00000220: 5362 32be 5852 2d3e 623c e33c 5a9e 743c
00000230: c9de 8b3c 9912 173e a4a3 32bd 01e0 f13d
00000240: cba3 35be 4743 9cbd cfc4 fc3d 86f7 123e
00000250: bb56 b2bd ba10 b0be 6ba4 b8bd 4733 b23d
00000260: 8a9d 5ebc b5fd d2bc e683 a4bb 9bbe 153c
00000270: 7a1a aebd 46e9 1abe d8e1 0c3e 5565 ea3d
00000280: e2dc 873e 5d1d 77be ff2f 9cbe 2520 0ebe
00000290: 4b30 26bd 5a2b 0bbe 6e7c 31bd c633 81be
000002a0: cfa9 b7bd 03e0 9abd e681 9d3e 843f 693e
000002b0: ea3e a2bb c3ea f9bd 91e1 a13e 78fb 223e
000002c0: de1b e63d d7dc d53c 2ece 453e ee19 d83e
000002d0: 0de8 f23e ef9c aabc ef91 05be 8b31 053e
000002e0: 56ce ca3c f87d ee3b 96b0 dcbd 915e 7a3d
000002f0: 8617 8cbd daf4 07be f14f 983d 5bbe 1ebe
00000300: d0a5 8ebe bf68 e93c 4d9c eb3c 5e46 18bd
00000310: 93d0 a4be 2177 35bd b30b af3d 5d41 b23e
00000320: 6b25 57bd 4e22 03bc 7ce6 33be 175d ffbd
00000330: 9062 013e b7b8 133c 69fa ed3c c080 21be
00000340: 49e5 84be 2697 cd3d 64c8 cc3d ec02 db3d
00000350: b51b 3a3d fa63 563d 8dc5 63be 3185 b33c
00000360: 31a1 293d 87d7 3a3e bb6f 90be 18bf b1bd
00000370: c8e2 37be 00eb 20bc 2c65 dd3b a993 6cbd
00000380: ce78 44be 6cc7 2abe 7b26 68be 122a 98bd
00000390: d0f1 613e dd3d 29bd b055 a03d 8344 3dbe
000003a0: 4bdc 05be ca96 533d 8d69 a7be 4cfd d7bd
000003b0: 290e c4bc 629c 09be b282 a33d 1fbb 60bc
000003c0: 5917 ccbd baec c43e 4cfe 403e 4a0c f1bc
000003d0: bb9f f2bd c1e2 63bc 5dce 073d 9e61 8bbd
000003e0: 21d0 783e 427b 173e be8d b23c ee82 01be
000003f0: ce5b a03d 58e0 273e 7590 d83d 1264 963e
-0.17866902 -0.19829036 0.15034579 -0.054107405 -0.33085796 -0.043745972 -0.16918889 -0.20077974
-0.09537164 -0.2464395 0.057926547 0.1659335 0.028098678 0.10830567 0.040717933 0.19042774
-0.0056392774 0.42616248 -0.17242944 -0.010208624 0.110048234 -0.09987943 -0.27379662 -0.09546671
0.12325102 0.06605837 -0.25686815 -0.18782766 0.0023694662 0.24495971 0.09553116 0.31122443
0.15776403 -0.07570182 -0.034261037 -0.08576764 -0.05482 0.08520698 0.11095727 -0.10637659
-0.12661502 -0.028192734 0.13382876 0.0028946954 0.027316278 0.11650983 -0.026881073 -0.14330305
-0.12764092 0.028192606 -0.03357956 -0.007891723 -0.2503081 -0.15608305 -0.078249246 -0.12349006
0.12965752 0.12842646 -0.25453702 -0.13415514 -0.06374153 -0.06780798 -0.17426847 0.01009764
-0.043168653 0.3611638 -0.08317107 -0.0024643666 0.12762135 0.41872784 -0.11315031 0.02379953
-0.017030254 0.05591319 0.11030345 0.08896827 0.16195373 0.05933396 0.0018860078 -0.037733536
-0.071424715 0.0483875 0.013746432 -0.354937 -0.037257534 0.10098039 -0.1141135 -0.08270274
0.052289903 0.13905197 0.116118245 -0.1444478 -0.038425766 -0.0332527 0.03218155 -0.035787344
0.071675465 -0.25275636 -0.13040072 -0.034827556 -0.06647886 0.13258128 -0.0004428575 -0.26923436
-0.035504915 0.035731226 0.050604593 0.26097485 0.2372296 -0.084498405 -0.12515254 -0.051047828
-0.021035178 -0.0020817134 0.061811607 0.23677061 0.21289025 -0.08455611 0.2796236 -0.16317263
-0.0069148988 0.060117528 0.053352796 0.30179775 -0.12136442 0.12523486 0.027900891 -0.036608946
0.0026201252 0.11883871 0.023435067 -0.08297348 0.059531942 -0.088941865 -0.090099186 0.20705684
-0.1742032 0.16925943 0.027738754 0.014930332 0.017074006 0.14753188 -0.04361309 0.118103035
-0.17738263 -0.0763002 0.12342226 0.14352235 -0.08707949 -0.3438776 -0.09015735 0.087011866
-0.013587365 -0.025755743 -0.0050206063 0.009139682 -0.08501144 -0.15128049 0.13758028 0.11445109
0.26535708 -0.24132295 -0.30505368 -0.1387945 -0.0405734 -0.13590756 -0.043331556 -0.25234812
-0.08967935 -0.07562258 0.30763167 0.22778136 -0.0049513476 -0.1220298 0.31617406 0.1591624
0.11235784 0.026106281 0.19316933 0.42207283 0.47442666 -0.020826785 -0.1304395 0.1300718
0.024756592 0.0072782002 -0.107758686 0.06112534 -0.06840424 -0.13276997 0.074371226 -0.15502302
-0.2786088 0.02849233 0.028761053 -0.037176482 -0.3219038 -0.044303063 0.08547153 0.34815493
-0.05252592 -0.008003784 -0.17568392 -0.12468927 0.12635255 0.009016207 0.029050069 -0.1577177
-0.2595618 0.10038595 0.09999159 0.10693917 0.04543658 0.05234144 -0.22243328 0.021914097
0.04141349 0.1824628 -0.28210244 -0.08679026 -0.17957604 -0.009821653 0.0067564454 -0.057758007
-0.19186708 -0.16677636 -0.22670929 -0.07429899 0.220649 -0.041318763 0.078288436 -0.18483166
-0.13072316 0.051657476 -0.32697716 -0.105463594 -0.023932533 -0.13438562 0.079839125 -0.013716488
-0.09965391 0.38461858 0.18847007 -0.029424805 -0.118468724 -0.013909043 0.033155788 -0.068057284
0.24298145 0.14793113 0.021796104 -0.12647602 0.0783001 0.16394174 0.10574428 0.29373223

conv1.fc_neigh.weight f4 [16, 170]
00000000: 8024 893e afdd cebd 6375 05be f9ca e33d
00000010: 0bd0 973c 878b b63d 5263 14be bf6b 9ebd
00000020: 3aa7 35be bf8d fc3d 5872 02bd 159d 38bd
00000030: 3f59 8fbd b18d 963e 3cc5 2bbd 052b 4d3e
00000040: c930 b1be e71c 82bc 29b2 9e3e d2dd a43d
00000050: 3601 e7bb da0f bcbd 7010 35be 9774 323e
00000060: f33f 263e c812 2fbe 0083 10bf bb95 4abe
00000070: 7bec afbd dd14 ac3e de88 a03e f9e9 993e
00000080: df83 68bd 3604 d4bc 372d cb3d abd3 b6bb
00000090: b3e4 903e 4659 8a3e 574f 9d3e 96e9 a33d
000000a0: fb31 703d a9ec 4b3e 60c7 463e 2f5a 403d
000000b0: 4914 83bd bcb5 3b3e 8418 bf3e fb11 50bd
000000c0: 0319 a3be 143d 493e ed4e 1ebe 04d1 b2be
000000d0: 847b abbe ec24 e7be 9daa 6a3d 7040 85be
000000e0: 8efe 123e 6164 4c3e ab8c b0bc a174 89be
000000f0: 3ead 093b f50e dabc a56d c9bd 6f6b 923e
00000100: db06 ecbc 3f76 513f 3e0f ac3d 5d20 bfbe
00000110: d0a2 1dbe 52b2 973e 868e 4abe f340 b3bc
00000120: 917c c5bd 8fa3 83bd 4358 623e c9f0 393e
00000130: 92ed 053e 32de 4abe a06d 20be 6d9b 77be
00000140: a88d 70bc 0c78 2e3e 045c 353c c178 7a3e
00000150: a3bf 763e 346f 073f 424f 1bbd 682d 073d
00000160: ebb3 933e 28be 57be 23e7 7a3e 6c60 fdbd
00000170: 2688 0a3e 11f5 543e f940 f33d 5a7a f9be
00000180: 8615 493e 10c5 e9be 4cfa 9d3c 3c0d e9bd
00000190: 897a b4be ed42 e23e 846b 983d 5bbb 3c3c
000001a0: fbd3 b23d 8c8c abbc 43e9 e1bd 6460 ca3c
000001b0: 930a ef3d 54f5 a2bd 89eb eb3d 57c6 d43e
000001c0: 7ddd 8b3e bf04 58bd 3b59 323d 4f05 553e
000001d0: 3afb c8bd 0d94 99be f837 913e 9d19 ec3d
000001e0: 478e 3e3e 5cfa 03be 3857 ffbb a376 ea3d
000001f0: 7f8d 013e c0ba c03e 45d4 1a3e 77ca 853e
00000200: 3bcb 103d 9d5d 3d3d f2b7 a13a 3ad0 573e
00000210: 4b9d a43e 7ed0 563d 18d4 9f3d 553f f83e
00000220: 9256 bebe 3fb9 2f3e 1565 4a3e eed1 b43e
00000230: 7a90 e53d c2af e93e fa7d 883e a53e dfbb
00000240: 2749 c63e 91b2 cd3c 1123 423e 179f 8bbe
00000250: 764f f6bd d7d8 523d 970d 4dbe 941b f3bd
00000260: 82c6 a1bd ff5d f0bd f44a 293d 57c4 ecbd
00000270: d6c0 e5bd e3e1 05bd 8284 94bd 750c 7bbe
00000280: 2e83 5fbd 718c 6bbe 6a4f ccbe 6c71 e63d
00000290: 16ab 93bd 783c 95be 93d2 a0bc 003c 6bbe
000002a0: 9c61 193d 2069 2dbc 34b6 e63d 7f7a a73e
000002b0: ed7f 96bd 5c7d 94bd 31d0 e13d 2328 98bd
000002c0: c7cf 483d d13e 4cbd 65d2 af3d be19 ff3d
000002d0: 301b b93e d32d 84bc 3b61 473d e923 6abe
000002e0: 80ea 0dbc 3efb 1c3e 2612 a2bd 6211 343e
000002f0: cf42 bebe 4ecf 7dbd a02a 21be d91d bdbd
00000300: 2211 06be 32be bcbd 67fe 933c f394 943d
00000310: 146e 55be 0710 a8be 4bd8 56bd 2cce 123e
00000320: 95d9 09be 3506 e6bd 7ea6 883d 65ef 62bd
00000330: 62d2 1cbd bc69 acbd b2d9 1abc d53c 95be
00000340: cfd7 09be 9a4d 813d f385 d8be 63c8 b6be
00000350: 86ac e1bd b7b3 cc3c e966 b0be cb16 f8bd
00000360: 5d83 483e cf62 b43d 8a38 8abd b3c0 66bd
00000370: 00b1 eb3b 7c58 d93a 3ef5 893d 830c 023e
00000380: 8120 96be a331 f73c be6e d4bd 6e76 cf3c
00000390: 958c 11be fc2f 86be 75bb ca3d d533 323e
000003a0: 84da 69be a96c 99be 2336 70be 6f10 4dbd
000003b0: 0bb8 2bbe 9989 f63c badb 503e b992 3c3e
000003c0: 457c 2a3d 1c32 94bd eaa5 133e 9d12 4bbd
000003d0: d8c7 1e3e 4027 553d c967 e23d be67 1aba
000003e0: e45a f6bd 9534 79bd dd93 23be a961 03be
000003f0: 846c 813e cf89 573e f87d 093e 7b25 98bc
0.2678566 -0.101008765 -0.1303306 0.11122698 0.01853182 0.089133315 -0.14491013 -0.07735395
-0.17739573 0.123317234 -0.031847328 -0.04507168 -0.06999444 0.29404977 -0.041936144 0.20035942
-0.34607533 -0.015882922 0.309953 0.08050121 -0.007049705 -0.09182711 -0.17682052 0.17427288
0.16235332 -0.17097008 -0.5644989 -0.1978368 -0.08590027 0.33609667 0.3135442 0.3006132
-0.056766387 -0.025880914 0.099207334 -0.005579432 0.28299484 0.27021235 0.30724594 0.08003537
0.058641415 0.19914497 0.19411993 0.046961006 -0.064003535 0.18331045 0.3732339 -0.050798398
-0.3185502 0.19652206 -0.15459795 -0.3492509 -0.33492672 -0.45145357 0.057291616 -0.26025724
0.14354917 0.19960167 -0.02155145 -0.26846793 0.0021007801 -0.02661846 -0.09835366 0.2859759
-0.028811863 0.81821054 0.08401345 -0.3732938 -0.1539414 0.29628235 -0.19780931 -0.021881556
-0.096429 -0.06427681 0.22103982 0.18158258 0.13078907 -0.19811323 -0.15666819 -0.24180384
-0.014682211 0.17037982 0.0110693015 0.24460126 0.24096541 0.5290406 -0.037917383 0.033002287
0.28848204 -0.21068633 0.24502234 -0.12371907 0.13528499 0.2079661 0.11877627 -0.4872616
0.19637117 -0.4565816 0.01928439 -0.113794774 -0.35249737 0.44191685 0.07442382 0.011519278
0.08731838 -0.020941041 -0.11030819 0.024704166 0.11671939 -0.07956949 0.11519534 0.4155757
0.2731742 -0.0527389 0.043542128 0.20802806 -0.09813543 -0.29995766 0.28363013 0.11528323
0.18608962 -0.12888473 -0.0077923797 0.114484094 0.12651633 0.3764248 0.15120037 0.2613103
0.035350066 0.046231855 0.0012338145 0.21075526 0.32151255 0.052444927 0.078041255 0.48485819
-0.37175423 0.1716051 0.19765122 0.35316414 0.11209197 0.45641905 0.26658612 -0.0068128877
0.38727686 0.025109561 0.1895869 -0.27269813 -0.12026875 0.051476326 -0.20024715 -0.118704945
-0.078991905 -0.11736678 0.041331246 -0.11560886 -0.11218421 -0.032686125 -0.07251836 -0.2451647
-0.054568462 -0.23002793 -0.39904338 0.11252102 -0.072103664 -0.29147696 -0.01963166 -0.22972107
0.037446603 -0.010584146 0.11265221 0.32710645 -0.07348619 -0.07250473 0.110260375 -0.074295305
0.049026277 -0.049864594 0.085850514 0.12456082 0.36153555 -0.016135132 0.04867671 -0.22865261
-0.008661866 0.15330216 -0.07913618 0.17584756 -0.37160346 -0.06196528 -0.15738916 -0.092342086
-0.13092473 -0.092159644 0.018065644 0.07254972 -0.20842773 -0.32824728 -0.052452367 0.14336461
-0.13461907 -0.11231653 0.06672381 -0.055404086 -0.038286574 -0.08418605 -0.009451317 -0.29147974
-0.1346123 0.063136294 -0.42289695 -0.35699758 -0.11019234 0.024988038 -0.34453514 -0.121137224
0.19581361 0.08807909 -0.06749065 -0.056336116 0.007192731 0.0016582157 0.06736229 0.12700085
-0.29321674 0.030175036 -0.10372685 0.025325026 -0.14213784 -0.26208484 0.09899036 0.17402585
-0.22837263 -0.29965714 -0.23458152 -0.0500645 -0.16769426 0.030094909 0.20396319 0.18415345
0.04162242 -0.0723612 0.1441876 -0.049578298 0.15505922 0.052039385 0.11054952 -0.00058900926
-0.12029055 -0.06084116 -0.15974374 -0.12830223 0.25278103 0.21048664 0.1342696 -0.01857256

conv2.bias f4 [16]
00000000: bb1a ecbd f61a 8c3e 2c13 26be 68d1 d83c
00000010: d186 8e3e 1898 283e 5db2 35be f8d0 59bd
00000020: f1f1 7c3e 5f7b 5e3d 165b fe3d 8544 02be
00000030: a969 ebbd 38f0 323e 7494 6b3d 1c28 583d
-0.11528536 0.2736432 -0.16218251 0.02646704 0.27837232 0.16464269 -0.17743821 -0.053177804
0.24701668 0.054316875 0.12419717 -0.1272145 -0.114947625 0.17474449 0.057514623 0.052772626

conv2.fc_self.weight f4 [16, 16]
00000000: 6672 81be ac8d 1cbe d01c 71be 9ba6 65be
00000010: feb9 923c 4232 ae3e 4c27 3a3e a2c6 2ebe
00000020: 3733 153e de5f 3b3e eff1 0a3f 12da 0ebe
00000030: 37c2 a1bd a6c5 ad3d d531 08bd 2691 9f3e
00000040: 96f7 623e 7a44 ae3d fe3c 0ebe cb6f 73be
00000050: ca23 fa3d 2f3b 8bbd a1b4 d93e f971 1cba
00000060: cef2 29be 0af7 c03c 4e41 c9be 0960 1d3e
00000070: 5aa0 c8be b0b2 e7be 1297 143e 3ac0 123d
00000080: 8e0a 0c3f d9da c73e cc55 7fbe 0ffb e13d
00000090: c96c 1b3d 41fd 77bb 8aac 9b3e 371b b6be
000000a0: aa97 42be 8a01 a43e 5c95 84be 4e7e 34be
000000b0: da28 e53e f39c 52bc 61ee 153e e9a7 f23c
000000c0: d4d1 cc3e 18f3 993e 4b2f 843e 31ba 48be
000000d0: 1224 b73e 5bc5 cbbe 2314 1a3e fa22 0bbf
000000e0: 42a0 7d3e 1fac a63e 4988 dcbe fa05 aabe
000000f0: 5640 69bc b54e f7be f67e 1dbe 22d5 cdbe
00000100: d976 04bf 2ddd e83d 4898 69be f378 2a3e
00000110: 7895 e9be ff5f 77be ba57 7dbe 0458 6cbb
00000120: a801 1bbe 6f77 7bbb da1e b93d 33ac c8be
00000130: 855c 903e f9e9 ae3d 558d cfbe 39a9 5ebe
00000140: 539e d2bd e054 583e b979 973e 283d d53e
00000150: abb8 cf3c 501c 2dbe 84b7 ab3e 93c4 703e
00000160: c21a 153e 606d aa3e 34cb d93e 2dfc 92be
00000170: 488b ff3d cf39 043e 3bad d3bd d86f 5abe
00000180: 8302 453e 4e54 77bd fead 6fbd e323 cdbe
00000190: e5bc 16be 26c9 943e 1709 0fbd 8785 d3bc
000001a0: 8b04 2abe b040 8b3d cb41 47be 364f 93be
000001b0: a4e4 01bf e152 92be a09a 013e 47e6 02be
000001c0: 8e92 1dbe f8c2 7bbb 7c15 25be f5a8 493e
000001d0: 34c1 c73d efab c53e 15ca b93e 445f 6bbe
000001e0: c891 82be 8653 ccbe a08b a43d 2a53 72be
000001f0: fc3a bfbe 85a6 58be dcbb 843e 05bb bb3e
00000200: 1bfc bf3e daa5 38be d6e5 13be 2802 6e3e
00000210: a899 8cbe f792 10bf a5b2 0a3f 6a4f a03b
00000220: d789 ac3d c66d b33e 2de8 9e3e 5c09 c8be
00000230: 9d88 253c c90f 183e 6ed2 4c3d a81f 723e
00000240: e166 823e 633b ccbe 7f48 45be 112d ac3e
00000250: f14f 0dbe 37d8 213e 372f cebd 8c51 153f
00000260: 0de1 9c3e 0b5c 43be 2e13 98be d192 3f3e
00000270: 6086 b3be 3f26 893e 70be 933b 72a5 963e
00000280: 1fff a53e c8f6 043d 21a3 29be baaa 42bd
00000290: 7789 ae3d b5bd 863e 0693 18be 6d67 4dbe
000002a0: 281f f33e 5ad4 acbe e571 b6be e476 093d
000002b0: 0920 533e 305d d6bd 2002 d8be 44f4 03be
000002c0: b70b f63e 7a2a a6be 32cb 70bd dc02 1a3e
000002d0: fc20 4b3d 8495 a83c 9360 bf3e c659 ab3d
000002e0: 1ccd b8be a9b5 c33d ed2b b13e 1dd3 b0be
000002f0: 5d47 32bd 9072 6e3e 5692 a7be 0e0f e63e
00000300: 5c5b ae3d eaef febe a0c9 aa3e 2dc5 0fbf
00000310: c3cc c93e 0bb0 d43e 91ab 01bf 37be d3be
00000320: 3d42 0bbe a96e 0bbd 071d ca3e 4467 38bc
00000330: 65b0 903e bfb6 19be 36eb 8abd ca9c 053e
00000340: 6add 363d 5c24 cb3c b543 8ebd d211 7bbe
00000350: 82a4 b6bd 0e41 d7be 3a61 a6be 5101 8dbe
00000360: 1df9 ab3e 413f b43e 1926 8f3e f627 ba3e
00000370: 40c3 cbbd 8a01 113e b5ba 82be b41e 4c3e
00000380: 7ea2 f63d 4675 2a3e 50eb 493e 9fbe 013f
00000390: 265f 283e f6c1 853e ec49 aa3d 984d 5a3e
000003a0: 32e6 a83d ff4b 42bd d2f2 343e 1ad7 4ebd
000003b0: 0e26 023f 45ba d83e 2c45 a63d 5e26 163c
000003c0: 6034 e03e e9cb abbe 1d93 423e daa1 a7be
000003d0: 7a87 d83e 38b9 163f 28cd fd3e a6b9 b43d
000003e0: d2df 5dbd 039a d0bc 15f1 c03d af32 423e
000003f0: be56 bd3d f9f3 c13e 2634 d63e 77b9 dcbd
-0.25282592 -0.15288419 -0.23546147 -0.22426836 0.017910954 0.3402272 0.18179053 -0.1706796
0.14570318 0.18298289 0.5427541 -0.13950375 -0.07898372 0.08484964 -0.03325065 0.31165427
0.22164759 0.085091546 -0.13890454 -0.23773114 0.122138575 -0.06798398 0.4252062 -0.0005967911
-0.16596529 0.023555297 -0.39307636 0.15368666 -0.3918484 -0.45253515 0.14510754 0.035827853
0.54703605 0.39034155 -0.24935073 0.11034214 0.037945542 -0.003784016 0.30405074 -0.35567638
-0.19003168 0.32032424 -0.25895202 -0.17626306 0.4475773 -0.012854802 0.14641716 0.029621081
0.40003836 0.30068278 0.25817332 -0.19602276 0.35769707 -0.39799008 0.15046744 -0.54350245
0.24768165 0.32553193 -0.43072727 -0.33207685 -0.01423653 -0.48302236 -0.15380463 -0.4020167
-0.5174385 0.11370311 -0.22811997 0.16647701 -0.45621848 -0.24157713 -0.24740496 -0.0036063204
-0.1513735 -0.0038370749 0.090390876 -0.39193878 0.28195587 0.085407205 -0.40537515 -0.21744241
-0.10284104 0.21126127 0.29585055 0.4164822 0.025356611 -0.16905332 0.3353845 0.23512487
0.14560989 0.33286572 0.42537844 -0.2870802 0.12477738 0.12912677 -0.103357755 -0.21331728
0.1923924 -0.060383134 -0.05851554 -0.40066442 -0.14720495 0.29059714 -0.034920778 -0.025820507
-0.16603296 0.067994475 -0.19458692 -0.2877137 -0.507395 -0.28578857 0.12656641 -0.12783156
-0.15387937 -0.003841577 -0.16121477 0.19693358 0.097536474 0.38607737 0.3628699 -0.2298556
-0.25501847 -0.39907473 0.08034444 -0.23664537 -0.3734969 -0.21157272 0.25924575 0.36666122
0.3749703 -0.18032017 -0.14443144 0.2324301 -0.2746098 -0.5647425 0.5417884 0.0048922794
0.08424728 0.35044688 0.3103651 -0.3906964 0.010103372 0.14849772 0.05000537 0.23644888
0.25469115 -0.39889058 -0.19265936 0.33628133 -0.13800026 0.15805136 -0.10067599 0.58327556
0.3064045 -0.1907808 -0.29702133 0.1870835 -0.35063457 0.26786992 0.004508786 0.294231
0.32421204 0.03246191 -0.16566135 -0.0475261 0.08522313 0.2631661 -0.14899835 -0.20058985
0.47484708 -0.3375576 -0.3563377 0.03356065 0.20617689 -0.10466993 -0.4218912 -0.12886149
0.48055813 -0.32454282 -0.058787532 0.15040153 0.049592003 0.020579107 0.37378368 0.08366732
-0.36093986 0.09556133 0.34603825 -0.34536067 -0.04352509 0.2328589 -0.32728833 0.4493336
0.08513519 -0.49792415 0.33356953 -0.5616024 0.39414033 0.4154056 -0.50652415 -0.4135606
-0.13599487 -0.03404108 0.3947527 -0.011255089 0.28259578 -0.15011118 -0.06783144 0.13048092
0.04464475 0.024797611 -0.06946508 -0.24518517 -0.08918096 -0.4204182 -0.32496053 -0.27540067
0.33588496 0.3520451 0.27958754 0.36358613 -0.0994935 0.14160743 -0.2553307 0.19933587
0.12042712 0.16646299 0.19718671 0.5068149 0.16442546 0.26124543 0.08314881 0.21318662
0.08247031 -0.047435757 0.17670754 -0.050498106 0.50839317 0.42329612 0.08118662 0.009164421
0.4378996 -0.3355401 0.19001432 -0.3274067 0.4229086 0.5887637 0.49570584 0.08824472
-0.05416853 -0.025464064 0.09420983 0.18964647 0.092450604 0.3788145 0.4183666 -0.10777562

conv2.fc_neigh.weight f4 [16, 16]
00000000: 6541 b5be 15d0 b33e 3a64 813e 6840 c53e
00000010: 0e66 03bf e383 053f 0b27 323e 2454 2d3e
00000020: 6040 193f 0249 16be 11a0 ab3e cd1a 63be
00000030: 3c40 473c a672 95be edca 20be 6f6c abbd
00000040: 02e1 643d 689f f2bd ee27 08bf ac7f 093f
00000050: 988c 80bd 94f7 76be 54fc 5fbd 0ae3 303f
00000060: 587e 173f 6fe4 e1bd a2ce f13d cbbd c33d
00000070: 294f eb3e 0af8 573e 4bdb 33bf 887f 363f
00000080: 96f9 1c3f e99f 323f a850 d6be 11eb bfbe
00000090: 154e 7d3e 8f01 133f f96e eabe 2121 bcbe
000000a0: b2c5 b73e 8847 b7be 36d5 e6be 2b3c 2cbf
000000b0: 8243 48be 5f2c b8be 7247 ae3e d92f 333e
000000c0: 9aa9 333f 75a0 6ebe 3d8a f13d 1d02 2dbd
000000d0: 0886 643e f13f cdbe 937f b6be 1a9d fcbd
000000e0: 9cd0 48be aba3 243f ef8c b6be 30e6 a3bd
000000f0: 832f c1be a08f 143e b8e0 acbd e4c1 f9be
00000100: 8df7 673e a464 f53e c0e1 d2be aa67 44be
00000110: d103 d43e 2d52 66be ffc3 9b3e a7ac 75be
00000120: 15ac 57be 9ac9 e93e 253b 61be 710b bfbe
00000130: bb0f e73e 5288 143e 51c7 7cbd f0c1 d0be
00000140: eea8 c3bd 4047 f2be f69e 153f da1d 113b
00000150: 74cd a53e ed9d 533e d1b9 9fbd e1a1 a33d
00000160: 4e23 78be e9ba d2be 7fee 933e 81de ac3e
00000170: 71db 2dbf 0128 a6be 8a69 f93e 7de6 06bb
00000180: 6462 1b3e cc84 03bf cadf 1c3d 66db a5be
00000190: 8e7a d6be 0b58 ba3e ae4a 81bd ae40 703d
000001a0: d92f 21be df22 44be 841d fabd 2c87 aebe
000001b0: ac42 fdbe 4333 83be 1053 98be 6f49 78be
000001c0: c24f 743e bdca 51bc 8398 af3d d0da 8a3e
000001d0: 056a 9abe 7b50 4c3f f6f3 1d3f 402b b9be
000001e0: 7e92 0bbf cb4a 03bf b38e a1bc a844 3cbf
000001f0: a904 5abe a487 29bd 5fca bf3e 707c ae3e
00000200: e178 3c3f 0f39 483e 2b25 663d af74 f13e
00000210: 84a1 453b 9a0d 34bf 1285 07be bd3b bfbc
00000220: 740d 07be f421 01bf 5bd2 4fbf f728 d4be
00000230: 008e d8be 3bfa 933e 81c1 843e 276b 9b3e
00000240: 60db 1a3f d2e5 7abe 4355 2bbe 537a 043f
00000250: 6b35 693e fb84 95be d1db cc3d b8d0 94bd
00000260: 4ccf d9be 95f3 eb3d 22a0 edbe e7ef d7bd
00000270: eed5 8abd 254b 10bf 1cf5 0bbf 9f1e 393f
00000280: 55ee b23d 27d6 b43e f23f 99be bcca 183f
00000290: 269d 32bf 52a1 933e dfd2 6b3e c9e2 13bd
000002a0: 45d6 ce3e cbab c1bd a358 8c3e 7059 b5be
000002b0: 14cb 96bd 3bdc eebd 741a 803e 206e 8e3d
000002c0: 43df 16be 1c7c d53e b8b5 19ba 20bc f53e
000002d0: 92b4 18be efb6 e2bd 30bf c63d ebc9 80be
000002e0: 5ab8 a33e a070 6c3e 7b08 a0bc 4859 c33d
000002f0: 7540 55bc 3d4c 31be 43e0 1e3d 248c 943d
00000300: ba67 853e 1f6f 83be e7de 8dbe b434 15bd
00000310: 7423 e03e 5ace 263c 0139 24bf 0e0a 023f
00000320: 92ae 18bf 7aca f4be 27bb 27bd 2a49 473f
00000330: b81c d0be d1f1 3ebd 6bba 433e f2ad 3abe
00000340: ea1b 3f3f e9c9 97be b610 de3e 684d fbbe
00000350: df90 b6be 5c62 cebe 4944 de3c 33c9 f13e
00000360: a5ac a9bd afca d3be c6cb f7be d2e0 1f3f
00000370: 16b6 37bf 64d1 35bf 54d6 10bf e4c2 a8be
00000380: c7cc 1dbf adcb 6f3e fc2a 02bf d2bc 3c3e
00000390: 8b5c 023f cc4a 06be ebe1 a6be b2e8 6fbd
000003a0: 8850 eeb8 6b81 9e3d 37af 5cbe 2559 e83e
000003b0: 946f c53d b3cd aa3d e07a 38bf 742c 983e
000003c0: 783b 00be 453f ed3e 3fdd eb3e 6b6e 1d3f
000003d0: 8dd8 323f 5ffb 923d e8b3 0e3f 2b9b aa3e
000003e0: c531 d4be 987b c53e d421 44be 87bc 763e
000003f0: 9e3f afbe a3a6 b8be 29df 233f 2768 05bf
-0.35401455 0.35119691 0.2527178 0.385257 -0.513276 0.5215437 0.17397706 0.16926628
0.59863853 -0.14676288 0.33520558 -0.22178192 0.012161311 -0.29189032 -0.1570241 -0.083702914
0.055878647 -0.118468106 -0.5318593 0.53710437 -0.06276816 -0.24117881 -0.054684 0.69096434
0.5917716 -0.110298984 0.1180699 0.095576845 0.45958832 0.21090713 -0.7025649 0.7128835
0.6131834 0.69775254 -0.4185841 -0.3748403 0.24736817 0.57424253 -0.4578779 -0.36744025
0.35893017 -0.35796762 -0.45084542 -0.6727931 -0.19557002 -0.35971352 0.34038883 0.17498721
0.70180666 -0.23303397 0.11793945 -0.042238344 0.22316754 -0.40087846 -0.35644206 -0.12334652
-0.19610828 0.6431224 -0.356544 -0.08002889 -0.3773156 0.14507914 -0.08441299 -0.4878074
0.22653027 0.47928345 -0.4118786 -0.1918017 0.41409162 -0.22492285 0.3042297 -0.23991643
-0.21061738 0.45661622 -0.21995218 -0.37313417 0.4512919 0.14505127 -0.06171352 -0.40772963
-0.09553705 -0.47319984 0.5844568 0.0022143037 0.3238331 0.20665713 -0.077991135 0.0798986
-0.24232218 -0.41158226 0.28892896 0.33763507 -0.67912966 -0.32452396 0.48713332 -0.002058416
0.15174252 -0.51374507 0.03829936 -0.3239395 -0.41890377 0.36395296 -0.06313072 0.058655433
-0.15740909 -0.19153927 -0.12212661 -0.34087503 -0.4946493 -0.25625047 -0.29750872 -0.24246763
0.2385855 -0.012804684 0.08574011 0.27120066 -0.3015901 0.79810303 0.6170038 -0.3616581
-0.54520404 -0.51286 -0.019721365 -0.7354226 -0.2129084 -0.041389123 0.37459084 0.34079313
0.73621947 0.19553016 0.05618779 0.47159335 0.0030156085 -0.70333254 -0.13234356 -0.023343915
-0.13188726 -0.50442433 -0.8118035 -0.41437504 -0.42295837 0.28901848 0.25928882 0.30355188
0.6049099 -0.24501732 -0.16731744 0.5174915 0.22774284 -0.2920302 0.10002864 -0.072663724
-0.42540967 0.11521069 -0.46411234 -0.105438046 -0.06779085 -0.5636466 -0.5467088 0.7231235
0.087368645 0.35319635 -0.299316 0.5968435 -0.6977104 0.28834015 0.2302966 -0.03610495
0.4039785 -0.09456595 0.27411374 -0.35419798 -0.07362953 -0.116630994 0.25020182 0.069545984
-0.14733605 0.4169625 -0.0005863565 0.4799509 -0.14912632 -0.11070048 0.09704435 -0.2515405
0.31976587 0.23089838 -0.019535294 0.095385134 -0.013015856 -0.17314239 0.03878809 0.07253292
0.260557 -0.25670716 -0.27709123 -0.036427215 0.4377705 0.010181034 -0.6414948 0.5079659
-0.59641373 -0.47810727 -0.040949967 0.77846014 -0.4064691 -0.046617333 0.19114082 -0.18230417
0.7465197 -0.29646233 0.43372124 -0.49082494 -0.35657403 -0.40309417 0.02713217 0.47223815
-0.082848825 -0.41365573 -0.48397654 0.62452424 -0.71762216 -0.7102263 -0.5657704 -0.3296119
-0.6164059 0.2341754 -0.5084684 0.18431404 0.5092246 -0.1311447 -0.32594237 -0.058571525
-0.000113637245 0.07739528 -0.21551214 0.45380512 0.096404225 0.08340015 -0.7206249 0.29721415
-0.12522686 0.46337333 0.46067235 0.6149661 0.6986168 0.071768515 0.55743265 0.3332151
-0.4144422 0.38570857 -0.1915353 0.24095355 -0.34228224 -0.36064634 0.6401239 -0.5211205

conv3.bias f4 [16]
00000000: 1413 cabc 9948 30be e9f8 923d 89e3 ccbc
00000010: 0b1c d73c 2f1b 1bbe af3b 073d ee89 1ebe
00000020: a4ec 673c 93b4 783c f4b2 783e 0504 93bd
00000030: 34dd 7bbd 8205 4c3e b002 703e 7cee 1d3e
-0.0246673 -0.17215194 0.07176382 -0.025010841 0.02625849 -0.15147088 0.033015903 -0.15482304
0.014155541 0.015179771 0.24287015 -0.07178501 -0.061490253 0.19923976 0.23438525 0.15423006

conv3.fc_self.weight f4 [16, 16]
00000000: 1940 053e fcaf 1d3d 04d1 c93e 7609 21bd
00000010: 494b 173d 3c0a b1bd 489f 6dbe 9283 653e
00000020: 8c19 0b3e 0eb8 863e 044a b2be 796d 78be
00000030: 28af 64bc b12e f1bd bc3e af3c 4907 c83e
00000040: 0101 0d3f a054 19bf 24b0 dd3e 064e 3b3e
00000050: ce0d 5838 3dc5 34be 1de2 603e 164a c13e
00000060: 0c98 82be 1c27 dc3e b431 c8be 74f7 a33e
00000070: 48c5 1fbe d04d e1be d547 cebe b66a e0be
00000080: 2fe2 e9bd 29c7 36be e6bc 913e b6ca 83be
00000090: 853f 5c3e 5810 893e 32d6 bc3d 592d 9d3e
000000a0: 82d0 9cbd 52f3 dcbd 08b7 cebd 1888 d7be
000000b0: 7657 25be c9da 6b3e 422b 093f b285 4b3e
000000c0: ebe3 a9be b50f d33e f686 333c d4c0 a8bd
000000d0: f12b 42be f2dd 103f 0a66 853e 226e bfbe
000000e0: 6bea 8dbe c96a c13e 1273 b53e 6953 ecbc
000000f0: c560 a83e 1fcc 9fbe 7c45 4c3e 4603 fabe
00000100: c4a4 8dbe 3ef3 ddbe 507c 6fbe 4bdc 4d3e
00000110: e815 10bf d460 94bc 91c8 1fbf 3eab b43d
00000120: c48e 12bf a2c9 afbe 2955 d23d 5f57 b83d
00000130: b5be 35be 3609 18be ad83 bfbe f72c acbe
00000140: fcb4 25be d1d1 1cbf 5a0a 3d3e 35ca a6be
00000150: 722e f8be c1ce afbe 18f4 c43e d05f 77be
00000160: bd3d dc3e 4a5d 9dbe e8aa 4b3e 164c a2bc
00000170: 6a5b 2f3e 6d62 8b3d eb72 023f 35a4 26bc
00000180: eb90 d5bd 2d96 ab3e 9102 613e 7149 cf3e
00000190: 5a38 bc3e 1482 883d 3d88 09bf 5acb 263f
000001a0: 59ff b6be 7363 ec3e b7c9 afbe 746d e3be
000001b0: 5bf3 0b3e d501 55bd 2a8d c43d 3bac acbc
000001c0: be0d 0d3f af1e 8f3e 4ec6 0dbf 4212 17be
000001d0: f061 afbd 5091 203d cc43 8c3e 57b4 01bf
000001e0: 3eae 80bd 0138 c8be 8570 25be bcf3 aa3e
000001f0: c262 8fbc d554 e63e 3b43 92be 53ac 5e3e
00000200: 8b5e 8cbd 3fb4 6dbd 4716 813e ffe7 b23e
00000210: bf08 3cbd c1dd 373e 6746 6dbe 34d1 9bbe
00000220: c309 fcbe 4cb7 3b3e 91c8 9c3e c21b 013e
00000230: e452 f9bd 7d33 10bc 4a4a 9d3e f0e0 8bbe
00000240: 3a59 8fbe 696d 9e3e f260 9bbe e75f dbbe
00000250: 34de e73e 39f7 ad3e 7bbd 3bbe e786 db3e
00000260: 4d4d a43e e449 fbbd 067e 093f afc3 ba3e
00000270: b748 8c3e 2724 b23e f303 bb3e d2af cdbe
00000280: df6a fc3c f76a 0f3e 9450 e2bd ff4a bcbd
00000290: aa9a 0a3e 12f2 313e 1977 b43e daf5 87be
000002a0: 3545 1c3f 8aa7 65bd d7d8 403e c587 f9be
000002b0: 7201 063e f18f 56bd c154 b53e 24d9 9c3c
000002c0: 567e c43e 92e0 9c3e 5973 0b3e 847a b23d
000002d0: e844 78be 736b 1dbe 1033 043f f2af df3e
000002e0: 5184 8b3e 1458 4f3e c370 dcbe 085c 9fbe
000002f0: 49c6 0d3f fd2c a73e 6c6a 2b3f 6efd f03d
00000300: b2af bfbe a57d aa3e e51e 21be 8397 e83d
00000310: 5153 bd3e b942 503e b953 a23d 9f83 0a3e
00000320: 142a 2a3d 4e77 95be c136 913e 5bf4 533e
00000330: f223 0b3e 03a6 823e 986e 6e3e 2a41 e5bd
00000340: 74c0 c7be 07e6 323e b6f4 ccbd 5a0c 173f
00000350: 4f68 05be c77d 97be 0b4a 4dbe f282 803e
00000360: 1dbc 6b3e c249 8bbe 6c35 b23e 2103 ccbe
00000370: 7e10 46be 0900 3cbe 232e a4bb 99b8 0dbe
00000380: 6bf4 c13e 9bc9 67be 3e8f d8be e783 0d3c
00000390: 602e cd3e 5d62 013d cb5b 993d beb4 9d3e
000003a0: 7aff 703d 786b b63e 8235 063f 283f 8dbe
000003b0: 0ea8 29bc bcc3 a83e 4ff8 f33e 8ecd d33c
000003c0: 6b07 50be 4ca8 89bd 92ae 07bf 8fbf 6cbe
000003d0: 60ea d3bd e6ae 063e a17d 8fbe 5227 f3bd
000003e0: e279 2abe 820a 8fbe ff3d ad3d e35b ee3e
000003f0: 8831 15be abd7 87be 3235 edbe 2d92 dfbd
0.13012733 0.03849791 0.3941728 -0.039315663 0.036937032 -0.0864453 -0.23205292 0.22413471
0.13583964 0.26312298 -0.34822094 -0.2426051 -0.013957776 -0.11776484 0.021392219 0.39068058
0.55079657 -0.5989475 0.43298447 0.18291482 5.151127e-05 -0.17653365 0.21961255 0.37751836
-0.25506628 0.42998588 -0.3910042 0.3202473 -0.156026 -0.4400468 -0.40289178 -0.43831414
-0.11420094 -0.17849411 0.2846443 -0.25740594 0.21508606 0.26770282 0.09220542 0.3069866
-0.07656957 -0.10788597 -0.10093504 -0.4209602 -0.16146645 0.23032679 0.5358163 0.1987522
-0.331817 0.4122292 0.01095747 -0.08239904 -0.18962075 0.5658866 0.26054412 -0.37388712
-0.2771791 0.37776783 0.35439354 -0.028848367 0.3288633 -0.3121042 0.19948381 -0.48830622
-0.2766477 -0.43349642 -0.23387265 0.20103566 -0.56283426 -0.018112577 -0.62415415 0.08821724
-0.57249093 -0.3433352 0.10270149 0.0900104 -0.1774853 -0.14847264 -0.37405148 -0.33628055
-0.16182321 -0.61257654 0.1846098 -0.32576147 -0.48472935 -0.34337428 0.3846748 -0.24157643
0.43015853 -0.30735236 0.19889414 -0.019811671 0.17124715 0.068058826 0.509566 -0.010170986
-0.104280315 0.33513013 0.21973635 0.4048572 0.36761743 0.066654354 -0.5372351 0.6515404
-0.3574169 0.46169624 -0.34333584 -0.44419444 0.13667051 -0.0520037 0.095972374 -0.02107822
0.55099094 0.27953097 -0.55380714 -0.14753059 -0.08563602 0.03920108 0.27395475 -0.506658
-0.06283234 -0.39105228 -0.16156204 0.3338908 -0.017503146 0.44986597 -0.28566918 0.21745424
-0.0685397 -0.058033224 0.2521231 0.34942624 -0.04590678 0.17955686 -0.23171388 -0.30433047
-0.49226198 0.18331641 0.3062177 0.12608245 -0.12174013 -0.008801338 0.3072074 -0.2732005
-0.27997762 0.30942848 -0.303474 -0.42846605 0.45286715 0.33977678 -0.18334 0.4287636
0.32090226 -0.12269953 0.5370792 0.3647742 0.27399227 0.34793207 0.3652645 -0.40173203
0.030812679 0.14005648 -0.11050525 -0.09193992 0.13535562 0.17377499 0.35247114 -0.26554757
0.610431 -0.05606798 0.18832718 -0.48736396 0.13086489 -0.052383367 0.35416225 0.01914651
0.38377637 0.30640084 0.1361822 0.08714774 -0.24245036 -0.1537302 0.51640415 0.43688923
0.27249387 0.20248443 -0.4305478 -0.31124902 0.55380684 0.3265151 0.6695926 0.11767088
-0.37438732 0.33298984 -0.15734442 0.113570236 0.36977628 0.20337953 0.07926125 0.13526772
0.041544035 -0.29192585 0.28362086 0.20698683 0.13587931 0.25517282 0.23284376 -0.1119407
-0.39014018 0.17470561 -0.100076124 0.5900322 -0.13028072 -0.29588148 -0.20047776 0.25099903
0.23020978 -0.2720471 0.34806383 -0.39846137 -0.19342229 -0.18359388 -0.0050103827 -0.1383995
0.3788179 -0.226355 -0.42296785 0.008637405 0.40074444 0.031587947 0.07488211 0.30801958
0.05883739 0.35628867 0.52425396 -0.27587247 -0.010355009 0.32961833 0.47650382 0.025854852
-0.2031533 -0.06721553 -0.5300075 -0.23119949 -0.10347438 0.13152656 -0.28025535 -0.11872734
-0.16648057 -0.27937704 0.084590904 0.4655448 -0.14569676 -0.2653173 -0.46329647 -0.10916553

conv3.fc_neigh.weight f4 [16, 16]
00000000: 7a3f 4bbe 428e f53e 6d0c 1bbd 90a6 3c3e
00000010: 2e89 9f3e ba16 0fbf 1b33 8c3b 7e64 a0be
00000020: 939c c13e 36b0 173f 9094 e83d bd5f 8d3e
00000030: 4cdb 86be c2c3 003f 8049 653e 6127 353f
00000040: 15d3 7c3e 2e40 dcbd a096 b0bc d59c c3bd
00000050: 3f73 b53d 9cd7 b23e 4d81 de3e 123e d23e
00000060: e7fc 2abf 4fd7 963e 7e78 aabe 68d5 5c3e
00000070: f6df f9be 4dde 57be 6bf8 853c d710 233e
00000080: 1258 d1be a963 aabe fca3 123f 00ca 963e
00000090: 9130 cbbe 1489 a7be c2bd bf3e cefb ecbe
000000a0: 1e1c 2b3f 9ad3 b63e 6edc 3c3e 3b39 36be
000000b0: 45d8 b33d a8c2 fb3e 0348 b03e 0bd5 33bf
000000c0: 99bc 02be ec3d 8ebd 40b8 21bf f735 1abf
000000d0: 9723 6abd ced5 d73d 4849 913e 6730 76be
000000e0: 7589 49bf cea9 8a3e 409c ebbe 2fc4 b3be
000000f0: 1d6d ddbe 7d92 343e 7475 823e 2702 a03e
00000100: 7f1d c93c 15fd a43e 7917 2bbd 8756 2a3f
00000110: cf94 083f b099 adbb 046b 3e3e d08d fa3e
00000120: 680b a63e e514 f83e 25ce 633e b2ea 193f
00000130: 25ff 2ebf 83b0 fdbe 0c42 06be 665c 8c3e
00000140: 10c5 b4be 8a3f 80be e5e9 dcbe bf18 8c3e
00000150: d5d2 be3e eb76 ea3e 515b 0fbf 37a8 c4be
00000160: 31a2 08bf adaf 86be 8dfa 4fbe 1e14 8d3e
00000170: 4ef1 1c3f d723 dcbe 9387 8abe 4bfa 00be
00000180: 9665 2ebf 54ce 19bf bcd1 02bf 5b4a ff3e
00000190: 8281 a73d efcd 30be 936c 813e 799c 43bd
000001a0: 4ff3 8dbe d42e d33d 0c32 66be b5b4 a1be
000001b0: c54b c8be cc7c f23e 87c7 e8be 20cd b03e
000001c0: bf8e b8be 7b47 12bf f153 253f f988 413d
000001d0: cedd 243e 9abd c83e d4db 1c3f dd5a 173f
000001e0: cdeb 1a3e 8589 b73e fedd a43e 5059 a5be
000001f0: 8318 b13e d7ad c93e c2fb cabe 52c8 81bd
00000200: 9685 0f3f b902 8c3e ae88 8a3e dcce 8d3b
00000210: b125 b43d d6f4 b6be b26e b3be efc6 bbbe
00000220: 1a6b 31be c4bb 463f d21c 1c3f 0049 343e
00000230: 9fdb a0be c348 65bd 5e08 e7bd 7591 03bf
00000240: ba01 babe 1ab7 d83e b055 babe e10d dabe
00000250: 05cf b0bd 885c c43e e3c6 6cbe d787 b5be
00000260: 8b22 1f3e c49b bd3e bd15 b9be 9fcf 4ebd
00000270: e3d0 243f a051 043f ea43 ec3e 0825 a43d
00000280: e684 213f ae37 0c3e 068b 8fbe 4f66 06bf
00000290: 37bc c7be 9113 e4bd 302b 103f debe 173f
000002a0: a36a 64bd 264d f2bb 4b03 e33d 660c 89bc
000002b0: 50ef 013f eee8 0e3e 7f8e 44be 8d7d 40be
000002c0: cc44 b9be 3f85 843f 8e84 a3be e5a2 3cbe
000002d0: 8849 e03e 91fb 273f d5bc 41be 9ddd 9bbd
000002e0: ad1a 3e3f 4c61 223d 3e00 363e 7724 dc3e
000002f0: ef0f cbbc 924b 123f 4312 b13d 008a f2bd
00000300: fe23 18bf b321 53be 188f c3be a5a4 713e
00000310: 3bc7 4abe 9072 413e 6299 1b3d 7a67 90be
00000320: d4cb 543d ff27 3a3e 50dd e5be ca55 263e
00000330: 16cc be3e c25b 86be abac 45be b5cd f6bd
00000340: d4e7 283f 65f9 d1bd bdfb cd3e d732 05bf
00000350: 7b39 f0be 93e6 ba3e 3e29 313f 52a1 c23e
00000360: 2038 5abf beec 543d 3a87 f6be 128d 113f
00000370: 398b e43e fe2e 09bf b6f0 f4bd d4c0 0dbe
00000380: f30c a33e 6066 9bbf 77ab 203e 27e2 113f
00000390: 005d 313e 95a1 07be 800f b3be 4d75 88be
000003a0: 80fc e7bd 2c41 ca3e 81dc b2be 529f 68be
000003b0: 47e1 43be aa1e 73bd 55f2 36bf 5926 343f
000003c0: c321 a53e e7c6 45be da57 fbbe dec4 05bd
000003d0: 6cf6 cc3d 6e99 15be 9ec9 64be 7cb6 d0be
000003e0: f093 27bf 5480 17bd 37a4 103e 35c5 703e
000003f0: 6751 bbbe c673 0bbf a27e 06be 9efe 84be
-0.19848433 0.47960097 -0.037853647 0.18422914 0.31159347 -0.55894053 0.004278553 -0.3132667
0.3781477 0.5925325 0.11356461 0.27612105 -0.26339185 0.502987 0.2239132 0.7076321
0.24689896 -0.10754429 -0.021556199 -0.09551398 0.08859872 0.34930122 0.43458024 0.4106298
-0.6679215 0.29461142 -0.33295053 0.21565783 -0.4880368 -0.21080895 0.016353806 0.15924393
-0.40887505 -0.3327916 0.5728147 0.2945099 -0.3968549 -0.3272177 0.3744946 -0.46285862
0.6683978 0.35708314 0.18443462 -0.17795269 0.087814845 0.49171948 0.3442994 -0.7024695
-0.12767257 -0.069454044 -0.6317177 -0.60238594 -0.057162847 0.10538827 0.28376222 -0.24041902
-0.7872537 0.27082676 -0.46017647 -0.35110614 -0.4324731 0.17634006 0.25480235 0.31251642
0.024550198 0.32224336 -0.041770432 0.6653828 0.53352064 -0.005297862 0.1859551 0.4893632
0.32430577 0.4845344 0.22246607 0.6012374 -0.6835807 -0.4954873 -0.13111132 0.27414244
-0.35306597 -0.25048476 -0.43147197 0.2736263 0.37270227 0.45793852 -0.5599871 -0.38409588
-0.53372484 -0.26305905 -0.20310421 0.2755441 0.613057 -0.42996094 -0.2705656 -0.12595479
-0.6812376 -0.60080457 -0.5110128 0.49861416 0.081789985 -0.17266057 0.25278148 -0.047756646
-0.27724692 0.10311666 -0.22480029 -0.3158318 -0.39120308 0.47360837 -0.45464727 0.34531498
-0.36046407 -0.5714032 0.6458121 0.047249768 0.16100237 0.39207155 0.6127293 0.5912302
0.15129013 0.35847107 0.32200617 -0.32294703 0.34589013 0.39390442 -0.396452 -0.06337036
0.5606321 0.27345827 0.27057403 0.004327638 0.087962516 -0.3573367 -0.3504539 -0.36675212
-0.17326012 0.7763026 0.60981476 0.17605972 -0.31417558 -0.055977594 -0.11280893 -0.51393825
-0.36329442 0.42327195 -0.363935 -0.42588714 -0.08633236 0.38351846 -0.23122744 -0.354552
0.15540521 0.37032902 -0.36149397 -0.05049097 0.64381236 0.5168705 0.46145564 0.08014876
0.6309341 0.13693115 -0.28035754 -0.5249986 -0.39010784 -0.111365445 0.563159 0.59275615
-0.05576576 -0.0073944507 0.110846125 -0.016729545 0.50755787 0.13956043 -0.19194983 -0.18797894
-0.361853 1.0353163 -0.3193707 -0.18421514 0.438061 0.65618235 -0.1891969 -0.07610629
0.74259454 0.03964357 0.1777353 0.4299657 -0.024787871 0.5714656 0.08646061 -0.11842728
-0.5942992 -0.20618324 -0.3819511 0.23597963 -0.19802563 0.18891358 0.037988074 -0.28203946
0.0519522 0.1817932 -0.4489541 0.16243663 0.3726508 -0.2624188 -0.19304149 -0.12050954
0.6597874 -0.10252646 0.40231124 -0.520307 -0.46918854 0.3650404 0.69203556 0.38013703
-0.8524189 0.051983587 -0.48150045 0.5685588 0.44637468 -0.5358733 -0.119599745 -0.1384309
0.31845817 -1.2140617 0.15690409 0.56985706 0.17320633 -0.13245232 -0.34972763 -0.26651993
-0.113274574 0.39502847 -0.34933856 -0.22717026 -0.19128905 -0.059355415 -0.7146352 0.70371014
0.3225232 -0.19314156 -0.49090463 -0.03265845 0.10007939 -0.1460931 -0.22342536 -0.40764225
-0.6546011 -0.036987618 0.14125143 0.23512729 -0.36585543 -0.5447353 -0.13134244 -0.25975507

conv4.bias f4 [16]
00000000: 8111 dcbd bd1d eebc 7b35 843d 1450 563e
00000010: 1760 2fbb 61ed 51bc af87 213d feb6 173e
00000020: aa4f 1f3e c31e 803d 9f35 57be 4d8a 4bbe
00000030: bc71 df3c 30ca fc3d 3176 39bc 9ddb 55bd
-0.10745526 -0.029066915 0.06455513 0.20928985 -0.0026760155 -0.012812943 0.03943604 0.148159
0.15557733 0.06255867 -0.21016549 -0.19876976 0.027275912 0.12343252 -0.011319683 -0.052211393

conv4.fc_self.weight f4 [16, 16]
00000000: efbe b13d 9af4 fb3e fb91 a8bd 8cbf 013f
00000010: c81b 09bf 54a1 eb3e d765 433e 78d1 6abe
00000020: 2183 793c c2cc fc3d ed90 f8be 86f1 7e3e
00000030: 3152 7ebe f298 0ebe a986 3bbe 36da a03d
00000040: aabc 1a3e 9083 16bf 711b 69be c608 31be
00000050: 0282 033f 60fa 803e 7d78 7b3e 2955 aebd
00000060: 6c56 05bf 5437 22be cff8 fbbe f775 b2be
00000070: b0a1 2b3f 5d55 65bd 1d03 b7be 184f cebe
00000080: fb36 65be fc99 0ebf f43b 9c3e c8f7 193f
00000090: 40ed 52bd f060 1bbc 2068 dcbe 7f8a 9b3e
000000a0: 55b0 92bd bcfb 48be 3362 b2be b2a7 e03e
000000b0: de42 163f 176a 58be 44b3 c53e 225f 03bf
000000c0: 298f 673e fd6a 9ebe b0d1 61bc 4c5b a03e
000000d0: f82e e8be a073 cf3a 4063 91be c66d 9dbe
000000e0: d699 3f3e 0bae b23c 9a0e e63c ead6 b63d
000000f0: f4f8 d1bd 8ba1 f33d 6da1 1d3e 38da f73e
00000100: 106d c03e 4807 bc3e dbcd 0ebf 4325 f7bd
00000110: 7167 f4bd f90b ea3e fceb 013f abd4 2ebf
00000120: 3e12 c83e 8ae7 6abe 7d6f 81be a014 17bf
00000130: 78a7 2a3f cc93 5d3d 9c47 153d 77ab b13e
00000140: 97cf 47be 3620 c63d 5fe6 763c 20e0 47be
00000150: fd42 05bd 0b0a b5be 7018 23bf 8852 fb3e
00000160: 7d07 c13e 8c9e 633e e70c da3e 1f5a 95be
00000170: 57ad 323e 2ffe e73e 69bd 36be e1c9 d43d
00000180: 465e c73e cf6d 34be d3bc d73e 4d23 043f
00000190: 3537 c43e 6661 88be 884d be3e 73ee 0fbf
000001a0: 2c2c 093f ec54 bc3e 0cfb 963e 3675 45be
000001b0: 144d 1bbb 8b52 8cbd 9060 d2be 9854 853e
000001c0: b3d3 093f f930 a1be 5558 de3d 717b 813e
000001d0: 15a7 8d3e 514b f83c 9c64 94bd 3680 0abf
000001e0: 437f 9d3d 3406 61be 9388 77be bc56 d9be
000001f0: 8b6f 46bc a833 efbe 73fa 2a3e 2f02 c5bd
00000200: 2121 263f d2e9 c73e 2030 30bd 5c47 84be
00000210: 847d 61bd 1aa8 14be 1b87 c6bd 6a43 fb3e
00000220: ec3a 85be b843 51be 0cc0 a1be 3e1a 2d3f
00000230: 55fd f23e 0cd1 86be 52a2 f53e 3120 a5be
00000240: 2fdc f2be 2610 25be 9219 ca3e e1df 333e
00000250: 6fd5 9c3e 5d24 62be e125 083f c5b2 013e
00000260: 184e d33a eb76 babe cfcc ca3e d319 3fbd
00000270: 6fd2 053f a160 afbe bd99 31be d656 03bf
00000280: 216f e33d 5086 0d3e 6935 48be e7a0 c4bd
00000290: a01a 093f 59a5 88be be3d 17be 52ce 2439
000002a0: ca02 f73c cac9 523d e305 04bf 893f 8abd
000002b0: 897a ea3d b51f 07be b884 213f 07ea d3bd
000002c0: c6cd 24bd 7755 8d3e cd66 32bf 7699 44bd
000002d0: c895 2f3f 34c8 06bf 737e 0abd 6cf8 113d
000002e0: 975d 003f 75d6 833e f84e 803e 6b6f 4abe
000002f0: 5f7f e9be 075b f23e df7d b73e cf04 293f
00000300: 8c10 173e ab44 e73e cc13 a4be dc4c c0be
00000310: 28eb f2be ad69 723e 21bb ec3e f551 013e
00000320: 5193 063e 632f 2c3e 397c 263d ac24 afbd
00000330: c28f b5bc 74f7 d93e 9cfa 3a3f 231d efbe
00000340: 8467 aabe 6ffd cebc de96 7d3e 1c55 1fbe
00000350: 3dff 06be 4b1b ce3d cb56 213e 0b6b 8e3d
00000360: 2ca1 9fbe 99bc f6bd a38a eabc 1256 c63d
00000370: db0a a8be 9ec0 0ebf 991b 2fbe 8e8f e4be
00000380: cdeb 1fbf 1196 ee3e b655 29be 2390 1dbe
00000390: c16e b1bd 85b2 7fbd b29e 293f c74f 573e
000003a0: 165b 10bf 3a10 f7be 5c97 2e3e 18d3 18be
000003b0: eec4 82bc 24c6 c43d 369e 0e3f 318a c13e
000003c0: 6ce4 fdbe 0206 ca3e 5cc2 acbd 7aea 0b3f
000003d0: c3a9 26bf 6617 1f3f 989d c73e 483f debc
000003e0: 4cea d9be 2ff1 2dbe 8e34 983e 3d7c c1be
000003f0: a5c4 173f a222 c93e 02c3 eebc 103e 0a3f
0.08678996 0.49210054 -0.082309686 0.506829 -0.53558016 0.4602152 0.19081818 -0.22931468
0.0152290175 0.12343742 -0.4854807 0.24896821 -0.24836041 -0.13925532 -0.18313088 0.078541204
0.15111032 -0.587945 -0.22764374 -0.17288503 0.5137025 0.2519102 0.24557681 -0.08512337
-0.52084994 -0.15841419 -0.49213263 -0.34855625 0.6704359 -0.055989612 -0.35744563 -0.4029472
-0.22384255 -0.5570371 0.3051449 0.6014371 -0.05149579 -0.009483561 -0.4304819 0.30379102
-0.07162539 -0.19627279 -0.34840545 0.4387794 0.5869578 -0.2113422 0.3861333 -0.51317036
0.22613205 -0.30941 -0.013782904 0.31319654 -0.45348334 0.0015827306 -0.28396034 -0.30747813
0.18711028 0.021811506 0.028083134 0.0892771 -0.10252562 0.11896046 0.1539361 0.48408675
0.37583208 0.36724305 -0.5578286 -0.12067654 -0.119337924 0.4571226 0.5075071 -0.68293256
0.39076418 -0.22939888 -0.2528037 -0.59015846 0.6666179 0.05409603 0.036445245 0.3470113
-0.19512783 0.096741125 0.015069573 -0.1951909 -0.032534588 -0.35359225 -0.63709164 0.49086404
0.37701026 0.2222845 0.4258797 -0.2917032 0.17448936 0.45311114 -0.17845692 0.10390068
0.38939112 -0.17620014 0.4213625 0.51616365 0.3832337 -0.2663681 0.37168527 -0.5622322
0.53583026 0.3678354 0.2948841 -0.19282994 -0.0023697065 -0.06851681 -0.41089296 0.26041102
0.5383865 -0.31482676 0.10856692 0.2528949 0.27666536 0.030309351 -0.07245752 -0.54101884
0.07690289 -0.21975023 -0.24173193 -0.42448986 -0.012111555 -0.46719098 0.16697101 -0.09619557
0.648943 0.39045578 -0.043014646 -0.25835693 -0.05505134 -0.1451725 -0.09693738 0.4907487
-0.26021516 -0.20435989 -0.31591833 0.6761817 0.47458902 -0.26331365 0.47975403 -0.32251123
-0.47433612 -0.16119441 0.39472634 0.17565872 0.30631587 -0.22084184 0.531828 0.12665851
0.0016121296 -0.36418852 0.39609382 -0.046655487 0.5227422 -0.3425341 -0.17343803 -0.51304376
0.111051805 0.13820767 -0.19551624 -0.09601002 0.5355625 -0.2668865 -0.14769647 0.00015717119
0.030152697 0.051461972 -0.5157148 -0.067503996 0.11449153 -0.13195689 0.6309314 -0.103473715
-0.040235303 0.27604267 -0.6968811 -0.047997914 0.68587923 -0.52649236 -0.033811998 0.035637304
0.50142807 0.25749555 0.25060248 -0.19769065 -0.4560499 0.47335073 0.3583822 0.6602296
0.14752406 0.45169577 -0.32046354 -0.3755864 -0.47445035 0.23673125 0.46236518 0.1262892
0.13142134 0.16814952 0.04064581 -0.085519165 -0.022163276 0.42571604 0.7303865 -0.46701917
-0.332821 -0.02526733 0.24764583 -0.1555981 -0.13183303 0.100637995 0.15755765 0.069540106
-0.31177652 -0.12047691 -0.02863056 0.09684385 -0.32820782 -0.5576266 -0.17100371 -0.44640774
-0.6246918 0.46598867 -0.16536602 -0.15387015 -0.08663703 -0.06242611 0.66257775 0.21026526
-0.56388986 -0.48254567 0.17049927 -0.14924276 -0.015963044 0.09608105 0.5571016 0.37800744
-0.49588335 0.3945771 -0.084355086 0.5465466 -0.65102786 0.6214508 0.38987422 -0.027129784
-0.42561567 -0.16986535 0.29727596 -0.377901 0.5928443 0.39284235 -0.029145721 0.5400095
