model.pth (torch, 15233 bytes, 12 tensors)

conv1.bias f4 [16]
000000 c3 0b 09 be 31 47 18 bc d3 4d 94 3c 31 2b 62 bd
       -0.13383393 -0.009294317 0.018103516 -0.05521697
000010 af 00 c1 bd e8 06 06 3c 79 b3 e1 bd 25 8f bd bc
       -0.094239585 0.0081803575 -0.1102056 -0.023139546
000020 cd 32 1e bd ed 35 a9 bd 01 78 15 3e 38 6e 1e bc
       -0.038622666 -0.08262239 0.14596559 -0.009669833
000030 aa 82 54 bc a2 e8 04 3d 24 18 62 3d 3c 9b 56 3d
       -0.012970606 0.03244842 0.055198804 0.052394137

conv1.fc_self.weight f4 [16, 40]
000000 fb 40 2c be d5 ed 23 3d e5 02 0b c0 58 fe b6 bf
       -0.16821663 0.040021736 -2.1720517 -1.429637
000010 97 1b 17 3e 13 ff 1c 3c ab 87 c9 bc c0 4a 36 3e
       0.14756618 0.009582299 -0.024600824 0.17801952
000020 21 fb 63 3e e3 d2 71 bf 6b 30 b8 bf be d2 04 bf
       0.22263767 -0.9446241 -1.4389776 -0.5188407
000030 22 6d 1c 40 9a 02 01 3f 99 d0 48 40 e2 d7 5d 3f
       2.444161 0.50394595 3.1377318 0.86657536
000040 61 57 c3 bc f9 28 cf 3c ec 2c 2d 3d fd 96 a9 bb
       -0.023845376 0.025288092 0.04227917 -0.00517547
000050 84 d5 2c 3f aa e1 66 3f 14 ac c4 3f 6c a4 85 3e
       0.675133 0.90188086 1.5365014 0.26102006
000060 0d e2 37 bf fd 58 de be de fa 0f c0 89 44 6d bf
       -0.718293 -0.43427268 -2.2496867 -0.926827
000070 66 a6 09 bd 76 9d 92 3e 1a 2d 5e 3e f1 3d 95 3e
       -0.033605956 0.28635758 0.21696892 0.2914882
000080 61 b7 c7 3e e7 f1 82 3e 8f bd 8d 3e a0 43 39 3f
       0.39007095 0.25575182 0.27683684 0.7236881
000090 bb 16 03 40 6c 40 44 3e 6b 69 8c 3e 8b 0b a0 3f
       2.0482624 0.191652 0.27424178 1.2503523
0000a0 f2 6a ae 3c 53 bd 59 3d f7 31 0d bc bc c1 a2 3d
       0.02129123 0.05315907 -0.00861787 0.07947108
0000b0 77 99 26 be 76 55 9a be 17 d2 e7 bc 30 75 97 be
       -0.1626948 -0.30143327 -0.02829842 -0.29581594
0000c0 4d 6b df be c5 27 28 bd b8 c7 ae be c9 2a f0 be
       -0.43636551 -0.041053552 -0.34136748 -0.46907642
0000d0 24 0b 79 be e0 f9 2b c0 ff 5a 86 be 53 e0 4e be
       -0.24320656 -2.6871262 -0.262413 -0.2020276
0000e0 a0 37 c8 3e c0 18 a7 3b 85 ad 3d 3e e4 16 20 3f
       0.39104939 0.005099386 0.18523224 0.6253493
0000f0 7c cb c7 3e 46 21 ab 3c 67 8c c7 3e e3 ca 80 3c
       0.39022434 0.02088989 0.38974306 0.015721744
000100 6e 61 92 3e 3d c4 42 40 70 15 21 3e 18 b2 24 3e
       0.28589958 3.0432274 0.15730834 0.16083562
000110 f8 e4 c5 3d ba bc 59 3e 15 08 1e 3e d0 b8 85 3e
       0.09662813 0.212634 0.1543277 0.26117563
000120 6d 06 c9 bd 80 9c 72 bf f8 94 88 be 54 cd bf be
       -0.09815679 -0.9477005 -0.26676154 -0.3746134
000130 26 47 86 3c 31 9a 75 bd 0a b4 0b 3d 40 e1 89 be
       0.016391348 -0.0599615 0.034107246 -0.26929665
000140 9e 69 5f bf d7 c0 bb be 92 d6 5d be 83 4e e6 be
       -0.87270534 -0.36670563 -0.21663883 -0.44981775
000150 5f a2 08 3f 67 c0 92 bd 07 2f f1 3c ca a8 bf 3f
       0.5337276 -0.07165604 0.02944137 1.4973385
000160 9d 4d 38 be 69 dd f3 bf 0a c4 03 bf 89 2d bb be
       -0.17998357 -1.9051944 -0.51471007 -0.36558178
000170 df 29 cd 3e 65 05 ea bc 5b 61 e1 3d 49 8c d8 3d
       0.40071008 -0.028567025 0.11004897 0.10573632
000180 08 e3 d3 3c 45 fd 0d 3e 0b b8 63 3d d1 fc d4 ba
       0.025865093 0.13866146 0.05559544 -0.0016249662
000190 38 4c 98 3d 38 fa f1 3f 76 86 7a 3f f3 0e 04 bd
       0.074364126 1.8904486 0.9786142 -0.03224082
0001a0 ca c2 b0 be 8d 3f 92 bc 2e bc 21 be 3f 2c 7d bd
       -0.34523612 -0.017852569 -0.15794441 -0.061809774
0001b0 e9 0f 67 bf 67 31 23 3d 34 60 5d be 91 8f 85 be
       -0.9025865 0.039842036 -0.2161873 -0.26086095
0001c0 4f b6 3d 3e 0e 66 1a be d2 2c 00 bc 9f 2f 47 bf
       0.18526576 -0.15077993 -0.007823186 -0.7780704
0001d0 f0 9f 4f 3e 32 df 4e be d2 b7 d6 be 70 43 84 3f
       0.20275855 -0.2020233 -0.4193712 1.033308
0001e0 0f 03 aa 3e bf bf f5 3e ec 7d 1d 3f 79 80 92 3f
       0.3320546 0.47997853 0.61520267 1.1445457
0001f0 60 35 52 bf 56 ea 21 bf 21 d2 f8 be 63 8f 9e be
       -0.82112694 -0.63248193 -0.48597816 -0.3096877
000200 f2 33 b0 3d 64 78 60 bf ae 6a 60 3e 8e e8 3f 3e
       0.08603658 -0.876837 0.21915695 0.18741056
000210 d4 da 47 3d a6 50 69 bd 0b 94 cf bd 66 76 24 3e
       0.048792675 -0.056961678 -0.10135659 0.1606079
000220 7c a6 29 bf a3 f2 0e bf 7e 81 6a be 0a 21 5d be
       -0.6626966 -0.55838984 -0.2290096 -0.21594635
000230 ae ad 15 3f 4f 66 54 3f 8d c3 66 3e db cf 2f 3e
       0.5846814 0.8296861 0.22535534 0.17169134
000240 1e f2 8b be bb fa 00 3e 5c dc 3b 3e 10 9e 31 3e
       -0.27333158 0.12595646 0.18345779 0.17345452
000250 d7 89 1a 3f be 7d 91 3f 6e ee 15 3f f0 d0 38 3e
       0.60366577 1.1366498 0.5856694 0.18048453
000260 0a ab 1b be 26 fe 8c 3f 26 e2 0d 3d 03 86 a8 3e
       -0.15201965 1.101506 0.0346395 0.32914743
000270 10 0a 2d 3f cd d3 84 3f de 2c c2 bc d6 a0 13 3f
       0.6759348 1.0377136 -0.023703035 0.5766729
000280 f5 c6 63 bf b7 b9 8c be 10 a4 28 3d 11 37 22 be
       -0.8897546 -0.2748544 0.041172087 -0.15841319
000290 21 cd cf 3e 69 85 0d bd 8d 64 f3 3d 13 7b 89 3f
       0.40586188 -0.034551058 0.11884413 1.0740684
0002a0 40 c2 14 bd de 1d 21 bf 29 60 0f c0 a1 dd c5 bf
       -0.036318064 -0.629362 -2.2402442 -1.5458261
0002b0 e8 69 06 3f e1 6d e9 3d 4f 0a 8f 3e 97 3b aa 3e
       0.5250535 0.11397911 0.27937552 0.33248588
0002c0 61 ab 6b 3d e5 8c 67 3e 3a 95 18 3e 8e 11 fb 3d
       0.057536487 0.22612341 0.14900675 0.12259208
0002d0 22 3a 22 3f b3 99 bb 3f 8d cb 62 40 81 c6 e1 3d
       0.63369954 1.465628 3.5436738 0.1102419
0002e0 8c 9d 3c be 41 e3 a1 3d c3 4c 98 bd e3 ba 1c bd
       -0.18419474 0.07904673 -0.07436516 -0.038264167
0002f0 1f 95 57 bf 12 e9 55 3e 0e 28 58 bd 5c 5f f0 3a
       -0.84211916 0.2088969 -0.052772574 0.0018338966
000300 60 1a 23 3e ad 08 50 3d 3c ec 47 3d 43 2b 51 be
       0.1592803 0.050789524 0.048809275 -0.2042666
000310 69 97 0f 3f cf ad cf bc c8 4c e4 3c 9f 47 00 3f
       0.5609041 -0.025351433 0.027868643 0.50109285
000320 88 09 51 bf 30 45 39 be d5 9f 38 bd af a3 7c bd
       -0.8165517 -0.18092799 -0.045074303 -0.06167954
000330 1a 01 25 3e 54 55 e7 bd 79 11 41 3d ab da ce 3f
       0.16113701 -0.11295572 0.047135804 1.6160482
000340 6a f6 1c be a0 58 5e be bf 87 07 c0 67 31 0d c0
       -0.15328375 -0.21713495 -2.1176603 -2.2061403
000350 fc ea 03 3e 8c e1 0f bd e5 38 f9 3d 65 24 b2 3d
       0.12882608 -0.035127208 0.12169055 0.08698348
000360 73 28 88 3e aa 0e 48 3e d1 8e 4f 40 04 a1 82 3e
       0.2659336 0.19536844 3.2430918 0.2551347
000370 15 2d 35 3d 43 0f 28 3e f0 00 9d 3f c0 8b b7 ba
       0.044232447 0.16412072 1.2265911 -0.0014003441
000380 90 9c 4e be 9c 01 56 3d a9 ba 1b be bb 41 96 bd
       -0.20176911 0.05224763 -0.15207924 -0.07336756
000390 f2 e3 61 bf 5e a9 2d 3d 1d 2b 69 be c8 3a cf be
       -0.8823844 0.04239785 -0.22770353 -0.40474534
0003a0 ba ed ef be f5 4c 25 c0 66 87 34 bf 82 16 ec bf
       -0.46861058 -2.582822 -0.705191 -1.8444369
0003b0 ec 99 88 bd 85 7a 93 bf 58 bc 00 be e8 53 08 bf
       -0.06669983 -1.1521765 -0.12571847 -0.5325303
0003c0 82 65 9f 3e 73 9d b5 be 53 f4 71 3d 60 e2 c4 bd
       0.31132132 -0.35471687 0.059070896 -0.0961349
0003d0 d5 da 3f 3d 1b cf de 3e 82 8a 37 be 0b 1e 5f bf
       0.046839554 0.43517384 -0.1792393 -0.87155217
0003e0 e1 e8 8a bf 45 52 11 bf 16 0c fd bd 82 50 12 be
       -1.0852319 -0.5676616 -0.12355821 -0.14288524
0003f0 11 cb 11 bf 5b a3 21 3d f5 40 b1 bf 83 08 0c bf
       -0.5695048 0.03946243 -1.3847948 -0.5470049

conv1.fc_neigh.weight f4 [16, 40]
000000 2a cc 24 bf 84 79 eb bc 75 b8 b3 3e 4d 95 c1 3f
       -0.6437403 -0.028744467 0.35101667 1.5123688
000010 0d 00 10 3f 55 71 03 3e df bf 6b 3d 18 ab 6a be
       0.5625008 0.12836201 0.05755603 -0.2291683
000020 7b a3 5e 40 6f ce f7 3d c9 c7 3d 3f a2 59 88 40
       3.478728 0.12099921 0.7413297 4.2609415
000030 f2 94 fe 3f 67 46 2e be 6d f2 85 3d 53 60 22 c0
       1.9889205 -0.17019044 0.0654038 -2.5371292
000040 18 56 d5 bd fd 1f 34 3d 35 57 c2 bd 9f 7d 1c 3d
       -0.10416812 0.04397582 -0.0948929 0.03820574
000050 3b d5 e9 bf cb 5a 27 bf 32 51 ac be e5 17 1b 3f
       -1.8268198 -0.65372914 -0.33655697 0.60583335
000060 82 da 21 c0 2f 18 8c 3e c3 11 03 3e 5d cd be 40
       -2.5289617 0.273622 0.12799744 5.9625688
000070 c3 19 b1 bf 80 c8 05 3c 4f 90 7b 3e 7f 5a ac bf
       -1.3835987 0.008165479 0.24566768 -1.3465117
000080 e6 67 db 3e 5b 44 59 3d e4 04 14 3d 60 f6 ac 3f
       0.42852706 0.053043704 0.036137477 1.3512688
000090 10 80 e4 be 61 1b 88 3d 3f 48 85 3e c9 61 35 3e
       -0.44628954 0.06645847 0.26031682 0.17713083
0000a0 c3 9f 6b 3d 5d b6 9d bd 44 9b ba 3d e7 87 a6 3f
       0.057525408 -0.07700799 0.09111646 1.3010224
0000b0 02 b3 8d 3d 90 bf 4b be 8c 15 e8 bd c7 4b a5 be
       0.06918909 -0.19897294 -0.11332235 -0.32284376
0000c0 e7 be 34 bf 4b 09 2e bc 18 c0 59 be 85 b1 e0 bf
       -0.70603794 -0.010622333 -0.21264684 -1.7554175
0000d0 03 10 17 40 8e 3d 8a 3d 97 c9 12 c0 b5 d7 6b c0
       2.3603523 0.06750022 -2.293554 -3.6850407
0000e0 91 87 a6 3f 06 4e 4f bd e2 f7 c4 bc 6e 5c 10 3f
       1.3010122 -0.05061152 -0.024043981 0.56391037
0000f0 f8 1a 08 3f b7 85 27 bd 3d dd ff 3d 84 3f 40 3e
       0.5316615 -0.040899005 0.1249337 0.1877423
000100 cb 20 0e c0 7b e0 1c be e1 3e 29 3e 1e 74 05 3f
       -2.2207515 -0.15320008 0.16527893 0.52130306
000110 b5 b4 b3 3a ce 62 24 3e 12 02 21 3e 42 20 22 bf
       0.0013710471 0.16053316 0.15723446 -0.6333047
000120 82 71 5c bf d3 63 1c 3d c1 87 43 bf de f1 8d bf
       -0.861107 0.038181137 -0.7637902 -1.1089437
000130 17 da 4c 3d c6 8d 1d bd 98 b7 c8 bf 9a 08 a9 3d
       0.050012674 -0.038465284 -1.5681028 0.08253594
000140 4f 07 5e bf 6f d5 1e bf c5 c6 4a 3e d7 c5 f6 bf
       -0.867299 -0.62044424 0.19802387 -1.9279126
000150 2a 18 ad 3f 4b a7 9f bd 7a 81 64 bc 81 13 c8 3e
       1.3522999 -0.077955805 -0.013946885 0.3907738
000160 86 e8 bd 3f 88 18 08 3d e7 16 44 3f aa 0e fb 3e
       1.4836586 0.03322652 0.76597446 0.49034625
000170 ae a7 ec 3f a3 f9 13 be f0 c1 5c be e9 5b 59 bf
       1.8488672 -0.14450698 -0.21558356 -0.8490587
000180 f3 02 79 bd fd fa 50 bc 3b d7 4a 3d 8e a4 fa 3d
       -0.06079383 -0.012755153 0.049521666 0.122384176
000190 48 f0 a6 bf 72 c3 65 bd c5 ab d2 be e6 7a 96 3f
       -1.3042078 -0.056094594 -0.41146675 1.1756256
0001a0 df da e9 bf 19 a7 15 3e 93 dd 8c 3d 81 9f 07 be
       -1.8269919 0.14614524 0.068781994 -0.1324444
0001b0 f5 44 78 c0 ca 0f 9a 3e a1 fa 09 3e 12 4f 37 c0
       -3.8792088 0.3009017 0.13474514 -2.864201
0001c0 e6 a2 a2 bf 73 db 5a ba 81 74 21 3e 3a af 21 3f
       -1.2705963 -0.00083487405 0.15767099 0.63158
0001d0 86 10 9f bf 1c b3 18 bf 76 c5 4c bc 1f 47 86 3c
       -1.2426918 -0.596483 -0.01249825 0.016391335
0001e0 37 db 3d bf ed ed 69 be 8a 68 de 3c 88 d4 75 bf
       -0.7416262 -0.22844668 0.027149457 -0.9602742
0001f0 bd 93 e5 3e 17 8d 4b 3f 66 44 0d 3f 06 be 1a 3f
       0.44839278 0.7951216 0.5518249 0.604462
000200 5e ca 9c 3f 07 24 52 3b ff 87 85 3f d7 1f 62 3e
       1.2249258 0.003206493 1.0432128 0.22082458
000210 20 49 d8 be 91 dd 67 3d ee 51 b3 3e 47 95 9f 3f
       -0.4224329 0.056607787 0.35023445 1.2467431
000220 f0 74 92 be 7e 9c 3e 3f a2 05 52 3f d9 ef 89 be
       -0.2860484 0.7445754 0.82039845 -0.26940802
000230 cf 58 01 bf 06 92 04 bf 24 6a 47 bf fe dc 72 be
       -0.50526136 -0.51785314 -0.7789633 -0.23717114
000240 b3 d3 84 3e 57 45 f9 bc 88 45 d6 bd c9 87 b3 bf
       0.25942764 -0.030428572 -0.10462481 -1.4025813
000250 bf d6 3d 3f e8 12 13 bf 78 4d 00 bf 29 4d 19 bf
       0.741558 -0.57450724 -0.5011821 -0.5988336
000260 2b 6c 8f bf 8c a6 62 be 45 90 8c 3e 3e 67 13 bf
       -1.1204885 -0.22133845 0.2745382 -0.5757941
000270 dc c7 df bf bb 8b 09 bf 12 82 ce be 3b ef c0 3c
       -1.7482867 -0.53728837 -0.4033361 0.023551574
000280 21 38 c8 bf 75 bd 05 bf 70 ff 23 3e aa ca af be
       -1.5642129 -0.52242213 0.1601541 -0.34334308
000290 37 eb d9 3f ad b5 fe 3c 81 ef f5 3c 8d 56 bb bb
       1.7024907 0.03109249 0.03002143 -0.0057171048
0002a0 31 4f f7 3e 6c ea c8 3d 9c 64 66 3e 4c 8f 07 40
       0.48302606 0.098103374 0.22499317 2.1181211
0002b0 b2 51 0a 40 84 e8 9e bc 3b 62 e9 be 14 9a 7a bf
       2.1612363 -0.019397981 -0.45582756 -0.97891355
0002c0 c0 e7 96 3d 16 af 72 3c b7 8c 6c bc fb 9c 20 3e
       0.073684216 0.014812252 -0.014437846 0.15684883
0002d0 6b 17 a8 bf df da 12 bf 69 58 3f bf d3 93 75 bf
       -1.3132147 -0.5736522 -0.7474428 -0.95928687
0002e0 3f 7b da bf 33 f0 bd 3d ce 91 aa 3b 9c dc 64 be
       -1.7068862 0.0927433 0.0052053696 -0.22349781
0002f0 74 e9 51 c0 0c 96 d4 3e 56 7b 73 3d e6 29 30 c0
       -3.2798738 0.41520727 0.059443794 -2.7525573
000300 81 44 8b be 41 4b bb bc 4b 4f 5f bd 03 c8 e3 3f
       -0.27200702 -0.022863032 -0.05451898 1.7795414
000310 81 03 7a bf 09 53 24 bf f3 78 d6 be 36 aa 7a bd
       -0.97661597 -0.641892 -0.41889152 -0.061197482
000320 ce 25 cf be b0 e8 12 bf 25 ac 50 bd a9 bc 1d bd
       -0.4045853 -0.573863 -0.05094542 -0.03851
000330 3d 97 ab 3f c0 06 8c ba 06 86 8e bc c6 5a 4a 3e
       1.3405529 -0.0010683164 -0.017397892 0.1976119
000340 f0 52 3c be da 1e a1 bd 82 38 37 bf d5 4a 89 3f
       -0.18391013 -0.078672126 -0.715706 1.0725962
000350 2f 33 c2 3f 53 a2 91 bd ac de b6 be f0 92 e6 bf
       1.517187 -0.07111039 -0.3571676 -1.8013592
000360 7c a5 66 3f 24 cf 94 3a 52 c7 16 3d 7e d3 b7 bf
       0.9009626 0.0011353237 0.03681118 -1.4361417
000370 6e d3 03 bd 0d b5 1b 3d b9 c4 84 3d b5 dd 30 3f
       -0.032184057 0.03801446 0.06482834 0.690883
000380 f4 cb c0 bf 2d 95 8f 3d be 67 14 3e 89 2f 8c bd
       -1.5062242 0.07010875 0.144927 -0.06845004
000390 0d 79 3f c0 4a d8 c5 3e 97 fe 4b 3d 03 d7 28 c0
       -2.9917634 0.38641578 0.049803343 -2.6381233
0003a0 41 07 d1 3f 1f a9 1a 3f 43 75 fd 3f 88 df 0d 40
       1.6330339 0.6041431 1.980141 2.2167683
0003b0 cc 6f 4d 3f 54 83 64 bc 7e 9f e9 be 59 04 1d 3e
       0.80248713 -0.013947327 -0.45629495 0.1533369
0003c0 7e 8e fd 3e 16 d4 bf be 2c bf f1 3e 78 92 a8 3f
       0.49522775 -0.37466496 0.47216165 1.3169699
0003d0 b9 fd 21 bf 0f 17 0d be c4 22 d6 be 5d b5 81 3f
       -0.63277775 -0.13778327 -0.418234 1.0133473
0003e0 a5 dd ae bf e3 1f 4e 3f 9f 7d 45 3f 4b 74 9b 3c
       -1.366139 0.80517405 0.7714481 0.018976351
0003f0 e3 c8 c3 be 6e da 1f 3f 79 e8 88 be 3d a6 81 40
       -0.38239202 0.6244267 -0.26739863 4.0515428

conv2.bias f4 [16]
000000 f3 76 ee bd 82 8c 9d 3c 9a 85 5e 3e cf 79 b7 3e
       -0.116437815 0.019232038 0.21730652 0.3583512
000010 be b9 70 3e 24 fb 79 3a d0 4c 42 ba 28 7f 6d bd
       0.23508355 0.0009536019 -0.00074119586 -0.057982594
000020 e9 93 d1 bd 32 9b 38 be 51 97 a7 bd b0 b5 14 3c
       -0.1023329 -0.18027952 -0.08183158 0.009076521
000030 67 8c c0 be 45 19 c2 3e e9 79 a5 be 8b ff fe bc
       -0.37607118 0.37909904 -0.32319573 -0.031127712

conv2.fc_self.weight f4 [16, 16]
000000 bf 3c 47 3d 2c d7 14 be dc f2 91 3e cc 44 29 be
       0.048641916 -0.14535207 0.285056 -0.1653015
000010 8c 19 b0 3d ef 12 bf 3c 30 01 c9 3e f6 68 85 be
       0.08598623 0.023324458 0.39258718 -0.2605664
000020 3a a1 1b 3e 2b e8 d9 be 32 7c 8b be 2e bf c4 3e
       0.15198222 -0.42559943 -0.2724319 0.3842711
000030 9c 2d 23 3e bf 2e 06 be 49 ef e5 bd b0 b6 92 be
       0.15935367 -0.1310377 -0.11227281 -0.28655005
000040 6c f7 06 3e f4 34 76 bc e0 d1 63 3e bc 38 2a be
       0.13180321 -0.015027273 0.2224803 -0.16623205
000050 bc 1e 12 3e 95 ec 98 3d bd 26 1a 3d 01 2f 0d be
       0.14269537 0.074669994 0.0376346 -0.13787462
000060 a5 6d 8a 3e bd d7 73 bb 4a 16 0a be a7 d6 ac bc
       0.27036777 -0.0037207447 -0.13485065 -0.021098448
000070 97 ce 09 bd ba b9 89 3d 66 7c 86 3c 9a 69 65 be
       -0.033644285 0.06724878 0.01641674 -0.22403565
000080 57 e7 0b bf 1a 07 97 bf 6d c3 90 bd f9 3a 03 40
       -0.5464987 -1.1799042 -0.070685245 2.0504744
000090 b5 66 7c be 86 22 e1 bd 2b bc ce 3e 4b 07 ba bd
       -0.24648555 -0.10992913 0.40377936 -0.09083422
0000a0 5f 01 d8 be c9 e0 38 bf 08 9b 75 be 54 5b 90 3e
       -0.42188546 -0.72217995 -0.23984921 0.28194678
0000b0 c2 3f 88 bd 0b 21 5f be d9 4d 14 3e 85 e3 91 3d
       -0.06652786 -0.21789949 0.14482822 0.07123474
0000c0 96 b2 34 3e 2c b9 d2 3d 3f 92 18 3e 99 71 63 3d
       0.1764625 0.10289225 0.14899538 0.055528257
0000d0 5d c7 4e 3e 55 14 a4 3e b6 2c b5 be 4c 1d 9b 3e
       0.20193239 0.32046762 -0.35385674 0.3029579
0000e0 c6 1a 5b 3c cd 54 19 3f e3 b2 b6 bc f6 32 c2 be
       0.0133730825 0.5989502 -0.022302097 -0.37929505
0000f0 18 f6 9d be 78 45 57 3e 4a e3 92 3e a5 f0 a1 be
       -0.30851817 0.21022594 0.28689033 -0.3162891
000100 7a 97 8c bd 60 7c 4e be 80 18 cc bc a1 59 1e 3f
       -0.06864829 -0.20164633 -0.024914026 0.6185551
000110 f0 c6 03 be 89 cf 30 be 35 5f 08 3d 51 d8 ca 3d
       -0.12868857 -0.17266668 0.03329392 0.0990454
000120 c9 e7 0f 3f 71 02 11 3e c9 cd ca 3d d7 75 80 3d
       0.5621305 0.14161088 0.09902532 0.06272476
000130 33 f5 e4 3d 24 01 2a 3d 46 23 ac bd 7b 0b 0f 3e
       0.111795805 0.041504994 -0.084051654 0.13969223
000140 72 5e 39 bd 79 64 3a bb 96 9e ef 3d 5d 4f 6b 3c
       -0.045256086 -0.0028441234 0.1170017 0.014362183
000150 f1 4f eb 3c 76 78 aa bd 78 9f ad bc 39 be 07 be
       0.028724642 -0.08323757 -0.021194205 -0.13256158
000160 84 9b 6e 3e 3a 24 ee 3c 6d b6 dd 3c 86 48 73 bc
       0.23301512 0.029070009 0.027064526 -0.014848834
000170 33 30 e3 bc a6 4c c7 bc 47 7b 56 bc 0f ce 91 3d
       -0.027732944 -0.024328541 -0.013090915 0.07119381
000180 fc 3b 04 bf 77 d5 dc 3d df 31 8e be 2a 7c 10 be
       -0.5165403 0.10782903 -0.27772424 -0.14109865
000190 80 b9 6d be 7c 36 61 be 0d ea 8b bd 3b 4d 86 3e
       -0.23215294 -0.2199344 -0.06831751 0.26230797
0001a0 c8 80 8d be 5c 54 e6 3b b1 dc b0 3f a7 80 4a 3e
       -0.27637315 0.0070290994 1.381735 0.1977564
0001b0 7c 8d 02 be 8e 2e 93 3d 4c 1d 07 3e 98 78 40 3f
       -0.12749285 0.07186614 0.1319477 0.7518401
0001c0 ca b1 4b bc d3 ae 21 3d 8d 69 86 3e 36 c7 a2 3e
       -0.012432525 0.039473366 0.26252404 0.3179261
0001d0 ce ec 87 3e c8 8f 76 bd d3 34 f0 3e 83 26 0b be
       0.26547855 -0.060195714 0.46915302 -0.1358891
0001e0 d8 a1 ce 3e 65 83 91 bf 70 e1 bb 3b 7c 1d 6a 3f
       0.40357852 -1.1368223 0.0057336614 0.9145124
0001f0 d1 78 a6 bd 68 99 25 3e c6 87 eb 3d 90 99 1a be
       -0.08128513 0.16171801 0.11500506 -0.15097642
000200 10 89 9a 3d 2b 95 7c be 2c f1 18 3e 84 d0 d4 3e
       0.07545674 -0.24666278 0.1493575 0.41565335
000210 f7 c9 2b 3e 80 2f 3a 3e e0 ff 00 bf de fb 80 3e
       0.16776262 0.18182182 -0.50390434 0.2519216
000220 14 46 50 be 09 c2 d1 3e 0b 7e 11 be b6 74 78 be
       -0.20339233 0.4096835 -0.14208238 -0.24263272
000230 12 09 6f 3d ad af b3 bc c4 35 82 bd f1 b7 bf be
       0.05835826 -0.021934355 -0.06357911 -0.37445024
000240 f1 e1 6a be 4d 5f 13 bf ee af 8d c0 4e 2c d1 bc
       -0.22937752 -0.5756729 -4.427726 -0.025533821
000250 24 a3 97 c0 c4 73 b6 c0 8e a5 ac 3e 96 53 1e be
       -4.7386646 -5.7016315 0.33720058 -0.15461573
000260 74 b2 a6 3d af 95 72 bf 8b 5a 3c 3f 10 90 ec be
       0.08139506 -0.9475965 0.7357566 -0.4620366
000270 80 72 f2 3e bc 8b fa be 73 da fd be dd 32 c3 3f
       0.47352982 -0.48934734 -0.49580726 1.5249897
000280 98 97 a2 3a fb ee df bf b3 86 50 3e 5b c6 c7 3c
       0.0012404798 -1.7494806 0.20363884 0.024386575
000290 46 5d a9 bc 93 d9 07 be 9e 0f af 3d a6 92 cb be
       -0.020674359 -0.13266592 0.085479006 -0.3976032
0002a0 d2 1d c7 bb 6a 25 68 be 6c c4 94 be 1a 4e a5 be
       -0.006076553 -0.22670522 -0.29056108 -0.3228615
0002b0 33 56 b9 3f bc a1 97 bf b5 ed b3 bf dd 02 19 be
       1.4479431 -1.1846232 -1.4056917 -0.14942499
0002c0 e6 29 53 3e e3 22 27 bd 29 7d 8b bc a0 9a 29 3e
       0.20621452 -0.040804755 -0.017027454 0.16562891
0002d0 13 56 1f bd 57 e2 bc bc d2 c2 0b bc 12 4c 24 3d
       -0.038900446 -0.023057146 -0.0085303355 0.04011161
0002e0 80 5f b5 3f 06 f0 82 3d ac 99 a2 3d ef 90 1e bc
       1.4169769 0.06393437 0.07939467 -0.00967811
0002f0 07 02 18 3d 4a cf b0 3d 6e 63 b2 bd 48 73 1e 3e
       0.03711131 0.08633287 -0.08710371 0.15473664
000300 5a 00 98 be 88 a5 a0 b9 be f9 7b be 47 1a 51 3e
       -0.29687768 -0.00030640909 -0.24606988 0.2042018
000310 2c 81 97 be a4 d7 b7 be 13 33 4d 3f 1b 1f 25 be
       -0.29590738 -0.35906708 0.8015606 -0.16125147
000320 9b 35 db 3d ff c1 d3 bf e6 7e 03 bd 8e 07 d3 3e
       0.10703584 -1.6543578 -0.03210344 0.412167
000330 22 27 4e 3d ad 6a 85 be 98 99 0d be 2d 99 75 3e
       0.05033029 -0.2605795 -0.13828123 0.23984213
000340 4c bd 9f bc 64 7e 84 3d fa 4b 7c bd 4a a2 89 bd
       -0.019499443 0.064694196 -0.061595894 -0.06720407
000350 56 6f 01 bd f5 5f 6a 3c 79 3f 41 bd 33 cf d1 bd
       -0.03160032 0.0143051045 -0.047179673 -0.10244598
000360 5b 49 fc bd 91 bc d2 3e 5c c6 3f 3e 1d c8 93 be
       -0.12318679 0.4115949 0.18728012 -0.28863612
000370 56 70 ec bd d4 b2 99 3d bc aa c3 3d 33 01 32 3e
       -0.11544864 0.07504812 0.095540494 0.1738327
000380 6d a5 c9 3d 58 96 9a be 79 49 a5 be 81 90 d1 bd
       0.098460056 -0.30192828 -0.32282618 -0.1023264
000390 83 08 5f be 80 bf 45 be c7 f6 ba be 95 cf 94 bd
       -0.2178059 -0.19311333 -0.365164 -0.07266156
0003a0 a7 f8 2f 3f f8 d6 1b 3d 3a 9d 57 3d bc 38 f5 be
       0.6873879 0.038046807 0.052640177 -0.47894847
0003b0 9e 29 a2 3e a3 6e 75 be 5c 27 ba be b6 de 59 3e
       0.31672376 -0.23967986 -0.36358154 0.21276364
0003c0 f4 56 c7 c0 37 ba 02 3e 00 5b e2 be f7 60 cc bd
       -6.2293644 0.12766348 -0.44210052 -0.09979432
0003d0 d5 9d 32 bf 09 dc 39 be 18 5d df 3d 70 2a 7e 40
       -0.6977208 -0.18150343 0.10906428 3.9713402
0003e0 8c 10 2b be 5a 93 81 bc 4a 5c 45 3c a2 8a 2b 3e
       -0.16705531 -0.015817333 0.012045929 0.16752103
0003f0 2b 36 b6 bd 32 48 e9 3c c4 97 96 3d 4a 9d 24 be
       -0.088970505 0.028476808 0.07353166 -0.16075626

conv2.fc_neigh.weight f4 [16, 16]
000000 d5 bb 89 bd 4e 42 20 c0 98 c1 01 bf 5a d0 6b bd
       -0.06725279 -2.504047 -0.50686026 -0.057571746
000010 cc ed f6 be a6 4e f0 3b 4d 1e 3d bf bd b5 08 bf
       -0.482283 0.0073335944 -0.7387436 -0.5340231
000020 f5 ee 02 bf d2 59 d3 be e4 18 ea 3d cb a4 2f bf
       -0.5114587 -0.41279465 0.11430529 -0.6861083
000030 d3 ab d3 3f 31 5d e8 bf 6e a0 f2 bf 62 20 02 bd
       1.6536812 -1.815344 -1.8955209 -0.031769164
000040 d2 09 68 bd ad 33 42 3f 10 26 b3 3f 97 13 b4 3c
       -0.05664999 0.758601 1.3995991 0.021981997
000050 04 67 c2 3f 9c 90 d6 3f a0 32 1e 3e 9e 67 39 3d
       1.5187688 1.6762881 0.15449 0.045264833
000060 e6 82 43 3d 36 b2 02 3f 9f 30 1a bf 1d 34 6d 3f
       0.047732256 0.5105318 -0.6023044 0.92657644
000070 09 35 25 bf 0d f1 bd 3e e9 0b 3d 3f fb a1 62 bf
       -0.6453405 0.3709797 0.738463 -0.8852841
000080 1e 3c 88 bf 69 c5 25 40 13 da 7f bf 3d 13 51 40
       -1.0643346 2.590174 -0.9994213 3.2667992
000090 d9 57 1e bf 8c 99 84 3e ec b3 0a 3f 7e d7 ad 3f
       -0.61852795 0.25898397 0.5418079 1.3581388
0000a0 37 ea 12 bf 0c 27 42 3e 28 03 64 3f 1c 7c 47 3f
       -0.57388633 0.18960208 0.89067316 0.7792375
0000b0 f4 45 e4 bf c1 dd ae 3f c2 0a d2 3f 26 a6 e7 3e
       -1.7833848 1.3661424 1.6409533 0.4524395
0000c0 59 84 f7 3d 24 b4 6d bf 87 a3 6d 3e d2 55 a8 be
       0.1208579 -0.92853 0.23206912 -0.32877976
0000d0 50 c7 fd 3d d6 e3 60 3e f8 54 dc bf 58 ce 03 3f
       0.123915315 0.21961913 -1.721343 0.5148673
0000e0 44 34 60 3e 22 b6 0d 40 91 62 58 bf d1 2b 2d c0
       0.21894938 2.2142415 -0.845254 -2.7057993
0000f0 da 6d 46 3f ac c5 1e bf 28 09 87 bf f9 68 8f bf
       0.7751137 -0.62020373 -1.0549669 -1.120391
000100 d6 0d 08 3e f4 d8 a9 bd 17 27 f3 3c 2e 21 29 3f
       0.13286528 -0.08293334 0.029681725 0.66066253
000110 60 a2 82 3d 71 b9 ae 3e 37 19 53 be 73 da 91 3f
       0.06378627 0.34125856 -0.20615087 1.139479
000120 a7 e3 cf 3d 63 06 b4 3f 06 3a ef 3c c8 f1 ac bd
       0.10150843 1.4064449 0.029202472 -0.084445536
000130 91 bd 8d bd 7b 04 42 3e 09 b1 dc 3d 8e c0 24 bf
       -0.069209225 0.18947022 0.10775954 -0.64356315
000140 a3 6c 32 3e 0f 7b dc bc e0 5d fe 3e b6 05 cf 3e
       0.17424254 -0.026914148 0.49680996 0.40434045
000150 09 7e 9a 3e e1 be ee bc 3e 6b 36 3d 2b 79 2c bf
       0.30174282 -0.029143753 0.044535868 -0.6737239
000160 da 2e 79 3f f3 ec 84 bd be bd 8a be 42 ca 2e bd
       0.97337115 -0.06490507 -0.27097887 -0.042673357
000170 8a 6c e5 3d 58 78 95 3d 01 a9 8c bd c7 31 66 bd
       0.11202343 0.072983444 -0.068681724 -0.056199815
000180 5b c0 ec be c0 3d 20 3e 1f ad a8 be 70 07 9c 3e
       -0.46240506 0.15648556 -0.3294458 0.30474424
000190 b9 a3 da bd 43 e4 b7 be a2 0f b7 be 84 27 0e 3e
       -0.10675759 -0.35916337 -0.35754114 0.13882262
0001a0 a3 a7 23 be 84 8a 89 3e 96 d2 ba 40 7f 27 ce 3e
       -0.15981917 0.26863492 5.8382063 0.40264508
0001b0 c4 62 8c be be ca 7c 3e c8 81 8e 3e 1b 31 b3 40
       -0.27419102 0.24686715 0.2783339 5.5997443
0001c0 65 d5 8d 3c a3 dc bc be 96 9f 5e 3f a7 bd 50 be
       0.017313669 -0.36887082 0.8696226 -0.20384847
0001d0 5a 3f 52 3d 51 69 af be f8 4f d1 3f 74 59 96 be
       0.051329948 -0.34260038 1.635253 -0.29365122
0001e0 f2 98 8e bd dc fe 24 c0 27 bb 2a bf 95 98 84 3f
       -0.06962766 -2.5780554 -0.6669182 1.0359064
0001f0 ac c0 9f 3e 74 2c 1d bf 61 89 81 be 36 82 e1 be
       0.31201684 -0.61395955 -0.25300124 -0.44044656
000200 f2 a3 69 3e 9c 0f 5e c0 7d 59 83 3e 39 fc 95 bd
       0.22816446 -3.4697027 0.25654212 -0.07323498
000210 b6 ed e3 3d d8 e0 cb be 90 68 32 be 6a 1e ee be
       0.11129324 -0.3981998 -0.174227 -0.4650758
000220 f4 20 07 bd d7 d1 fb bd 37 e5 e2 be 01 9b 41 bf
       -0.03299041 -0.12295883 -0.44315502 -0.7562714
000230 ca ee 24 40 dc d9 15 c0 cf b2 27 c0 a7 af 9f be
       2.5770745 -2.341422 -2.6202886 -0.311887
000240 99 a8 1e be 2e 54 0c 3e 2e 95 75 bf a3 20 94 bd
       -0.15494002 0.13703987 -0.95930755 -0.072327875
000250 45 92 3c bf b0 8e e2 bd c0 b9 31 bf 56 d4 83 bb
       -0.7366069 -0.11062372 -0.69424057 -0.004023115
000260 b5 cb 8d be 2e ef 8c 3e 80 43 a2 3c 5c 57 cc 3c
       -0.2769448 0.2752623 0.019807577 0.024944
000270 87 28 0d bd 26 46 94 ba 47 63 8b 3d 80 db 8d 3f
       -0.034462478 -0.001131241 0.06806045 1.1082611
000280 a8 21 3d be f6 1b cc be ca 56 a9 bd da 71 9c be
       -0.1846987 -0.39865083 -0.08268507 -0.30555612
000290 38 68 6a be 48 f5 1b 3e 82 e8 85 bd 17 d3 c3 bd
       -0.22891319 0.15230286 -0.06538488 -0.095617466
0002a0 ed 9b 58 be f8 c4 c6 be ba 3d 48 be c2 41 90 be
       -0.21153231 -0.3882215 -0.19554797 -0.2817517
0002b0 92 e9 9c 3d 90 fc c2 be bb a5 65 be 96 16 b4 bd
       0.076617375 -0.38083315 -0.22426502 -0.087933704
0002c0 d7 b2 3e 3e 21 71 01 bf f0 67 8f bf cd 8e 26 be
       0.1862291 -0.50563246 -1.1203594 -0.16265412
0002d0 92 c2 4a bf b0 b8 50 bf 5e 47 85 be 3e 7e 4c 3d
       -0.7920314 -0.8153181 -0.2603101 0.04992508
0002e0 ee ae e9 3f 2b 1b bc bd 0f 6c 02 3f 4b 1b 2e bf
       1.8256509 -0.091848694 0.50946134 -0.68010396
0002f0 16 44 07 3f 60 61 88 be 9c dd 10 bf bc 75 49 3f
       0.52838266 -0.2663679 -0.5658815 0.78695273
000300 17 2e eb be b7 b7 2e 3b e8 a2 fd be 60 d5 03 bf
       -0.459336 0.0026659796 -0.4953835 -0.5149746
000310 10 69 32 bf d4 fc 81 be 85 6a 39 be 97 22 48 3e
       -0.6969156 -0.25388205 -0.1810704 0.19544445
000320 77 dd ed be 77 e9 34 be f6 34 05 3d 6d 16 36 bf
       -0.46458027 -0.17667185 0.03252121 -0.7112797
000330 8c e7 c8 3d eb c3 92 bf c9 13 d6 bc 12 20 b9 3d
       0.09809789 -1.146604 -0.026132481 0.0903932
000340 c5 dc aa bd c3 c6 73 c0 35 d2 b2 3e 31 eb 4b 3e
       -0.0834289 -3.8090065 0.34926 0.19913937
000350 2f 28 14 3e 1a 08 88 be 0e 86 5a 3e b1 13 18 bf
       0.14468454 -0.2656868 0.213402 -0.59405047
000360 4e 78 a3 bd 48 e8 12 bf ad ec b1 be 2d 59 1b be
       -0.07981931 -0.57385683 -0.34750882 -0.15170737
000370 43 37 2a 40 5f 90 1b c0 2b 67 31 c0 44 8b ae bd
       2.659623 -2.4306867 -2.7719219 -0.085226566
000380 bc b3 2b bd b6 3e c1 bf f4 e2 6b bc 14 30 d2 be
       -0.041919455 -1.5097263 -0.014397372 -0.41052306
000390 44 c8 f5 bb 9e 9b 84 be 1f d4 15 bf 08 9a 7f be
       -0.00750068 -0.25899976 -0.58526796 -0.24961102
0003a0 fd dd ab be e8 1e 2d 3e d3 5d 85 be c2 02 29 c0
       -0.335678 0.16906321 -0.26048145 -2.6407933
0003b0 4e 2e a2 3f 73 25 e3 be 29 ef 94 bf d4 e5 7d be
       1.2670381 -0.4436451 -1.1635486 -0.24794704
0003c0 e6 7a 69 bd 65 87 29 3e e8 35 29 3e 15 8d 36 bd
       -0.05700197 0.16555555 0.1652447 -0.04456814
0003d0 b7 f0 2e 3c 16 f7 e9 3d bf 75 18 3e 21 3e dc 3f
       0.010677508 0.11424081 0.14888667 1.720646
0003e0 8b ad 39 be b0 d2 9d 3c 55 dc c8 be 0f 2f a6 3e
       -0.18132608 0.019265503 -0.392306 0.32457778
0003f0 4e 36 46 be 16 57 18 bd 64 dd 74 3e 74 41 13 bf
       -0.19356653 -0.037192427 0.23912579 -0.5752175

conv3.bias f4 [16]
000000 56 5f dd 3d 6a a4 11 3c 8a 15 38 3e 9d d3 46 3d
       0.108091995 0.008889297 0.17976967 0.048541654
000010 5d b8 d6 bd 47 a1 e9 bd 8d c8 d8 3c 46 86 0c bc
       -0.10484383 -0.11407714 0.026462818 -0.008576935
000020 21 f9 ea bd 7e ff 31 be fe a9 9d 3c 49 25 ac be
       -0.11473299 -0.17382619 0.019246098 -0.33622196
000030 65 39 9a 3e 76 d6 3e bc 44 8e 64 3e bd 51 50 3e
       0.30121914 -0.011647811 0.22319895 0.2034368

conv3.fc_self.weight f4 [16, 16]
000000 43 7e 22 3e fa aa 72 be e8 f2 3f bd e1 ac 73 bd
       0.15868478 -0.23698035 -0.046862513 -0.059491042
000010 b3 bb e6 be 72 89 c5 bd fc ac 71 3e 77 ba 73 bd
       -0.45065078 -0.09645356 0.23601145 -0.059504
000020 0d 39 40 bd 9e df 29 3e bf b0 44 bf 93 38 64 3d
       -0.046929408 0.1658921 -0.76832193 0.055718016
000030 d8 6b 3c be a4 1d c4 3d de 75 87 3a e6 13 40 3e
       -0.18400514 0.09575966 0.001033481 0.1875759
000040 3c ff 40 be ec f1 a3 bd 43 c2 0c bd 6c 8b 0e be
       -0.18847364 -0.08005127 -0.03436495 -0.13920373
000050 b0 73 24 3e 82 3a 0f bf bd af ff 3d 22 0e 14 3e
       0.16059756 -0.5594865 0.12484691 0.14458516
000060 cb 08 da 3c 16 b1 3f 3e 11 15 15 bf 14 f7 28 3e
       0.026615521 0.18719897 -0.5823527 0.16500503
000070 38 8d 25 be b9 7e 46 3d d4 92 1c be d9 65 4b be
       -0.16167152 0.048460696 -0.15290385 -0.1986307
000080 af 4a be bc d0 52 83 3c dc e6 fc 3d c3 92 1b 3d
       -0.023228971 0.016030699 0.123487204 0.03798176
000090 64 96 a3 3d 24 6e 36 be 4d 57 06 3e ac 2a 42 3d
       0.07987669 -0.17815453 0.1311924 0.047403976
0000a0 bd 8e 18 3f 6a fb 83 be 54 73 9d 3d 38 71 12 bd
       0.595928 -0.2577775 0.07688013 -0.035752505
0000b0 5e 54 fa bd 69 6c 73 be db 1c c6 bd 7c 3d d6 be
       -0.12223123 -0.23771824 -0.096734725 -0.41843784
0000c0 da 18 11 3e 9a 47 3c 3f 3c 2e 37 bd 55 8d c8 bd
       0.14169636 0.73546755 -0.044721827 -0.09792582
0000d0 52 06 0c 3e 5e 5c 2d 3e be e1 75 bd 75 79 3b 3e
       0.13674286 0.16929767 -0.060029738 0.18308051
0000e0 67 06 45 be cf 6e 88 3d 40 06 aa be 05 e7 8d 3f
       -0.19240724 0.0666176 -0.33207893 1.1086127
0000f0 1f 0c 45 bd 8e b2 2f bd 25 39 21 3e 76 a7 2a be
       -0.048107263 -0.042894892 0.15744455 -0.16665444
000100 8d d0 a9 bd c1 2f 80 3f c5 af 02 3e 43 cc f5 be
       -0.08291731 1.0014573 0.12762363 -0.48007402
000110 a6 be c5 3e 69 d8 90 3d 21 a1 ea bd 97 0e 2c 3f
       0.38622016 0.07072527 -0.11456514 0.6720976
000120 be 84 35 bf f0 45 b9 be 81 84 a8 bf ed 09 cd be
       -0.70905674 -0.3618617 -1.3165437 -0.40046635
000130 51 af ae 3e 10 08 d1 be cd 12 e9 be 78 25 dc b9
       0.3411813 -0.40826464 -0.45522156 -0.00041989586
000140 e2 dc b4 be 5b 08 07 3e ea f6 79 bd 52 a7 28 3c
       -0.3532477 0.13186781 -0.06102649 0.0102937985
000150 3a cd b5 3e 5f 8d ab be 5d 7c 9e bd 79 1b fa bc
       0.35508138 -0.33506295 -0.07738564 -0.030530678
000160 5a f1 f1 3e 85 7e 39 3e 06 20 d4 be c7 98 ee 3b
       0.4725445 0.1811467 -0.41430682 0.007281396
000170 d7 ba 1b bd 83 d2 90 3d b4 c7 4e be e0 11 c3 be
       -0.03801998 0.07071402 -0.20193368 -0.38099575
000180 b0 4d 25 be 85 8b f7 3e d8 a3 37 be a6 b8 c3 3d
       -0.16142917 0.48348632 -0.17933595 0.09556703
000190 de 15 66 be fb 66 68 3e 00 6b a4 bd d8 df 7b bd
       -0.22469279 0.22695534 -0.08028221 -0.06149277
0001a0 26 61 14 3f 57 42 87 bd 46 b3 b0 b9 ae ca cf 3e
       0.57960737 -0.0660445 -0.00033702905 0.4058432
0001b0 78 d2 ef bd 42 f1 6b 3e a4 95 5b 3e d3 00 d5 3e
       -0.117100656 0.23041251 0.21443802 0.4160219
0001c0 b4 a2 5b 3d d9 64 1c 3f 63 20 a7 3d ea b5 2f be
       0.053621963 0.6109138 0.08160474 -0.17159238
0001d0 25 9f c0 bc fc 14 b3 3c 7a 3a 1c 3c e6 91 eb 3d
       -0.023513386 0.021860592 0.009535426 0.11502437
0001e0 5c e3 19 bf 14 65 ba bd 10 85 85 be 4e f3 51 bd
       -0.6011255 -0.0910131 -0.2607808 -0.051257424
0001f0 69 c7 50 bd 2f 46 fb be af cc 51 bd e5 7e ae 3e
       -0.050971422 -0.49076983 -0.051220592 0.34081188
000200 28 23 1d 3f 70 a4 84 3f ab ee e6 bb 4d 6d e5 bd
       0.6138177 1.0362682 -0.0070474944 -0.11202488
000210 0a 54 10 bd 2d 0d 06 3e 8f 99 1f c0 0c b1 f5 bc
       -0.035236396 0.13090964 -2.4937475 -0.02999165
000220 db 22 92 3e 50 ba b1 be c6 20 17 3e f7 8f 40 bf
       0.28542218 -0.34712458 0.14758596 -0.7521967
000230 5e 3f 9b be 3b 41 d3 3e 69 8b 15 bf 47 66 93 3f
       -0.30321783 0.41260704 -0.5841585 1.1515588
000240 95 f1 8a be 65 65 6d 3d 27 ab 38 bd 37 9f 14 3e
       -0.27137437 0.057958025 -0.0450851 0.1451386
000250 af fc 46 bd f2 bb 94 3d 30 5d e9 bd e2 66 87 bd
       -0.04858082 0.0726241 -0.11394727 -0.0661142
000260 4d 9c 37 3e 6d 1c 9b be b8 3a 87 be be 6f 8d 3d
       0.17930718 -0.30295125 -0.26411986 0.06906079
000270 16 6d 07 be 66 13 c6 bb 54 ba f9 be d0 6a f8 3d
       -0.13225207 -0.006044793 -0.4877497 0.12129748
000280 b9 1b 11 3e 11 3d 54 3e bd ec b4 bd 44 b1 86 3d
       0.14170732 0.2072642 -0.08834217 0.065767795
000290 6c c0 2c bc 12 d6 68 bc 92 6a 5d be 26 58 29 3e
       -0.010543924 -0.014211195 -0.21622685 0.16537532
0002a0 66 37 5f 3d f6 ea 5c bf cd d2 21 3e 5f 28 c5 bd
       0.05449619 -0.8629602 0.1580307 -0.09626841
0002b0 14 5f 44 be 97 72 82 be 58 6b 20 3e c0 1b 93 be
       -0.19176894 -0.2547805 0.15665948 -0.2873211
0002c0 70 08 bf 3d 3e 29 3e bf 72 63 6e 3c d0 61 18 bd
       0.09327781 -0.7428168 0.014550077 -0.037202656
0002d0 32 b7 ce be 65 cd 32 be de e7 9d 3e 3b aa 0e 3e
       -0.40374142 -0.17461164 0.30840963 0.13932125
0002e0 14 ae 00 3f 90 04 69 bd c4 d3 27 be 1e b6 05 3f
       0.5026562 -0.056889117 -0.16389376 0.52231014
0002f0 44 a4 a6 3d 4d 97 7a be ec 74 83 3e 83 40 a0 3c
       0.081368 -0.24471779 0.25675142 0.019562012
000300 ce 89 43 be ee d0 83 3e f3 3f c9 bf ff ff 11 be
       -0.19095537 0.25745338 -1.5722641 -0.14257811
000310 5e b0 c0 be 18 1c ab be d4 69 a3 3e b2 27 35 3c
       -0.37634557 -0.3341987 0.31916678 0.011056827
000320 33 0f 9e bf 33 ab d9 bc 69 82 06 be c5 35 ac 3e
       -1.2348388 -0.026570892 -0.13135685 0.33634773
000330 e3 3f 0f be c7 05 ff be 0d 37 48 3e 8f d6 3e bf
       -0.13989215 -0.49809095 0.1955225 -0.7454614
000340 58 b2 da be 75 97 bb be d8 69 21 b9 34 e6 07 bd
       -0.4271419 -0.3663899 -0.00015393586 -0.033178523
000350 86 18 bc 3d 2f fa 1e 3e 36 9c e1 bd f6 e2 57 be
       0.09184365 0.15525125 -0.11016123 -0.21082672
000360 f9 01 e8 3d 77 60 c2 bb dc e0 27 3e 66 c2 b1 3d
       0.11328501 -0.0059319097 0.16394371 0.08679657
000370 72 4f b0 3c 72 46 29 3e a1 45 70 3e c1 9a 5d 3b
       0.021522257 0.16530779 0.23464061 0.0033814164
000380 51 a5 21 3d 53 4d 7c 3d 99 06 0a 3c a6 be c3 bc
       0.0394643 0.06159718 0.008424425 -0.02389462
000390 90 64 c1 be ea d8 54 bd 04 f5 b7 3d 05 4c 83 bc
       -0.37772036 -0.051964678 0.0898228 -0.01602746
0003a0 d4 9d 6c 3d fb bf c5 bb 9d 67 6f 3e 1c 26 bd bd
       0.057767704 -0.0060348487 0.23379369 -0.092357844
0003b0 06 3c dc 3c 14 b3 0a 3e d2 ad a4 3d 72 30 43 3e
       0.02688409 0.13544875 0.08040966 0.19061449
0003c0 a5 9a c5 be 34 73 ff bd fd 7d 99 3d 2f f5 af 3d
       -0.38594547 -0.12473145 0.074947335 0.08591687
0003d0 6c 68 c7 3e 82 86 a0 3e 4b 54 31 be ea 13 14 3e
       0.38946855 0.3135262 -0.17317311 0.14460722
0003e0 90 ab 94 be 69 7f ac 3a d6 2c 82 3d c9 51 9b 3e
       -0.29037142 0.001316053 0.06356208 0.30335835
0003f0 d4 7b cf 3e 86 d9 08 be a5 9a d4 3e 91 6d 3e 3d
       0.4052416 -0.13364229 0.41524234 0.04649121

conv3.fc_neigh.weight f4 [16, 16]
000000 79 61 11 bd b8 0d 3b bf 5e f5 6a 3d 71 e3 c3 bd
       -0.035493348 -0.7306781 0.057362907 -0.095648654
000010 33 18 27 be 55 b1 40 bf 80 b6 8a be 73 53 2b be
       -0.16317825 -0.7527059 -0.2709236 -0.16731052
000020 47 c2 27 bd 0e d3 1d 3e 0c ef 79 be 38 f1 1e 3e
       -0.04095676 0.15412542 -0.24407595 0.15521705
000030 75 5a 67 bb 8e 65 13 3e 9f e8 9b be 99 97 7f 3e
       -0.003530172 0.14394209 -0.30450913 0.24960174
000040 c6 f5 49 be 01 42 87 3e e3 e6 0b 3d 3c f2 5c be
       -0.19722661 0.26417544 0.034155738 -0.2157678
000050 c3 a3 34 3e f4 e9 3e 3e a8 1b b6 3e 53 ec d5 bd
       0.17640595 0.18643934 0.35567975 -0.10445466
000060 ab da 11 bf 29 3b ff 3f 96 f8 ac bd 0f 3e 49 3e
       -0.56974286 1.9939929 -0.084458515 0.1965258
000070 7a aa 1f 3d 01 29 14 3f 5f 02 01 3f dd 3b 98 3d
       0.03898094 0.57875067 0.50394243 0.07433293
000080 24 1d c4 3d 09 bb 32 bf 2d 08 8a 3e 0c a4 88 be
       0.09575871 -0.69816643 0.26959363 -0.26687658
000090 b9 39 31 3e 71 84 73 bd ac 4b 25 3f 9f cd 6c 3e
       0.17307176 -0.059452478 0.6456859 0.23125313
0000a0 8d 48 d6 3d 28 23 8c 3d 7a 58 2c 3d 12 9a 09 bd
       0.10463057 0.06842643 0.042076565 -0.0335942
0000b0 5a 7c a4 3e e9 f7 07 bf 90 74 59 3d ec c0 be be
       0.32126123 -0.53112656 0.05308968 -0.37256563
0000c0 a0 36 9d be 46 bb f7 3e 24 9d 19 be c9 64 c5 bd
       -0.30705738 0.48385066 -0.1500135 -0.09638364
0000d0 0c ee 6f 3e ee 86 97 3f 58 6a 5e be b7 ff 21 3e
       0.23430651 1.1838052 -0.21720254 0.15820204
0000e0 7a fb 0f 3e 0b 8f d7 3d 29 2e cc be c1 29 9f 3f
       0.14060774 0.1052533 -0.39878967 1.2434617
0000f0 68 9c a6 bd 2a 84 a3 be ff e9 31 be 76 a8 6e be
       -0.08135301 -0.3193677 -0.17374419 -0.2330645
000100 85 1e 16 bf 25 11 59 3f a5 96 c7 bc f0 07 0e bf
       -0.5864032 0.84791785 -0.024363825 -0.5548086
000110 61 1e 87 be e8 89 24 3e 5e 05 ec be 9b e7 5c bd
       -0.26390365 0.16068232 -0.46097845 -0.053931814
000120 81 f0 02 bf be 3d 13 bf 09 1b b0 bf 72 3a 41 be
       -0.5114823 -0.57516086 -1.375825 -0.18869951
000130 d2 70 1d 3e 0d 3e 37 bf fe 0c fa bd ef 82 31 3e
       0.15375069 -0.71579057 -0.12209509 0.17335103
000140 cc a6 37 3e 7b 69 78 3f 38 74 e0 bc e0 db 4c bd
       0.17934722 0.9703595 -0.027399167 -0.050014377
000150 de 48 52 3d 5e eb f9 3e 62 60 b6 3d f6 10 93 3e
       0.051339023 0.48812383 0.08905102 0.28723878
000160 0e 2e 61 3e ba 43 85 bf cc e7 1e 3e 16 ae 0d bf
       0.21990225 -1.0411294 0.15518111 -0.5534376
000170 41 49 0a 3d 11 d3 04 bf 69 ac ce 3e 90 45 29 bf
       0.033761267 -0.5188456 0.40365914 -0.6612177
000180 48 6e 3a bf 25 71 10 3f e0 4d 02 bd 57 a4 96 3f
       -0.72824526 0.56422645 -0.03181255 1.1768903
000190 35 27 ab 3e ea e6 f3 3e 0c d2 ef 3d 8f 78 71 bf
       0.3342835 0.4763711 0.11709985 -0.9432458
0001a0 55 58 d0 3e fe b5 56 3e ad ab 9e be c7 d3 9c 3c
       0.40692392 0.20967862 -0.30990353 0.019143952
0001b0 9e f4 d2 3e 91 f5 01 bf 2a eb 41 3d 0b f0 36 3f
       0.41202253 -0.5076533 0.04734341 0.71460027
0001c0 7b 7e cf 3d 6a da 77 3d e5 d2 09 3d 42 6a ed 3d
       0.10131546 0.06051103 0.03364839 0.11592533
0001d0 24 60 d7 ba 6e 65 b6 3d f7 a5 58 bd a3 22 8c 3e
       -0.001643185 0.08906065 -0.05289265 0.27370176
0001e0 87 1a 87 3e 2b 2e d8 3e 89 03 a3 3f 5b 2f ed 3d
       0.26387426 0.42222723 1.2735454 0.11581298
0001f0 29 f1 d9 3e eb 24 93 3e 7c 3f b8 3e f2 3b 3f 3e
       0.42566803 0.28739104 0.35985935 0.18675211
000200 b6 e7 52 3e a3 ef a1 3f 2c cf 26 3d 2f 39 88 3d
       0.20596203 1.2651256 0.04072492 0.06651532
000210 77 bb 00 bf ce 04 3b 3e 9d 77 1c c0 ef 81 9a bc
       -0.5028605 0.18263552 -2.4448006 -0.018860785
000220 8a 1f 8e 3e 99 ad bd 3d 39 de 16 bf 85 8f 7e be
       0.27758437 0.09261627 -0.58932835 -0.24859436
000230 48 5b 59 be 2e 55 dd 3e c1 82 63 3e 91 37 b3 3f
       -0.21226227 0.4322905 0.22217847 1.4001333
000240 5a 8e 99 be 26 8e 21 3e d3 2e 37 3d e7 2c a5 3e
       -0.29991418 0.15776882 0.04472239 0.3226082
000250 6a 39 a9 3e ea 04 c9 bd af f1 b0 3e 57 68 a1 bf
       0.33051616 -0.098153904 0.3455939 -1.2609967
000260 5e 62 16 be ed ac 99 be 2e b3 7f be b0 8f 05 bd
       -0.14685962 -0.30014744 -0.24970695 -0.032607734
000270 08 5f a7 be be ac f5 be 4f 50 f0 be 2d 92 21 3e
       -0.3268969 -0.47983354 -0.4693627 0.15778418
000280 48 8a 65 3f 57 a5 a5 bf ba d6 cc bd c9 b7 5a 3e
       0.89664125 -1.2941083 -0.10001893 0.21359171
000290 35 ad 1b be 4e b4 26 be 68 b9 da 3d 07 3f b9 3e
       -0.15202792 -0.16279718 0.10679895 0.361809
0002a0 3d c8 93 3e bb 86 9a 3e 49 84 53 be 8a d1 2b 3e
       0.28863707 0.30180916 -0.20655932 0.16779152
0002b0 41 1d 43 3d 16 d3 76 3f 5b a7 04 3d 29 2b f8 3b
       0.04763532 0.9641584 0.032386165 0.0075735045
0002c0 3a fe 19 3e 6c 57 1b bf d7 c7 0e be 57 43 55 3f
       0.15038386 -0.6068027 -0.1394342 0.8330588
0002d0 d5 0d bc 3e cf bb 08 3e 03 b5 17 bf 43 2c f4 3d
       0.36729303 0.13352893 -0.59260577 0.11922505
0002e0 fa 4f 1d 3f be 72 54 bf 66 0a 39 3e 16 b0 e2 3d
       0.6145016 -0.8298758 0.18070373 0.11068742
0002f0 0b a6 2d be 49 3c 41 3f a6 36 0e bf bd 72 b3 3e
       -0.16957872 0.7548261 -0.55552137 0.35048476
000300 21 b0 97 bf 0c 62 e4 3e 6e 4d fc bf 5e 7c 79 be
       -1.1850625 0.44606054 -1.971113 -0.24363849
000310 eb 23 85 bf 02 17 43 bf cf a6 3f bd 67 1c bf bd
       -1.0401586 -0.7620698 -0.04678994 -0.09331589
000320 5e 97 95 bf dc 2d 55 be d2 60 0f be dd 33 f6 3e
       -1.1686819 -0.20818275 -0.14001778 0.48086444
000330 58 2c 9e 3d 13 01 97 bf 50 4e 86 3e 9b 7e 1f bf
       0.07723302 -1.1797203 0.26231623 -0.6230256
000340 ba be a5 3f c6 6f 0d c0 e1 26 5d bd 08 62 79 3f
       1.294883 -2.209947 -0.053992156 0.9741521
000350 0c 51 cd be ca c5 92 be e5 be 5b 3d f6 92 05 be
       -0.40100896 -0.28666526 0.053648848 -0.13044342
000360 92 4f 35 3f 5f 2f 25 bf c7 1e 47 bf ac 2b 3c 3f
       0.7082454 -0.6452541 -0.7778134 0.7350414
000370 36 c7 05 3f ae 8f 1d 3f 37 52 38 3d 4c 96 93 be
       0.52257097 0.6154736 0.04500028 -0.28825605
000380 ce 27 0b 3f 52 5d b1 bf 52 56 cc bd 6f f1 46 3f
       0.5435761 -1.3856604 -0.09977402 0.7771215
000390 4f 3e a2 be 3f 7d c0 bd 67 bb 4f be 30 db f1 be
       -0.31688163 -0.09398889 -0.20286332 -0.4723754
0003a0 72 0a 62 3f 51 a2 01 3f 60 cf 29 3f 8f ab fc 3e
       0.8829719 0.506383 0.66332054 0.4934964
0003b0 cf e6 b1 be 35 df 88 3e 11 86 43 3f 2c 01 41 be
       -0.34746405 0.26732793 0.76376444 -0.18848103
0003c0 43 09 3c bf e2 ec fa 3d c3 0e 9b 3e c9 a5 4e be
       -0.7345163 0.12252213 0.302847 -0.2018043
0003d0 d3 ee 38 3d c2 2f 06 3f c7 ef 8c 3e b2 1e ee 3d
       0.045149636 0.5241662 0.27526686 0.116269484
0003e0 68 d2 79 bf 85 a1 1e 3e 9a c1 e5 3e c3 63 41 3f
       -0.9758668 0.15491302 0.4487427 0.7554285
0003f0 58 e8 a3 3e 4d 3c 37 be 21 6f 9c bd 97 26 20 be
       0.32013202 -0.17894097 -0.07638384 -0.15639721

conv4.bias f4 [16]
000000 a9 38 0a be bd f4 ef be c1 e6 01 be c5 65 3f 3e
       -0.13498177 -0.46866408 -0.12685682 0.18691166
000010 c3 73 0a 3b 11 23 e7 3d 90 b3 8c 3d 4c b2 82 3d
       0.0021126128 0.11285985 0.06870186 0.06381664
000020 42 f9 13 be 9e 8d ba be 6e 23 04 3e e1 59 64 3c
       -0.14450553 -0.3643617 0.1290414 0.013937444
000030 16 94 0e 3f 93 42 f3 bd b7 d0 12 bd a5 54 f0 be
       0.5569471 -0.118779324 -0.035843577 -0.4693958

conv4.fc_self.weight f4 [16, 16]
000000 a8 0f f3 be 15 cf 49 be 3c 4a 38 3e 78 13 9d bf
       -0.47472882 -0.19707902 0.17997068 -1.2271566
000010 92 4f 1d bf 7e da 04 bf 90 74 43 be 48 dc 5d be
       -0.6144954 -0.5189589 -0.19087434 -0.21666062
000020 02 ce 83 3f e6 0a 06 bf ef 26 06 3f 65 aa 5a bd
       1.0297244 -0.5236038 0.5240316 -0.053385157
000030 98 33 f9 be 04 3d b5 be 34 ee 54 3f 22 f2 83 be
       -0.48672175 -0.35398114 0.8317597 -0.2577067
000040 e7 39 33 3e 5c 47 17 3f f6 bd 97 3c c2 4f e4 3e
       0.17502557 0.5909326 0.018523198 0.445921
000050 c8 77 21 be 75 b2 36 be 1c 46 95 3e fc b3 c6 3c
       -0.15768349 -0.17841513 0.29155052 0.024255745
000060 70 4d ad bc 27 48 01 3f a7 ae a9 3e a9 43 d3 3d
       -0.02115509 0.5050072 0.33141062 0.103156395
000070 cb a9 01 bd 52 b9 e9 bd b1 dc 5f be f2 11 3c 3c
       -0.031656068 -0.114123 -0.21861531 0.011478888
000080 dc b1 b2 bd 61 0e 5b 3e 03 6f b0 3d 7f 01 53 bd
       -0.0872533 0.21392204 0.08614924 -0.0515151
000090 2f 5c a1 be bd 54 08 be 34 88 f4 be 1d 17 bd be
       -0.31515643 -0.13313575 -0.47760165 -0.36931697
0000a0 6c e0 f0 be 99 92 01 bf dd 4c b8 be 58 fa b7 3e
       -0.4704622 -0.50614315 -0.35996142 0.35933185
0000b0 91 5a 0b bf 41 41 7f 3e a8 0c ea 3e 22 94 ce 3d
       -0.5443507 0.24927236 0.4571278 0.10086848
0000c0 ef 81 fa bd f2 46 44 be db ab 6e bd 55 10 02 3f
       -0.12231814 -0.19167688 -0.058269363 0.5080617
0000d0 12 40 43 be d5 b3 bf 3e c9 b6 1b be b3 89 db be
       -0.1906741 0.37441888 -0.15206446 -0.42878494
0000e0 87 12 94 be fb b3 33 bf 5f 94 0d 3e 94 05 e9 3d
       -0.28920385 -0.70196503 0.1382613 0.11378017
0000f0 e8 d3 6b 3e 9a 5f 85 bd f5 18 10 be 93 87 9b 3e
       0.23030055 -0.06512375 -0.1407202 0.30376872
000100 a1 ad 88 3e 63 c7 18 3f 89 e8 22 3e 58 19 db be
       0.26694968 0.5967924 0.15909018 -0.42792773
000110 72 e9 e1 be a2 d1 64 be dd 45 b3 be 55 b4 6c be
       -0.44123417 -0.22345594 -0.3501424 -0.23115666
000120 f2 e6 35 bf a4 b4 5a bf d5 2a 6e 3f 56 03 94 3f
       -0.7105552 -0.85431886 0.93034106 1.1563518
000130 d6 64 36 3f 59 83 81 3e 08 3f 36 3f e9 3f e7 be
       0.71247613 0.25295523 0.7118993 -0.45165947
000140 12 b1 fd bc 72 2a 34 be 0e c9 ed 3d 88 83 65 39
       -0.030968223 -0.17594317 0.11610614 0.00021888141
000150 7e 5b 35 3f cb e8 cb 3e 05 28 c1 be 54 a5 27 3f
       0.7084273 0.39826044 -0.37725845 0.65486646
000160 0c d6 11 3e 49 76 18 bd e0 68 26 3f 59 a7 9b 3f
       0.14241809 -0.03722218 0.65003777 1.2160445
000170 dd 69 a0 be aa 63 48 be fb 6b 46 3f c5 4a 2e be
       -0.31330767 -0.19569269 0.77508515 -0.1702071
000180 d3 91 e8 be e9 40 ec 3e cc 5d 62 3f e3 f4 07 3f
       -0.45423755 0.46143273 0.8842437 0.5310804
000190 a8 67 44 bf 48 8f c7 be 76 4a 51 bf e5 14 49 bf
       -0.76720667 -0.38976502 -0.81754243 -0.7854751
0001a0 8f 0a 86 be f2 6e 82 bf a1 3b 53 3f 59 6a 2e be
       -0.2617993 -1.0190108 0.8251286 -0.17032756
0001b0 ab c4 97 3e eb 35 f3 bd 21 d7 c0 3a ed 0e cd 3e
       0.29642233 -0.118755184 0.0014712551 0.4005045
0001c0 3a 74 84 3e 6f 77 13 be 9a 12 da be 59 44 77 be
       0.25869924 -0.14401029 -0.42592317 -0.24147166
0001d0 e7 e9 20 bf c8 f9 0b 3d 8c d2 03 3f 6c e9 20 bd
       -0.62856907 0.034173757 0.51493144 -0.03928511
0001e0 40 04 9d 3d 34 bd e7 bd 28 2d 08 be ce e6 e3 bd
       0.07666826 -0.113153845 -0.13298476 -0.11128007
0001f0 ba a4 0e 3f 99 07 1d 3e 24 c0 8e 3f 1f 6c 23 bd
       0.557201 0.1533493 1.1152387 -0.039898034
000200 e2 80 1d 3f 98 c9 f6 3d 03 ce 91 3e b6 61 62 bf
       0.61524785 0.1205017 0.28477487 -0.88430345
000210 17 77 55 bf af af 85 3f de 53 3c 3e af 9a 61 bf
       -0.8338484 1.0444239 0.18391368 -0.88126653
000220 42 4f a7 be 6d e8 3e 3f d9 ed de 3d 1a c3 e1 be
       -0.32677656 0.74573404 0.108852096 -0.44094163
000230 ef c4 89 be b2 63 23 3e 0e 43 f1 3e 2b 67 f5 be
       -0.2690806 0.15956 0.4712147 -0.47930273
000240 ef 2f 98 bc cd c7 06 3e e3 37 a7 bd 49 08 2b 3e
       -0.018577544 0.13162155 -0.081649564 0.1670238
000250 25 d5 82 bf e5 31 10 bf f6 d1 38 3f 3c 88 46 3e
       -1.0221297 -0.56326133 0.72195375 0.19387907
000260 1d 85 bd be d6 94 9c be 91 cd 42 be 50 c2 1f 3f
       -0.3701562 -0.30582303 -0.1902373 0.6240587
000270 5b 74 08 bc 3b 2d c4 3e 11 f2 30 3f e0 22 82 bd
       -0.008328523 0.38315758 0.69119364 -0.06354308
000280 ef d0 59 bf 15 2f 43 bf 78 eb 24 be 07 22 71 3f
       -0.8508443 -0.76243716 -0.16105449 0.94192547
000290 92 a7 fa be 56 b2 f3 3e bd 22 41 3f a2 f5 dd 3d
       -0.4895597 0.47596997 0.7544363 0.10837866
0002a0 7f 31 98 3f 85 1f 47 bc 69 b8 04 3f 21 ed 38 bd
       1.1890105 -0.012153511 0.5184389 -0.04514802
0002b0 73 2a 1f be 67 7c 9b bd 09 80 45 3f 8b d7 6e 3d
       -0.15543537 -0.07592087 0.7714849 0.058311027
0002c0 df 56 90 3e 69 e1 c1 3e 7c 6a c0 3e e9 fe ee be
       0.28191277 0.37867287 0.3758124 -0.46678856
0002d0 45 bb f4 3d 64 bb c7 be d2 35 a2 be 68 a5 79 3e
       0.11949781 -0.39010155 -0.31681687 0.24379504
0002e0 92 f0 b1 be 23 ce 67 3e 8a 67 9c 3e 54 1a 77 bd
       -0.34753853 0.22637229 0.30547744 -0.060327843
0002f0 c8 4b 18 3e ed 8d f7 be f2 1b 1a 3f 2d 59 0a be
       0.14872658 -0.48350468 0.6019889 -0.1351058
000300 b8 67 2f 3e 7b ca 61 3f 1e 60 83 3e 29 3a db 3e
       0.1712941 0.88199586 0.2565927 0.4281781
000310 55 8e 8c be 17 76 fc 3d b6 fe 15 3f 4e c8 3b be
       -0.2745234 0.12327211 0.58591783 -0.18338129
000320 21 65 1e bf 97 4f 26 3e b8 9e 06 be f5 dc 12 3f
       -0.6187306 0.16241299 -0.13146484 0.57368404
000330 fd cd 4f bf d6 db 0a 3f 61 4d 2d 3f 86 77 82 3e
       -0.8117369 0.54241693 0.67696196 0.25481814
000340 04 36 46 3e 86 4f 05 be 95 08 4d 3e 8c 36 29 be
       0.19356543 -0.13018617 0.20022805 -0.16524714
000350 d9 5d 98 3e cc 19 3f 3d aa a4 01 3f ed 9c aa 3e
       0.297591 0.04665546 0.5064188 0.3332285
000360 e7 72 db 3e 04 ec a7 3e 92 d3 00 3f ba 9f 8c 3b
       0.428611 0.32797253 0.5032283 0.004291502
000370 4e ac dc 3d cc 55 eb be 8d 0c 82 be af b8 7d be
       0.10775052 -0.45963895 -0.254002 -0.24777482
000380 7c a6 20 3f 2a 5d 91 3f ca 02 34 3f 91 23 2b 3e
       0.62754035 1.1356556 0.70316756 0.16712786
000390 d4 90 97 3d 89 d1 91 bf d2 8a 0a 3f 24 09 fe 3e
       0.07400671 -1.139207 0.54118073 0.4961635
0003a0 4d 05 2a be f1 ba be 3d f2 11 0c 3e 59 d3 16 3b
       -0.16603585 0.09313 0.1367872 0.0023014157
0003b0 b4 cc 3b bc 9d 74 4b 3d 58 e4 5c 3e 2f af c2 3e
       -0.011462379 0.049671758 0.21571481 0.3802428
0003c0 9e 31 fe bd a9 8c 3b 3e f6 b1 c1 3e 4f 8f 5c 3f
       -0.124118075 0.18315376 0.37831086 0.8615617
0003d0 2f ff 6c bd 0e 0a 91 3f 3e ed 48 3e 4b b3 22 bf
       -0.05786055 1.1331193 0.1962175 -0.6355483
0003e0 3d 42 84 be f0 62 ac 3e 81 53 93 3f 61 91 4f be
       -0.25831786 0.33669233 1.1509858 -0.20270301
0003f0 ed 7a e8 3d cd 42 6a be a0 08 58 bf 29 be 8a be
       0.11351571 -0.22877045 -0.8438816 -0.27098206
