model.pth (torch, 29451 bytes, 9 tensors)

conv1.bias f4 [16]
0	0xbc8195c1	-0.015818479
1	0xbc6ec335	-0.014572908
2	0xbaff046d	-0.0019456275
3	0x3ced75e1	0.028986873
4	0x3c9944e2	0.018709604
5	0x3ac14d42	0.0014747756
6	0xbc9ca599	-0.019121932
7	0x3c2581c8	0.010101743
8	0x3cc74308	0.024323955
9	0x3b2b4819	0.0026135503
10	0x377b1482	1.4965541e-05
11	0xbad18f42	-0.0015988129
12	0x3d036bab	0.032085102
13	0xbafba567	-0.0019199074
14	0x3b39170e	0.0028242501
15	0xbbc5e482	-0.006039203

conv1.fc_self.weight f4 [16, 174]
0	0xbd6b62aa	-0.05746714
1	0x3e2e9fd7	0.17053162
2	0xbdd45648	-0.10368019
3	0xbcb75052	-0.022377167
4	0xbdd21d07	-0.10259443
5	0xbe515a3c	-0.20444578
6	0xbe4cf016	-0.2001346
7	0xbdf6031f	-0.12012314
8	0x3e73f105	0.2382241
9	0xbdd6d34e	-0.10489522
10	0xbe52158e	-0.20516035
11	0xbc82d815	-0.015972177
12	0xbb4f6220	-0.003164418
13	0xbe9325b6	-0.2873971
14	0xbea9d8c1	-0.33173183
15	0xbea1679b	-0.31524357
16	0xbd0e6e66	-0.034773253
17	0xbdac80f8	-0.08423036
18	0xbc8bc7ed	-0.017063105
19	0xbd806a50	-0.062702775
20	0xbdc7483e	-0.09730576
21	0xbad13ad9	-0.0015962973
22	0xbe14a8e4	-0.14517552
23	0x3d9af3da	0.07566042
24	0xbd9f5e71	-0.07781685
25	0xbd89e5be	-0.06733273
26	0xbc563304	-0.0130736865
27	0xbd2b6fa0	-0.0418545
28	0x3e2f457d	0.17116351
29	0x3da032c2	0.07822181
30	0x3dde418a	0.10852344
31	0x3dfd3e14	0.12365356
32	0x3e361491	0.17781283
33	0xbe14926f	-0.14508985
34	0xbe13bd05	-0.14427574
35	0xbd4b3202	-0.049608238
36	0xbd600e7c	-0.054701313
37	0xbd7ed836	-0.062217914
38	0x3e449a92	0.19199589
39	0x3e44b950	0.19211316
40	0x3d8779c2	0.0661502
41	0x3d18806a	0.03723184
42	0xbe01e762	-0.12685922
43	0x3cf71772	0.030162547
44	0x3be38586	0.0069434075
45	0x3d96f52a	0.0737098
46	0xbc56d13e	-0.013111411
47	0x3d6afe01	0.057371143
48	0xbe0b7e01	-0.13622285
49	0x3dd9bd9c	0.10631868
50	0xbd148a7b	-0.036264878
51	0x3e8781b0	0.2646613
52	0xbcab3945	-0.020901332
53	0xbdc81c97	-0.09771078
54	0x3cc321d9	0.02381985
55	0x3c2d6ba2	0.010584744
56	0x3da3356f	0.07969176
57	0xbd380327	-0.04492488
58	0x3df3c753	0.119032525
59	0x3d3b660c	0.045751616
60	0xbdb1c797	-0.08680647
61	0xbdfe3c39	-0.1241383
62	0x3c93a086	0.01802088
63	0x3d5e0e4f	0.054212864
64	0x3c62375a	0.013807142
65	0xbb3357e2	-0.0027365615
66	0x3e8eadcb	0.2786697
67	0xbda9f4c1	-0.08298636
68	0x3db500d9	0.08838052
69	0xbde0d12f	-0.109773986
70	0x3d82f9be	0.06395291
71	0xbdca6894	-0.09883228
72	0x3e00b448	0.12568772
73	0x3caeaf46	0.021323811
74	0xbd102be3	-0.035198104
75	0x3d1e1401	0.038593296
76	0xbe28c591	-0.16481616
77	0x3cf0a337	0.029374702
78	0xbda006c1	-0.07813788
79	0xbd564b92	-0.052318163
80	0x3e93f891	0.2890058
81	0xbd926538	-0.07148212
82	0xbc09c46c	-0.008408647
83	0xbcb7e705	-0.022449026
84	0x3cac613a	0.021042455
85	0x3d0e4a8e	0.03473907
86	0x3c52a53e	0.01285678
87	0x3e91f140	0.28504372
88	0xbd677e7d	-0.056517113
89	0x3e9db82e	0.3080458
90	0x3d8b1366	0.06790809
91	0x3c11b916	0.008894226
92	0x3bf018d1	0.007327177
93	0xbdcca43d	-0.099922635
94	0xbdd13105	-0.10214428
95	0x3d00d23d	0.0314505
96	0x3dae1d6f	0.08501708
97	0xbd20aaae	-0.039225273
98	0x3e58302d	0.21112128
99	0x3e10f884	0.14157301
100	0x3e3dab9b	0.18522494
101	0x3d180b29	0.03712002
102	0x3ddaa0c3	0.10675194
103	0xbea7c76f	-0.32769343
104	0x3e55d87d	0.20883365
105	0xbd73b7fe	-0.05950164
106	0xbd8b0d13	-0.06789603
107	0xbd1b47e4	-0.037910357
108	0x3e22567d	0.15853305
109	0x3d639c5b	0.055569034
110	0x3ddd25a1	0.10798193
111	0x3e55c206	0.20874795
112	0x3eedcfe7	0.4644768
113	0xbddf0453	-0.10889497
114	0xbd9a9b3d	-0.075491406
115	0x3d83d8a3	0.064378045
116	0xbdfef2a8	-0.12448627
117	0x3d709e3a	0.058744647
118	0x3d3b0c7e	0.04566621
119	0x3ec41652	0.3829828
120	0xbdb1e70e	-0.08686648
121	0xbcee4857	-0.029087229
122	0x3e3ba681	0.18325235
123	0xbe1ababa	-0.15110293
124	0x3e674186	0.22583589
125	0x3d137e94	0.036009386
126	0xbdc388ae	-0.09547554
127	0xbde6b071	-0.11264122
128	0xbd016974	-0.03159471
129	0x3e0b193e	0.13583848
130	0xbd08bd93	-0.033383917
131	0x3e8bd02e	0.27307266
132	0x3ddabfc6	0.10681109
133	0xbde6b64b	-0.112652384
134	0xbda8193a	-0.082079366
135	0xbe2a2427	-0.16615354
136	0xbe191c51	-0.14952208
137	0x3db10b61	0.086447485
138	0x3e2d955d	0.16951509
139	0xbe230d65	-0.15923078
140	0x3d366c3a	0.044536807
141	0x3dea51dc	0.11441395
142	0x3db6a16d	0.08917508
143	0x3dcee92f	0.1010307
144	0xbd5e5df0	-0.054288805
145	0x3e6b7844	0.22995096
146	0x3ea030ee	0.3128733
147	0x3cb34e12	0.021887813
148	0xbd926532	-0.07148208
149	0xbe055636	-0.13021168
150	0x3d96fe82	0.07372762
151	0x3e1eccff	0.15507887
152	0xbe0e591c	-0.1390118
153	0x3e248192	0.16065052
154	0xbeb43d62	-0.3520308
155	0xbc651ef7	-0.013984433
156	0x3c947210	0.018120795
157	0xbd04f49f	-0.03245985
158	0xbc13afae	-0.009014053
159	0xbcf4db48	-0.029889718
160	0xbd5909b5	-0.052987773
161	0xbe3e7874	-0.18600637
162	0x3b03062f	0.00199927
163	0x3dbabc79	0.091179796
164	0xbd0573cc	-0.032581136
165	0x3dfa1d63	0.12212636
166	0xbe3af979	-0.18259229
167	0xbdcd2e82	-0.10018636
168	0xbb57b937	-0.0032916793
169	0xbd1a1b04	-0.03762342
170	0xbce913df	-0.028451858
171	0xbdc985e8	-0.09839994
172	0x3e52ce9c	0.20586628
173	0xbe835894	-0.25653517
174	0x3d6aea6c	0.05735247
175	0xbe119736	-0.14217839
176	0xbd843a8c	-0.064564794
177	0x3df1605a	0.11785956
178	0xbe3110e4	-0.172916
179	0xbca4ac09	-0.020101564
180	0xbe18c066	-0.14917144
181	0xbe79bc9e	-0.24388358
182	0xbe108b1f	-0.1411557
183	0xbdd4916a	-0.10379298
184	0xbe199539	-0.1499833
185	0x3dbcc53e	0.092173085
186	0x3e74e3c5	0.23915012
187	0x3c15d093	0.009143966
188	0x3cabd635	0.020976165
189	0xbeaaa64f	-0.33330008
190	0xbe161651	-0.1465695
191	0xba920cce	-0.0011142732
192	0x3c888bb1	0.016668173
193	0x3e260bcf	0.16215442
194	0x3e955f46	0.2917425
195	0x3d5bd812	0.053672858
196	0xbe289de7	-0.16466485
197	0xbdf91028	-0.12161285
198	0xbdf7b102	-0.120943084
199	0xbdeb7aaf	-0.114980094
200	0xbd73984e	-0.05947142
201	0xbdb72042	-0.089416996
202	0xbe33005c	-0.17480606
203	0x3c2c7c13	0.0105276285
204	0x3d85f638	0.06541103
205	0xbe2be3fd	-0.1678619
206	0x3e2a51dc	0.1663279
207	0xbc4c0eec	-0.0124547295
208	0xbc24c246	-0.010056084
209	0x3cfe3755	0.031032244
210	0x3d846397	0.06464308
211	0xbd95c56d	-0.073130466
212	0xbd8459c9	-0.06462438
213	0xbe7708ab	-0.241244
214	0xbe18fea9	-0.14940895
215	0x3e635466	0.22200164
216	0x3d1f2050	0.038849175
217	0xbbd68569	-0.0065466654
218	0xbd28087a	-0.04102371
219	0xbd2235d8	-0.03960213
220	0x3e1f870f	0.15578865
221	0xbe6c5866	-0.23080596
222	0x3e525892	0.205416
223	0x3e871e6a	0.26390392
224	0xbd47daa1	-0.048792485
225	0xbc91f222	-0.017815653
226	0x3e38096e	0.17972347
227	0x3d801754	0.062544495
228	0xbd1e4f09	-0.038649593
229	0xbb62439c	-0.0034525162
230	0x3dd9b284	0.10629752
231	0xbd5c2369	-0.053744707
232	0xbd3e2524	-0.04642214
233	0x3ca7a449	0.02046408
234	0x3df9ff0a	0.12206848
235	0xbeb81c09	-0.3595889
236	0x3e3ab1ba	0.1823186
237	0x3de15b52	0.11003746
238	0x3a146e0e	0.00056621514
239	0x3db21afe	0.086965546
240	0x3e3404cf	0.1757996
241	0x3d12208b	0.035675567
242	0xbd82cca4	-0.06386688
243	0x3e95731d	0.29189387
244	0x3d9ca265	0.07648162
245	0xbdbfac66	-0.09359054
246	0xbd6486e9	-0.055792723
247	0xbd81556d	-0.06315122
248	0xbb52137d	-0.0032055073
249	0x3e322fc6	0.17401037
250	0x3e51be60	0.20482779
251	0x3d8b7fd6	0.06811492
252	0xbe25b2a5	-0.16181429
253	0x3dc20c0c	0.09474954
254	0x3db6ed1e	0.08931945
255	0x3e0d4a7f	0.13797949

conv1.fc_neigh.weight f4 [16, 174]
0	0x3d9ec8fe	0.0775318
1	0x3e3cbc2c	0.18431157
2	0x3e1406ea	0.14455763
3	0x3d2c2efc	0.042036995
4	0x3e8f47ed	0.27984563
5	0xbdac431e	-0.08411239
6	0xbd8d9e3f	-0.06914949
7	0xbe034601	-0.12819673
8	0x3e912d88	0.2835505
9	0xbd8aa7a2	-0.06770255
10	0xbe0ace14	-0.13555175
11	0x3eddb2c9	0.43300465
12	0x3eb051b1	0.34437326
13	0xbe9058c8	-0.28192735
14	0xbeec1368	-0.46108556
15	0xbe4ca9e0	-0.19986677
16	0x3d9d8cd0	0.076928735
17	0x3c11b2fd	0.008892772
18	0xbe6807c9	-0.2265922
19	0x3dfdf805	0.124008216
20	0xbe242da7	-0.1603304
21	0xbd818fc4	-0.06326249
22	0xbd94d7aa	-0.07267697
23	0x3ebecdf9	0.3726652
24	0xbdf1329d	-0.11777232
25	0x3cf63e22	0.030058924
26	0xbc931295	-0.017953197
27	0xbcd03817	-0.02541737
28	0x3e8df22a	0.2772382
29	0x3a55cc29	0.00081557274
30	0x3e0c594b	0.13705938
31	0x3e0d0da3	0.13774733
32	0x3ecad01d	0.39611903
33	0xbd440dba	-0.047864653
34	0xbe9fc1f4	-0.31202662
35	0xbdb09b74	-0.086234
36	0x3dea4e5a	0.114407256
37	0x3d3c17e1	0.04592121
38	0x3dd8346b	0.10556873
39	0x3e190f30	0.149472
40	0x3e1d2259	0.15345134
41	0xbc41a7c0	-0.01181978
42	0xbeb58a3b	-0.35457024
43	0x3e55ada8	0.20867026
44	0xbcdc6ec6	-0.02690829
45	0x3e1400fa	0.14453498
46	0x3d55a214	0.052156523
47	0x3ea7645e	0.32693762
48	0xbd41b1c7	-0.047288682
49	0x3ddb9e75	0.10723583
50	0x3e668a0e	0.22513601
51	0x3f05174f	0.5198869
52	0x3ca9e7c0	0.02074039
53	0xbe6780b8	-0.22607696
54	0x3e48b52e	0.19600365
55	0x3dd4ad32	0.10384597
56	0x3d660429	0.05615631
57	0x3e1c2b95	0.15251
58	0x3cfa3d7d	0.030546898
59	0x3de51605	0.111858405
60	0xbeb1656d	-0.34647694
61	0xbe073fb0	-0.13207889
62	0xbdd6bf82	-0.10485746
63	0xbe2bdfef	-0.16784643
64	0x3e7a5281	0.24445535
65	0x3e74cc14	0.23905975
66	0x3e0c37db	0.13693182
67	0x3ddbcf1e	0.10732864
68	0x3d610b88	0.054942638
69	0xbea98864	-0.3311187
70	0xbd4a481c	-0.049385175
71	0xbdd536c8	-0.10410839
72	0x3d2c8b61	0.04212511
73	0x3d5c43e0	0.05377567
74	0xbdce6b1f	-0.100790255
75	0xbe3192b8	-0.17341125
76	0xbe3b4460	-0.18287802
77	0x3d6ee32e	0.058322124
78	0xbe85aa57	-0.2610652
79	0xbdfbe20f	-0.12298977
80	0x3e5d21f1	0.21594979
81	0xbea2a337	-0.31765148
82	0xbe73b1a6	-0.23798236
83	0x3dd2eab2	0.10298671
84	0x3bf2107a	0.007387218
85	0xbe235935	-0.15951999
86	0x3e327589	0.17427649
87	0x3dc80c47	0.09767967
88	0xbd6c8b8c	-0.05775027
89	0x3d432415	0.047641832
90	0xbec85618	-0.39128184
91	0xbb6dd595	-0.0036290635
92	0x3bc314d7	0.005953412
93	0x3e3b627d	0.18299289
94	0xbe991aee	-0.29903358
95	0x3c3e76a9	0.0116249705
96	0xbd966188	-0.07342821
97	0xbe45160e	-0.19246694
98	0x3cd0bff2	0.025482152
99	0x3e2514af	0.16121171
100	0x3e6bf328	0.23041975
101	0x3de76975	0.11299411
102	0x3e4b9a8c	0.19883174
103	0xbe986419	-0.29763868
104	0x3ec7baf4	0.3900982
105	0x3c01af90	0.0079153925
106	0x3ca7739e	0.020440873
107	0x39ae796a	0.00033278327
108	0xbdfe82f1	-0.12427319
109	0x3e376402	0.17909244
110	0xbec1f3a8	-0.37881207
111	0x3e2d641b	0.16932718
112	0x3ed45f89	0.41479138
113	0xbe6f7d95	-0.2338775
114	0xbe976e0c	-0.29576147
115	0x3e9b0863	0.30279836
116	0xbe86d299	-0.26332548
117	0x3e8e0e36	0.27745217
118	0x3da8e6b3	0.082471274
119	0x3e9061ef	0.28199717
120	0x3dba4bea	0.09096511
121	0xbe02f0a5	-0.12787111
122	0x3e28d10f	0.16486
123	0xbc6bfea9	-0.014403977
124	0x3e6b2132	0.22961882
125	0xbc6fa16d	-0.014625889
126	0x3e1dcf6c	0.15411156
127	0xbd2b4c0a	-0.041820563
128	0xbdba9933	-0.09111252
129	0xbe2ab982	-0.16672328
130	0xbe24e94b	-0.16104619
131	0xbe131288	-0.14362538
132	0xbe91c553	-0.2847086
133	0xbd96db91	-0.07366098
134	0xbd608436	-0.054813586
135	0xbe4b088f	-0.19827484
136	0xbe9271b8	-0.28602386
137	0x3c4ef6b4	0.012632061
138	0x3e37fcb3	0.17967491
139	0xbec53ff9	-0.3852537
140	0xbc28cc59	-0.0103026265
141	0xbe0e4302	-0.13892749
142	0x3e442f0a	0.19158569
143	0x3e8070f4	0.25086176
144	0x3eaa640c	0.33279455
145	0x3e6d38d4	0.2316621
146	0x3e40c25b	0.1882414
147	0xbdbdd693	-0.092694424
148	0xbd8c868c	-0.068616
149	0xbe2390a7	-0.15973149
150	0xbdde1fed	-0.10845933
151	0xbd8760dc	-0.06610271
152	0x3a822977	0.000993057
153	0xbe551f44	-0.20812708
154	0xbde3740f	-0.11106121
155	0x3e216eed	0.15764971
156	0x3d95f947	0.073229365
157	0x3d59f7b5	0.053214747
158	0x3dcae85c	0.099076
159	0x3d132a1f	0.03592884
160	0x3dcaac96	0.098961994
161	0xbee1b7b6	-0.44085473
162	0x3dc6b1bc	0.09701869
163	0x3e94f609	0.2909396
164	0xbe42c2c9	-0.19019617
165	0x3e760b5e	0.24027774
166	0xbe242665	-0.16030271
167	0x3dcb6381	0.09931088
168	0x3d852a09	0.06502158
169	0xbe46a62c	-0.19399327
170	0x3dc07edf	0.09399199
171	0x3d6c11f7	0.05763432
172	0x3cb761a1	0.02238542
173	0xbdbf0bab	-0.09328397
174	0x3dbde926	0.09272985
175	0x3db83c26	0.089958474
176	0xbd33863a	-0.04382918
177	0x3e38d976	0.18051705
178	0xbe957add	-0.291953
179	0x3e3b8843	0.18313698
180	0xbe59a32a	-0.21253648
181	0xbe2dc7aa	-0.16970697
182	0xbddaedb3	-0.10689869
183	0x3d90d7a8	0.07072383
184	0x3d0186c7	0.031622674
185	0x3ede5c19	0.4342964
186	0x3e117258	0.14203775
187	0x3d1194a5	0.03554215
188	0xbe96e5d3	-0.29472217
189	0xbeb63e3d	-0.3559436
190	0xbcf3fc07	-0.029783262
191	0x3e032870	0.12808394
192	0x3cec736f	0.028863637
193	0x3d8e6211	0.069522984
194	0x3cd1f0c3	0.0256275
195	0x3dea765f	0.11448359
196	0xbe155093	-0.14581518
197	0x3d54778c	0.05187182
198	0xbc8c9a54	-0.017163433
199	0xbe02a33f	-0.12757586
200	0x3e492d72	0.19646242
201	0xbea13e58	-0.31492877
202	0xbe95e0e2	-0.29273134
203	0xbea8decb	-0.32982478
204	0x3dbea743	0.093092464
205	0x3bcea24b	0.006305968
206	0x3cd458fa	0.025921334
207	0xbd351df7	-0.04421803
208	0x3c63bb71	0.01389967
209	0xbbd10b23	-0.0063795014
210	0x3dca48b0	0.09877145
211	0x3dd6be98	0.104855716
212	0xbe7612dd	-0.24030633
213	0xbdcb484e	-0.099259004
214	0x3e0b245c	0.13588089
215	0x3eadc97e	0.3394279
216	0x3e2313a7	0.15925466
217	0x3e8bbcfd	0.27292624
218	0x3e23f650	0.1601193
219	0xbe21d88c	-0.15805262
220	0xbd89b921	-0.06724764
221	0xbdfff5ac	-0.1249803
222	0x3d4addc0	0.049527884
223	0x3dbea119	0.09308071
224	0xbe9531e9	-0.2913964
225	0x3e6b9629	0.230065
226	0x3c93cb0f	0.018041162
227	0x3bd503c7	0.0065006944
228	0x3bc2d3ea	0.0059456723
229	0x3e39152e	0.18074486
230	0x3e822718	0.2542045
231	0x3dd8ae67	0.105801396
232	0x3ebd4a33	0.36970672
233	0x3e395417	0.18098484
234	0x3d0716ee	0.03298085
235	0xbe91611c	-0.283944
236	0x3d0484ba	0.03235314
237	0x3ddef5af	0.10886704
238	0x3e36b096	0.178408
239	0xbe21baa5	-0.15793855
240	0x3e3c6261	0.18396904
241	0xbda760da	-0.0817277
242	0xbe32e90e	-0.17471716
243	0x3e810dde	0.25205892
244	0x3b021033	0.0019846081
245	0xbe043087	-0.12909137
246	0xbd4ed7c2	-0.05049873
247	0xbe307830	-0.17233348
248	0x3d9b0469	0.075692005
249	0x3db2a291	0.08722413
250	0x3bb79e46	0.0056035845
251	0x3e53ec6a	0.20695654
252	0xbe473d87	-0.19457065
253	0x3e809bdb	0.25118908
254	0x3e870143	0.2636815
255	0x3c0b52bf	0.008503615

conv2.bias f4 [16]
0	0xbb2d1ee7	-0.0026416124
1	0x3b5f5067	0.0034075023
2	0x3c17d904	0.009268049
3	0x3995a59e	0.0002854289
4	0x3bf4f6e8	0.0074757226
5	0xb9a8fc13	-0.00032231267
6	0xbb7f2fe2	-0.0038938452
7	0xbb84157b	-0.004030881
8	0xbc826386	-0.015916597
9	0xbc21223d	-0.009834823
10	0xbc61f88f	-0.013792171
11	0x3c2e452f	0.010636612
12	0x3bca2688	0.006169144
13	0xbbf6fa1c	-0.0075371396
14	0x3c25c745	0.01011831
15	0xbb887270	-0.0041640326

conv2.fc_self.weight f4 [16, 16]
0	0x3d9547b4	0.07289067
1	0xbe9314c8	-0.28726792
2	0x3ed102d4	0.4082247
3	0xbe340c86	-0.17582902
4	0xbe2cebf6	-0.16886887
5	0x3e8ee3c7	0.27908155
6	0xbeec7085	-0.46179596
7	0x3e8a165b	0.2697018
8	0xbb563616	-0.0032686046
9	0x3d3fcdde	0.04682719
10	0xbe8715f0	-0.26383924
11	0x3d0cc678	0.034368962
12	0xbea7e9b7	-0.32795498
13	0xbddbe0e5	-0.107362546
14	0x3e9bb0cf	0.30408332
15	0xbde25e79	-0.110531755
16	0xbf1e9cde	-0.6195811
17	0x3e034103	0.12817769
18	0x3d382b29	0.044963036
19	0xbed61591	-0.4181333
20	0x3edb65cc	0.42851102
21	0x3eb79cc2	0.35861784
22	0x3e0b2db7	0.13591658
23	0xbd0ce506	-0.0343981
24	0xbe4329e8	-0.19058955
25	0xbe7013b3	-0.23445015
26	0xbe3115ef	-0.17293523
27	0xbe754217	-0.23950993
28	0x3e859006	0.26086444
29	0xbe1bd217	-0.15216862
30	0x3f00db21	0.50334364
31	0xbde815b3	-0.11332264
32	0xbca3521c	-0.019936614
33	0x3ead1fa1	0.33813193
34	0xbe9bf4b5	-0.30460134
35	0xbed63ae7	-0.41841814
36	0x3dcbbb4e	0.09947835
37	0x3dccd1a6	0.10000925
38	0xbe8df75d	-0.27727786
39	0x3ebcbf19	0.36864546
40	0xbdf820dd	-0.12115643
41	0xbebf5d31	-0.37375787
42	0xbe848e07	-0.25889608
43	0x3ebaea53	0.365069
44	0x3ec288c9	0.37994984
45	0xbee114b3	-0.43961105
46	0x3ebcbcb8	0.3686273
47	0xbe493d3e	-0.19652268
48	0xbca8d421	-0.020608963
49	0x3ec60029	0.38671997
50	0x3e1c9b15	0.15293534
51	0x3e438014	0.19091827
52	0x3e6a20c3	0.2286406
53	0x3e555eba	0.20836917
54	0x3ea5eb9b	0.32406315
55	0xbf08c3f5	-0.53424007
56	0x3d8283af	0.06372773
57	0x3ed9c3e5	0.42532268
58	0x3ded5380	0.11588192
59	0xbe6af86f	-0.22946332
60	0x3e9001cf	0.2812638
61	0xbe62345c	-0.22090286
62	0xbee438ae	-0.44574493
63	0x3e9b0aee	0.30281776
64	0xbe19a74d	-0.15005226
65	0xbe9db02b	-0.30798468
66	0xbe39a7ff	-0.18130492
67	0x3ebcf0eb	0.36902556
68	0x3ecc50b9	0.39905336
69	0x3e486fb0	0.19573855
70	0xbe5ef801	-0.21774293
71	0xbf208448	-0.62701845
72	0xbec83dce	-0.39109653
73	0x3dc9cdb2	0.098536864
74	0xbc3b101a	-0.011417413
75	0x3de84dae	0.11342941
76	0x3e54e8c4	0.20791918
77	0x3e37a088	0.17932332
78	0x3e8edb46	0.27901667
79	0xbda23865	-0.07920913
80	0x3ec60a48	0.3867972
81	0x3c5d1f32	0.013496207
82	0xbd793818	-0.06084451
83	0x3d8f19f9	0.06987376
84	0x3ed4b362	0.41543108
85	0x3e70ab3a	0.23502818
86	0x3eb62dd9	0.35581854
87	0xbe25a0fb	-0.1617469
88	0x3c0a07c2	0.008424701
89	0xbe0fea46	-0.14054212
90	0x3ea9040f	0.3301091
91	0x3ee21c76	0.4416234
92	0xbe323285	-0.17402084
93	0xbed47fd7	-0.41503784
94	0x3e9250ed	0.28577366
95	0x3ed20ab5	0.41023794
96	0x3ebcc8d3	0.36871967
97	0xbe13d1a7	-0.14435445
98	0xbe2eb35b	-0.17060606
99	0x3e86f6d1	0.2636018
100	0xbf322f9e	-0.6960391
101	0xbd77a139	-0.06045649
102	0x3e4ed238	0.2019738
103	0xbec091bf	-0.37611195
104	0x3e71f584	0.23628813
105	0xbd39d7dc	-0.045371875
106	0xbe4280e7	-0.18994485
107	0x3e74ff03	0.23925404
108	0xbe7cb766	-0.24679336
109	0x3e99c02d	0.3002943
110	0x3dcdb06c	0.100434154
111	0x3e62310c	0.22089022
112	0x3ea36167	0.3191025
113	0xbf09dd21	-0.5385304
114	0xbe1398fe	-0.1441383
115	0xbeca11ed	-0.394668
116	0x3e18a96e	0.14908382
117	0x3e92279b	0.28545842
118	0xbefeb7b8	-0.4974954
119	0xbe5f0a0e	-0.2178118
120	0xbcd6748d	-0.026178623
121	0xbc5009a7	-0.012697614
122	0x3e95980f	0.29217574
123	0x3dbc553f	0.09195947
124	0xbed1c3c8	-0.40969682
125	0x3ee91048	0.45520234
126	0xbddcef3c	-0.10787818
127	0x3ea7c173	0.32764778
128	0xbdaaa412	-0.08332075
129	0xbe9c9a1e	-0.30586332
130	0xbe769813	-0.24081449
131	0xbe98a21e	-0.29811186
132	0xbe7de64c	-0.24794883
133	0xbe6efd05	-0.23338707
134	0xbee25054	-0.4420191
135	0xbd03cfa8	-0.03218046
136	0xbc73e9cc	-0.0148872845
137	0xbd97d238	-0.07413143
138	0x3f261d62	0.64888585
139	0x3cabcdd0	0.020972162
140	0xbdedfb1c	-0.11620161
141	0x3ecc89b4	0.3994881
142	0xbe1b41d8	-0.15161836
143	0xbec03db5	-0.3754708
144	0x3e75582a	0.23959413
145	0x3e6ef2e2	0.2333484
146	0xbe807ecf	-0.25096747
147	0xbe017bf1	-0.12644936
148	0xbca0dad1	-0.01963559
149	0x3e02b81b	0.12765543
150	0x3ea5993e	0.32343477
151	0x3edbc4f3	0.42923698
152	0xbd074cc6	-0.0330322
153	0xbec6a9be	-0.38801378
154	0x3ebf202c	0.37329233
155	0x3f16a5bd	0.58846647
156	0xbeb2090d	-0.3477253
157	0xbea75ebb	-0.3268946
158	0x3e9b8ffb	0.30383286
159	0xbe903fb4	-0.28173602
160	0xbedfee66	-0.4373657
161	0x3e6d4b83	0.23173337
162	0x3e89eebb	0.2693995
163	0xbd974c2f	-0.07387578
164	0xbeb0a226	-0.3449871
165	0xbe405bb0	-0.18784976
166	0x3ed48362	0.41506487
167	0x3e19fbdd	0.15037484
168	0xbe50ae90	-0.2037909
169	0x3eb44246	0.35206813
170	0x3da6c0ce	0.08142243
171	0x3e64ca83	0.22342877
172	0xbea97385	-0.33095947
173	0x3f17c403	0.59283465
174	0xbef8f1e7	-0.48622057
175	0x3ea37d2b	0.31931433
176	0x3e820d93	0.2540098
177	0x3ed42a2d	0.41438428
178	0xbe290f15	-0.1650966
179	0xbe93c99c	-0.28864753
180	0x3cf621a2	0.030045334
181	0x3eda26ad	0.42607632
182	0xbee5ab49	-0.44857243
183	0x3d2004d0	0.03906709
184	0x3ee540f6	0.44776124
185	0xbec5aaba	-0.38606817
186	0x3eb4f299	0.35341337
187	0x3ea95c00	0.33078003
188	0xbea51510	-0.32242632
189	0x3cd24318	0.025666758
190	0x3ee46476	0.44607896
191	0x3e96c628	0.29448056
192	0xbe0f599b	-0.13999026
193	0xbee55b4e	-0.44796222
194	0x3e63ae80	0.22234535
195	0xbf00e19a	-0.5034424
196	0x3d2b6c0c	0.04185109
197	0x3e7de032	0.24792555
198	0x3e5651ff	0.20929717
199	0x3f063830	0.52429485
200	0xbed47042	-0.41491896
201	0x3e7e6c02	0.24845889
202	0xbe4083ae	-0.18800232
203	0x3ec0e7e5	0.3767692
204	0x3e168112	0.14697674
205	0xbe88a131	-0.2668548
206	0xbdb0fe4e	-0.08642255
207	0xbd21572a	-0.039389767
208	0xbd008751	-0.031379048
209	0xbe1ebf7e	-0.15502736
210	0x3d6fa407	0.058506038
211	0xbf3bac97	-0.73310226
212	0xbd532e3c	-0.051557764
213	0x3e3d81f3	0.18506603
214	0xbee494df	-0.4464483
215	0xbdf1a450	-0.11798918
216	0x3d8c3612	0.068462506
217	0xbd9fd7b7	-0.07804816
218	0xbe8f6421	-0.2800608
219	0xbe7e02e3	-0.24805789
220	0xbe3abdb3	-0.18236427
221	0x3d1fa4e9	0.03897563
222	0x3ee8ae3d	0.45445433
223	0x3d5ca652	0.053869553
224	0x3e5f5bd8	0.2181238
225	0x3efa88b1	0.48932412
226	0x3d8a7e33	0.06762352
227	0xbc505ec1	-0.012717904
228	0xbc60b335	-0.013714601
229	0x3e6bb6bb	0.23018925
230	0xbd22afe3	-0.03971852
231	0x3dd9f11e	0.106416926
232	0xbe51f579	-0.20503797
233	0x3e1802c2	0.14844802
234	0xbca4091e	-0.020023879
235	0x3abd9138	0.0014462834
236	0xbe7d68a5	-0.2474695
237	0xbe9ac46b	-0.3022798
238	0x3e8928c1	0.26788905
239	0xbda8b1dd	-0.0823705
240	0x3e6e2398	0.23255765
241	0x3d30412b	0.0430309
242	0x3e86571c	0.26238334
243	0xbd9117ea	-0.07084639
244	0xbe9e0b8b	-0.30868182
245	0x3ed6015d	0.41797915
246	0xbe9cedb3	-0.306501
247	0x3e8fc79d	0.2808198
248	0x3c94c896	0.018162053
249	0x3e91e129	0.28492096
250	0xbe6c6c00	-0.23088074
251	0x3d1ee990	0.03879696
252	0xbe6d8e8c	-0.23198909
253	0x3ec5ca2c	0.38630807
254	0xbebb87ab	-0.36626944
255	0xbd0b133b	-0.033953886

conv2.fc_neigh.weight f4 [16, 16]
0	0xbee8f39b	-0.45498356
1	0xbe86d09c	-0.2633103
2	0x3ec2235d	0.37917605
3	0x3e999e39	0.30003527
4	0xbec64f12	-0.387322
5	0x3e9138fa	0.28363782
6	0xbe8ae173	-0.2712513
7	0xbd0a33f5	-0.033740956
8	0xbf2934ed	-0.66096383
9	0x3ed6fbe8	0.41989064
10	0xbec18cd6	-0.37802762
11	0x3eeb4f5b	0.4595898
12	0xbec01773	-0.3751789
13	0xbd2d4d4e	-0.04231005
14	0x3dd18028	0.10229522
15	0x3e97f1a6	0.2967655
16	0xbe22a4c8	-0.15883172
17	0x3d421e26	0.047392033
18	0x3ea5d94f	0.32392356
19	0xbed0a061	-0.4074736
20	0x3f54c2e3	0.83109874
21	0x3f431aeb	0.7621295
22	0xbe45123d	-0.19245239
23	0x3e3a1724	0.1817289
24	0xbd39573e	-0.045249216
25	0xbdac426a	-0.08411105
26	0x3db89277	0.09012311
27	0xbf0bd1e8	-0.54617167
28	0xbe8b4c03	-0.2720643
29	0xbdcbbc02	-0.09947969
30	0xbdab993d	-0.08378837
31	0x3e56f90b	0.2099344
32	0x3cb2891c	0.021793894
33	0x3ea16bc6	0.31527537
34	0xbde32d4c	-0.11092624
35	0xbc818ca9	-0.015814142
36	0xbe7cb124	-0.24676949
37	0x3e2f8011	0.17138697
38	0x3de68b6a	0.1125706
39	0x3d512c91	0.051067892
40	0xbe98d909	-0.29853085
41	0xbdbd74f0	-0.0925082
42	0x3e3c0537	0.18361364
43	0x3e1fbe9c	0.15600055
44	0x3f1a048a	0.60163176
45	0xbe380d38	-0.17973793
46	0x3e3d9177	0.18512522
47	0x3e75e4cc	0.2401306
48	0x3f05221b	0.52005166
49	0x3f41ee8c	0.7575462
50	0x3e73107f	0.23736762
51	0x3f07250d	0.5279091
52	0x3d75aaf7	0.059977498
53	0x3e0655cd	0.13118668
54	0x3ec36331	0.38161615
55	0xbf007059	-0.5017143
56	0x3f002915	0.50062686
57	0x3e8e39a1	0.27778342
58	0xbe63fdbf	-0.22264765
59	0xbf34e643	-0.7066385
60	0xbdb241db	-0.08703967
61	0xbf0a1b2d	-0.53947717
62	0x3e8f32cd	0.27968445
63	0xbe0e5073	-0.13897876
64	0x3e06e2d2	0.13172463
65	0xbe875916	-0.26435155
66	0x3ec91c8c	0.39279592
67	0xbea1c685	-0.3159677
68	0xbd9325a1	-0.071849115
69	0xbef196b3	-0.47185287
70	0x3eba0aa9	0.36336258
71	0xbf096947	-0.53676265
72	0xbeec9e13	-0.4621435
73	0xbda45d21	-0.080255754
74	0xbe8a7bdf	-0.2704763
75	0x3e32a903	0.17447285
76	0x3d1f2095	0.038849432
77	0xbde98e5d	-0.11404107
78	0x3f34129b	0.7034089
79	0xbef3c904	-0.476143
80	0xbed8248e	-0.4221539
81	0xbeda3e4a	-0.42625648
82	0x3d989c9e	0.07451747
83	0x3f090046	0.5351604
84	0x3f64b915	0.8934491
85	0x3ee5bc08	0.4487002
86	0xbea160e3	-0.3151923
87	0xbe5f2f08	-0.21795285
88	0xbe625730	-0.22103572
89	0xbe4f1e67	-0.20226441
90	0x3f15cefc	0.5851896
91	0x3f1289ab	0.57241315
92	0x3d1f850a	0.038945235
93	0x3d787425	0.06065764
94	0xbe7b382a	-0.24533144
95	0xbeea2de1	-0.45738128
96	0x3ef3cf69	0.4761918
97	0xbe269400	-0.16267395
98	0xbf7b314f	-0.98122114
99	0xbd83210a	-0.06402786
100	0xbe9ebfd5	-0.3100573
101	0x3c2335b3	0.009961533
102	0xbecda5db	-0.401656
103	0xbeabc4b3	-0.33548507
104	0xbec10f1b	-0.37706837
105	0xbeb23b22	-0.3481074
106	0xbeabfb32	-0.33590084
107	0xbdb06c7e	-0.08614443
108	0xbe8c8afe	-0.27449793
109	0xbdd59a6b	-0.104298435
110	0x3c4316c1	0.01190728
111	0xbe3b0b26	-0.18265972
112	0x3f332046	0.6997112
113	0x3cc7bcb5	0.024381975
114	0xbd0baf38	-0.03410265
115	0xbe019b52	-0.12656906
116	0xbe4a5943	-0.19760613
117	0xbe7c3a8e	-0.24631712
118	0x3ea1cfd6	0.3160388
119	0x3df7adcc	0.12093696
120	0xbe960a3f	-0.29304692
121	0xbeb92920	-0.36164188
122	0xbd07c30e	-0.033145003
123	0xbe92539e	-0.2857942
124	0xbf3c1d37	-0.7348208
125	0xbed2e992	-0.41193825
126	0x3f0e64d1	0.55622584
127	0x3ec4d308	0.38442254
128	0xbde7144d	-0.11283169
129	0x3e026df7	0.12737261
130	0xbf3a2c07	-0.7272343
131	0x3e3c277e	0.1837444
132	0xbf14f42c	-0.58185077
133	0xbef4444c	-0.47708356
134	0xbf2a929f	-0.66629976
135	0xbed2f229	-0.4120038
136	0xbeb4bdd1	-0.35301068
137	0x3e138c4b	0.14408986
138	0x3f036655	0.5132802
139	0x3dd856cd	0.10563431
140	0xbec3eeb2	-0.38268048
141	0x3e32d42e	0.17463753
142	0x3db5f6b4	0.088849455
143	0x3e6e1a95	0.23252328
144	0xbe9f3403	-0.3109437
145	0x3e97a446	0.29617518
146	0x3eebdcfd	0.46067038
147	0x3e1aa3c5	0.15101536
148	0xbdecd519	-0.11564083
149	0x3b265807	0.0025382058
150	0x3f1d8bde	0.61541545
151	0x3e068aa1	0.1313882
152	0x3e7b8758	0.24563348
153	0x3ed94a97	0.4243972
154	0x3e1b001f	0.15136765
155	0x3e8513da	0.25991708
156	0x3dcc3937	0.0997185
157	0x3e8e5a14	0.278031
158	0x3f13ad4c	0.57686305
159	0xbefcaccb	-0.4935058
160	0x3e5d265b	0.21596663
161	0x3e96670a	0.29375488
162	0xbf236547	-0.6382641
163	0xbe28e05a	-0.16491833
164	0x3ec63ecd	0.38719788
165	0xbe496e9f	-0.19671105
166	0x3ea9a5f8	0.33134437
167	0x3e8b1213	0.27162227
168	0xbf23bef3	-0.6396324
169	0x3ef8e3b6	0.4861123
170	0xbd322a18	-0.043497175
171	0x3e7a6186	0.24451265
172	0xbad09e32	-0.0015916287
173	0x3f318ea0	0.69358253
174	0xbd8afec5	-0.06786875
175	0x3f314267	0.69241947
176	0xbedb3e6f	-0.4282107
177	0xbe17bd5c	-0.14818329
178	0x3eb5c79d	0.35503855
179	0xbdbc6181	-0.09198285
180	0xbed41a2b	-0.41426215
181	0xbd0e37e0	-0.034721255
182	0xbe00ff7e	-0.12597463
183	0x3e582624	0.211083
184	0x3f0874db	0.5330331
185	0xbea48ad6	-0.32137173
186	0x3de81df7	0.1133384
187	0xbcdb4b6c	-0.026769362
188	0x3ecafdec	0.39646852
189	0x3f6c7eaf	0.92380804
190	0x3f32bff0	0.69824123
191	0xbeca1290	-0.39467287
192	0x3edc8a2b	0.43074164
193	0xbdd48776	-0.103773996
194	0xbf0f2f76	-0.55931795
195	0xbf109cc6	-0.5648922
196	0x3ebe67cc	0.37188566
197	0x3e859338	0.26088881
198	0xbec81439	-0.3907793
199	0x3df3bbae	0.119010314
200	0x3eddfae0	0.43355465
201	0x3f7e9ec6	0.9946102
202	0xbe97c09d	-0.2963914
203	0x3f0870fe	0.5329741
204	0x3ebf71f9	0.37391642
205	0xbf4af5d2	-0.7928134
206	0x3ef59e16	0.47972172
207	0x3d54cd22	0.051953442
208	0xbf2e7920	-0.6815357
209	0x3ec31a0f	0.3810582
210	0x3c817111	0.015800985
211	0xbf80e163	-1.0068783
212	0xbf1dd07c	-0.61646247
213	0xbee9b472	-0.4564548
214	0xbda59dad	-0.08086715
215	0xbf023ca3	-0.50873774
216	0xbec1f910	-0.37885332
217	0x3e34cb05	0.17655571
218	0x3e2d79f4	0.16941053
219	0x3ea943eb	0.3305963
220	0xbe85c724	-0.26128495
221	0xbf0d332d	-0.55156213
222	0xbf5aec96	-0.8551725
223	0xbc3f2fcb	-0.01166911
224	0x3efd2630	0.49443197
225	0xbe9a79f5	-0.3017117
226	0x3ea0747d	0.31338874
227	0x3eee8020	0.46582127
228	0x3e1ed3ad	0.15510435
229	0x3f3c8e3d	0.7365454
230	0xbf543727	-0.82896656
231	0xbe30dd0d	-0.17271824
232	0x3ee2edc7	0.44322035
233	0x3e810759	0.25200918
234	0x3e9dc005	0.30810562
235	0xbe533f54	-0.20629627
236	0x3f022a88	0.5084615
237	0x3e83db67	0.25753328
238	0xbe5b1ad9	-0.2139696
239	0xbde1d9c5	-0.11027864
240	0xbe7b6003	-0.24548344
241	0x3e93d33e	0.28872102
242	0xbf14db52	-0.58147156
243	0xbf34a3d7	-0.705625
244	0xbea7c785	-0.3276941
245	0x3ebf23e5	0.37332073
246	0x3eedb438	0.46426558
247	0x3ee50be9	0.4473565
248	0xbef7a44d	-0.4836754
249	0x3dc5bab0	0.096547484
250	0x3e20e75f	0.15713261
251	0x3edcc688	0.43120217
252	0xbeaad24d	-0.33363572
253	0x3f208f87	0.62719005
254	0x3ea2754c	0.31730115
255	0xbf312c0e	-0.6920785

conv3.bias f4 [16]
0	0xbc5cdb74	-0.013480056
1	0x3c87662c	0.016528212
2	0x3c29edd6	0.010371646
3	0x3ca7a5ac	0.02046474
4	0x3c3eb4e3	0.011639806
5	0x3b06b3db	0.002055398
6	0x3c942e39	0.018088447
7	0x3c3dbca3	0.011580619
8	0xbc0b3547	-0.008496589
9	0xbbab6c43	-0.0052314117
10	0xbba4bc13	-0.005027303
11	0xbac1b201	-0.0014777781
12	0x3c86135f	0.016366659
13	0x3baedb8c	0.0053362306
14	0xbb209f14	-0.002450888
15	0xbabe7c31	-0.0014532862

conv3.fc_self.weight f4 [16, 16]
0	0xbdb84b4c	-0.08998737
1	0x3e4e50f8	0.20148075
2	0xbe03e57a	-0.12880507
3	0x3ecd5f51	0.40111783
4	0xbe52c052	-0.20581177
5	0xbe41b2b0	-0.1891582
6	0x3d801e8a	0.06255825
7	0x3e4aac63	0.19792323
8	0x3d29a943	0.041421186
9	0x3f0555f1	0.5208426
10	0xbdec7fb0	-0.11547792
11	0xbeb34c14	-0.3501898
12	0xbebe522f	-0.37172076
13	0x3eb107c2	0.3457623
14	0xbd523bbb	-0.051326495
15	0x3ebe7556	0.37198895
16	0x3e4e9a9a	0.20176163
17	0x3dee7668	0.11643678
18	0xbdda87dc	-0.10670444
19	0x3ece6830	0.40313864
20	0xbe7fa05d	-0.24963517
21	0xbe928e63	-0.28624257
22	0xbeaf6742	-0.34258467
23	0xbea5c2d7	-0.32375214
24	0x3ea8ac36	0.32943887
25	0x3eca492d	0.39508954
26	0x3e5a1432	0.21296766
27	0xbe60f487	-0.2196828
28	0xbef63400	-0.48086548
29	0x3e2b7090	0.16742158
30	0x3c6a22ca	0.014290521
31	0x3e1b6b95	0.15177758
32	0xbe0a7bae	-0.13523743
33	0xbde2797a	-0.11058326
34	0xbee14412	-0.43997246
35	0xbecd1791	-0.40057042
36	0xbe6b69e1	-0.22989608
37	0x3c00699a	0.007837677
38	0xbea0e4b2	-0.3142448
39	0xbe400ea8	-0.18755591
40	0x3d6b4d86	0.05744698
41	0xbe3d24ad	-0.18471022
42	0xbd04d4bc	-0.03242944
43	0x3efe72e4	0.4969703
44	0x3e1b1ccc	0.15147704
45	0x3e2eca6d	0.17069407
46	0xbeafa07d	-0.3430213
47	0xbe5a00e7	-0.21289407
48	0x3ece704c	0.4032005
49	0xbe6fd4d2	-0.23421028
50	0xbe851af8	-0.25997138
51	0x3e029b36	0.12754521
52	0x3d6b3762	0.057425864
53	0xbe1dda8f	-0.15415405
54	0xbe83cca3	-0.25742063
55	0xbdb6fcaf	-0.08934914
56	0xbf25857f	-0.64656824
57	0x3ebfe607	0.37480184
58	0x3e00a99e	0.12564704
59	0x3dbb2059	0.09137029
60	0xbe8c7cb6	-0.27438897
61	0x3e67feeb	0.22655837
62	0xbf204d43	-0.6261789
63	0xbeca4055	-0.39502206
64	0xbe4b1105	-0.19830711
65	0x3eb8e145	0.36109367
66	0xbe67e624	-0.22646385
67	0x3cc0abf5	0.023519496
68	0xbe1dc22f	-0.15406106
69	0x3e0cc36b	0.13746421
70	0xbdad0fc0	-0.0845027
71	0xbdb0bdd1	-0.086299546
72	0x3e4273ac	0.18989438
73	0xbdc956c4	-0.09831002
74	0xbea022d3	-0.3127657
75	0xbe9aa861	-0.30206588
76	0xbd7eeec3	-0.06223942
77	0x3ea3ea94	0.32014906
78	0xbe546324	-0.20740944
79	0x3d6f9dbb	0.058500033
80	0x3e8abf09	0.27098873
81	0xbdf294d5	-0.11844794
82	0x3ed1423b	0.40870842
83	0x3e35cd78	0.17754161
84	0xbd82b7b9	-0.063826986
85	0x3eb4c245	0.35304466
86	0x3ecb9d81	0.39768603
87	0x3e85cb67	0.26131746
88	0xbea8be11	-0.3295751
89	0xbe15719c	-0.1459412
90	0x3ed0be11	0.4077001
91	0xbe2e7cce	-0.17039797
92	0x3e0ae31e	0.13563201
93	0x3e7ba82c	0.24575871
94	0xbd864332	-0.06555785
95	0xbee83ff2	-0.45361286
96	0xbe3cda7b	-0.18442719
97	0x3f3340f1	0.7002097
98	0x3d917c31	0.07103766
99	0xbefb65c1	-0.4910107
100	0x3e5677b6	0.20944104
101	0x3dc9dc39	0.09856457
102	0x3e12dbf6	0.14341721
103	0x3e582ac6	0.21110067
104	0xbd89a09e	-0.067200884
105	0xbe55c96f	-0.20877622
106	0x3db0025d	0.08594201
107	0x3ee2d5b7	0.44303676
108	0x3dc3cad9	0.095601745
109	0xbec0acea	-0.37631923
110	0x3d1fe40b	0.039035838
111	0x3e6f1c0c	0.23350543
112	0xbc230a94	-0.0099512525
113	0x3e5734b7	0.21016203
114	0x3daf6ff6	0.08566277
115	0xbc33ff8b	-0.010986219
116	0x3ee5c322	0.44875437
117	0x3edb7233	0.42860565
118	0xbd31ed5b	-0.04343925
119	0xbe87f9a7	-0.26557657
120	0x3e8b5769	0.27215126
121	0xbca61db7	-0.020277841
122	0x3ea2e7da	0.31817514
123	0xbe2667a1	-0.16250469
124	0xbb7b5c4e	-0.0038354578
125	0xbe9a730d	-0.30165902
126	0xbed928a0	-0.42413807
127	0x3ed1b137	0.40955517
128	0xbe9fbcef	-0.31198832
129	0x3d3d8ea0	0.046278596
130	0x3da50d1a	0.080591395
131	0xbe81a49e	-0.25320905
132	0x3f35f95a	0.71083605
133	0x3e1d3373	0.15351658
134	0xbeb05688	-0.34441018
135	0xbd9aec86	-0.075646445
136	0x3e90944f	0.2823815
137	0xbe0ac62f	-0.13552164
138	0x3e6f1305	0.23347099
139	0x3d43890b	0.047738116
140	0xbda6fe5f	-0.08153986
141	0x3e497387	0.19672976
142	0x3e90843d	0.2822589
143	0x3e5579b8	0.20847213
144	0x3e44567f	0.1917362
145	0xbe9df038	-0.30847335
146	0x3ec94d8f	0.39316985
147	0xbea8d3a8	-0.3297398
148	0x3f04e40a	0.5191046
149	0x3f21add0	0.6315584
150	0x3e366403	0.17811589
151	0xbe823491	-0.2543073
152	0x3dc5c158	0.09656018
153	0xbec7877d	-0.38970557
154	0x3ea047ef	0.3130488
155	0xbe3b6068	-0.18298495
156	0x3e30c3dd	0.17262216
157	0xbd16b29c	-0.03679143
158	0x3e08ec6e	0.13371441
159	0x3e1ede0f	0.15514396
160	0x3d8a6d1f	0.067590944
161	0xbe6d7b58	-0.23191583
162	0xbe16f8b3	-0.14743309
163	0x3e10bb22	0.14133886
164	0xbdce8055	-0.10083071
165	0x3e1da91d	0.15396543
166	0xbe7a6076	-0.2445086
167	0x3cef41e5	0.029206226
168	0x3e8213e9	0.25405815
169	0xbeab5e0a	-0.33470184
170	0x3eaf144f	0.34195182
171	0x3ed0baa9	0.4076741
172	0x3dab5a71	0.0836686
173	0xbead5bb2	-0.3385902
174	0x3c7d0493	0.015442985
175	0xbeb9db4c	-0.36300123
176	0x3e5327b2	0.20620611
177	0x3e555884	0.20834547
178	0xbf1ba338	-0.6079593
179	0xbe959d5e	-0.29221624
180	0x3c21a060	0.009864897
181	0xbe9df6c8	-0.30852342
182	0xbec0a07d	-0.37622443
183	0x3e3aa24f	0.18225978
184	0xbe9a70fe	-0.3016433
185	0xbeeed63c	-0.46647823
186	0xbc813a24	-0.015774794
187	0x3d365a6f	0.044519838
188	0x3e8747c3	0.26421937
189	0xbe60dd86	-0.21959504
190	0x3e3b6ed5	0.18303998
191	0xbe5ac1ee	-0.21363041
192	0xbe6d2b75	-0.23161109
193	0x3e033220	0.1281209
194	0x3d078c29	0.03309265
195	0xbe4cc72c	-0.19997853
196	0xbe94b7ee	-0.29046577
197	0x3e89f12e	0.26941818
198	0x3bdbf2cb	0.006712293
199	0xbeed9f17	-0.46410438
200	0x3e487cfc	0.19578928
201	0xbec72682	-0.38896567
202	0xbe138ec0	-0.14409924
203	0x3e9118fb	0.2833937
204	0xbeab2c5a	-0.33432275
205	0x3e3a0dfa	0.18169394
206	0xbc887663	-0.016658014
207	0x3ef8b1af	0.48573062
208	0x3eaaf9f1	0.33393815
209	0xbe7229b7	-0.23648725
210	0xbda1fc34	-0.07909432
211	0x3ef5c463	0.48001394
212	0x3ecec809	0.4038699
213	0xbdab5acb	-0.08366927
214	0x3e736062	0.23767236
215	0xbeec2e00	-0.46128845
216	0xbd82351d	-0.06357787
217	0x3ec59ab9	0.38594607
218	0x3e3f7bdf	0.18699597
219	0x3e892bb8	0.26791167
220	0x3e405b96	0.18784937
221	0x3ecc49e7	0.39900133
222	0xbd5515b4	-0.05202265
223	0xbe8165cf	-0.25272986
224	0x3d6d6e66	0.057966612
225	0xbe835242	-0.25648695
226	0x3eba8ac2	0.3643399
227	0x3edb6457	0.4284999
228	0xbd86c7ec	-0.06581101
229	0xbed5f816	-0.41790837
230	0xbe3024f4	-0.17201596
231	0x3ddcdede	0.10784696
232	0x3e6c50bd	0.23077674
233	0xbe376486	-0.1790944
234	0x3e42a9a6	0.19010028
235	0x3e455efe	0.19274518
236	0xbe15a56b	-0.14613883
237	0x3e71af0e	0.23601934
238	0x3ef4014c	0.4765724
239	0xbe73df7b	-0.2381572
240	0x3e98fe91	0.2988172
241	0xbdba4838	-0.09095806
242	0xbeb2c961	-0.34919265
243	0xbe1bc9cc	-0.15213698
244	0x3e73051b	0.23732416
245	0x3ea716a8	0.32634473
246	0xbebdce8b	-0.37071642
247	0x3ebeb074	0.37243998
248	0x3e912599	0.28348997
249	0xbd20e305	-0.039279003
250	0xbd6ddf89	-0.058074508
251	0xbd70c8c7	-0.058785226
252	0x3e5b386c	0.21408242
253	0xbd0d2220	-0.034456372
254	0x3eab952a	0.3351224
255	0x3e1e45b6	0.1545628

conv3.fc_neigh.weight f4 [16, 16]
0	0x3f4850e2	0.7824842
1	0x3e9316fd	0.28728476
2	0xbe2bfcb0	-0.16795611
3	0xbe7e0674	-0.24807149
4	0xbdac3183	-0.08407881
5	0xbe1198e3	-0.14218478
6	0x3f15bd23	0.58491725
7	0x3f19f96a	0.601462
8	0xbe0beda1	-0.13664867
9	0xbd52c8ad	-0.05146091
10	0xbf2f81be	-0.68557346
11	0x3e65dcee	0.22447559
12	0x3ea70c8f	0.3262677
13	0xbec00045	-0.37500206
14	0xbe8b8771	-0.2725177
15	0x3e5d1635	0.21590503
16	0x3f32e870	0.6988592
17	0x3e1c0146	0.15234861
18	0x3eaff050	0.3436303
19	0xbf1fcbcc	-0.62420344
20	0x3e96f7ca	0.29485923
21	0x3d05ebc8	0.03269556
22	0xbf043b63	-0.51653117
23	0x3ea62fbf	0.32458302
24	0xbea534ed	-0.32266942
25	0x3dd4772e	0.10374294
26	0x3e9a32c1	0.30116847
27	0xbdb4fa4c	-0.08836803
28	0x3cc659e6	0.024212789
29	0xbe8afcbd	-0.2714595
30	0xbedb4aa4	-0.42830384
31	0xbea8d7d3	-0.3297716
32	0xbda23611	-0.079204686
33	0xbebae1c5	-0.36500373
34	0x3c9d64fd	0.019213194
35	0xbf03fb70	-0.5155554
36	0x3d81cf91	0.06338418
37	0x3ebf2ce6	0.37338942
38	0xbdcef14a	-0.10104616
39	0xbcf50a69	-0.02991219
40	0x3dfb4956	0.12269847
41	0xbed038dc	-0.4066838
42	0xbe62a280	-0.22132301
43	0x3ec43486	0.38321322
44	0x3e959dbb	0.292219
45	0x3daef7bf	0.085433476
46	0x3e43d7d4	0.191253
47	0xbdbc2c38	-0.091881216
48	0xbe5fb857	-0.21847664
49	0xbea22348	-0.31667542
50	0x3dcefbcb	0.101066194
51	0xbef7c777	-0.48394367
52	0x3ef8bb73	0.48580512
53	0x3ee206b2	0.44145733
54	0x3ec846f9	0.39116648
55	0x3edc4de7	0.43028185
56	0x3e969bd5	0.29415765
57	0xbc58323d	-0.0131955715
58	0xbf0015b4	-0.50033116
59	0x3e0b78bc	0.13620275
60	0xbef7e181	-0.48414233
61	0xbe37835e	-0.17921206
62	0xbec524f1	-0.38504747
63	0xbe0ce53d	-0.13759322
64	0xbe49f8ab	-0.19723766
65	0x3ec4219d	0.38306895
66	0xbc23ebe1	-0.010004968
67	0xbe72b5c6	-0.23702154
68	0x3ebca47c	0.36844242
69	0x3f1bfcea	0.6093279
70	0xbd08bafb	-0.033381443
71	0x3ea262e6	0.3171608
72	0x3d208d3a	0.039197184
73	0xbe03a121	-0.12854435
74	0xbed9ca84	-0.4253732
75	0xbf1a2394	-0.6021054
76	0xbd230357	-0.039798107
77	0x3e37295d	0.17886873
78	0x3e7412c4	0.23835284
79	0x3e071f57	0.13195549
80	0x3eb2ca40	0.3491993
81	0x3f0597f2	0.52184975
82	0x3d9ec7e4	0.0775297
83	0xbcd44600	-0.025912285
84	0xbe4b3082	-0.19842723
85	0xbe6d8da1	-0.23198558
86	0x3ed792b3	0.4210411
87	0xbb8c27de	-0.0042772135
88	0x3e28008a	0.16406456
89	0xbe624192	-0.22095326
90	0x3f343b49	0.7040296
91	0x3e22c864	0.15896755
92	0xbe6d2aa6	-0.231608
93	0x3e9daea5	0.30797306
94	0xbec61e22	-0.38694865
95	0xbf24ffec	-0.64453006
96	0x3dbf7b1e	0.093496546
97	0x3f000936	0.50014055
98	0xbe8f5f8a	-0.28002578
99	0x3e49cbe6	0.19706687
100	0xbda347ed	-0.07972703
101	0xbe40824d	-0.18799706
102	0x3dbcfda5	0.09228066
103	0x3cff230c	0.031144641
104	0xbe0dc7cc	-0.13845748
105	0x3d88ba79	0.06676192
106	0x3e9058dc	0.28192794
107	0xbdf04b11	-0.11733068
108	0xbf44fddb	-0.7694985
109	0xbe85c48c	-0.26126516
110	0x3e488f4c	0.19585913
111	0x3e4bfb27	0.19920026
112	0xbf59e7ce	-0.8511933
113	0x3cb24b51	0.02176443
114	0xbe53b673	-0.20675068
115	0xbd8f6c92	-0.0700313
116	0xbe97becc	-0.29637754
117	0xbdf78028	-0.12084991
118	0x3ed1266c	0.40849626
119	0x3e532783	0.20620541
120	0x3eace9e4	0.33772194
121	0xbe2ce05d	-0.16882463
122	0x3d1a83ed	0.03772347
123	0xbd59d468	-0.053181082
124	0x3e2d5cb0	0.16929889
125	0x3e518d2e	0.20464012
126	0x3dac28f9	0.084062524
127	0x3f237497	0.63849777
128	0x3e3e6f44	0.18597132
129	0xbdb33156	-0.087496445
130	0x3e9a91f4	0.30189478
131	0x3f39c294	0.7256253
132	0x3efa448f	0.4888043
133	0xbf34b50f	-0.70588773
134	0x3e9d4017	0.3071296
135	0xbebe4147	-0.37159178
136	0xbe946485	-0.2898294
137	0xbda31a44	-0.07963994
138	0xbe62c235	-0.22144397
139	0x3eac29cf	0.33625647
140	0xbdc01dfb	-0.09380718
141	0x3ece8b82	0.4034081
142	0x3e18e0a4	0.14929444
143	0x3d9fa92d	0.077959396
144	0x3f230064	0.6367247
145	0xbe50ea45	-0.20401867
146	0xbe9b33d5	-0.30312982
147	0xbe3624ae	-0.1778743
148	0x3e4e30d8	0.2013582
149	0x3e747c4e	0.23875543
150	0x3ed6e323	0.41970167
151	0xbf20ada4	-0.62764955
152	0xbf10e940	-0.5660591
153	0x3df23e0c	0.11828241
154	0xbd1f0483	-0.038822662
155	0x3db23285	0.08701042
156	0x3e7064a4	0.23475891
157	0xbe7e79ad	-0.24851103
158	0xbd8c9843	-0.06864979
159	0x3e972e08	0.29527307
160	0x3eba629a	0.36403352
161	0x3e7a252e	0.24428245
162	0x3df3db41	0.11907054
163	0x3f10c584	0.56551385
164	0x3ebe2f6a	0.3714555
165	0x3e81d542	0.25358015
166	0x3eb17afe	0.34664148
167	0x3e9577ea	0.2919305
168	0x3e22dd81	0.1590481
169	0x3dffb6bd	0.124860264
170	0x3eea2a46	0.45735377
171	0x3df464d7	0.11933296
172	0xbcf91a3a	-0.030408014
173	0xbef1bdfd	-0.47215262
174	0x3ec38fa6	0.38195533
175	0xbe6f65f5	-0.23378737
176	0xbed44d73	-0.4146534
177	0x3e6832c6	0.22675619
178	0xbe676482	-0.22596934
179	0xbece609f	-0.4030809
180	0x3e5aa231	0.21350934
181	0xbf55cd03	-0.8351595
182	0x3ec2c0e3	0.38037786
183	0xbe61a52e	-0.22035667
184	0xbdbab68f	-0.091168515
185	0xbe81f98c	-0.25385702
186	0x3ead5644	0.33854878
187	0x3e49cb60	0.19706488
188	0x3d958de8	0.07302457
189	0xbd9cdbf6	-0.07659142
190	0x3dd8c35b	0.10584136
191	0xbed4c717	-0.41558143
192	0x3f212cca	0.6295897
193	0xbe90e55b	-0.28299984
194	0xbec23d1d	-0.3793725
195	0x3e466117	0.19372974
196	0x3e7a7853	0.24459963
197	0x3eb2149e	0.34781355
198	0x3e884ee9	0.26622704
199	0xbf2f67e0	-0.68517876
200	0xbe9b4d41	-0.30332378
201	0xbeab7882	-0.33490378
202	0xbe097899	-0.1342491
203	0xbe7a4177	-0.24439035
204	0xbf359d37	-0.70943016
205	0x3eb0ed18	0.34555888
206	0x3f082765	0.5318511
207	0x3e600b42	0.21879295
208	0xbea42849	-0.32061985
209	0x3edef347	0.4354498
210	0xbd074549	-0.03302506
211	0xbdb8177b	-0.089888535
212	0xbdc59549	-0.096476145
213	0x3f0127c2	0.5045129
214	0xbef0e1a8	-0.47047162
215	0x3ea194af	0.3155875
216	0x3e0b2625	0.1358877
217	0x3cdd5872	0.027019713
218	0x3e8e9ff1	0.278564
219	0x3f2ea59f	0.6822147
220	0x3e7fa130	0.24963832
221	0x3ec3a068	0.38208318
222	0xbe8ac257	-0.27101395
223	0x3d6e8ff8	0.058242768
224	0x3eb778f6	0.35834473
225	0x3e336f20	0.1752286
226	0x3f029b44	0.51018167
227	0xbed7c637	-0.42143413
228	0x3e8d41e4	0.27589333
229	0x3e2ec2f5	0.17066558
230	0xbe940c9c	-0.2891587
231	0x3f274380	0.6533737
232	0x3f1a4074	0.602546
233	0xbe81bcf9	-0.25339487
234	0x3ea6a9ff	0.32551572
235	0x3e6b465e	0.22976062
236	0x3e191771	0.14950348
237	0xbe8603cd	-0.26174775
238	0x3f05bd03	0.52241534
239	0xbe4787ba	-0.1948537
240	0xbdd0d400	-0.10196686
241	0xbf399eda	-0.72508013
242	0xbf1a26dd	-0.6021555
243	0x3e2c8999	0.16849364
244	0xbe5b1f00	-0.21398544
245	0xbe23c3a5	-0.15992601
246	0xbec9bdfb	-0.39402756
247	0x3e785493	0.24251013
248	0xbe86a75c	-0.2629956
249	0x3f15789b	0.58387154
250	0x3e8eb729	0.27874115
251	0xbeac9dde	-0.33714193
252	0xbe8c9998	-0.27460933
253	0x3f2ea61f	0.6822223
254	0x3e602501	0.21889116
255	0xbe449a95	-0.19199593
