model.pth (torch, 5783 bytes, 6 tensors)

conv1.bias f4 [16]
00000000: ae7a f23e 4872 d13e 625e 9a3e ead1 b33e
00000010: 48bb 713e 3d35 bb3e 9c97 213f 6aad 243f
00000020: 50dc 423f 830f 193f 1b26 0c3f 02e5 1c3f
00000030: 3373 fa3e ad28 dd3e fa01 4a3f 206a 833e
0.47359222 0.40907502 0.30150133 0.3512109 0.23606598 0.36564055 0.6312196 0.6432711
0.7611742 0.59789294 0.54745644 0.6128694 0.48916015 0.43195096 0.78909266 0.25666904

conv1.fc_self.weight f4 [16, 12]
00000000: a932 94be 1bcf 31be 8828 a8bd 2416 b03e
00000010: 353b 783f 4a51 453f e1d2 b83f c0cf d53f
00000020: 601a efbe 60a1 ffbf e22a 8b3f 850d 243f
00000030: e01f 3a3f 1308 163f 5240 593f ca0f 0bc0
00000040: 9df1 983f 2750 f23d 46af a3bc f268 203e
00000050: 848d 093e dbdf 19bf df5e 13c0 91a7 d8bf
00000060: 16e2 c4bf e056 773f 0d03 1cbe 51a5 a7bf
00000070: 7127 b43c 4220 a83f 5b03 323f faee ae3f
00000080: 108b 97bd f2a5 023f 52cc 1cbe d521 a73f
00000090: 8ca2 d3bf e889 3040 cdc9 f1bd 2854 90be
000000a0: 3cd6 cbbe 5fb9 c43e 68d1 c3be ee65 493f
000000b0: d4c9 db3e 8d4c db3f 422d 09c0 1a68 a73f
000000c0: fe9d 26be 4c49 173f a187 883e 78f8 29c0
000000d0: 9efa d13e b817 dc3d 8db5 95be e21f f6bd
000000e0: ef11 38bf 9134 403e 4dd1 f4be 88af 4c3f
000000f0: fefa 8dbe 694b cb3f 3f8e 19c0 c413 f7bf
00000100: 27d1 573f c9be 873f d5b5 eabe 2155 4d3f
00000110: a9a9 b13f 2275 5b3f 37a8 083e 08ab a53f
00000120: ed82 ca3f 16c5 393f 4ffc 8b3b 1ab6 16bf
00000130: f427 9a3f 6d0a 953d 5cd3 053f 45da 373f
00000140: 994e 59bd 8795 b43f c186 cd3d fd4c 2e3f
00000150: 0983 173e 0725 1140 ffe7 43bf f582 723f
00000160: 1f5b 71bf 99ad bb3f 8351 0040 b72b bf3f
00000170: 7aa1 48be dfb3 55be bd91 02bf f7a4 4b3f
00000180: d463 23c0 3e74 71bc 7d07 6b3f f002 393f
00000190: 5514 82bd c3d6 1940 be53 40be 1e17 983f
000001a0: fd8e 49bd e563 1dc0 b423 46bf d15a 0140
000001b0: c17d d2be 0d34 1bbf b994 e93e 6f11 25bf
000001c0: 8935 f7be 0db4 bb3f 7858 823e a292 de3d
000001d0: 63ae 143e 0479 583f b4f9 673f 499e 993f
000001e0: 39b8 08bf 964e 903f 1791 4a3e 222c ae3f
000001f0: 19d1 16bf 9235 e13f aa07 09bf b4bf 063f
00000200: 0a4a 9a3f 6e21 a43f 439e 963c 9852 1e3f
00000210: 0ffa f33e 863a 1ebf d593 583f 87c7 b83f
00000220: 42e9 343e bf02 093e 4c80 91be 7781 ecbd
00000230: 9344 703f b84e 6abf e247 a73e 47b3 1d3e
00000240: be50 9a3f 5e0b 6d3f 9fee abbd 12e8 9bbf
00000250: 7997 893f e819 3e3b 0e5c 9d3d 4ea6 23bf
00000260: 289e 553e 6b4e cb3f e5fb 803e 40bf 863e
00000270: b7ac 55bf 8e1c 303f 0809 2b3e 96ee c33e
00000280: 7168 8d3d c658 2b3f e5d3 c03f 9eaf 693f
00000290: 43db 8c3d 027a 92bd d9fe 363f 5ce7 423f
000002a0: 3f6e 893f 4bab 933f 2611 d83e e9ae 473f
000002b0: 3ca4 d03d 721f b33e 1147 84be 1eb0 d33c
000002c0: 86af f33e ecea 3b3f fcd7 13bf 45da bb3e
000002d0: 8d80 ff3e 6ec0 893f ad5c bd3d cd0b 0240
000002e0: 41bd abbe 1e0f b83e 3b49 e53e 0393 ca3d
000002f0: ec09 983f d780 553f 4afa cebf 0a3b 9c3e
-0.289449 -0.1736416 -0.08210856 0.34391892 0.9696534 0.7707716 1.4439355 1.6704025
-0.4669981 -1.9971123 1.0872462 0.6408313 0.7270489 0.5860607 0.8486377 -2.1728387
1.1948735 0.11831694 -0.019981038 0.15665033 0.1343289 -0.601072 -2.3026655 -1.6926137
-1.5381496 0.96616936 -0.15235539 -1.3097326 0.021991463 1.3134844 0.6953637 1.366668
-0.07399571 0.5103446 -0.15312317 1.30572 -1.653398 2.7584171 -0.118060686 -0.28189206
-0.39811885 0.38422677 -0.38245702 0.7867116 0.4292742 1.7132736 -2.1433873 1.3078644
-0.16271207 0.5909622 0.26665977 -2.6557903 0.41011518 0.107467115 -0.29240075 -0.120178
-0.71902364 0.18770052 -0.47815934 0.7995534 -0.27730554 1.5882388 -2.399307 -1.9302907
0.84303516 1.0605098 -0.45841852 0.8020802 1.3879901 0.85725605 0.13345419 1.294282
1.5821205 0.72566354 0.004272021 -0.58871615 1.2043443 0.07277379 0.52275634 0.7181743
-0.053053472 1.4108132 0.10035468 0.68086225 0.1479608 2.267885 -0.7652587 0.94731075
-0.94279665 1.4662353 2.004975 1.4935216 -0.19592848 -0.20869397 -0.5100363 0.7954859
-2.552968 -0.014737187 0.918083 0.7227011 -0.06351534 2.403733 -0.18781945 1.1882055
-0.04920863 -2.459222 -0.7739823 2.021168 -0.41111568 -0.606263 0.4562128 -0.64479727
-0.48283032 1.4664322 0.2545812 0.10867812 0.14519648 0.84559655 0.9061539 1.200143
-0.534061 1.1273983 0.1978191 1.3607218 -0.5891281 1.7594473 -0.5352732 0.52636266
1.2053845 1.2822702 0.018386012 0.6184478 0.47651717 -0.6180805 0.84600574 1.4435891
0.17667106 0.13379954 -0.28418195 -0.11548131 0.93854636 -0.91526365 0.3267203 0.1540042
1.205589 0.9259547 -0.08395123 -1.2180197 1.0749351 0.002900714 0.07683574 -0.63925636
0.20861113 1.5883306 0.2519218 0.26317787 -0.83466667 0.6879357 0.16702664 0.38267964
0.06904686 0.6693233 1.5064665 0.91283596 0.06877758 -0.071521774 0.71482617 0.76134276
1.073677 1.153665 0.42200583 0.78001267 0.10187575 0.34984928 -0.2583547 0.025840815
0.4759485 0.7340534 -0.5775144 0.36689964 0.49902764 1.076185 0.09246192 2.0319703
-0.33542827 0.35949033 0.44782433 0.098913215 1.1878028 0.8339972 -1.6170132 0.30513793

conv1.fc_neigh.weight f4 [16, 12]
00000000: 40d0 45be 83d7 383f 8cdd 6e3e 51db 9f3f
00000010: 64da 3640 c4e5 a83e 3292 2940 e370 993f
00000020: 3aef a53e dbeb 173f 2adf 1640 e3e0 983f
00000030: 06d6 613f 7761 7d40 4df1 aebe ea0d 8cbe
00000040: e9da ea3f 8aff 853f 03ba 663d ea6c febe
00000050: 36a6 bb3f 642e ce3f 48c2 08c0 78b1 cabf
00000060: 7c33 aa3f 0a9f 9bbc 9098 923f 5aa7 91bf
00000070: 0275 633f 9fd3 3840 12cf 943e 48d8 3d40
00000080: ad91 85be 5d9f ec3f 7bd1 753f b6fe 3dbe
00000090: 4037 acbf 2f21 d73e b261 68c0 cd35 64c0
000000a0: add0 cb3e 788d ef3f d8cc 1a3e 8c3f a13f
000000b0: 5347 04c0 469a 303f d1c8 7ebb 0d5a b4c0
000000c0: 2f6f 25bf ec25 e83f 0cca 3640 e557 91bf
000000d0: 48f7 b43f 4c3e 07bf 0e9b b0bf 4014 aabe
000000e0: ea7b 9d3d c6ba fbbe 77e8 d4be 9829 9cbd
000000f0: 7302 1ac0 3830 fbbe 5b15 44c0 51aa 69be
00000100: 83d7 c4bf 6738 69c0 d5c1 21bf 51e6 ffbf
00000110: 3642 9f3f e23e f23f 467b 82bf 3c31 82bf
00000120: f393 383f 0e66 3c3f 06a5 d6bf f283 70bf
00000130: 2740 0c40 858d 2fbe 641c 8dbe b509 4bc0
00000140: e81b 173f 43e3 aebf 20d0 b3c0 adc1 2640
00000150: 3ae5 5e3e 1547 b43e a2b4 47be ebc5 ec3f
00000160: ab1a fc3e 195c 7d40 4841 1640 65b5 1540
00000170: 373d 403c 85ba 4dbd 4432 963f af29 e63e
00000180: 69ee 86be 4e19 f73f 396f ef3f 9845 6fbf
00000190: d342 bdbe 9374 23c0 0cc5 2ebf e823 76bf
000001a0: c29c e6bd 7020 d33e c7ff 0dc0 8652 3640
000001b0: ca38 5ac0 0ccd 2a3f e254 02be 1362 e6bf
000001c0: 4858 4b3e fa8e 52bd 0647 873f 8f54 703e
000001d0: 7722 7ebe 6c31 a73f 65cd d83f cc1f 79be
000001e0: ad2d 2c3e 62a1 fa3f c519 f23f 714d 3dbf
000001f0: 1a6a 5d3f d187 d73e a03d 31c0 1cc8 613e
00000200: 278d 143f 680e 05bd f79a edbf d149 cf3f
00000210: 8676 273f dc2b 0ec0 1ec3 77be 7563 9d3f
00000220: b149 a63d 0f49 4640 df32 e83f 86d0 4440
00000230: 4dac 0c3f 7d40 c5bf 603b e8be 445d f33f
00000240: 88eb b8bf 58cb 95bf 75b3 e0be 6629 603d
00000250: 8b80 22c0 cda4 22c0 1664 f33d f993 c4be
00000260: 96cc b23d 48c1 0540 de5b 67c0 956b cfbe
00000270: 7c87 ab3f ecb8 80bd 71e0 ec3e ec4b fe3f
00000280: 7048 a2bf f163 8b3f 76e1 d1bd 0562 503f
00000290: 895c 3cbf 59ae 92bf 444f a6bf 0b76 3dc0
000002a0: 42cb 133d 4064 98bf 51fa f2be d68e 56be
000002b0: ca91 a73f 1a0e ba3e 2788 f43f 6de5 83be
000002c0: 8159 80bd 3b79 c0c0 9add fe3f f8bb f63e
000002d0: a378 6a3f ee13 6b40 4c34 383f 584a 9cbe
000002e0: 8831 77bf 272a 3ec0 eb38 593f 14c8 f0bf
000002f0: 7bba 6b3f 120d 3540 95b4 53bf fd50 e73f
-0.19317722 0.72203845 0.23326701 1.2488805 2.8570795 0.32987797 2.649548 1.1987575
0.32409078 0.5934426 2.3573709 1.194363 0.882172 3.9590738 -0.34168473 -0.27354366
1.8348056 1.0468609 0.05632974 -0.4969247 1.4660099 1.6107907 -2.136858 -1.5835409
1.3296962 -0.018996734 1.1452808 -1.1379197 0.88850415 2.8879163 0.29064232 2.9663258
-0.26087704 1.8486134 0.96022767 -0.18554196 -1.3454361 0.42017505 -3.6309628 -3.5657837
0.39807644 1.8715048 0.15117204 1.2597518 -2.0668533 0.689854 -0.003887702 -5.6359925
-0.6462278 1.8136573 2.856082 -1.1354948 1.4137964 -0.5282943 -1.3797319 -0.33218575
0.0768965 -0.49165934 -0.41583607 -0.07625121 -2.4063995 -0.49060225 -3.0638034 -0.22818877
-1.5378269 -3.6440675 -0.6318639 -1.9992162 1.2442081 1.892544 -1.019387 -1.0171275
0.7210075 0.73593223 -1.6769111 -0.9395133 2.1914155 -0.17143829 -0.27560723 -3.1724675
0.59026957 -1.3663105 -5.619156 2.605571 0.2176713 0.3521048 -0.195025 1.84979
0.49239096 3.9587462 2.3477345 2.3391964 0.011733345 -0.050226707 1.173409 0.44953677
-0.26353768 1.9304597 1.8705817 -0.93465567 -0.36965045 -2.5539901 -0.6826942 -0.9614854
-0.11260368 0.41235685 -2.2187364 2.8487868 -3.4097161 0.66719127 -0.12727693 -1.799868
0.19857895 -0.051405884 1.056855 0.23469757 -0.24817835 1.3061957 1.6937681 -0.24328536
0.16814299 1.95805 1.8914114 -0.7394629 0.86490023 0.42095807 -2.7693863 0.22048992
0.5802788 -0.032484442 -1.8562917 1.6194402 0.6541523 -2.221427 -0.24195525 1.2295977
0.08119524 3.0982091 1.8140525 3.0752273 0.5495041 -1.5410305 -0.453578 1.9012837
-1.4446878 -1.170268 -0.43886915 0.05472698 -2.5390956 -2.5413086 0.11884324 -0.38394144
0.08730428 2.089922 -3.6149821 -0.40511766 1.3400722 -0.06285271 0.46264985 1.986692
-1.2678356 1.0889875 -0.102480814 0.81399566 -0.735787 -1.1459457 -1.299294 -2.9603298
0.036082514 -1.1905594 -0.474566 -0.20952925 1.3091366 0.36338884 1.910405 -0.25760975
-0.062670715 -6.0147986 1.9911377 0.48190284 0.9159033 3.6730914 0.719548 -0.3052547
-0.96559954 -2.9713228 0.84852475 -1.8811059 0.9208142 2.8289227 -0.8269742 1.8071591

conv2.bias f4 [16]
00000000: 3d37 ec3d 0108 1bbe f2ed a7be 67d1 8cbe
00000010: 8772 1d3d a911 19bf e7eb 473e 8ffa d33d
00000020: 8eea b83e 9c62 3dbe 92d8 a63e 74f3 f73e
00000030: fe62 be3e 6182 2abf 6c18 44be fcdc 933e
0.11533973 -0.15139772 -0.32798725 -0.2750351 0.0384393 -0.5979257 0.19523583 0.10350525
0.3611645 -0.18494648 0.32587105 0.48427927 0.371849 -0.6660519 -0.19149941 0.28879535

conv2.fc_self.weight f4 [16, 16]
00000000: 4929 20bf 9455 7dbf 951c 743f ad2e f0be
00000010: fa94 5a3f 313e 23bf 2f4a 813e a788 be3d
00000020: 4dd5 13bf ddf4 50bd eeff 693f 9fed 02bf
00000030: 7d12 a13e 1fdf 3a3e 2f65 3e3f c3e1 413c
00000040: 7c02 bcbf 11c0 2c3e 4b34 9d3e 35fc 8cbf
00000050: b81f c0bd 34b1 e83e 12f1 213f e4e0 933f
00000060: 37a5 6f3f d29a b4bf 9b0f 46bf 0eca ba3e
00000070: e48d 8c3f 6968 ce3e 8de5 4bbf 2fa1 c83d
00000080: 33c6 e63d ac90 0dbe 2147 703d fa49 743f
00000090: d5ee ee3d 569d e93f 3654 443f a9e1 26bf
000000a0: 4eb3 603e 3307 e5be a6c9 a0be 7f08 853f
000000b0: 26b7 f1be 953d 85be 7193 803d 8b85 0a3f
000000c0: 7882 33bf 6343 80bf 2a0a ea3e b271 1d3f
000000d0: c7aa 9fbe 5dbb 873e e22b f83d 4748 35bf
000000e0: bfa2 65bf b51b 8abe 8dd5 13bf 724b 50bf
000000f0: 2154 da3e 8859 d5be a62a 6a3f 2a55 b63e
00000100: e7e5 5a3f b545 283e b82b 803f 7181 76bf
00000110: b27a f7bd e91a e73f e658 223f 2859 033f
00000120: f977 a13d 607d adbd 292a 57be e8d2 413f
00000130: 7300 28bf b620 0c3f 3919 553e 8810 103f
00000140: 3a13 5b3e ce4a 53bd fde0 e03e 053c 2e3f
00000150: a1db 1d3f 310b 653f 7bae 74bf d0d9 293f
00000160: 18e0 d3be db38 5d3f ea87 34bf 1762 47bf
00000170: 16c4 16c0 8ef0 41bf 5c16 8abd 7c6f 9f3e
00000180: 959c 0c3e 8886 7bbe a1a3 cebe 78be 12c0
00000190: 4855 e13e 5a95 5ebf f700 5dbf 395c 1dbf
000001a0: ccd8 bd3d 80f3 ba3d bbbf c63e d2f7 16bf
000001b0: f850 30be feb9 69bf 671d 3b3f e431 40be
000001c0: d3dd 81bb 45c4 6e3e dd3d 7a3f 7ce5 adbf
000001d0: 5235 debe 510e 00bf 7ee7 f6be 5698 293f
000001e0: c669 0d3f 9b2f 1dbf 99ce d93e 0625 15bf
000001f0: 266b 1cbf bdcf 0cbf 581d 0ebf 651a c93e
00000200: a2a2 2d3f f9a4 663f c760 363f 82df b6bf
00000210: 9de8 803f ba7a 203f eb40 38bf bcdc 1f3d
00000220: 89b3 12bf 14f0 fa3d 9345 fd3d 77cb a93f
00000230: 298d 19bf 7473 abbf 1913 23bf 492f 92bf
00000240: eeff f5be 2483 023f cabd 95be 2bb6 343e
00000250: 628e f0bd 30bc 313c 7243 fd3e 6f8f c6bf
00000260: 3293 d33e 31fd 70be 2307 f4be d100 39be
00000270: 2d10 82bd d207 9cbe ba3d c43e 328b 8fbe
00000280: b721 e73e 4688 b4be 82fb 8ebe 0bd9 663f
00000290: ef27 bc3c e2ba 45bf 627f e5be 6366 1dbf
000002a0: 234f 76bf 393b 10bf d912 a63e 6d4b 15be
000002b0: 4b34 6c3f 5e31 fcbe 195d a1bf 7471 e63d
000002c0: 719d b53d e82a 1640 3f70 d93c af5d 4c3e
000002d0: c9db 043e 298f 7f3c a282 093e 28c3 a5be
000002e0: 8092 0c3f b572 12bf 9417 4b3f 08cd 1dbf
000002f0: 703c b0bf 2dc2 8dbf 0ada 2abc 489a 26bf
00000300: 95a4 f23e ceec e2be ce1b d83d b0a2 eabd
00000310: 70e2 583e 268e 583f 64ab 223f ef8b 40bf
00000320: e34b 0f3f a936 89bf 00bb 513f 4e5c 15bf
00000330: 2216 30be d919 313f 157c 9b3f 20b3 2a3f
00000340: 32d9 5cbe a537 a4be 28d2 45be 5108 943d
00000350: 557f 5bbf c233 613e 9d51 943e 55eb 15bf
00000360: f45e 033f 2116 07bf de71 eebb c2c1 b43e
00000370: ed7c 5b3f bff2 96be 102d 19bd 664c 00bf
00000380: 78d4 b1bf c438 f83b 029f dc3e 2c9b 163f
00000390: 7274 463f de83 ea3e 82d0 2e3f 3628 16bf
000003a0: 10f0 2fbd fcc2 ad3d 6ff6 eabd 8846 aebe
000003b0: e600 05bf f8b3 01bf c551 5dbf afc1 503f
000003c0: e23d 59bd b2d5 f2bd a4e9 693d ca14 fbbd
000003d0: d3b1 223f cd91 9d3f 6a89 883f 0be3 843f
000003e0: f164 8abe 2ae2 983d 45f4 55bf 4854 4b3f
000003f0: b9ec 01c0 da5c 563c 7fea 853f dc70 d3be
-0.62562996 -0.98958707 0.9535611 -0.4691061 0.8538357 -0.6376677 0.2525191 0.09303408
-0.57747346 -0.05101477 0.9140614 -0.5114383 0.31459418 0.18249176 0.74373144 0.011833611
-1.4688258 0.16870143 0.3070396 -1.1014467 -0.0938105 0.45447695 0.6325847 1.1553006
0.9361147 -1.4109747 -0.7736756 0.3648228 1.0980802 0.40314034 -0.7964714 0.09796368
0.11268272 -0.13824719 0.058661584 0.9542538 0.11666647 1.825114 0.76690996 -0.6518808
0.219434 -0.44732055 -0.31403846 1.0393218 -0.47210044 -0.26023546 0.06278122 0.5411002
-0.70120955 -1.0020565 0.4571088 0.6150161 -0.3118498 0.26510134 0.12117745 -0.7081341
-0.89701456 -0.26974264 -0.5774773 -0.8136512 0.4264231 -0.4166987 0.91471326 0.3561185
0.85507053 0.16432841 1.0013342 -0.9629126 -0.12083949 1.8055087 0.634169 0.51307917
0.07884211 -0.08471179 -0.21012177 0.7571244 -0.65625685 0.5473741 0.20810403 0.56275225
0.21394053 -0.05158501 0.43921652 0.6806033 0.6166325 0.894702 -0.95578736 0.6634798
-0.41381907 0.8641488 -0.7051989 -0.7788405 -2.3557181 -0.7575768 -0.06742546 0.31139743
0.13731606 -0.24563038 -0.40359214 -2.2928753 0.44010377 -0.8694664 -0.863296 -0.61468846
0.09269866 0.09128475 0.38818154 -0.58971894 -0.17218387 -0.91299427 0.7309174 -0.18769032
-0.003963211 0.23317058 0.97750646 -1.3585658 -0.43400055 -0.50021845 -0.4822349 0.6624807
0.5523952 -0.61400765 0.42540434 -0.5825962 -0.61100996 -0.55004483 -0.55513525 0.3927795
0.6782628 0.9009548 0.7124142 -1.4286959 1.0070988 0.62687266 -0.71974057 0.039028868
-0.573052 0.122528225 0.12366786 1.3265218 -0.5998102 -1.3394608 -0.63701016 -1.142068
-0.4804682 0.50981355 -0.2924636 0.17647617 -0.11745907 0.01084809 0.4946552 -1.5512522
0.4132324 -0.23534085 -0.47661695 -0.18066718 -0.063507415 -0.30474716 0.38328344 -0.28035885
0.4514291 -0.35260218 -0.2792626 0.9017493 0.02296826 -0.77238286 -0.44823748 -0.61484355
-0.96214503 -0.56340367 0.32436255 -0.14579554 0.9226729 -0.49256414 -1.2606536 0.11252108
0.0886792 2.3463688 0.02654278 0.19957612 0.12974466 0.015598097 0.13428739 -0.32375455
0.5491104 -0.5720628 0.7933285 -0.6164098 -1.3768444 -1.1074883 -0.010427961 -0.65079165
0.4739119 -0.44321293 0.10552178 -0.114568114 0.21180129 0.845919 0.6354277 -0.7521352
0.5597517 -1.0719806 0.81925964 -0.5834397 -0.17195943 0.69180065 1.2147242 0.66679573
-0.21567228 -0.32073703 -0.1931845 0.07228149 -0.8574117 0.219924 0.28968516 -0.58562213
0.5131676 -0.5276814 -0.0072767576 0.35304075 0.85737497 -0.29482076 -0.03739649 -0.50116575
-1.3892965 0.0075751264 0.43090063 0.58830523 0.7752143 0.45803732 0.6828691 -0.5865511
-0.04295355 0.08484456 -0.11472785 -0.34038186 -0.51954496 -0.50665236 -0.86452895 0.8154554
-0.05303753 -0.118571654 0.057107583 -0.122598246 0.6355259 1.231012 1.0666935 1.0381788
-0.27030137 0.07465012 -0.8357585 0.7942548 -2.0300734 0.013083661 1.0462188 -0.41297042

conv2.fc_neigh.weight f4 [16, 16]
00000000: eddf a2be 5fd6 3b3f a040 cfbc 6d7b d1be
00000010: 41a4 463e 154f aabf 8099 9bbf dc45 0b3f
00000020: d0a9 4c3f b7f1 2f3f c20c 503f 6de5 7bbe
00000030: acf6 393f 5483 61bf a43a 6bbf 1fb8 64bf
00000040: d7f9 9f3f f6ac 423f 5e08 183f 8a2b d6bf
00000050: 533a 71bf 6831 9fbf ebbd de3e c84a f43e
00000060: a38b 303f e1ab 833f b863 613e 0fd2 f23d
00000070: 6951 203f 5853 093f 2036 56be 4bba 57bf
00000080: 1a22 0b3f b5c9 2a3f 10b4 11bf b1dd 883f
00000090: 31c8 583f ebf4 4cc0 2795 1cc0 7282 a6be
000000a0: 6c53 b6be 95d0 92be 93a3 733f 6512 85bf
000000b0: d12c 05bd 0097 0dbf 3b6c 953e eda3 2c3f
000000c0: cc80 d93d b964 ca3e f026 02bf 7f6d d03e
000000d0: efac 86be 874c 9bbe 8e41 dfbe 8e7e a0bf
000000e0: 80e4 f2bb bb22 7fbf b738 9abd bd1c 15be
000000f0: 916d 203f c1ed 1cbe b597 babe 809f 91bf
00000100: ddc2 60bf a56b 5d3f 80be d8bf ac0b d63e
00000110: d739 913e 0fb3 e2be 3429 7f3f d69b d7bf
00000120: 5ddf eb3e 54e9 cbbf 9064 cbbe 36a5 c7be
00000130: d2ae 07be da78 b4be 10a9 63bf 9cf9 ecbd
00000140: 119b ce3e b6a5 a83f a41e 383f c89c 0cc0
00000150: 2712 86bf 7561 3abf b914 5bbb 9db5 16be
00000160: f305 b43f 3d19 8cbe 2913 46bf e645 a23e
00000170: dadf c83e d6e8 9abe 9289 193f b553 0e3f
00000180: 9c25 41be 8bff 8f3f e17e 0bbe 458f f2be
00000190: d1dd 8b3e 2111 b33d 6775 743f 5111 18be
000001a0: 03b9 83be 7aff ff3d 7910 6a3f de29 0abf
000001b0: b48c bdbe 7630 58bf c9de 1f3f 396a 883f
000001c0: 027e abbe 4ae2 a9bf 3d4a a43f 6ab9 3b3f
000001d0: dd33 adbe f14f 073f 67da c93e a1ba 5c3f
000001e0: 1ea8 a5bf cbd2 2fbc b7f5 7e3e ae61 a3bf
000001f0: 12ca a83f c86b 363f 8236 ff3e 5fa0 4f3f
00000200: c3ea ab3f afbd 08bf bdf5 f3be 1ddc 143f
00000210: 02df 0e3e 5e65 dfbe 8e80 0abf 885b 873f
00000220: 19be 0cbe 5eeb 423f c232 05bf 3058 c73e
00000230: e88d 53bf a63f d7bf 285f 42be e771 f9bf
00000240: 26b6 97bf 676f 0fbe a73a 0c3f 81bd 9ebe
00000250: 32a8 dfbf b41d 0a3f 96c6 863f ac38 87bf
00000260: cfa6 d03e fb76 7abf b83c 81bf 22ed 7bbf
00000270: c6bd 2840 bc18 553f d4d3 923f 46e1 993f
00000280: 45a9 0c3f a124 e9bd 672e 37bf 9c8c 633f
00000290: 1af4 433f 3ce5 063f 4d2f 123f 1933 843f
000002a0: 779c fa3e f991 853f f4c2 a43e f848 8ebc
000002b0: 3ed0 483d a75a 5a3f 2b6e bd3d d450 273f
000002c0: 8eb0 c5bf e0cf b83e 222f 67bf 73f6 93bf
000002d0: 5629 c03f 9098 a33e ee5b a63d 39a7 2e3d
000002e0: 8bee bebc bd05 1abf be36 9a3f 5f8d d4bd
000002f0: e7d5 febe a594 21bf 631c a2bf 0c6a 6f3f
00000300: e01e 9e3f 07f1 5ebe bbd2 1fbf fd96 693f
00000310: cdd8 b1bf 989d 733f 6df7 b4be 2283 283e
00000320: 48ba 06be 1a50 0abd 13f7 e1bf 25c8 a7bd
00000330: 0d18 cebf b929 04bf ab72 3dbf e90d aabe
00000340: 11d7 88bf 4dce 813f 888b 0640 8b4c 00c0
00000350: a6d3 8dbb 7cdb a8be ea15 2a3f f47a f13f
00000360: edfd e43f d98a aabf c515 50be 8a7a 033f
00000370: 508d 7b3e 92be 493d 8873 603e 8a03 febe
00000380: be9a a93e 2532 653f beb1 7d3f 54f6 443f
00000390: 68ad ce3f 6ce4 c43f 8335 e43f c68d 2a3f
000003a0: 6259 72bf a7ff 033f fa45 fb3d 48e1 9d3f
000003b0: 3abd 88bf ef62 fb3e 9067 0abe 90ce 27bf
000003c0: a0e1 793b c83a a4bf 6bbf 233f 8c6e 0bc0
000003d0: ad83 963d 2720 3f40 d527 7e3f d48a 0c40
000003e0: 388d 503f 19e0 473f 2725 48be 5341 f03d
000003f0: 1ff7 e5be b5b6 b23f 58ba 953f 8e76 683f
-0.31811467 0.7337398 -0.02529937 -0.4091448 0.19398595 -1.3305384 -1.215622 0.5440347
0.79946613 0.687282 0.81269467 -0.24599238 0.72642016 -0.88091016 -0.91886353 -0.89343446
1.249812 0.7604517 0.5938777 -1.6732037 -0.9422962 -1.2436953 0.4350427 0.47713304
0.6896307 1.0286828 0.22010696 0.11856472 0.6262422 0.536428 -0.20919085 -0.84268636
0.5434891 0.6671403 -0.5691538 1.0692655 0.8468047 -3.2024486 -2.4466035 -0.32521397
-0.3561052 -0.2867476 0.9517147 -1.0396239 -0.032513443 -0.5530853 0.29184136 0.6743763
0.10620269 0.3952997 -0.50840664 0.4070854 -0.26303813 -0.30331823 -0.43604702 -1.2538621
-0.007412493 -0.9966237 -0.07530349 -0.14561744 0.62667185 -0.15325071 -0.36443868 -1.13768
-0.8779734 0.8649238 -1.6933136 0.4180578 0.2836444 -0.44277236 0.99672246 -1.6844432
0.4606885 -1.5930581 -0.3972516 -0.38993233 -0.13250282 -0.35248452 -0.88929844 -0.11571047
0.4035268 1.3175571 0.71921754 -2.1970692 -1.047429 -0.7280496 -0.00334291 -0.14717717
1.4064316 -0.27363005 -0.77372986 0.31693953 0.39233285 -0.30255765 0.5997554 0.55596477
-0.18862003 1.124986 -0.13622619 -0.4737493 0.2731767 0.087435015 0.9549164 -0.14850356
-0.2572709 0.124999 0.91431385 -0.53970134 -0.3702141 -0.84448946 0.6244932 1.0657417
-0.33494574 -1.3272183 1.2835156 0.73329794 -0.3382863 0.52856356 0.3942444 0.86222273
-1.294193 -0.010731409 0.2489842 -1.2764184 1.3186667 0.7125821 0.49846274 0.8110408
1.3431019 -0.53414434 -0.4764842 0.58148366 0.13952258 -0.43632025 -0.5410241 1.0574808
-0.13744392 0.7614039 -0.52030575 0.3893447 -0.82638407 -1.6816299 -0.18981612 -1.9487885
-1.1852462 -0.1400734 0.54776996 -0.31003955 -1.7473204 0.53951573 1.0529354 -1.056417
0.40752265 -0.978378 -1.0096655 -0.9840871 2.6365829 0.83240867 1.1470895 1.2021873
0.54945785 -0.113839395 -0.7155518 0.8888643 0.76544344 0.52693534 0.57103425 1.0328094
0.48947498 1.0435172 0.32179987 -0.017368779 0.04902672 0.85294574 0.092495285 0.6535771
-1.5444505 0.36096096 -0.90306294 -1.1559585 1.5012615 0.31952333 0.08123003 0.042639945
-0.023307106 -0.60165006 1.2047956 -0.10378527 -0.4977257 -0.6311744 -1.2664913 0.9352119
1.2353172 -0.21771632 -0.62430924 0.91246015 -1.3894287 0.95162344 -0.3534502 0.16456273
-0.13156998 -0.033767797 -1.7653526 -0.081924714 -1.610109 -0.51626164 -0.74003094 -0.33213738
-1.0690633 1.0141083 2.1022663 -2.0046718 -0.004328209 -0.32979953 0.6643969 1.8865647
1.7889992 -1.3323623 -0.20320804 0.51358855 0.24565625 0.049254008 0.21919072 -0.49612075
0.3312587 0.8952964 0.9909934 0.76938367 1.6146669 1.5382209 1.782883 0.6662258
-0.9466764 0.5156197 0.12269206 1.2334375 -1.0682747 0.49098918 -0.13516068 -0.65549564
0.0038128868 -1.2830439 0.63963956 -2.1786222 0.07349334 2.9863374 0.9927953 2.1959734
0.8146548 0.7807632 -0.19545422 0.117312096 -0.449151 1.3962008 1.1697493 0.908059
