model.pth (torch, 31873 bytes, 12 tensors)

conv1.bias f4 [16]
0.01590861 -0.026197784 -0.01188247 0.041493308 0.03183239 -0.026107704 -0.020365842 0.07742101
-0.0347822 0.057400115 -0.062846586 0.0073661683 0.0050772475 -0.035755318 -0.06288701 -0.029154742
00000000: c652 823c bc9c d6bc b1ae 42bc e3f4 293d
00000010: ae62 023d d3df d5bc 44d6 a6bc e88e 9e3d
00000020: c877 0ebd 621c 6b3d b6b5 80bd e65f f13b
00000030: 0a5f a63b 2b74 12bd e8ca 80bd edd5 eebc

conv1.fc_self.weight f4 [16, 170]
0.038529478 0.18009257 0.10607348 0.0026584014 -0.38258824 -0.013484473 -0.03457772 0.09924006
0.14224078 0.08729084 0.129282 0.07199154 -0.14914787 -0.1571864 0.053087007 0.11955072
0.083001144 0.06745199 -0.31000644 -0.16168967 0.005188089 0.0056869867 0.118943505 -0.17001216
-0.19760507 -0.12420822 -0.099248536 0.10711895 -0.10022396 0.035208896 0.18121502 0.047179554
0.10285888 -0.07772214 -0.086993605 -0.057934266 -0.028996265 0.16270126 0.25352088 0.15505785
0.019643849 0.007698155 0.23294197 0.015091864 0.19445059 0.010762191 0.014730092 0.09745597
0.14548904 -0.050403178 0.08330559 0.10027416 -0.02685722 -0.07138824 -0.014553982 0.0055975257
0.056739487 -0.118605144 0.11140713 -0.015104493 0.022152564 0.09653998 0.07725478 -0.057626266
-0.1446834 -0.05849503 0.049731426 0.040983435 0.031031948 0.09651181 0.14336309 -0.06349771
0.008234638 0.028984867 0.044540934 0.1056665 0.19571267 0.10522468 -0.041953795 -0.08773566
0.043775298 0.11161978 0.1976638 -0.1554975 -0.15228969 -0.033219818 0.12806515 -0.013988135
0.22579584 0.034311708 0.25604737 0.114039704 0.13409545 0.08843735 0.2214507 -0.0060862424
0.101140805 0.0208365 0.14974335 0.076531276 0.101262316 0.007969724 0.29926896 0.13187696
0.2133535 -0.07451624 -0.33177418 -0.045611463 -0.020197084 0.0069969846 -0.2942577 -0.350008
-0.19543333 -0.094317496 -0.102705225 0.007991029 -0.07395736 -0.09051925 0.028827975 -0.14017326
-0.11820904 -0.04424107 -0.20061782 0.046800975 -0.107448846 0.083222955 -0.039303176 -0.13006829
0.2702814 0.16236243 0.37362504 0.049635194 0.119506784 -0.024468767 0.0202795 0.0551581
0.0556675 -0.15884274 -0.049412943 0.10882839 0.02577953 -0.020232903 0.023240782 0.016634155
0.09684778 -0.12623952 -0.21218245 0.014339802 0.06561134 -0.20763956 -0.25229228 -0.095180534
0.004468114 -0.19101997 -0.22071183 0.15318395 -0.32504824 -0.024463076 -0.15364186 0.40439978
0.021118002 0.22530077 0.16694629 0.11273517 0.08376141 0.3332453 -0.014183709 0.0974788
0.10139048 -0.10055297 0.13445581 -0.04076883 -0.2267073 -0.05362689 0.20682095 -0.17604503
-0.00032605825 0.0060312646 -0.1500095 0.17715138 -0.053292908 -0.11261446 -0.047690567 0.025197236
0.072726734 0.018642243 0.0262388 0.030497223 -0.040529083 0.025195811 -0.04683735 -0.02843582
0.17057201 0.009978156 0.02643446 0.012059838 -0.12810315 -0.13002867 -0.17469764 -0.26790592
-0.03498978 -0.10513811 0.059220962 0.00717849 -0.35089117 0.050430764 -0.02688202 0.2688763
0.012076011 -0.048314173 -0.33746055 -0.103335746 -0.09532321 -0.009133179 0.2791054 -0.24965735
0.038925696 -0.22506031 -0.025770256 0.029635582 0.10947916 0.14648098 -0.1979649 -0.1460437
-0.07052396 0.083327934 0.13022473 0.13028388 -0.1459554 -0.11975178 -0.06399003 0.19417854
0.12966357 -0.1643362 0.022688413 -0.09911035 -0.10595869 0.284617 0.028754245 -0.14568432
-0.05073593 -0.09310578 -0.085586324 -0.08877589 -0.025902897 -0.19479452 0.12401961 0.064030334
-0.053693604 -0.10071628 -0.010307336 -0.23832881 -0.111398764 -0.1657547 -0.075190715 -0.12556562
00000000: 16d1 1d3d 306a 383e 0d3d d93d 9338 2e3b
00000010: 9be2 c3be fbed 5cbc 5ea1 0dbd 5f3e cb3d
00000020: 91a7 113e 8ac5 b23d 8062 043e 4d70 933d
00000030: 38ba 18be 79f5 20be c371 593d 02d7 f43d
00000040: 81fc a93d 4524 8a3d 2ab9 9ebe fa91 25be
00000050: d800 aa3b e759 ba3b a798 f33d ab17 2ebe
00000060: fc58 4abe e160 febd d142 cbbd 2e61 db3d
00000070: 3842 cdbd 3437 103d 6e90 393e 593f 413d
00000080: ada7 d23d c92c 9fbd b429 b2bd 7b4c 6dbd
00000090: 9389 edbc 299b 263e 7dcd 813e 7cc7 1e3e
000000a0: 23ec a03c ce40 fc3b 5788 6e3e de43 773c
000000b0: 0e1e 473e e753 303c 7c56 713c ff96 c73d
000000c0: 14fb 143e 9073 4ebd 1f9c aa3d 8a5c cd3d
000000d0: ac03 dcbc ff33 92bd d373 6ebc 736b b73b
000000e0: aa67 683d 41e7 f2bd 6c29 e43d d678 77bc
000000f0: 4b79 b53c c1b6 c53d c137 9e3d 8509 6cbd
00000100: e327 14be 7c98 6fbd 2eb3 4b3d 3fde 273d
00000110: b636 fe3c fca7 c53d c6cd 123e 160b 82bd
00000120: 93ea 063c ac71 ed3c 8e70 363d ae67 d83d
00000130: e768 483e 0980 d73d bed7 2bbd c1ae b3bd
00000140: ba4d 333d e998 e43d 6168 4a3e bd3a 1fbe
00000150: d4f1 1bbe 8111 08bd 8323 033e 7e2e 65bc
00000160: 0637 673e 6f8a 0c3d a418 833e a68d e93d
00000170: 5150 093e a41e b53d f9c3 623e 1a6f c7bb
00000180: e922 cf3d 4fb1 aa3c 5256 193e 6ebc 9c3d
00000190: 9e62 cf3d 7293 023c c839 993e c10a 073e
000001a0: 5779 5a3e f89b 98bd 4ede a9be 16d3 3abd
000001b0: 5b74 a5bc f646 e53b f2a8 96be 4034 b3be
000001c0: ad1f 48be 8829 c1bd 1e57 d2bd ceec 023c
000001d0: f576 97bd 2862 b9bd a528 ec3c 9489 0fbe
000001e0: 9517 f2bd 2036 35bd c26e 4dbe 61b2 3f3d
000001f0: 240e dcbd cc70 aa3d 5efc 20bd 9f30 05be
00000200: 5362 8a3e 5642 263e c84b bf3e 464e 4b3d
00000210: f9bf f43d b972 c8bc 3221 a63c 76ed 613d
00000220: 9b03 643d aca7 22be 3a65 4abd 6be1 de3d
00000230: 982f d33c 79bf a5bc 7463 be3c 5a44 883c
00000240: 2158 c63d ef44 01be 5b46 59be 7df1 6a3c
00000250: 3d5f 863d 779f 54be 742c 81be 03ee c2bd
00000260: 4269 923b bd9a 43be 4802 62be 41dc 1c3e
00000270: b96c a6be ca66 c8bc 4b54 1dbe 7d0d cf3e
00000280: a9ff ac3c 3fb5 663e f8f3 2a3e b2e1 e63d
00000290: 1a8b ab3d 219f aa3e ca62 68bc f7a2 c73d
000002a0: d0a5 cf3d b7ee cdbd c9ae 093e 37fd 26bd
000002b0: f525 68be dfa7 5bbd dfc8 533e 2645 34be
000002c0: ccf2 aab9 eaa1 c53b 179c 19be 2c67 353e
000002d0: aa49 5abd 69a2 e6bd 2f57 43bd 6f6a ce3c
000002e0: c1f1 943d 9eb7 983c c0f2 d63c 50d5 f93c
000002f0: d301 26bd 7267 ce3c 85d8 3fbd 3df2 e8bc
00000300: 6eaa 2e3e 6b7b 233c 158d d83c a096 453c
00000310: 792d 03be 3c26 05be f0e3 32be f72a 89be
00000320: 7251 0fbd a652 d7bd ae91 723d 8a39 eb3b
00000330: 02a8 b3be 7d90 4e3d af37 dcbc 28aa 893e
00000340: 76da 453c 15e5 45bd a1c7 acbe b1a1 d3bd
00000350: d138 c3bd 54a3 15bc e7e6 8e3e 2da6 7fbe
00000360: 8d70 1f3d 3676 66be 251c d3bc 52c6 f23c
00000370: 9c36 e03d 1cff 153e 50b7 4abe 7b8c 15be
00000380: de6e 90bd d6a7 aa3d a259 053e 2369 053e
00000390: 5575 15be 6c40 f5bd 340d 83bd bdd6 463e
000003a0: 87c6 043e c047 28be 0ddd b93c 5efa cabd
000003b0: df00 d9bd 52b9 913e 068e eb3c 452e 15be
000003c0: 7bd0 4fbd 3eae bebd e247 afbd 22d0 b5bd
000003d0: 5032 d4bc 3778 47be fefd fd3d 5622 833d
000003e0: d3ed 5bbd 5644 cebd 1ae0 28bc 780c 74be
000003f0: 0925 e4bd 9abb 29be 97fd 99bd 4694 00be

conv1.fc_neigh.weight f4 [16, 170]
-0.088570796 0.16583964 0.1263531 -0.3677528 -0.21773584 0.04158205 -0.07023866 0.12236662
-0.12604149 -0.28808123 0.19903284 -0.16847241 0.032172732 0.030122913 0.17694373 0.27606043
0.04618033 0.13410144 -0.12544554 -0.05631768 0.15686409 0.0521167 0.28372392 -0.06405313
-0.19074345 0.08750114 0.2127038 0.2549364 0.07523314 0.38434327 0.22454382 0.10680315
0.026339417 0.00058418827 0.21736482 0.080143176 0.010995057 0.2474151 0.22460078 0.1951804
0.03699029 0.09061692 0.07195062 0.10160753 0.06730999 -0.04444942 -0.10316468 0.27051988
0.013178625 -0.23768225 -0.14547515 -0.37531084 0.017423853 0.053864647 -0.09170011 -0.029332321
0.068334974 -0.41535416 0.16253476 0.2163758 0.06455509 -0.015497067 -0.034781765 -0.21867882
-0.14007114 -0.066925205 0.24674809 -0.07245139 -0.19147262 -0.101682946 -0.11288979 0.0017729587
-0.088007525 -0.09002389 -0.07016079 0.24659844 -0.107219815 0.21719167 -0.16983806 -0.033650443
0.18539561 0.14547254 0.295662 -0.23063096 -0.18906756 -0.038514588 -0.046115715 -0.13403286
0.17371053 -0.47224635 -0.035167318 0.029618688 0.070894346 -0.103034556 -0.062423665 -0.25560224
0.08380705 -0.48100656 0.18733223 0.010690146 -0.124195 -0.117974594 0.12932281 -0.1572152
0.034705356 -0.07479693 -0.40125352 0.12771301 -0.14875041 0.06189051 0.034479186 0.27070305
0.07368823 -0.09050328 -0.14834365 -0.3908013 -0.33451325 -0.48108858 -0.19179617 0.20655212
0.074583836 -0.1863174 -0.61348057 -0.12345901 -0.11217362 -0.09337135 -0.16317095 -0.101258375
0.06762292 0.14088108 -0.041443083 0.31128752 0.0131656695 0.10038752 -0.018818153 0.12470981
0.09009451 -0.25821307 -0.034143742 0.3023959 -0.010738783 -0.2348239 -0.121180296 0.05036461
0.1198041 0.04205202 -0.5518171 -0.26789773 0.10632512 -0.037621092 0.1549536 -0.17544456
0.11327309 0.2562977 -0.31572518 0.045327947 -0.067214206 -0.10824461 -0.17985584 0.3890277
0.13960102 0.43530923 -0.05090749 0.21918589 0.022821836 0.14216436 0.14306118 0.23282844
0.30237845 -0.043021034 -0.089401364 -0.16680418 0.007471885 -0.27875867 0.4358571 -0.036635432
0.04862306 -0.1851139 -0.10371546 -0.11053882 0.04656546 -0.078910835 0.040219393 0.388102
-0.025776077 -0.032465536 -0.26026398 -0.22153452 0.0066462923 -0.013370588 -0.108983435 -0.24701263
-0.31824827 -0.0668357 -0.014444418 0.08904176 -0.06976111 -0.031496253 0.07357942 -0.04565924
0.13654716 -0.1716035 -0.036800988 -0.08686938 -0.16862324 0.07074187 0.15135111 0.2458759
-0.1502307 -0.12791851 -0.09923315 -0.29257828 -0.16968314 0.18447712 0.4037485 0.62935543
0.018304499 0.09887371 -0.01347269 0.15688354 0.16209076 0.038172103 0.021113452 -0.06950705
0.024990259 -0.044123035 0.13459839 0.43682784 0.052231885 -0.09146489 -0.1098506 0.42716342
0.2660658 0.06573432 0.046851084 -0.0046250178 -0.029706975 0.25087726 0.16383415 -0.019048864
0.05221285 0.2637542 0.083342746 0.037584085 0.115828566 -0.12870222 -0.010002196 0.02763325
0.24987108 0.21225116 0.35596862 0.064615935 -0.095389254 0.5645783 -0.062004328 -0.15316343
00000000: 9b64 b5bd ded1 293e b562 013e 184a bcbe
00000010: 25f6 5ebe f151 2a3d 49d9 8fbd 5a9b fa3d
00000020: 0511 01be 627f 93be 44cf 4b3e 0884 2cbe
00000030: 8ec7 033d 54c4 f63c bd30 353e cb57 8d3e
00000040: 9627 3d3d e351 093e cc74 00be 5ead 66bd
00000050: fba0 203e 5278 553d 4344 913e 4a2e 83bd
00000060: 4052 43be cc33 b33d 06cf 593e 0687 823e
00000070: d513 9a3d a4c8 c43e d1ee 653e 9cbb da3d
00000080: c3c5 d73c 3624 193a e294 5e3e 1b22 a43d
00000090: 9d24 343c 625a 7d3e bffd 653e 5fdd 473e
000000a0: 2183 173d 5d95 b93d d95a 933d 9c17 d03d
000000b0: d2d9 893d 9810 36bd 0148 d3bd 9581 8a3e
000000c0: 29eb 573c fa62 73be 70f7 14be be28 c0be
000000d0: 78bc 8e3c 2da1 5c3d 44cd bbbd 564a f0bc
000000e0: 35f3 8b3d 4da9 d4be 836f 263e 9e91 5d3e
000000f0: 7635 843d 69e7 7dbc 5377 0ebd 57ed 5fbe
00000100: cf6e 0fbe 1510 89bd 88ab 7c3e 6561 94bd
00000110: 6611 44be 263f d0bd c332 e7bd 9f62 e83a
00000120: 4a3d b4bd 725e b8bd 76b0 8fbd 4d84 7c3e
00000130: 1096 dbbd 7e67 5e3e 07ea 2dbe 0cd5 09bd
00000140: 59d8 3d3e c1f6 143e 0261 973e 862a 6cbe
00000150: ed9a 41be 79c1 1dbd d5e3 3cbd e93f 09be
00000160: 2ce1 313e 46ca f1be 9b0b 10bd e4a2 f23c
00000170: 0e31 913d c803 d3bd f5af 7fbd 4cde 82be
00000180: 08a3 ab3d 7e46 f6be 05d4 3f3e b925 2f3c
00000190: f359 febd aa9c f1bd 336d 043e 05fd 20be
000001a0: 3427 0e3d 222f 99bd 1a71 cdbe 33c7 023e
000001b0: 0752 18be e780 7d3d 0c3a 0d3d 9799 8a3e
000001c0: dbe9 963d c959 b9bd 66e7 17be 1c17 c8be
000001d0: 5245 abbe 3e51 f6be 3766 44be 6682 533e
000001e0: 69bf 983d fdc9 3ebe 100d 1dbf 14d8 fcbd
000001f0: 48bb e5bd 7a39 bfbd 4916 27be 8d60 cfbd
00000200: e37d 8a3d 2143 103e 39c0 29bd 1461 9f3e
00000210: d2b4 573c f997 cd3d 8728 9abc db67 ff3d
00000220: 7883 b83d 8134 84be 4fda 0bbd a3d3 9a3e
00000230: b8f1 2fbc ad75 70be 602d f8bd 1f4b 4e3d
00000240: da5b f53d bd3e 2c3d e343 0dbf e429 89be
00000250: fcc0 d93d 9318 1abd 28ac 1e3e bda7 33be
00000260: b9fb e73d 7439 833e bba6 a1be cca9 393d
00000270: 9aa7 89bd 5aaf ddbd 212c 38be a42e c73e
00000280: 92f3 0e3e dae0 de3e 5f84 50bd 4472 603e
00000290: dcf4 ba3c 8993 113e a17e 123e 946a 6e3e
000002a0: 59d1 9a3e d336 30bd 1018 b7bd b7ce 2abe
000002b0: b7d6 f43b 75b9 8ebe a928 df3e 090f 16bd
000002c0: f928 473d 808e 3dbe c568 d4bd 2d62 e2bd
000002d0: 6cbb 3e3d 019c a1bd 17bd 243d 4eb5 c63e
000002e0: 5a28 d3bc 95fa 04bd 5241 85be f2d9 62be
000002f0: 24c9 d93b 5010 5bbc b532 dfbd e1f0 7cbe
00000300: 70f1 a2be 28e1 88bd 48a8 6cbc 875b b63d
00000310: eade 8ebd 3702 01bd cfb0 963d 2f05 3bbd
00000320: 05d3 0b3e d4b8 2fbe a2bc 16bd 93e8 b1bd
00000330: 92ab 2cbe 1de1 903d c9fb 1a3e e4c6 7b3e
00000340: 14d6 19be 12fd 02be c03a cbbd d2cc 95be
00000350: 6bc1 2dbe 92e7 3c3e 20b8 ce3e 701d 213f
00000360: 51f3 953c 4d7e ca3d 8fbc 5cbc 14a6 203e
00000370: 1ffb 253e 5a5a 1c3d 1ef6 ac3c b659 8ebd
00000380: 5fb8 cc3c 5bba 34bd 29d4 093e e6a7 df3e
00000390: 1af1 553d f251 bbbd 5af9 e0bd 2ab5 da3e
000003a0: c739 883e b79f 863d ece6 3f3d 768d 97bb
000003b0: 0b5c f3bc fc72 803e 24c4 273e 5d0c 9cbc
000003c0: 24dd 553d ca0a 873e 9aaf aa3d c5f1 193d
000003d0: 8737 ed3d 84ca 03be 40e0 23bc 205f e23c
000003e0: 34de 7f3e 5e58 593e 8541 b63e 5c55 843d
000003f0: 715b c3bd 3488 103f 40f8 7dbd e0d6 1cbe

conv2.bias f4 [16]
-0.007254334 -0.07303736 0.031818338 0.32919353 0.061537243 0.7127313 0.1559355 0.09772672
-0.55156213 0.20794484 -0.09591285 -0.54032665 -0.22162071 0.10610435 -0.38015407 -0.12489661
00000000: c4b5 edbb 9d94 95bd f253 023d 0e8c a83e
00000010: 7a0e 7c3d 8f75 363f 8ead 1f3e f224 c83d
00000020: 2d33 0dbf 7eef 543e f56d c4bd d952 0abf
00000030: 8af0 62be 3d4d d93d 8ea3 c2be cbc9 ffbd

conv2.fc_self.weight f4 [16, 16]
0.055651862 -0.04918496 0.042638417 0.54257745 0.39630958 -0.5499157 -0.14752844 0.17104769
0.38957465 -0.13999759 0.00338444 0.10437946 -0.2599807 0.40285027 -0.05899197 -0.28230152
-0.17708723 0.35414612 -0.15771708 0.072765835 -0.31082883 -0.1391378 -0.2272964 -0.14644322
-0.10617863 -0.0040974407 0.099345624 -0.050773364 0.4017172 0.0001014398 0.51044613 0.26193276
0.20106287 -0.23307177 0.313027 -0.3084885 0.2892058 0.20644547 0.24168202 -0.27237785
0.2479648 -0.2741653 0.022835046 0.18499768 -0.12570356 0.31769848 -0.39971697 -0.15172905
-0.1730658 -0.08069882 0.012011646 -0.1215195 0.41833496 0.034708787 -0.25224468 -0.09087313
-0.38498938 -0.27187645 -0.22495908 -0.018177046 0.1505859 0.17461915 -0.316933 -0.08802663
0.04531618 0.09503799 0.34346035 0.54671717 0.3774491 -0.23652902 -0.26364443 -0.07863247
-0.17515342 0.2933259 -0.10570425 0.5961378 -0.023834849 -0.057014436 0.22338475 -0.1966729
-0.068244144 -0.15151384 -0.28363374 0.24064834 -0.0063286764 0.22460446 -0.24748239 0.18548965
-0.26544154 0.14549579 0.018949449 -0.28730813 0.035555903 -0.11103135 -0.087274894 -0.12400988
0.15238 0.17068614 0.28045094 0.44473425 -0.19820397 -0.005421057 0.271917 -0.24008758
0.37871316 0.3114276 -0.17024644 0.14638075 -0.00110532 0.19974017 0.22810234 0.41167623
-0.10191361 0.18168844 0.10978541 0.2685117 0.3516953 -0.06283105 -0.01532772 0.06458127
0.12068431 0.19218336 -0.29733858 0.041573916 0.046384744 -0.32691914 -0.18746448 -0.16899075
0.042593002 -0.11132648 0.04971584 -0.18852195 0.24428003 0.10041378 -0.1768402 0.24399772
-0.14401877 -0.2025997 -0.52091557 -0.022542814 -0.18728256 -0.04369572 0.15443173 0.019100038
0.37532616 0.6612919 -0.22262415 0.46341765 0.195298 -0.63683087 0.4304576 0.11864428
0.35669056 -0.16635425 -0.25272572 -0.42432022 -0.25650287 -0.081129916 0.19773035 -0.086419396
-0.10759093 0.09489475 0.06954243 0.32522768 0.3284722 0.072532505 -0.16818763 -0.016010469
-0.098073274 0.1426269 -0.13144988 -0.12213243 -0.0072913654 0.09834543 0.14976653 0.25421146
0.036247857 0.054972306 -0.19182673 -0.17110412 -0.33064154 0.10458913 0.109533735 0.11611509
0.2712022 -0.028509954 -0.11845647 -0.18298241 0.026615323 0.14137588 0.4815458 0.08640704
-0.29315197 0.06460663 -0.2966586 -0.33062968 -0.18213741 -0.08240707 -0.26788506 -0.06824597
0.011915222 -0.024308829 -0.25174162 -0.4751138 -0.3693046 0.13161023 0.41974866 0.10396687
0.06972891 0.07413015 -0.26225057 0.20461562 -0.24792819 -0.030236213 -0.44697312 -0.49341428
-0.21122688 0.2562391 -0.07772015 0.3862235 0.018784443 0.1347856 -0.28419116 -0.27915198
0.43275937 -0.0019539183 -0.2929005 0.19268595 0.10382989 -0.14449707 0.11828271 -0.14942485
-0.1967453 -0.07044275 0.05372105 -0.05270452 -0.19288139 0.30641612 0.18802433 0.34986952
-0.37068206 0.029017301 -0.3604587 -0.25584027 -0.17563225 -0.0119299395 0.071804635 0.14286846
-0.079758056 0.41206002 0.4206204 0.2925706 0.6599605 -0.37583908 -0.28667602 -0.072896875
00000000: 35f3 633d 2b76 49bd 9fa5 2e3d 5be6 0a3f
00000010: 17e9 ca3e 46c7 0cbf b211 17be 2027 2f3e
00000020: 5476 c73e 875b 0fbe 7bcd 5d3b e6c4 d53d
00000030: 311c 85be 6442 ce3e 90a1 71bd d389 90be
00000040: 5b56 35be a452 b53e 9680 21be 4106 953d
00000050: f524 9fbe 247a 0ebe 63c0 68be 36f5 15be
00000060: 2e74 d9bd d343 86bb b875 cb3d bbf7 4fbd
00000070: e0ad cd3e 14bc d438 99ac 023f 0d1c 863e
00000080: 6de3 4d3e 5eaa 6ebe 1345 a03e 34f2 9dbe
00000090: c812 943e 7166 533e 7e7b 773e 1c75 8bbe
000000a0: 7cea 7d3e 655f 8cbe 9010 bb3c 0870 3d3e
000000b0: 6fb8 00be 60a9 a23e b4a7 ccbe dc5e 1bbe
000000c0: 2938 31be 6c45 a5bd 7fcc 443c 37df f8bd
000000d0: 0030 d63e cd2a 0e3d 3726 81be b11b babd
000000e0: 541d c5be 6433 8bbe ac5b 66be 07e8 94bc
000000f0: 3133 1a3e 5dcf 323e 0b45 a2be 4e47 b4bd
00000100: 759d 393d 47a3 c23d 09da af3e a8f5 0b3f
00000110: 0241 c13e aa34 72be 67fc 86be 0f0a a1bd
00000120: 6b5b 33be d02e 963e 787b d8bd 7d9c 183f
00000130: 4d41 c3bc f887 69bd f9be 643e 9f64 49be
00000140: 96c3 8bbd 7226 1bbe 7138 91be 856c 763e
00000150: c960 cfbb b6fe 653e 066c 7dbe 00f1 3d3e
00000160: f4e7 87be d9fc 143e e03b 9b3c 0d1a 93be
00000170: 11a3 113d 6864 e3bd 2ebd b2bd e4f8 fdbd
00000180: 8109 1c3e 59c8 2e3e 4497 8f3e 35b4 e33e
00000190: fbf5 4abe 1fa3 b1bb b438 8b3e 85d9 75be
000001a0: b1e6 c13e 7073 9f3e 1555 2ebe d6e4 153e
000001b0: 63e0 90ba b088 4c3e a993 693e 3ac7 d23e
000001c0: 15b8 d0bd 890c 3a3e 2cd7 e03d 5e7a 893e
000001d0: 6811 b43e 91ad 80bd 1e21 7bbc 2f43 843d
000001e0: 5629 f73d b7cb 443e c33c 98be 6949 2a3d
000001f0: eefd 3d3d f261 a7be b0f6 3fbe e90b 2dbe
00000200: 0076 2e3d 23ff e3bd d6a2 4b3d e60b 41be
00000210: 8b24 7a3e bda5 cd3d 9915 35be 8ada 793e
00000220: a879 13be 4c76 4fbe b95a 05bf b5ab b8bc
00000230: 00c7 3fbe 49fa 32bd 5a23 1e3e af77 9c3c
00000240: c02a c03e 6d4a 293f 96f7 63be 1445 ed3e
00000250: 33fc 473e 5907 23bf f064 dc3e c6fb f23d
00000260: 25a0 b63e c558 2abe 4465 81be 8040 d9be
00000270: 5854 83be 7127 a6bd d379 4a3e a7fc b0bd
00000280: a258 dcbd 2e58 c23d 436c 8e3d 3e84 a63e
00000290: 822d a83e ec8b 943d 6139 2cbe 6328 83bc
000002a0: a4da c8bd c90c 123e cc9a 06be 9120 fabd
000002b0: 68ec eebb 5469 c93d 665c 193e 0128 823e
000002c0: a278 143d a42a 613d 3a6e 44be eb35 2fbe
000002d0: d949 a9be d332 d63d 3953 e03d c0cd ed3d
000002e0: 04db 8a3e b58d e9bc 4e99 f2bd be5f 3bbe
000002f0: 6108 da3c d7c4 103e 2c8d f63e 2df6 b03d
00000300: 0418 96be 7b50 843d a3e3 97be 4b48 a9be
00000310: 3b82 3abe 0ac5 a8bd 3b28 89be 8bc4 8bbd
00000320: 1038 433c 4f23 c7bc 47e4 80be 1e42 f3be
00000330: 7e15 bdbe d5c4 063e 4ce9 d63e 95ec d43d
00000340: 08ce 8e3d 8cd1 973d b545 86be c286 513e
00000350: e3e0 7dbe efb1 f7bc a9d9 e4be cca0 fcbe
00000360: dc4b 58be c531 833e be2b 9fbd 16bf c53e
00000370: d5e1 993c 3c05 0a3e 8181 91be 02ed 8ebe
00000380: a392 dd3e 4f0d 00bb 0ef7 95be 774f 453e
00000390: c4a4 d43d 0af7 13be 353e f23d d402 19be
000003a0: 9a77 49be 4a44 90bd 9b0a 5c3d b2e0 57bd
000003b0: b382 45be 93e2 9c3e 7389 403e 1922 b33e
000003c0: 0aca bdbe b1b5 ed3c 0b8e b8be 7ffd 82be
000003d0: f1d8 33be cb75 43bc 4f0e 933d 1c4c 123e
000003e0: 3158 a3bd 88f9 d23e 8f5b d73e d0cb 953e
000003f0: 2cf3 283f fb6d c0be 33c7 92be f54a 95bd

conv2.fc_neigh.weight f4 [16, 16]
0.38303345 0.62579656 -0.18938947 0.17170936 -0.084196426 -0.63090944 0.46749052 -0.32903618
-0.15953326 -0.6483366 -0.111178115 -0.6012338 -0.0029254886 0.12044532 -0.035954203 -0.62722445
0.46804008 -0.71317506 0.6891494 0.28214002 -0.17279176 0.3433648 -0.32991558 0.1325108
0.104310244 0.34379998 0.4057281 0.7153458 -0.3720682 0.092621684 -0.592866 -0.3212739
-0.01188557 -0.42875344 -0.1710609 -0.7055192 0.05409029 0.0075459736 -0.04125042 0.14049456
0.87902576 -0.51617426 -0.25543934 -0.231382 0.06474839 0.25893548 0.45537657 0.25721532
-0.124428496 0.3550886 -0.04264246 -0.12507835 -0.3873796 0.38738176 0.03210863 -0.09083849
0.26784468 -0.3204031 0.38417113 -0.56360126 0.38425764 -0.34769887 -0.59125084 -0.32742548
0.43057212 0.31467527 0.0057997005 0.3683624 -0.7215455 0.31321755 -0.8119 -0.2540064
0.34889048 -0.17471108 0.4287785 0.023983175 0.30853567 0.049113035 0.20766999 -0.2456144
0.054817554 0.28486913 0.07679077 0.20442022 0.28758657 -0.15933146 0.2203092 -0.059003945
-0.07808675 0.06608202 -0.04533271 -0.26568213 0.10340317 -0.1504877 0.17687584 0.2904434
-0.18663678 -0.3133618 0.24684326 0.50792766 0.5767362 -0.3394274 0.19544888 -0.52368253
0.3865349 0.52287704 0.027477352 0.1298668 0.79417276 -0.05090501 -0.49040452 0.6896553
0.5733784 -0.921667 -0.022067329 -0.36708343 0.19597943 0.45540392 0.18451357 0.32657325
-0.35514924 0.18885829 -0.1438377 0.4895895 -0.25950876 -0.9025703 -0.24813934 0.26460737
0.46419185 0.5171138 -0.6107113 0.11166891 -0.24418807 -0.45946786 0.014003377 0.124857105
-0.22050261 0.40517598 -0.72736233 -0.37343088 -0.46890458 -0.28930452 0.14924009 -0.10934661
-0.19638923 -0.40911257 -0.09348813 -0.25411943 -0.1056593 0.11952537 -0.18969361 -0.079567336
0.07786449 -0.53872913 -0.16572806 -0.032920126 -0.14546172 0.16871364 0.03627725 -0.2990309
0.2787545 0.19632895 1.0682739 -0.28300515 0.4059527 0.40876234 1.0213628 -0.22951384
-0.16075039 -0.5047979 0.14560609 -0.143934 -0.39707315 0.69516087 0.35056883 0.48186353
-0.43539676 -0.38733476 0.51488036 -0.5291999 -0.03032298 -0.37709814 -0.039874017 -0.53208697
0.49582016 -0.45855683 0.60788476 0.15591916 -0.029657125 0.4087716 0.24423796 0.24052341
-0.5391597 0.049200777 -0.49973747 -0.10490785 -0.74384993 0.4402942 -0.3477225 -0.52349794
0.08814716 0.31073105 0.22630134 0.06863465 -0.33455017 -0.250623 -0.40632278 0.0943703
0.12372694 0.058082066 0.16941403 -0.004800955 -0.45531905 -0.5329886 -0.0011097961 -0.45713237
0.31462526 -0.09475365 -0.60945094 0.6570532 -0.12228297 -0.2909704 0.23950376 -0.36697134
-0.550114 0.4510109 -0.0958089 -0.3408222 0.2934574 0.54100245 0.051128406 0.6601402
-0.14211251 0.01956243 -0.13753794 0.5787034 0.64438593 -0.26952657 0.6423239 0.30515012
-0.37185097 -0.14492409 -0.57286835 -0.20603298 0.2943385 -0.07194962 0.014780648 0.42432532
0.22775161 0.51663274 0.35709617 -0.2019642 0.6035519 0.24742708 -0.576753 0.3761779
00000000: f61c c43e 3434 203f 50ef 41be 94d4 2f3e
00000010: 2d6f acbd 4883 21bf eb5a ef3e 6e77 a8be
00000020: b05c 23be 63f9 25bf 5ab1 e3bd 75ea 19bf
00000030: 8eb9 3fbb 09ac f63d b744 13bd c891 20bf
00000040: f3a2 ef3e a492 36bf 186c 303f a874 903e
00000050: 53f0 30be 83cd af3e b2ea a8be e9b0 073e
00000060: 9ca0 d53d 8d06 b03e 98bb cf3e e720 373f
00000070: b97f bebe 70b0 bd3d 11c6 17bf 037e a4be
00000080: b2bb 42bc 9285 dbbe 972a 2fbe e89c 34bf
00000090: c88d 5d3d 3744 f73b 33f6 28bd cedd 0f3e
000000a0: d507 613f ff23 04bf f2c8 82be 67ef 6cbe
000000b0: ce9a 843d 3193 843e 1e27 e93e bab1 833e
000000c0: 5ed4 febd 2cce b53e dca9 2ebd 8a14 00be
000000d0: 9e56 c6be e756 c63e 5784 033d 8809 babd
000000e0: f022 893e e00b a4be 14b2 c43e 2c48 10bf
000000f0: 6bbd c43e 9605 b2be 375c 17bf 50a4 a7be
00000100: f373 dc3e 1e1d a13e 6a0b be3b ff99 bc3e
00000110: 35b7 38bf 0d5e a03e aed8 4fbf 200d 82be
00000120: c6a1 b23e 76e7 32be db88 db3e 5d78 c43c
00000130: 63f8 9d3e c02a 493d 71a7 543e 5782 7bbe
00000140: 5f88 603d 5eda 913e 7b44 9d3d 8953 513e
00000150: 8c3e 933e c927 23be bc98 613e 1fae 71bd
00000160: f2eb 9fbd 0356 873d cbae 39bd 7d07 88be
00000170: 0bc5 d33d 7319 1abe f11e 353e ffb4 943e
00000180: b61d 3fbe f570 a0be 7bc4 7c3e 8c07 023f
00000190: fca4 133f 6ec9 adbe c023 483e 0f10 06bf
000001a0: e7e7 c53e 45db 053f 2f18 e13c cdfb 043e
000001b0: e84e 4b3f c681 50bd 4d16 fbbe 408d 303f
000001c0: edc8 123f 5ef2 6bbf 8bc6 b4bc 5cf2 bbbe
000001d0: d5ae 483e b42a e93e 20f1 3c3e 9c34 a73e
000001e0: 1fd6 b5be 1164 413e 314a 13be 7aab fa3e
000001f0: 55de 84be d90e 67bf 3d18 7ebe 9e7a 873e
00000200: 8eaa ed3e 9261 043f 9357 1cbf abb2 e43d
00000210: 700c 7abe 5f3f ebbe 6c6e 653c 15b5 ff3d
00000220: 70cb 61be 3a73 cf3e 6b34 3abf 5532 bfbe
00000230: 4314 f0be b91f 94be 65d2 183e 1ef1 dfbd
00000240: 421a 49be 3477 d1be b476 bfbd f11b 82be
00000250: e763 d8bd b8c9 f43d 0b3f 42be 33f4 a2bd
00000260: 6b77 9f3d 27ea 09bf 9eb4 29be 41d7 06bd
00000270: ebf3 14be 45c3 2c3e 7497 143d 941a 99be
00000280: e9b8 8e3e 750a 493e 33bd 883f 0de6 90be
00000290: 08d9 cf3e 4c49 d13e 04bc 823f ad05 6bbe
000002a0: c09b 24be 6f3a 01bf c319 153e 6f63 13be
000002b0: 2c4d cbbe 10f6 313f c27d b33e d1b6 f63e
000002c0: 53ec debe be50 c6be 33cf 033f a579 07bf
000002d0: e667 f8bc 0213 c1be f052 23bd da36 08bf
000002e0: 24dc fd3e f6c7 eabe 569e 1b3f 46a9 1f3e
000002f0: 80f3 f2bc 834a d13e 8419 7a3e c54b 763e
00000300: 5f06 0abf c186 493d 97dd ffbe edd9 d6bd
00000310: f36c 3ebf 3e6e e13e af08 b2be f603 06bf
00000320: 8086 b43d 2418 9f3e 8abb 673e 5390 8c3d
00000330: 294a abbe a851 80be 8a09 d0be 3745 c13d
00000340: 8d64 fd3d 76e7 6d3d df7a 2d3e 5451 9dbb
00000350: 941f e9be f171 08bf 9476 91ba 410d eabe
00000360: 9016 a13e 340e c2bd fa04 1cbf a334 283f
00000370: 7e6f fabd 13fa 94be 7940 753e abe3 bbbe
00000380: 45d4 0cbf e7ea e63e 7537 c4bd 3f80 aebe
00000390: 0c40 963e 237f 0a3f 056c 513d f3fe 283f
000003a0: f185 11be 6441 a03c bfd6 0cbe e825 143f
000003b0: 7af6 243f 63ff 89be 576f 243f a33c 9c3e
000003c0: 4063 bebe fb66 14be 80a7 12bf 4ffa 52be
000003d0: 89b3 963e 535a 93bd 882a 723c 2b41 d93e
000003e0: b837 693e 0b42 043f 4fd5 b63e b4cf 4ebe
000003f0: 6182 1a3f 865d 7d3e 16a6 13bf 649a c03e

conv3.bias f4 [16]
0.0059835203 0.21660972 0.3255781 -0.18646072 0.0848415 -0.23873986 0.10672157 0.27255574
0.28047758 -0.07253183 0.23683734 -0.1668308 0.0292551 0.12905586 -0.05309466 0.1605575
00000000: 6811 c43b f0ce 5d3e 2cb2 a63e 8fef 3ebe
00000010: 61c1 ad3d 3978 74be d790 da3d 6d8c 8b3e
00000020: c29a 8f3e 918b 94bd 7d85 723e b1d5 2abe
00000030: 64a8 ef3c 3827 043e c979 59bd 2f69 243e

conv3.fc_self.weight f4 [16, 16]
-0.089223504 0.016235292 0.03963572 0.6477759 0.16847487 0.09378368 -0.14541368 -0.012847979
-0.5292252 0.15255035 0.19438352 0.2890427 0.015433224 0.15619603 0.12840512 0.27421576
0.3008369 -0.091645196 0.24657343 0.47136506 -0.16119 -0.17427477 -0.03678892 0.19311018
-0.19549328 -0.03766319 -0.44037232 0.2675887 -0.018069908 0.25666678 -0.27347615 -0.59649354
0.16356905 -0.14843814 0.28910032 -0.41932845 0.017683959 0.08919937 -0.061855648 0.032077767
0.0043818345 -0.17602095 -0.26542202 -0.14489757 0.3290034 0.19772951 -0.40667394 -0.35974112
0.083931826 0.41354436 0.3097689 -0.20034167 -0.25303617 -0.09610357 0.018568913 -0.15062378
0.18508075 -0.16638307 -0.027458522 0.011973829 -0.048056416 -0.08975521 0.044404484 -0.13710442
-0.376269 0.5589126 -0.56437767 -0.06781158 -0.32894453 0.36992893 -0.08620431 0.13295062
-0.1979308 0.46123222 -0.22133633 -0.045543145 -0.62305874 0.25639164 -0.36577633 -0.24728078
-0.14190416 0.23287031 0.02380037 0.17066528 -0.006945921 -0.5193911 0.08984871 -0.20886928
-0.149377 0.47813803 0.06427311 0.20205447 0.31534326 0.21275356 0.221697 -0.36868218
0.036599 0.37859726 0.17729002 0.14965813 -0.40878856 -0.29595986 0.4819432 -0.2917523
0.121422745 0.08673799 0.06299051 0.4424601 0.14421691 -0.14273155 0.18139742 0.108971775
-0.14017904 -0.23970197 -0.38780212 -0.3884112 -0.17231597 0.10929511 -0.0013085529 -0.22893433
-0.104230784 -0.00027700234 -0.048444044 -0.6074439 -0.05725775 0.281242 -0.43744454 0.051996667
-0.075845815 0.06882919 0.28972912 -0.18702619 0.20145752 0.3662005 0.015220053 -0.21632367
-0.065360636 -0.19756854 -0.03858237 -0.3414441 0.13280302 -0.3030928 0.072521605 -0.11800427
-0.5439854 -0.024823355 0.08447281 -0.4354197 -0.20553797 -0.43546137 -0.12409496 0.058341015
0.30314705 0.36124083 0.12364928 -0.22691791 0.1882062 0.22219399 -0.14392884 0.20198375
-0.21114814 0.23932114 0.15631829 -0.14445353 -0.047711127 -0.119755164 -0.53828615 0.3638309
-0.5539775 -0.6823614 0.06179233 0.130838 0.4217082 -0.15257002 0.15784672 0.6019736
-0.561311 0.34175926 0.3467812 0.2625965 0.06762908 -0.2969412 -0.043613542 0.18030724
-0.45288545 -0.04951447 0.101500005 0.18573529 0.5145772 -0.3248324 -0.5120806 0.077808425
0.22151467 -0.29700875 0.17418766 0.049154006 -0.30817097 -0.25323638 0.2033571 0.4673376
0.1949118 0.0330182 0.34128517 -0.36758012 0.6186732 -0.0654188 -0.14754543 0.35336462
0.4812743 0.32601497 0.5536846 -0.27420047 -0.38838464 0.26908705 -0.11022905 0.08676161
-0.21366115 -0.07386287 0.24597202 -0.3337034 0.16993675 -0.005090788 -0.15482308 -0.12555772
-0.41772202 0.050737724 -0.08162753 -0.08003801 0.0804667 -0.3830805 -0.19655854 -0.1851191
-0.3615758 0.32021558 0.34092677 -0.30981195 -0.17939605 -0.1524647 -0.19132346 0.24697359
-0.10018597 -0.25257406 0.24054487 0.28509828 0.20103478 0.3949001 0.18436468 0.61292917
-0.33298627 0.25952908 -0.09967921 -0.4978317 -0.23379263 -0.08239337 -0.007477664 -0.3071089
00000000: d0ba b6bd e0ff 843c 1159 223d a4d4 253f
00000010: ad84 2c3e a811 c03d 53e7 14be 5480 52bc
00000020: 4d7b 07bf 2936 1c3e 790c 473e 68fd 933e
00000030: a2db 7c3c daf1 1f3e a27c 033e 0266 8c3e
00000040: 4b07 9a3e 7ab0 bbbd bf7d 7c3e c356 f13e
00000050: fe0e 25be 1675 32be fbaf 16bd adbe 453e
00000060: 642f 48be b844 1abd 7b78 e1be 6301 893e
00000070: 5807 94bc d469 833e 1105 8cbe cdb3 18bf
00000080: a57e 273e 2b00 18be f504 943e 38b2 d6be
00000090: f3dd 903c 29ae b63d 595c 7dbd fa63 033d
000000a0: 7e95 8f3b d63e 34be 65e5 87be 0760 14be
000000b0: 2273 a83e 9b79 4a3e 9137 d0be fd2f b8be
000000c0: 73e4 ab3d 16bc d33e 079a 9e3e 5e26 4dbe
000000d0: f58d 81be f3d1 c4bd d51d 983c 1f3d 1abe
000000e0: cf85 3d3e 5360 2abe b2f0 e0bc e12d 443c
000000f0: ced6 44bd 94d1 b7bd 7ae1 353d 1a65 0cbe
00000100: 55a6 c0be e514 0f3f 0e7b 10bf cce0 8abd
00000110: 6b6b a8be 5367 bd3e e38b b0bd 3524 083e
00000120: 5fae 4abe a126 ec3e fea5 62be 738b 3abd
00000130: c780 1fbf c445 833e 0947 bbbe 2c37 7dbe
00000140: 534f 11be 8e75 6e3e fef8 c23c e1c2 2e3e
00000150: 9c9a e3bb d1f6 04bf 9a02 b83d d4e1 55be
00000160: 49f6 18be 82ce f43e 9fa1 833d 5ee7 4e3e
00000170: ac74 a13e 12dc 593e 8a04 633e e9c3 bcbe
00000180: d5e8 153d 80d7 c13e 848b 353e fb3f 193e
00000190: bc4c d1be 0d88 97be 42c1 f63e 8f60 95be
000001a0: 7dac f83d b0a3 b13d 2b01 813d 218a e23e
000001b0: 99ad 133e 3828 12be 3fc0 393e 982c df3d
000001c0: 188b 0fbe 6f74 75be 008e c6be d5dd c6be
000001d0: 9973 30be 1dd6 df3d c083 abba c36d 6abe
000001e0: f376 d5bd a03a 91b9 436d 46bd 7281 1bbf
000001f0: 1a87 6abd f4fe 8f3e bbf8 dfbe 75fa 543d
00000200: 0d55 9bbd 52f6 8c3d 6057 943e cb83 3fbe
00000210: e14a 4e3e a27e bb3e 875d 793c f483 5dbe
00000220: ccdb 85bd 684f 4abe 8c08 1ebd c3d1 aebe
00000230: 84fd 073e fb2e 9bbe 3586 943d 39ac f1bd
00000240: a142 0bbf 595a cbbc 1500 ad3d 55ef debe
00000250: 8c78 52be cbf4 debe 8025 febd fdf6 6e3d
00000260: 1736 9b3e 8ff4 b83e d53b fd3d 2b5d 68be
00000270: 20b9 403e d286 633e 1562 13be d4d4 4e3e
00000280: 3837 58be 9a10 753e e711 203e a0eb 13be
00000290: be6c 43bd 3242 f5bd 1fcd 09bf 0b48 ba3e
000002a0: 78d1 0dbf 3daf 2ebf f419 7d3d 66fa 053e
000002b0: 23ea d73e 513b 1cbe 92a2 213e f11a 1a3f
000002c0: 14b2 0fbf 12fb ae3e 4e8d b13e 0c73 863e
000002d0: 1d81 8a3d ad08 98be 1da4 32bd 76a2 383e
000002e0: 9ae0 e7be afcf 4abd 3cdf cf3d 6431 3e3e
000002f0: 55bb 033f 6f50 a6be b717 03bf 065a 9f3d
00000300: bed4 623e 8811 98be 405e 323e b655 493d
00000310: 96c8 9dbe 33a8 81be d83c 503e e046 ef3e
00000320: f596 473e 183e 073d eebc ae3e 7633 bcbe
00000330: 5e61 1e3f 4bfa 85bd 2616 17be 35ec b43e
00000340: 9669 f63e 6feb a63e 46be 0d3f 0164 8cbe
00000350: 5ada c6be c7c5 893e c5bf e1bd 12b0 b13d
00000360: fdc9 5abe 6b45 97bd 17e0 7b3e 2cdb aabe
00000370: e603 2e3e a0d0 a6bb f189 1ebe 3492 00be
00000380: a9df d5be 5cd2 4f3d 562c a7bd f8ea a3bd
00000390: bacb a43d 2123 c4be a446 49be dd8f 3dbe
000003a0: 7720 b9be 4cf3 a33e f48d ae3e ac9f 9ebe
000003b0: 99b3 37be b51f 1cbe 4cea 43be a5e6 7c3e
000003c0: 4d2e cdbd 6351 81be 6551 763e 67f8 913e
000003d0: 10dc 4d3e 5930 ca3e 18ca 3c3e ede8 1c3f
000003e0: 2d7d aabe ffe0 843e 9d24 ccbd cce3 febe
000003f0: 5667 6fbe dbbd a8bd 3107 f5bb 613d 9dbe

conv3.fc_neigh.weight f4 [16, 16]
0.30579862 0.20835927 -0.21929936 -0.8521203 -0.3948936 -0.17128684 -0.37705317 0.41118458
0.377954 -0.27949712 0.6977252 -0.5135357 -0.38643515 0.38494772 0.25193343 -0.19338207
0.054553486 0.47277272 0.47570148 -0.27965313 -0.13306761 -0.1624515 0.453536 0.080539376
-0.43933806 -0.00091137283 -0.66358626 0.22512381 0.3901773 0.33294502 -0.42054373 -0.22872077
-0.23802389 -0.7272919 -0.18975528 0.120709434 -0.27829295 -0.41700637 0.6325342 0.21104598
0.38513818 -0.36398095 1.1275344 0.23046845 -0.7118059 -0.45597267 0.24674681 0.6225846
-0.07391814 0.08784975 -0.39635712 -0.3557199 -0.5612016 0.6304041 0.1696491 0.27466768
0.25292873 0.42483988 -0.69111836 -0.6325721 0.09466556 -0.1363217 0.21109256 -0.17193554
-0.47044134 0.58718044 0.23479645 -0.16777484 -0.6947677 -0.615237 -0.12461387 0.5679135
-0.23450889 0.13832383 0.75328207 0.68255746 -0.10053001 -0.34437975 -0.10312076 -0.4259509
-0.48976627 0.5688283 0.54885197 0.22702447 -0.37422013 0.6301042 0.05803788 0.5667418
0.12072631 0.22220477 0.23762181 -0.39376804 -0.23647763 -0.37880448 0.787127 0.38778487
-0.22581485 -0.089383334 -0.4405857 -0.05453669 -0.019703701 0.6215108 -0.57046986 -0.1954213
0.13896129 -0.17572063 -0.36949146 -0.37571397 -0.5529576 0.56994647 -0.44231227 -0.3739355
-0.123877116 0.11097815 -0.33771273 -0.6504677 -0.3431964 0.27569726 -0.5919266 0.70481455
0.7107951 -0.66112643 -0.4462397 -0.07844043 -0.0102896765 -0.28434563 0.3253884 0.74970394
-0.108541235 -0.43306926 0.14768468 -0.30697936 0.60563296 -0.6779461 -0.7145014 0.0324552
-0.024828263 -0.22797607 -0.77010626 0.40045023 0.5035308 0.45547107 0.2358287 -0.07103786
-0.2988034 -0.44404614 0.31565368 0.39373466 0.29100809 0.94972813 0.16699715 0.79008186
-0.89873254 0.30772933 -0.1051425 -0.014722439 -0.4222086 0.34630767 0.047471896 -0.13150409
0.14345552 0.1975513 0.8419444 0.03950374 -0.082294345 -0.2529127 -0.17825902 0.048553906
-0.13722742 -0.40588966 0.5847796 0.36972046 0.6646905 -0.3090127 0.36428607 0.20242444
-0.37019423 0.3130409 -0.17855376 0.1829412 0.5777566 -0.019263847 -0.21235757 0.5013804
-0.08454899 0.5901341 -0.1754535 0.49930966 0.5627524 -0.32154065 -0.23300721 0.30160305
0.38213837 0.3312055 -0.21767415 -0.59300977 0.40776214 -0.25039446 -0.63782024 0.139996
-0.018326646 -0.13082552 0.30585742 0.3238251 -0.3248764 0.5869442 -0.37965977 -0.67722493
0.060650736 0.48642546 -0.42177287 -0.68255526 0.2955859 -0.21694578 -0.23888877 0.3804845
0.33298105 -0.14270557 0.046556808 -0.19146782 -0.36963484 0.39879954 0.24812295 0.33077917
-0.5527623 0.4623871 -0.5093568 -0.46059093 0.32314327 -0.5825678 -0.072128385 0.7312003
0.19035704 0.115893684 -0.47395968 -0.42485735 0.110722244 0.06697785 0.24227726 -0.24766766
-0.6692282 0.27765325 0.354344 0.15602086 0.22681293 -0.7423518 0.23420423 0.49923235
0.37986454 0.6153246 -0.43627208 0.0077921976 0.46794528 -0.08209898 0.11509138 0.23688269
00000000: a391 9c3e 225c 553e 0390 60be 8e24 5abf
00000010: 7e2f cabe d165 2fbe 1d0d c1be c986 d23e
00000020: 3083 c13e 3f1a 8fbe 1e9e 323f 1377 03bf
00000030: d4da c5be de17 c53e 6bfd 803e f305 46be
00000040: 7a73 5f3d 440f f23e 258f f33e b22e 8fbe
00000050: e042 08be b059 26be df35 e83e d4f1 a43d
00000060: ebf0 e0be 32e9 6eba cae0 29bf db86 663e
00000070: 52c5 c73e c577 aa3e 8251 d7be c735 6abe
00000080: 89bc 73be cd2f 3abf 354f 42be 8236 f73d
00000090: 6a7c 8ebe dc81 d5be c3ed 213f 701c 583e
000000a0: d530 c53e b65b babe 0c53 903f ecff 6b3e
000000b0: e938 36bf 4075 e9be 32ab 7c3e b461 1f3f
000000c0: 6562 97bd 92ea b33d 52ef cabe eb20 b6be
000000d0: e8aa 0fbf 2a62 213f 7eb8 2d3e 3ea1 8c3e
000000e0: e07f 813e 9d84 d93e 22ed 30bf 3ff0 21bf
000000f0: 04e0 c13d ea97 0bbe a628 583e df0f 30be
00000100: b0dd f0be 7551 163f 7b6e 703e 2bcd 2bbe
00000110: 4cdc 31bf 2c80 1dbf 8f35 ffbd c762 113f
00000120: 1923 70be c3a4 0d3e 18d7 403f 16bc 2e3f
00000130: aee2 cdbd 8b52 b0be fa30 d3bd 3d16 dabe
00000140: a5c2 fabe bb9e 113f 9081 0c3f 1a79 683e
00000150: c899 bfbe 824e 213f 21b9 6d3d fe15 113f
00000160: 5b3f f73d a689 633e 2253 733e f79b c9be
00000170: 3127 72be a9f2 c1be 2881 493f bd8b c63e
00000180: 023c 67be 9c0e b7bd 7394 e1be dd61 5fbd
00000190: a869 a1bc 551b 1f3f 500a 12bf 851c 48be
000001a0: de4b 0e3e 1cf0 33be fc2d bdbe 955d c0be
000001b0: a18e 0dbf 03e8 113f c176 e2be 7974 bfbe
000001c0: 49b3 fdbd 8348 e33d afe8 acbe 0d85 26bf
000001d0: 70b7 afbe 3128 8d3e 8088 17bf ba6e 343f
000001e0: abf6 353f 953f 29bf 8879 e4be 60a5 a0bd
000001f0: 0896 28bc c095 91be 4f99 a63e 99ec 3f3f
00000200: de4a debd 41bb ddbe a73a 173e 662c 9dbe
00000210: c30a 1b3f e08d 2dbf 90e9 36bf beef 043d
00000220: a464 cbbc 8f72 69be af25 45bf d007 cd3e
00000230: 65e7 003f 8133 e93e 147d 713e 4c7c 91bd
00000240: c2fc 98be 045a e3be 5c9d a13e 9797 c93e
00000250: 03ff 943e 6221 733f 4d01 2b3e ce42 4a3f
00000260: 5613 66bf b38e 9d3e f354 d7bd 6336 71bc
00000270: ba2b d8be 3d4f b13e e471 423d 02a9 06be
00000280: 01e6 123e e34a 4a3e ab89 573f acce 213d
00000290: f089 a8bd c67d 81be 8889 36be 76e0 463d
000002a0: 5885 0cbe c5d0 cfbe 1eb4 153f 004c bd3e
000002b0: 2829 2a3f ea36 9ebe b483 ba3e 5a48 4f3e
000002c0: 198a bdbe e646 a03e ccd6 36be f054 3b3e
000002d0: dbe7 133f 37cf 9dbc 4374 59be 775a 003f
000002e0: 0528 adbd 0713 173f 15aa 33be 84a5 ff3e
000002f0: 8b10 103f faa0 a4be 7199 6ebe b76b 9a3e
00000300: a4a7 c33e c493 a93e f9e5 5ebe 7dcf 17bf
00000310: 33c6 d03e b433 80be 3048 23bf 1d5b 0f3e
00000320: c321 96bc 20f7 05be 5899 9c3e 67cc a53e
00000330: 3356 a6be fa41 163f c462 c2be 9d5e 2dbf
00000340: e86c 783d c20c f93e 9df2 d7be f1bb 2ebf
00000350: 0957 973e 0927 5ebe 429f 74be ddce c23e
00000360: 7e7c aa3e 6921 12be 5ab2 3e3d 2410 44be
00000370: c740 bdbe 742f cc3e f113 7e3e e35b a93e
00000380: d581 0dbf 01be ec3e 3565 02bf 93d2 ebbe
00000390: 0973 a53e 2a23 15bf 0cb8 93bd f12f 3b3f
000003a0: f5ec 423e ab59 ed3d d8aa f2be e786 d9be
000003b0: 58c2 e23d af2b 893d 8817 783e 979c 7dbe
000003c0: 8a52 2bbf 9128 8e3e 946c b53e efc3 1f3e
000003d0: a641 683e c40a 3ebf 3cd3 6f3e 629b ff3e
000003e0: 9b7d c23e ea85 1d3f 0e5f dfbe b155 ff3b
000003f0: 8696 ef3e 8323 a8bd 08b5 eb3d 6091 723e

conv4.bias f4 [16]
0.06757824 -0.41293457 0.02475739 0.23971362 0.26321805 0.16299212 0.2553784 -0.14526421
-0.08489083 -0.17337883 0.0020426812 -0.09379406 -0.18724106 -0.30127117 0.118009865 0.28535765
00000000: 7666 8a3d 296c d3be 03d0 ca3c 7d77 753e
00000010: 84c4 863e 68e7 263e f5c0 823e 24c0 14be
00000020: 3edb adbd 388a 31be 81de 053b 1a17 c0bd
00000030: 1fbc 3fbe 3740 9abe 28af f13d 661a 923e

conv4.fc_self.weight f4 [16, 16]
-0.14170559 -0.018347844 0.67844075 0.16257553 -0.03944992 -0.25425413 -0.0015104616 0.26603982
0.18548582 -0.44902495 0.21041839 -0.6084466 -0.5622193 -0.29103777 -0.49952304 0.1660211
-0.53709716 -0.07503831 -0.32872817 0.40929046 -0.45516393 0.5826747 -0.43649918 -0.046030488
-0.17839152 0.6091247 0.3389613 0.22544576 -0.63774097 -0.65555274 0.39642125 0.22008964
-0.023401666 0.21789703 0.37946385 0.19279209 -0.39276153 0.2797837 0.13531289 0.18763897
-0.41349924 -0.010922418 -0.8135116 -0.4125768 -0.45885903 0.16954051 -0.09768997 -0.05618834
0.011385436 -0.39173216 -0.55816835 -0.1513724 -0.1249208 -0.23683192 -0.0006737356 0.07747246
0.20850544 0.29299766 -0.43177223 -0.68870395 0.39491862 -0.15600567 -0.30351844 -0.44940493
0.16968209 -0.4698776 -0.11086424 0.0009379726 -0.32291114 0.23901156 0.27974117 0.2001147
-0.5179745 0.12985681 0.05646581 0.31919283 -0.67643917 0.17143357 -0.34898672 0.047688488
-0.5541478 -0.49671632 -0.11186043 0.082923636 0.64852536 -0.21143547 0.3826924 0.07589899
0.31811735 0.20930447 -0.0699676 0.61674696 -0.31268516 0.36649486 0.41561767 0.6755295
-0.33198512 0.59527785 0.20828749 -0.087362215 -0.3030784 0.5306092 0.6036224 0.02371621
0.63440406 0.6019588 0.52570754 -0.1559458 -0.2100502 0.10676774 -0.091538586 0.5895154
0.032073062 0.09208174 0.15209568 -0.7917177 0.67505836 0.22130992 -0.33237836 -0.5077263
0.25236362 0.4485891 -0.18895622 -0.3447203 0.639163 -0.691196 -0.42365327 -0.12806594
-0.07991095 -0.17423978 0.6448178 0.31142077 0.46130824 0.7871755 -0.28585654 0.031767532
0.44692573 0.15215349 0.6913668 0.21329004 0.034775797 0.5480234 0.5555596 -0.4316396
0.39875025 0.15465012 0.56419694 0.099202536 -0.22965236 0.22381443 -0.21668993 0.3835886
0.12545255 -0.2345201 0.7441041 -0.36238515 -0.57701164 0.18590611 0.33368707 0.49193424
0.088495076 0.18178436 0.722405 0.21013238 0.56008524 0.104174964 0.09858444 -0.3349617
-0.5700726 -0.23086822 0.07322827 -0.56373835 -0.18041839 0.18177402 -0.43509114 -0.8320511
-0.28728855 0.3241671 0.12505126 -0.46920156 -0.16804387 -0.12734248 -0.2209086 -0.11144947
0.4419949 -0.27111298 0.8583185 0.35032025 0.08328315 0.38760963 -0.12499187 -0.16059153
0.7811434 -0.34391809 -0.21780829 -0.29891887 -0.09929224 -0.1574455 -0.25686803 0.6619522
0.4625856 -0.3525644 0.47325373 -0.26502112 0.29354388 0.3706422 0.6504289 -0.017900294
0.24867548 0.65118265 0.20059983 0.36372015 0.25276154 0.15294652 0.6192748 -0.36905175
0.38355637 -0.3838507 -0.34107235 -0.0042744763 0.5253622 0.5713286 0.47392803 -0.42734832
-0.5384295 -0.102885105 -0.6549785 -0.004260698 -0.5371222 0.40644062 0.062481478 -0.121047996
-0.13324688 0.2118804 -0.53008217 0.12154802 -0.45673054 -0.12619291 0.12960805 -0.077074826
0.21504077 0.6271639 0.17003669 -0.18382433 0.23415427 0.112106 0.5201092 -0.21488097
0.014826597 -0.021114813 0.23806393 0.14023645 -0.35638607 -0.4289799 -0.043795057 0.123699434
00000000: 451b 11be 384e 96bc 4bae 2d3f 337a 263e
00000010: 3d96 21bd 992d 82be aefa c5ba 5f36 883e
00000020: ffef 3d3e 99e6 e5be eb77 573e 28c3 1bbf
00000030: 9bed 0fbf e702 95be 7cc1 ffbe 6f01 2a3e
00000040: 337f 09bf afad 99bd 0f4f a8be 858e d13e
00000050: 3f0b e9be 2b2a 153f d27c dfbe 778a 3cbd
00000060: 44ac 36be 99ef 1b3f 568c ad3e 41db 663e
00000070: fe42 23bf 4ed2 27bf baf7 ca3e 2e5f 613e
00000080: dab4 bfbc 6620 5f3e 1649 c23e 4a6b 453e
00000090: 0a18 c9be cf3f 8f3e 768f 0a3e 6e24 403e
000000a0: 2cb6 d3be f1f3 32bc 4c42 50bf 443d d3be
000000b0: 92ef eabe 079c 2d3e ae11 c8bd bf25 66bd
000000c0: fb89 3a3c 1e91 c8be 1fe4 0ebf 5e01 1bbe
000000d0: 7ad6 ffbd 1184 72be a19d 30ba e2a9 9e3d
000000e0: 7382 553e ca03 963e 4011 ddbe e74e 30bf
000000f0: c632 ca3e f3bf 1fbe c566 9bbe 6718 e6be
00000100: 24c1 2d3e cc93 f0be ca0c e3bd 47e2 753a
00000110: 9c54 a5be 72bf 743e 3c3a 8f3e deea 4c3e
00000120: fa99 04bf 2ff9 043e b148 673d 3e6d a33e
00000130: 1e2b 2dbf 488c 2f3e 63ae b2be 0155 433d
00000140: a1dc 0dbf 9a51 febe 1517 e5bd ded3 a93d
00000150: c205 263f 8a82 58be 42f0 c33e ee70 9b3d
00000160: 47e0 a23e e953 563e 2c4b 8fbd 21e3 1d3f
00000170: 4518 a0be 37a5 bb3e d7cb d43e 80ef 2c3f
00000180: f4f9 a9be 2164 183f 5149 553e f6ea b2bd
00000190: 182d 9bbe 01d6 073f ff86 1a3f 7f48 c23c
000001a0: 4e68 223f f919 1a3f c594 063f 41b0 1fbe
000001b0: 6617 57be 0ba9 da3d 9578 bbbd 7bea 163f
000001c0: 0b5f 033d 5a95 bc3d f8be 1b3e 03ae 4abf
000001d0: a0d0 2c3f 119f 623e 7f2d aabe 5afa 01bf
000001e0: ce35 813e 78ad e53e bd7d 41be 2e7f b0be
000001f0: 30a0 233f 39f2 30bf 15e9 d8be b823 03be
00000200: 5aa8 a3bd ea6b 32be c812 253f 8b72 9f3e
00000210: 9830 ec3e 5584 493f ca5b 92be ac1e 023d
00000220: 73d3 e43e 20ce 1b3e 6afd 303f b468 5a3e
00000230: 1171 0e3d 434b 0c3f 2739 0e3f deff dcbe
00000240: fe28 cc3e 9a5c 1e3e 366f 103f b32a cb3d
00000250: fd29 6bbe 9c2f 653e f7e3 5dbe ba65 c43e
00000260: a276 003e 0926 70be 9b7d 3e3f 8c8a b9be
00000270: 09b7 13bf 2c5e 3e3e 08d9 aa3e cede fb3e
00000280: e83c b53d ae25 3a3e 89ef 383f f12c 573e
00000290: bf61 0f3f af59 d53d a4e6 c93d 1a80 abbe
000002a0: 47f0 11bf b868 6cbe b4f8 953d 2851 10bf
000002b0: 99bf 38be f822 3a3e 44c4 debe 4d01 55bf
000002c0: 7c17 93be 3bf9 a53e 700d 003e 303b f0be
000002d0: b113 2cbe 1166 02be dd35 62be 9f3f e4bd
000002e0: 284d e23e 52cf 8abe c3ba 5b3f 2d5d b33e
000002f0: 5b90 aa3d c574 c63e bdfb ffbd 1b72 24be
00000300: 04f9 473f 0816 b0be 2309 5fbe e50b 99be
00000310: bb59 cbbd 6539 21be 3584 83be b375 293f
00000320: 05d8 ec3e 5283 b4be 504e f23e d9b0 87be
00000330: 624b 963e d0c4 bd3e 8282 263f a3a3 92bc
00000340: c9a4 7e3e e8b3 263f 0b6a 4d3e 8739 ba3e
00000350: f669 813e 039e 1c3e cb88 1e3f 5af4 bcbe
00000360: 8061 c43e 1488 c4be 09a1 aebe e810 8cbb
00000370: 237e 063f 9742 123f b2a6 f23e 66cd dabe
00000380: 84d6 09bf 6db5 d2bd acac 27bf 539d 8bbb
00000390: d780 09bf fc18 d03e 94ec 7f3d 03e8 f7bd
000003a0: df71 08be 2df7 583e 77b3 07bf 2bee f83d
000003b0: 96d8 e9be b738 01be f9b7 043e 68d9 9dbd
000003c0: a633 5c3e d08d 203f 191e 2e3e 723c 3cbe
000003d0: 23c6 6f3e d597 e53d e025 053f c209 5cbe
000003e0: 41eb 723c f9f8 acbc 08c7 733e 259a 0f3e
000003f0: 3c78 b6be 41a3 dbbe 7262 33bd 2156 fd3d
