model.pth (torch, 29451 bytes, 9 tensors)

conv1.bias f4 [16]
-0.006775228 0.002220487 -0.014421584 -0.003204756 -0.0071232356 0.027799109 -0.021194976 -0.02806761
-0.009471746 0.0057942905 -0.028354606 0.011029555 -0.0037411812 0.018165994 -0.01097196 0.006608256
00000000: bb02 debb 9785 113b 8248 6cbc e206 52bb
00000010: 086a e9bb f5ba e33c 16a1 adbc 0bee e5bc
00000020: 622f 1bbc 08de bd3b eb47 e8bc 4fb5 343c
00000030: 9b2e 75bb dad0 943c bcc3 33bc 128a d83b

conv1.fc_self.weight f4 [16, 174]
-0.040297553 -0.20307733 0.1446279 -0.057898447 0.11302704 0.035606034 0.028057704 0.018324371
0.14135931 -0.042915978 -0.10023473 -0.11626053 0.14065309 -0.11225385 0.031200675 -0.2054112
0.07064846 -0.16894779 -0.03536123 0.17711435 -0.028550537 -0.040910486 0.011673381 -0.02374822
-0.20391938 0.25256532 -0.03871455 0.083319835 0.09543768 0.2851377 -0.04713 -0.23228525
0.1562212 -0.06258701 -0.032364298 -0.0238586 -0.106748335 -0.39200336 -0.03183187 -0.045873586
0.07578228 0.10860296 -0.029892838 0.22358455 0.020281283 0.044493996 0.027093234 -0.36664984
-0.07768073 -0.027111819 0.10297844 0.07391071 0.14729607 -0.07812438 0.08103779 0.19148119
-0.18842962 0.03783014 0.18741615 -0.03430069 0.025604641 0.13564692 0.08671877 0.10075982
0.12903497 -0.002148754 -0.18892898 -0.0780376 -0.19168366 -0.15629803 0.028311014 0.060412765
0.16886483 0.13958035 -0.0070211953 -0.057264812 0.25436768 0.03968302 -0.03297382 0.10830476
0.20982128 0.08449752 0.004601213 -0.057673946 0.031131998 0.07667107 0.0559467 -0.100280695
-0.053979225 -0.16221645 0.06309048 -0.017974403 0.2674362 -0.043681867 0.07473681 0.057505168
0.039513364 0.15848719 -0.03100743 0.05513517 0.009932046 0.04968004 -0.07312112 0.29980037
0.3100353 0.11414004 0.07711348 0.111260116 0.24032904 -0.042782214 -0.1794572 -0.13499166
-0.12826894 -0.27084434 0.1755207 0.07324854 0.16880415 -0.102379195 0.03617005 -0.19093424
0.095044486 0.201637 0.26672146 0.26929006 0.08581602 0.32629552 0.18734825 0.08765907
0.18266803 0.034016393 -0.288004 0.06851736 -0.23389097 -0.14622977 -0.1764689 0.15438055
-0.23282988 0.09504907 -0.11600089 -0.11462139 0.01117387 0.06565293 0.005898567 -0.15048246
-0.0005770203 -0.021972127 -0.053281903 -0.08688914 0.06040355 -0.016636346 -0.19955142 -0.43217307
-0.1457291 -0.10646625 -0.08361826 0.12766102 0.061949864 -0.023541301 0.052672196 -0.16185103
-0.13964331 -0.13487151 0.025112346 -0.04174369 0.052721012 0.02758955 -0.1746614 0.09882527
0.106460385 0.19579843 -0.10621509 0.04200589 0.1702948 0.17587684 -0.23174478 0.025137002
0.23044007 0.10432766 0.17754151 0.1003262 0.14221315 0.15514384 0.08028579 -0.03467237
0.08737213 0.030623928 0.24813814 0.121582165 0.3858586 0.2749305 -0.10373872 -0.05223473
0.28133157 0.11201624 -0.09230767 0.042158738 0.11834501 -0.039097022 -0.0020382134 -0.34816834
-0.054204874 -0.12969916 -0.13738106 0.04380497 -0.120949835 -0.18465976 0.14079604 -0.04767996
0.046727374 -0.07266564 0.10044301 -0.071829036 0.1038793 0.079099506 0.10221529 0.16785064
0.04904636 -0.086119294 0.11812084 0.019415809 0.01523461 0.19525574 0.038948715 -0.02190817
0.24880734 0.019939631 0.08450237 0.08548036 0.13001363 0.0071032825 0.17911151 -0.039005876
0.014201377 -0.011197212 -0.05069041 0.3430028 0.2228095 -0.0423052 0.053498916 -0.03909531
0.32027334 -0.021930417 0.08332548 0.18474793 -0.08617307 -0.10594141 -0.079117104 0.014195194
-0.054727323 0.032749265 -0.18039007 0.07532872 0.044429827 0.26460117 0.05323259 -0.19915923
00000000: 0c0f 25bd 81f3 4fbe 5619 143e ec26 6dbd
00000010: b97a e73d a2d7 113d 45d9 e53c fe1c 963c
00000020: 7fc0 103e aac8 2fbd de47 cdbd 001a eebd
00000030: 5d07 103e 59e5 e5bd 8f98 ff3c 5057 52be
00000040: 24b0 903d a600 2dbe f0d6 10bd 775d 353e
00000050: d1e2 e9bc c191 27bd b541 3f3c a18b c2bc
00000060: 3ed0 50be 3e50 813e 2693 1ebd 97a3 aa3d
00000070: d574 c33d 92fd 913e 630b 41bd 2fdc 6dbe
00000080: 73f8 1f3e 9e2d 80bd 6d90 04bd 1c73 c3bc
00000090: df9e dabd aab4 c8be 2362 02bd f1e5 3bbd
000000a0: bd33 9b3d 3b6b de3d d3e1 f4bc 59f3 643e
000000b0: ef24 a63c 563f 363d a1f2 dd3c 87b9 bbbe
000000c0: 1317 9fbd 9b19 debc 5ce6 d23d 805e 973d
000000d0: c8d4 163e adff 9fbd 24f7 a53d a513 443e
000000e0: b2f3 40be c7f3 1a3d 05ea 3f3e e17e 0cbd
000000f0: d3c0 d13c 07e7 0a3e 9c99 b13d 2a5b ce3d
00000100: be21 043e 1cd2 0cbb 9976 41be 2dd2 9fbd
00000110: b948 44be 970c 20be 80ec e73c 6073 773d
00000120: e7ea 2c3e 27ee 0e3e 0e12 e6bb 828e 6abd
00000130: 7b3c 823e aa8a 223d 8e0f 07bd e3ce dd3d
00000140: 64db 563e 090d ad3d c6c5 963b 843b 6cbd
00000150: 8808 ff3c b905 9d3d 5e28 653d f75f cdbd
00000160: 5219 5dbd 121c 26be 9535 813d 0e3f 93bc
00000170: 66ed 883e c2eb 32bd 9d0f 993d 8a8a 6b3d
00000180: c4d8 213d 774a 223e 4b03 febc 6bd5 613d
00000190: 05ba 223c 4c7d 4b3d 87c0 95bd 6f7f 993e
000001a0: f2bc 9e3e 41c2 e93d aced 9d3d 58dc e33d
000001b0: d118 763e 673c 2fbd a1c3 37be 413b 0abe
000001c0: ef58 03be 1cac 8abe b3bb 333e 5503 963d
000001d0: ffda 2c3e 2fac d1bd 0c27 143d 4484 43be
000001e0: afa6 c23d ee79 4e3e b78f 883e 63e0 893e
000001f0: 4fc0 af3d 3510 a73e 38d8 3f3e 9986 b33d
00000200: 540d 3b3e c654 0b3d 4375 93be d452 8c3d
00000210: 1d81 6fbe 42bd 15be 43b4 34be ef15 1e3e
00000220: f56a 6ebe 16a9 c23d e091 edbd 9fbe eabd
00000230: 9c12 373c 0b75 863d c448 c13b 1318 1abe
00000240: 2d43 17ba e4fe b3bc 203e 5abd eff2 b1bd
00000250: b669 773d f248 88bc 3557 4cbe ca45 ddbe
00000260: 023a 15be fa0a dabd 0d40 abbd 92b9 023e
00000270: 24bf 7d3d b0d9 c0bc cdbe 573d 47bc 25be
00000280: a8fe 0ebe c21b 0abe 68b8 cd3c 6efb 2abd
00000290: fdf1 573d 7b03 e23c 70da 32be e764 ca3d
000002a0: e707 da3d 627f 483e 4c87 d9bd 5e0e 2c3d
000002b0: c361 2e3e 0f19 343e 814e 6dbe 1dec cd3c
000002c0: 7bf8 6b3e bda9 d53d 71cd 353e d377 cd3d
000002d0: 53a0 113e 07de 1e3e e06c a43d 9d04 0ebd
000002e0: 29f0 b23d 08df fa3c ed17 7e3e 1200 f93d
000002f0: 428f c53e b1c3 8c3e f774 d4bd 16f4 55bd
00000300: b10a 903e c568 e53d ce0b bdbd a4ae 2c3d
00000310: de5e f23d 3324 20bd 8c93 05bb 1f43 b2be
00000320: ee05 5ebd dbcf 04be 9fad 0cbe d76c 333d
00000330: 8cb4 f7bd 7317 3dbe d62c 103e 104c 43bd
00000340: 3465 3f3d b9d1 94bd 11b5 cd3d 1a1b 93bd
00000350: acbe d43d ecfe a13d 4056 d13d 0ae1 2b3e
00000360: d6e4 483d 505f b0bd 57e9 f13d e70d 9f3c
00000370: 969a 793c 1ff1 473e b088 1f3d c378 b3bc
00000380: 5ac7 7e3e 7058 a33c 940f ad3d 5410 af3d
00000390: 4b22 053e a7c2 e83b 0269 373e a0c4 1fbd
000003a0: e4ac 683c 8374 37bc bfa0 4fbd 109e af3e
000003b0: 2c28 643e 3848 2dbd ae21 5b3d 6722 20bd
000003c0: defa a33e 6ba7 b3bc 8da6 aa3d 902e 3d3e
000003d0: 827b b0bd cff7 d8bd 2608 a2bd f592 683c
000003e0: c229 60bd 1824 063d 2db8 38be f245 9a3d
000003f0: 0dfc 353d ce79 873e 6b0a 5a3d 66f0 4bbe

conv1.fc_neigh.weight f4 [16, 174]
-0.1785868 -0.09414518 -0.018946422 -0.030348148 0.27494645 -0.019043516 -0.007613156 0.17521565
0.05167903 -0.055435132 -0.22255652 0.15753524 0.040374227 0.11754695 0.19000553 -0.14050059
0.11012977 0.079330005 -0.0386032 0.10209775 0.019061228 0.02371863 -0.030274782 -0.06186169
-0.411513 0.14374639 -0.123035215 -0.071854934 -0.065473214 0.15964407 -0.065840855 -0.1631563
-0.055065844 -0.022301417 0.018619966 -0.1633672 -0.08332396 0.12380455 -0.09125525 -0.04677143
-0.14622572 0.0029317588 -0.21251377 -0.1838137 -0.232457 -0.061450303 0.0029532732 -0.17623314
0.13250099 0.27833945 0.15999821 -0.05627921 0.36861202 -0.07920586 -0.047226287 0.18988752
-0.27059525 -0.062342256 -0.038964193 -0.11011371 0.07130233 0.06619431 -0.24344379 -0.09247201
0.17829193 0.24892531 0.06049812 -0.048724104 -0.23637734 -0.44291008 0.5396086 0.2942173
-0.109804764 0.050540794 0.10023474 -0.21191889 0.09720237 0.1477078 -0.09103803 0.05746846
0.041969653 -0.21842647 -0.06294927 -0.03735127 0.1034119 0.15205361 0.021998268 -0.27021524
-0.12733856 0.030113908 0.24770692 0.10530578 0.07683021 -0.099098794 -0.10263252 -0.16776818
-0.01284111 0.017793333 -0.31869406 -0.19461295 -0.2944065 0.03512895 -0.28341436 -0.114891976
-0.006227538 -0.079226166 0.0072239977 0.26464853 0.05268401 0.052780285 -0.14206825 -0.17808324
-0.49985772 -0.32444134 0.0010056396 -0.0051577683 -0.020065838 -0.042492993 -0.008929486 -0.112683974
0.09073485 0.00786539 -0.08433102 0.14742701 0.008348243 0.20628802 -0.15610383 -0.0660537
0.33286494 -0.06333145 -0.18131618 0.12875788 -0.4888616 -0.040113486 0.1701769 -0.015338536
0.004328289 0.24185984 0.01066989 -0.18831003 -0.08618191 -0.015583243 -0.089677036 -0.15723681
0.0569683 -0.058393463 0.011220402 -0.11420633 -0.045297995 0.12766874 0.066801526 0.06675528
0.075941555 -0.18810077 -0.44948784 -0.08739815 0.062245846 -0.25194198 -0.08501892 -0.18070431
-0.18175344 -0.35166448 1.095031e-05 0.19451112 -0.16427702 -0.10698136 -0.11102284 0.23361586
0.14026603 0.10584684 -0.08275178 -0.07618042 0.011762323 -0.10400007 -0.07806059 -0.009808006
-0.045833252 -0.09795414 -0.15091702 -0.034800317 0.044202887 -0.049425874 0.10778919 -0.10379423
0.18684287 0.27256802 0.18951151 0.20212576 0.21571785 -0.09524439 0.12710159 -0.16679671
0.021628665 0.055295713 -0.12698565 -0.01997359 0.0028100025 -0.06149085 0.34580606 -0.19450833
0.016410572 -0.15522452 -0.024495447 0.017977038 -0.19218908 0.15962614 0.01197791 -0.0624607
0.012990226 -0.22056659 0.10428616 0.011818201 0.05377422 0.11264248 0.12178233 -0.0004081718
0.08188882 -0.42195523 0.06972339 0.038680237 -0.018016282 0.17570315 0.09156669 -0.23431358
-0.037403986 -0.028956292 -0.0012969306 -0.07983992 0.02829973 0.0056016897 -0.1389859 0.045791097
-0.039171834 -0.03555813 -0.1567519 0.19322364 -0.022456212 -0.031462632 -0.09107756 -0.01441434
0.23799472 0.031769473 0.13908494 0.10884115 -0.27590084 -0.19703601 -0.15991296 0.00025091524
0.017202735 0.06405901 -0.1865122 0.18524984 0.08805854 0.13171418 -0.08561591 -0.082273856
00000000: 75df 36be 30cf c0bd 8735 9bbc ae9c f8bc
00000010: c8c5 8c3e 2601 9cbc c877 f9bb bb6b 333e
00000020: 64ad 533d f30f 63bd dbe5 63be eb50 213e
00000030: 725f 253d 75bc f03d cf90 423e 63df 0fbe
00000040: b88b e13d c577 a23d 641e 1ebd a018 d13d
00000050: 4b26 9c3c 934d c23c d202 f8bc af62 7dbd
00000060: d5b1 d2be 4132 133e e3f9 fbbd ae28 93bd
00000070: d216 86bd bc79 233e 92d7 86bd 7212 27be
00000080: b98c 61bd 76b1 b6bc e688 983c bb49 27be
00000090: c1a5 aabd 3d8d fd3d 08e4 babd 6693 3fbd
000000a0: 32bc 15be c022 403b 369d 59be a939 3cbe
000000b0: 3509 6ebe 50b3 7bbd b48b 413b 7676 34be
000000c0: 57ae 073e 8282 8e3e 92d6 233e 0785 66bd
000000d0: b7ba bc3e af36 a2bd 5a70 41bd e071 423e
000000e0: 768b 8abe 985a 7fbd eb98 1fbd 4c83 e1bd
000000f0: f506 923d e290 873d 5449 79be f761 bdbd
00000100: 2992 363e 47e6 7e3e e0cc 773d ed92 47bd
00000110: e70c 72be 1cc5 e2be ca23 0a3f a6a3 963e
00000120: 52e1 e0bd dd03 4f3d df47 cd3d 4401 59be
00000130: 0912 c73d b740 173e 2672 babd 0c64 6b3d
00000140: 5fe8 2b3d 30ab 5fbe 8ceb 80bd a5fd 18bd
00000150: 9ec9 d33d f1b3 1b3e b635 b43c a759 8abe
00000160: 0a65 02be 71b1 f63c e2a6 7d3e 8faa d73d
00000170: 2859 9d3d 4ff4 cabd 0031 d2bd 6ccb 2bbe
00000180: 8563 52bc 53c3 913c de2b a3be 9e48 47be
00000190: 73bc 96be 60e3 0f3d b01b 91be 7c4c ebbd
000001a0: 6010 ccbb 5441 a2bd 49b7 ec3b 0380 873e
000001b0: 30cb 573d 2430 583d 577a 11be 745b 36be
000001c0: 5aed ffbe 2d1d a6be aacf 833a 7f02 a9bb
000001d0: 1d61 a4bc 220d 2ebd fb4c 12bc dbc6 e6bd
000001e0: 31d3 b93d d6dd 003c beb5 acbd 1bf7 163e
000001f0: 12c7 083c 2b3d 533e afd9 1fbe 2a47 87bd
00000200: 466d aa3e ebb3 81bd f3aa 39be 1bd9 033e
00000210: 114c fabe 0a4e 24bd da42 2e3e 7c4e 7bbc
00000220: 52d4 8d3b 1baa 773e c3d0 2e3c 58d4 40be
00000230: 2480 b0bd dc50 7fbc 98a8 b7bd b002 21be
00000240: 9857 693d fc2d 6fbd c7d5 373c 02e5 e9bd
00000250: 648a 39bd 98bb 023e 3dcf 883d feb6 883d
00000260: 3f87 9b3d 7d9d 40be 4523 e6be cdfd b2bd
00000270: 80f5 7e3d 8afe 80be 661e aebd 8d0a 39be
00000280: 931d 3abe 5e0d b4be 39b7 3737 ec2d 473e
00000290: 3c38 28be 0b19 dbbd f15f e3bd ff38 6f3e
000002a0: e6a1 0f3e 3ac6 d83d c479 a9bd 7b04 9cbd
000002b0: c2b6 403c fdfd d4bd 3bde 9fbd c2b1 20bc
000002c0: a6bb 3bbd 2e9c c8bd fe89 1abe c78a 0ebd
000002d0: 160e 353d c972 4abd 94c0 dc3d 1292 d4bd
000002e0: bd53 3f3e 098e 8b3e 4e0f 423e 0efa 4e3e
000002f0: 24e5 5c3e 7e0f c3bd eb26 023e c2cc 2abe
00000300: 992e b13c c27d 623d 8708 02be a79f a3bc
00000310: 0528 383b d4dd 7bbd 7e0d b13e 312d 47be
00000320: 776f 863c 2df3 1ebe adaa c8bc 9544 933c
00000330: 37cd 44be 0975 233e ff3e 443c cad6 7fbd
00000340: f5d4 543c 35dc 61be fb93 d53d 21a1 413c
00000350: 5b42 5c3d 1ab1 e63d 0469 f93d e4ff d5b9
00000360: 53b5 a73d 840a d8be 23cb 8e3d 2b6f 1e3d
00000370: e296 93bc 87eb 333e 5187 bb3d e6ef 6fbe
00000380: ec34 19bd bf35 edbc c5fd a9ba 1d83 a3bd
00000390: d6d4 e73c 618e b73b 5252 0ebe 728f 3b3d
000003a0: a572 20bd 67a5 11bd 9283 20be 6bdc 453e
000003b0: 17f6 b7bc f6de 00bd df86 babd 202a 6cbc
000003c0: e3b4 733e b520 023d 486c 0e3e 1ce8 de3d
000003d0: e042 8dbe cfc3 49be 39c0 23be 468d 8339
000003e0: c0ec 8c3c 5f31 833d 0efd 3ebe 22b2 3d3e
000003f0: 0958 b43d 15e0 063e 6557 afbd 327f a8bd

conv2.bias f4 [16]
0.00675967 -0.014997196 7.520847e-05 -0.011325724 0.008496065 0.010741975 -0.0028799963 0.0016710046
0.015161885 0.008323155 0.00617766 0.01346916 0.0066310335 -0.006375417 0.0030516665 0.004691027
00000000: 3980 dd3b cdb6 75bc 3db9 9d38 888f 39bc
00000010: 1433 0b3c 1cff 2f3c 52be 3cbb 9c05 db3a
00000020: 8e69 783c d85d 083c f86d ca3b c0ad 5c3c
00000030: 2449 d93b e0e8 d0bb 78fe 473b 30b7 993b

conv2.fc_self.weight f4 [16, 16]
0.40269756 -0.3865602 0.65005594 -0.06258182 -0.6465179 0.36354658 0.01293102 -0.1168909
-0.40678996 0.05811184 0.09910758 -0.12529777 0.3195288 0.0031639298 -0.020653233 0.354214
0.16730581 -0.2417516 -0.09534061 -0.18408242 -0.4803221 0.51476485 0.081725396 0.34000435
-0.42114273 -0.034800492 0.014933266 -0.34050578 -0.32124683 -0.33925268 -0.21622771 0.22365695
0.16838758 0.23887484 -0.050630357 0.01155083 -0.122754976 -0.08896705 -0.40465155 0.166458
-0.102391705 0.15788856 0.19918732 -0.14628676 0.46539363 -0.16261436 -0.050713792 -0.16298409
-0.23705351 -0.48740348 -0.05234008 -0.4762813 -0.11041172 0.2513338 0.24199185 -0.27207997
0.049555883 0.26037702 0.31200883 0.21429786 0.12517096 0.043172687 -0.084181555 -0.11783579
-0.4485919 0.5494038 -0.4238614 0.114592135 0.4922765 0.35112357 0.02709516 0.5746106
0.38162243 0.08295851 -0.27964216 -0.3911028 -0.4096621 -0.19740193 0.21605603 -0.26671615
0.30608466 -0.1253405 0.4799909 -0.084676355 -0.3456825 0.47561428 -0.07896529 -0.12060231
0.44558743 -0.37644276 0.31804058 0.19539033 -0.2178883 -0.18614094 0.4106492 -0.142274
-0.25224903 -0.36026695 -0.44596627 0.025941806 0.5416811 0.11563973 -0.18528557 0.17464146
0.3389155 -0.2770339 0.5586304 -0.5097863 -0.024989119 -0.40016475 0.20743881 0.020531332
-0.36787635 0.43026522 -0.02692781 0.45554546 0.064169444 0.3275525 0.08917257 0.39566332
-0.38822347 -0.4622867 -0.46928906 0.11809562 0.37489754 -0.22870241 0.13226824 -0.30056667
-0.18671837 -0.17630221 -0.26323742 -0.32088637 0.15352857 0.089833535 -0.5263826 0.21342072
-0.53419757 0.22036034 0.22152257 -0.32732517 0.210947 0.0700599 0.028954333 0.13367993
-0.051185183 0.33409595 -0.46964732 0.08189751 0.26626894 0.36588666 -0.3155865 0.029594846
-0.26257354 -0.22298755 -0.109614536 0.3753138 0.22932568 0.06811232 0.360195 0.1708436
0.40851375 -0.37550005 0.1586959 0.010013127 0.42069393 -0.36147416 0.07933044 -0.17032067
0.30416977 0.303549 -0.06827339 0.053600516 0.26202384 0.106024995 0.24916017 -0.43397215
-0.18489616 -0.18746512 0.09517537 0.020740645 -0.07268071 0.317527 -0.38134745 -0.3311799
0.016603736 -0.17475669 0.34833395 -0.32499123 -0.32484335 -0.03300993 -0.09316956 0.41410914
-0.5339014 -0.051074386 -0.4758448 -0.2785479 0.19665681 -0.1148199 0.050786443 0.23582532
-0.57603663 -0.0911606 0.4445488 -0.4394071 -0.040088277 -0.054987423 0.3628853 0.16531083
0.11230314 0.14944397 -0.109474175 0.021885851 -0.018514302 -0.270963 -0.18603766 0.12860338
0.2622067 0.09057254 -0.023393795 0.11577306 0.17161097 0.33841956 -0.1122286 -0.016675815
-0.5719536 -0.18472864 -0.29944986 -0.24169464 -0.10493638 -0.3779347 -0.33389112 -0.0052538337
0.2756385 -0.32997325 0.32028237 -0.3855737 -0.13963753 0.10651892 0.27941033 0.05690609
0.37849152 -0.5109211 0.38405967 0.0054545067 -0.3173793 -0.12867877 0.2165039 -0.2933076
-0.3820637 -0.4566038 0.526215 0.27170965 -0.015426878 0.44277516 -0.08876608 0.22655451
00000000: 602e ce3e 38eb c5be 116a 263f e62a 80bd
00000010: 3282 25bf c722 ba3e a1dc 533c 7f64 efbd
00000020: c646 d0be ae06 6e3d eaf8 ca3d 0f4e 00be
00000030: 4799 a33e ef59 4f3b f830 a9bc 8a5b b53e
00000040: 3752 2b3e bb8d 77be f041 c3bd 1a80 3cbe
00000050: c7ec f5be a1c7 033f a55f a73d 0d15 ae3e
00000060: 05a0 d7be f68a 0ebd a8aa 743c c656 aebe
00000070: 777a a4be 87b2 adbe cc6a 5dbe 5406 653e
00000080: cb6d 2c3e 9b9b 743e c761 4fbd b13f 3d3c
00000090: f666 fbbd 5b34 b6bd 7d2e cfbe f773 2a3e
000000a0: beb2 d1bd 8aad 213e c3f7 4b3e 32cc 15be
000000b0: 1348 ee3e 6184 26be 44b9 4fbd 4de5 26be
000000c0: 28be 72be f38c f9be 8d62 56bd 24db f3be
000000d0: 8a1f e2bd d3ae 803e b6cc 773e 114e 8bbe
000000e0: 1cfb 4a3d 2350 853e 9fbf 9f3e e670 5b3e
000000f0: d12c 003e d8d5 303d 6167 acbd e453 f1bd
00000100: d6ad e5be baa5 0c3f 5d04 d9be 48af ea3d
00000110: aa0b fc3e 78c6 b33e abf6 dd3c ae19 133f
00000120: 0464 c33e 27e6 a93d 422d 8fbe a03e c8be
00000130: 3bbf d1be bb23 4abe cb3d 5d3e 058f 88be
00000140: 21b7 9c3e 4359 00be 5ec1 f53e cc6a adbd
00000150: 4cfd b0be b783 f33e 8eb8 a1bd 58fe f6bd
00000160: 0924 e43e 1bbd c0be 37d6 a23e 6714 483e
00000170: 1c1e 5fbe bb9b 3ebe 9d40 d23e 47b0 11be
00000180: c926 81be e974 b8be b155 e4be e983 d43c
00000190: 9dab 0a3f 86d4 ec3d 80bb 3dbe 36d5 323e
000001a0: 5586 ad3e 63d7 8dbe 6702 0f3f 5b81 02bf
000001b0: fbb5 ccbc 65e2 ccbe d76a 543e 5331 a83c
000001c0: 4a5a bcbe b94b dc3e b697 dcbc 413d e93e
000001d0: 456b 833d f6b4 a73e 1ca0 b63d 6294 ca3e
000001e0: 3ac5 c6be d8b0 ecbe a846 f0be 1edc f13d
000001f0: 92f2 bf3e f730 6abe 5371 073e e0e3 99be
00000200: 1a33 3fbe 9188 34be 0ec7 86be 384b a4be
00000210: 9836 1d3e a5fa b73d 03c1 06bf f68a 5a3e
00000220: 2cc1 08bf 24a6 613e d0d6 623e 2a97 a7be
00000230: 7e02 583e 917b 8f3d a331 ed3c 64e3 083e
00000240: 8ea7 51bd a00e ab3e 9d75 f0be e2b9 a73d
00000250: 6754 883e 7f55 bb3e 8e94 a1be e470 f23c
00000260: 0a70 86be d956 64be 967d e0bd 2129 c03e
00000270: 5ad4 6a3e 797e 8b3d 7b6b b83e a0f1 2e3e
00000280: b728 d13e 8b41 c0be 2e81 223e 190e 243c
00000290: 3265 d73e 2413 b9be ff77 a23d 8b68 2ebe
000002a0: 24bc 9b3e c66a 9b3e ebd2 8bbd 378c 5b3d
000002b0: fd27 863e a223 d93d d823 7f3e 9931 debe
000002c0: 6b55 3dbe dbf6 3fbe 4eeb c23d 49e8 a93c
000002d0: a0d9 94bd e692 a23e f93f c3be 6990 a9be
000002e0: 8f04 883c 6bf3 32be d458 b23e 4065 a6be
000002f0: de51 a6be 6c35 07bd afcf bebd 1d06 d43e
00000300: c3ad 08bf 6033 51bd eea1 f3be d59d 8ebe
00000310: 6760 493e b226 ebbd 7205 503d 317c 713e
00000320: 2377 13bf 69b2 babd e69b e33e f8f9 e0be
00000330: 9b33 24bd 7e3a 61bd 1acc b93e 3e47 293e
00000340: 30ff e53d d707 193e ff33 e0bd f549 b33c
00000350: 4eab 97bc aabb 8abe a880 3ebe 9bb0 033e
00000360: f53f 863e 197e b93d 58a4 bfbc 6d1a ed3d
00000370: c9ba 2f3e 5445 ad3e 1cd8 e5bd b89b 88bc
00000380: 8d6b 12bf 8129 3dbe 7e51 99be cd7e 77be
00000390: e3e8 d6bd a880 c1be c7f3 aabe 5a28 acbb
000003a0: 7d20 8d3e 41f2 a8be 0dfc a33e ea69 c5be
000003b0: 24fd 0ebe 9726 da3d df0e 8f3e 5c16 693d
000003c0: a4c9 c13e bacb 02bf 78a3 c43e b8bb b23b
000003d0: 8a7f a2be 5ec4 03be 33b3 5d3e 6a2c 96be
000003e0: da9d c3be f9c7 e9be 07b6 063f 871d 8b3e
000003f0: 04c1 7cbc 6db3 e23e feca b5bd e8fd 673e

conv2.fc_neigh.weight f4 [16, 16]
-0.3535168 -0.07564822 -0.00087543635 -0.30962318 -0.10562156 0.0053504026 0.46011624 0.06466861
0.41265205 0.10871084 -0.14405032 -0.33917084 0.30311662 0.4639954 0.22753514 -0.13360965
-0.11768231 0.17495537 -0.56542623 0.056936745 -0.40201595 0.5713702 -0.30207044 -0.18726432
-0.2832897 -0.22622235 0.1741039 -0.5472513 -0.013222558 0.30698624 -0.67857987 -0.19781546
0.031467024 -0.019890781 -0.40039796 0.28910038 0.5348325 -0.21630141 0.19357802 -0.113585025
0.12823322 0.00967947 0.32146204 -0.32433286 0.34866884 0.041313443 -0.22794315 -0.57231003
0.28374735 -0.6873855 -0.9418258 -0.06363971 0.27955836 0.25918555 -0.28484148 -0.048550416
0.7611733 0.33805555 -0.14382751 0.24945445 0.25133482 0.3377449 -0.5718043 -0.33610108
-0.10603602 0.32758456 0.08233992 -0.26483256 0.1215112 0.13069534 0.21220616 0.3938892
-0.39983556 0.22641464 0.33841577 -0.46085662 -0.16490576 0.11352646 0.035422128 0.1865031
0.40447313 -0.11366186 -0.439677 -0.008855874 -0.16846882 0.7401321 -0.3618425 0.11425318
0.5985895 -0.039152697 0.6683922 -0.38511667 0.3355146 0.29866973 0.4770924 -0.28509393
0.8673691 -0.47821733 -0.02471524 0.13076948 0.1564006 0.17797637 0.16031677 0.7045846
-0.02312298 -0.14856999 0.4847066 -0.3060153 -0.16058896 0.21214703 0.4033172 0.6048412
0.1419646 -0.31900835 -0.23231709 0.63131726 -0.51717424 -0.22551751 -0.29258007 0.23612952
0.32901457 -0.5916012 -0.63598627 0.14242333 0.6922887 0.25935194 -0.27192396 0.310775
-0.21764256 -0.4125263 0.3235377 0.028917085 0.2537721 0.0060487767 -0.11105819 0.3714266
-0.6192836 0.43790138 -0.118447565 -0.09510147 -0.70756954 0.33485308 0.3777228 -0.31616834
-0.174308 0.34196416 -0.08325045 -0.271845 0.41771576 0.63743544 -0.09057434 -0.51967335
-0.18808107 -0.41525424 -0.053794198 0.8420454 0.5164545 0.43277794 0.27340254 0.1422127
0.40386206 0.18954936 0.377162 -0.2452778 0.40521842 -0.043613423 -0.07456559 0.4307931
-0.3538195 0.5286101 -0.13106349 -0.34672573 0.38766012 -0.593826 0.5298604 -0.4552148
0.48718274 0.01849375 0.55321187 -0.344939 0.036324997 -0.16496074 -0.54846716 -0.68779194
0.53099674 -0.47919664 0.3344578 0.44488093 -0.175574 0.4747911 -0.580864 0.5765366
-0.10972866 -0.31860933 0.015491406 -0.30373174 0.104339786 -0.2161747 0.03235874 -0.8158639
-0.41271016 -0.3013491 0.7079995 -0.3011175 0.20778076 0.25969818 0.49960697 0.30121374
-0.30643252 0.38292658 -0.07009314 -0.4844493 0.13141105 -0.35304725 0.6359987 0.4288743
-0.09782967 -0.5005344 -0.07575498 0.32501423 0.10597205 0.14698306 -0.11744804 -0.07756377
-0.13820137 -0.19256517 -0.23421232 -0.69147164 0.11600025 0.31187868 -0.6823806 -0.19512874
0.5541058 -0.52357495 0.21116981 -0.38956532 -0.06167161 -0.331616 0.70313555 0.076474756
-0.51934993 -0.12042379 0.22566698 -0.13558555 0.33230212 -0.17504635 0.34449172 0.032155003
-0.170156 -0.32423976 0.84662056 -0.10249338 -0.23412237 0.37041727 0.50331885 -0.47528738
00000000: 2700 b5be 74ed 9abd 8a7d 65ba ee86 9ebe
00000010: 1e50 d8bd 6e52 af3b 5b94 eb3e fa70 843d
00000020: 2147 d33e caa3 de3d ed81 13be cda7 adbe
00000030: 1a32 9b3e ce90 ed3e f9fe 683e f8d0 08be
00000040: 6c03 f1bd 8027 333e c6bf 10bf 8136 693d
00000050: 09d5 cdbe 5145 123f faa8 9abe 38c2 3fbe
00000060: 590b 91be d5a6 67be 4b48 323e a918 0cbf
00000070: 6ea3 58bc 4d2d 9d3e 69b7 2dbf 2390 4abe
00000080: 91e3 003d fef1 a2bc f600 cdbe f704 943e
00000090: c8ea 083f 1e7e 5dbe 5139 463e 449f e8bd
000000a0: 924f 033e a496 1e3c ac96 a43e f50e a6be
000000b0: b984 b23e 4938 293d ee69 69be e982 12bf
000000c0: 5547 913e 7ff8 2fbf 7f1b 71bf 8955 82bd
000000d0: 4622 8f3e f8b3 843e bed6 91be cddc 46bd
000000e0: 41dc 423f 9e15 ad3e 8547 13be fd70 7f3e
000000f0: f5ae 803e e6ec ac3e c461 12bf 7115 acbe
00000100: 6a29 d9bd 2ab9 a73e d5a1 a83d 2298 87be
00000110: ddda f83d 00d5 053e 924c 593e d8ab c93e
00000120: 3fb7 ccbe 3dd9 673e d544 ad3e 66f5 ebbe
00000130: 0edd 28be 9080 e83d cb16 113d abfa 3e3e
00000140: 1a17 cf3e 8dc7 e8bd 581d e1be 3a18 11bc
00000150: 1783 2cbe 4c79 3d3f 6c43 b9be 92fd e93d
00000160: 293d 193f 945e 20bd c01b 2b3f 032e c5be
00000170: 92c8 ab3e 3deb 983e 7445 f43e d5f7 91be
00000180: e70b 5e3f e7d8 f4be 9d77 cabc 6fe8 053e
00000190: 7b27 203e 703f 363e 142a 243e a85f 343f
000001a0: 676c bdbc bb22 18be 772b f83e 0aae 9cbe
000001b0: 6f71 24be 123d 593e 987f ce3e dfd6 1a3f
000001c0: 2b5f 113e 1055 a3be 88e4 6dbe 029e 213f
000001d0: 8865 04bf 10ee 66be 0ecd 95be f0cb 713e
000001e0: 9974 a83e 2d73 17bf ffcf 22bf 6cd7 113e
000001f0: d539 313f c7c9 843e 9e39 8bbe e71d 9f3e
00000200: b1dd 5ebe a636 d3be bca6 a53e 86e3 ec3c
00000210: 6bee 813e d134 c63b 7a72 e3bd a12b be3e
00000220: 5f89 1ebf 9c34 e03e a394 f2bd 8fc4 c2bd
00000230: 4723 35bf dd71 ab3e e264 c13e d1e0 a1be
00000240: cc7d 32be ed15 af3e 367f aabd 452f 8bbe
00000250: d7de d53e f82e 233f 0a7f b9bd 5009 05bf
00000260: 5398 40be 349c d4be 4e57 5cbd 4a90 573f
00000270: 5d36 043f 1295 dd3e 6bfb 8b3e 35a0 113e
00000280: 02c7 ce3e 3a19 423e 611b c13e 1b2a 7bbe
00000290: ca78 cf3e fda3 32bd d8b5 98bd ea90 dc3e
000002a0: d427 b5be fe52 073f 8235 06be 0986 b1be
000002b0: 637b c63e fb04 18bf eea4 073f ea11 e9be
000002c0: 0470 f93e 3480 973c 4b9f 0d3f d89b b0be
000002d0: 85c9 143d 78eb 28be 5868 0cbf 2213 30bf
000002e0: 67ef 073f 4359 f5be 0e3e ab3e 6fc7 e33e
000002f0: acc9 33be d217 f33e 81b3 14bf e797 133f
00000300: 6bb9 e0bd c320 a3be abcf 7d3c ba82 9bbe
00000310: 19b0 d53d e75c 5dbe 998a 043d 75dc 50bf
00000320: bf4e d3be 6e4a 9abe 753f 353f 132c 9abe
00000330: 7bc4 543e 29f7 843e 7ccc ff3e b038 9a3e
00000340: b9e4 9cbe f40e c43e fe8c 8fbd bd09 f8be
00000350: 9e90 063e 9cc2 b4be d0d0 223f 6a95 db3e
00000360: ec5a c8bd 0623 00bf 6d25 9bbd 4468 a63e
00000370: e007 d93d ba82 163e 9988 f0bd c1d9 9ebd
00000380: a984 0dbe ce2f 45be 5bd5 6fbe 4904 31bf
00000390: 8a91 ed3d 90ae 9f3e 7fb0 2ebf d4cf 47be
000003a0: e1d9 0d3f 0209 06bf e63c 583e 1b75 c7be
000003b0: 5f9b 7cbd 93c9 a9be b100 343f cc9e 9c3d
000003c0: 1ef4 04bf bfa0 f6bd 3f15 673e f0d6 0abe
000003d0: 8123 aa3e 5a3f 33be 3861 b03e f7b4 033d
000003e0: 603d 2ebe c102 a6be 20bc 583f 0de8 d1bd
000003f0: c6bd 6fbe 55a7 bd3e 81d9 003f de58 f3be

conv3.bias f4 [16]
0.004399799 -0.004384283 0.0005241331 -0.02021828 -0.00013234082 0.042772833 -0.0027912653 0.01534554
0.012433092 -0.017397512 -0.006020645 -0.0148987025 0.017374529 -0.014113174 -0.0052326135 -0.017405417
00000000: 302c 903b 08aa 8fbb fa65 093a cea0 a5bc
00000010: f8c4 0ab9 9132 2f3d a9ed 36bb dc6b 7b3c
00000020: 2bb4 4b3c 3a85 8ebc d548 c5bb b019 74bc
00000030: 0755 8e3c f13a 67bc 5876 abbb ce95 8ebc

conv3.fc_self.weight f4 [16, 16]
0.15910035 -0.2804841 0.13567273 -0.0042290683 0.17011999 -0.008071325 0.10605438 -0.36362976
-0.4439611 -0.29561955 -0.3075264 -0.17527135 0.2709803 0.07406196 -0.4733529 -0.18266352
0.6252364 -0.32244393 0.3058645 0.12396551 0.40414602 0.2709689 0.24490058 -0.4410643
-0.049007207 0.3679058 0.012488591 -0.25480035 0.47252 -0.119200855 -0.43033332 -0.2257482
0.39821234 -0.11608288 -0.45931506 0.44958365 0.39131537 -0.32817715 -0.3310387 -0.20570135
0.3245218 -0.11298178 0.41108602 0.2911377 -0.126232 -0.24742612 -0.038548965 -0.2873239
-0.07410064 -0.26463646 0.4145866 -0.10067556 0.20747353 -0.3185495 0.47307754 -0.04873973
-0.20830053 0.3129446 -0.20389584 0.27813995 -0.28876683 0.21304977 -0.23920198 0.14503193
0.0032116396 0.08183252 0.32329315 -0.0040041376 0.024184952 -0.001919633 0.1653591 -0.15737861
0.036407653 -0.15075347 -0.35792035 -0.17885111 -0.47701025 -0.33811486 0.31171063 -0.31433865
0.38000345 0.27514726 -0.05445387 0.3420125 0.12518804 -0.40397072 0.34148073 -0.09321594
-0.23068295 0.35071048 0.44412807 -0.012997895 -0.012774876 -0.23868948 0.37880096 -0.35224155
0.57259834 0.3122626 -0.3024329 0.03289789 0.0015153129 0.3126305 -0.27254742 0.26502147
0.49508485 -0.41963395 0.46145067 -0.26451182 0.14007975 0.26508975 0.27149096 -0.25098172
0.24618138 0.17796141 0.33460164 -0.29371887 -0.47502217 -0.26800457 0.52989006 0.13908777
-0.33853638 0.2758719 0.14862642 0.03867764 0.04677048 -0.13232855 -0.14633486 -0.35040587
0.56712717 -0.27472645 0.020175574 0.29795802 0.35949987 -0.19214378 0.116444 -0.33612072
-0.3010314 0.20097305 -0.24362414 -0.11875413 0.11439671 0.32184297 -0.28502762 -0.13238059
0.3636514 -0.42455265 0.24045333 0.07413558 0.44169554 -0.09485013 -0.5135202 -0.06257463
-0.22347742 0.19749764 -0.24693882 0.14932801 0.19171919 -0.26627183 0.43641654 -0.35533357
0.3900078 -0.26758695 -0.21288258 -0.0047010565 0.4599489 -0.3532314 0.21626668 0.04047312
-0.52712274 -0.02259731 0.036822792 0.26421797 -0.02390818 -0.38888532 0.152444 0.27324417
-0.14178444 -0.02390733 -0.4463613 0.07375697 -0.30978018 0.19261873 0.48362923 0.009344129
0.53118753 0.20540692 -0.0006665691 -0.3491456 -0.22882599 0.1411433 0.054004505 -0.06252356
0.049385138 0.1555594 0.41474319 -0.42480063 -0.34289145 0.19758852 -0.1394258 0.34938112
-0.19348253 0.33311957 0.5885494 0.51053387 -0.07510062 -0.28687373 -0.00080477755 0.19020681
-0.053227942 -0.22726451 -0.24962561 0.20646779 0.26693377 0.37335518 -0.3974294 0.22809899
0.4610613 0.066902794 0.20138709 0.39835134 -0.16612132 0.1986991 0.21781038 -0.12642258
0.48356882 -0.28153443 0.18294646 0.1291599 0.2518139 -0.33569297 -0.15857328 0.046846025
0.10510878 -0.25381938 0.15084971 0.18433562 0.18909127 0.3576332 0.312498 0.039669424
0.17818007 -0.013353485 -0.04471989 0.4525386 0.14995104 -0.14383547 0.21577752 0.14412723
-0.5359877 0.13964614 0.04836664 -0.26445177 -0.1303726 0.434529 0.18355837 0.4333891
00000000: 34eb 223e 9d9b 8fbe cbed 0a3e ff93 8abb
00000010: ef33 2e3e 973d 04bc 0a33 d93d ae2d babe
00000020: df4e e3be 725b 97be 1a74 9dbe 557a 33be
00000030: eebd 8a3e ccad 973d 505b f2be 250c 3bbe
00000040: 7e0f 203f 5f17 a5be 469a 9c3e a1e1 fd3d
00000050: 3aec ce3e 70bc 8a3e 38c7 7a3e 2ed3 e1be
00000060: c8bb 48bd 265e bc3e f29c 4c3c 3175 82be
00000070: 24ee f13e 941f f4bd a654 dcbe 892a 67be
00000080: 7de2 cb3e dcbc edbd 582b ebbe d42f e63e
00000090: 7d5a c83e d606 a8be e87d a9be 60a3 52be
000000a0: b927 a63e fe62 e7bd de79 d23e 0010 953e
000000b0: f642 01be 465d 7dbe 85e5 1dbd 1e1c 93be
000000c0: 14c2 97bd 6e7e 87be b244 d43e fd2e cebd
000000d0: f173 543e ec18 a3be 3837 f23e 50a3 47bd
000000e0: bc4c 55be 463a a03e 12ca 50be 5c68 8e3e
000000f0: 3fd9 93be b829 5a3e 5df1 74be 4083 143e
00000100: 5f7a 523b cf97 a73d ae86 a53e 2435 83bb
00000110: 851f c63c 329c fbba e553 293e dc27 21be
00000120: 3120 153d 1e5f 1abe 5641 b7be bf24 37be
00000130: b03a f4be 641d adbe 8998 9f3e fff0 a0be
00000140: d08f c23e 1ae0 8c3e 050b 5fbd 431c af3e
00000150: 4b31 003e 40d5 cebe 90d6 ae3e 00e8 bebd
00000160: 2738 6cbe 5390 b33e c164 e33e 1ff5 54bc
00000170: b74d 51bc 046b 74be 33f2 c13e 0159 b4be
00000180: ce95 123f e2e0 9f3e 7cd8 9abe f0bf 063d
00000190: 779d c63a 1b11 a03e 568b 8bbe e5b0 873e
000001a0: c37b fd3e 43da d6be 4343 ec3e 186e 87be
000001b0: 1171 0f3e d8b9 873e dd00 8b3e ad80 80be
000001c0: f916 7c3e 843b 363e e850 ab3e 5262 96be
000001d0: 1b36 f3be e537 89be e0a6 073f 066d 0e3e
000001e0: a454 adbe 153f 8d3e 8631 183e 726c 1e3d
000001f0: 6792 3f3d 2381 07be ced8 15be 6668 b3be
00000200: 3f2f 113f f2a8 8cbe 3f47 a53c f48d 983e
00000210: 5e10 b83e 57c1 44be 317a ee3d 0418 acbe
00000220: ca20 9abe e1cb 4d3e 9b78 79be 5e35 f3bd
00000230: d348 ea3d 9ac8 a43e 24ef 91be c78e 07be
00000240: 8430 ba3e f75e d9be 6639 763e 65d4 973d
00000250: eb25 e23e c940 c2bd 0f76 03bf 2127 80bd
00000260: 44d7 64be d23c 4a3e 88dd 7cbe 71e9 183e
00000270: 0952 443e c854 88be fd71 df3e 48ee b5be
00000280: 1aaf c73e 2801 89be e4fd 59be 520b 9abb
00000290: 6c7e eb3e bfda b4be 0375 5d3e 24c7 253d
000002a0: 84f1 06bf fe1d b9bc 7fd3 163d 9447 873e
000002b0: 16db c3bc fa1b c7be 481a 1c3e a9e6 8b3e
000002c0: f12f 11be 4ed9 c3bc 7889 e4be e50d 973d
000002d0: 829b 9ebe d83d 453e 409e f73e 1e18 193c
000002e0: e8fb 073f 3156 523e b2bc 2eba 36c3 b2be
000002f0: 5c51 6abe df87 103e d433 5d3d 5a0c 80bd
00000300: 1248 4a3d f74a 1f3e 3859 d43e 787f d9be
00000310: 788f afbe a554 4a3e a3c5 0ebe 15e2 b23e
00000320: 4920 46be a68e aa3e 2cab 163f 59b2 023f
00000330: 5bce 99bd 1de1 92be b5f7 52ba 93c5 423e
00000340: 8b05 5abd 07b8 68be db9d 7fbe 4b6c 533e
00000350: 8bab 883e 6928 bf3e de7b cbbe c892 693e
00000360: 3a10 ec3e 5504 893d 6b38 4e3e b5f4 cb3e
00000370: b51b 2abe c777 4b3e af09 5f3e ec74 01be
00000380: 5596 f73e 4825 90be 5156 3b3e 7e42 043e
00000390: c0ed 803e f3df abbe 0961 22be 9ee1 3f3d
000003a0: 4643 d73d 9df4 81be 5978 1a3e 7ac2 3c3e
000003b0: 24a1 413e b31b b73e bdff 9f3e 687c 223d
000003c0: d674 363e 93c8 5abc 342c 37bd 24b3 e73e
000003d0: c48c 193e 9b49 13be c8f4 5c3e 1796 133e
000003e0: 7d36 09bf 66ff 0e3e 191c 463d 3966 87be
000003f0: 6580 05be 967a de3e baf6 3b3e 2de5 dd3e

conv3.fc_neigh.weight f4 [16, 16]
0.33195 -0.3770394 0.19897576 -0.47275147 0.4690295 0.30598986 -0.44051623 -0.06295237
-0.13963842 -0.52877253 0.2742939 0.42197588 -0.33528006 -0.4787202 -0.114438824 -0.50587004
0.18147177 0.36625904 0.41545656 -0.5584601 -0.12766822 0.19138047 -0.036125515 0.31721878
0.24997331 -0.21877365 -0.4963869 0.33738223 -0.42631644 0.22175527 -0.253501 -0.2633518
0.15272222 -0.613465 -0.008432657 0.36182177 -0.23678415 0.34808707 -0.06254286 0.3147729
0.19745958 0.074864864 -0.39526117 -0.057015687 -0.16615947 -0.39645368 0.14029424 0.25492096
0.52891403 -0.715425 0.2955862 -0.4249235 0.5069716 0.43734738 0.09949675 -0.23770392
0.3590718 -0.007976999 0.24435432 0.33627796 0.33421013 0.044001423 0.033301767 -0.42614493
0.117989086 0.40737674 0.03416659 0.4490715 0.079339124 -0.18535997 0.29419726 0.2420563
-0.36128932 -0.3440511 -0.2932663 -0.12590781 -0.12391427 0.47532883 0.4991104 0.05088731
-0.23409092 -0.1559098 -0.12569994 0.21619274 -0.07236936 0.42010862 -0.12737757 -0.41526136
0.12465788 -0.52260417 0.35490578 0.67909193 0.6298482 0.055307645 -0.20007257 -0.4808843
0.20460159 -0.16850449 0.09678919 -0.015152864 -0.54938775 -0.14137554 0.21711165 -0.15031418
-0.42382348 0.08051375 -0.23108661 -0.49483457 0.26295617 -0.38885164 -0.31353012 0.5147097
0.2604168 -0.25644365 -0.00059952954 0.33390698 -0.49417448 -0.40342256 0.25462887 0.24052024
0.009913142 0.05476757 -0.11294775 0.09754592 0.39656886 0.23485267 -0.38878408 -0.47836533
0.58214176 0.2966405 -0.5120244 0.15828508 0.59046066 0.27479205 -0.04994945 -0.50809395
0.32711738 0.3961134 -0.13166995 0.11404386 -0.20554826 0.45949346 -0.4635937 -0.19668308
0.4636849 0.40239596 -0.014058272 -0.22205341 0.57212144 -0.5860314 -0.3907956 0.41259664
-0.21973565 0.02960954 0.31276745 -0.3590043 0.38079613 -0.17360337 0.64623266 0.16184568
-0.3691792 -0.12011126 -0.6690334 -0.016209727 -0.13014793 0.3945926 -0.052642964 0.4027519
-0.45826608 -0.16821268 -0.36496437 0.09935765 -0.07401502 0.27545902 0.24314286 0.2969438
0.32881486 -0.40853173 -0.52400327 -0.48539022 -0.28785634 -0.43715388 0.40574643 0.10939481
0.41846198 -0.5105541 -0.47743678 -0.1934394 -0.6684379 -0.2868679 0.26253465 -0.18478765
0.58813924 0.47425175 -0.50876516 -0.035150196 0.35472894 0.1668327 -0.45572597 -0.43993798
-0.19038625 -0.21243553 -0.15749241 -0.20326886 -0.13286471 -0.17004931 0.46641484 -0.35633287
-0.4072144 -0.32649544 0.42884973 0.13642617 -0.151315 -0.034352295 -0.012049761 -0.054778457
-0.025417604 0.10810905 0.18925406 0.31144708 -0.32295617 0.42312345 0.07464502 -0.40009665
0.064558916 -0.0541225 0.14492223 0.17801636 0.11858097 -0.48298898 -0.23668368 -0.024960639
0.15986106 -0.5083298 -0.10567687 0.62572277 -0.031686056 0.21718012 -0.19151929 0.3317875
0.5150136 0.056418296 -0.24902487 0.089962214 -0.05569368 0.2561013 0.20672989 0.10125901
-0.4864328 -0.27662167 0.529511 0.00915543 -0.1601543 0.46513242 0.2820838 0.014566289
00000000: 5af5 a93e 4f0b c1be 4dc0 4b3e 7b0c f2be
00000010: a224 f03e b4aa 9c3e 588b e1be 2ced 80bd
00000020: 60fd 0ebe a35d 07bf 4070 8c3e 390d d83e
00000030: d4a9 abbe d01a f5be e75e eabd b380 01bf
00000040: bcd3 393e 4e86 bb3e b9b6 d43e 3ef7 0ebf
00000050: 75bb 02be 3ef9 433e 59f8 13bd 806a a23e
00000060: 01f9 7f3e 3306 60be 6c26 febe 5dbd ac3e
00000070: 2646 dabe d013 633e e2ca 81be 0cd6 86be
00000080: 3763 1c3e 0b0c 1dbf 2129 0abc b440 b93e
00000090: 8b77 72be 7838 b23e 7916 80bd ea29 a13e
000000a0: d832 4a3e c052 993d ac5f cabe 4889 69bd
000000b0: b525 2abe fafb cabe 4ba9 0f3e 0085 823e
000000c0: e966 073f 1826 37bf 1357 973e 938f d9be
000000d0: e4c8 013f ffeb df3e f4c4 cb3d a868 73be
000000e0: 42d8 b73e f5b1 02bc 0538 7a3e a02c ac3e
000000f0: 971d ab3e d63a 343d 6f67 083d ab2f dabe
00000100: 43a4 f13d af93 d03e 44f2 0b3d b3ec e53e
00000110: 8d7c a23d 01cf 3dbe 06a1 963e 9bdd 773e
00000120: eafa b8be 7727 b0be 0027 96be faed 00be
00000130: c4c6 fdbd 4d5e f33e 668b ff3e 366f 503d
00000140: 88b5 6fbe d2a6 1fbe 7cb7 00be a161 5d3e
00000150: 6336 94bd 7a18 d73e 446f 02be 239d d4be
00000160: a14c ff3d 63c9 05bf 36b6 b53e f8d8 2d3f
00000170: bb3d 213f 458a 623d d3df 4cbe 7836 f6be
00000180: 1483 513e 718c 2cbe 6939 c63d b843 78bc
00000190: ada4 0cbf c0c4 10be 8452 5e3e f6eb 19be
000001a0: 64ff d8be 65e4 a43d f8a1 6cbe f55a fdbe
000001b0: 31a2 863e 9017 c7be 0587 a0be 04c4 033f
000001c0: 5a55 853e 954c 83be bf29 1dba dbf5 aa3e
000001d0: 7004 fdbe 678d cebe b75e 823e f04a 763e
000001e0: bb6a 223c f653 603d 2651 e7bd 28c6 c73d
000001f0: 130b cb3e 387d 703e b50e c7be 4dec f4be
00000200: 3e07 153f 43e1 973e 0814 03bf 7c15 223e
00000210: 6e28 173f 8bb1 8c3e cb97 4cbd 7212 02bf
00000220: ee7b a73e 60cf ca3e 7dd4 06be d48f e93d
00000230: 3e7b 52be ba42 eb3e 275c edbe 4a67 49be
00000240: 1b68 ed3e d806 ce3e ab54 66bc f861 63be
00000250: 8d76 123f 2706 16bf 5c16 c8be de3f d33e
00000260: 6202 61be b58f f23c 0e23 a03e 69cf b7be
00000270: b6f7 c23e 15c5 31be 816f 253f e0ba 253e
00000280: 0e05 bdbe e4fc f5bd c645 2bbf 43ca 84bc
00000290: 8045 05be 0b08 ca3e 26a0 57bd 7f35 ce3e
000002a0: daa1 eabe f23f 2cbe 9cdc babe 067c cb3d
000002b0: 3095 97bd f708 8d3e 71fa 783e 0509 983e
000002c0: 6c5a a83e 122b d1be 1425 06bf 1185 f8be
000002d0: e861 93be a2d2 dfbe ffbd cf3e 630a e03d
000002e0: a640 d63e acb3 02bf 9872 f4be fa14 46be
000002f0: bf1e 2bbf 59e0 92be f16a 863e f938 3dbe
00000300: 4b90 163f 20d1 f23e 6f3e 02bf a7f9 0fbd
00000310: 089f b53e 31d6 2a3e ea54 e9be 8d3f e1be
00000320: 9df4 42be b388 59be b145 21be b625 50be
00000330: b00d 08be 6821 2ebe edcd ee3e 4371 b6be
00000340: 687e d0be 692a a7be 3192 db3e 4db3 0b3e
00000350: 52f2 1abe feb4 0cbd 5c6c 45bc 605f 60bd
00000360: 9438 d0bc 4768 dd3d d1cb 413e fe75 9f3e
00000370: 835a a5be a3a3 d83e 7ddf 983d 78d9 ccbe
00000380: 7737 843d 8eaf 5dbd 7e66 143e ec49 363e
00000390: 94da f23d 554a f7be 355d 72be 417a ccbc
000003a0: 9eb2 233e e721 02bf 1d6d d8bd 5e2f 203f
000003b0: 3dc9 01bd 7764 5e3e a21d 44be 0de0 a93e
000003c0: eed7 033f df16 673d 6000 7fbe 1c3e b83d
000003d0: 0e1f 64bd b61f 833e 00b1 533e e260 cf3d
000003e0: b80d f9be 5ba1 8dbe 088e 073f a800 163c
000003f0: 7dff 23be d625 ee3e 4a6d 903e 72a7 6e3c
