model.pth (torch, 29387 bytes, 9 tensors)

conv1.bias f4 [16]
000000 0c ef 31 3c 0b 31 45 bc 99 85 b9 3c ee ff 9b bc
       0.010860216 -0.012035619 0.022646712 -0.019042935
000010 43 1c e4 3c 73 96 92 3b 67 51 3f 3d 4d 0c 7b 3c
       0.027845507 0.0044735014 0.04670849 0.015322757
000020 a3 a5 34 bc 2a 18 9f bc 05 cf dd bb f1 a2 3a 3d
       -0.011025819 -0.019420702 -0.0067690634 0.04556555
000030 43 a1 37 3c 7d 72 87 bb d4 72 a1 bc bf 29 28 bb
       0.011207881 -0.004133521 -0.019708075 -0.0025659648

conv1.fc_self.weight f4 [16, 174]
000000 af ca 80 be c0 db 89 3e 20 57 37 3e df b4 62 3e
       -0.25154635 0.26925468 0.1790433 0.2213931
000010 36 e7 88 3f e5 71 1e be 9f ab 1c bd fd f4 d7 3d
       1.069556 -0.15473135 -0.038249608 0.10544775
000020 12 cf a5 3c cb ee 96 bd 19 5e cd bd 2c 7e 16 be
       0.02024034 -0.07369765 -0.10027713 -0.14696568
000030 f6 16 e9 3c 45 b4 2f 3e a1 2c 37 bf 1e 0e 9b 3f
       0.028453331 0.17158611 -0.71552473 1.2113683
000040 d4 93 76 3d ca 3f 19 be d4 0e db 39 b2 fe 89 3e
       0.060199574 -0.1496574 0.00041781983 0.2695213
000050 d6 0a ba 3d 96 4c 48 3e a5 83 3b 3c 23 1b 2a bc
       0.09084098 0.19560465 0.011444961 -0.010382446
000060 c0 26 d0 bd 41 18 15 be b9 b4 9e bc 5d b8 c3 3c
       -0.10163641 -0.14560033 -0.019373285 0.023891622
000070 b5 1a 95 b9 77 88 ee bd b1 3c 92 bd 9a 76 c1 bd
       -0.00028439393 -0.11647122 -0.07140482 -0.094464496
000080 77 47 41 3e 99 cf 2c bd 79 b3 1c bd 0d b8 e5 3c
       0.18874918 -0.042190168 -0.038257096 0.028041864
000090 f5 f5 34 bc 2e 49 a2 3d 6b 5f ed bc 02 2e 5b bc
       -0.011044969 0.07924114 -0.028976163 -0.013377668
0000a0 07 ee 88 3d 98 51 06 bd 25 d3 a6 3d af b7 bc bd
       0.06686025 -0.032792658 0.081457414 -0.09214722
0000b0 38 83 63 bd 39 d1 3d 3d 0a e7 8a be f7 21 5d 3e
       -0.05554506 0.04634211 -0.27129394 0.21594988
0000c0 9c 55 58 bd f8 5f fb bd e7 91 28 3e af 5b 4b be
       -0.05281602 -0.12274164 0.16461907 -0.19859193
0000d0 c8 02 27 be f5 fe 21 3d b4 84 3a 3c 2a 42 b1 bb
       -0.16309655 0.039549787 0.011384178 -0.0054094987
0000e0 e5 7c 90 3e ba ad e5 bd 58 dd 3b be 62 b1 24 bd
       0.28220287 -0.11214776 -0.18346155 -0.040208228
0000f0 b1 29 ac 3d 0b f5 0b 3e ca 23 cb 3e 09 5f 62 3d
       0.084063895 0.13667695 0.39675742 0.055266414
000100 08 d5 74 bd 6f 51 c2 bd 8a 74 01 3e 04 5a 38 3e
       -0.059773475 -0.094881885 0.12642112 0.18003088
000110 8a e9 95 3c a5 ab 9b 3e 35 1e ce bc 7a f6 1d 3e
       0.018299837 0.30404392 -0.025160888 0.15426055
000120 b1 f9 12 3d 52 96 59 bd f0 d2 57 3e 22 a6 fe bc
       0.035882656 -0.053121872 0.2107656 -0.031085078
000130 bd 0f 15 3e aa d5 08 be 66 4f 98 be 34 fa 04 be
       0.14556785 -0.13362756 -0.29748076 -0.1298607
000140 d3 7d 15 be 14 58 3f be c1 61 2d be 00 43 67 bc
       -0.1459878 -0.18685943 -0.16931821 -0.014115095
000150 d6 b4 14 bd cc d3 d3 3d 6e 69 26 3d 4b c7 d8 bc
       -0.03630527 0.103431314 0.04062789 -0.026462218
000160 b1 e4 48 be 99 da be be 71 ce 20 3f 2c 99 58 3e
       -0.19618489 -0.37276152 0.62815005 0.2115218
000170 fb dc 5c 3d 39 b3 55 3d e8 bd bc bc 8f 85 62 3e
       0.05392168 0.052172873 -0.023039773 0.22121261
000180 17 86 1c 3e db d3 47 3e 12 14 93 bd 58 5c 75 bd
       0.15285526 0.1951441 -0.071815625 -0.05990252
000190 e5 44 43 be f3 3c 07 3e d5 2b 12 be 94 35 f4 3c
       -0.1906925 0.13206844 -0.14274533 0.029810704
0001a0 7c 4c 47 be aa c4 5b bc d5 cd 9b 3c 9e 33 dc bd
       -0.1946277 -0.013413588 0.019019047 -0.10752033
0001b0 68 5b 65 be d4 58 02 3e f1 60 86 be 10 8b 61 3f
       -0.2239815 0.12729198 -0.26245835 0.8810282
0001c0 4d f2 81 bd a9 1c 02 3d 3d 7f a2 3c a2 99 66 bd
       -0.06345043 0.031765614 0.019836063 -0.05629886
0001d0 1b ad 84 bd 92 82 88 3d 75 9b 95 3c 33 8d 82 3d
       -0.0647833 0.06665529 0.018262604 0.06374588
0001e0 d7 eb 3f be ad d6 a0 3d 77 6d f6 bd 31 6f 95 3d
       -0.1874231 0.07853446 -0.120325975 0.07296599
0001f0 ee b1 74 be ba b3 b0 3d 3e 9a 5a 3e 56 ca e5 3d
       -0.23896 0.0862803 0.21347901 0.11220233
000200 55 c5 3f 3e b8 25 3d 3e fd fb ce 3e fb 81 d8 be
       0.1872762 0.1847142 0.40426627 -0.42286667
000210 91 50 05 be f1 8f 7b be 02 58 bf bd eb f1 69 be
       -0.13019015 -0.24566628 -0.09342958 -0.2284619
000220 16 69 71 be 3f 38 89 3c 9e 18 82 bd 55 4e 50 3d
       -0.23575243 0.016750453 -0.063523516 0.050855953
000230 4d b2 fa 3d d4 79 94 3e 7e 56 2e bc 4d c0 af 3e
       0.122410394 0.28999197 -0.0106407385 0.343264
000240 5e 32 8a 3e c0 fa 46 3e ce 27 31 be 86 6d 9f bd
       0.26991552 0.19431591 -0.1730034 -0.07784562
000250 3d 8d c6 bd ab b9 e6 bd 36 f8 9b be 12 72 58 be
       -0.09694908 -0.11265882 -0.30462807 -0.21137264
000260 87 28 f4 3d f6 8b 14 3f 8e 6b 5b 3f 37 4b 78 bd
       0.119217925 0.58026063 0.8571099 -0.060618605
000270 54 00 b1 be 04 f2 91 be 91 f6 f1 3d 2d 3b 95 bd
       -0.34570563 -0.28504956 0.11814607 -0.072866775
000280 1e f0 e6 3d f0 03 cc be fd ed 0e be 6c 43 3e 3f
       0.112762675 -0.39846754 -0.13957973 0.7432163
000290 8c 09 55 3a 4e 10 30 3c 4b 50 07 3e cd 78 1d 3e
       0.0008126728 0.010746075 0.13214223 0.15378113
0002a0 fc e2 8f be 73 b4 23 3d 07 52 cc be 44 ef ac 3e
       -0.28102863 0.03996701 -0.39906332 0.33776295
0002b0 e4 6b 6a 3d 87 bc 56 3e 38 70 1b 3e 92 f1 a8 bd
       0.0572318 0.20970355 0.15179527 -0.08249201
0002c0 64 cd 9a 3d 4c 3c 42 3e e1 d4 b6 3b 9a ef e0 be
       0.075587064 0.18968314 0.0055795764 -0.439328
0002d0 f1 34 52 bd 0d 94 0f 3f 9d 11 0a be 7d 83 8f be
       -0.05132002 0.5608528 -0.13483281 -0.28030005
0002e0 b7 a4 9d be b2 78 1b be 2b 24 bc bd be cf e0 bd
       -0.3078973 -0.1518276 -0.09186586 -0.10977124
0002f0 5e a6 1a 3d 6b 77 dd 3d 99 c5 a6 bd 93 3e a4 be
       0.037756316 0.10813793 -0.081431575 -0.3207899
000300 b2 a9 25 be ba 5f ec bc 34 fd 33 be e6 af 78 bc
       -0.16178015 -0.02885424 -0.17577058 -0.015178656
000310 20 0c 77 be 08 60 c5 be 0a 75 12 bf be 9f 1a bf
       -0.24125719 -0.3854983 -0.5720984 -0.604
000320 29 23 90 be 57 10 b1 bd fd 13 04 bd f3 a0 e9 be
       -0.28151825 -0.08645695 -0.032245625 -0.45630607
000330 f5 03 c4 bd 4b d9 31 be fe 14 9d 3d e4 6d 91 3d
       -0.09571067 -0.17368047 0.076700196 0.07101038
000340 ba cc 4e be d9 65 32 3e b2 c2 18 be d5 00 5b ba
       -0.20195284 0.17421664 -0.1491802 -0.0008354311
000350 b5 ba aa bd 34 f5 37 be a4 0d b3 bd 8a 00 75 bd
       -0.08336393 -0.17964631 -0.08742836 -0.059814967
000360 de 29 5c be ae c1 4e be 41 06 76 bd d0 d8 42 3d
       -0.21500346 -0.2019107 -0.060064558 0.04757005
000370 24 9d 81 3e 2b 6c 6c be da bf e4 bd fc 99 ff 3e
       0.253152 -0.23088138 -0.11169405 0.49922168
000380 41 a1 fe bc aa 7f b0 3d 01 c3 c0 bd 13 75 c0 be
       -0.031082751 0.086181 -0.09412194 -0.3758932
000390 1e 92 62 be ac 9a 9b be 4a 2e 88 3e 2e c9 53 be
       -0.22126052 -0.30391443 0.26597816 -0.20682213
0003a0 d5 97 07 be 19 35 41 be 27 b9 29 be 78 ec 16 be
       -0.13241513 -0.18867911 -0.16574536 -0.14738643
0003b0 b1 bf 3a bd 5d a6 50 be f9 b4 d9 bd 7b c3 8b 3d
       -0.045592967 -0.20375963 -0.10630221 0.06824394
0003c0 69 cd 42 bd f8 61 67 3d 13 70 e9 3d 62 2c 23 bd
       -0.047559176 0.056489915 0.113983296 -0.03983725
0003d0 59 52 f0 3e 8c c7 3b be e2 3d 3e 3d d1 11 0a 3e
       0.46937826 -0.1833784 0.046445735 0.13483359
0003e0 7d d3 dd 3c f6 e2 11 bd 58 18 c9 bd 38 36 b9 3e
       0.027078385 -0.035616837 -0.09819096 0.36174178
0003f0 d4 da ac 3d 8b 97 91 3e 2a f8 ba 3d 6e 96 88 bd
       0.08440176 0.2843593 0.09129365 -0.06669317

conv1.fc_neigh.weight f4 [16, 174]
000000 ec c0 56 bf 06 15 81 3b a0 df 91 3e 05 52 87 be
       -0.83888125 0.003939274 0.28490925 -0.26429763
000010 c8 86 be 3f 98 b9 7c be 94 20 a8 be 05 3e 7b 3e
       1.4884882 -0.24680173 -0.32837355 0.24535377
000020 85 52 50 3e 08 4f fb be f4 a6 1e bd 09 93 de 3e
       0.20343979 -0.49083734 -0.038733438 0.43471554
000030 16 3c 22 3f 90 f4 b6 3f 61 a4 da bf 3d 0f 36 3f
       0.63372934 1.4293385 -1.7081414 0.71117
000040 70 55 24 3e 6f 67 96 be 3a c3 ce be d5 7f 05 3e
       0.16048217 -0.2937579 -0.4038332 0.13037045
000050 67 f2 65 be 84 6c 83 be 1e d2 4d 3d 86 eb 82 3e
       -0.2245575 -0.25668728 0.05024921 0.25570315
000060 eb 32 0c be 72 c1 e4 be 94 d2 66 3d c1 90 05 3e
       -0.13691299 -0.44678837 0.056353167 0.130435
000070 31 a5 30 3e 8d 56 b1 bb ff 9e fa bd 0f f6 c6 be
       0.17250516 -0.005411929 -0.12237357 -0.38859603
000080 aa 9c 79 3d b7 8e 40 be c0 aa a4 bd 3e b3 2c be
       0.060940422 -0.18804441 -0.080403805 -0.1686525
000090 bc 81 be bd 24 97 ef bd fa d3 ca bd 17 cb fb bd
       -0.093020886 -0.1169875 -0.099037126 -0.12294596
0000a0 83 cd 90 3d 99 20 c6 be 71 2d f1 3d cd c2 a9 be
       0.07070448 -0.38696745 0.117762454 -0.33156434
0000b0 9d c6 72 bc 57 87 af 3e 41 59 2d bf a6 61 68 bf
       -0.014817861 0.34282944 -0.67714316 -0.90774
0000c0 80 bc 3d 3e 72 57 fd 3e 26 59 6b 3e 7d 11 16 bf
       0.18528938 0.49480778 0.22983226 -0.58620435
0000d0 44 48 cc be f6 e4 97 3e 95 6e f8 3e 54 19 fc bd
       -0.39898884 0.2966687 0.48521867 -0.123095185
0000e0 b7 fc 19 3f e0 06 57 3d e0 43 60 be 06 71 23 be
       0.6015124 0.05249679 -0.21900892 -0.15961084
0000f0 04 a5 fa 3c 2b 29 79 be a4 a3 df 3f fb b0 f3 bc
       0.030596264 -0.2433211 1.7471814 -0.029747477
000100 4a 18 44 be 50 e1 4d 3e 7a 8d a3 3e 35 cc ba 3e
       -0.1914989 0.20105481 0.31943876 0.36483923
000110 64 1d 49 3e fb ec 9b 3e 6c 24 dd 3d e3 f3 b4 3e
       0.19640118 0.3045424 0.107979625 0.3534232
000120 5d 19 db 3e eb f6 ed bd c1 4b 83 3f 1c 4d 4e be
       0.42792788 -0.116193615 1.0257493 -0.20146602
000130 74 f6 2b 3f f6 25 5c bc 07 28 69 be 6b 6e 19 be
       0.6717293 -0.013436785 -0.22769175 -0.14983527
000140 90 3d 9c bd 95 1b 15 3f fe cb 80 be f6 9c b2 3e
       -0.076289296 0.5824521 -0.25155634 0.34885377
000150 27 36 4f bc 95 02 8f 3e d6 9e 13 3f f1 52 b7 3d
       -0.012647188 0.27931657 0.5766424 0.08951367
000160 83 a2 0f be ad 8c 40 bf dd 26 90 3f 54 06 f6 3e
       -0.14026837 -0.75214654 1.126186 0.48051703
000170 98 0d a5 3e 28 e0 92 3e b6 75 ea 3c 7c 6f 2b 3f
       0.32236934 0.28686643 0.028620582 0.66966987
000180 68 84 03 3f a3 c3 ba 3e ad da 13 be a6 dd 9a bd
       0.5137391 0.36477384 -0.14438887 -0.07561807
000190 0a 96 d0 be ff 64 31 3f 09 fb e4 3d 18 e6 29 bf
       -0.4073947 0.6929473 0.11180694 -0.6636672
0001a0 2e b7 3b bf 8c e1 0e be 59 1a 56 3e de 83 b5 bc
       -0.73326385 -0.13953227 0.20908488 -0.022157606
0001b0 45 8f dc bd 75 ae 53 3e df 2a 85 be 3c 96 7c 3f
       -0.10769514 0.20672019 -0.2600927 0.9866674
0001c0 2a 86 82 bf 44 e6 3a bf 0c 6b cd bd cf 7e 91 3d
       -1.0197194 -0.7300761 -0.10030183 0.07104265
0001d0 99 ca 00 be 0c cf 35 3e f4 52 fa bd 34 15 39 bd
       -0.12577285 0.17754763 -0.12222853 -0.045186237
0001e0 ee 67 db bd 07 f2 72 bd 7c b0 b8 be 3a 14 eb be
       -0.107131824 -0.059312847 -0.36072147 -0.4591387
0001f0 fc de a6 bf f3 06 ba bc 06 27 74 3d d8 bc b3 bd
       -1.30368 -0.022708392 0.05960753 -0.087762535
000200 7c 52 e4 3e c5 88 f9 3e 6b 72 be 3f 34 78 03 bd
       0.4459418 0.4873716 1.4878668 -0.032097057
000210 17 43 d9 bc 56 27 06 3f 85 57 6b bd 1d 44 ab be
       -0.026521249 0.5240377 -0.057456512 -0.33450404
000220 d0 e2 d6 be cf 42 39 3f b9 fa 73 be dd a4 25 bd
       -0.4196992 0.72367567 -0.23826112 -0.04044043
000230 13 8f ab 3d 3a 66 65 3e 08 ac 05 be 01 d1 91 3e
       0.083768986 0.22402278 -0.13053906 0.2847977
000240 f8 fb 00 3f 2e 7f c8 3e b0 22 05 be d1 b1 2a bf
       0.50384474 0.3915953 -0.13001513 -0.66677576
000250 4a 82 c6 be f3 8a c0 3e 4e e0 07 be 0f 82 0e 3e
       -0.38771278 0.3760601 -0.13269159 0.13916801
000260 26 a6 6f 3f 32 7d 7b 3f 68 a2 9c 3e 20 ff d6 bc
       0.936129 0.9823791 0.30592656 -0.0262447
000270 3d 88 5f bf 96 32 cb be 5f ec 3a 3e ef 33 90 3d
       -0.8731726 -0.39687032 0.18254231 0.070411555
000280 03 a1 46 3e 5a 0d 04 c0 2a 5a 6e bd 65 91 b0 3f
       0.19397359 -2.063315 -0.058191456 1.3794371
000290 5f 23 98 be 3b 49 a2 3e 1a 4c 87 3e db 9d 5a 3e
       -0.29714486 0.31696495 0.26425248 0.2134928
0002a0 84 ef a9 be e7 05 c4 be 27 b1 06 bf 01 1d 4c 3e
       -0.33190548 -0.38285753 -0.52614063 0.19932939
0002b0 32 ac 96 be 6c c7 74 3e 1f 29 87 3e af 10 31 3d
       -0.2942825 0.23904198 0.2639856 0.0432288
0002c0 4e f2 c1 3e e0 c4 3b 3f ef 9a dc 3e 11 83 e3 bb
       0.37880176 0.7334728 0.43086955 -0.0069431146
0002d0 65 a1 cb be 1f 09 62 3f 92 4e 94 bc d7 ce d6 bf
       -0.39771572 0.8829517 -0.018103871 -1.6781873
0002e0 a5 04 f7 be 3e 79 82 3f e3 72 f6 3e bb eb ba be
       -0.4824573 1.019325 0.48134527 -0.36507973
0002f0 1a 94 27 3f 37 bc 1d 3f 7b a0 72 3f 34 d6 b6 bd
       0.6546036 0.6161532 0.94776124 -0.08927575
000300 93 81 de bc bb f9 48 bc bc 99 26 3e c9 66 12 3e
       -0.027161395 -0.012266572 0.16269583 0.14297022
000310 41 41 11 3e 17 3a 88 3d 63 4c 22 bf 0f 3d b0 bf
       0.14185049 0.06651705 -0.63397807 -1.3768634
000320 90 8a b6 3e 68 98 8c 3e ab 74 d7 3e 50 f7 df be
       0.3565259 0.27460027 0.42081198 -0.43743372
000330 8f 84 e4 be 29 0d d3 bd cd 55 e9 3e 23 8e 3b 3d
       -0.44632384 -0.103052445 0.45573273 0.04578985
000340 cd 5f 98 be 0a 7f 15 3f 89 9e 73 be c2 48 95 3e
       -0.2976059 0.5839697 -0.23790945 0.29157072
000350 cc f4 b2 3c 58 fe 0b 3d a1 4d dc 3d b1 46 64 bd
       0.021845244 0.034178108 0.10756994 -0.05573148
000360 77 2f 2b bf bf 30 ad be 50 34 64 3d 58 a8 57 3e
       -0.668693 -0.33826253 0.05571395 0.21060312
000370 33 4f 8e 3e 5e e1 e2 be e9 83 16 bf 87 60 6c be
       0.277948 -0.44312567 -0.5879503 -0.23083697
000380 3b 79 40 bf 62 5e 1e 3f e0 91 42 3e 26 81 44 3e
       -0.75184983 0.61862767 0.1900096 0.19189891
000390 06 c5 49 be f8 62 13 3e ae 73 ea 3f 2c 33 4c 3e
       -0.19704065 0.14393222 1.8316553 0.19941396
0003a0 0d 81 81 3c 98 5b 6a be 46 99 12 be cd 37 3a be
       0.015808607 -0.22886503 -0.14316282 -0.18185349
0003b0 f9 0b af 3e f0 3e 3a be c1 3e e1 3e 03 d1 10 3f
       0.34188822 -0.18188071 0.4399319 0.56568927
0003c0 47 ba 1b 3f 7a 47 83 3e 53 e8 04 bf 1d 86 41 bf
       0.6083111 0.2564047 -0.51917 -0.75595266
0003d0 cc f9 de be 04 ab 78 be b0 3d 4c be b5 3f f9 bd
       -0.43549955 -0.24283987 -0.19945407 -0.12170354
0003e0 01 a5 aa 3d dd 99 7c be 59 12 36 3e c6 e2 02 3e
       0.08332253 -0.24668069 0.17780437 0.1278182
0003f0 65 17 34 be c2 7b 4f 3e 64 bf 95 3c b4 25 08 be
       -0.1758705 0.20262054 0.018279739 -0.13295633

conv2.bias f4 [16]
000000 06 f2 ef 3c 10 2a 06 3d ee 61 5c bc 5a bf fa bc
       0.02929021 0.032754958 -0.013451083 -0.030608822
000010 82 01 9b bc 50 c1 38 3c 2e 2f af 3c 5c e4 fd bc
       -0.018921617 0.011276558 0.021384802 -0.03099268
000020 d2 70 09 3d 0a 53 2e 3c bb e6 a0 3b c0 af 9b bb
       0.03355486 0.010639915 0.0049103177 -0.0047511756
000030 17 f2 2a 3c 34 38 79 3b 14 a1 77 3b d8 29 cf b9
       0.010433695 0.0038027884 0.003778522 -0.00039513293

conv2.fc_self.weight f4 [16, 16]
000000 83 13 59 3d 7b 1f d3 3b 23 c8 d5 3d b8 d4 44 3e
       0.052997123 0.0064429617 0.10438564 0.19221771
000010 58 b7 1d 3f cd 01 34 3c d0 e6 da be 4d 08 a3 be
       0.61607885 0.010986757 -0.4275422 -0.3184227
000020 b5 a0 3c 3e d8 2a 16 be 71 e6 8a 3e bf 8a a4 bd
       0.1842068 -0.14664781 0.27128938 -0.08034276
000030 c3 06 07 bf bf cf 73 3e 5f d9 eb be 3c 13 2e be
       -0.5274469 0.23809718 -0.46064278 -0.16999525
000040 8c 9d 06 3f 98 79 dc 3c 96 5f 04 3f 07 a8 8e be
       0.5258415 0.02691345 0.5170835 -0.2786257
000050 cd 92 25 3e e6 63 34 3e 98 7b 9f 3e 10 96 8f bd
       0.16169281 0.17616233 0.31148982 -0.07011044
000060 fd 2c 81 bd 33 66 20 be 1b 6e 46 3e 08 36 d1 be
       -0.06307409 -0.15663986 0.1937794 -0.40861535
000070 3d 14 48 3f ed e9 e1 3d c3 6a ee 3c f3 3c 3a be
       0.7815588 0.11030946 0.029103642 -0.18187313
000080 c8 59 57 3e ac 7a 93 3b 5d d0 c6 3d 66 6e f4 3e
       0.21030343 0.0045007076 0.09707711 0.47740477
000090 cb d6 d9 3c 59 ba 6e 3e fc 9f 11 3e db df c2 be
       0.02659168 0.23313273 0.14221185 -0.38061413
0000a0 e9 d8 6b bd 39 a1 a2 bd ad 01 47 be 5e b2 ed bd
       -0.05757991 -0.07940907 -0.19434233 -0.116062865
0000b0 bc 4e d9 bd a7 0c 8d 3e df 5a 12 3d 54 2f 19 be
       -0.106107205 0.27548715 0.035731193 -0.1495946
0000c0 45 28 47 3e 6a 58 e7 3d da 00 9e 3e 89 4c 38 be
       0.19448955 0.112961605 0.30860025 -0.17997946
0000d0 ac 76 4d 3e 0a 4d 74 bc 4e a5 fc 3d 37 8b 85 3b
       0.20064801 -0.014910946 0.12336217 0.0040754336
0000e0 ed a7 0c be a1 ca 91 3e d7 0d 8c 3e 1e e5 0b 3e
       -0.13735934 0.28474906 0.2735431 0.1366162
0000f0 aa 82 42 3e ec 4e 98 bd 57 90 1f bc f6 95 05 bf
       0.18995157 -0.07436928 -0.009739003 -0.5218195
000100 e2 3b b5 3c f1 3e 57 3e 32 1d df bd 32 ee d5 bd
       0.02212328 0.21020104 -0.108942404 -0.10445823
000110 d9 ef 3f bf 40 93 11 be b7 0c 0c 3e 62 2c 68 3e
       -0.74975353 -0.14216328 0.13676725 0.2267318
000120 5a 06 65 be 5c f6 37 3c c7 92 8b bd 62 05 61 3e
       -0.22365704 0.01122817 -0.06815105 0.2197471
000130 7d 45 ab 3e 73 45 3d be 8a 90 0a 3e cb be b4 3d
       0.33451453 -0.18483524 0.135317 0.08825453
000140 af 91 f4 3d 47 81 4f 3e 9a a2 b6 be 80 f1 2e 3e
       0.119418494 0.20264159 -0.3567093 0.17084312
000150 96 e1 72 bd 68 66 5c be 5b 0d b6 bd e8 76 ad be
       -0.059297167 -0.2152344 -0.08889266 -0.3387978
000160 87 4f 49 3f 30 d3 3b 3e e4 a0 40 be bf 44 28 be
       0.78636974 0.1834228 -0.18811375 -0.16432475
000170 63 a5 c1 3d 3c f2 41 be ec 48 e6 3e ee 0c 6d be
       0.09455373 -0.18940061 0.4497751 -0.23149464
000180 4b 69 3b 3e 3d 50 d8 3d ba e8 90 3e 1c f1 f7 be
       0.18301885 0.10562179 0.28302556 -0.4842614
000190 d0 44 32 bd 83 bf 16 3e 58 8b 54 bd cc 97 b9 3e
       -0.043522656 0.14721493 -0.0518907 0.36248624
0001a0 cd 3e 64 be 23 52 05 be 23 8c 7d bd 32 a5 64 be
       -0.22289582 -0.13019614 -0.061901223 -0.22328642
0001b0 a1 dc 08 3e 52 a6 1c 3f c0 20 05 bd 2b d4 8a be
       0.13365413 0.61191285 -0.032501936 -0.27114996
0001c0 57 a5 fd 3c 34 a7 d4 bd d0 7d c4 3e 87 20 66 bd
       0.03096263 -0.10383454 0.38377237 -0.056183364
0001d0 bb 7b 9b 3e 95 e2 99 be 7b 33 e5 bd 5e a8 ed bd
       0.30367836 -0.3005568 -0.1119146 -0.11604379
0001e0 63 b2 af 3d 9e 4e 13 3e 6f 42 f8 bd f3 33 b2 3d
       0.085789464 0.14385459 -0.12122046 0.08701315
0001f0 49 a1 cd 3e 07 6f af be f6 62 22 3e 90 09 0e 3d
       0.40162113 -0.34264395 0.15858063 0.03467709
000200 30 0f 0f be 4e 04 b4 be 64 b9 6a be e5 83 76 3d
       -0.13970637 -0.35159534 -0.22922283 0.06018438
000210 2f 3c 84 be ef 1f 9d 3d bc 94 5a 3e a8 ed 6b 3e
       -0.25827166 0.076721065 0.213458 0.23039877
000220 3e c9 2c be 9f 38 d4 3d 13 75 a2 bd 22 aa fb 3e
       -0.16873643 0.10362362 -0.079324864 0.4915324
000230 36 8f 19 bf 9a 13 1a 3d 9e a3 d6 3d e9 48 c9 3d
       -0.5998415 0.03761635 0.10480426 0.0982836
000240 6f 8a 87 3d 77 52 59 bf 86 81 46 3a 28 8a af 3e
       0.06618201 -0.84891456 0.0007572401 0.34285092
000250 66 32 9d bd 93 3b f7 3d e3 b4 0f 3f c8 eb e5 bd
       -0.07675628 0.1207191 0.56135386 -0.11226612
000260 59 aa 96 3d 30 28 3d be 9f ad 96 be d8 4c ac 3e
       0.0735671 -0.18472362 -0.29429337 0.33652377
000270 da 46 bb bd 93 d5 df 3d bd 2a 37 3d f2 4e 30 3e
       -0.09144373 0.10929408 0.044718493 0.17217615
000280 5e f4 a0 be f1 03 24 bd 69 aa 22 3e 28 a9 be bd
       -0.31436437 -0.04004282 0.15885319 -0.09309608
000290 79 4d e6 bd f3 a2 48 be 05 d6 07 be 02 a5 fe 3e
       -0.112452455 -0.1959341 -0.13265236 0.49735266
0002a0 c7 af 12 bc 0a 82 13 be 0f 43 97 3d ae 33 97 3e
       -0.008953041 -0.14405075 0.07385837 0.29531616
0002b0 c9 4d b0 3d 17 17 ef be 0f d4 87 bd 01 8a e4 3e
       0.08608586 -0.46697304 -0.06632244 0.4463654
0002c0 58 c0 f9 bd 3d ba f1 ba 15 5b c7 3d 43 e7 af be
       -0.1219489 -0.0018442344 0.097341694 -0.34356126
0002d0 b2 f1 53 3d 48 c3 1d be cc 59 86 3e 91 75 f5 3e
       0.05174417 -0.15406525 0.26240385 0.4794126
0002e0 00 74 9e 3e 4f 6d 74 bd 7a 9e f4 3e 65 1c e0 be
       0.30947876 -0.059674557 0.47777158 -0.43771663
0002f0 01 76 56 be a5 d9 86 3d 97 d3 30 be 7b 06 e9 3c
       -0.20943452 0.06584481 -0.17268215 0.028445473
000300 c0 e5 be bc d0 f5 c0 3e 7c ad b8 3e 22 bc e1 bc
       -0.023302913 0.3768754 0.36069858 -0.027555529
000310 3e f9 31 be 33 1f 17 3e b1 9c 0a 3f 47 6b 45 be
       -0.17380235 0.14757995 0.5414534 -0.19279204
000320 1f 7b a6 3e 94 9c 79 be c1 a4 d2 be a6 29 a2 bd
       0.3251581 -0.24376136 -0.41141322 -0.079181
000330 a9 22 d3 bc 23 d1 bb bc d6 4b f5 bd 8c b4 91 3e
       -0.025773363 -0.022926873 -0.11977355 0.2845806
000340 49 6f 3e 3e 2e cb 0b bf 52 4b 60 3e 49 a6 b8 3c
       0.1859714 -0.546069 0.21903732 0.022540228
000350 ef d2 ef 3e 52 4b d1 3d 20 04 39 be 63 e2 de bd
       0.46840617 0.10219444 -0.1806798 -0.108830236
000360 0e fe 8c be 11 e4 5d 3d ce 3f b8 bd 34 a9 5c be
       -0.27537578 0.05417258 -0.08996545 -0.21548921
000370 9e d7 fc 3d ad 53 a3 3e a6 c6 d9 3e 5c cb e2 bd
       0.12345813 0.31899777 0.4253437 -0.11073944
000380 b6 6c 4a 3e e5 32 79 3d 67 d8 2c 3f 70 4b a0 be
       0.19768032 0.060839552 0.67517704 -0.31307554
000390 a9 6b 0c 3f a1 9a cd 3d 88 ac a6 3e 12 d7 60 3e
       0.54851776 0.10039259 0.32553506 0.21957043
0003a0 77 f0 03 3e f2 c4 12 3e f9 4c a9 3e d3 a8 1d be
       0.12884699 0.14332941 0.33066538 -0.15396433
0003b0 b6 4d 7d 3e 31 2a 80 bb af f8 53 3e 36 e6 34 bf
       0.24736676 -0.0039112796 0.20700334 -0.70663774
0003c0 03 0d 3b bd 68 c1 2c 3c 41 1c 87 be 95 72 72 be
       -0.045666706 0.0105441585 -0.26388744 -0.23676522
0003d0 e4 ac bc 3d c7 25 cb 3d 68 b0 96 be 27 0d 81 be
       0.09212664 0.09919315 -0.29431462 -0.25205347
0003e0 19 0f 7f 3d e6 fc 70 be 9f e1 18 bd 32 9b cc be
       0.062270258 -0.23533973 -0.037324544 -0.39962155
0003f0 34 64 ce 3e 65 c6 3e bc 41 7c 6a be 9c c0 1f bd
       0.40310824 -0.011643981 -0.22898962 -0.039002046

conv2.fc_neigh.weight f4 [16, 16]
000000 f6 d9 81 3f 10 7d 9b 3e 3d ea 6a bf 08 fa 34 be
       1.0144641 0.30368853 -0.9176367 -0.17673504
000010 5d 99 0c 3f 16 40 c0 be 14 5d 87 bc b1 d6 de 3d
       0.54921514 -0.37548894 -0.016523875 0.10880793
000020 93 f3 80 3e 3b 7d 63 be f0 93 f6 3e 1e 9b 3d 3e
       0.25185832 -0.2221574 0.48159742 0.18516204
000030 48 18 11 be a5 0a ca be 57 05 af bf e5 52 53 be
       -0.14169419 -0.39461246 -1.3673505 -0.2063709
000040 d2 45 b2 3f 36 d7 08 3f 5e 5b 9d 3f ab 23 dc bd
       1.3927557 0.53453386 1.2293508 -0.107489906
000050 9a e8 6d 3f 23 42 1d bf 0b 78 a1 3f 7c d8 1d bf
       0.92933047 -0.6142904 1.2614759 -0.61658454
000060 41 e8 0c be d9 ef 8b bf b5 3f 52 3f 09 12 1e bf
       -0.13760473 -1.0932571 0.8212846 -0.6174627
000070 53 1c 5f 3f 56 df 80 3e 8e 85 2e be 41 ef 93 be
       0.87152594 0.25170392 -0.17043135 -0.28893474
000080 4d 7d db 3e 2a 3a 5b be 15 5d ff be b5 5e 81 be
       0.42869034 -0.21408907 -0.49875703 -0.25267568
000090 d3 86 33 bf 00 45 b6 3d 18 b5 2f 3f 5b db 3c be
       -0.701276 0.088998795 0.686357 -0.18443052
0000a0 43 1a 05 bf 3c 47 98 bf ff 7f 4d bf aa bf 9d 3d
       -0.519932 -1.1896739 -0.8027343 0.07702573
0000b0 7f 50 03 be 9f ac 27 3f c1 a7 89 3f 07 c9 31 bf
       -0.12823676 0.65497774 1.075432 -0.6944737
0000c0 ab c2 9d 3e 49 c6 c8 3e b2 2e b8 3e 5f bc bc bd
       0.30812582 0.3921378 0.35973126 -0.092156164
0000d0 4c a6 7b 3e 31 cf dc 3d 67 fd 53 be af 09 3f bf
       0.24575156 0.10781706 -0.20702134 -0.7462415
0000e0 0f 82 0b 3e b5 21 88 bc 5d cd 1a 3f 50 6b 0e 3e
       0.13623832 -0.016617635 0.6046961 0.13908124
0000f0 89 87 0d 3f a4 92 a1 be 3c d1 c1 3e 12 71 48 bf
       0.55284935 -0.3155719 0.37854946 -0.7829753
000100 2b fd e4 3e ad 24 7c 3e b1 e4 4a 3e ac 15 3d bf
       0.44724402 0.24623366 0.19813801 -0.73861194
000110 dc f7 a7 bf a2 77 42 bf 9f a1 7f 3e d9 27 d8 3e
       -1.3122516 -0.75963795 0.24963997 0.422179
000120 be 5f ff be 63 ff 45 3f 7c 82 88 be f8 9d 37 3f
       -0.49877733 0.77342814 -0.26662052 0.71725416
000130 84 13 5f be 3a e8 87 3e 7f 7e 55 bf ff 83 10 bf
       -0.21784788 0.26544362 -0.8339614 -0.5645141
000140 17 02 a6 3c b5 64 00 3e f7 9a 33 bf 05 f6 99 3e
       0.020264668 0.12538417 -0.7015833 0.3007051
000150 d4 5d bc bd 59 55 0d bf 18 53 29 be a0 94 3a bf
       -0.09197584 -0.55208355 -0.16535604 -0.72883034
000160 87 24 98 3f 42 e3 c8 3e 8f 87 9c be f1 fe a8 be
       1.1886147 0.39235884 -0.30572173 -0.33007005
000170 f2 40 dd bd 16 4f 46 bf e4 b4 8a 3f e2 11 bb 3e
       -0.10803403 -0.77464426 1.0836453 0.3653708
000180 3e b8 da 3e 8e 10 d9 bb 39 9f 39 3f 0b cb 39 bf
       0.4271869 -0.006624288 0.7250858 -0.72575444
000190 12 d5 21 be fd 61 08 3f cc 4f c5 be c1 e3 57 3f
       -0.15803936 0.5327452 -0.38537443 0.843319
0001a0 8c e3 35 3f 70 ba 14 bd a9 2b 2c bd a0 a3 7a 3d
       0.71050334 -0.036310613 -0.042033825 0.0611912
0001b0 26 d1 24 3f ab 94 b2 3f 38 c7 62 3f 72 6a 05 bf
       0.64381635 1.395162 0.88585234 -0.5211555
0001c0 ba 5f 36 3e 4f 3b a0 3d 3e 9b 80 3f f5 3d ef be
       0.17809954 0.07823812 1.0047376 -0.46726957
0001d0 d3 07 b8 bd fb b8 8e bf c8 c1 03 bf 60 4e 17 bf
       -0.08985867 -1.1150202 -0.5146756 -0.59103966
0001e0 b4 85 48 be 7b ef 02 bd 4c c8 16 be ff 1d 39 3e
       -0.19582254 -0.031966668 -0.14724845 0.18077849
0001f0 09 ae cd 3d 5a 57 a0 3e e0 e4 fb be 24 f9 1c bf
       0.1004296 0.31316644 -0.49198055 -0.6131766
000200 be f5 be bc 96 7e 59 3d 0d 78 ce be ae 3e 09 bf
       -0.023310538 0.053099237 -0.40325966 -0.53611267
000210 2f 99 4d bd 67 eb c7 3e db 58 4f be 24 47 db be
       -0.050194915 0.39046785 -0.2024874 -0.42827713
000220 a3 c6 1d 3d 75 a8 16 3e 2a 26 a7 be 7d 15 db 3f
       0.038519513 0.14712699 -0.32646304 1.7115933
000230 b4 e2 65 bf 32 9e 62 be e4 5d 1b 3d c3 e1 bf 3e
       -0.89799047 -0.22130659 0.037931338 0.3747693
000240 d1 03 d7 be 05 94 02 c0 ea be 25 be 1b 55 ba 3e
       -0.419951 -2.0402844 -0.16186109 0.36393055
000250 5b 1d d3 be 32 71 ae 3e 19 21 6c 3e 8c 3d 29 bd
       -0.41233334 0.34070736 0.23059501 -0.04131846
000260 5e 64 22 3f f0 11 93 3e 1d b6 84 be e7 e2 1d 3f
       0.634344 0.28724623 -0.2592019 0.6167435
000270 f4 6f 18 3e 68 9a ce 3e 54 b5 5e bf d5 60 43 bf
       0.14886457 0.40352178 -0.86995435 -0.7631963
000280 1e 4e a4 3e d8 da cd 3e c8 2b a1 be b9 a9 0a bf
       0.3209085 0.40206027 -0.31478715 -0.54165226
000290 3b 27 1e bf 33 80 3b bd fe 76 91 be 60 e3 1a 3f
       -0.6177861 -0.045776557 -0.28411096 0.60503197
0002a0 6c 3a 73 3e fc 77 78 bf e7 5e a2 bd 91 04 43 3f
       0.23752755 -0.9705808 -0.079282574 0.7617884
0002b0 43 50 03 3f 0a 01 e1 be ed 90 8b 3f 6f 14 21 3e
       0.51294345 -0.43946105 1.0903603 0.15730451
0002c0 a6 10 2c bf 3a 3e 33 bf 86 3c 0d 3f bc e5 8a bf
       -0.67212903 -0.70016825 0.55170476 -1.0851359
0002d0 fe b1 33 3e f2 75 74 be 2b 64 50 3f 77 dc 38 bd
       0.17548367 -0.23873118 0.81402844 -0.045132127
0002e0 c9 e8 84 3d 6f 34 9b 3e 59 99 43 3f 28 29 48 bf
       0.06489713 0.3031344 0.76405865 -0.781878
0002f0 0b f2 87 bf b6 44 93 3e bc d0 aa be 80 c7 3b 3e
       -1.0620741 0.2876336 -0.33362377 0.18337822
000300 c3 27 a8 3e 0e 61 be 3e 37 6e af 3d bf d6 ec be
       0.32842836 0.37183422 0.08565944 -0.46257588
000310 83 9f 7b be 47 92 d0 3f f6 2f 95 3e b0 3d a7 bd
       -0.24572568 1.629464 0.29138154 -0.08166063
000320 bb 5a 35 3f 11 d9 5f 3d 28 b1 bd bf 87 1d 2b 3e
       0.7084157 0.05465037 -1.4819689 0.16710483
000330 b6 9d 1c 3f 38 4e b3 bd 32 db 4f be 23 98 9d be
       0.6117815 -0.087551534 -0.2029846 -0.30780134
000340 d1 f3 a3 3f 32 a3 cb bf b2 2b 86 be 60 9b 3d bf
       1.2808782 -1.5909178 -0.26205212 -0.7406521
000350 d9 7a 06 3f 22 60 2f be d5 7f 03 3e 7c 20 aa 3e
       0.525312 -0.17126516 0.12841733 0.3322791
000360 cd d4 56 bf d0 05 c0 3e 9f f3 9a be dc 80 90 bd
       -0.8391846 0.37504435 -0.30263993 -0.07055828
000370 73 a8 b2 bd b2 2e a0 be 26 ec 9a 3e 69 34 94 3e
       -0.087235354 -0.31285626 0.30258292 0.28946236
000380 61 23 b7 3d db 6c 1c 3e 1e e7 e8 3d 09 65 d2 3e
       0.08942295 0.152759 0.11372207 0.4109271
000390 d8 4b 9a 3f 9e 31 36 bf c5 17 aa 3e 21 37 15 3f
       1.2054396 -0.7116946 0.3322126 0.58287245
0003a0 d8 fc 9f be 63 13 3b bf d9 03 0a be b7 bd e4 3d
       -0.31247592 -0.73076457 -0.1347803 0.11168998
0003b0 8c eb 4e 3e 95 e1 5a bf 95 f7 bd ba e4 82 bb bf
       0.20207042 -0.8550046 -0.0014493341 -1.464932
0003c0 26 ec f2 be e0 a0 7b be ae f4 0c bf 28 d2 3b bf
       -0.47445792 -0.24573088 -0.5506085 -0.7336755
0003d0 9d 74 bf 3d 6f 53 09 3e 58 fd 56 3e 6f 4c bc be
       0.09348414 0.13410734 0.2099508 -0.36777064
0003e0 61 8f 3c be 65 10 35 bf c3 6c bd bd 34 3e 0f bf
       -0.1841407 -0.7072814 -0.0924926 -0.5595429
0003f0 e9 fe ae 3e 89 30 90 3e c3 b6 2a 3e fe c8 fd be
       0.34178856 0.2816203 0.1667128 -0.49567407

conv3.bias f4 [16]
000000 e7 db 6c 3d af 21 40 bd ea d2 a6 3c dc cd c9 bc
       0.057826903 -0.046907123 0.020364244 -0.024634294
000010 10 2d 0b 3d d0 6c c2 3c a7 a5 07 3c 4b 1a 5a bc
       0.03397852 0.023733526 0.008279241 -0.013311933
000020 88 a0 9f 39 9e 57 02 3c ab 0f b3 3c e1 f5 e9 bc
       0.00030446448 0.00795546 0.021858057 -0.028559627
000030 08 e8 ad 37 37 e6 d3 bc 3a ad 6a bc e4 77 85 bc
       2.0731255e-05 -0.02586661 -0.014323527 -0.01629252

conv3.fc_self.weight f4 [16, 16]
000000 a3 86 54 3e 40 2e 84 be 5b 10 55 3e 86 da 0f 3e
       0.20754485 -0.25816536 0.2080702 0.14048204
000010 85 93 7d 3e 27 6e 6a bd 07 c1 df 3c bd 52 85 3e
       0.24763305 -0.057233956 0.027313722 0.26039687
000020 d6 7c 8c 3d 02 42 e0 bd 14 b3 2b be f9 c6 74 3e
       0.06859748 -0.1095009 -0.16767532 0.23904027
000030 02 29 84 3d d6 36 69 3e 36 63 8d bd 2a f3 9e bd
       0.06453134 0.22774825 -0.069036886 -0.077612236
000040 32 bb e2 bd ef 2d 37 3e cc 1c c6 bc 45 15 3f be
       -0.11070861 0.17888616 -0.024183653 -0.18660457
000050 22 40 8e 3d a6 0a 3c be f2 18 f7 bc 3b 1d d9 bd
       0.06945826 -0.18363437 -0.030163262 -0.106012784
000060 a9 43 27 3e 75 43 ab 3d d5 5e 90 bd 93 43 46 be
       0.16334404 0.08362476 -0.07049338 -0.19361715
000070 99 88 0a be da 50 c5 bd 29 6f 17 bc 8b c0 34 be
       -0.1352867 -0.09634562 -0.009242811 -0.17651574
000080 68 e4 1c be fb 07 4d bd 47 5d ad 3e 40 df 3f bd
       -0.15321505 -0.05005644 0.33860227 -0.046843767
000090 51 50 30 3e 43 c9 d1 bd 54 fa 4c be c2 3a 89 be
       0.17218138 -0.10243466 -0.20017368 -0.2680264
0000a0 50 f8 22 3d ad 7a 14 3b 51 9c 11 3e e2 19 97 3d
       0.03978759 0.0022656128 0.14219786 0.07377984
0000b0 28 e0 29 be 8c 2a 77 3d ca ec 5c 3e ab 95 c3 bd
       -0.16589415 0.06034331 0.21574703 -0.09550031
0000c0 6a aa 8c 3e b3 07 d1 bd cc f8 41 3e 43 0f 54 3e
       0.27473766 -0.10206547 0.18942565 0.20708947
0000d0 09 a2 6c 3e 45 aa 3b 3d a4 9b e6 3d c9 fd 57 3c
       0.23108687 0.04581668 0.11260155 0.013183066
0000e0 25 c7 71 bc 7e 5b bf 3d 00 9f c0 bb 7c bc e7 bc
       -0.014756952 0.093436226 -0.0058783293 -0.028288119
0000f0 17 8a 01 3e 56 0c f3 3b 24 0a 36 3d 25 6f 00 3e
       0.12650333 0.007417242 0.044443265 0.12542398
000100 bc ea f6 bd 8f 36 56 be 4d 79 bd 3d 96 d1 3d 3e
       -0.12056491 -0.2091925 0.09251652 0.18536982
000110 96 c4 a6 bd 23 4f f0 3d b2 d2 37 3e 1d 41 20 3e
       -0.081429645 0.11733844 0.17951468 0.15649839
000120 3e 3c da 3d 9f 91 d6 3d e8 07 a2 bd be 4c 7e 3d
       0.106560215 0.10476994 -0.07911664 0.062084906
000130 f1 ef ae 3c 8c 16 ba be 6c 19 82 3e 65 72 f8 3d
       0.021354647 -0.36345327 0.2541002 0.12131194
000140 3e 08 f8 bd 59 ce af 3d fd 5d 0c 3d 64 a1 3f be
       -0.12110947 0.085842796 0.03426932 -0.1871391
000150 4e e8 e7 bd 3f da 2b be 5d 93 15 be ee 19 c6 3d
       -0.113236055 -0.16782473 -0.14606996 0.096729144
000160 b7 d5 2c 3c 76 aa 17 be 08 89 31 be a6 76 97 3d
       0.010549 -0.1481112 -0.1733743 0.07395677
000170 49 be a8 3c 4f 32 52 bd 2a 57 86 3d 2b 46 97 bd
       0.020598548 -0.05131751 0.06559594 -0.0738643
000180 67 25 c0 3d b0 06 10 bd df e4 30 bd 0a 7f 97 be
       0.09382134 -0.035162628 -0.04318702 -0.2958911
000190 97 f4 58 3d 49 3f 1d bd 42 a4 9a 3d e4 eb ba 3e
       0.052967634 -0.03839043 0.07550861 0.36508095
0001a0 e4 5d 46 3e e0 fd 27 bd fe 1c f4 bd e2 7a fd bd
       0.19371754 -0.0410136 -0.11919592 -0.12376954
0001b0 cc 3d 0e bd 00 72 31 be 42 42 83 3e 43 a8 54 3e
       -0.034726903 -0.17328644 0.25636488 0.20767312
0001c0 14 aa a5 3b 8d 17 0e 3d 4c 24 4a 3e 64 ad 29 3c
       0.0050556753 0.03469043 0.19740409 0.010356281
0001d0 92 c9 14 bc c3 90 e3 3d 1c 90 7a 3d 20 29 11 be
       -0.009081261 0.111115955 0.06117259 -0.14175844
0001e0 de 8d 03 3e 80 d7 95 be 7d aa 26 3e 21 35 a5 bd
       0.12847087 -0.29265976 0.16275974 -0.08066774
0001f0 6b b3 8c bd e2 59 58 bd 6f a4 80 3c 5e 87 83 3c
       -0.06870159 -0.052820094 0.015703408 0.016055759
000200 b0 4e 14 be 6a 86 bc bd a8 9d 56 3e 5a aa ec 3d
       -0.14483142 -0.09205325 0.20958579 0.115559295
000210 bd 50 63 bd 54 38 9b bc e4 d0 43 be 8b 8a ac 3d
       -0.05549692 -0.018947758 -0.19122654 0.084248625
000220 53 88 d6 3d 9d a0 38 be fe e2 8e bd 49 90 2b 3e
       0.104752205 -0.18030019 -0.06976889 0.16754259
000230 58 d1 cc 3d 74 0c e6 bd 43 3f b5 bd 0c c2 19 3e
       0.10000867 -0.11232844 -0.08849957 0.1501543
000240 0d 5a fe 3b 42 23 bd ba 74 6e ca 3d 37 4a 9f 3e
       0.0077621997 -0.0014430063 0.098843485 0.3111131
000250 f0 6d cc bd cb 2b d2 bd bf 6c 6a 3e 55 22 ec 3d
       -0.099819064 -0.10262259 0.22893046 0.11529986
000260 85 07 5a 3d 01 55 60 3e e7 79 7f 3d ef be 20 3e
       0.053229827 0.21907426 0.062372115 0.15697835
000270 ba 1f 14 be 92 5e af bd bb 89 7c be 3c 97 bc 3d
       -0.14465228 -0.0856296 -0.24661915 0.09208533
000280 65 25 8b 3d 79 4c 8c 3e 64 46 5e bc f4 ee 1a 3f
       0.06794242 0.27402094 -0.013566587 0.60520864
000290 bd 10 a5 3d 72 bd 0b 3e 1b 13 89 bd 53 51 b7 bc
       0.08059833 0.13646486 -0.06693097 -0.022377646
0002a0 39 ce ab 3e a8 10 a0 3d 92 f0 8e 3d 0a e7 0b 3e
       0.33555773 0.07815677 0.06979479 0.13662353
0002b0 0c e6 02 3c a3 50 29 bd d5 5e 43 be c2 a0 98 3d
       0.007989418 -0.041336667 -0.19079144 0.07452537
0002c0 84 e2 2a 3d 97 74 4f bd f9 08 95 be c9 db 26 3d
       0.04171993 -0.050648298 -0.29108408 0.040736947
0002d0 8a 24 3a 3e b2 79 34 3d 20 45 d2 bc 2f ee 48 be
       0.18178001 0.04406137 -0.025667727 -0.1962211
0002e0 ec e6 09 be 33 99 84 3e 6a ed c8 bd b9 40 53 bc
       -0.13466996 0.25898132 -0.09810908 -0.012893849
0002f0 79 48 49 3c 82 55 8b 3d d1 b9 ba 3d 01 0e 16 be
       0.012285345 0.06803419 0.09117473 -0.1465378
000300 04 a5 05 b9 74 e8 92 3e 4b 90 f8 3d 95 94 54 be
       -0.00012745342 0.28692973 0.12136897 -0.20759805
000310 22 33 6f bc 03 69 4e 3c 86 16 ed 3c ea 7d 7c 3e
       -0.014599593 0.012598279 0.028941404 0.24657407
000320 ee 0c aa 3e 11 29 f5 3d c0 a8 d3 bd 8c 44 ce 3d
       0.3321299 0.119707234 -0.10334921 0.10071668
000330 a4 73 84 be bd bd 57 be 4f c3 0f 3e 0a 99 49 bc
       -0.25869477 -0.21068473 0.14039348 -0.012304554
000340 6d e9 74 bd 56 7b 04 3d 80 dc 2e 3e 51 d2 d4 bd
       -0.059792925 0.032344185 0.17076302 -0.10391677
000350 55 1c 97 bb 9f ee 05 be 8a 82 b3 bd 1f 00 8a 3d
       -0.0046115317 -0.13079308 -0.08765133 0.06738304
000360 82 b8 81 be 9e b1 32 bd 93 82 00 be c2 a0 a7 3d
       -0.2533608 -0.04362642 -0.1254981 0.08184959
000370 1f 18 41 be 75 04 14 be d8 07 c7 39 5c b1 45 be
       -0.18856858 -0.14454825 0.00037962082 -0.19305938
000380 27 33 91 3e d1 76 40 3e 89 5b 36 be 79 96 ce bd
       0.2835934 0.18795325 -0.17808355 -0.10087294
000390 60 e6 56 be 40 cf 22 3e 63 5d e1 3c 89 99 6e 3e
       -0.20986319 0.15899372 0.02751035 0.23300757
0003a0 21 4f d1 3d 3e 3c 5a 3c dd e0 70 3e 64 b1 f0 bd
       0.10220171 0.013320027 0.23523279 -0.117525846
0003b0 18 5e 41 3d d9 be 47 be 75 df 93 bc 63 8b 73 bc
       0.047208875 -0.19506396 -0.018050889 -0.014864775
0003c0 f7 1c ac bb ab f9 a3 3d 68 56 2d bd 9a be 32 3e
       -0.0052524763 0.08006605 -0.04231873 0.17455521
0003d0 ab 57 bd 3d 82 db 17 3d d7 85 4d be 32 05 4c be
       0.09245237 0.037074573 -0.20070587 -0.19923857
0003e0 dd b9 7f 3e 88 e3 2c 3e 2f 59 60 3e 4e 4c 04 3b
       0.24973245 0.16883671 0.21909021 0.0020187083
0003f0 00 10 7e 3d e1 eb 49 3e e9 81 56 3d 3c 97 4e 3e
       0.062026978 0.19718887 0.052369986 0.20174879

conv3.fc_neigh.weight f4 [16, 16]
000000 b7 41 0c 3e d0 69 f5 bd c5 1d 88 be 0d 19 4b be
       0.13696943 -0.11983073 -0.26585212 -0.19833775
000010 65 43 89 3e 8d 40 be 3e 8d 7f cf be 3d ce 07 3f
       0.2680923 0.37158623 -0.40527 0.5304907
000020 82 ac a7 3c f2 6e 3c be 3e 58 5c 3e 86 45 e8 bd
       0.020468 -0.18401697 0.21518037 -0.113413855
000030 81 09 8a 3e ab ac bf 3e 00 d8 8a be 20 17 25 3f
       0.26960376 0.37436423 -0.2711792 0.6448841
000040 53 5a 16 3e 19 80 bf 3e d6 13 b5 be d6 f4 2c bf
       0.14682893 0.37402418 -0.35366696 -0.6756109
000050 e8 95 38 be 84 e4 56 3d 0c b6 d2 3e ba 8d c6 3e
       -0.18025935 0.052464023 0.41154516 0.38780004
000060 f4 57 d5 3e 35 cc 23 bd 77 88 48 be 50 34 06 bf
       0.41668665 -0.03998967 -0.19583307 -0.5242357
000070 e1 1c 2f bd 7f fc 15 be d6 b8 df bd ce cc e2 3e
       -0.04275215 -0.14647101 -0.109239265 0.4429688
000080 ee 4d e4 3d 41 dc 69 bd ea ce 2c 3e 80 a2 05 3f
       0.111476764 -0.057094816 0.16875806 0.5220108
000090 a1 08 02 3f ba 9d cb 3d 4f 2c a3 be 46 ed de be
       0.50794417 0.09942193 -0.31869742 -0.435404
0000a0 e4 79 97 be be 83 8d 3d b4 07 21 3e f9 d4 ae bd
       -0.29585183 0.069098935 0.15725595 -0.08536715
0000b0 7b 21 44 be 6a 2a 72 3c 1f f3 d3 3e 2d e1 ca 3e
       -0.19153397 0.01478062 0.41396424 0.3962492
0000c0 fc 7c dd 3e 6f 4c 4d 3e 03 89 03 3f d9 a7 1c bf
       0.43259418 0.20048688 0.5138094 -0.61193615
0000d0 cb 5e d4 bc 49 0f bd 3e 98 8b d5 3e df 15 1e 3e
       -0.025924107 0.36925724 0.41708064 0.1543803
0000e0 57 fd c4 3c b8 13 86 3e 0a c4 c2 3d f1 94 2e 3d
       0.024046583 0.2618692 0.09510048 0.04262251
0000f0 88 8b 69 3e 01 c9 32 bd 93 52 8b 3e 58 84 66 be
       0.22807133 -0.043648724 0.27211437 -0.22511423
000100 12 63 d3 be 1f 59 f7 be e2 e2 6f be 4e a9 a1 3d
       -0.41286522 -0.48310181 -0.23426393 0.078936204
000110 5b 6c dd be 54 e1 22 be 95 53 c9 bd 33 9f 06 3f
       -0.4324673 -0.15906268 -0.09830395 0.5258667
000120 53 57 b1 3d 67 52 f4 3d ff c5 fd ba 56 aa a6 be
       0.08659234 0.119297795 -0.0019361376 -0.3255183
000130 c6 64 b8 3c bd 13 35 be 5c b2 80 3e bc 07 c5 3e
       0.02250899 -0.17683311 0.25136077 0.38482463
000140 6e 29 7f be 35 fc bf 3d d4 1f 43 be 42 cd 4f 3e
       -0.24918148 0.093742765 -0.1905511 0.20293143
000150 eb 35 80 3e 80 a4 cc 3b 49 b0 80 3d 14 e0 1b 3e
       0.25041136 0.006245196 0.06283624 0.15222198
000160 93 e3 17 be ab 1a aa be 02 5c 18 bf 11 6e a7 be
       -0.14832906 -0.3322347 -0.5951539 -0.32701162
000170 ac ce 32 3e 5d 13 78 3e 9b a0 67 3c 1d d2 34 3f
       0.17461652 0.24226137 0.014137412 0.7063311
000180 aa 0a a7 3e 50 6a 9d be c3 a7 98 3e f9 56 7d 3e
       0.32625324 -0.30745173 0.29815492 0.24740209
000190 e6 ff b4 3c b3 2a d8 be 8e 54 1b 3e 35 e8 7f 3b
       0.022094678 -0.42220077 0.15168974 0.0039048318
0001a0 7f 0a a2 3e ca 68 a7 bd e1 20 b0 be 18 ab 19 3e
       0.31648633 -0.08174284 -0.34400085 0.15006673
0001b0 24 2d 90 be 49 09 9b be 8b 6d 80 3e d2 61 35 be
       -0.2815944 -0.30280522 0.25083575 -0.17713097
0001c0 8d 0f d6 3e 85 68 83 bc 3c 2a 41 3c 09 91 d0 be
       0.4180874 -0.01604105 0.011789855 -0.40735653
0001d0 cf e0 e2 be 93 65 d6 3e b5 04 ce 3e 86 14 89 3e
       -0.4431214 0.4187437 0.40237966 0.2677347
0001e0 14 4f 58 3e d1 6d bc be ed 74 29 3d 00 27 9c 3e
       0.21123916 -0.36802533 0.041371275 0.30498505
0001f0 7e a1 0e be 06 e5 ec bd 47 16 fd 3d b7 e4 50 3d
       -0.13928792 -0.1156712 0.12357765 0.05099937
000200 98 30 0c be 54 d2 3e 3e de f6 a3 3e c7 96 89 be
       -0.13690412 0.18634921 0.32024282 -0.26872846
000210 7e b1 86 bd 3c 34 ed be 86 d6 c5 be 9a a1 e6 bc
       -0.06576823 -0.46328914 -0.3864023 -0.02815323
000220 1d c6 2f 3e 8a 87 3f be 81 40 9c 3e 6b 0b d0 3e
       0.17165418 -0.18704048 0.30517963 0.4063371
000230 fd c1 e5 3e 18 8e 60 be d3 9b 7a bd ad ff 33 3e
       0.44874564 -0.21929204 -0.06118376 0.17578001
000240 12 63 8e 3e d1 b6 ce bd ef cf 3a be ad 28 fc 3e
       0.2780996 -0.10093463 -0.18243383 0.49249783
000250 1e 6b 19 3e f2 3a ed 3d 12 83 88 3e 75 0e 53 be
       0.14982268 0.115835086 0.266625 -0.20610984
000260 9c aa 51 be dc 00 88 3e 79 43 8f 3e ad 96 5b 3e
       -0.20475239 0.26563156 0.27981165 0.21444197
000270 9f f6 88 be f6 e9 3b be ec a8 fb be b2 c7 1d 3f
       -0.26750657 -0.18350968 -0.49152315 0.61632836
000280 57 54 54 bd cb f3 69 3e 25 43 d0 3e 36 94 03 3f
       -0.051838245 0.22846906 0.40676227 0.51398027
000290 bc 1f ad be 61 2d a3 3d e6 4d 54 be a6 03 ae 3c
       -0.33813274 0.0796764 -0.20732841 0.021241974
0002a0 90 4e c4 3e 69 c9 9b bb d4 c6 d7 be de d4 36 be
       0.38341188 -0.0047542346 -0.4214388 -0.1785464
0002b0 ad 9e f2 bc 00 7d 91 bd ee bd 00 bf 39 d3 ba be
       -0.029616678 -0.0710392 -0.5028981 -0.36489275
0002c0 c4 39 8e 3e 4c be ee 3b 63 94 99 be 25 d7 79 3d
       0.27778447 0.0072858687 -0.29996023 0.060996193
0002d0 6a 1f c5 3e dc 3b c1 3e 2f f8 55 bd 46 b6 d6 be
       0.3850053 0.37740982 -0.05223864 -0.4193594
0002e0 a6 d3 0b be bc c3 06 bd 8b 52 bd be 1a 51 26 3e
       -0.13654956 -0.03290151 -0.36977038 0.16241875
0002f0 f5 21 0f 3f 70 1a c7 be 0c 16 91 3e a1 49 8d 3e
       0.5591119 -0.38887358 0.28337133 0.27595237
000300 04 f3 aa be 22 f9 f9 3e 14 11 71 be 3c 3f ab be
       -0.3338853 0.48822886 -0.23541671 -0.33446681
000310 cb 39 2a 3e 01 62 ce 3e 7f db fe bd 28 e4 c4 3e
       0.16623609 0.40309146 -0.12444209 0.3845532
000320 c9 0a aa bd 41 58 77 3e 0b 34 9e 3e 8e a6 9a 3e
       -0.08302838 0.2415476 0.3089908 0.30205196
000330 40 cd 16 3e 1e 1e 84 be b5 7c 8a 3d 53 96 56 be
       0.14726734 -0.25804228 0.06762067 -0.20955782
000340 a4 96 00 3e 0a 9b 69 3e ed 06 75 3e 40 f1 17 bf
       0.12557465 0.22813049 0.23928423 -0.59352493
000350 32 d2 ba be 1f ac 61 3e 4c f5 9d be 4a 1a ef 3d
       -0.3648849 0.22038315 -0.3085121 0.11674936
000360 33 93 31 bd 59 d4 af 3e c1 32 3b be 4f ab 6a be
       -0.04335327 0.34341696 -0.1828108 -0.22916912
000370 19 7e b3 be 20 5b 8f be 67 4e 44 be c8 fc c9 3e
       -0.35057142 -0.2799921 -0.19170533 0.3945067
000380 b2 ea cf 3d 28 17 a7 3e e3 54 53 be 3b d4 2c 3d
       0.101521865 0.32634854 -0.2063785 0.042194586
000390 4f ba 49 3e b8 21 d7 be 4a 60 86 be 6e f9 40 be
       0.19699977 -0.42017913 -0.26245338 -0.1884515
0003a0 fc 12 b9 bd dd 17 ef 3d c5 32 06 3f f1 25 e1 be
       -0.09036824 0.116744734 0.5242122 -0.4397426
0003b0 83 e2 c7 bd dd 7d 5d bc e5 47 7a be 7a 3e 6e 3e
       -0.097600006 -0.013518778 -0.24441488 0.2326602
0003c0 d1 99 44 3e 94 b3 ef 3d bd 79 8c be 9a 02 a7 bd
       0.19199301 0.11704174 -0.2743663 -0.08154793
0003d0 53 ad 0a bf 84 4b 56 be 11 00 13 be b1 19 a1 3e
       -0.5417072 -0.20927244 -0.14355494 0.31464913
0003e0 cb b9 73 3e a3 78 f1 3d 6f c1 3c 3e fa 96 aa 3e
       0.23801343 0.11790588 0.18433164 0.3331831
0003f0 2b 29 9c 3e 06 de 4e 3e cc e7 62 3e 98 9e 9e 3e
       0.3050016 0.20201883 0.22158736 0.30980372
