model.pth (torch, 29451 bytes, 9 tensors)

conv1.bias f4 [16]
-0.019226065 0.0012929555 -0.031496182 0.02061458 -0.0011310632 -0.0058994517 -0.020961383 0.0042673196
0.00743658 0.020971464 -0.0044728336 -0.013986545 -0.0077685094 -0.01889391 -0.003061709 0.001387306
00000000: fb7f 9dbc 6378 a93a 2402 01bd e8df a83c
00000010: 2f40 94ba 3050 c1bb 35b7 abbc dfd4 8b3b
00000020: 8eae f33b 59cc ab3c d990 92bb d227 65bc
00000030: fb8e febb 67c7 9abc f4a6 48bb 44d6 b53a

conv1.fc_self.weight f4 [16, 174]
0.14122334 0.107405014 0.014981494 -0.10090914 -0.3702602 -0.17732045 -0.08495769 -0.20940602
-0.037255008 0.40702215 -0.1619988 0.009157382 0.061134335 0.02932996 -0.11967969 -0.044596042
-0.00041497362 0.17821023 0.05772567 0.33700106 0.22814259 0.06489055 0.2398865 -0.038546678
0.23162988 0.15897912 0.07730225 0.09130497 -0.042633135 -0.02125463 0.012823298 -0.05073476
0.046244763 -0.2240288 0.08112187 0.018725185 -0.14952317 0.07530392 0.19513327 0.31737056
-0.0023449722 0.0606911 0.15698479 -0.1070832 0.056923125 -0.07944194 0.16336204 -0.15294455
0.056079894 0.14380339 0.18080322 0.1162601 -0.12373882 0.023594651 0.09414556 0.05053826
0.092797406 0.06192937 0.047500372 0.05321385 0.10452814 0.058899812 0.04466601 0.019438285
0.15761259 0.3494354 -0.1216114 -0.20716713 -0.02137052 -0.1911557 -0.20958924 0.13455492
-0.053686686 0.07622247 -0.12012883 -0.15600562 0.017664684 0.04028973 -0.12263756 -0.15974514
0.188348 0.2919318 -0.06087777 0.40380254 0.06556331 -0.007741277 -0.021215297 0.05955038
0.040327907 -0.002393299 0.02740836 0.12842643 -0.0055565173 -0.0857716 -0.05561012 0.1644494
-0.21289423 0.15966032 -0.1564631 -0.10593242 -0.162122 0.04931107 -0.23528847 -0.08049678
-0.14004105 -0.10265358 -0.0070348606 -0.27586296 0.06642895 0.12498566 0.29868916 -0.0953844
-0.01681329 -0.21781062 -0.050405737 -0.26882204 0.014031334 -0.12191761 -0.16362733 0.32206154
-0.1046708 -0.05481094 -0.13025127 -0.09567843 -0.12501879 -0.16847554 0.32389602 0.015059021
-0.075690806 0.13413654 0.1191617 -0.095661186 -0.2921323 -0.2049901 -0.1235279 -0.042680193
0.086131565 0.015230089 -0.12529485 -0.3092206 -0.020515595 -0.03623891 0.023250766 -0.0588562
-0.3779339 -0.35652015 -0.052643247 -0.09363043 -0.09241466 -0.06091424 -0.03480909 -0.1478237
-0.015876295 0.036308832 0.3376848 0.057144687 -0.0818297 0.18164337 0.044724606 0.14161204
-0.01083007 -0.06367296 -0.091368526 0.14499487 -0.18406792 -0.25210774 -0.28059128 -0.005593576
-0.032405425 -0.1785182 -0.25249833 -0.07498732 -0.21131249 0.17498523 0.10892908 -0.09178803
0.12961896 0.04516274 -0.0632049 -0.06604764 -0.13651547 0.065881275 -0.00478324 0.059937827
0.00978574 -0.07593276 0.2566913 0.03868361 0.16991122 -0.33473885 0.114886425 -0.18115294
-0.14293168 0.4032822 -0.1277064 0.036658723 -0.13436 -0.044502694 -0.11029342 0.38934317
-0.04369833 -0.1752885 0.14255501 -0.10861557 0.10949698 0.1930471 0.16130318 0.023272617
0.009929411 0.19727 -0.12042137 -0.11760054 0.049177054 0.19221312 -0.035999525 0.0059508975
-0.10448909 -0.064675696 -0.05119548 -0.13782082 0.34875533 0.45008168 0.43021712 0.038402427
0.1328758 0.11452142 -0.06503119 0.19373396 -0.21617955 -0.023790633 -0.11780738 -0.053906415
-0.13673817 -0.010071069 0.14276756 -0.006495796 -0.5430456 0.1841491 0.25195593 0.12050203
0.09520661 0.26275092 -0.01694911 0.15960507 0.14627121 -0.07314282 -0.14190802 -0.074076116
0.09215735 -0.032225072 0.016210087 0.044161793 0.016971609 -0.029261453 0.088934004 0.12674467
00000000: da9c 103e 29f7 db3d f174 753c 74a9 cebd
00000010: bf92 bdbe 7e93 35be 4cfe adbd 886e 56be
00000020: b598 18bd 3565 d03e 03e3 25be d808 163c
00000030: ff67 7a3d 6245 f03c a01a f5bd 57aa 36bd
00000040: d190 d9b9 be7c 363e c171 6c3d 678b ac3e
00000050: 369e 693e 56e5 843d cfa4 753e 1fe3 1dbd
00000060: 6230 6d3e 6ccb 223e a450 9e3d 1afe ba3d
00000070: 15a0 2ebd 311e aebc cf18 523c 40cf 4fbd
00000080: 266b 3d3d ce67 65be 3923 a63d 8f65 993c
00000090: 9a1c 19be f138 9a3d 04d1 473e 657e a23e
000000a0: 1bae 19bb 3b97 783d 9fc0 203e 704e dbbd
000000b0: 3928 693d 75b2 a2bd 6148 273e 7f9d 1cbe
000000c0: 08b4 653d 3241 133e 7b24 393e c619 ee3d
000000d0: c76a fdbd 9249 c13c 63cf c03d 3501 4f3d
000000e0: 910c be3d a7a9 7d3d c08f 423d c4f6 593d
000000f0: d912 d63d ee40 713d b5f3 363d 0a3d 9f3c
00000100: 3265 213e 32e9 b23e 660f f9bd 9f23 54be
00000110: 3b11 afbc 52be 43be 909e 56be c4c8 093e
00000120: 92e6 5bbd 871a 9c3d 1b06 f6bd f0bf 1fbe
00000130: 87b5 903c d806 253d 6729 fbbd 3b94 23be
00000140: 4cde 403e 1678 953e f85a 79bd 35bf ce3e
00000150: 0f46 863d 8aaa fdbb b4cb adbc 19eb 733d
00000160: e02e 253d e5d8 1cbb 7f87 e03c 3882 033e
00000170: 7213 b6bb 05a9 afbd 70c7 63bd 6c65 283e
00000180: f200 5abe ff7d 233e dd37 20be 19f3 d8bd
00000190: 4f03 26be 68fa 493d 76ef 70be 7fdb a4bd
000001a0: ec66 0fbe 0a3c d2bd b084 e6bb e93d 8dbe
000001b0: e70b 883d 7bf8 ff3d c9ed 983e e558 c3bd
000001c0: 06bc 89bc bf09 5fbe 3f76 4ebd 0ba3 89be
000001d0: aee3 653c f1af f9bd ec8d 27be 40e5 a43e
000001e0: a55d d6bd 7081 60bd 9760 05be 0df3 c3bd
000001f0: ed04 00be da84 2cbe b3d5 a53e 1dba 763c
00000200: c803 9bbd 175b 093e 0d0b f43d 03ea c3bd
00000210: 5d92 95be ede8 51be 32fc fcbd 6dd1 2ebd
00000220: bf65 b03d a087 793c 4b4d 00be 2a52 9ebe
00000230: 5210 a8bc 406f 14bd 6478 be3c 3313 71bd
00000240: 8d80 c1be cf89 b6be 72a0 57bd 50c1 bfbd
00000250: e643 bdbd 3681 79bd fa93 0ebd 195f 17be
00000260: 010f 82bc 92b8 143d 06e5 ac3e 8c10 6a3d
00000270: 5496 a7bd b800 3a3e 2631 373d bf02 113e
00000280: 9b70 31bc f866 82bd 6c1f bbbd 8979 143e
00000290: 4d7c 3cbe 4414 81be a9a9 8fbe 514a b7bb
000002a0: 8dbb 04bd 7acd 36be 7647 81be f492 99bd
000002b0: 4d62 58be 542f 333e 3616 df3d 5dfb bbbd
000002c0: d5ba 043e 91fc 383d 9271 81bd fc43 87bd
000002d0: b6ca 0bbe c3ec 863d babc 9cbb 5e81 753d
000002e0: 5e54 203c a382 9bbd 0b6d 833e b472 1e3d
000002f0: 35fd 2d3e e462 abbe 9349 eb3d 2880 39be
00000300: af5c 12be 017b ce3e 77c5 02be 7527 163d
00000310: ab95 09be 7548 36bd 84e1 e1bd fd57 c73e
00000320: 05fd 32bd d47e 33be f1f9 113e d771 debd
00000330: f43f e03d 24ae 453e a92c 253e 37a6 be3c
00000340: f8ae 223c 2601 4a3e 7b9f f6bd 8dd8 f0bd
00000350: e16d 493d 84d3 443e 3d74 13bd bfff c23b
00000360: 60fe d5bd b174 84bd 5ab2 51bd e720 0dbe
00000370: 0f90 b23e 1b71 e63e 6b45 dc3e dd4b 1d3d
00000380: 9810 083e 358a ea3d 132f 85bd 3262 463e
00000390: 2c5e 5dbe 93e4 c2bc ff44 f1bd f9cc 5cbd
000003a0: 1705 0cbe 2001 25bc a931 123e b0da d4bb
000003b0: 0905 0bbf 9591 3c3e 5e00 813e c5c9 f63d
000003c0: affb c23d 4a87 863e dcd8 8abc 836f 233e
000003d0: 1fc8 153e e7cb 95bd 5650 11be 38b5 97bd
000003e0: febc bc3d 70fe 03bd 04cb 843c ffe2 343d
000003f0: 0b08 8b3c b7b5 efbc 0823 b63d 5bc9 013e

conv1.fc_neigh.weight f4 [16, 174]
0.33134833 0.13599564 0.05093081 0.06483244 -0.19348915 -0.013877521 -0.04837384 -0.28970668
-0.011032259 0.74026304 -0.22399811 0.021737453 0.38376296 0.04535445 -0.20176412 -0.08311062
-0.0929272 0.05472851 -0.16389629 0.092751466 0.12831368 -0.08881073 0.05523715 -0.121862456
0.29230228 -0.1612708 -0.031767245 0.21899898 -0.35086513 0.071071476 0.020597355 0.17705923
-0.059091695 -0.10026443 0.05183032 -0.096468076 -0.2500523 -0.020607034 0.09425634 0.4419519
-0.070621386 -0.2768347 0.22282152 -0.06818065 -0.11361302 -0.08287696 0.5355783 0.20852852
-0.017776316 -0.06436052 0.355404 0.25536087 -0.019087164 0.1857297 0.28714642 0.12654081
0.18460469 0.18560669 0.050052397 0.06467782 0.20115425 0.1742466 0.23598723 0.09803425
0.104628496 0.33789733 -0.04851873 -0.10931628 -0.29593202 -0.5769346 -0.3876885 0.0057315296
-0.09214648 0.12101579 0.002849557 -0.06430996 0.11801409 -0.24260949 0.008521796 -0.3043886
0.5281032 0.22927642 -0.17078745 0.13503173 -0.07050651 0.16220255 -0.091677636 0.062077634
-0.052339856 0.08172949 -0.20616345 0.28236783 0.022182986 0.27167398 -0.06302027 0.25706506
-0.11230332 0.018259974 -0.0032716955 0.11116408 -0.07111604 0.23238675 -0.25337675 0.051692896
-0.028062122 0.21368013 -0.14319032 -0.30766124 0.10896011 -0.048227616 -0.09253555 -0.20721576
0.3503635 -0.48681068 0.13604553 -0.1944552 0.15990932 -0.0008369529 0.022491215 0.26891133
-0.038138654 -0.040391877 0.056788217 -0.12475495 0.3413813 -0.18886597 0.2593619 0.058180626
-0.18943928 -0.0016392007 0.0416969 0.29966876 0.08929124 -0.22870965 -0.06811708 0.17907706
0.11514686 0.16549769 0.12436751 -0.18078214 0.13371734 -0.15328655 0.18886709 0.10606946
-0.041756503 -0.04194595 0.130701 -0.13826494 -0.07771721 -0.001280837 -0.08761266 -0.079690345
0.014806659 -0.14936097 0.22486322 0.22945608 0.13685004 -0.1444161 0.19552244 0.19294894
0.0803137 0.050224405 -0.15720128 0.07285093 0.19715722 0.19903526 -0.12838325 0.07250128
0.123781465 0.2194356 -0.14764354 0.087919615 0.42661548 0.4137123 0.13399342 -0.12763268
0.0026211543 0.13123156 0.3347432 0.11540336 -0.17923684 -0.020958086 0.061064813 0.29297858
-0.024493456 0.08103289 0.39342397 -0.078992955 -0.11729087 -0.24058485 0.29665524 -0.1106908
-0.119401395 0.102664426 0.1423663 -0.044186898 0.046512745 -0.18617274 0.0063084243 0.4557675
0.037522968 -0.3228595 0.13740225 -0.099805646 0.2736552 0.2805125 0.0625728 -0.0014059359
0.07748998 0.13559864 -0.36306593 -0.037664395 -0.13171773 0.25754187 -0.10965241 0.16306198
-0.13619737 0.084143184 -0.21559595 -0.05015171 0.60195345 0.50775474 0.32928285 0.19340144
0.07399453 -0.052551765 -0.0021253664 0.27731848 -0.14911345 -0.045593515 -0.024564397 0.16055605
0.014846779 0.0162621 0.19229671 -0.17488508 -0.7154204 -0.03129986 0.19500706 0.13699795
0.16768175 0.0713701 0.34473523 0.07346071 0.25347716 -0.3906109 -0.3423718 -0.275246
0.048723508 0.0944233 -0.095844835 0.06556485 0.1490717 -0.19614495 0.22625777 0.077177584
00000000: 7da6 a93e 7142 0b3e d39c 503d dfc6 843d
00000010: 0522 46be 8b5e 63bc a623 46bd 6f54 94be
00000020: a6c0 34bc e181 3d3f c35f 65be be12 b23c
00000030: 947c c43e 96c5 393d 419b 4ebe e735 aabd
00000040: 9e50 bebd 012b 603d 6ed4 27be 7bf4 bd3d
00000050: a964 033e 66e2 b5bd 5a40 623d 0693 f9bd
00000060: a5a8 953e 2c24 25be 5f1e 02bd 4541 603e
00000070: 98a4 b3be ec8d 913d c9bb a83c 044f 353e
00000080: 220a 72bd 7057 cdbd 084c 543d 0e91 c5bd
00000090: db06 80be 15d0 a8bc 7809 c13d 8547 e23e
000000a0: f2a1 90bd 47bd 8dbe 532b 643e 4ca2 8bbd
000000b0: f1ad e8bd 65bb a9bd a91b 093f 8088 553e
000000c0: a39f 91bc 73cf 83bd 83f7 b53e a9be 823e
000000d0: af5c 9cbc ed2f 3e3e db04 933e ea93 013e
000000e0: 0309 3d3e ae0f 3e3e be03 4d3d ce75 843d
000000f0: 61fb 4d3e b36d 323e a3a6 713e 2ec6 c83d
00000100: 7747 d63d e100 ad3e 93bb 46bd 37e1 dfbd
00000110: 6784 97be fcb1 13bf 1b7f c6be 8ecf bb3b
00000120: 4bb7 bcbd 20d7 f73d a2bf 3a3b f1b4 83bd
00000130: 5fb1 f13d 9f6e 78be 019f 0b3c d3d8 9bbe
00000140: c531 073f 70c7 6a3e e8e2 2ebe c245 0a3e
00000150: b865 90bd 6d18 263e 7cc1 bbbd 1e45 7e3d
00000160: 5162 56bd ca61 a73d 831c 53be 8492 903e
00000170: 18b9 b53c da18 8b3e c510 81bd 089e 833e
00000180: 48ff e5bd f195 953c f169 56bb fea9 e33d
00000190: 49a5 91bd cbf6 6d3e 99ba 81be eebb 533d
000001a0: 89e2 e5bc f7ce 5a3e 7ca0 12be c685 9dbe
000001b0: 7a26 df3d 528a 45bd 4783 bdbd 5e30 54be
000001c0: d862 b33e 403f f9be 854f 0b3e 441f 47be
000001d0: 45bf 233e f566 5bba 7f3f b83c bfae 893e
000001e0: 4737 1cbd f471 25bd c39a 683d 867f ffbd
000001f0: 88c9 ae3e 1566 41be 15cb 843e cf4e 6e3d
00000200: 5ffc 41be 73da d6ba 5eca 2a3d 2f6e 993e
00000210: 53de b63d dd32 6abe f880 8bbd fa5f 373e
00000220: 1ed2 eb3d 3a78 293e 65b4 fe3d f41e 39be
00000230: 33ed 083e 26f7 1cbe 6066 413e f23a d93d
00000240: de08 2bbd 84cf 2bbd 7cd6 053e 5395 0dbe
00000250: 332a 9fbd c2e1 a7ba 446e b3bd b134 a3bd
00000260: a197 723c 15f2 18be 8b42 663e 89f6 6a3e
00000270: 6b22 0c3e d0e1 13be 0937 483e 6894 453e
00000280: 827b a43d 1bb8 4d3d 5ff9 20be de32 953d
00000290: 95e3 493e e6cf 4b3e e676 03be 8d7b 943d
000002a0: 2381 fd3d bab3 603e de2f 17be 330f b43d
000002b0: 586d da3e 19d2 d33e 9235 093e 24b2 02be
000002c0: acc7 2b3b 9161 063e 7663 ab3e 9958 ec3d
000002d0: dd89 37be 4bb0 abbc 191f 7a3d 4a01 963e
000002e0: 80a6 c8bc 92f4 a53d de6e c93e 0fc7 a1bd
000002f0: 3236 f0bd e05b 76be 32e3 973e dcb1 e2bd
00000300: b888 f4bd ba41 d23d 79c8 113e 52fd 34bd
00000310: 2684 3e3d 11a4 3ebe e6b6 ce3b 5c5a e93e
00000320: afb1 193d d74d a5be 2db3 0c3e e766 ccbd
00000330: 891c 8c3e 569f 8f3e 2b26 803d 6147 b8ba
00000340: 11b3 9e3d 5fda 0a3e c7e3 b9be fb45 1abd
00000350: 03e1 06be 87dc 833e 7191 e0bd b8f9 263e
00000360: 5377 0bbe 4353 ac3d 2fc5 5cbe e16b 4dbd
00000370: 9f19 1a3f 37fc 013f c397 a83e 070b 463e
00000380: 728a 973d 8540 57bd bb49 0bbb b0fc 8d3e
00000390: 32b1 18be 44c0 3abd 463b c9bc ce68 243e
000003a0: e83f 733c 1838 853c 6ee9 443e 1315 33be
000003b0: cb25 37bf 4834 00bd eeaf 473e 3149 0c3e
000003c0: c4b4 2b3e 7d2a 923d 2381 b03e 9272 963d
000003d0: c2c7 813e 27fe c7be 5b4b afbe 0bed 8cbe
000003e0: 4d92 473d 0161 c13d 4c4a c4bd dd46 863d
000003f0: 40a6 183e 39da 48be 1eb0 673e 480f 9e3d

conv2.bias f4 [16]
0.003302125 0.006069989 0.00033978932 -0.0032141132 0.011162524 -0.006206746 -0.0014468478 -0.004767097
-0.0072137695 -0.009290697 0.007883354 -0.0002482794 -0.00039002646 -0.0029748348 0.010998573 -0.010707826
00000000: 7768 583b c2e6 c63b c025 b239 dfa3 52bb
00000010: 05e3 363c f661 cbbb 28a4 bdba 4f35 9cbb
00000020: 7c61 ecbb 0238 18bc 2f29 013c 7f2b 82b9
00000030: 777c ccb9 72f5 42bb 5c33 343c e16f 2fbc

conv2.fc_self.weight f4 [16, 16]
0.39142725 0.32177436 0.3115532 -0.41311023 0.5071621 0.18446599 -0.22467779 0.15637371
0.24692379 -0.6090899 0.28309688 0.4103352 -0.26369083 -0.33820713 -0.4292509 0.10108746
0.259109 0.10656374 0.123619 -0.23520164 0.17166077 -0.21188697 -0.33837828 0.20519471
0.06669562 -0.34672058 -0.23648869 -0.17930633 0.074059345 0.414734 0.32101965 0.30231047
-0.35352778 0.05498544 0.24055584 0.3494119 0.44098917 0.30255195 0.43990296 -0.14635804
0.03002556 -0.32221887 0.2534688 0.065411404 0.1435695 0.4091487 0.008031195 0.24542166
0.36331612 -0.2112185 -0.22048889 0.02854542 -0.39913672 -0.03367086 -0.043882445 -0.07196069
-0.38755867 -0.06787318 0.17367989 0.35278103 -0.5718744 0.15202808 -0.20618108 0.3674449
0.21318246 -0.31632048 -0.46745375 0.052989893 0.04768031 -0.1302479 -0.31766143 -0.3089093
0.17994569 0.598812 -0.016484527 -0.21799251 -0.20090717 -0.31812847 0.14821616 -0.13685377
0.08711036 -0.2120009 0.31070176 0.43831676 -0.035335638 0.53785455 0.24018282 0.34857407
0.049808603 -0.318315 -0.11520124 0.20907634 -0.41335732 -0.09685618 -0.43089792 -0.0785057
-0.17831588 -0.11857366 -0.47432736 -0.09305244 0.30364814 -0.060512807 -0.084816605 0.3033515
0.04183758 -0.19069308 -0.09326957 -0.36988714 -0.22515857 -0.08594852 0.17716576 0.31193584
0.31068057 0.05286366 -0.36467022 0.1312361 -0.37505332 0.06283125 0.2937255 0.03206075
-0.13628873 0.00517844 -0.079615414 0.25954625 0.21728945 -0.14133897 -0.3770907 -0.05795749
0.72278893 -0.20813817 -0.17067629 0.14572853 0.45751145 0.27288675 -0.42688817 0.24720836
-0.1848341 -0.23686107 0.292563 0.6639469 0.1589867 0.17104037 -0.32692644 -0.12158262
-0.22607003 -0.20780334 -0.3479497 -0.3539562 0.37743267 0.2964462 0.0023785783 -0.4804691
0.44584852 0.4949995 0.036212668 -0.40566254 -0.32810172 0.25057274 -0.13594359 0.4467887
-0.41347846 -0.4231306 0.23989184 -0.37507835 0.570091 0.07437556 0.3371211 -0.18954962
-0.3074471 0.31032002 -0.29747638 0.10125849 -0.09781279 0.34832785 0.13247925 -0.30930418
-0.013340223 0.44598538 -0.5328846 -0.061070148 -0.16234942 -0.062108573 0.25707147 0.19465365
0.45377043 -0.24945164 0.3273675 -0.32271516 -0.2915226 -0.41664448 0.34082732 -0.31556648
-0.45725706 -0.5374504 -0.12493882 0.15293022 -0.3179401 -0.44107097 0.23041269 -0.5549016
0.35022643 -0.43845633 -0.28349847 -0.049439136 -0.12391533 0.022577433 -0.17966938 0.35645518
0.18677768 0.24559432 0.15173276 -0.004915774 0.16059577 0.21648231 0.20153596 0.34933168
-0.45297226 0.29198685 0.2818729 0.27324814 0.011878619 0.34649426 -0.32780898 -0.42252052
0.43353382 0.34704062 -0.29427627 -0.27150816 0.21922728 0.37233487 -0.4539635 0.37508193
0.27188998 -0.09076027 0.146597 0.3769137 -0.10889234 -0.1699223 -0.4060361 0.13960862
-0.21251564 -0.0019507495 0.37425876 -0.114284806 0.1410107 -0.13704616 0.46133775 -0.051927555
-0.37690094 0.5622319 -0.36538607 -0.08472447 -0.15229528 -0.023973882 0.3795852 -0.010255733
00000000: 2769 c83e 9cbf a43e e783 9f3e 2f83 d3be
00000010: 60d5 013f a7e4 3c3e ef11 66be 6e20 203e
00000020: 97d9 7c3e 51ed 1bbf 13f2 903e 7517 d23e
00000030: 7c02 87be 7c29 adbe c6c6 dbbe f106 cf3d
00000040: efa9 843e 173e da3d f52b fd3d b3d8 70be
00000050: d7c7 2f3e e6f8 58be eb3f adbe 901e 523e
00000060: b797 883d 5c85 b1be 172a 72be 149c 37be
00000070: 6dac 973d 0458 d43e b05c a43e 70c8 9a3e
00000080: 9801 b5be 6a38 613d 4554 763e 1ee6 b23e
00000090: 55c9 e13e 17e8 9a3e f63a e13e e2de 15be
000000a0: 2af8 f53c dff9 a4be aac6 813e 6af6 853d
000000b0: e203 133e f07b d13e 4695 033c d14f 7b3e
000000c0: 9204 ba3e aa49 58be d7c7 61be 16d8 e93c
000000d0: a65b ccbe 75ea 09bd 14be 33bd 2060 93bd
000000e0: 176e c6be 1801 8bbd 24d9 313e b79f b43e
000000f0: 5c66 12bf 40ad 1b3e 2221 53be bd21 bc3e
00000100: 814c 5a3e c2f4 a1be 1956 efbe ee0b 593d
00000110: 6e4c 433d b55f 05be 85a4 a2be 5c29 9ebe
00000120: af43 383e be4b 193f 8f0a 87bc 6e39 5fbe
00000130: 9cba 4dbe bce1 a2be fac5 173e 6523 0cbe
00000140: eb66 b23d c416 59be 4d14 9f3e 0e6b e03e
00000150: 1abc 10bd d6b0 093f 7cf2 753e 4d78 b23e
00000160: 1b04 4c3d 2ffa a2be a1ee ebbd 1c18 563e
00000170: 92a3 d3be 885c c6bd a79e dcbe 99c7 a0bd
00000180: 7098 36be bfd6 f2bd 09db f2be 4792 bebd
00000190: c577 9b3e 47dc 77bd 54b4 adbd e350 9b3e
000001a0: e25d 2b3d 0c45 43be 1e04 bfbd d961 bdbe
000001b0: f88f 66be c705 b0bd f16a 353e 0eb6 9f3e
000001c0: 8611 9f3e 9187 583d 0eb6 babe c262 063e
000001d0: fd06 c0be acad 803d 3063 963e 2252 033d
000001e0: 468f 0bbe e7af a93b 680d a3bd 3fe3 843e
000001f0: 2081 5e3e 2abb 10be 0812 c1be d564 6dbd
00000200: b208 393f 2c22 55be c4c5 2ebe dc39 153e
00000210: f13e ea3e d0b7 8b3e 1691 dabe 3024 7d3e
00000220: 2645 3dbe b58b 72be d1ca 953e 6df8 293f
00000230: 69cd 223e 3525 2f3e e762 a7be 4f00 f9bd
00000240: e77e 67be 66ca 54be 7726 b2be bf39 b5be
00000250: db3e c13e ccc7 973e ece1 1b3b 0c00 f6be
00000260: 4246 e43e 9370 fd3e bc53 143d 00b3 cfbe
00000270: f3fc a7be 124b 803e cc34 0bbe 7dc1 e43e
00000280: 73b3 d3be 93a4 d8be 35a6 753e 450a c0be
00000290: 7cf1 113f 3752 983d 239b ac3e 4c19 42be
000002a0: b569 9dbe 44e2 9e3e d34e 98be 9c60 cf3d
000002b0: 1252 c8bd 0758 b23e a4a8 073e 1e5d 9ebe
000002c0: f390 5abc 3258 e43e 206b 08bf b124 7abd
000002d0: ed3e 26be 8f65 7ebd df9e 833e 4953 473e
000002e0: 9954 e83e 4070 7fbe b79c a73e ec3a a5be
000002f0: 7342 95be 6d52 d5be eb80 ae3e ee91 a1be
00000300: 991d eabe 5996 09bf eddf ffbd bd99 1c3e
00000310: 0bc9 a2be 0ed4 e1be 4ef1 6b3e 080e 0ebf
00000320: e150 b33e 597d e0be b626 91be b180 4abd
00000330: 52c7 fdbd 4ff4 b83c 40fb 37be 4b81 b63e
00000340: a642 3f3e 147d 7b3e d55f 1b3e 8014 a1bb
00000350: 3873 243e 8aad 5d3e 715f 4e3e 9adb b23e
00000360: fbeb e7be 4d7f 953e a551 903e 2ee7 8b3e
00000370: 8a9e 423c b267 b13e 94d6 a7be 9c54 d8be
00000380: 25f8 dd3e 4faf b13e 61ab 96be 1e03 8bbe
00000390: 1e7d 603e ada2 be3e e76d e8be bd0a c03e
000003a0: 2a35 8b3e 85e0 b9bd 861d 163e d5fa c03e
000003b0: f202 dfbd 1d00 2ebe f7e3 cfbe 90f5 0e3e
000003c0: b39d 59be 4bb0 ffba d89e bf3e 270e eabd
000003d0: 1c65 103e d455 0cbe 7634 ec3e fdb1 54bd
000003e0: 29f9 c0be 6eee 0f3f e213 bbbe 0684 adbd
000003f0: 4bf3 1bbe e064 c4bc fe58 c23e a907 28bc

conv2.fc_neigh.weight f4 [16, 16]
0.33751073 0.40431952 0.6085312 -0.1023908 0.45159698 0.259046 -0.22894293 0.18752813
-0.07002657 -0.45326433 -0.070166655 0.35069704 -0.5740569 -0.69539964 -0.14255266 -0.4267049
0.4866319 0.5139837 0.06785061 0.47872728 0.17330132 -0.274673 0.22380167 0.87831587
-0.06372971 0.1964558 0.20958738 0.092037104 -0.13500486 0.10748429 0.5525802 0.22435407
0.37378156 0.20248953 -0.19075671 0.21888109 0.068793654 0.5845865 0.120484464 -0.79401284
-0.57958275 -0.108981766 -0.10360528 0.10163086 0.3185031 -0.26208207 0.3863673 0.16736558
-0.2924722 -0.6166741 0.18793438 0.08916387 0.048279062 0.023416972 0.09583711 0.27768096
-0.11503624 -0.2957312 0.44775817 0.11678636 -0.84951353 0.24559373 -0.19119261 0.36413112
-0.4496742 -0.1758673 0.3543377 0.5615887 0.05789309 -0.5550243 -0.6776799 -0.57635856
-0.45931494 0.5004263 0.22822265 0.5438341 0.027445229 0.31251863 0.08167762 -0.17828904
0.38503933 -0.0686076 -0.42370135 0.42197993 -0.42783234 0.49158502 0.52798766 -0.2798385
-0.5190971 0.22847895 -0.36541146 0.23725225 -0.56640583 -0.39093462 -0.25203604 0.30510858
-0.5117219 -0.42111465 -0.87833434 -0.16594882 0.3693787 0.008366691 -0.3843172 0.22246654
-0.07615049 -0.22543804 -0.40138745 -0.8912481 -0.5397109 -0.4676975 0.10719843 0.32639006
0.7341814 0.34944534 -0.7384775 -0.5859509 -0.39999142 0.22033975 0.587308 -0.11420236
0.31514975 -0.016690828 -0.29751536 -0.09697422 0.10434533 0.4617707 -0.18241914 0.019272346
0.48520982 -0.32586193 -0.17083548 -0.25624093 0.6010436 0.17063712 0.11097588 -0.4915968
-0.18416047 -0.0658133 0.5168776 0.60529274 -0.38533935 -0.35263315 -0.18533346 0.6535221
-0.5502834 0.2888961 -0.16751891 0.2929364 0.021910667 -0.03060655 -0.44815138 -0.26299334
-0.24675226 0.5758919 0.28837925 0.057742886 -0.060700573 0.51891565 0.08934522 0.5346697
-0.18260758 -0.21368784 -0.1292745 -0.4158689 0.23236996 -0.01205703 -0.119187705 -0.336465
-0.783379 0.24496701 -0.8253589 0.16330545 -0.032382246 0.02986574 0.40696576 -0.26042557
-0.33137003 0.2072988 -0.47476152 -0.11165676 0.20757194 -0.29280305 0.6847579 0.13893762
0.33466464 0.47781748 0.56522286 -0.13514653 -0.31703287 0.14050722 0.37392703 -0.5635402
0.48516124 0.4124483 -0.5191559 0.5799386 0.118392095 -0.44238234 -0.31789652 -0.19132543
-0.3254569 -0.48441488 0.21877591 0.45246565 0.17038202 -0.22635487 0.16211532 -0.13258609
-0.026683187 0.5646425 0.20308734 -0.45627528 0.06176577 0.049727906 0.17084426 -0.24199283
-0.71957827 0.5106277 0.2769242 -0.017466465 -0.15515094 -0.39871946 -0.8031868 0.00815552
-0.38720205 0.5861548 0.46878144 -0.28808755 -0.43879068 0.02148417 -0.27240986 -0.035401523
0.10831256 -0.1246412 -0.4818653 0.57445467 -0.31983113 0.36508092 0.726001 -0.13427167
-0.23861843 0.4073462 0.29606277 0.12998612 -0.0701913 -0.5040788 0.860172 0.292509
-0.13751319 0.6760718 -0.20294492 0.043995198 -0.17172493 -0.41991472 0.071260296 0.625539
00000000: 35ce ac3e f802 cf3e b3c8 1b3f 45b2 d1bd
00000010: b837 e73e ada1 843e 0470 6abe 6007 403e
00000020: 176a 8fbd 4312 e8be 89b3 8fbd 908e b33e
00000030: 65f5 12bf b605 32bf 53f9 11be 1179 dabe
00000040: d127 f93e 7094 033f 43f5 8a3d be1b f53e
00000050: e775 313e f1a1 8cbe 442c 653e 4fd9 603f
00000060: b984 82bd b62b 493e 139e 563e f37d bc3d
00000070: b73e 0abe b920 dc3d e575 0d3f 13bd 653e
00000080: 4c60 bf3e 6a59 4f3e ba55 43be 5d22 603e
00000090: b0e3 8c3d 76a7 153f 8fc0 f63d 6d44 4bbf
000000a0: 895f 14bf d531 dfbd 012f d4bd d723 d03d
000000b0: d712 a33e 9f2f 86be efd1 c53e e261 2b3e
000000c0: ebbe 95be 5bde 1dbf df71 403e 8c9b b63d
000000d0: 44c0 453d f3d4 bf3c 3f46 c43d 332c 8e3e
000000e0: 1f98 ebbd 146a 97be 8f40 e53e b02d ef3d
000000f0: b879 59bf ec7c 7b3e ffc7 43be 656f ba3e
00000100: b23b e6be 8f16 34be c06b b53e 47c4 0f3f
00000110: 4e21 6d3d 1316 0ebf 6e7c 2dbf 3c8c 13bf
00000120: 542b ebbe f01b 003f 33b3 693e b638 0b3f
00000130: d1d4 e03c 7102 a03e 9946 a73d 6791 36be
00000140: e023 c53e 2482 8cbd 62ef d8be c10d d83e
00000150: d70c dbbe 08b1 fb3e 332a 073f fe46 8fbe
00000160: 8ce3 04bf 63f6 693e 3617 bbbe 41f2 723e
00000170: f9ff 10bf 9528 c8be de0a 81be 3137 9c3e
00000180: 3500 03bf 579c d7be 85da 60bf 7dee 29be
00000190: 341f bd3e 7214 093c 39c5 c4be 45ce 633e
000001a0: caf4 9bbd 3bd9 66be a882 cdbe d628 64bf
000001b0: 7e2a 0abf 0c76 efbe da8a db3d 991c a73e
000001c0: 50f3 3b3f 80ea b23e dd0c 3dbf e100 16bf
000001d0: adcb ccbe bea0 613e d159 163f ede2 e9bd
000001e0: 4f5b a13e 34bb 88bc ef53 98be 6b9a c6bd
000001f0: 01b3 d53d 366d ec3e 15cc 3abe 0ae1 9d3c
00000200: 6c6d f83e 60d7 a6be 7fef 2ebe 0332 83be
00000210: fedd 193f 7fbb 2e3e 5247 e33d 93b2 fbbe
00000220: 9094 3cbe 20c9 86bd 1752 043f 77f4 1a3f
00000230: 334b c5be 558c b4be 0ec8 3dbe 394d 273f
00000240: 5fdf 0cbf 31ea 933e 148a 2bbe c3fb 953e
00000250: 007e b33c 96ba fabc 1974 e5be 10a7 86be
00000260: a0ac 7cbe a76d 133f 72a6 933e ce83 6c3d
00000270: 2aa1 78bd a8d7 043f a0fa b63d 1de0 083f
00000280: 7bfd 3abe fcd0 5abe 8960 04be c5ec d4be
00000290: 64f2 6d3e d98a 45bc af18 f4bd 2445 acbe
000002a0: 878b 48bf a2d8 7a3e b94a 53bf 8b39 273e
000002b0: 3fa3 04bd ffa8 f43c d15d d03e 8056 85be
000002c0: 55a9 a9be 2346 543e f113 f3be 4dac e4bd
000002d0: bd8d 543e 48ea 95be 4b4c 2f3f aa45 0e3e
000002e0: 2a59 ab3e 7ea4 f43e 72b2 103f da63 0abe
000002f0: 2252 a2be 20e1 0f3e 5d73 bf3e 2c44 10bf
00000300: 0e67 f83e 6c2c d33e 67e7 04bf db76 143f
00000310: 8e77 f23d f07f e2be 55c3 a2be d0ea 43be
00000320: 49a2 a6be 3a05 f8be cb06 603e 94a9 e73e
00000330: a078 2e3e 92c9 67be 8f01 263e a6c4 07be
00000340: b396 dabc 698c 103f 21f6 4f3e ea9c e9be
00000350: 1bfe 7c3d 7daf 4b3d ccf1 2e3e f8cc 77be
00000360: 4836 38bf 7fb8 023f 02c9 8d3e d515 8fbc
00000370: e3df 1ebe f524 ccbe a69d 4dbf bb9e 053c
00000380: 593f c6be 3e0e 163f 1f04 f03e 3680 93be
00000390: 2ca9 e0be 92ff af3c 4e79 8bbe 3001 11bd
000003a0: fad2 dd3d e343 ffbd 0cb7 f6be 760f 133f
000003b0: e8c0 a3be e3eb ba3e 34db 393f 837e 09be
000003c0: 6458 74be ae8f d03e 8a95 973e 151b 053e
000003d0: 75c0 8fbd 4f0b 01bf 3b34 5c3f bdc3 953e
000003e0: 42d0 0cbe 0b13 2d3f cbd0 4fbe 4f34 343d
000003f0: a9d8 2fbe 10ff d6be ebf0 913d 5323 203f

conv3.bias f4 [16]
-0.00083624467 -0.0043900385 0.016411193 0.03892964 0.011192092 0.0004117998 0.00754561 0.0005044878
0.019461228 -0.014055238 0.0017829854 0.009860291 0.007814573 -0.006815537 -0.033318017 0.010968207
00000000: 6e37 5bba 50da 8fbb c470 863c b074 1f3d
00000010: 095f 373c d5e6 d739 2a41 f73b 9a3f 043a
00000020: 276d 9f3c f147 66bc 10b3 e93a 0f8d 213c
00000030: b208 003c de54 dfbb 7978 08bd ffb3 333c

conv3.fc_self.weight f4 [16, 16]
-0.27191788 -0.05287161 0.11430456 -0.2719397 -0.038932286 -0.19986914 0.013310525 -0.15215528
-0.050796088 -0.14355904 0.29463163 0.35567763 0.027004778 0.07477 -0.04469328 -0.39413193
0.15235929 0.08917643 0.10874905 0.22937708 0.03267517 -0.16705461 -0.08327503 0.49468195
0.31322753 0.17001142 0.33206153 0.34107238 -0.3293999 -0.34039125 -0.19392514 -0.118938826
-0.2593984 0.2581812 0.071396425 -0.23739868 0.2584515 -0.09950337 0.09323386 -0.27329522
0.13407464 -0.3767226 0.38001943 0.053421713 -0.031818297 -0.34470585 0.5442531 0.15072328
0.07996417 -0.012266331 0.4227511 0.17807914 0.37117758 -0.17491089 0.39485118 0.29751194
-0.45047548 0.06777471 -0.2257331 -0.0693756 0.1236867 0.19465975 0.1699278 -0.016879087
0.324097 0.5390588 -0.06886967 0.19168633 0.4614583 -0.007927279 0.0011254513 0.30584818
-0.33116066 -0.2401562 0.28183034 -0.1553046 -0.035590068 0.34627426 -0.2520848 -0.4919119
0.3204283 0.11408655 0.19579366 -0.104325324 0.48809302 0.17397885 -0.19513585 0.4276894
0.12578094 0.3349678 -0.1454538 -0.30813012 -0.20891477 -0.21574873 -0.5228954 -0.08813712
0.354756 -0.26322782 -0.28499722 -0.46270284 -0.39769098 -0.34679046 0.46833962 0.34595686
0.34061995 0.1849643 -0.27936542 -0.38674557 0.26837248 0.06495155 -0.11886414 0.51834613
-0.32689852 -0.051718954 0.28954288 0.2653634 0.032831375 -0.36188918 0.29831877 0.3753076
-0.15128373 -0.21649912 0.029778529 -0.2319892 0.4424914 0.36019894 0.38551554 0.2749151
-0.24490784 0.4580943 0.3256459 0.0010555816 0.48827717 0.53530747 0.10256116 0.2588295
-0.37431607 -0.17234719 0.3025017 -0.12570971 -0.2303537 0.26460886 0.28542635 -0.38650835
0.15683496 -0.03487835 0.02326745 0.27073145 -0.33413354 0.07044994 0.057287112 0.1433926
-0.34240606 0.46965927 -0.23672265 -0.27943903 -0.45110527 -0.20274988 -0.21053715 -0.19979075
0.05801437 -0.2634661 -0.12838061 0.25890014 -0.21766523 0.21790616 -0.17019637 -0.08981985
0.12561083 -0.08620655 0.41276404 0.21665932 0.319499 -0.49009728 0.36611947 0.19930728
0.4570993 -0.48221326 0.6543753 -0.018611088 0.16504003 -0.107800566 0.22202624 -0.37307796
0.33608678 -0.27134335 -0.1041327 0.30885008 0.10085334 -0.3534367 0.079819694 0.8679116
0.03262871 -0.16498482 -0.16007167 -0.01161955 0.24314122 0.07081905 0.182152 -0.17501044
-0.10840999 -0.40644366 -0.12824386 -0.08332839 0.06710363 0.044053808 0.34457695 0.43401656
-0.24203849 0.42695802 0.43853837 0.10967063 0.22871538 0.09986629 0.40085647 0.35225257
0.13878495 0.18629406 -0.053140648 0.27807674 -0.34609285 -0.42584455 -0.3640063 0.15499298
-0.0011671497 0.3173177 -0.29193464 -0.02138903 -0.13879281 0.1463874 0.31405663 0.31664416
-0.01985423 0.2991719 0.40868217 0.068043195 -0.19632196 0.24836507 -0.33706814 -0.19857548
0.014792594 -0.37746838 -0.41757628 -0.3830216 -0.50209606 -0.14984275 -0.26736778 -0.052771926
0.08273495 0.09961027 0.23935585 0.15373954 0.039607495 0.050718017 -0.12530674 -0.27826864
00000000: d238 8bbe e78f 58bd 8218 ea3d ae3b 8bbe
00000010: 7677 1fbd 7faa 4cbe 6314 5a3c 98ce 1bbe
00000020: 8f0f 50bd 2401 13be f5d9 963e 611b b63e
00000030: 2039 dd3c 0421 993d 4d10 37bd a9cb c9be
00000040: 1304 1c3e 22a2 b63d d2b7 de3d d3e1 6a3e
00000050: 66d6 053d 5d10 2bbe 198c aabd f446 fd3e
00000060: 5c5f a03e 7917 2e3e f803 aa3e 0aa1 ae3e
00000070: 1ba7 a8be c347 aebe 5094 46be 3396 f3bd
00000080: decf 84be 5430 843e 4a38 923d a418 73be
00000090: c153 843e 6cc8 cbbd 65f1 be3d 5aed 8bbe
000000a0: dd4a 093e c9e1 c0be e891 c23e bad0 5a3d
000000b0: e753 02bd 497d b0be 2c54 0b3f 3457 1a3e
000000c0: 41c4 a33d b9f8 48bc d572 d83e 615a 363e
000000d0: fd0a be3e d71b 33be ef29 ca3e 7c53 983e
000000e0: b9a4 e6be 78cd 8a3d 9426 67be cb14 8ebd
000000f0: 744f fd3d e354 473e 8e01 2e3e 0346 8abc
00000100: 0bf0 a53e c2ff 093f 8b0b 8dbd 6c49 443e
00000110: 4344 ec3e 6be1 01bc e183 933a 2298 9c3e
00000120: e48d a9be 82eb 75be 114c 903e 2b08 1fbe
00000130: e4c6 11bd dc4a b13e 4211 81be e0db fbbe
00000140: 2e0f a43e 36a6 e93d 227e 483e 84a8 d5bd
00000150: 54e7 f93e 8327 323e b1d1 47be 1bfa da3e
00000160: b8cc 003e e680 ab3e d7f1 14be 3bc3 9dbe
00000170: c1ed 55be 3ced 5cbe 79dc 05bf 3c81 b4bd
00000180: 94a2 b53e ccc5 86be 28eb 91be 63e7 ecbe
00000190: 279e cbbe 858e b1be 36ca ef3e 4221 b13e
000001a0: bd65 ae3e 4867 3d3e fc08 8fbe 8403 c6be
000001b0: 1e68 893e 5105 853d 0b6f f3bd 55b2 043f
000001c0: 3e5f a7be 41d7 53bd f73e 943e b6dd 873e
000001d0: 317a 063d 8a49 b9be 3dbd 983e 5128 c03e
000001e0: 1fea 1abe f2b1 5dbe 1af2 f33c 948e 6dbe
000001f0: 3c8e e23e ff6b b83e 4b62 c53e acc1 8c3e
00000200: 1fc9 7abe 568b ea3e 0fbb a63e 715b 8a3a
00000210: 77ff f93e e909 093f 960b d23d 4d85 843e
00000220: 5ba6 bfbe c87b 30be 81e1 9a3e 0cba 00be
00000230: d7e1 6bbe d07a 873e 6723 923e 6ce4 c5be
00000240: 5899 203e 9adc 0ebd 619b be3c 509d 8a3e
00000250: 8d13 abbe 0f48 903d e4a5 6a3d 82d5 123e
00000260: d94f afbe 2e77 f03e 6c67 72be a212 8fbe
00000270: 45f7 e6be aa9d 4fbe 0d97 57be f295 4cbe
00000280: 7aa0 6d3d 07e5 86be 3576 03be 8f8e 843e
00000290: a2e3 5ebe cb22 5f3e f547 2ebe 78f3 b7bd
000002a0: 20a0 003e 0f8d b0bd cf55 d33e f1db 5d3e
000002b0: 5f95 a33e 08ee fabe 0374 bb3e 3517 4c3e
000002c0: eb08 ea3e a8e4 f6be 2485 273f 4876 98bc
000002d0: 4100 293e 8bc6 dcbd d95a 633e 1304 bfbe
000002e0: 9113 ac3e 84ed 8abe 8643 d5bd 9921 9e3e
000002f0: 328c ce3d a8f5 b4be 8278 a33d 742f 5e3f
00000300: afa5 053d c8f1 28be d4e9 23be ed5f 3ebc
00000310: 03fa 783e 9409 913d 0e86 3a3e f035 33be
00000320: 0f06 debd 6219 d0be 5c52 03be 13a8 aabd
00000330: a16d 893d c471 343d 646c b03e 6b37 de3e
00000340: f0d8 77be 3e9a da3e 1a88 e03e ff9a e03d
00000350: 5d34 6a3e b386 cc3d 0f3d cd3e 735a b43e
00000360: a41d 0e3e dfc3 3e3e 02aa 59bd 1360 8e3e
00000370: 1533 b1be 4c08 dabe 095f babe 7bb6 1e3e
00000380: 0cfb 98ba 7777 a23e 7578 95be 0c38 afbc
00000390: b41f 0ebe 94e6 153e 08cc a03e 2f1f a23e
000003a0: 57a5 a2bc 0f2d 993e ca3e d13e 3b5a 8b3d
000003b0: a008 49be 6a53 7e3e 3294 acbe 5f57 4bbe
000003c0: a35c 723c 8943 c1be 8fcc d5be 681b c4be
000003d0: 5e89 00bf 6170 19be 6ee4 88be 6027 58bd
000003e0: f170 a93d 7800 cc3d b319 753e e66d 1d3e
000003f0: 783b 223d b2bd 4f3d 6950 00be 3a79 8ebe

conv3.fc_neigh.weight f4 [16, 16]
0.40631676 -0.55214554 -0.27513012 0.1981176 0.09545254 0.5624562 0.6551684 -0.43503067
-0.2614681 -0.32808325 0.055390883 -0.09120156 0.04211636 -0.2689057 -0.30506212 -0.12144684
0.15729181 -0.4465811 -0.46864566 -0.46970037 0.15119977 -0.15614699 -0.26384345 -0.24252379
0.45033216 -0.2809372 -0.16156653 -0.1967698 -0.08925642 -0.34300557 -0.16258433 -0.74530387
0.16016181 0.10489269 0.24848673 0.01919044 0.469431 -0.33582062 -0.08819864 0.22227475
-0.13337031 0.28293476 0.22723138 -0.46953735 -0.38489336 0.09656005 0.50576353 -0.12161002
0.12817223 -0.41090372 0.0824812 -0.09754711 -0.20019753 -0.39388865 0.4451963 0.3656821
-0.44791675 0.36726302 -0.2332175 -0.08813379 0.40862298 0.32943326 0.63159263 0.0012377665
0.4476096 0.38437 -0.27765176 -0.04881079 -0.06837236 -0.11907923 0.5299592 0.029150212
-0.4173856 -0.28207982 -0.13833298 0.1817696 0.50299376 0.35387745 0.30239296 0.100940734
0.11333452 -0.04435706 -0.37413114 -0.4628297 0.40554613 0.20574836 0.07396696 -0.39342335
-0.38907215 -0.2858414 0.52326655 0.37008 0.055628013 0.2833147 -0.33015072 0.27945122
-0.28319356 0.16088486 -0.14130186 -0.23804064 -0.32370445 -0.051208675 0.35950693 0.040934827
0.3862009 -0.2612193 0.28754324 -0.57753164 0.005074757 -0.33250156 -0.39987838 0.17507537
0.5077575 -0.41535076 -0.027558606 0.3372811 0.26497626 -0.10240943 -0.38562062 0.43107614
0.07777911 -0.30114672 0.21471865 -0.3956938 0.5343598 0.37224317 -0.3167806 0.06127615
0.3983696 0.24494176 0.52241176 -0.42407608 0.4273673 0.4913319 0.5664612 0.42771035
-0.12663937 -0.004068212 -0.05466674 -0.0010352123 -0.050264485 0.102277525 0.041122556 -0.2833301
0.57120264 -0.55112106 -0.16050698 0.41764817 -0.27692512 -0.054558594 -0.35265923 -0.44400007
-0.5330216 -0.48728147 0.105673626 -0.61530334 -0.26564494 -0.31804973 0.020673146 0.18753651
0.059097733 -0.14755554 0.20660628 0.42667848 -0.16431287 -0.3356329 -0.13850754 0.37959886
0.32564253 0.14822459 0.5350744 0.41455087 0.066788286 -0.70986205 0.52108186 0.39314914
0.5847276 -0.026797561 0.29633293 -0.52279365 -0.1673897 -0.29355782 0.00023584164 -0.076378286
0.22546677 0.38953045 -0.25830182 0.11468786 0.048688903 0.43030334 -0.15295638 -0.08576669
0.27145907 -0.23591502 -0.2439381 0.09945198 0.28309754 -0.046314754 0.011679761 0.5182568
-0.08870423 0.1887217 0.121237285 -0.007352442 -0.4510067 0.088695005 -0.037663117 0.010734855
0.47454843 0.41036952 -0.18393674 -0.3440234 -0.096048824 0.3100171 -0.74195445 -0.14445172
-0.2197186 -0.5247872 0.28584665 0.14949504 -0.26729035 -0.42291284 -0.17626029 -0.036262605
0.058123033 0.18247075 -0.109124646 0.24907005 -0.6098588 -0.3492369 -0.22801523 -0.2446316
0.328424 0.40434802 0.5445256 0.40317833 -0.20033166 0.48378885 -0.4807908 -0.30655327
-0.07874813 -0.44668517 0.36075664 0.034803335 -0.33749568 -0.26034197 -0.254705 0.42145383
-0.3280499 -0.3922226 0.07978691 0.1376697 -0.118194975 -0.227026 0.20459211 0.40638635
00000000: c008 d03e 6959 0dbf dbdd 8cbe 57df 4a3e
00000010: 9f7c c33d 21fd 0f3f 1eb9 273f 57bc debe
00000020: 26df 85be 87fa a7be 8de1 623d e2c7 babd
00000030: 3482 2c3d 02ae 89be 1a31 9cbe 1fb9 f8bd
00000040: 1b11 213e 47a6 e4be 53f2 efbe 917c f0be
00000050: 1dd4 1a3e ffe4 1fbe 7d16 87be 2858 78be
00000060: f091 e63e 00d7 8fbe b271 25be 067e 49be
00000070: 12cc b6bd 6d9e afbe 827c 26be 3ccc 3ebf
00000080: 7501 243e fbd1 d63d 4e73 7e3e 4535 9d3c
00000090: 4359 f03e aef0 abbe 7da1 b4bd fe9b 633e
000000a0: 3a92 08be d3dc 903e 58af 683e 3367 f0be
000000b0: be10 c5be 47c1 c53d b879 013f ad0e f9bd
000000c0: 953f 033e f961 d2be e7eb a83d c7c6 c7bd
000000d0: 9500 4dbe c6ab c9be c5f0 e33e af3a bb3e
000000e0: 5855 e5be e609 bc3e 91d0 6ebe 7d7f b4bd
000000f0: 0837 d13e 7aab a83e 0eb0 213f 8d3c a23a
00000100: 162d e53e 25cc c43e 5f28 8ebe d3ed 47bd
00000110: cf06 8cbd d0df f3bd 68ab 073f 6dcc ee3c
00000120: 91b3 d5be c46c 90be 29a7 0dbe cf21 3a3e
00000130: 33c4 003f 6d2f b53e 40d3 9a3e 04ba ce3d
00000140: ee1b e83d c0af 35bd 1e8e bfbe 04f8 ecbe
00000150: bea3 cf3e b3af 523e fd7b 973d c96e c9be
00000160: 7734 c7be ce59 92be ccf4 053f 207b bd3e
00000170: 33da 633d a00e 913e 8409 a9be 3b14 8f3e
00000180: bffe 90be 00bf 243e 6fb1 10be edc0 73be
00000190: 97bc a5be 30c0 51bd 4b11 b83e 47ab 273d
000001a0: 20bc c53e 89be 85be de38 933e 1dd9 13bf
000001b0: 264a a63b a53d aabe dcbc ccbe f546 333e
000001c0: 65fc 013f dba8 d4be 96c2 e1bc 1cb0 ac3e
000001d0: f8aa 873e 09bc d1bd 1170 c5be 03b6 dc3e
000001e0: a74a 9f3d e72f 9abe 35df 5b3e 6198 cabe
000001f0: cecb 083f a896 be3e 1131 a2be b3fc 7a3d
00000200: 1af7 cb3e 03d2 7a3e c7bc 053f 8020 d9be
00000210: e3cf da3e db8f fb3e 9a03 113f dafc da3e
00000220: c0ad 01be a34e 85bb 3bea 5fbd f6af 87ba
00000230: 22e2 4dbd e176 d13d 2070 283d a510 91be
00000240: 563a 123f 4516 0dbf f15b 24be fbd5 d53e
00000250: 21c9 8dbe d578 5fbd c08f b4be fa53 e3be
00000260: 1b74 08bf f57c f9be 6a6b d83d 8584 1dbf
00000270: 9d02 88be 6ad7 a2be bb5a a93c 9209 403e
00000280: 7710 723d cd18 17be 9990 533e 9a75 da3e
00000290: a241 28be 13d8 abbe ecd4 0dbe c85a c23e
000002a0: 9eba a63e 30c8 173e a3fa 083f 0340 d43e
000002b0: 4cc8 883d 85b9 35bf 9f65 053f d84a c93e
000002c0: b5b0 153f 8f86 dbbc f3b8 973e ced5 05bf
000002d0: 3568 2bbe 364d 96be 424c 7739 386c 9cbd
000002e0: c3e0 663e 8970 c73e 2340 84be 78e1 ea3d
000002f0: 046e 473d b850 dc3e 99a0 1cbe 72a6 afbd
00000300: affc 8a3e b593 71be e9ca 79be 7bad cb3d
00000310: 29f2 903e 8ab4 3dbd 785c 3f3c 7aac 043f
00000320: 90aa b5bd 4340 413e 414b f83d c1ec f0bb
00000330: 5aea e6be baa5 b53d a444 1abd 3fe1 2f3c
00000340: 03f8 f23e f41b d23e ea59 3cbe d623 b0be
00000350: 3fb5 c4bd 90ba 9e3e baf0 3dbf 27eb 13be
00000360: eafd 60be 7458 06bf 7e5a 923e 3a15 193e
00000370: 48da 88be 0888 d8be 947d 34be 1988 14bd
00000380: 6b12 6e3d 9dd9 3a3e be7c dfbd 380c 7f3e
00000390: b51f 1cbf 2ecf b2be d37c 69be b580 7abe
000003a0: 3127 a83e b406 cf3e 0866 0b3f 646d ce3e
000003b0: be23 4dbe 2cb3 f73e 362a f6be 8df4 9cbe
000003c0: b346 a1bd ebb3 e4be 18b5 b83e f18d 0e3d
000003d0: 3ccc acbe 8b4b 85be b268 82be ccc8 d73e
000003e0: 28f6 a7be 67d1 c8be 5267 a33d 49f9 0c3e
000003f0: 3510 f2bd 8179 68be 9880 513e df11 d03e
