model.pth (torch, 31873 bytes, 12 tensors)

conv1.bias f4 [16]
000000 7c 6e 38 bb 28 30 94 bb 97 25 64 ba 25 f2 b4 3b
       -0.0028142026 -0.0045223422 -0.0008703111 0.00552203
000010 2e 64 3c bb 04 9a 2a bd 4e 80 cd bc 90 ae 83 3c
       -0.0028746235 -0.041650787 -0.025085595 0.016074449
000020 74 7d 24 bc 5a 83 b8 bc 71 33 da bc e6 98 0a 3b
       -0.010039676 -0.02252357 -0.026635857 0.0021148263
000030 2a 9d a1 bb 5f 9f 34 3b 2d 6d c5 bc 55 b8 d7 3b
       -0.0049320655 0.0027560813 -0.02409991 0.0065832534

conv1.fc_self.weight f4 [16, 170]
000000 d7 ab 34 3e 81 09 c3 3d f2 a3 b1 bd 22 d3 fd 3d
       0.17643677 0.09523297 -0.08673848 0.12393786
000010 e7 20 a6 3d 0b 08 b3 bd 56 7c 17 bd fc 30 84 bd
       0.081117444 -0.087417684 -0.03698381 -0.064546555
000020 a7 0c 0d bd 31 ff cf 3d 93 7d 6d bd 40 4b 48 be
       -0.034435894 0.10156096 -0.057981085 -0.19559956
000030 e3 82 76 3e 1b 4e 58 bd 5b a2 30 bc 07 22 90 bd
       0.24073367 -0.052808862 -0.010780896 -0.0703774
000040 81 63 8f bd eb ed 6d 3b af 33 bf bd e3 7c 97 bd
       -0.07001401 0.003630514 -0.0933603 -0.07396867
000050 69 2d 25 bd 9e 33 df 39 89 4f cc 3d b2 b7 89 bd
       -0.04032651 0.00042572332 0.099761076 -0.0672449
000060 dd 82 25 bc fd 0a 41 3c 5c e0 92 3d af 42 6c 3c
       -0.010102001 0.011782405 0.071716994 0.0144201955
000070 80 6b 41 3e 38 11 46 3d 81 0e 26 3e b6 22 fe 3d
       0.18888664 0.048356265 0.1621647 0.12408964
000080 12 34 0c bc f2 4e eb bc 90 3e ca bd 4e 01 6f 3c
       -0.008557336 -0.028724167 -0.09875214 0.014587713
000090 75 4e 59 bd db 9e b3 bd f9 f9 a0 bd 20 9a 27 be
       -0.053053338 -0.08770534 -0.078601785 -0.16367388
0000a0 74 6b 2d 3c 05 84 50 3e d3 57 0d bd 29 10 a8 bd
       0.010584701 0.20362861 -0.034507584 -0.08206207
0000b0 b3 c9 e6 3d 4d ba 18 3e e7 e9 34 3b 42 6d cc bd
       0.1126894 0.14914818 0.0027605237 -0.09981777
0000c0 9a 4e 36 3d 4a 84 9b 3b 60 20 0e 3d 91 6f e0 bd
       0.044508554 0.0047459947 0.034698844 -0.109587796
0000d0 97 d3 9d bc c6 bb f4 3b 4b aa cd bd 44 e9 0a 3d
       -0.019265933 0.0074686734 -0.100422464 0.033913866
0000e0 14 5d 0a bd 34 c0 9a 3c 28 d7 9c bc 7e a5 18 bd
       -0.033780172 0.018890478 -0.019145563 -0.0372672
0000f0 a7 35 cf 3d 6f 09 c6 bd f5 8d e0 3d 0d 8e 41 3d
       0.10117655 -0.09669768 0.10964576 0.04725461
000100 e5 d5 a3 3e a5 26 d5 3e 43 74 04 bc 65 6b 14 3c
       0.31999126 0.41631046 -0.00808436 0.009058808
000110 c1 01 8a 3d 63 12 d5 bc 50 3b fb 3c 16 f7 3e 3a
       0.06738616 -0.026009744 0.03066793 0.00072847435
000120 9e c5 07 bc bd fe b2 bc ca d2 98 3b 51 29 6c bd
       -0.008286862 -0.021849984 0.0046638 -0.05765659
000130 cb 27 83 bd 27 7c bf bd d6 8d b5 3d ef 2d 8f bd
       -0.06404074 -0.09349852 0.08864944 -0.06991183
000140 cf f6 02 be f5 67 53 bd 4a 64 0e 3e a8 37 9b 3c
       -0.12789463 -0.051612813 0.13905445 0.018947437
000150 06 a4 c9 bd 48 62 a6 3e 42 87 0b 3d 47 15 6f 3d
       -0.09845738 0.32496858 0.03406454 0.0583699
000160 aa a8 f2 3d 1a 10 81 3d 6b 12 5c 3d c0 95 a5 bd
       0.11848576 0.06301899 0.053728502 -0.08085203
000170 bb 5c a7 bc 23 03 18 bd 7d 20 0e 3e 9e d1 4b bd
       -0.02042996 -0.037112366 0.13879581 -0.049760453
000180 56 82 8f bd a5 cb 8c 3d 0d 4d cc bc c6 79 bf 3c
       -0.070072815 0.068747796 -0.024939084 0.023373496
000190 41 5b 30 3d cd 14 37 3d 66 ee e7 3d 32 08 50 3a
       0.043055777 0.04469757 0.11324768 0.00079357915
0001a0 cd 26 31 be d6 c5 e1 3d 00 24 19 be b1 6b f3 3c
       -0.17299958 0.11024062 -0.14955139 0.029714437
0001b0 9d 2c 38 3b a4 56 7d bc 52 ca 10 3e 85 b6 6d be
       0.0028102763 -0.015462551 0.14139679 -0.23214157
0001c0 ed b4 81 3c 00 31 b5 3c 87 1b e1 bb 71 13 a0 3e
       0.015833342 0.022118092 -0.0068697366 0.31264833
0001d0 ea 2c 0c 3e e6 6f aa bd ff 21 33 3d b3 15 bc bd
       0.13689008 -0.08322124 0.043733593 -0.09183826
0001e0 e7 e6 d4 3c ed 70 05 bc 3a 1b 71 3d fd a1 5d bd
       0.025989009 -0.008144599 0.058863856 -0.054109562
0001f0 c3 23 ec bd d3 dd 93 bd 7f 93 a2 3c 38 b8 5f 3d
       -0.115302585 -0.07220044 0.019845722 0.054619044
000200 61 f3 81 3d 94 69 01 3e 74 6b 83 bc 82 93 fb 3d
       0.06345249 0.12637931 -0.016042449 0.12283994
000210 c3 f4 4b 3e 17 c3 78 3d 0d b0 81 3d f0 72 17 bc
       0.19917588 0.060732927 0.06332407 -0.009243712
000220 78 db 22 be 56 bd 16 bd 74 84 90 bd ef 4c fc bd
       -0.15904033 -0.03680166 -0.070565134 -0.123193614
000230 19 89 9b 3b 99 35 8c bd f1 e6 4a 3c f2 af 1e 3e
       0.004746568 -0.068461604 0.012384162 0.15496805
000240 de 63 1f bc a1 af c5 3b 91 55 80 3d ee 66 b3 bd
       -0.0097284 0.0060328995 0.062663205 -0.08759867
000250 1c cb 61 3d ec 84 0a 3e d3 6c 11 3e c9 ed 1e 3b
       0.05512534 0.13527268 0.1420167 0.0024250618
000260 c9 f8 ab bd 6b 02 21 3e 3b a4 1b 3e 3a 8f 2d 3d
       -0.083970614 0.15723579 0.15199368 0.04237292
000270 02 54 67 3c 03 f4 5f 3d 1a 4b 0b bd 66 69 a7 bd
       0.01411915 0.054676067 -0.03400717 -0.081744
000280 b6 84 7f 3c 35 42 7d 3d a5 a9 60 3e 3f 26 2e bc
       0.015595606 0.061830718 0.21939714 -0.010629236
000290 3b 47 15 3e 5f 7c b2 bd 8e 86 43 bd db 1f 7b bd
       0.14577954 -0.08715128 -0.047735743 -0.061309677
0002a0 e4 53 07 3e 09 50 0e be 75 07 0f 3e f1 83 e5 3c
       0.13215595 -0.13897718 0.13967688 0.028017016
0002b0 cc 5c ee bd 81 11 d6 bb ae 4c 9c bb 5c a9 eb bc
       -0.11638793 -0.0065328483 -0.004769883 -0.02876728
0002c0 9a 72 e8 3d 70 65 31 38 4d e5 96 bd 2d 20 cb bd
       0.113499835 4.229456e-05 -0.073679544 -0.099182464
0002d0 39 38 be 3d 83 c3 16 3e ea ea 31 3e 04 54 05 3e
       0.09288067 0.1472302 0.17374769 0.1302033
0002e0 a7 46 02 be 9c 89 9a 3d 6d 62 84 3d 3e 47 59 bd
       -0.12722264 0.07545778 0.06464086 -0.053046457
0002f0 69 ef 89 3d 08 38 1e 3d 8a cf de bd db 9b 2e 3d
       0.06735117 0.038627654 -0.10879429 0.042629104
000300 d5 5d 02 3d 6b 00 a1 3c 5d 9c 6c bb 79 cb a2 3c
       0.031827766 0.01965352 -0.0036103942 0.019872414
000310 57 ca 45 bd 30 0b 4a 3d d5 c8 a5 3e b2 bf 75 bd
       -0.04828867 0.049327075 0.32379785 -0.059997268
000320 3b 94 79 be e3 5c 9b 3c 44 0e 69 3d 92 4b 50 bd
       -0.24372952 0.01896519 0.05689837 -0.05085332
000330 02 b3 06 3e af 89 0d 3e 9d 2c cb bd 8b da 37 bd
       0.13154224 0.13822053 -0.09920619 -0.044886153
000340 23 2c 02 3c 33 39 b5 bd 54 da 4e 3d 3e d1 b9 3d
       0.007945093 -0.088488005 0.050501183 0.09073113
000350 bd 75 dd bc 2d f5 58 bd 61 d9 3b bc c7 fe 06 3e
       -0.027033681 -0.052968193 -0.011465401 0.13183127
000360 59 31 89 3e c7 18 3d be 42 4a 6f be 8f 59 d9 bd
       0.26795462 -0.18466483 -0.23368171 -0.10612785
000370 28 33 43 bd 82 10 02 3d 61 97 30 3d aa 6b 04 3d
       -0.04765621 0.031754024 0.043113116 0.03232924
000380 d6 f9 f3 bc d1 19 d2 3b 78 39 9d bd ea 7c f5 bd
       -0.029782217 0.006411769 -0.07676977 -0.11986716
000390 c4 2c 12 be eb a9 80 be 03 5d 50 3d eb 4c a9 bd
       -0.14274889 -0.25129637 0.050869953 -0.08266624
0003a0 9c e2 0c be 3c 30 3f bc ba 2d 80 3e 10 93 98 bd
       -0.1375832 -0.011669215 0.25034887 -0.07449925
0003b0 85 3e a8 bd c3 f7 80 bd 95 86 20 be 56 6d be bd
       -0.0821505 -0.06297257 -0.15676339 -0.09298198
0003c0 91 68 ce bd 60 4a e7 bc 40 36 23 3d 25 b5 c0 bc
       -0.10078538 -0.028233707 0.03984666 -0.023523876
0003d0 84 0b c3 3c 52 b7 cc bd 75 93 08 be 3e af bd 3c
       0.023809202 -0.09995903 -0.133375 0.023154851
0003e0 89 80 58 3d 18 1d 50 3d cb 37 c6 3c 84 ea 37 3b
       0.052856956 0.050808996 0.024196526 0.0028063366
0003f0 1a 52 f7 3d f9 44 b0 3e 00 f6 5f bc ac d3 e6 be
       0.120762065 0.34427622 -0.013669491 -0.45083368

conv1.fc_neigh.weight f4 [16, 170]
000000 21 7f 6d 3e 4b f3 f9 3d 54 b9 03 bd 7d f9 2e 3e
       0.23193027 0.122046076 -0.032159165 0.1708736
000010 7f 40 32 3c b0 c4 a2 3c cf 33 89 3d 8e 89 16 3e
       0.010879635 0.019869179 0.06699335 0.1470091
000020 75 db 4f 3d 22 86 57 3e 03 8d 43 3d 59 12 81 bd
       0.0507464 0.21047261 0.0477419 -0.06302328
000030 2d 09 36 3d 65 9f 35 3e 97 3d ad 3d a7 07 d8 bd
       0.044442344 0.17736585 0.08459013 -0.105483346
000040 ed fa a4 3c 44 2d 37 3e 5b fa 09 3d 5f c3 11 3d
       0.020139182 0.17888361 0.033686023 0.03558671
000050 fe 90 25 3e 01 ce 5c bd 87 50 81 3d fe 76 30 be
       0.16168591 -0.053907398 0.063141875 -0.17232892
000060 d3 f3 a8 3d 2f 6c 06 be 5a e1 ec 3d e9 a3 d8 3c
       0.08249631 -0.13127206 0.1156642 0.026445346
000070 b8 21 d5 bd d8 cd b0 bd 88 d0 46 3e 5c 39 4b 3e
       -0.10406822 -0.086330116 0.19415486 0.198461
000080 47 26 dc 3d a1 32 6c be dc bf 1f be c6 b5 96 3d
       0.10749488 -0.23066188 -0.15600532 0.07358889
000090 d4 3d e1 3d 19 76 0d bd 20 69 87 3e 19 3a 2e 3d
       0.10998121 -0.034536455 0.26447392 0.042535875
0000a0 b4 83 a8 bd 3e c8 94 3e 7c ab 19 3e 2c 94 5d 3d
       -0.082282454 0.29059023 0.15006822 0.054096386
0000b0 84 96 17 3e c7 dc 29 be dd ea 0e 3e 2f 1a 0b 3c
       0.14803511 -0.16588126 0.1395678 0.008490129
0000c0 6a 6a 17 3d f8 ce 77 3d 5e 17 ed bc dd e1 05 bc
       0.03696672 0.060500115 -0.028941806 -0.008171526
0000d0 22 3e 22 be f3 25 04 3d 61 cc 97 bd 30 4c 03 3e
       -0.15844014 0.032262754 -0.07412029 0.12822032
0000e0 80 73 02 be be 72 b2 3d 9b 4e c2 bd 68 1e 77 be
       -0.12739372 0.087132916 -0.09487649 -0.24132693
0000f0 1a 2d 2d 3e 9f 96 45 bd ea 4b 18 3e 0d 26 13 be
       0.16911736 -0.048239347 0.14872709 -0.14369984
000100 be 79 1a 3e b1 52 48 3f 19 d6 14 be 3e 09 69 bd
       0.15085503 0.7825118 -0.14534797 -0.05689358
000110 48 ba 01 be d9 db 15 be bd 28 4b 3e 34 9a d7 3d
       -0.12668717 -0.14634646 0.19839759 0.10527459
000120 21 ca 08 be 37 ba c2 bd ef a1 d2 bc 3d 17 20 be
       -0.13358356 -0.09508174 -0.025711982 -0.15633865
000130 11 52 85 3d d7 8c 67 be c0 06 c0 3e 96 f6 d4 bd
       0.065097935 -0.2261232 0.3750515 -0.10398595
000140 06 78 d2 3d f0 86 ff bd 81 84 39 3d c3 36 ee bd
       0.10276799 -0.12476909 0.04529238 -0.11631539
000150 88 7b 19 3f e6 90 04 3f 91 cb 2a bd 3c 7a 5d 3d
       0.5995412 0.517836 -0.041698042 0.05407165
000160 5e 3a 88 bc d6 9e 02 3d 4b ed 77 3b c7 cf 2c be
       -0.016629394 0.03188976 0.0037830647 -0.16876136
000170 5b 33 15 bc 04 0b 57 be 4a f9 b2 3e 42 b6 6a 3e
       -0.009106482 -0.21000296 0.34955817 0.22921088
000180 85 c4 da bd f2 3e 4b be c9 02 bc 3d 58 94 f9 bd
       -0.106820144 -0.1984823 0.09180219 -0.121864974
000190 3b c1 ba 3d fd 66 9f be 99 40 3e bd 26 07 d0 3c
       0.09118887 -0.3113326 -0.046448324 0.025394034
0001a0 5f 5e 7b 3b 42 f5 b0 3b d9 f2 5c be b1 d4 47 3e
       0.003835581 0.0054003308 -0.21577014 0.19514729
0001b0 90 59 6c 3e 59 57 14 3e 4c 0a 61 3e 88 9e 63 bd
       0.2308104 0.14486445 0.21976584 -0.05557111
0001c0 66 00 f9 3d 39 fb 0a 3c ee 67 c2 3d fd c6 8d 3e
       0.12158279 0.008482748 0.09492479 0.2769088
0001d0 a9 a7 db 3e 19 fa b0 bd 3f ca ed be db 4e 82 be
       0.42901352 -0.08641452 -0.46443364 -0.25450787
0001e0 6c 04 3b be 5b 9f ff bd c8 15 1c 3e 23 45 7f be
       -0.18263406 -0.124815665 0.15242684 -0.24928717
0001f0 72 50 d7 3d e2 f5 ba be cf 00 94 bd be c9 82 bd
       0.105133906 -0.3651572 -0.07226717 -0.063861355
000200 ec e4 31 be d4 17 2e 3e b3 fa 80 be 05 3f 01 be
       -0.17372483 0.17001277 -0.25191268 -0.12621696
000210 fc 84 39 3d 29 78 be 3d 06 3f 14 3e 7d e0 6f bd
       0.04529284 0.093002625 0.14477167 -0.058563698
000220 ff c9 8a be 89 18 44 be cf d0 50 bd 0c ee ab bd
       -0.27107236 -0.19149984 -0.050980385 -0.08395013
000230 b0 b3 2c 3c 14 32 8a 3d 95 4a 48 3d 4a 54 76 3e
       0.010540888 0.06747833 0.048899252 0.24055591
000240 5d 7a f6 3d fe 3d 37 bd af a0 49 bd bd 00 39 be
       0.12035058 -0.044736855 -0.049225505 -0.18066688
000250 2e e1 3b 3e a1 97 b8 bd 04 b9 0c 3e ed 4d 3b be
       0.18347618 -0.09013296 0.13742453 -0.18291445
000260 cc 01 44 bd 13 f0 0f be 28 79 9c 3d 35 fe 5d be
       -0.047853276 -0.14056425 0.07640296 -0.21679004
000270 50 9d 69 bd cb ed 0f be 45 25 11 3e 33 15 5e be
       -0.05703479 -0.14055555 0.14174373 -0.21687774
000280 1b 10 80 3d b3 73 39 bc 8b a6 21 3d 52 60 2d 3e
       0.06253072 -0.011319089 0.03946547 0.16931275
000290 5e 61 4c 3a 34 1c 91 3e 6f 6e 5b be 8b 30 2d 3d
       0.0007796491 0.2834183 -0.21428846 0.042282622
0002a0 a3 32 cd 3e fe 53 9d bd a5 23 d7 3d 33 cc 1b 3e
       0.40077695 -0.07682036 0.105048455 0.15214615
0002b0 5d 7d 47 be 42 ec e4 3d 99 a6 75 3d cf 30 0f 3e
       -0.19481416 0.11177875 0.059973333 0.13983463
0002c0 ca 55 e7 3d bd 39 e3 3c b1 c4 9b 3d 7e 06 72 be
       0.1129566 0.027737493 0.07605875 -0.23635289
0002d0 56 94 58 3d 13 f6 ee ba b2 86 12 3e 0f 7c e3 3d
       0.05287584 -0.0018231295 0.14309195 0.11107647
0002e0 50 e4 bb bd e2 b4 18 bd ae 9b fd bd c2 1a 5c be
       -0.091744065 -0.03728188 -0.12383209 -0.21494582
0002f0 8c c5 b6 bc eb 61 5c 3c 93 45 01 bd 49 76 e8 bd
       -0.022310995 0.01345108 -0.03156049 -0.11350686
000300 cc 50 39 3e 72 38 a4 3c 39 92 f7 bc 36 d1 9a be
       0.18097228 0.020046446 -0.030221092 -0.3023774
000310 3f 81 a5 bd 28 ab c9 be d9 72 05 3e 9d f4 db bd
       -0.08081292 -0.39388394 0.13032092 -0.10740016
000320 0f 80 70 bd be f1 da 3d 9d b3 41 bd 28 bd 3c bd
       -0.058715876 0.1069064 -0.047290433 -0.04607883
000330 bf 80 4c 3e 73 98 cf bd 66 a0 f2 bd 9b 04 61 be
       0.19970988 -0.10136499 -0.11847 -0.21974413
000340 8f f2 d9 bb 54 ca b6 3e e3 3a fa bc 35 b6 d3 bd
       -0.0066512297 0.3570124 -0.030545658 -0.103374876
000350 3d 60 9c bc e3 ab 0d be 90 a4 55 3a b5 af df bd
       -0.019088859 -0.13835101 0.0008149827 -0.10922185
000360 76 f4 28 3e e5 e1 92 bd ce e1 06 be a7 14 cf 3d
       0.16499504 -0.07171992 -0.13172075 0.10111361
000370 06 df de 3d 05 5b f5 3e 7b ed 01 3d 9f c8 8a 3e
       0.10882382 0.47921005 0.03172062 0.27106187
000380 88 2e e1 bc d9 0d 8f 3d 67 71 ad bb 33 01 94 be
       -0.027488008 0.06985063 -0.0052930596 -0.28907165
000390 30 70 78 bb c2 8e 8b 3a 9c 6e 49 bd 89 24 6d be
       -0.0037908666 0.0010647404 -0.04917775 -0.23158468
0003a0 5f 2c d8 bd 27 c0 b3 3d 14 76 81 bd 16 4b 54 be
       -0.10555338 0.087768845 -0.0632135 -0.20731768
0003b0 65 36 b1 3c f7 64 6d 3e 6a 49 2e bd d4 bd b6 3d
       0.021632383 0.23183046 -0.04255048 0.089229256
0003c0 26 46 bb 3d cd 02 1f 3e f4 de 08 3e 4d 13 5c 3e
       0.09144239 0.15528412 0.133663 0.21491738
0003d0 c3 63 df 3d 74 d9 aa 3e a8 8a fa bc 70 10 8b bd
       0.109077 0.3336903 -0.030583695 -0.067902446
0003e0 f0 89 80 3d ce 3f c6 bd 02 71 42 be 8a 94 ce bd
       0.062763095 -0.096801385 -0.18988422 -0.10086925
0003f0 dc d3 db 3d 59 9d 89 3d 60 38 a7 bd 4d b7 cc be
       0.10733768 0.06719465 -0.081650496 -0.39983597

conv2.bias f4 [16]
000000 30 2e 8a 3b 7c 55 cf ba 97 15 c4 ba 4b 64 59 3b
       0.0042169318 -0.0015818323 -0.0014960048 0.0033171352
000010 f1 3f 46 bb 7f e9 43 bc 42 4a 24 3c 2c 55 fa bb
       -0.0030250514 -0.011957525 0.01002747 -0.007639548
000020 17 85 d5 3a 6c 5f a1 ba 6e d3 84 3b 52 47 1e 3c
       0.0016290274 -0.0012311763 0.0040535247 0.009660559
000030 c6 63 57 bc eb d8 30 3c 0e c1 26 3b 4c 16 a9 ba
       -0.013146346 0.010793905 0.002544466 -0.0012900322

conv2.fc_self.weight f4 [16, 16]
000000 1d 36 29 bd 04 4d 40 3e ce 11 82 bd 10 25 91 be
       -0.041311372 0.18779379 -0.06351052 -0.2834859
000010 a4 41 1e 3f b7 16 64 be e5 04 c3 3e 5f 53 bf be
       0.6181891 -0.2227429 0.38089672 -0.37368295
000020 b6 ea 15 bd 92 37 f0 bd a8 8d 46 3e b7 3a 98 3e
       -0.03660079 -0.11729349 0.19389975 0.29732296
000030 48 f7 ee be a2 a2 3c be 56 8e f8 bd 40 b5 b3 be
       -0.46673036 -0.18421414 -0.121365234 -0.3509922
000040 28 97 d0 bd a7 0a 51 be 7a 91 69 3d b9 e1 ba 3c
       -0.10185081 -0.2041422 0.057023503 0.022812711
000050 dd 5d 8c bd 3c 17 94 3e 96 55 49 be 68 ad ce 3e
       -0.068538405 0.28923976 -0.19661555 0.40366673
000060 7e 58 54 3e 66 e3 8c 3b 80 62 92 bd 6c b9 dc 3d
       0.20736882 0.004299569 -0.07147694 0.10777554
000070 09 26 f2 3e d6 cf 26 3f e4 04 bf 3e b9 76 26 bf
       0.47294644 0.6516088 0.3730842 -0.65024906
000080 fd e8 0c bf a3 c9 25 be 9e b9 b8 3e 98 03 0d bf
       -0.5504301 -0.161902 0.36079115 -0.5508361
000090 3f 3f b8 be 7a 62 c1 3d f1 7a c9 be 5f 57 86 be
       -0.35985753 0.09442611 -0.3935161 -0.26238534
0000a0 47 a4 84 3d 4c 7b e9 3d 0e 65 2c bd 3c 13 00 bf
       0.06476646 0.1140047 -0.04208856 -0.5002935
0000b0 05 18 2f be cd 90 4a 3d d2 72 e4 3e 26 58 ad 3c
       -0.17099006 0.0494545 0.4461885 0.021160197
0000c0 fc a7 2f be 30 39 70 3d c3 92 e2 be dc bc 5d be
       -0.17153925 0.05864829 -0.44252595 -0.21654075
0000d0 e5 d7 01 bd a6 26 a9 be 41 b7 12 3d c1 80 1a be
       -0.031700034 -0.330373 0.035819296 -0.15088178
0000e0 13 2f 89 3e 45 a0 bc 3e db 0c 83 3e ae 30 08 3f
       0.26793727 0.36841026 0.25595745 0.5319928
0000f0 6e 21 78 3e e5 6d 56 3e 82 b1 03 3f b1 9c a3 be
       0.24231502 0.20940359 0.5144273 -0.31955484
000100 50 f9 c2 3d 75 10 62 bd a8 c8 a4 3c 5a a0 44 be
       0.09520209 -0.055191476 0.020115212 -0.19201794
000110 87 da ce 3e be 4e 92 bd 30 9d 5d be 4a 03 0f bc
       0.40401098 -0.07143925 -0.21641994 -0.0087288115
000120 37 c9 3c be e1 90 6c 3d 20 1e 21 bf ee fe 3c 3d
       -0.18436132 0.057755355 -0.6293659 0.046141557
000130 b1 4e 1d bd 7c 2a 25 be 23 6a a2 be 53 4b af be
       -0.038405124 -0.16129488 -0.317216 -0.34237155
000140 3c f5 be 3e d4 30 43 be 6b 6b b4 3d 22 09 06 bf
       0.37296474 -0.19061595 0.08809551 -0.52357686
000150 c9 9e 02 be 5d bb 26 bf e2 31 05 3e ba 64 b5 3e
       -0.12755884 -0.65129644 0.1300731 0.3542841
000160 d9 ae 3d bf c3 9c 35 be ed a8 2f bf f4 f5 81 be
       -0.7409492 -0.17735581 -0.68617135 -0.2538296
000170 bd 84 09 3e 7a 34 a0 be f2 ac d0 3e be a2 14 3f
       0.13429542 -0.31290036 0.40756947 0.58060825
000180 77 28 9d 3e 13 07 9c 3d c2 91 52 be a1 4b af 3e
       0.30694935 0.07618537 -0.20563415 0.34237388
000190 b8 2f 1e bc 9c ab 4d be 8f e8 ac 3e 82 ff e7 3e
       -0.009654932 -0.20084995 0.33771178 0.45312124
0001a0 30 8b 83 be 8e fe 28 3d 22 1c 72 be 84 8e c7 be
       -0.2569213 0.041258387 -0.23643544 -0.38975918
0001b0 4f 15 c3 3e c4 3c 00 bf 3f f8 9d 3e 92 71 20 3e
       0.38102195 -0.5009272 0.3085346 0.15668324
0001c0 9f fc a7 be ac 49 a4 3e 6c cc 18 be 46 50 87 be
       -0.32809922 0.32087457 -0.14921731 -0.2642843
0001d0 79 20 b0 3e 57 d7 61 be cd 81 df be bf c8 69 be
       0.34399775 -0.22054802 -0.43653718 -0.22830485
0001e0 dc 3d c4 3d d6 e0 54 3e ef a7 e8 be 4a 9f 8d 3e
       0.09582111 0.20788893 -0.45440623 0.2766059
0001f0 14 48 22 3e 84 37 93 3e dd 34 e4 3e d3 19 a7 be
       0.15847808 0.28753293 0.4457158 -0.3263689
000200 e3 c5 14 3e 4e 2c d7 be 13 34 93 be 15 7f 04 be
       0.14528613 -0.4202599 -0.28750667 -0.12939103
000210 31 bb f3 3e 05 9d 57 3e 62 87 44 be 8c ae 78 3d
       0.47603753 0.21055992 -0.1919227 0.060713336
000220 73 c5 ed bd 64 9a 43 3e 2e 98 70 3e a9 e1 f4 be
       -0.11609926 0.19101864 0.23495552 -0.47828415
000230 7b 04 bc 3e 6f 2e 4b 3e cf 63 9f bd c4 cb 3a 3d
       0.36722168 0.19841932 -0.07782709 0.045604482
000240 44 39 58 be ab 10 0c be a7 6b 66 3e 2f bc da be
       -0.21115595 -0.13678233 0.22502004 -0.42721698
000250 89 42 f2 3e 3a 54 3f be ec 88 b3 be 15 f2 85 3e
       0.47316387 -0.18684474 -0.350654 0.26161256
000260 04 0f d1 3e 83 a5 13 3d 5f 3d af be 76 75 1b bf
       0.4083177 0.036046516 -0.3422651 -0.60726106
000270 4c de 8c 3d e4 dc dd bc 66 73 ad 3d 0f e8 f8 3e
       0.06878337 -0.027082868 0.08469276 0.48614547
000280 eb 88 f5 3e 0a 16 96 3b 32 06 fd be a7 08 96 be
       0.47956023 0.004580264 -0.4941879 -0.29303476
000290 52 c1 04 be cf 3d 09 3d 69 c8 ee be 85 a3 53 bc
       -0.12964371 0.03350621 -0.46637276 -0.012917404
0002a0 85 92 46 3e 49 4f 82 be 60 07 62 be 5c 2f 34 3e
       0.1939183 -0.25451115 -0.22073126 0.17596191
0002b0 d8 12 0a 3f 03 9e f7 3e 79 2b d6 3e bb 5f f8 3d
       0.53935003 0.4836274 0.41830042 0.12127634
0002c0 58 c4 7f 3d 34 50 0b 3d 50 e0 a4 be 50 2c e0 be
       0.062443107 0.034012035 -0.32202387 -0.43783808
0002d0 be 70 b5 bd 25 e6 b3 be 4e a1 fa be 20 fb 05 be
       -0.088593945 -0.35136524 -0.4895119 -0.13084078
0002e0 d5 8c c8 bb 22 98 9c be 43 96 56 be ad a9 a4 3e
       -0.006120304 -0.30584818 -0.20955758 0.32160702
0002f0 a2 bf 56 3c 99 d8 c9 3e d8 4f 8f be cd d7 cc be
       0.013107212 0.39423063 -0.27990603 -0.40008393
000300 e8 60 38 bf 85 66 5e bd 99 f9 d8 be e3 8b 09 bf
       -0.7202287 -0.05429699 -0.42377928 -0.53729075
000310 33 01 f4 3e 80 01 ec be 0e 08 bb be a4 07 0b be
       0.47657165 -0.46094894 -0.36529583 -0.13577133
000320 6e 8c 1c be 01 ac d0 bd 83 cc d1 3e cc 7b fe 3d
       -0.15287945 -0.10189057 0.40976343 0.12425956
000330 e3 30 8a be 57 0a 13 bf dd 22 9c be c3 8d 01 bf
       -0.26990423 -0.5743765 -0.3049535 -0.50606936
000340 ac 79 1e 3e 61 1e d0 3e 6a 2a e0 be bf a1 13 3f
       0.15476102 0.40648177 -0.4378236 0.5766868
000350 0c ad b9 be c0 ae ee be ad b4 d2 3c 60 8f 6b be
       -0.36264837 -0.466177 0.025720919 -0.23003912
000360 94 5b 88 be 86 30 db 3e 5a 8f 8c 3d e9 0b e1 3e
       -0.2663237 0.42810458 0.0686328 0.439544
000370 43 b6 c4 be 27 9f 81 3e a8 59 a0 be 1a 89 bc 3e
       -0.38420305 0.25316736 -0.31318402 0.3682335
000380 f3 0f 31 3e ed 03 98 be c9 0d b8 ba dc 5c dd be
       0.1729124 -0.29690495 -0.0014042194 -0.4323491
000390 90 d8 3e 3e b5 b5 08 3f 3f 44 86 bc 6a f6 18 3e
       0.186373 0.5340226 -0.016389964 0.1493775
0003a0 0a 9e 19 3f 06 b4 c9 be b2 da b4 3e 80 86 0a bf
       0.60006773 -0.3939516 0.353231 -0.5411148
0003b0 2c 6e b3 be 21 86 05 bd f6 be c0 3d d6 40 98 be
       -0.35044992 -0.03259862 0.09411423 -0.29736966
0003c0 6b d2 46 3e 02 a7 b0 be 43 dc 0e bf 16 45 c5 3e
       0.19416206 -0.34502417 -0.5580484 0.3852927
0003d0 31 96 aa be 89 a7 07 bf e0 6f 08 3e 1f a4 d4 3e
       -0.33317712 -0.52990013 0.13323927 0.41531464
0003e0 06 41 78 3d 56 a5 76 bc 7e 0c 33 3e 5d f1 f9 be
       0.060608886 -0.015054068 0.17485234 -0.48816958
0003f0 75 f4 e5 3d 66 1a f7 be fb 04 1e bf ee 00 08 3f
       0.11228267 -0.48262328 -0.6172635 0.5312642

conv2.fc_neigh.weight f4 [16, 16]
000000 ac 46 95 3e 86 0f e0 be b5 95 a5 3e cf 42 ee 3e
       0.2915548 -0.43761843 0.3234078 0.46535346
000010 2f 72 2e 3e d6 60 fa be d4 21 92 be 75 19 db be
       0.17035745 -0.48902005 -0.28541434 -0.4279286
000020 bc 99 0d 3f ef 60 16 3f a2 4b 5b bd a5 95 a0 3d
       0.55312705 0.5874166 -0.053538926 0.078410424
000030 b5 cb 14 bf e4 55 0e 3f 27 e1 24 bf ed 74 23 bd
       -0.5812333 0.5559981 -0.64406055 -0.03990643
000040 00 29 df be b3 fe 6a be 8a 65 81 3e ff fb 8a 3e
       -0.43585968 -0.22948723 0.2527278 0.27145383
000050 09 8f b1 3e 48 71 94 be fe 7c 7f be 48 d5 87 3e
       0.3467944 -0.28992677 -0.24950024 0.26529908
000060 bd 37 87 be e2 44 19 bf a4 05 2a 3f ee ea 18 be
       -0.26409712 -0.5987073 0.66414857 -0.14933369
000070 04 5e 8d 3e fa fa ed 3e f9 cb 8e 3e db 33 95 be
       0.2761079 0.46480542 0.27889994 -0.29141125
000080 3f 0f 95 bd 3a c2 cf be d2 75 4f 3f 39 9d d1 be
       -0.072782986 -0.4057787 0.81039155 -0.40940264
000090 31 fe ef be 79 c1 ad 3e d1 4c 40 3d 87 c6 3c 3c
       -0.4687362 0.3393667 0.046948258 0.011521942
0000a0 84 78 96 3e 21 03 e7 be 94 46 67 be 25 6a c6 be
       0.2938882 -0.45119575 -0.22585517 -0.38752857
0000b0 4a d2 2b bf 2f a9 b6 3e 21 09 15 bf 1e 55 00 bf
       -0.6711775 0.35675952 -0.58217055 -0.5012988
0000c0 e1 d6 f0 3e 8b 88 d5 be 30 92 03 3e 08 4f d6 bc
       0.4703894 -0.41705737 0.12848735 -0.026160732
0000d0 72 6e 0a bf ff 60 02 bf 03 dd da be d3 72 9a 3e
       -0.54074776 -0.50929254 -0.42746744 0.3016573
0000e0 c2 7e e9 3e 42 1f a8 3e de f2 fd bd 05 05 1a 3e
       0.4560452 0.32836348 -0.12399839 0.15040977
0000f0 34 fa d7 be 19 1a 04 3f af c0 b3 be 3f d5 81 3e
       -0.42183077 0.5160232 -0.35107943 0.25358006
000100 da 5d fc be 12 71 e0 3e 65 94 8f be 73 f5 a3 3e
       -0.49290353 0.43836266 -0.28042904 0.320232
000110 d3 73 33 bd d8 c6 ba 3c ea cc 71 3e 1b 7b 52 3f
       -0.04381163 0.022799894 0.23613325 0.82219094
000120 7f 55 91 3d 05 c9 f7 be 21 3d c5 3e c9 49 00 bf
       0.07096385 -0.48395553 0.385232 -0.5011259
000130 61 5e 0d bf 11 27 7d bd 2b e6 9e 3e 0c fd a0 3e
       -0.55222136 -0.061804835 0.3103498 0.3144306
000140 74 6b 36 be e5 f6 15 bf 74 84 fd 3e 0e b4 61 3e
       -0.17814428 -0.58579856 0.49515116 0.22041342
000150 23 fd e3 3e 45 65 85 be 6e c0 e0 be 4f d7 3e 3e
       0.44529065 -0.26053825 -0.43896812 0.18636821
000160 a3 b1 b0 be e8 96 32 bf df f5 02 3f c7 72 10 bf
       -0.34510526 -0.69761515 0.5115642 -0.56425136
000170 18 0e 7e 3e d6 ed e2 3e ee 6d 3b 3e 76 f1 66 be
       0.24810064 0.4432208 0.18303654 -0.22553048
000180 9b a6 06 be e7 1e c9 3b d0 a8 3f bd 8d 4a d9 3e
       -0.13149492 0.006137717 -0.04679185 0.4243969
000190 ad ce 9e 3e 56 1e 3c 3e e6 31 9b be da da cc 3d
       0.31017056 0.18370947 -0.30311507 0.1000268
0001a0 2d a2 c5 be e4 a8 5f bc f1 db 4c 3d eb 41 1a bf
       -0.38600293 -0.0136511065 0.05001444 -0.6025683
0001b0 63 f4 4a 3c fb 26 ab 3b 1f 8c f6 3e 3e 20 56 be
       0.012387368 0.0052231527 0.4815378 -0.20910737
0001c0 6d 00 26 bf 5d 74 e0 bd 1d b3 78 bc 17 be 0a bf
       -0.648444 -0.109596945 -0.015179423 -0.54196304
0001d0 a1 aa 10 3d 31 0b a7 3d 47 74 e3 3d 53 d8 06 3c
       0.035318974 0.081564315 0.111061625 0.008230287
0001e0 c8 40 6c be 6b 96 d4 be 99 f6 2b bf 28 5b 78 be
       -0.23071587 -0.4152101 -0.67173153 -0.24253523
0001f0 8f f8 45 be 10 52 d2 3e 7d 18 28 3e bd d9 09 bd
       -0.19333099 0.41078234 0.16415592 -0.033654917
000200 4c 53 04 3f 62 52 67 be 85 e3 24 bf 9e 79 95 be
       0.516896 -0.2259002 -0.6440967 -0.2919435
000210 06 1f bd 3e 5e c6 3e 3e 2e 23 30 3e 80 a2 95 bc
       0.36937732 0.18630359 0.1720092 -0.018265963
000220 6e 91 28 bf 2a b6 42 3f f1 5c e8 3e 48 21 02 3e
       -0.6584691 0.7605921 0.4538341 0.12708008
000230 fd 85 b5 3d 05 77 90 be 43 17 bd be cf 2d a1 be
       0.08863447 -0.28215805 -0.3693181 -0.31480262
000240 e8 f4 fc bd 29 e4 02 be 60 d3 8d 3e 5c 72 38 3e
       -0.123514 -0.12782349 0.2770033 0.18012375
000250 5a e7 e6 bd 6c ff 91 3d ea 07 9b be e7 df d9 bd
       -0.112745956 0.07128796 -0.30279475 -0.10638409
000260 ee 76 41 3e f6 6f a5 3e 4d 7c bf 3e d4 16 a6 3b
       0.18893024 0.32311982 0.3739952 0.0050686393
000270 f5 d7 5a be 99 09 fb be 04 25 e1 3e 46 a3 d4 3e
       -0.21371444 -0.4903076 0.43973553 0.41530818
000280 43 d9 0c be 07 14 16 bf 55 da b1 be b1 3f 9d 3a
       -0.13754754 -0.5862431 -0.34736887 0.0011997131
000290 fb 67 71 be 66 73 5a be 93 c1 9c be f4 07 de be
       -0.23574822 -0.21333084 -0.30616435 -0.43365443
0002a0 44 e3 f3 be ee 14 17 be 87 20 98 bd 02 64 c0 3e
       -0.47634327 -0.14754078 -0.07428079 0.375763
0002b0 75 f3 29 3e 14 b9 2d 3f 3e 06 5d be f7 19 8e 3e
       0.16596778 0.6786053 -0.21584412 0.27754185
0002c0 47 55 cb 3c 67 05 40 3f 0c 30 63 be 06 71 c5 bd
       0.024820937 0.75008243 -0.22186297 -0.09640698
0002d0 4e 80 1b be 4d 07 ad be 70 b5 16 bf 37 3d 9b 3e
       -0.15185663 -0.33794633 -0.588706 0.3032014
0002e0 c4 4e d7 3d 30 36 93 bd cc 60 ff 3e 5d 49 a7 3d
       0.1051307 -0.0718807 0.49878538 0.0816829
0002f0 48 91 7d be 83 e2 f4 3e 0f c8 f2 be 36 49 02 bf
       -0.24762452 0.47829065 -0.47418258 -0.5089296
000300 48 91 8f bd 5c d8 d4 3e 33 a0 8b be 03 28 9e bd
       -0.07010132 0.4157132 -0.2727066 -0.077224754
000310 0e 24 de 3e ac f2 cd be 1e 3a a3 be ed 46 01 bf
       0.43386883 -0.40224206 -0.31880277 -0.5049885
000320 83 8c 61 3e 77 30 fd be ca 51 ad 3e 0f 57 19 3f
       0.22026257 -0.49451038 0.33851463 0.59898466
000330 0a 61 27 3e 19 b6 3e bf 0f 9d 82 be 1c e6 0d bf
       0.16345611 -0.7449661 -0.2551045 -0.55429244
000340 f7 ca f6 be c1 02 c4 be 4f e0 8a be fe 96 e1 3e
       -0.48201725 -0.3828335 -0.2712426 0.4406051
000350 85 ff e0 be 45 1a c0 bd ca 12 ae be 97 13 0f be
       -0.43944946 -0.093800105 -0.3399871 -0.13972317
000360 0e 9d aa be fa 71 b5 3e d6 1c b3 3d 82 b6 8a be
       -0.33322948 0.3543852 0.087457344 -0.27092367
000370 95 40 0d bf 47 b8 a2 bc b3 39 cf 3e 66 51 f8 3e
       -0.5517667 -0.01986326 0.4047371 0.48499602
000380 12 75 a7 3d fb 7f 8b 3d 4e a7 f9 be 2f 5b 91 be
       0.08176626 0.0681152 -0.48760456 -0.2838988
000390 74 e1 d2 be 2a cf 79 be 7e 9f 2c 3f 6a 21 ad 3e
       -0.41187632 -0.24395433 0.67430866 0.33814555
0003a0 26 56 53 3e 17 ce 5d 3e 3a 35 20 be e7 c0 b5 3e
       0.20638332 0.21660648 -0.15645304 0.35498735
0003b0 aa 60 bc be 3c 2a d7 3e 53 8d be bc 57 08 cd 3d
       -0.367925 0.4202441 -0.023260748 0.10011356
0003c0 74 e9 fd 3e df a6 5f 3d 2c ff 2e bf 52 b5 d8 be
       0.49592173 0.0546025 -0.6835811 -0.42325836
0003d0 51 5f 26 be bf f3 83 3d 72 c2 f6 be c0 02 04 3e
       -0.16247298 0.06442975 -0.48195225 0.12891674
0003e0 05 7e a7 be 9c 88 3e be 9b 2a e2 be d0 b9 6e be
       -0.32713333 -0.186068 -0.4417313 -0.2331307
0003f0 92 69 71 be 94 28 25 bf 83 93 6b 3d 10 d1 8f be
       -0.23575428 -0.6451504 0.057513725 -0.2808919

conv3.bias f4 [16]
000000 90 d9 92 ba 07 87 c8 3a 90 85 58 bc 59 f1 a7 ba
       -0.0011203755 0.001529903 -0.0132154375 -0.0012813016
000010 43 f9 28 3c 23 77 1f bb 75 0f 7c 3b f0 70 39 bc
       0.010313335 -0.0024332486 0.0038461362 -0.01131843
000020 18 c3 75 3c 01 3b 41 bc bf 1f 09 bb 18 4b dd 3b
       0.015000127 -0.011793853 -0.0020923463 0.0067533366
000030 db e1 ba bb 23 5f 0b 3c d1 bc 49 bc 08 27 97 3c
       -0.0057031936 0.008506569 -0.012313084 0.018451229

conv3.fc_self.weight f4 [16, 16]
000000 61 a7 c7 be 03 43 3b bd 44 ea 37 be 02 37 6d 3e
       -0.38994887 -0.045718204 -0.17960459 0.23165515
000010 c7 15 86 be 29 5d 27 be df 32 9d be 52 46 e8 be
       -0.2618849 -0.16344132 -0.30702874 -0.4536615
000020 2c 7e 2d 3e f1 c7 b7 3e 49 cb 65 3c e8 b1 85 bd
       0.16942662 0.3589473 0.014025518 -0.065280735
000030 42 04 a9 3e 36 24 8f be fb b0 c2 be f8 e4 92 3e
       0.3301106 -0.27957314 -0.3802565 0.28690314
000040 6b 65 1b be 05 a8 52 3e 37 27 82 bd 57 cf 10 3e
       -0.15175407 0.20571907 -0.06355136 0.14141594
000050 d6 29 73 3e 80 c2 8d 3e 64 64 c2 be 4a 6b c6 3e
       0.23746428 0.27687454 -0.37967217 0.3875373
000060 79 c5 ae 3e 42 cd 84 be 41 c3 e2 bc 18 3a c2 be
       0.34135035 -0.2593785 -0.027680995 -0.37934947
000070 ae af 10 be 19 e2 06 bf c1 4a 94 bd 64 df 97 3e
       -0.14129516 -0.5268875 -0.07240821 0.2966262
000080 82 89 b5 3e 8b 6f a4 3b 9d b2 0d be c7 74 04 bd
       0.35456473 0.00501818 -0.13837667 -0.03233793
000090 d6 d6 9f 3d 72 52 a3 be 02 a9 b8 be 1c 71 ad be
       0.078046486 -0.31898838 -0.36066443 -0.33875358
0000a0 c2 47 9f 3e 4d ed fd be f9 85 b7 3e 14 e2 9c be
       0.31109434 -0.4959511 0.358444 -0.30641234
0000b0 5a 38 cf be 48 21 b6 be 9c 5d 27 3e 11 c0 80 3e
       -0.4047268 -0.35572267 0.16344303 0.25146535
0000c0 07 e3 8f be 59 e0 97 bd 47 9c fc 3e 25 44 ac be
       -0.28102896 -0.07415838 0.4933798 -0.3364574
0000d0 9a 7e 86 3c db 51 84 be 87 0e b4 3e 00 14 ae be
       0.01641779 -0.258437 0.35167333 -0.33999634
0000e0 8d e2 84 3e ec c6 21 bd 8c e8 4d be 3d 28 cd bd
       0.25954095 -0.039496347 -0.20108241 -0.100174405
0000f0 36 8c a2 3e 5c 5b df 3e 92 e2 0a 3d 1e dd 1d bf
       0.31747597 0.4362439 0.03390748 -0.61665523
000100 7c 77 27 be 73 ad ff 3d 9e 15 91 be 77 c3 2a be
       -0.16354173 0.12484255 -0.28336805 -0.16676126
000110 7e 78 67 3e 2f 7c 38 bd 6f c8 a7 be e9 8a e1 bd
       0.22604558 -0.045040306 -0.32770106 -0.11012823
000120 1e de 27 3e c4 e0 68 be 40 65 db 3e 59 25 2d bf
       0.16393325 -0.22741991 0.42850685 -0.67635113
000130 d4 d6 a8 3e 7f 6b 0d be 20 90 4b 3e bc c0 60 be
       0.329764 -0.13810538 0.19879198 -0.21948522
000140 d6 58 c5 3e 37 ec 64 3e 9f 97 0d 3a 99 af d8 3e
       0.3854434 0.22355734 0.00054013164 0.4232147
000150 d3 0a fc bd 94 6d a0 bc de 1f 0a 3d 2b 52 4f be
       -0.12306752 -0.0195835 0.033721797 -0.20246188
000160 51 d8 b2 bd c6 de fa bd 5b 97 ab bd 02 7a 3a be
       -0.08732665 -0.12249522 -0.08378478 -0.18210605
000170 51 4c 34 3c 70 0d 28 be 85 fe 3c be 7f b3 b5 3d
       0.011004523 -0.16411376 -0.18456466 0.08872127
000180 1c e6 ba 3e 6e 6f b8 3d a1 50 b6 3d 57 de e9 be
       0.36503685 0.090056285 0.089020975 -0.45677444
000190 f9 cf 8c be db 8b 46 be 2e b6 c6 bd 05 c9 82 be
       -0.2750242 -0.19389288 -0.09702717 -0.2554399
0001a0 80 84 e5 be a5 9a a0 be 10 38 c4 3e 64 1d 9c be
       -0.44827652 -0.31367984 0.38324022 -0.30491173
0001b0 a7 48 21 3e fb 0e cf bc b7 f5 e6 be 9b 0a 82 3e
       0.15750371 -0.025275698 -0.4510934 0.25398716
0001c0 45 66 86 be fb af b6 3d 17 42 78 3e c7 bd ad be
       -0.262499 0.08920284 0.24243961 -0.3393385
0001d0 f9 10 16 bf d4 0a ff bd 1d 61 ef 3e af a1 dc 3e
       -0.5861965 -0.12453237 0.4675378 0.43092105
0001e0 a1 d5 df 3e 99 21 b9 be 75 70 90 be f1 25 65 be
       0.43717673 -0.36158445 -0.28210798 -0.22377755
0001f0 0e b4 00 bd 4d 1b 9a 3e 06 ee 89 3d 39 f3 21 3c
       -0.031421714 0.30098954 0.067348525 0.009884649
000200 78 20 23 bf 09 8c 0d be 50 89 33 bf 63 1d df 3e
       -0.6372142 -0.1382295 -0.701314 0.43577108
000210 a6 49 ca be b2 fe e0 3e 71 47 a1 bd 49 28 60 bd
       -0.39509314 0.43944317 -0.078749545 -0.05472592
000220 09 3c 29 be 8e 9a ba be 22 1d 10 bf d0 51 6c be
       -0.16526808 -0.3644604 -0.56294453 -0.23078084
000230 e8 c0 84 3d 7b c9 6d 3e 8a 53 ea 3e f3 32 ca be
       0.064821064 0.2322139 0.4576686 -0.39491996
000240 df 8b 61 3d 40 0f a7 3e c4 e5 0b 3d 2a 63 af be
       0.055065032 0.32628822 0.03415467 -0.34255344
000250 f4 cf 5f 3e ce 36 89 be a4 29 3b 3e f1 3a f6 be
       0.21856672 -0.26799625 0.18277603 -0.48091844
000260 fe ff df 3e 01 70 79 bc 1d 4b 97 be b5 04 ac bb
       0.43749994 -0.015224458 -0.29549494 -0.0052495846
000270 ee cf 87 3d 18 fb be 3e ab f0 84 bd 07 65 e9 be
       0.06631456 0.37300944 -0.06491216 -0.4558489
000280 a4 d5 e6 bd 77 be 3d 3e 06 49 72 be e3 00 f5 3e
       -0.112712175 0.18529688 -0.23660669 0.4785224
000290 52 67 34 be c1 ea c7 3b 4a 94 56 3d 6a a7 ca be
       -0.17617539 0.006100983 0.052387513 -0.39580852
0002a0 c6 9a 8e be a8 b0 1b 3e fc 75 cb 3c ea ed 52 3d
       -0.27852458 0.15204108 0.024836533 0.051496424
0002b0 35 c0 db be 81 13 8c be ba cc 38 be 49 90 1f 3e
       -0.4292008 -0.2735863 -0.18046847 0.15582384
0002c0 c4 ab c6 3e c3 1a 00 bf 3e 5d bf bd 90 83 ce be
       0.38802922 -0.50040835 -0.093439564 -0.4033475
0002d0 17 60 8c 3d db f8 56 be e5 19 74 3e 15 c1 03 3f
       0.06854265 -0.20993368 0.23838003 0.51466495
0002e0 48 5c a1 bc 4b d7 c4 3e 92 e5 1c 3b fb 00 89 3b
       -0.019697323 0.38445505 0.0023940546 0.004181025
0002f0 a4 b6 df 3e d9 fd d4 be be a8 91 be 38 0d b5 be
       0.4369403 -0.4159992 -0.28449053 -0.35361648
000300 d4 c0 d4 bd 40 20 c8 3e b2 9f 30 be 24 4f eb be
       -0.103883415 0.39087105 -0.17248419 -0.45958817
000310 ce 48 9b 3e b4 bf 96 3e b1 97 c4 be b2 6a 90 3e
       0.30328983 0.29443133 -0.3839698 0.28206402
000320 7e e5 df be d8 79 ed 3e cf 0e 12 bd 11 f1 c3 be
       -0.43729776 0.46382022 -0.035658654 -0.38269857
000330 b2 5c 86 3e 02 4d d9 3e 0f 69 99 3e 26 2f d5 3e
       0.26242596 0.42441565 0.29962966 0.41637534
000340 c2 6b d0 3b e6 91 8a 3e 7b af 7d be 75 85 f7 3e
       0.006360502 0.27064437 -0.24773972 0.48344007
000350 e5 a6 a0 be a7 b8 2a 3e 79 d1 19 be e5 c1 c6 be
       -0.3137733 0.16672002 -0.15021314 -0.38819805
000360 df 24 66 3e fb cc 59 be 0f bc 15 bf f9 95 17 3f
       0.22475003 -0.212696 -0.5849008 0.59213215
000370 9d bf 03 bf f8 9a 35 3d 30 03 dc 3e d6 54 35 3d
       -0.51464254 0.044337243 0.42971182 0.04427036
000380 7e 24 11 bf 8d 65 b1 be 6c 68 8a be 1b 19 6f be
       -0.5669631 -0.3464779 -0.27032793 -0.2334942
000390 9e 36 c2 be a2 61 db bd 3a 9a d7 bd 04 c7 33 3d
       -0.37932295 -0.10711981 -0.10527463 0.043890968
0003a0 85 d1 c0 be 72 af 76 3e b2 21 04 be 01 60 d8 bd
       -0.3765985 0.24090365 -0.12903479 -0.10565186
0003b0 b8 92 ba 3e 60 f3 2d be 91 14 a0 be 03 f7 a1 be
       0.36440063 -0.16987371 -0.3126569 -0.31633767
0003c0 e8 52 a7 3e 73 bd 03 3f 63 7d e2 3e 57 17 dc be
       0.3268044 0.5146095 0.44236287 -0.42986557
0003d0 e1 cb ab be 47 07 03 be ea 4c 91 3c 3c 1f e1 be
       -0.33553985 -0.12795745 0.01773687 -0.43969142
0003e0 a4 0f d3 3e 0e a7 05 be e2 c0 7c 3e 66 19 aa be
       0.4122287 -0.13052008 0.24682954 -0.33222502
0003f0 f2 aa 31 3e 4f 2c ff 3e 1e 1d fa 3c 3e 3f 24 3e
       0.17350367 0.49838492 0.030531462 0.1603975

conv3.fc_neigh.weight f4 [16, 16]
000000 da 37 00 3f 5e 66 18 be 4e 6c 51 3c 2d 46 a6 bc
       0.5008522 -0.148828 0.0127821695 -0.020297134
000010 e9 6e c8 3e e9 ce c2 be 46 c9 18 bf 72 85 ab be
       0.39147118 -0.38048485 -0.5968212 -0.33500248
000020 97 f8 e9 3c 18 fa f1 3e 2e f2 8d 3e 03 6f 81 3e
       0.02856092 0.4726112 0.2772383 0.25280008
000030 62 3d 95 be 04 24 b0 bd 82 42 e1 be dd 0a cd 3e
       -0.29148394 -0.086006194 -0.43996054 0.4004735
000040 46 d2 cf be 03 68 a4 bd 89 f8 04 3f a1 b6 16 3f
       -0.40590113 -0.08027651 0.51941735 0.5887242
000050 bc 44 ba 3d e5 86 5b bd e0 9b eb 3e 19 84 31 3f
       0.09095141 -0.053595442 0.4601736 0.6934219
000060 34 47 1b 3e de 1c b1 bd 33 2a e9 be b0 d4 26 3f
       0.1516388 -0.08648084 -0.45540008 0.65168285
000070 9d 6f f5 3e 06 a9 26 bf b2 52 7f be 5b 07 2b bc
       0.47936717 -0.6510166 -0.2493389 -0.010438765
000080 cc 79 f1 be 20 81 dc 3d 5c b9 46 be 1e 29 ab 3e
       -0.47163236 0.10766816 -0.19406646 0.33429807
000090 99 e9 bc 3d b9 51 e8 3c a5 0c 28 bf 64 1a 10 3f
       0.09224243 0.02835928 -0.65644294 0.5629027
0000a0 ec 98 69 3d de 86 0d bf 94 3b 77 3c 63 6d d5 be
       0.057030603 -0.55283916 0.015089888 -0.41685018
0000b0 5c d2 37 3e b6 4b 31 bf ec 98 fe 3d ef 40 f3 be
       0.1795134 -0.6925615 0.12431511 -0.47510478
0000c0 ad ec 4c 3e 1e 7a f6 3e 4c d8 0f 3f 4c 49 c6 3e
       0.2001216 0.48140043 0.5618942 0.38727796
0000d0 5c 51 96 be e5 a1 10 be 27 03 0a be fd 3c ed bd
       -0.29358947 -0.14124258 -0.13477765 -0.11583898
0000e0 c3 87 9a be 2a 87 98 3e e6 02 b6 bc c4 f0 c0 be
       -0.30181703 0.29790622 -0.022218179 -0.3768369
0000f0 f2 df 28 3e d2 9a b9 bd 1f 6d e4 3e 36 76 d2 3e
       0.16491678 -0.09062733 0.44614503 0.41105813
000100 63 31 f2 3e 6d 16 a5 be 9b 24 0f 3f 91 12 4c 3e
       0.47303304 -0.32243672 0.5591523 0.19928958
000110 d7 04 28 3e 73 97 c0 3b 07 10 37 be 05 14 1d 3f
       0.16408096 0.005877429 -0.17877208 0.6135867
000120 84 42 99 3e bf 56 80 3e 78 ae a7 bd 00 d4 32 3e
       0.2993356 0.25066182 -0.08187574 0.17463684
000130 01 20 a4 3e b6 85 af 3e fb 8c 10 3f 45 ac 1a be
       0.32055667 0.342817 0.5646512 -0.15104778
000140 c2 81 79 3e e9 4c 07 bf 6c b2 12 be 78 22 47 3f
       0.24365905 -0.5285173 -0.14325875 0.7778697
000150 28 bb a8 be b3 2b 55 be 61 6f 04 3f 57 aa 1b 3e
       -0.3295529 -0.20817451 0.5173245 0.15201698
000160 dc 94 71 3d 87 ad e2 3d f2 ab e9 3d bd b4 d9 3e
       0.058979854 0.11068254 0.11409749 0.42520705
000170 0d 95 bc 3d 2d 90 e4 bd fb da cf bc 0e 38 c4 3e
       0.09208117 -0.11160312 -0.025372973 0.38324016
000180 92 dc 4c 3e ca 38 8f 3d ec 3d 47 be 7f 2e f5 3e
       0.20006016 0.069932535 -0.19457215 0.47887036
000190 10 1d 99 be b1 13 33 3e 71 de 17 3e fa ae 96 be
       -0.29904985 0.1748798 0.14830948 -0.29430372
0001a0 6f 9f 19 bf 63 1c 93 be d2 af 3f 3e cc b7 44 3a
       -0.600089 -0.28732595 0.18719414 0.00075041945
0001b0 2f 29 92 3e 5b 03 70 3e 8a d8 ba 3d 7e 57 9c 3e
       0.28547046 0.2343878 0.09123333 0.305355
0001c0 1c f6 9c 3d 31 51 cf be 78 83 57 3e 93 73 95 3e
       0.07664129 -0.40491632 0.21046245 0.2918974
0001d0 c1 8b aa bd 02 92 01 bf 14 d5 e3 3e e9 6e f5 3e
       -0.08327437 -0.50613415 0.44498503 0.4793618
0001e0 06 d2 77 be 93 01 62 bd bc 30 f1 3e 87 94 2d 3e
       -0.24201211 -0.055177283 0.47107494 0.1695119
0001f0 d7 d2 a8 be 13 e8 69 be a3 ab 86 be cc be 48 3e
       -0.32973358 -0.22842436 -0.26302823 0.19604033
000200 c5 67 f8 3e 22 61 0e bc fa 71 13 bf a7 ae 11 3e
       0.4851667 -0.00869015 -0.5759579 0.14226781
000210 a4 d6 7a be 99 d3 8e be 2c 7d b9 3e 84 91 17 3e
       -0.24495941 -0.2789581 0.3622831 0.14801604
000220 da 1a 1f be 2f b7 a3 be 56 ad 85 3d 8a 01 cd 3e
       -0.15537587 -0.31975695 0.06527202 0.40040237
000230 81 6c 25 3e 85 55 c5 bc 61 85 cf 3e f0 ff 18 3e
       0.16154672 -0.02408863 0.40531448 0.14941382
000240 9b f2 17 3f a5 34 e6 3e 53 7d af 3e 85 cd d5 be
       0.5935456 0.4496204 0.34275302 -0.4175836
000250 a9 10 e2 3e 88 79 26 be 34 e9 84 be bb c3 ce 3e
       0.44153336 -0.16257298 -0.2595917 0.40383705
000260 3f 80 a8 3e 36 0e fc bd 99 23 ac be f1 11 0c 3f
       0.32910344 -0.12307398 -0.3362091 0.54714876
000270 e2 ff 6d 3e 87 e1 c2 be 68 b4 c1 be 87 c4 b7 3e
       0.23242143 -0.3806269 -0.37832952 0.35892126
000280 39 6d cb 3e 9d 05 24 3f 5e 39 f9 bd 11 6a 8a 3e
       0.39731768 0.64071065 -0.12169145 0.27034047
000290 19 dd c8 be a8 46 b5 3c 21 e3 21 be 26 0d 70 bd
       -0.39231184 0.022128418 -0.15809299 -0.05860629
0002a0 71 a5 1d bf c3 f7 0e 3d 5f 82 a2 3e 97 29 fd 3e
       -0.6158057 0.034904253 0.3174009 0.49445793
0002b0 5c 28 c2 be 39 59 ae be 3d 33 6f be 47 db 09 3f
       -0.37921417 -0.34052446 -0.2335939 0.53850216
0002c0 a6 62 3f 3f c5 36 3b 3d 91 b9 fd ba fd 7f 95 3e
       0.747599 0.04570653 -0.0019357671 0.2919921
0002d0 29 98 a8 bd 70 ca 99 3d fb 42 f0 3e a8 e2 e2 3d
       -0.08232147 0.07509315 0.46926102 0.110783875
0002e0 a2 e6 16 3e d8 7a 2a be 57 17 d4 be 62 fc 27 bf
       0.14736417 -0.16648424 -0.41424057 -0.6561948
0002f0 85 86 db 3e 63 7a ce 3e 3e c5 0c 3f 3e 86 85 3e
       0.42876068 0.4032775 0.5498847 0.2607898
000300 5d 14 13 bf c7 e0 6e 3e dc 45 e5 be e0 97 23 be
       -0.57452947 0.23327933 -0.4477986 -0.15975904
000310 e2 6b fb 3e 1f fe 58 3e 6a 01 d7 3e 36 a3 6b be
       0.49105746 0.2119069 0.41993266 -0.23011479
000320 38 59 ea 3e 7c 93 81 3c 44 2e 3a be 76 6e 1b bf
       0.45771194 0.015817396 -0.18181711 -0.60715425
000330 1c fc 5a be 28 93 f8 3e 56 9f 58 3e 73 12 19 bd
       -0.21385235 0.4854977 0.21154532 -0.03737111
000340 02 51 74 3b 59 a6 7c be 4d 12 17 3f 51 b5 7f be
       0.003727973 -0.24672832 0.590123 -0.2497151
000350 20 dc 9a 3e 10 5c 82 be 73 10 57 3d 69 17 15 be
       0.30246067 -0.25460863 0.05250592 -0.14559712
000360 6e 9b f0 be 6e dd 17 be 75 48 b3 be af 38 0d 3e
       -0.46993583 -0.14830562 -0.35016218 0.13791154
000370 f3 64 22 bd 61 c9 6e be b9 d2 2e be ac 9d ee be
       -0.039647054 -0.23319007 -0.17072572 -0.4660467
000380 50 7e 17 3e 88 fc e6 3d eb 21 32 be 25 61 a0 3e
       0.14794278 0.11278635 -0.17395751 0.31324115
000390 55 f3 39 3c d8 84 92 be 82 6b 10 3e 0d 6e e4 3e
       0.011349519 -0.28616977 0.14103511 0.44615212
0003a0 e5 ad bc be 45 02 c5 3e 12 a0 95 bd 0c 5c 24 be
       -0.3685142 0.38478294 -0.073059216 -0.16050738
0003b0 4d e4 0d 3e 28 02 90 3e 41 19 37 bc cd 73 e8 bd
       0.13856621 0.28126645 -0.011175455 -0.11350212
0003c0 06 f4 d0 be 9f 66 9f 3e 75 fd a5 3d 8a 31 a1 3e
       -0.40811175 0.3113298 0.08104984 0.31483108
0003d0 fb 50 47 be 21 f0 8c bd 91 0f 09 3f 43 8a db 3e
       -0.19464485 -0.068817385 0.5353938 0.42878923
0003e0 dd d1 03 3e 64 4a d7 3e f5 2b ba be b8 d9 fc 3d
       0.12873025 0.42048943 -0.36361662 0.12346214
0003f0 dd 36 ba be e5 10 b5 be 94 a3 42 be c0 4c 21 bf
       -0.36369982 -0.35364452 -0.19007713 -0.63007736

conv4.bias f4 [16]
000000 bd b5 14 bd f0 88 36 bd 53 60 a2 3c c5 64 01 3d
       -0.03630613 -0.044564188 0.019821322 0.031590242
000010 c7 e9 c9 bc 50 92 9f bc 40 5a 16 bd ac f1 4f bd
       -0.024647607 -0.019478947 -0.036707163 -0.050767586
000020 3a df 14 bc a2 72 d6 3c 7f fe 09 bc 94 6a c5 bc
       -0.0090864245 0.026177708 -0.008422493 -0.024098672
000030 7a be b3 bb 87 0d 0a bc c0 63 99 3a aa 8f f6 3b
       -0.005485353 -0.008426077 0.0011702701 0.0075244503
