model.pth (torch, 29451 bytes, 9 tensors)

conv1.bias f4 [16]
0	0xbd0dc7fb	-0.034614544
1	0xbbeae50b	-0.0071684173
2	0x3ab52aa2	0.001382191
3	0xbd0270f3	-0.031845998
4	0x3d1e2a05	0.03861429
5	0x3c0c7bb0	0.008574411
6	0xbcb6e865	-0.022327611
7	0xbaf8f125	-0.0018992765
8	0x3c8868c3	0.016651517
9	0x396a31ad	0.00022334485
10	0xbc7be4b8	-0.015374355
11	0x3c0fdfc4	0.008781377
12	0x3b55a503	0.0032599575
13	0xbb1716a8	-0.0023054276
14	0x3ba4b9fd	0.0050270543
15	0x3a164e3a	0.00057337026

conv1.fc_self.weight f4 [16, 174]
0	0xbd700024	-0.058593884
1	0xbe2ac0dd	-0.16675134
2	0xbe61cf18	-0.22051656
3	0x3eb70ff6	0.35754365
4	0x3e23a3ba	0.15980425
5	0x3c8e4e85	0.017371425
6	0xbdbc2537	-0.09186786
7	0x3daae2cf	0.083440416
8	0xbc065390	-0.008198634
9	0xbe8ce55b	-0.27518734
10	0x3b6e8023	0.0036392293
11	0x3d80b89a	0.0628521
12	0x3d541e54	0.051786736
13	0xbe9c1148	-0.30481935
14	0xbc97392e	-0.018459883
15	0xbdda0864	-0.10646132
16	0xbe2069ed	-0.15665407
17	0x3d8c96a9	0.06864674
18	0x3d694f68	0.056960493
19	0xbc94ca0a	-0.018162746
20	0x3e8a150b	0.2696918
21	0xbda5fb4e	-0.08104573
22	0xbd36a0e3	-0.044587027
23	0x3d1f28db	0.038857322
24	0xbdb437f3	-0.08799734
25	0xbd3fd08b	-0.04682974
26	0xbd1d4407	-0.038394954
27	0xbdf3b0ef	-0.11898982
28	0xbbf8c41b	-0.007591737
29	0xbd9d5eb8	-0.07684082
30	0xbe07b92f	-0.13254236
31	0x3d6295e0	0.055318713
32	0x3d97e09e	0.07415889
33	0xbe32ece7	-0.17473184
34	0x3ca38d56	0.019964855
35	0xbdae9202	-0.085239425
36	0xbd5c90e9	-0.053849135
37	0x3d2eaaac	0.042643234
38	0x3d9435a0	0.07236791
39	0x3db6bf65	0.08923224
40	0x3e4240dc	0.18970054
41	0x3db09b35	0.086233534
42	0xbe04489b	-0.12918322
43	0x3e093973	0.13400821
44	0xbcdff35e	-0.027337726
45	0x3e1a7303	0.15082936
46	0x3d42f691	0.047598425
47	0xbd226f19	-0.039656732
48	0xbd42404e	-0.047424607
49	0xbe66aa38	-0.22525871
50	0xbd9b1abe	-0.0757346
51	0x3e43bb70	0.1911447
52	0xbe313b4c	-0.17307776
53	0x3df8426c	0.12122044
54	0xbd7c7463	-0.061634433
55	0x3dba0502	0.090829864
56	0x3ef0a4e6	0.47000808
57	0xbdda0414	-0.10645309
58	0xbd470b83	-0.048594963
59	0x3da524b5	0.08063642
60	0xbc49470b	-0.012285004
61	0x3ddee68b	0.10883816
62	0x3af2927d	0.0018506792
63	0x3db58c8e	0.08864699
64	0xbdd03e60	-0.10168147
65	0x3e2e80fc	0.17041391
66	0xbd3be7c0	-0.04587531
67	0xbdbd506d	-0.092438556
68	0xbb880ba7	-0.0041517797
69	0xbdd97046	-0.106171176
70	0x3b239a20	0.0024963692
71	0x3d92ebbc	0.07173869
72	0x3e4473c9	0.19184794
73	0xbe346fb5	-0.17620738
74	0xbe4e9079	-0.201723
75	0xbdf3d600	-0.11906052
76	0xbe94abbb	-0.2903727
77	0xbe2290b5	-0.15875514
78	0xbd70ef99	-0.058822248
79	0xbe11fb93	-0.14256124
80	0x3df70b33	0.12062683
81	0x3d8d8839	0.06910748
82	0x3e8aee30	0.27134848
83	0xbde3217a	-0.110903695
84	0xbcc588f4	-0.024113156
85	0x3e22555c	0.15852875
86	0x3dc2b95a	0.09508009
87	0x3e0cf126	0.13763866
88	0x3d5db4ab	0.054127377
89	0x3d7e4e5a	0.06208644
90	0xbd51c3ba	-0.05121205
91	0xbe2f5d14	-0.1712535
92	0x3e3ff4f7	0.1874579
93	0xbe124002	-0.1428223
94	0xbd0debf4	-0.03464885
95	0xbc57e26a	-0.01317654
96	0xbda7faf1	-0.0820216
97	0xbe9bd979	-0.30439356
98	0xbce2c12d	-0.027680004
99	0xbd3bb494	-0.04582651
100	0xbe5eca07	-0.21756755
101	0x3d30cd5e	0.043164603
102	0xbc85db1c	-0.016339831
103	0xbd006d86	-0.03135445
104	0x3cbe418f	0.02322462
105	0x3d0b9aeb	0.03408329
106	0x3e29bde4	0.16576344
107	0x3c7a6fd3	0.01528545
108	0xbe602005	-0.21887214
109	0xbd7345f9	-0.059392903
110	0xbe098ef6	-0.13433442
111	0xbd01cd6c	-0.031690046
112	0x3df43124	0.11923435
113	0x3e3873d2	0.18012932
114	0xbd6424e0	-0.05569923
115	0x3dba9ba3	0.091117166
116	0x3ca46150	0.020065933
117	0x3d09e114	0.033661917
118	0xbc731551	-0.014836625
119	0xbdc9b805	-0.09849552
120	0x3cb1f2be	0.021722194
121	0xbc6c83c9	-0.014435717
122	0x3d35ef57	0.044417705
123	0x3e1453b6	0.14485058
124	0x3da44f7d	0.08022974
125	0x3deee943	0.11665585
126	0xbe285d22	-0.16441777
127	0x3df267ea	0.11836226
128	0x3d1355b7	0.035970416
129	0xbeadf3ae	-0.33974975
130	0xbe8be220	-0.27320957
131	0xbc7500b5	-0.014953782
132	0xbce81ec3	-0.02833498
133	0xbe2a925f	-0.16657399
134	0x3dd672fe	0.10471152
135	0x3e3bf447	0.18354903
136	0x3cbd80bc	0.023132674
137	0x3c32806e	0.010894878
138	0xbb802ecc	-0.0039118286
139	0xbebfab43	-0.3743535
140	0x3e189f66	0.14904556
141	0x3dae3ab1	0.08507288
142	0x3e042753	0.12905626
143	0xbabb77d0	-0.0014302675
144	0x3df5ee96	0.12008397
145	0xbe2e4bb3	-0.17021064
146	0xbe19b5a4	-0.15010697
147	0xbddfc21a	-0.10925694
148	0x3d673b61	0.056453113
149	0x3e2c1653	0.16805391
150	0x3d013a6c	0.031549856
151	0x3d866884	0.065629035
152	0x3d94fc2f	0.07274663
153	0xbe67323f	-0.22577761
154	0x3d4d9544	0.05019118
155	0x3d978df3	0.074001215
156	0x3e568b90	0.20951676
157	0x3e421f41	0.18957235
158	0x3cd83227	0.026391102
159	0x3d241dc7	0.04006746
160	0x3e21b8ef	0.15793203
161	0xbebb02a3	-0.3652545
162	0xbd90f1a9	-0.07077343
163	0x3e67d381	0.22639276
164	0xbe8e74c9	-0.27823475
165	0xbde4eceb	-0.11178001
166	0x3df7a7c0	0.12092543
167	0x3e051dfc	0.1299972
168	0xbcbf7b21	-0.023374142
169	0x3d90530f	0.07047092
170	0x3dd58d0b	0.104272924
171	0x3caeb0d6	0.021324556
172	0x3da140bb	0.078736745
173	0xbe7bc7e6	-0.24587974
174	0x3d00c6f3	0.031439733
175	0x3d7837dc	0.060600147
176	0xbde68b4f	-0.1125704
177	0x3e0d15cd	0.13777848
178	0x3dc1292e	0.094316825
179	0xbdc8ee7c	-0.09811112
180	0xbe0e6e77	-0.13909326
181	0xbe387887	-0.18014728
182	0xbd70aa11	-0.058755938
183	0x3c1b08d2	0.009462552
184	0xbde0e05d	-0.10980294
185	0xbc3036da	-0.010755265
186	0xbdab2b85	-0.0835791
187	0xbddd0951	-0.107927926
188	0x3d807bf9	0.06273646
189	0xbc4862ed	-0.012230617
190	0xbd45ac3f	-0.04825997
191	0xbc7a4632	-0.015275525
192	0x3bcf1198	0.006319236
193	0xbd0e1a12	-0.03469283
194	0x3e3846d2	0.17995766
195	0x3a450230	0.00075152796
196	0xbba02b9c	-0.004888011
197	0x3ca74649	0.020419257
198	0x3de5be97	0.11217993
199	0x3cf1b508	0.029505268
200	0xbe435ea4	-0.19079071
201	0xba5df730	-0.0008467315
202	0xbdb0d764	-0.086348325
203	0xbdc84f60	-0.097807646
204	0x3d019738	0.031638354
205	0x3d93b42e	0.07212101
206	0x3cd194ee	0.02558371
207	0x3c7f18b1	0.015569852
208	0x3cdb8993	0.026798999
209	0x3cf644cd	0.030062104
210	0x3d881681	0.06644917
211	0x3d5aa6c7	0.053381708
212	0x3e310027	0.17285214
213	0xbd03835c	-0.032107696
214	0x3da4f66a	0.08054812
215	0xbd204cf1	-0.039135877
216	0x3e1dc213	0.15406065
217	0x3d8ab9ef	0.06773745
218	0x3d770a71	0.060312692
219	0x3e061cf3	0.13096981
220	0x3dd77d8d	0.10521994
221	0x3edb7f6f	0.42870662
222	0xbdf3d4d1	-0.11905826
223	0x3b333c7f	0.002734929
224	0x3e2164ff	0.15761183
225	0xbe5a4250	-0.21314359
226	0xbb9c5526	-0.0047708927
227	0xbd027d45	-0.031857748
228	0x3d1d9e6a	0.038481154
229	0xbde204fa	-0.110361055
230	0x3daf1799	0.08549423
231	0x3e19bdce	0.15013811
232	0xbd23ca27	-0.03998771
233	0xbd3cdbbe	-0.046108
234	0xbd09fe59	-0.03368983
235	0xbe4ec7ee	-0.20193455
236	0xbd40f56d	-0.047109056
237	0x3da96048	0.08270317
238	0xbe5fe187	-0.21863376
239	0x3ce29c45	0.027662406
240	0x3bc87038	0.006116893
241	0xbe5dc110	-0.21655679
242	0xbdf9e00e	-0.12200938
243	0xbe004354	-0.12525684
244	0x3dcd9ff3	0.100402735
245	0x3ccea0f0	0.025223225
246	0xbcebea1e	-0.02879816
247	0x3e251720	0.16122103
248	0x3dcc9e78	0.09991163
249	0x3dd5e6d3	0.10444417
250	0xbd955b14	-0.072927624
251	0x3c601deb	0.013679008
252	0xbe13aad9	-0.14420642
253	0x3e3eb8a7	0.18625127
254	0xbdb5e34f	-0.08881246
255	0xbd590473	-0.05298276

conv1.fc_neigh.weight f4 [16, 174]
0	0xbd14af2a	-0.036299862
1	0xbe9bdd69	-0.3044236
2	0xbea6d0a7	-0.32581064
3	0x3e10b43b	0.14131252
4	0x3e895540	0.26822853
5	0xbe1f3916	-0.1554912
6	0x3d87cb34	0.06630555
7	0xbce703a2	-0.028199974
8	0xbe07600e	-0.13220236
9	0xbeda6022	-0.4265147
10	0x39c6f575	0.00037948383
11	0x3e7ef9d6	0.24899992
12	0x3dac005c	0.08398506
13	0xbe9757d4	-0.29559195
14	0xbe0eaba5	-0.13932665
15	0xbd416cfa	-0.04722307
16	0xbe77e779	-0.24209394
17	0x3e505801	0.20346071
18	0x3e1ffbca	0.15623394
19	0x3c064155	0.008194287
20	0x3ee36c0c	0.4441837
21	0xbd8eaf08	-0.06966978
22	0xbb261715	-0.0025343348
23	0x3e1651f1	0.14679696
24	0x3d194b51	0.037425343
25	0xbe66064e	-0.22463343
26	0xbb806670	-0.0039184615
27	0xbc58dd79	-0.013236397
28	0xbe0a5540	-0.13509083
29	0xbcc92e44	-0.024558194
30	0xbe1e2a80	-0.154459
31	0x3e6a10ab	0.22857921
32	0xbcb3300b	-0.021873495
33	0xbeb4a19a	-0.35279542
34	0xbaa40841	-0.0012514667
35	0xbda3fc96	-0.08007161
36	0xbd9b67c4	-0.07588151
37	0xbe539959	-0.20663966
38	0x3e3e2fe2	0.18572953
39	0x3e30b546	0.1725665
40	0x3e2cf2c9	0.1688949
41	0xbcffe997	-0.031239314
42	0x3c8e9d13	0.017408883
43	0xbb636c04	-0.0034701834
44	0x3dcaa576	0.098948404
45	0xbda4bc25	-0.08043698
46	0x3da8b57e	0.08237742
47	0xbdb61c5a	-0.088921264
48	0xbe8d2ae9	-0.275718
49	0xbe3aece8	-0.18254435
50	0xbd960dc9	-0.07326848
51	0x3e489d79	0.19591321
52	0xbe371cff	-0.17882155
53	0x3e85498b	0.2603267
54	0xbe432113	-0.19055586
55	0x3dd28fce	0.10281335
56	0x3e34f8c3	0.1767302
57	0xbdb922b0	-0.09039819
58	0xbe4782d4	-0.194835
59	0x3c6624c5	0.0140468525
60	0xbde0e839	-0.10981793
61	0xbdb7e1c3	-0.089786075
62	0xbd06da33	-0.032922935
63	0x3da4fb8a	0.0805579
64	0xbd92228b	-0.07135495
65	0x3e92ee88	0.2869761
66	0x3e39cd2d	0.18144675
67	0x3dc15b56	0.09441249
68	0x3df6dbbd	0.120536305
69	0x3d6af79e	0.057365052
70	0x3db4a916	0.08821313
71	0x3e95736d	0.29189625
72	0x3e8b39c4	0.2719251
73	0x3b87faa5	0.004149752
74	0xbd223a00	-0.039606094
75	0xbc911283	-0.017709022
76	0x3e677a6f	0.22605298
77	0x3e020d32	0.12700346
78	0xbde9d128	-0.114168465
79	0x3c84d3b1	0.016214224
80	0x3e04b93c	0.12961286
81	0x3c7112e3	0.014713976
82	0x3e6d31d0	0.23163533
83	0xbd88c067	-0.06677323
84	0xbe5ff08b	-0.21869104
85	0x3e2d42f6	0.16920075
86	0x3bb9d24c	0.0056708213
87	0x3e32f509	0.17476286
88	0x3e8ee64b	0.27910075
89	0x3e6bd34c	0.23029822
90	0x3e094dc2	0.13408569
91	0xbebf8478	-0.37405753
92	0x3ee35fb8	0.44408965
93	0x3ca40d9c	0.02002602
94	0x3e5ad699	0.21370925
95	0x3d82ee77	0.0639314
96	0x3d667a25	0.05626883
97	0x3d396d46	0.045270227
98	0x3d6974f6	0.05699631
99	0xbcf86589	-0.030321853
100	0x3c6551d6	0.013996562
101	0x3d9f7aa3	0.07787063
102	0xbe114174	-0.14185125
103	0xbde15693	-0.11002841
104	0x3e1d00db	0.15332358
105	0x3ddab460	0.10678935
106	0x3e1c74e3	0.15278964
107	0x3e553215	0.20819886
108	0xbd540d8b	-0.051770728
109	0x3d915b03	0.07097437
110	0xbe35cca3	-0.17753844
111	0xbddff6fe	-0.10935782
112	0x3ebae0de	0.36499685
113	0x3ed3ad2d	0.4134306
114	0x3c2530ff	0.010082482
115	0x3df6154f	0.12015783
116	0x3e2eaf65	0.17059095
117	0x3e4dd0ee	0.20099232
118	0x3dc3b9f2	0.09556951
119	0x3dc483a0	0.09595418
120	0x3e4fd557	0.20296226
121	0xbdc325ab	-0.09528669
122	0xbd0fe9f3	-0.03513522
123	0x3e7f822b	0.24951999
124	0xbe903647	-0.2816641
125	0x3c77dc47	0.015128202
126	0xbeeee45f	-0.46658608
127	0x3e594b75	0.21220191
128	0x3cff8e9e	0.031195935
129	0xbea8f0ca	-0.32996207
130	0x3e30d074	0.17267019
131	0x3e650e3a	0.22368708
132	0x3cf65773	0.030070996
133	0xbe747940	-0.23874378
134	0xbdfa9f21	-0.12237383
135	0x3e56217a	0.20911208
136	0xbd98c88d	-0.07460127
137	0x3e0b1589	0.13582434
138	0xbc14ebf4	-0.009089459
139	0xbeed0b23	-0.4629756
140	0x3daf50b3	0.08560314
141	0x3df4a6ab	0.11945852
142	0x3e4421db	0.1915354
143	0x3c8a4262	0.016877357
144	0xbe0cbd63	-0.1374412
145	0xbdac6ae1	-0.08418823
146	0x3e21f40a	0.1581575
147	0xbea6a9c4	-0.32551396
148	0x3e2525b1	0.1612766
149	0x3db42a6f	0.08797156
150	0x3cd6f4fd	0.026239866
151	0x3d91216c	0.07086453
152	0x3d52a2fc	0.051424965
153	0xbed1fbd1	-0.41012433
154	0xbe28ae64	-0.16472775
155	0xbe2ef951	-0.17087294
156	0x3e3678d2	0.17819527
157	0x3da7154d	0.0815836
158	0x3e2c37b3	0.16818123
159	0xbe161554	-0.14656574
160	0x3da148bb	0.078752
161	0xbe0a84dc	-0.13527244
162	0x3c610d71	0.013736115
163	0x3e1dd7e9	0.15414394
164	0xbe1c778a	-0.15279976
165	0xbd99d287	-0.07510858
166	0x3ccf8772	0.02533314
167	0x3e09e929	0.1346785
168	0xbe8fe07c	-0.28100955
169	0xbe367a4d	-0.17820092
170	0x3e1917c7	0.14950477
171	0xbe0d77e9	-0.13815273
172	0x3ead168e	0.3380627
173	0x3deefefd	0.11669729
174	0x3d92e7ba	0.071731046
175	0xbdaa5ab0	-0.083180785
176	0xbe2456ab	-0.16048686
177	0x3d87ac80	0.06624699
178	0x3c54140e	0.012944235
179	0xbc97871d	-0.018497044
180	0xbdc88799	-0.09791488
181	0xbeacfa27	-0.337846
182	0xbe844b05	-0.25838485
183	0xbc566430	-0.01308541
184	0x3dc8dbf4	0.09807578
185	0xbe0706b1	-0.13186146
186	0xbe9160c5	-0.28394142
187	0xbe202dbc	-0.15642446
188	0xbe23b532	-0.1598709
189	0xbe91bd36	-0.2846467
190	0x3d1e3c2b	0.0386316
191	0xbde3a69a	-0.11115761
192	0x3b0e1821	0.0021681862
193	0xbe87e441	-0.2654133
194	0x3e5364dd	0.20643945
195	0xbd6fa5de	-0.058507793
196	0x3a314814	0.00067627546
197	0x3ceb4c0b	0.028722784
198	0x3cde9501	0.02717066
199	0xbe35dbc4	-0.17759615
200	0xbdc96694	-0.09834018
201	0xbde089d5	-0.109637894
202	0x3eb1d466	0.3473236
203	0x3eae490e	0.3404011
204	0x3e57dbb1	0.210799
205	0x3dc73faf	0.097289436
206	0xbe77a296	-0.24183115
207	0x3c855256	0.016274612
208	0x3dd6f666	0.104962155
209	0x3e445149	0.19171633
210	0x3dce145f	0.10062479
211	0x3e2641cf	0.16236041
212	0xbe0d8dce	-0.13823625
213	0xbd07cdec	-0.033155367
214	0x3e90cdb2	0.28281933
215	0xbe170424	-0.14747673
216	0x3e412e19	0.18865241
217	0x3e056391	0.13026263
218	0xbd78901f	-0.06068432
219	0x3d25ad70	0.040448606
220	0xbd3df5ad	-0.046376873
221	0x3e1f665d	0.15566392
222	0xbe0dc192	-0.13843372
223	0xbe8c7a4b	-0.27437052
224	0xbe7990cf	-0.24371646
225	0xbe0788ba	-0.13235751
226	0x3e802f2d	0.25035992
227	0xbde00d16	-0.10939996
228	0x3cc6ee9a	0.024283696
229	0xbdbef10e	-0.09323321
230	0x3dfad55d	0.12247727
231	0x3e1da9de	0.1539683
232	0x3d997ade	0.07494138
233	0x3e1eb5a6	0.15498981
234	0x3e4da76c	0.20083398
235	0xbe8e94ad	-0.27847806
236	0x3e1d8c70	0.15385604
237	0x3db1957d	0.08671091
238	0xbd56664b	-0.052343648
239	0x3daff1ac	0.08591017
240	0xbaec6cfb	-0.001803785
241	0xbe30f95e	-0.17282626
242	0x3e4c56ea	0.1995503
243	0xbe3430b8	-0.1759671
244	0x3e8162c9	0.2527068
245	0xbe3b9f8e	-0.18322584
246	0xbe54488f	-0.20730804
247	0xbdfe7474	-0.124245554
248	0xbe2eace4	-0.1705814
249	0xbe4a2885	-0.1974202
250	0xbecff45d	-0.40616122
251	0x3ad770f5	0.0016436862
252	0xbe15de6e	-0.14635631
253	0x3d973118	0.07382411
254	0xbdda755c	-0.10666916
255	0xbe15effe	-0.14642331

conv2.bias f4 [16]
0	0xbb9386fe	-0.0045021763
1	0xba24764b	-0.00062737305
2	0xbc15fecb	-0.009154986
3	0x3bcc98d8	0.0062438063
4	0x3c0c9715	0.008580943
5	0xbbf09a66	-0.0073426245
6	0xba38fc15	-0.0007056606
7	0xbb4002e8	-0.0029298607
8	0xbc20da76	-0.00981771
9	0x3aedd53c	0.0018145214
10	0xba393738	-0.0007065418
11	0xbafcf2ec	-0.001929847
12	0x3bfac601	0.0076529984
13	0xbc5d9c93	-0.0135261
14	0x3bea5426	0.0071511446
15	0x3aa00d1f	0.0012210942

conv2.fc_self.weight f4 [16, 16]
0	0xbecac8ba	-0.39606267
1	0x3e6c1da6	0.23058185
2	0xbe87aeba	-0.26500493
3	0x3ecf394b	0.404734
4	0xbd3420f2	-0.04397673
5	0x3e50d59f	0.2039399
6	0xbe42078d	-0.18948193
7	0x3e45c754	0.19314319
8	0x3dc34567	0.09534722
9	0x3dbb70c4	0.09152368
10	0xbe1d8f63	-0.15386729
11	0xbed35329	-0.41274384
12	0x3e78afa8	0.24285758
13	0xbe836f89	-0.25671032
14	0x3ddf2355	0.10895411
15	0xbd0f0dad	-0.03492515
16	0xbed9ac9a	-0.42514497
17	0x3ecff8a8	0.40619397
18	0xbbee0b34	-0.007264519
19	0x3e51cfaa	0.20489374
20	0xbeba4e0a	-0.36387664
21	0x3e311e96	0.17296824
22	0xbe4eb1cd	-0.20185013
23	0xbec9b91e	-0.39399046
24	0x3ebb5085	0.3658487
25	0x3f0633e6	0.5242294
26	0x3e78e4e9	0.24306072
27	0xbeddfbef	-0.43356273
28	0x3e8ad4a0	0.27115345
29	0xbe88e575	-0.26737562
30	0x3f1b1cac	0.60590625
31	0x3ee29f23	0.44262037
32	0xbeaa4e36	-0.33262795
33	0x3e505765	0.20345838
34	0x3e520223	0.20508628
35	0x3e2591c9	0.16168894
36	0x3f0c7cdc	0.5487802
37	0x3f004cd8	0.50117254
38	0xbe964092	-0.29346138
39	0x3da65bd8	0.081229866
40	0x3e7243d5	0.23658688
41	0x3e36b2d3	0.17841654
42	0xbe5b4d70	-0.21416259
43	0xbe8d285d	-0.27569857
44	0x3ce5d0ab	0.028053602
45	0x3d40355e	0.046925895
46	0x3ee05434	0.43814242
47	0x3e944aaa	0.28963214
48	0xbdf66c0a	-0.120323256
49	0xbf08f767	-0.53502506
50	0x3e7de9dc	0.24796242
51	0xbe753e71	-0.23949601
52	0xbdf6ec19	-0.12056751
53	0x3e31dba0	0.17368937
54	0xbd02220a	-0.031770743
55	0xbe526c84	-0.20549208
56	0xbeca3812	-0.39495903
57	0x3ea7f015	0.32800356
58	0x3ca393cd	0.019967938
59	0x3d789fd2	0.06069929
60	0x3de63ec0	0.11242437
61	0xbeeaec53	-0.45883426
62	0xbdb92b09	-0.090414114
63	0xbe3adfbd	-0.18249412
64	0x3c4df3b7	0.012570313
65	0xbec1c304	-0.37844098
66	0xbea396be	-0.31950945
67	0x3e887221	0.26649573
68	0x3eab155a	0.33414727
69	0xbeb0c8ed	-0.34528294
70	0x3d4801df	0.04882991
71	0x3eb3f52c	0.3514799
72	0xbc4a86eb	-0.0123612685
73	0xbd77903c	-0.060440287
74	0x3efc5d6f	0.49290034
75	0x3ea18ef1	0.31554368
76	0xbde008fd	-0.109392144
77	0x3e8d807e	0.27637094
78	0x3c3b5e8d	0.011436117
79	0xbeab0b43	-0.3340703
80	0xbf09ae17	-0.53781265
81	0xbebab9c0	-0.3646984
82	0xbc10d911	-0.008840815
83	0x3bc376cf	0.005965091
84	0x3e2dabb2	0.16960028
85	0x3ea2d62e	0.3180403
86	0xbeb85b36	-0.36007088
87	0xbe655bc4	-0.22398287
88	0xbd5a23c5	-0.05325677
89	0xbd4696c5	-0.04848363
90	0xbe9b88c1	-0.30377772
91	0xbe170d3e	-0.14751145
92	0x3edbffa3	0.42968473
93	0xbf15e9f9	-0.5856014
94	0x3e645829	0.22299255
95	0xbc95b4b1	-0.018274637
96	0x3d599edf	0.053130027
97	0x3dc723aa	0.09723599
98	0xbe771db0	-0.24132419
99	0x3eadb3d0	0.3392625
100	0xbe0830ad	-0.13299818
101	0xbcfd1ca8	-0.030897453
102	0xbe72b7ef	-0.23702978
103	0xbe000f86	-0.12505922
104	0xbf08df9f	-0.5346622
105	0xbdce0a01	-0.10060502
106	0xbea83bd5	-0.32858148
107	0xbe9b0869	-0.30279854
108	0xbf0761be	-0.5288352
109	0x3e0cc5d5	0.13747342
110	0xbe847e77	-0.25877735
111	0xbcf38145	-0.029724726
112	0x3ed71041	0.42004588
113	0x3edc756e	0.43058342
114	0x3e04586d	0.12924357
115	0xbe8206c3	-0.25395784
116	0x3f3f6319	0.74760586
117	0x3e3e6fe2	0.18597367
118	0x3d25c978	0.04047534
119	0x3eb26f3a	0.34850484
120	0x3eb1a8df	0.3469915
121	0x3ece8711	0.40337422
122	0x3dc0b933	0.09410324
123	0x3ea3805f	0.31933877
124	0x3e6a8bf3	0.22904949
125	0x3ec09f67	0.37621614
126	0x3df2f3ab	0.11862882
127	0x3ea5d3f7	0.3238828
128	0xbce21643	-0.027598506
129	0xbc010986	-0.007875806
130	0xbee68bf2	-0.45028645
131	0xbebb16b6	-0.36540765
132	0x3eff0654	0.49809515
133	0x3ed61d33	0.41819152
134	0x3e8ca7df	0.27471825
135	0x3e0fe70b	0.1405298
136	0xbe00e4ca	-0.12587276
137	0xbe4f8d13	-0.2026866
138	0x3a689c0d	0.0008873351
139	0x3c29d462	0.010365577
140	0x3e8494ef	0.25894877
141	0xbdbe7cd8	-0.09301156
142	0x3efa46c0	0.48882103
143	0x3d4023dd	0.046909202
144	0x3ea57aad	0.32320157
145	0xbe9a0999	-0.30085447
146	0xbe8112cb	-0.2520965
147	0xbe439c47	-0.19102584
148	0x3efddc2f	0.4958205
149	0xbf1bb174	-0.60817647
150	0x3e7cd35f	0.24690007
151	0x3e939b11	0.28829244
152	0x3d71fc5b	0.059078556
153	0x3ea5f68f	0.32414672
154	0xbf0173b1	-0.50567156
155	0xbd33bfb6	-0.043884
156	0xbe81d479	-0.25357416
157	0x3ea3b4ac	0.3197378
158	0xbecea317	-0.40358803
159	0x3db50c7b	0.08840271
160	0x3ef0c398	0.47024226
161	0x3f2e9ae8	0.6820512
162	0x3ece7139	0.40320757
163	0xbee546a9	-0.44780472
164	0xbe9835c6	-0.29728526
165	0xbf0be17c	-0.54640937
166	0x3ef5ed1c	0.48032463
167	0xbe602699	-0.21889724
168	0xbe6c56ef	-0.23080038
169	0xbe12bd2b	-0.14329974
170	0xbe09adc9	-0.134452
171	0x3eb77be4	0.3583671
172	0xbe8cd214	-0.27504027
173	0x3e2b4546	0.16725644
174	0xbe29a159	-0.16565455
175	0x3ca5fb05	0.020261297
176	0x3ec4abf3	0.38412437
177	0x3e144e7c	0.14483064
178	0x3e5d1c7f	0.21592902
179	0xbe880355	-0.26565042
180	0xbea5f0e7	-0.32410356
181	0xbf002d95	-0.5006955
182	0x3f057420	0.5213032
183	0x3eb63f2a	0.35595065
184	0x3e099f4d	0.13439675
185	0x3bd45b39	0.006480601
186	0xbddc5ea3	-0.10760238
187	0x3ee12549	0.4397376
188	0xbe9b1921	-0.3029261
189	0x3e155471	0.14582993
190	0xbe7062f9	-0.23475255
191	0x3e13d062	0.1443496
192	0x3ec5285b	0.3850735
193	0x3e2e8888	0.1704427
194	0x3e608e12	0.21929196
195	0xbeabaf5e	-0.33532232
196	0xbe50a0f7	-0.20373903
197	0xbf002cb6	-0.50068223
198	0x3e9d454a	0.30716926
199	0xbe0d0272	-0.13770464
200	0xbe376466	-0.17909393
201	0xbd907e1d	-0.07055304
202	0xbe6717a9	-0.2256762
203	0xbd5de818	-0.05417642
204	0xbea3fb55	-0.3202769
205	0x3e022274	0.12708455
206	0x3e57dad5	0.21079572
207	0xbd8919bd	-0.06694362
208	0x3edd5fe5	0.43237224
209	0x3e2f0914	0.17093307
210	0x3e517da7	0.20458089
211	0x3efa0e22	0.48838907
212	0xbeb278d0	-0.34857798
213	0xbeb43ad3	-0.3520113
214	0xbda9b25b	-0.08285972
215	0x3ec441c0	0.38331413
216	0x3ea4248a	0.32059127
217	0xbec6ee7b	-0.3885382
218	0x3bcea3fc	0.0063061696
219	0x3e803658	0.2504146
220	0xbd36ad93	-0.044599127
221	0x3df6c2d3	0.120488785
222	0xbe783d44	-0.24242121
223	0xbe564cf2	-0.2092779
224	0xbe5b1424	-0.21394402
225	0xbe90df61	-0.28295425
226	0x3ef8d21e	0.48597807
227	0x3d43eb16	0.047831617
228	0x3e763661	0.24044181
229	0xbe70824c	-0.23487204
230	0x3e528227	0.20557462
231	0x3e99f6d8	0.3007114
232	0x3e1322cb	0.14368741
233	0xbe2ec356	-0.17066702
234	0xbf12a59e	-0.5728396
235	0x3dee6577	0.11640447
236	0x3e7df18d	0.24799176
237	0xbeb401df	-0.35157678
238	0x3dde711f	0.1086142
239	0xbebcda20	-0.36885166
240	0x3d8316db	0.06400844
241	0x3e31ab17	0.17350422
242	0xbdc2c862	-0.09510876
243	0xbd92760a	-0.071514204
244	0xbe5c570b	-0.2151758
245	0xbdb8dfdb	-0.09027072
246	0xbeab7e05	-0.33494583
247	0xbeb1500b	-0.3463138
248	0xbe8b321c	-0.27186668
249	0x3ec87584	0.39152157
250	0x3e02b6cd	0.12765045
251	0x3e3d344f	0.18476985
252	0xbe34b9cc	-0.17649001
253	0xbd46c4ab	-0.0485274
254	0xbdd7627f	-0.105168335
255	0xbe4083ff	-0.18800353

conv2.fc_neigh.weight f4 [16, 16]
0	0x3eff034f	0.49807212
1	0x3f20a79a	0.6275574
2	0x3cb2b9d5	0.021817127
3	0xbe651b60	-0.22373724
4	0x3f20c383	0.6279833
5	0xbf08e5ab	-0.53475446
6	0xbecacace	-0.39607853
7	0x3f2ab82c	0.66687274
8	0xbe4d008e	-0.20019743
9	0x3f40c5aa	0.7530161
10	0xbeeab802	-0.45843512
11	0x3ec6938e	0.3878445
12	0xbdab891f	-0.08375763
13	0xbec32671	-0.38115266
14	0xbebb0ec5	-0.36534706
15	0xbeb5e63c	-0.35527217
16	0xbe65b47c	-0.2243213
17	0xbba5e855	-0.0050630965
18	0xbec03860	-0.3754301
19	0x3f25bc57	0.6474051
20	0x3dd36056	0.10321109
21	0xbf50f477	-0.81623024
22	0x3ea88484	0.329136
23	0x3f09e2d3	0.5386173
24	0xbd9d5899	-0.07682914
25	0x3f0668e4	0.525038
26	0xbe90c47c	-0.28274906
27	0xbd041790	-0.032249033
28	0x3c5eb5ff	0.013593196
29	0xbd00ff51	-0.03149349
30	0x3e2a8568	0.16652453
31	0x3e1797c6	0.1480399
32	0x3dccc179	0.099978395
33	0xbc82c2e9	-0.015962081
34	0x3f165eaa	0.58738196
35	0x3e7e0eb4	0.24810296
36	0x3eae5f16	0.3405692
37	0x3e334e61	0.17510368
38	0x3eb249f9	0.34822062
39	0x3eb17ae0	0.3466406
40	0x3eb02e09	0.34410122
41	0x3d641aa3	0.055689465
42	0xbefbe75c	-0.4919995
43	0x3ed9bc3d	0.42526427
44	0xbf40f952	-0.7538043
45	0x3dc63773	0.09678545
46	0x3c455bf7	0.012045852
47	0xbeceef51	-0.4041696
48	0x3dc0e1e3	0.094180845
49	0xbf12ea27	-0.5738854
50	0xbb9664a3	-0.0045896336
51	0x3ec844ec	0.39115083
52	0x3cbf3969	0.023342805
53	0x3eb7774a	0.35833198
54	0xbde1afc6	-0.11019854
55	0xbdda2c68	-0.10653001
56	0x3e8c4a06	0.27400225
57	0xbd90b3b6	-0.07065527
58	0x3f14329b	0.5788972
59	0x3e061db1	0.13097264
60	0xbf064134	-0.5244324
61	0xbf2aa994	-0.66665006
62	0x3f1fc65d	0.62412053
63	0xbd0bf9f1	-0.03417391
64	0xbf00056e	-0.50008285
65	0x3eeb84ed	0.45999852
66	0xbd6c65ec	-0.057714388
67	0x3edb3fbc	0.42822063
68	0x3ed84d8d	0.42246667
69	0x3ed73406	0.42031878
70	0xbe80c737	-0.2515199
71	0xbca267be	-0.019824859
72	0x3eca8bb8	0.39559722
73	0x3e8c820f	0.27442977
74	0x3f47066e	0.77744186
75	0xbe8a2307	-0.2697985
76	0x3f25e551	0.64803034
77	0x3ecf37c2	0.40472227
78	0x3db64659	0.089001365
79	0xbdb08caa	-0.086205795
80	0x3cc4cf2f	0.024024574
81	0x3e60e929	0.21963944
82	0xbe8d24dc	-0.27567184
83	0xbed66cb9	-0.41879824
84	0x3ea3f671	0.32023957
85	0xbe1f67e6	-0.15566978
86	0xbed43cb8	-0.41452575
87	0xbf02d5da	-0.5110756
88	0x3e254b37	0.16141973
89	0x3d716de4	0.05894269
90	0xbee99f1b	-0.456292
91	0x3f17a3fe	0.5923461
92	0x3f1fdd5f	0.6244716
93	0xbeb48c5e	-0.35263342
94	0xbe54f97c	-0.20798296
95	0xbedc7883	-0.43060693
96	0x3df2e6fb	0.11860462
97	0x3ed285ca	0.41117698
98	0xbf3dfa50	-0.7421007
99	0x3e019288	0.12653553
100	0x3ec3a3d4	0.38210928
101	0x3c3b677d	0.011438248
102	0xbe07cec2	-0.13262466
103	0x3dd73669	0.10508425
104	0xbf236729	-0.63829285
105	0xbc1f7c1e	-0.009734182
106	0x3eb93db2	0.36179882
107	0x3df2aeed	0.11849771
108	0x3c5cf1f0	0.013485417
109	0x3e9f19da	0.3107441
110	0x3dd84bfe	0.10561369
111	0x3dd659e0	0.10466361
112	0x3e05c7e1	0.13064529
113	0x3f2ac7fd	0.6671141
114	0xbe9a8d55	-0.30185953
115	0x3ea24fcb	0.31701502
116	0x3eb8f2be	0.36122698
117	0x3f10553e	0.5638007
118	0xbe7a739d	-0.24458165
119	0xbeb088d7	-0.344794
120	0x3f0796ad	0.5296429
121	0x3e57c24b	0.2107021
122	0x3e45435a	0.19263974
123	0x3ea0336f	0.3128924
124	0xbecabf30	-0.3959899
125	0x3dfdbb05	0.12389187
126	0x3f18e2a9	0.59720856
127	0x3f264f94	0.64965177
128	0xbee75aa6	-0.45186347
129	0x3f32cfde	0.6984843
130	0xbecc71ae	-0.3993048
131	0x3e00059a	0.12502137
132	0xbeba51d5	-0.36390558
133	0x3edbf9ea	0.42964107
134	0x3e1ebc26	0.1550146
135	0x3dc5d197	0.09659117
136	0x3e8b4f11	0.2720876
137	0xbf36b36c	-0.71367526
138	0xbe7609dc	-0.24027199
139	0xbe71dc96	-0.23619303
140	0x3d65347d	0.05595826
141	0xbf038445	-0.513737
142	0x3e04ff95	0.12988122
143	0xbe5ab78a	-0.21359077
144	0xbecff2f1	-0.40615037
145	0xbe0faea5	-0.14031465
146	0xbcdc02f0	-0.02685687
147	0xbea51b23	-0.32247266
148	0x3ded2b18	0.11580485
149	0xbeeffbc2	-0.46871763
150	0x3e5ff2d0	0.2186997
151	0xbec55010	-0.38537645
152	0x3f18f58d	0.5974968
153	0x3ddca6a6	0.10773973
154	0xbddd60ff	-0.10809516
155	0x3cd236a5	0.025660822
156	0x3e27e3ad	0.16395445
157	0xbe8269ed	-0.2547144
158	0x3d970ec9	0.07375867
159	0x3eecfdb8	0.46287322
160	0x3ed9cb50	0.42537928
161	0x3eb0de9d	0.3454484
162	0x3e8eabf6	0.2786557
163	0x3d01633f	0.03158879
164	0x3d69902a	0.05702225
165	0xbe58f857	-0.21188484
166	0xbec0e79f	-0.37676713
167	0xbed8ba93	-0.42329845
168	0xbd8854fb	-0.06656834
169	0xbef47407	-0.47744772
170	0x3f10e5f2	0.5660087
171	0x3dedd5e5	0.11613063
172	0xbeb9fade	-0.3632421
173	0xbf015a5c	-0.505285
174	0xbe8da4a9	-0.27664688
175	0x3ce3395d	0.027737314
176	0xbe4abe87	-0.19799243
177	0x3e1bc699	0.15212478
178	0xbebec0d4	-0.3725649
179	0xbf1616d8	-0.58628607
180	0x3e85fb93	0.26168498
181	0x3d090825	0.033455033
182	0x3f0729cc	0.5279815
183	0x3f35d581	0.71028906
184	0x3e2bc05c	0.16772598
185	0x3e77ddda	0.24205723
186	0x3f0c9996	0.54921854
187	0x3ecab40a	0.39590484
188	0x3ed785ba	0.42094213
189	0x3db6f55d	0.08933518
190	0xbe87832a	-0.26467258
191	0xbe5dc77d	-0.2165813
192	0x3f30b4bc	0.6902578
193	0xbe260d9b	-0.16216128
194	0xbed0fe43	-0.40818986
195	0x3ee7d845	0.45282188
196	0x3eceea21	0.40413
197	0xbf1fcec8	-0.624249
198	0x3eafa9b2	0.34309155
199	0x3d7ae8e9	0.061257277
200	0xbc4afa6d	-0.012388808
201	0xbeb4bef0	-0.35301924
202	0xbcb0772b	-0.021541199
203	0x3e24899a	0.16068116
204	0xbe6f7dd2	-0.2338784
205	0x3edd4aac	0.43221033
206	0x3e9cbcbf	0.30612752
207	0xbe9f3173	-0.31092414
208	0x3f3d459e	0.7393435
209	0x3f47ef8d	0.780999
210	0xbe0052a8	-0.12531531
211	0x3f19e084	0.6010821
212	0xbdbacbf8	-0.09120935
213	0x3e0115e0	0.12606001
214	0xbddf93de	-0.10916875
215	0x3e85ac38	0.26107955
216	0x3de47da9	0.1115678
217	0x3e6a1a63	0.22861628
218	0xbd9f0290	-0.07764161
219	0xbf10a6a2	-0.5650426
220	0x3f6ac383	0.9170458
221	0x3efd794f	0.49506614
222	0xbea3bb70	-0.3197894
223	0x3e6f7f6a	0.23388448
224	0xbe161b4c	-0.1465885
225	0xbdca41f0	-0.09875858
226	0x3eb3c775	0.3511311
227	0x3e11d47e	0.14241216
228	0xbef955f3	-0.48698387
229	0xbd13571f	-0.035971757
230	0xbe95d0ae	-0.29260772
231	0xbea40c9d	-0.32040873
232	0x36f5ee1a	7.3292877e-06
233	0x3f044176	0.51662385
234	0xbf09b1de	-0.5378703
235	0x3f31d66f	0.69467825
236	0x3c7fe785	0.015619163
237	0x3e8a07fb	0.26959214
238	0x3e9c4774	0.30523264
239	0xbea52a55	-0.3225886
240	0x3f2aa15f	0.6665248
241	0xbdb21175	-0.08694736
242	0xbeeb839f	-0.45998856
243	0xbdf28fdb	-0.118438445
244	0x3f34ab51	0.7057391
245	0xbf094b36	-0.5363039
246	0x3e7c8771	0.24661042
247	0xbe1cfc8b	-0.15330712
248	0x3ead2c91	0.33823064
249	0xbe554c3d	-0.20829864
250	0x3e06da0d	0.13169117
251	0xbf1972de	-0.599409
252	0x3cb2a07f	0.021805046
253	0xbe858c92	-0.2608381
254	0x3ebcc758	0.36870837
255	0xbf51f9af	-0.8202161

conv3.bias f4 [16]
0	0x3c30e01f	0.010795622
1	0xbca5461e	-0.020175036
2	0x3c1958a7	0.009359515
3	0xba8be700	-0.0010673702
4	0x3c2a13e1	0.010380716
5	0xbc73bc51	-0.014876441
6	0xbc85da15	-0.016339341
7	0x3bb19f70	0.0054206178
8	0xbb14d8ed	-0.0022712306
9	0x3b8c5498	0.0042825453
10	0x3bfacfb2	0.0076541537
11	0xbbdf4e3c	-0.006814746
12	0xbb4dbc09	-0.0031392595
13	0xbbef0c90	-0.0072951987
14	0x3bd844fe	0.0066000214
15	0x3c49d9a7	0.012319959

conv3.fc_self.weight f4 [16, 16]
0	0xbe4e3192	-0.20136097
1	0xbd9d5c9d	-0.0768368
2	0x3ed49a5b	0.41524014
3	0x3db07455	0.086159386
4	0x3e452116	0.19250903
5	0x3ef6ee27	0.4822857
6	0xbe71f3de	-0.23628184
7	0x3e3ec3b5	0.18629344
8	0xbe4f8ab8	-0.20267761
9	0xbde18712	-0.11012091
10	0x3ee21d0c	0.44162786
11	0x3e3ba9fb	0.18326561
12	0x3e448f32	0.1919525
13	0x3d401340	0.04689336
14	0xbf2b4976	-0.6690897
15	0xbecb8be6	-0.39755172
16	0x3eb386ee	0.3506388
17	0xbc1524c6	-0.009103006
18	0x3eab060e	0.33403057
19	0x3e6a9022	0.22906545
20	0x3d709f3a	0.0587456
21	0xbd6eb840	-0.058281183
22	0x3e030b92	0.12797382
23	0x3dfa3ca0	0.122185946
24	0xbda88b55	-0.082297005
25	0x3c7f5f2d	0.0155866565
26	0xbd20c040	-0.039245844
27	0xbe3230b3	-0.1740139
28	0x3e87b3d3	0.26504382
29	0x3f049f5b	0.5180566
30	0xbec3549a	-0.38150483
31	0xbe9fe291	-0.31227544
32	0xbecef265	-0.40419307
33	0xbc2bb131	-0.010479257
34	0x3e569611	0.20955683
35	0xbea81a4e	-0.3283257
36	0xbdc387b8	-0.09547371
37	0xbe1dbd2f	-0.15404199
38	0x3e3b4961	0.1828971
39	0xbe456fb8	-0.19280899
40	0x3ec97289	0.39345196
41	0x3e0536c0	0.13009167
42	0x3db25bad	0.08708892
43	0xbe8fe48b	-0.28104052
44	0xbee6f258	-0.4510677
45	0x3de55e89	0.11199672
46	0x3ddf73b4	0.109107405
47	0x3eef185b	0.4669827
48	0xbe39e98f	-0.18155502
49	0xbeb39781	-0.35076526
50	0x3eac35a9	0.3363469
51	0xbe983bf6	-0.29733247
52	0x3e5a328d	0.21308346
53	0x3e9ecb29	0.31014374
54	0x3cf4bd8b	0.029875537
55	0xbe9027cc	-0.28155363
56	0xbec6da17	-0.38838264
57	0xbe3960ef	-0.18103383
58	0x3e7ad6ab	0.24495952
59	0x3ea8346f	0.32852504
60	0xbe5a3e3a	-0.213128
61	0xbea98c44	-0.33114827
62	0xbe6085e5	-0.21926077
63	0xbf17cad1	-0.5929385
64	0xbe808a0c	-0.2510532
65	0xbe39e30d	-0.18153019
66	0xbea73d72	-0.32664067
67	0x3db127ed	0.08650193
68	0xbf0c740f	-0.5486459
69	0xbea59395	-0.3233916
70	0x3efed0d5	0.497687
71	0x3e80a261	0.25123885
72	0x3e8a8dae	0.27061218
73	0x3d95c33a	0.07312627
74	0xbee5ff38	-0.4492128
75	0xbd2d568e	-0.042318873
76	0x3e1a5c41	0.15074255
77	0x3db27f25	0.08715657
78	0x3d97cc3c	0.074120015
79	0x3db38d0a	0.087671354
80	0x3da00482	0.0781336
81	0xbe03f770	-0.12887359
82	0x3ebbf8e5	0.3671333
83	0x3ef800be	0.48438066
84	0xbd2e619b	-0.042573553
85	0xbee90bc7	-0.45516798
86	0x3e45bdb5	0.19310649
87	0xbca35c77	-0.019941552
88	0x3e63e6e5	0.22256048
89	0xbecd43b4	-0.40090716
90	0xbc01f5ce	-0.00793214
91	0x3e3d23f3	0.18470745
92	0xbe8593b8	-0.26089263
93	0x3e675c6e	0.22593853
94	0x3ea97d8c	0.33103597
95	0x3e1ec154	0.15503436
96	0xbe55f19a	-0.20892945
97	0x3ef70680	0.48247147
98	0x3edc6848	0.4304831
99	0x3e35a1cc	0.17737502
100	0x3ec7c831	0.3901992
101	0xbebff5d6	-0.37492245
102	0x3daea016	0.08526628
103	0xbedba978	-0.42902732
104	0x3e6c589c	0.23080677
105	0xbcd441ca	-0.025910277
106	0x3e290afb	0.16508095
107	0x3e5480ee	0.20752308
108	0xbe924d3d	-0.28574553
109	0x3e7ad9b0	0.24497104
110	0x3e872fc0	0.26403618
111	0x3eb0c86d	0.34527913
112	0x3d40ee63	0.047102343
113	0xbea1fcdb	-0.31638226
114	0x3e89f30e	0.2694325
115	0xbe9f6206	-0.31129473
116	0x3eac00ad	0.33594266
117	0x3e77c952	0.24197891
118	0x3de23f81	0.11047269
119	0x3e35a587	0.17738925
120	0xbee8718c	-0.4539913
121	0xbebdf701	-0.37102512
122	0xbd094e84	-0.033522144
123	0xbced04eb	-0.02893301
124	0x3dec4f0f	0.11538517
125	0xbe4f40d7	-0.20239578
126	0x3d01ae72	0.031660505
127	0xbe234a4e	-0.15946314
128	0xbea335e5	-0.31877056
129	0x3e9a5a34	0.30146945
130	0xbe306e63	-0.17229609
131	0x3e8507f7	0.2598264
132	0xbed0e887	-0.40802404
133	0x3eab2cd6	0.33432645
134	0xbe1a52ab	-0.15070598
135	0xbe4fc2f8	-0.20289218
136	0x3e0de06e	0.13855144
137	0x3eebe0c2	0.46069914
138	0x3e708a2d	0.2349021
139	0xbd64dbfb	-0.055873852
140	0xbee1cb08	-0.44100213
141	0x3f1d2d38	0.61397123
142	0xbe54ad15	-0.2076915
143	0xbec91eab	-0.3928121
144	0xbd6b9002	-0.057510383
145	0xbe1fadc5	-0.15593632
146	0x3e6696e7	0.22518502
147	0x3e3698a1	0.17831661
148	0xbe9fb903	-0.3119584
149	0xbe3af1c2	-0.18256286
150	0x3d878a51	0.06618179
151	0xbbcb9e06	-0.006213906
152	0x3e696ef8	0.22796237
153	0x3d62a072	0.055328794
154	0xbe19d13e	-0.15021226
155	0x3de79430	0.113075614
156	0x3e6fe755	0.2342809
157	0xbbfd4f60	-0.0077304095
158	0xbe945ebe	-0.28978533
159	0xbeae255b	-0.34012875
160	0xbeaa1f93	-0.33227214
161	0xbde7afea	-0.1131285
162	0x3e95351b	0.2914208
163	0xbe148662	-0.14504388
164	0x3e4408c8	0.19143975
165	0x3ea349ec	0.31892335
166	0xbda67405	-0.08127598
167	0xbdb8c6c8	-0.090222895
168	0xbc7066fe	-0.014672993
169	0x3e0d48d5	0.13797314
170	0x3dea77ef	0.11448657
171	0x3c0c43d2	0.0085610915
172	0xbe822a3e	-0.25422853
173	0x3dfb2ab4	0.12264004
174	0xbed83919	-0.42231062
175	0xbd65d1f0	-0.056108415
176	0xbe9e4990	-0.309155
177	0x3b024475	0.001987723
178	0xbe92bf08	-0.2866137
179	0xbdfb9772	-0.12284745
180	0x3e739427	0.23786984
181	0x3eaa705d	0.3328885
182	0x3ea1df7f	0.31615826
183	0x3ebfe714	0.37480986
184	0xbeace8d5	-0.33771387
185	0x3dbdf249	0.09274728
186	0x3e13f922	0.14450505
187	0xbf3896c2	-0.7210504
188	0x3e8537d5	0.2601916
189	0x3e870f7f	0.2637901
190	0xbe8aaac9	-0.27083424
191	0xbe955e4a	-0.291735
192	0xbe3ecc37	-0.1863259
193	0xbd54264d	-0.05179434
194	0x3ec3865a	0.3818844
195	0x3e1ff76f	0.15621732
196	0xbe2ea746	-0.17055997
197	0xbedaa890	-0.42706728
198	0xbf097163	-0.5368864
199	0xbed479bd	-0.4149913
200	0x3e333d19	0.17503776
201	0x3e854b99	0.2603424
202	0xbeb00012	-0.34375054
203	0x3e4cdf09	0.20006956
204	0x3ea25643	0.31706437
205	0x3ef29d28	0.47385526
206	0x3ea942d5	0.330588
207	0x3dceffec	0.10107407
208	0xbed13034	-0.4085709
209	0x3e9a9d42	0.30198103
210	0xbe9c7350	-0.30556726
211	0x3e88d18d	0.26722375
212	0xbdf80968	-0.12111169
213	0xbe638be2	-0.2222133
214	0x3ef09f55	0.4699656
215	0x3e954b1c	0.29158866
216	0xbdeb4fed	-0.11489854
217	0xbc9e3dff	-0.019316671
218	0x3d8afa6a	0.06786044
219	0xbe5ae3e9	-0.21376003
220	0xbe8e7dfc	-0.27830493
221	0x3bab644c	0.005230462
222	0xbc71cfc2	-0.014759006
223	0xbe81bb7b	-0.2533835
224	0xbecca181	-0.39966968
225	0x3edea9a0	0.4348879
226	0xbe944e7d	-0.28966132
227	0xbe94410d	-0.2895588
228	0x3e82969c	0.2550553
229	0xbda308da	-0.07960673
230	0x3f095f25	0.53660804
231	0x3ed67249	0.41884068
232	0x3e2fc6cd	0.1716568
233	0xbee334d3	-0.4437624
234	0xbe93d737	-0.28875133
235	0x3ea38287	0.31935522
236	0xbe9f42d0	-0.3110566
237	0xbe97b2d3	-0.2962862
238	0x3ee01f70	0.43773985
239	0xbdebcb2b	-0.115133606
240	0xb897c470	-7.2368304e-05
241	0x3b131976	0.0022445596
242	0x3e8fa76d	0.28057423
243	0x3dbc1fcc	0.09185752
244	0xbe471bbf	-0.19444178
245	0xbe9c55da	-0.3053425
246	0xbf13a67e	-0.5767592
247	0xbee46b46	-0.44613093
248	0xbe9ac9ed	-0.30232182
249	0x3eae3d49	0.34031132
250	0x3e73fbe1	0.23826553
251	0xbed8cfd9	-0.42346075
252	0xbe9b6a54	-0.3035456
253	0x3b901456	0.0043969555
254	0xbec90e65	-0.39268795
255	0xbe0519f3	-0.1299818

conv3.fc_neigh.weight f4 [16, 16]
0	0xbd8a91f2	-0.06766118
1	0x3eb4c0e2	0.35303408
2	0x3da9d956	0.08293407
3	0x3e2d4130	0.16919398
4	0xbe85bdab	-0.26121268
5	0x3ea4b4b1	0.32169107
6	0xbf047fa9	-0.51757294
7	0xbf003165	-0.5007537
8	0x3eb2523a	0.3482836
9	0x3f12a1a6	0.57277906
10	0x3f4329a4	0.76235414
11	0x3e18923e	0.14899537
12	0x3e59cf3f	0.21270464
13	0x3e8dda8f	0.2770581
14	0xbd556c93	-0.052105498
15	0x3dc55b79	0.09636588
16	0x3edac1e9	0.42726067
17	0x3db75d42	0.089533344
18	0xbe6b6355	-0.22987111
19	0x3f2831f8	0.65701246
20	0x3e85a8db	0.2610539
21	0x3ce80982	0.028324846
22	0x3e1ec8a5	0.15506227
23	0xbf012e10	-0.5046091
24	0xbe039394	-0.12849265
25	0xbe4a1931	-0.19736172
26	0x3d73149a	0.05934582
27	0xbd4d0001	-0.05004883
28	0xbea89f50	-0.32934046
29	0x3e2fdf77	0.17175089
30	0xbe4e093d	-0.20120712
31	0xbf16a32d	-0.58842736
32	0xbefbc40b	-0.49173006
33	0xbf22b4a4	-0.63556886
34	0x3e9967f0	0.2996211
35	0xbea2c6b6	-0.3179223
36	0xbdf9bcb9	-0.12194199
37	0xbc6d5720	-0.014486104
38	0xbe0ddc03	-0.13853459
39	0xbed36218	-0.41285777
40	0x3eeb9a4a	0.4601615
41	0x3e9b39c0	0.30317497
42	0xbf151aa2	-0.58243763
43	0xbedaa9f6	-0.42707795
44	0x3e335a2e	0.1751487
45	0xbd527d51	-0.051389042
46	0xbeccf191	-0.4002805
47	0x3ef3a85f	0.47589394
48	0x3e69ce72	0.22832659
49	0xbe1ab1cc	-0.15106887
50	0xbded5636	-0.11588709
51	0xbefc01c4	-0.49220097
52	0x3ea79c22	0.32736307
53	0xbeb3b748	-0.3510077
54	0x3f0d053a	0.550861
55	0xbf02e9d0	-0.5113802
56	0x3e5c14c1	0.21492292
57	0x3dbb7082	0.091523185
58	0x3db9f0af	0.0907911
59	0x3e270893	0.16311865
60	0x3ce47bb6	0.027891021
61	0xbedab8af	-0.42719027
62	0x3e88eb9d	0.2674226
63	0xbf19da54	-0.6009877
64	0xbd5d5fba	-0.05404637
65	0x3dbb1ba9	0.09136135
66	0x3e9728cf	0.29523322
67	0x3ea6998f	0.3253903
68	0xbdae4288	-0.085087836
69	0x3e362abe	0.17789742
70	0xbe39dbe4	-0.18150288
71	0x3f061650	0.52377796
72	0xbece5558	-0.40299487
73	0x3f1cffdf	0.6132793
74	0xbe93b746	-0.28850764
75	0x3ed48723	0.4150935
76	0xbec8eb8a	-0.39242202
77	0x3e788b94	0.24271995
78	0x3e4dad4f	0.20085643
79	0x3ecc1c39	0.39865282
80	0xbedc3f62	-0.43017107
81	0xbe26cb75	-0.1628855
82	0xbd1429a0	-0.03617251
83	0x3eb21b77	0.3478658
84	0xbe8b8916	-0.27253026
85	0x3e82cdcd	0.2554764
86	0xbe4962a0	-0.19666529
87	0x3e0e4575	0.13893683
88	0x3dee578f	0.11637794
89	0xbf15cbf9	-0.5851436
90	0x3e857bda	0.26071054
91	0x3d3fd750	0.046836197
92	0x3e106021	0.1409917
93	0x3d9db688	0.07700831
94	0x3eed4402	0.46340948
95	0x3d6a1073	0.057144593
96	0x3d7b10f5	0.06129547
97	0x3e4c9877	0.19980036
98	0x3e0f0b98	0.13969266
99	0xbe1fa2c2	-0.15589431
100	0xbe091a0f	-0.13388847
101	0xbf0d0b65	-0.5509551
102	0xbe3bbd77	-0.18333994
103	0xbef18c0a	-0.47177154
104	0x3e6ef0c4	0.23334032
105	0x3e09c2e6	0.13453254
106	0xbef3256e	-0.47489494
107	0x3eb299d3	0.34882984
108	0x3f10f152	0.56618226
109	0x3eba5c8d	0.36398736
110	0x3d9e2f2e	0.077238426
111	0x3e401377	0.18757425
112	0x3ed5654e	0.41678852
113	0xbe0ad701	-0.1355858
114	0x3c8703a4	0.016481228
115	0xbf1134f6	-0.56721437
116	0xbeac1553	-0.3361002
117	0xbe42b803	-0.19015507
118	0xbe0a9673	-0.13533954
119	0xbe4a58bd	-0.19760413
120	0xbea576b9	-0.3231714
121	0x3e2aab64	0.16666943
122	0xbbcd68cb	-0.006268596
123	0xbe92213d	-0.28540984
124	0xbd7dc242	-0.061952837
125	0x3e52ee7c	0.20598787
126	0x3f097e70	0.53708553
127	0x3d871ecd	0.06597672
128	0xbd1904aa	-0.037357964
129	0xbe3793a8	-0.1792742
130	0xbda5274f	-0.08064138
131	0xbe85788b	-0.2606853
132	0xbedced63	-0.43149862
133	0xbe1fea16	-0.1561664
134	0x3e15a5c8	0.14614022
135	0x3eaf54f3	0.342445
136	0x3e84977a	0.25896817
137	0xbe3f5cb2	-0.18687704
138	0xbc7d07c5	-0.015443747
139	0xbebf887e	-0.37408823
140	0x3eb49213	0.35267696
141	0x3f306d7a	0.6891705
142	0xbe6271b6	-0.2211369
143	0xbe2295e9	-0.15877499
144	0x3d15ced5	0.036574204
145	0x3e044e32	0.12920454
146	0x3f3b7bf6	0.73236024
147	0xbe161612	-0.14656857
148	0x3ded049e	0.11573146
149	0xbf0cf56c	-0.55061984
150	0x3e839f0a	0.25707275
151	0x3eb8b67e	0.3607673
152	0x3bd1828c	0.006393736
153	0x3d1c900f	0.038223322
154	0x3e97f78b	0.29681048
155	0xbe6f6670	-0.2337892
156	0x3e43c639	0.19118585
157	0xbe91fc31	-0.2851272
158	0x3e078d82	0.13237575
159	0xbe726dbc	-0.23674673
160	0x3ec25038	0.37951827
161	0xbee81fdc	-0.45336807
162	0x3ea28c27	0.31747553
163	0x3e17d6f2	0.14828089
164	0x3ebd88fd	0.37018576
165	0x3e3f098c	0.18655986
166	0xbecacfe1	-0.39611724
167	0x3ebcd12d	0.36878338
168	0x3e5bce76	0.21465477
169	0x3e5b0395	0.21388085
170	0xbc76fdc2	-0.015075149
171	0x3e918275	0.28419843
172	0x3ec85643	0.39128312
173	0x3eb9f20f	0.3631749
174	0xbf59d7b2	-0.8509475
175	0xbe38f3c6	-0.18061742
176	0xbee4c497	-0.44681236
177	0xbe921234	-0.28529513
178	0x3e243247	0.16034804
179	0x3e63a615	0.22231324
180	0x3eed65d5	0.46366754
181	0xbe34b021	-0.17645313
182	0xbe93a564	-0.2883712
183	0xbddb7281	-0.10715199
184	0xbf1af37b	-0.6052777
185	0x3d71bf09	0.059020076
186	0xbe5a9ace	-0.21348116
187	0xbe82d0a6	-0.2554981
188	0x3ecc96b6	0.39958733
189	0x3da01767	0.07816964
190	0x3edf50a4	0.4361621
191	0xbc29104d	-0.010318828
192	0xbf0f5a3b	-0.55997056
193	0xbe909549	-0.28238896
194	0xbe5d5056	-0.21612677
195	0xbd8b845a	-0.068123534
196	0x3e96c2d1	0.29445508
197	0x3eda1a55	0.42598215
198	0xbef9b5fc	-0.48771656
199	0x3e545a77	0.20737635
200	0xbeb0e14e	-0.34546894
201	0xbe9dae98	-0.30797267
202	0xbdeeef25	-0.11666707
203	0x3ca906ec	0.020633183
204	0xbedee44a	-0.43533546
205	0xbdcf1a46	-0.10112433
206	0xbda9590e	-0.08268939
207	0x3e23ffcc	0.16015548
208	0xbd81cba6	-0.06337671
209	0xbe3a561a	-0.18196908
210	0xbf490e02	-0.78537
211	0xbd0f5e8c	-0.035002276
212	0xbf1a729b	-0.60331124
213	0xbf0b4a72	-0.5441047
214	0x3d3e3374	0.04643579
215	0x3e1a657b	0.15077774
216	0x3de82b7f	0.11336421
217	0x3eac064f	0.33598563
218	0xbe4aff03	-0.19823842
219	0x3e755ce6	0.23961219
220	0x3ed97407	0.42471334
221	0xbed2e6de	-0.41191763
222	0x3e8b878f	0.2725186
223	0x3d42a57e	0.047521107
224	0xbf1efe52	-0.6210681
225	0x3e53c23b	0.20679562
226	0xbe4591da	-0.19293919
227	0x3c10bd02	0.0088341255
228	0xbecc763b	-0.39933953
229	0x3f0cdb79	0.5502239
230	0xbeda44f1	-0.42630723
231	0x3e1df63a	0.15425959
232	0xbd2cb3c3	-0.04216362
233	0x3e846a64	0.2586242
234	0xbea54835	-0.32281652
235	0x3e532773	0.20620517
236	0x3e285b51	0.16441084
237	0x3f030113	0.51173514
238	0x3af75f5a	0.0018873021
239	0xbf1b78ee	-0.607314
240	0x3ea9e9b2	0.33186108
241	0x3e32960b	0.1744005
242	0x3e670dd2	0.22563866
243	0x3d8c6d66	0.068568036
244	0xbdedaf4c	-0.11605701
245	0xbebf83ef	-0.37405345
246	0xbea00ab2	-0.3125816
247	0x3d88b5b4	0.06675282
248	0xbe76bb2f	-0.24094842
249	0x3f05813e	0.5215033
250	0xbd26e882	-0.04074908
251	0xbec9e473	-0.39432105
252	0xbf1bad2d	-0.6081112
253	0xbe52f2b9	-0.20600404
254	0xbec593f1	-0.38589433
255	0xbe1c9ba3	-0.15293746
