model.pth (torch, 29451 bytes, 9 tensors)

conv1.bias f4 [16]
000000 a0 88 4d ba 87 c0 95 3b 8d 53 9d bb fb 24 29 3c
       -0.0007840488 0.00457007 -0.00480122 0.010323758
000010 7f d5 a6 bc 04 d9 1d bc e1 bc 56 3b 07 fd 8c bc
       -0.020365475 -0.00963426 0.003276639 -0.017210497
000020 b6 6b fa bb 84 7f c5 bc 8b 79 0c 3c 02 09 59 bc
       -0.0076422347 -0.024108656 0.0085739 -0.013246777
000030 dd 8f 71 bc ec e1 a8 3b 4b b7 79 bc 65 b9 da 3b
       -0.014743772 0.005153885 -0.015241454 0.006674933

conv1.fc_self.weight f4 [16, 174]
000000 4a c5 93 3e 43 44 cb bd 6f 1a dc 3c d5 3a 52 bd
       0.28861457 -0.09925129 0.026868073 -0.051325638
000010 c5 51 1e be f7 45 0c be d3 9a 1f be a6 6c 21 be
       -0.1546088 -0.13698564 -0.15586405 -0.15764102
000020 93 dd 32 3e ee 03 e2 3c d7 b0 1b bc 12 35 9e bd
       0.17467336 0.027589764 -0.009502611 -0.07724966
000030 5e d6 78 be 33 d5 70 be e5 43 d4 bd be e8 df 3c
       -0.24300525 -0.23518829 -0.10364512 0.02733266
000040 40 3f 8b 3d 1f 03 46 be 8a 77 12 be 98 25 c2 bd
       0.06799173 -0.19337128 -0.14303413 -0.09479827
000050 5f dc 87 bd 24 bb 16 be a9 05 2e be 09 52 2d be
       -0.06633829 -0.14719826 -0.16994347 -0.16925825
000060 ce d5 c7 bc d4 df ac 3c 43 9a f8 bd 3a 07 02 bd
       -0.024393942 0.021102823 -0.12138798 -0.031745173
000070 24 e5 a8 bd 46 06 14 3d 1a 0e 80 bc bb c9 7f 3c
       -0.0824683 0.036138795 -0.015631724 0.015612061
000080 ce 05 7d 3d a4 86 22 be 8f 3d b4 3b 37 72 2d 3d
       0.061773114 -0.15871674 0.0055005024 0.042345252
000090 35 64 c5 bc c9 90 14 bb 77 6a 62 3d 4d 6b 5e bc
       -0.024095634 -0.0022669306 0.055277314 -0.013575387
0000a0 02 0d c4 bd 52 51 28 be 0d e4 d9 bd be 36 98 bd
       -0.095727935 -0.16437271 -0.106392 -0.07432316
0000b0 fe d1 dc 3c 15 54 a5 3d 4e f1 5c be 96 2c bf 3c
       0.0269556 0.08072678 -0.21576425 0.02333669
0000c0 15 62 90 3e 42 09 a3 3e 12 54 b9 3d 5d af b9 3c
       0.2819983 0.31843 0.09049238 0.022666628
0000d0 b8 42 df 3d c7 69 56 bd 49 a5 e7 3d 10 63 23 be
       0.109013975 -0.05234697 0.113108225 -0.15955758
0000e0 16 e4 78 be 34 95 dd bd 50 e0 05 be 6a bd f6 bd
       -0.24305758 -0.10819474 -0.1307385 -0.120478466
0000f0 d3 0a 01 be 0a c9 a7 bd 0e 62 1f be bb ec 35 3d
       -0.12601785 -0.08192642 -0.15564749 0.044415217
000100 2c 3a 43 3d 0d df d7 bd 3b 64 8e bd e1 23 24 3e
       0.0476629 -0.105405904 -0.06952711 0.16029312
000110 d7 5a ae 3b 67 3b 2b 3e ab fa 4e 3c 61 ae 14 be
       0.0053208875 0.16721879 0.012633006 -0.14519645
000120 07 01 2e be 5d 47 60 bc 5f 8a 59 3d f3 a2 b2 3d
       -0.1699258 -0.013688889 0.053110477 0.08722486
000130 97 ef 37 3e f1 57 30 3d 13 12 9a 3d a2 33 c4 bd
       0.1796249 0.043052617 0.07522979 -0.09580161
000140 48 d5 12 be e6 a0 1b bd 79 ca 14 be 26 c2 a5 bc
       -0.14339173 -0.03799524 -0.14530362 -0.020234179
000150 02 21 30 3d a6 8c a1 bd 08 5a e9 3d 9a 2b 9e bd
       0.04300023 -0.07888155 0.11394125 -0.0772316
000160 34 e8 ae bd 10 1d 1b be cc a0 a9 3c 96 f6 83 3d
       -0.08540383 -0.15147805 0.020706557 0.06443517
000170 15 58 a3 3d 91 09 59 bc 10 9b 67 bc aa 30 36 be
       0.07975785 -0.01324691 -0.014136091 -0.17792001
000180 f4 17 30 3e e0 9f 29 3e d0 d1 0d 3c 73 94 61 bd
       0.17196637 0.16564894 0.00865598 -0.055073213
000190 5c 5e 68 3d ab 1d 17 be 57 46 da bd 07 7c 39 3d
       0.056730613 -0.14757411 -0.106579475 0.045284297
0001a0 e6 80 87 3b 64 c5 de 3b be 9a 9b 3c 5f c4 1c 3b
       0.004135239 0.006798433 0.018994685 0.0023920757
0001b0 14 2f a4 bc 51 c0 5b 3c 89 9a bb 3d 05 27 84 3e
       -0.02004198 0.013412551 0.091603346 0.2581102
0001c0 4b 5c 49 be 45 3a de 3d 4d 5d cc 3d a7 68 d1 3d
       -0.19664113 0.10850958 0.09978733 0.10225039
0001d0 7c 91 4f 3e 7d ef 5f 3d 08 5f 42 3e 45 60 b7 3d
       0.20270342 0.054671753 0.18981564 0.08953909
0001e0 d3 fa 47 3e 64 0c 2c 3e cd d2 c1 3b 1a 70 f4 bd
       0.19529276 0.16801602 0.005915022 -0.11935444
0001f0 15 7b a8 3d 89 50 3a be 9a 39 ce 3a 65 44 c5 3d
       0.08226601 -0.18194784 0.0015733719 0.09632186
000200 67 5d 5e be dc ff 7b bd 9f 4e c1 3e 3c 29 ed 3d
       -0.21715318 -0.061523303 0.37755296 0.115801305
000210 ab d2 49 3c 00 e5 98 3d df f4 18 be 69 a0 43 3d
       0.012318294 0.07465553 -0.14937161 0.0477604
000220 27 2e 47 3d 09 53 06 be 2e 88 5a bd 27 1e 48 3e
       0.048628 -0.13117613 -0.053352527 0.19542752
000230 33 61 f8 3c 0c 39 c7 3d f7 0d 10 3c 43 e3 11 3e
       0.030319786 0.09727678 0.008792392 0.1424685
000240 40 c1 77 bd 65 4e 02 3c 87 2b 2b 3e 53 f0 1b 3c
       -0.060487032 0.007953261 0.16715823 0.009517747
000250 6c f6 d7 3d de 2a 49 bd 2a f9 58 3d d0 82 8e 3d
       0.10545048 -0.049113147 0.052971996 0.06958544
000260 3f bc 1d 3e 7e 0c f1 3c 0c 0f eb 3d 27 e2 90 3c
       0.15403841 0.029424902 0.11477479 0.017685963
000270 e8 86 c0 bd 6b 92 92 3a f3 41 ff bc d3 f3 b7 bd
       -0.09400731 0.0011182552 -0.031159377 -0.08982053
000280 b6 fd b1 3d 63 d3 ba bd 54 dc a3 bd 44 c9 58 3e
       0.0869097 -0.0912235 -0.08001009 0.21170527
000290 0a 4f a7 bd f3 d1 6b bd b3 fc 4b 3d 50 96 59 be
       -0.081693724 -0.05757327 0.04980154 -0.21248746
0002a0 5f 16 fb bd 96 e3 91 bd 53 31 c7 bc 62 45 dc bd
       -0.12260126 -0.07123487 -0.024315512 -0.10755421
0002b0 da 1e 11 3e 61 b6 0a be 39 10 43 3e 4b 87 cf bd
       0.14171925 -0.13546135 0.19049157 -0.10133227
0002c0 dd 52 1b be b6 a5 51 3e de d7 48 3e 30 d2 df bc
       -0.15168329 0.2047337 0.19613597 -0.027321905
0002d0 2d 74 11 3e ad 0e 89 3c 3d 66 36 3d 57 9d 0b 3e
       0.14204474 0.01673063 0.044531096 0.13634239
0002e0 99 c9 a4 bd 7d ce 89 3d 4f 2f d4 bd 68 37 7b 3e
       -0.08046264 0.06728838 -0.10360586 0.24532855
0002f0 66 a0 36 be 24 b7 ae 3d 16 81 0f be f4 2c 39 3e
       -0.17834625 0.08531025 -0.14014086 0.18083555
000300 07 3b 49 3e 12 c6 be bd b2 61 c4 bd 9a 62 5b 3b
       0.19651423 -0.09315123 -0.095889464 0.003347552
000310 0f 09 34 3c 09 79 74 bc 15 50 8c 3e 74 40 10 3e
       0.010988488 -0.014921435 0.27404848 0.14087087
000320 f4 6c 9f bd 9f 24 d6 3d 47 62 16 bd 1a 44 f6 bc
       -0.07784453 0.10456204 -0.03671482 -0.03006177
000330 e0 97 b9 3d 45 cf 57 3d f5 95 cb bd 07 1e d7 bc
       0.09062171 0.052687902 -0.099407114 -0.026259435
000340 c9 51 72 3d 28 6c 9c be 1c f6 5a bd be 86 36 3d
       0.059160028 -0.30551267 -0.053457364 0.044562094
000350 da c8 ca bd 0f d8 20 be b0 3c 2e be ac 94 33 be
       -0.09901591 -0.1570742 -0.17015338 -0.17537183
000360 9f b0 b7 3e 72 a7 a3 3d d0 9a 11 be 0e 50 2c 3e
       0.3587694 0.07990922 -0.14219213 0.16827413
000370 7e d9 bd bd f4 f5 d7 3d 2c 65 5d 3c d9 e2 fa bd
       -0.09269999 0.10544959 0.013512891 -0.12250299
000380 27 dd 99 be 4d ce 1b 3e dc 2b c9 bc 34 3b 6d 3c
       -0.30051538 0.15215416 -0.024557047 0.014479447
000390 67 55 aa bc e4 fa 0a 3d 8d a0 7d 3e 63 44 1a be
       -0.020792676 0.033930674 0.24768277 -0.1506515
0003a0 2e 8f 1c be e9 e7 71 be 61 0b 43 bb 2b ab 0b be
       -0.15288994 -0.23623623 -0.002976142 -0.13639514
0003b0 08 dc 45 be 77 39 e7 bc 4b 0a d3 3d 3c a8 2f bd
       -0.19322217 -0.028225644 0.103046976 -0.04288505
0003c0 fe c9 a1 be 36 78 ce 3d 1d 2d 95 3d 5d eb fb 3c
       -0.3159942 0.10081522 0.07283995 0.030751878
0003d0 37 a0 f5 3d da 7f 69 b9 1c 98 61 3e c9 08 33 be
       0.11993449 -0.0002226824 0.22030681 -0.1748382
0003e0 ac 15 c6 bd cf 76 ad 3e f0 73 05 3d ac e1 4e 3c
       -0.09672102 0.33879706 0.03258127 0.012627047
0003f0 ce e8 aa 3c fc 3d 06 3e 02 0b 80 bd 26 c2 88 bd
       0.020862963 0.13109583 -0.062520996 -0.06677656

conv1.fc_neigh.weight f4 [16, 174]
000000 07 c3 90 bd e2 9f 8e bd 21 76 88 bd 20 64 b9 bb
       -0.070684485 -0.06964089 -0.06663156 -0.005657688
000010 1a 18 04 bd 46 16 a4 3b d7 87 b6 bd 81 a0 0a 3e
       -0.032249548 0.005007538 -0.08912628 0.1353779
000020 99 3e 39 3e c2 a9 9e be 79 d2 54 bd 8c c7 76 bd
       0.18090285 -0.3098889 -0.051958535 -0.060248896
000030 28 51 86 be 68 af 10 be 82 af 7d 3e 55 2b 2e 3e
       -0.26233792 -0.14129412 0.24773982 0.17008717
000040 57 25 c6 3e a1 b1 d5 bd 63 43 82 bd 67 00 1c 3e
       0.38700363 -0.10434271 -0.06360509 0.15234528
000050 3f 39 5f bd 9e 09 08 3e d8 0d 9f bd 38 58 62 bd
       -0.054497954 0.13284919 -0.07766312 -0.055259913
000060 1c 0f 59 bc ee f4 7d 3c 01 33 08 3e 8d 04 a0 bd
       -0.013248231 0.01550029 0.13300706 -0.07813368
000070 17 bf 80 be 09 f4 9d 3d 2f 6b 3d be f2 3d 97 bd
       -0.2514579 0.07712562 -0.18497919 -0.07384862
000080 5b 05 2d bd 7f b3 2b be 9d 26 cf 3d 00 ce 80 3d
       -0.042241435 -0.16767691 0.10114787 0.062892914
000090 49 03 3e be bf ba 28 3e 8b a5 0e 3e 5c 33 22 3d
       -0.1855594 0.16477488 0.13930337 0.03959976
0000a0 8a ea f4 3c 77 f1 d5 3b c6 be ec 3c 47 5e 1b 3e
       0.029896993 0.006529029 0.028899562 0.15172683
0000b0 d2 3e 1e 3e b3 eb 91 3c 72 0f 98 be 09 c4 78 be
       0.15453652 0.017812585 -0.29699284 -0.24293531
0000c0 48 66 01 3e 39 6d 06 3e cf 24 52 3e 4e f2 2f be
       0.12636673 0.13127603 0.20521854 -0.17182276
0000d0 14 77 23 3e 19 fe 09 3e 7b 30 a9 3e 78 0b a6 bd
       0.15963393 0.13475837 0.330448 -0.08107656
0000e0 97 95 4a bd b5 d6 e6 3b e7 1c f9 3d d8 ba bb bd
       -0.049459066 0.007044638 0.12163716 -0.09166497
0000f0 d4 e7 15 be 54 b0 f1 bd 8c 15 8e bd 54 34 6d bd
       -0.14639217 -0.1180121 -0.069377035 -0.057911232
000100 d0 65 86 3d 63 bd c9 bd 15 68 3b be db ff 33 bd
       0.06562388 -0.09850576 -0.18301423 -0.043945175
000110 a2 ef d8 bd 59 fd 67 bd 1e 43 ac 3d 8c b2 b6 bd
       -0.10592581 -0.056638096 0.08411239 -0.08920774
000120 3a 6c 88 be 39 a2 ad 3c 45 6e 1e be f3 f2 bb bc
       -0.2664507 0.021195518 -0.15471752 -0.022942996
000130 a4 ee 38 3d de a5 ad 3c 70 33 fb 3d 3e c3 69 3d
       0.04514946 0.021197256 0.1226567 0.057070963
000140 a0 01 82 bd ab 28 71 be ec 36 11 3e 2b 7f 21 3e
       -0.06347966 -0.2355067 0.14181107 0.15771167
000150 46 ea 5f 3e 4f 75 31 3d 6b 60 ae bd 50 ff 96 be
       0.21866712 0.043324765 -0.08514484 -0.29491663
000160 b7 d1 65 be 8b 02 30 bf 36 fb e9 be 51 9c f1 3d
       -0.22443281 -0.6875388 -0.4569947 0.11797393
000170 a3 cb 0d 3e 25 fa f4 3c 27 79 91 bd 83 83 9e be
       0.13847212 0.029904434 -0.07103186 -0.3095971
000180 71 86 6a 3e d3 4a 87 3e 41 7f c0 3d 79 50 0a 3d
       0.22902848 0.26424274 0.09399272 0.03376815
000190 c2 a8 35 bc c2 48 71 bd fa 9d 89 3c 9b b9 86 3e
       -0.011087598 -0.058907278 0.016798962 0.2631348
0001a0 c7 da bc 3e fc 3f 03 3e 85 be c0 bd b6 5e 4f be
       0.36885664 0.12817377 -0.09411339 -0.20250973
0001b0 87 1b 18 bc 9a df c3 bd b4 f7 39 3e 2e 4a 0c 3f
       -0.009283907 -0.09564133 0.18160897 0.5480069
0001c0 0d 40 55 be c0 62 28 be 5b 6e 6c 3e 13 e3 63 3e
       -0.20825215 -0.1644392 0.23088972 0.2225459
0001d0 ec 7c cf 3d f0 37 78 be f0 d1 77 3d 9e 8a c2 3d
       0.10131249 -0.24240088 0.060502946 0.094990954
0001e0 2c d3 1c be 99 22 27 3c 96 c8 9c bd e9 31 2f be
       -0.1531493 0.01020112 -0.07655446 -0.17108883
0001f0 58 0c 35 bd e7 f7 b8 be f3 da b3 3d 24 ab 24 3d
       -0.044201225 -0.36126634 0.087819956 0.040202275
000200 66 62 1b be 04 99 11 be 40 fb 8c 3e 2b 39 0d be
       -0.15174255 -0.14218527 0.2753544 -0.13791339
000210 10 d4 31 3e 9a 27 bb 3d 45 14 e5 be c0 74 04 3e
       0.17366052 0.09138413 -0.44742027 0.12935162
000220 15 8c be bc 5f 96 a0 be 20 96 61 be fd 69 87 3e
       -0.023260156 -0.31364724 -0.22029924 0.2644805
000230 5c 5d 89 3d 62 a6 5f bd 6b f6 08 bd d2 6f 78 3d
       0.0670726 -0.054602034 -0.033438127 0.060653515
000240 fd f8 2c 3c 12 58 15 be 28 3f 3c be a8 49 1a 3d
       0.01055741 -0.14584377 -0.18383467 0.0376679
000250 a9 f7 bc 3d 9f 0a 37 bd fd a7 ca bd a5 7c 13 be
       0.09226925 -0.044687863 -0.098953225 -0.14403017
000260 38 dd a2 3d c5 15 f1 3e 08 70 67 3e c8 31 8f 3e
       0.079523504 0.4708692 0.2260133 0.27967668
000270 ea ed 63 bc 23 d7 0f 3e 94 9e e9 3d 82 f7 54 bc
       -0.013911704 0.14046912 0.114071995 -0.012998464
000280 84 9c e8 3d ff 1d c7 bd 47 fc be 3d aa 0c 05 3f
       0.11357978 -0.09722518 0.09325462 0.5197245
000290 89 2b d8 bb d7 bc 2b 3c e0 da 32 3e d8 d8 e7 bd
       -0.0065969867 0.010482035 0.17466307 -0.113206565
0002a0 bd ed d8 3d 98 d8 31 bc 27 a7 d6 3d bc f2 ac bd
       0.1059222 -0.010854863 0.104811005 -0.084447354
0002b0 58 aa af 3e 6a eb 1a be a5 7e 99 bd 51 20 ec bd
       0.3430965 -0.15128866 -0.07494859 -0.11529601
0002c0 0e 32 53 be 98 f0 60 3d 44 8b d7 3e 4a 23 d6 bc
       -0.20624563 0.054916948 0.4209844 -0.026139874
0002d0 bf 43 85 3e 39 ba 9e 3d 9e 8b ef 3d 23 f3 2b 3c
       0.2602825 0.07750363 0.11696552 0.01049498
0002e0 c2 a6 43 bd 83 34 57 3e 02 4e ca be 81 b1 cd 3d
       -0.047766455 0.21016125 -0.3951264 0.10043622
0002f0 7f 72 93 b8 23 37 8a be 9d 0c 65 be 6c 8f 5c 3e
       -7.030833e-05 -0.2699519 -0.22368093 0.21539086
000300 78 94 03 be cd 84 b5 bd 4b 2d 4f be b0 71 d1 bd
       -0.12849605 -0.0886322 -0.20232122 -0.10226762
000310 3f b4 6a 3d ac d5 3e be 98 1f e0 3e 15 c6 f9 3e
       0.057300802 -0.18636197 0.43774104 0.48783937
000320 07 db 47 be cd e2 97 bd 53 2d e7 3b 58 1e 6c 3e
       -0.19517146 -0.07416306 0.0070549636 0.2305845
000330 41 73 92 3e 35 11 3a 3e 73 01 7c be 71 4a dd 3e
       0.28603557 0.18170626 -0.24609928 0.43220857
000340 c3 20 2f 3d e8 d3 1a be 85 7a 19 3e 75 f7 57 bd
       0.042755853 -0.15119898 0.14988144 -0.052726228
000350 f1 6a 1c 3b 32 7a b0 bc 93 c1 50 3e 82 aa 3e be
       0.0023867453 -0.021542642 0.20386343 -0.18619731
000360 c5 c5 cf 3e 9a be 4d 3e 1a 33 c0 3d 78 67 62 3e
       0.40580574 0.2009224 0.09384747 0.22109783
000370 a0 ef 57 be f0 26 b8 3e 48 de b8 3b 64 af 1d bd
       -0.21087503 0.35967207 0.0056417324 -0.038497344
000380 e6 78 51 bd 90 dc 9b 3e d5 79 dd 3c 61 dc d6 bc
       -0.05114069 0.30441713 0.027035633 -0.026228132
000390 89 89 9a bd be 27 28 3e 47 e8 ee 3d a2 52 53 be
       -0.07545764 0.1642141 0.11665397 -0.2063699
0003a0 b3 ea 92 bc b3 aa 9d be 1a de 16 be 87 de 2e 3e
       -0.017934179 -0.30794296 -0.14733163 0.17077075
0003b0 8b 97 1d bf fa a2 8f 3d 54 89 b9 3d ce ee 87 be
       -0.6155936 0.07013507 0.090593964 -0.2654938
0003c0 a9 11 89 be b5 d7 b4 3e 8c 5f ba 3d 9c 18 a4 3d
       -0.26771286 0.3532082 0.09100255 0.08012506
0003d0 68 3f d9 3d 6d 2a 1f 3d a8 1f dc 3d dd d7 eb 3d
       0.10607797 0.03885882 0.107482255 0.11515782
0003e0 d9 af 08 be 32 18 ff 3d 5a 3d f0 3e b5 e1 20 3c
       -0.1334833 0.12455787 0.46921808 0.009819438
0003f0 bf e7 11 be cb aa 59 3e 47 6a b0 3d 62 fe 36 be
       -0.1424856 0.21256559 0.08614021 -0.17870477

conv2.bias f4 [16]
000000 f1 ca 84 bb aa 81 12 3c 9c e5 af 3b 79 a5 05 39
       -0.004052513 0.008942047 0.0053679477 0.00012745512
000010 f5 0f 06 bc 11 eb 73 bc 79 97 e8 3a 47 b5 33 3b
       -0.008182515 -0.014887587 0.0017745338 0.0027421282
000020 ef b4 08 bc ce 9d 90 3b 43 9d 42 3b 4a 99 73 bb
       -0.008343919 0.004413343 0.0029695786 -0.0037170225
000030 19 d2 a3 3a af 6b 65 bb c7 af 35 bc a3 9f 46 bb
       0.0012498527 -0.0035006811 -0.011089272 -0.0030307553

conv2.fc_self.weight f4 [16, 16]
000000 c8 33 ac 3c 5e 14 c9 3d 51 f1 98 3e ef 7f a0 be
       0.021020785 0.09818338 0.2987161 -0.31347606
000010 a2 5c 3a 3e 1c f2 44 3e 55 fc 61 be 6c e2 e6 3e
       0.18199399 0.19232982 -0.22068913 0.4509462
000020 d0 b4 a0 bd 8e 06 eb 3d 5e 4f 8f 3e 3b a7 b7 3e
       -0.07846987 0.114758596 0.2799024 0.35869774
000030 2f a9 ef 3e 18 a3 12 bf 5d 1d 72 3d 92 5f f8 3e
       0.46808764 -0.5728011 0.059110034 0.48510414
000040 fc 2e 75 be fb d3 8c be 1c 57 56 3d b0 6d 8b be
       -0.23943704 -0.27505478 0.052329168 -0.27232122
000050 e4 1a 85 be a1 96 8f bd 45 07 bc 3e bc 31 01 3e
       -0.25997078 -0.07011152 0.36724296 0.12616628
000060 1f 07 ed be 99 82 13 3e be f5 5e 3e 67 68 02 3f
       -0.46294495 0.14405288 0.2177343 0.50940555
000070 51 9e c4 bd 55 cd 37 3e 2c ff 9f be d0 18 5c 3e
       -0.09600509 0.17949422 -0.31249368 0.2149384
000080 a6 d7 14 bd 48 e8 c9 3e e0 0a b1 be 92 0f 96 3d
       -0.03633847 0.3943503 -0.3457861 0.073271886
000090 6e cc 0f 3c 4a 23 e3 bd 84 b0 a8 bc 14 45 b1 be
       0.008776767 -0.11090715 -0.020591982 -0.34623015
0000a0 f8 f2 c6 be 9c 82 44 be 7f 2a a5 3e fa 92 57 3e
       -0.38857245 -0.19190449 0.32258984 0.21052161
0000b0 ec 63 01 bf 06 30 e7 bd a6 2d 9b be c9 67 ce be
       -0.50543094 -0.112884566 -0.30308264 -0.40313557
0000c0 bd f1 27 3d 5b 81 ff bc bf 61 c1 be a5 35 f9 ba
       0.041002024 -0.031189611 -0.37769887 -0.001901318
0000d0 bd 44 ac 3e 6d e7 02 be 95 ce 08 3f 09 8d a0 bc
       0.33646193 -0.12783594 0.5344022 -0.0195985
0000e0 ef ea a3 be 9b 1b 22 bd bc 4f cb 3e 82 d3 b9 bd
       -0.32015178 -0.039577108 0.3970927 -0.09073545
0000f0 df 04 89 bb 7f 15 40 3e 4a 8c d0 3e f8 81 c4 be
       -0.004181489 0.187582 0.40732032 -0.38380408
000100 91 f3 84 be 40 b4 a9 be 65 a4 87 3e a4 6d 1b 3f
       -0.25967076 -0.33145332 0.2649261 0.60714173
000110 85 cb 39 bd 45 c7 90 bd 16 6d 18 be c0 81 89 be
       -0.045360107 -0.07069258 -0.14885363 -0.26856804
000120 32 b4 e7 be e3 df 94 be 8b fd bd bd f4 ac 55 3e
       -0.45254666 -0.29077062 -0.09276875 0.20866758
000130 ba 81 aa 3e e4 08 d0 3e 68 d2 f9 3e 9b 34 3a be
       0.333021 0.40631783 0.4879334 -0.1818413
000140 a0 c3 41 3e 1b 11 d4 be 74 9b 0a be 96 13 2d be
       0.18922281 -0.414193 -0.13535863 -0.16902003
000150 d5 60 fa 3d 1c ac fa 3d d4 68 c5 3e fd 85 be be
       0.122255005 0.122398585 0.3855654 -0.372116
000160 d7 bd 53 3e 62 74 1d be 3e 8e a5 be 9d 0b 84 3d
       0.20677887 -0.15376428 -0.32335085 0.064475276
000170 a8 d9 03 3f 76 ad 84 be 53 a3 c5 3e bf ab bb 3e
       0.5150399 -0.2591359 0.3860117 0.3665447
000180 58 94 87 be 32 86 6b be 78 f2 6d 3e a7 59 c6 be
       -0.26480365 -0.2300041 0.23237026 -0.38740274
000190 f6 85 16 be 12 e9 9c bd 10 69 30 3e 29 97 80 3e
       -0.1469954 -0.07661642 0.17227578 0.25115326
0001a0 02 92 6f bd d4 be 18 3f 25 6d c4 3e 10 4e b8 3e
       -0.058488853 0.5966618 0.3836452 0.35997057
0001b0 47 99 b8 3e 4b 9a 63 bc 1a 5b 4a be 14 8a 43 be
       0.3605444 -0.013891767 -0.19761315 -0.19095641
0001c0 69 c9 e1 3d 7f 13 14 be 67 ae 4b be 5d 66 cb be
       0.11024744 -0.14460562 -0.19890748 -0.39726534
0001d0 a4 57 e0 bd d8 be 43 be 6e 2a fa be 61 49 46 3e
       -0.10954216 -0.1911577 -0.48860496 0.1936393
0001e0 04 01 a3 be 4b 46 bc be 6e 96 a5 be e0 48 15 bf
       -0.31836712 -0.3677238 -0.3234133 -0.58314323
0001f0 1f ff 0c be c3 0a 7b 3e 9e b1 fc be 4c bb 0a be
       -0.13769196 0.24515824 -0.4935426 -0.1354801
000200 14 57 2d 3f 00 88 31 3e 0b 7d 74 3d 77 47 5e 3e
       0.67710996 0.17337036 0.059689563 0.21706949
000210 12 04 ad 3e 78 fc e8 be 65 03 5e be 0f 29 d3 3e
       0.33792168 -0.45505118 -0.21680982 0.41242263
000220 02 6c 83 3e 24 dd 42 bd 86 24 4d 3e 23 34 13 3e
       0.2566834 -0.047574177 0.20033464 0.14375357
000230 6f 0c f6 bd fb 70 c4 be 00 a9 bb bc 0c 91 99 be
       -0.1201409 -0.38367447 -0.022907734 -0.29993474
000240 8f bf 43 be a1 69 eb be 36 d1 89 3e eb fd 80 be
       -0.19116043 -0.45979026 0.26917428 -0.25193724
000250 0b 33 9d bd 0f 66 91 3e 3b 22 f7 be 9a b9 80 bd
       -0.07675751 0.28398177 -0.48268303 -0.06285401
000260 5e 18 8d 3e 2e cf 34 be 21 ef 22 be 1c b5 3d be
       0.27557653 -0.17657158 -0.15911533 -0.18526119
000270 4c 1b 11 3e 1c 69 8c 3c ba 16 9c 3e 18 c5 ce 3e
       0.14170569 0.017139964 0.3048609 0.40384746
000280 fe 62 d4 3e b8 72 97 3d e1 c7 b2 be 2b 58 a3 39
       0.41481775 0.07394928 -0.3491812 0.00031155473
000290 ce 55 90 be 61 6a 0b 3e 83 81 96 3e 06 4b c8 3d
       -0.28190464 0.13614799 0.29395685 0.097799346
0002a0 60 d9 7c 3e 22 7d 90 bd 88 19 09 3f 20 31 a9 3e
       0.24692297 -0.07055117 0.5355458 0.33045292
0002b0 d0 75 ff 3d 21 df c0 bd 14 fe 0e 3f 89 6e c3 be
       0.12473643 -0.094175585 0.5585644 -0.3817027
0002c0 1f 39 2d be 38 68 97 be 69 b3 25 be 6a 63 71 be
       -0.16916321 -0.295717 -0.16181721 -0.2357308
0002d0 97 76 d0 3d 61 5a d3 bd 1d 36 a7 3e 08 de 9a 3e
       0.10178869 -0.10319973 0.32658473 0.3024752
0002e0 b5 77 d0 3e 62 0c 16 be 9e 43 0f 3e 9d e3 17 3d
       0.4071633 -0.14653161 0.13990638 0.037082303
0002f0 67 80 8b 3e d5 d3 bc be 94 8d 86 bd 5d 12 87 3d
       0.272464 -0.36880365 -0.06569973 0.065952994
000300 38 dd 9d be 93 06 c0 bd 62 cf b3 3e 40 b9 4e be
       -0.3083284 -0.09376254 0.35119158 -0.20187855
000310 14 ee fd 3d f8 4b 8c be ba 77 4c 3d 4f ec 13 bd
       0.123989254 -0.2740171 0.049918868 -0.036114033
000320 9b 58 c1 3e 42 50 70 be 5f b9 af be 0d 82 e5 3c
       0.37762913 -0.23468116 -0.34321114 0.028016115
000330 bc f3 8c be 52 62 49 be af 8f 64 be b1 d8 de be
       -0.27529705 -0.19666412 -0.22320436 -0.43524697
000340 c7 5d c9 be 45 67 11 bd 4a 08 bf 3e 7e d7 08 be
       -0.3932936 -0.035498876 0.37311012 -0.13363454
000350 ad d7 6a be d4 71 2c be 89 88 d7 3d 45 b1 d4 be
       -0.22933836 -0.16840297 0.10524089 -0.41541496
000360 4e 74 9d be df 87 74 3e ad 1d ce bd 34 43 88 3e
       -0.30752796 0.23879956 -0.10064254 0.26613772
000370 c3 8c 7a be df 48 e8 be a8 94 9e be 47 fb 2a be
       -0.24467759 -0.45368096 -0.3097279 -0.16697417
000380 88 b5 ee be de 98 a2 3e 0d a6 d8 3e cd f5 86 3e
       -0.46622872 0.31757253 0.42314187 0.26359406
000390 5f 2b a3 3d ed 9d 09 3f 05 0f d5 be 05 31 e0 3d
       0.07967257 0.537566 -0.41613021 0.1094685
0003a0 79 57 a0 3e 06 c0 46 be 38 2e 85 3e df 18 60 3e
       0.31316736 -0.19409189 0.26011825 0.21884488
0003b0 86 56 b6 3e b1 5c 03 3f 0c 13 ce be 6b 85 d2 3e
       0.35612887 0.5131331 -0.40248907 0.41117415
0003c0 21 3a 84 be 55 5a c4 3e 87 d3 e5 3d 47 be e1 be
       -0.258256 0.38350168 0.11221986 -0.44090483
0003d0 6f b2 8c 3e 52 07 74 3c dd a3 65 be 09 8f 59 3d
       0.27479884 0.014894323 -0.2242579 0.053114925
0003e0 98 5b e6 3d 9b ad 49 3e 32 6a d1 3e c0 95 e7 3e
       0.11247939 0.19695131 0.40901333 0.45231438
0003f0 c0 a7 aa 3b 6c 17 85 3e bf 13 23 bf 60 d3 9e 3d
       0.0052079856 0.25994432 -0.63702005 0.0775516

conv2.fc_neigh.weight f4 [16, 16]
000000 5a 03 26 be 84 f8 fe 3c 3c fe 0b 3f 08 4d 67 bd
       -0.16212216 0.03112436 0.54684806 -0.056469947
000010 44 54 f9 3e 6a 56 e5 be aa cf f1 be be a6 da 3e
       0.48697102 -0.4479249 -0.47228748 0.4270534
000020 3d 1d f5 be 0c fd a3 bc 0b 67 b2 3e a5 0a f0 3e
       -0.4787387 -0.020018123 0.3484424 0.4688312
000030 02 83 b7 bd 5d 80 f0 be 22 d8 15 3f ce b3 3a be
       -0.08960535 -0.46972933 0.5853292 -0.18232653
000040 e5 55 d9 3e 3c b8 59 bf 65 7e 06 be 38 61 5c 3e
       0.42448345 -0.85046744 -0.13134153 0.21521461
000050 89 ef b2 3e 3f 49 5e bd d5 6d 92 be e3 e3 e5 be
       0.34948376 -0.05426907 -0.2859942 -0.44900426
000060 7e c9 09 bf 06 89 87 be 8c cb 4a 3e e5 f5 3f be
       -0.5382308 -0.26471728 0.1980421 -0.18746145
000070 1d c3 56 3b ef fe cb be 96 6f 47 3e 47 84 a2 be
       0.0032770105 -0.39842936 0.1947616 -0.31741545
000080 05 49 ae be 53 fa 9e 3e 6e 23 54 3e ab ae b6 be
       -0.34040084 0.31050357 0.2071664 -0.35680136
000090 f4 cd df bd 27 90 d2 3e 8d e4 00 bf 30 08 23 bf
       -0.10927954 0.41125605 -0.5034874 -0.6368437
0000a0 df 55 a2 be 21 b2 31 bf b0 35 a1 3e 3e 13 16 bf
       -0.3170614 -0.6941243 0.31486273 -0.5862311
0000b0 23 05 20 3e 1f 44 b3 bd ab f3 6c bd ad df 10 be
       0.1562696 -0.087532274 -0.057849567 -0.14147826
0000c0 e3 c9 7c bd 90 ca 78 3e 22 2c 04 3f 78 4f 2f bf
       -0.06171597 0.24296021 0.5162984 -0.68480635
0000d0 de a7 26 3f 8f 3c 00 3f 95 ba 35 3f 97 e4 38 3f
       0.65099895 0.50092405 0.70987827 0.722238
0000e0 95 67 ad 3e f9 60 7f 3e c4 02 c5 3e c7 fc 09 bf
       0.3386809 0.24939336 0.38478673 -0.5390133
0000f0 d2 5e ec 3d c1 33 8a 3e f3 02 5f be 1e 15 40 3e
       0.11541523 0.2699261 -0.21778469 0.18758056
000100 ec 60 a7 3e 37 fe 9e be ce 2c 82 be 6a b1 42 3f
       0.32691133 -0.31053326 -0.25424808 0.7605196
000110 23 e9 67 be 44 c6 a1 be 0b 3a 3f be ec 6f 1e be
       -0.22647528 -0.31596577 -0.18674485 -0.15472382
000120 2e e9 39 bf 3e 02 a6 be d3 9b df 3e 71 a4 8f 3d
       -0.7262143 -0.32423586 0.43673572 0.070137866
000130 91 4c 65 3f 05 7f 33 3e 59 d0 f3 3e f1 64 4e be
       0.89569956 0.17528923 0.47619894 -0.20155694
000140 41 4a 26 3f ee 8e 36 be 39 28 fd 3e 99 ad 13 be
       0.6495705 -0.17827961 0.4944475 -0.14421691
000150 7d 30 6e 3e ed 10 18 3f c5 97 c0 be 17 8e fa be
       0.23260684 0.59400827 -0.3761579 -0.4893653
000160 6d 54 c9 be cb 4c 20 bf da 28 fb be 8a 71 77 3e
       -0.39322224 -0.62617177 -0.49054605 0.24164405
000170 8c 36 ac 3e a2 7f ac bc 13 e7 3d 3e b0 fc df 3e
       0.33635366 -0.021056954 0.18545179 0.43747473
000180 d0 4b b9 3e c0 0a f2 be 31 36 5a 3e 06 b4 46 be
       0.36190653 -0.47273827 0.21309735 -0.19404611
000190 99 6e 7d be 8e 19 7d 3e 14 81 87 be 72 86 fc bd
       -0.24749221 0.2471678 -0.26465666 -0.12330331
0001a0 f1 7b ab be 87 14 18 3f 43 01 2b bc 51 67 be 3c
       -0.33492997 0.5940632 -0.010437313 0.023242624
0001b0 7b df 1b be ff 78 0e 3d 77 6e 5b be 45 7d 1b bf
       -0.1522197 0.03478336 -0.21428858 -0.6073802
0001c0 38 f7 e1 3d 63 26 bb be 20 bd 92 be 1a a2 56 be
       0.11033481 -0.36552724 -0.28659916 -0.20960274
0001d0 c1 36 bb 3e 7b 74 53 3e a8 7b 79 be de d8 08 3d
       0.3656521 0.20649903 -0.24363577 0.033409946
0001e0 63 05 e5 bd f1 f5 bb be 0c 54 d9 3d 4a 50 53 bf
       -0.11182668 -0.36711076 0.10611734 -0.82544386
0001f0 dd 1a c0 3e c7 fb ab bd 9b 8a fe bd d3 2c 45 3c
       0.37520495 -0.08397632 -0.12428781 0.012034613
000200 60 a5 68 3f 98 ad c5 bd 28 f3 04 3f c6 69 b3 bd
       0.9087734 -0.09652251 0.51933527 -0.08760409
000210 64 0a 23 be 37 90 8d be ab 6f 96 be c3 fe ea 3e
       -0.15921932 -0.2764909 -0.2938207 0.45897493
000220 4a 81 a9 bd 70 f2 a5 bd 3c 2e 88 be ad 23 9b 3d
       -0.08276613 -0.08102882 -0.26597774 0.07575164
000230 88 29 99 be e7 64 77 3e b8 c0 8d bd b2 a7 3d be
       -0.29914498 0.24159585 -0.06921524 -0.18521002
000240 1f 3b 44 bd d3 b1 c9 be 0e e1 d2 be 2f dd 04 3d
       -0.047907945 -0.39393482 -0.41187328 0.0324375
000250 3e dd 97 3e a8 62 19 3d eb ce 13 bf d0 4c 8f 3d
       0.29660982 0.0374476 -0.57737607 0.06997073
000260 e3 84 71 be 73 03 4b 3e 45 68 a7 3e 85 33 24 3f
       -0.23585849 0.19825535 0.3269674 0.6414111
000270 3b 99 ff bd 05 23 b3 3e ac 1c 2b 3f 1c 50 13 bd
       -0.12480398 0.34987655 0.66840625 -0.03596507
000280 ee 9a e7 bc 29 ae a4 3d 27 b2 db 3e 2b 46 37 be
       -0.028272118 0.08041031 0.42909357 -0.1789786
000290 3c 16 4e bf 99 d8 0b 3f 48 16 77 3e 42 cc 04 be
       -0.80502677 0.54627377 0.24129593 -0.12968543
0002a0 ed 0f 66 3f f3 57 1d 3d 09 87 cf 3e 57 41 89 3e
       0.8986805 0.038413953 0.4053271 0.26807663
0002b0 02 9e 55 be b0 c4 3c be f9 ee 05 3f 7d 7b 65 be
       -0.20861056 -0.18434405 0.5231777 -0.22410388
0002c0 f1 47 43 bd ce 4c 2e bf e2 b6 1a be 40 d3 f3 be
       -0.04767603 -0.68085945 -0.15108827 -0.47622108
0002d0 f1 13 c9 3e 3d 09 7e be 3e d0 2e be 1e 66 de bc
       0.39273027 -0.24808212 -0.17071626 -0.027148303
0002e0 c6 63 22 3f 40 3f 75 3e a5 f2 a5 3e 6c b9 f7 be
       0.6343349 0.23949909 0.32411686 -0.48383653
0002f0 7b 1b e8 3e 98 d5 21 be 40 84 74 bd 8b 88 41 be
       0.45333466 -0.15804136 -0.059696436 -0.18899743
000300 f7 d1 2d be fd 33 be bd 7b 63 9a 3e 3b 41 a2 be
       -0.16974626 -0.0928726 0.30154023 -0.31690392
000310 f6 32 c6 3e e6 47 ac 3d 96 50 03 be 91 0e a4 3e
       0.38710755 0.08412151 -0.1282371 0.32042363
000320 19 32 1d 3f ac 7f 39 be 95 bc 1b bf 32 ee 80 bd
       0.6140457 -0.18115109 -0.6083463 -0.06295432
000330 c0 df 4d 3e 59 fe 94 3d 5e f2 01 bf 48 88 c8 be
       0.20104885 0.072750755 -0.5076045 -0.39166474
000340 32 12 5e 3e 9e 74 81 be 19 45 44 be 8d 4f a7 3e
       0.21686628 -0.25284284 -0.19166984 0.3267788
000350 f2 0c 6f 3e c3 70 bd 3e 26 b4 b6 3e ea ae f3 be
       0.23344782 0.37000093 0.35684317 -0.47594386
000360 1f a0 3f 3e 9b 59 9f 3e a4 9e f3 3c a5 b1 5c bf
       0.18713425 0.3112305 0.029738732 -0.86208564
000370 d6 be 59 3c 06 f5 29 bf ae ae 5a be 25 2a a5 3e
       0.013290128 -0.663895 -0.21355698 0.32258716
000380 e4 ed b8 3e be fa ca 3e dc 12 05 3f f5 c0 f8 3e
       0.36118996 0.39644426 0.519819 0.48584715
000390 c0 0d 47 3e 1b 25 31 3f 82 f4 48 bf b9 3c bd 3e
       0.19438839 0.69197243 -0.7849809 0.3696039
0003a0 8c e1 b0 3e 6a 7d b4 bd 2a 89 bc 3d 4b 7d fa bd
       0.3454708 -0.08812983 0.092058495 -0.12230929
0003b0 3b 2c 29 be 3b c4 a8 3e 50 2e 4c bf ad 3e 5d be
       -0.16520779 0.32962212 -0.7975817 -0.2160594
0003c0 77 99 29 3e 00 e7 b5 3d b3 03 26 bf be c5 50 3e
       0.16562448 0.088819504 -0.64849395 0.20387933
0003d0 6f a9 76 3e 4e 94 31 bd 91 d0 6c bd d7 78 22 bf
       0.24088071 -0.043354325 -0.057816092 -0.63465637
0003e0 d2 0a ca 3e 70 0c 18 3f d6 eb e4 3d bb d5 5a be
       0.3946138 0.5939398 0.11177795 -0.21370594
0003f0 ad 86 da 3e 1a 15 f8 bd 9d ed 00 bf 04 de 4a be
       0.42680874 -0.121134 -0.5036257 -0.19811255

conv3.bias f4 [16]
000000 cb 7f 0c bc 7e c3 a0 3a a2 a8 14 bb 88 21 b8 b9
       -0.00857539 0.0012265292 -0.002268352 -0.00035120198
000010 5e 5b 17 3b 97 87 12 3b 08 17 b7 bb 0d 6d ff ba
       0.002309523 0.002235865 -0.0055874623 -0.0019487456
000020 46 ac 33 bc 5f 03 bb 3b e0 60 2c 3b 98 a7 32 3c
       -0.010966366 0.005707189 0.002630286 0.010904215
000030 09 22 f8 ba 93 83 f9 3b 95 39 34 3b 00 06 1d 3b
       -0.0018931042 0.007614562 0.0027500142 0.0023959875

conv3.fc_self.weight f4 [16, 16]
000000 2a c4 76 be 19 9e e1 be cc 85 96 be 9a 73 0f 3e
       -0.24098268 -0.4406593 -0.29398954 0.14008942
000010 62 11 3e 3d a9 0a c2 bd ea d7 a2 3e af e8 ec 3c
       0.046403296 -0.094746895 0.31805354 0.028919546
000020 18 23 22 3e 7c a8 82 3d e7 14 c3 bd 67 c8 95 3e
       0.158337 0.06379792 -0.09525471 0.29254457
000030 31 54 ec be 35 5e 5d 3e 72 ed dc be 07 30 c3 3e
       -0.46157983 0.21617968 -0.43149906 0.3812258
000040 a6 a8 2f 3e fd 76 a6 be 5d 6b 01 3d e0 1e 9b be
       0.17154178 -0.32512656 0.03159653 -0.30296993
000050 f2 05 01 3e 30 53 84 be d5 bd c4 3e 33 32 3f be
       0.12599924 -0.25844717 0.3842608 -0.18671493
000060 1a 5e d2 be 76 26 20 be 97 d5 0b bd 92 87 e6 3c
       -0.4108742 -0.15639672 -0.034139242 0.028140817
000070 99 7b 70 bd 6d 77 60 3e 33 75 a4 3e 0a ba 22 be
       -0.058711622 0.21920557 0.32120666 -0.15891281
000080 60 2e 04 bf 01 c3 cb 3e 77 d9 cb 3e 2b 9d 61 3e
       -0.5163326 0.39797214 0.3981435 0.22032611
000090 a4 ab 92 be be 00 e7 bd 63 e1 80 3a 8f 06 56 be
       -0.28646576 -0.112794384 0.0009832795 -0.2090094
0000a0 e8 0b dd 3e 7a 3d 65 3e 3c 0b 87 be 5e 7e ab 3e
       0.43173146 0.22386733 -0.2637576 0.33494848
0000b0 5c 04 db be 98 ca 37 3b ef 79 51 3e aa b5 a5 be
       -0.42776763 0.002804434 0.2045667 -0.3236516
0000c0 57 8d 22 3e 77 ec 05 3e d3 eb 4d be fe e9 f7 3e
       0.1587423 0.13078485 -0.20109491 0.4842071
0000d0 d7 8c 43 3e 02 75 b9 be 02 72 c5 be 4c 72 3d be
       0.19096695 -0.36222082 -0.38563544 -0.18500632
0000e0 a3 20 45 be 82 d1 38 be 0b da 5f be a7 e0 0b 3e
       -0.19250731 -0.18048671 -0.2186052 0.13659917
0000f0 30 23 a8 3e f3 a7 af bd db 95 98 be f5 c3 3d 3e
       0.32839346 -0.08576956 -0.2980183 0.18531783
000100 88 aa c7 be 8c 61 85 be c6 ce a9 3e e1 76 49 be
       -0.38997293 -0.26050985 0.33165568 -0.19674255
000110 bd 64 87 3e f5 48 de be 50 97 a3 3e ca c9 ba be
       0.26444045 -0.43415037 0.3195138 -0.36482078
000120 b8 e4 57 be f6 72 e7 3e 69 cf 88 be 47 91 36 3f
       -0.21083343 0.45204896 -0.2672074 0.71315426
000130 89 31 05 bd e6 bc 6c be 6a 25 82 be 08 d0 16 be
       -0.032517944 -0.23118934 -0.2541917 -0.14727795
000140 cd 06 8a 3e cd d5 51 be bf f8 40 3d b8 76 4c 3e
       0.26958314 -0.20491715 0.047112223 0.19967163
000150 18 c7 d0 3e db 2f b0 be a6 53 6c 3e e1 99 1c 3f
       0.40776896 -0.3441151 0.23078784 0.611723
000160 13 6e 86 3e 70 6f b6 3e 5f f6 a4 3e 1a 96 88 3c
       0.26255855 0.35631895 0.32219216 0.016673137
000170 86 0c 0a bf 89 36 ad 3e d5 1b 40 3d 2a d0 83 bd
       -0.5392536 0.3383067 0.046901543 -0.064361885
000180 d5 b1 d7 bd 74 87 59 be b8 42 b9 be dc 0f c7 bc
       -0.10531966 -0.21243078 -0.36183715 -0.024299555
000190 0f 9b 62 3d d5 96 b1 3e 4f 3a 8c be 89 b0 c9 3d
       0.055323657 0.34685388 -0.27388236 0.098481245
0001a0 4f ee 60 be d4 45 26 bf 56 e7 c7 3e 00 49 79 3e
       -0.21965908 -0.649503 0.39043683 0.24344254
0001b0 96 e6 00 3e 7b 86 cb 3e a8 94 ca 3e 96 0b 04 3d
       0.12587962 0.39751038 0.3956654 0.03223761
0001c0 ef 7e f7 bd 54 31 b2 3e 9a 84 d6 bd 49 7e 13 be
       -0.120847575 0.3480326 -0.104745105 -0.14403643
0001d0 43 05 49 3d e8 74 1c 3c 3a 21 59 be a9 05 7c be
       0.049077284 0.009549357 -0.21204081 -0.24611534
0001e0 3d ef 92 3e 0c 3f d2 3e 5e 8b 62 3e 24 b3 8b be
       0.2869815 0.41063726 0.22123477 -0.2728511
0001f0 e5 9d b8 3e ce 73 f9 3d 6b 1f 04 3e 32 2c cb 3d
       0.36057964 0.12180291 0.1290261 0.09920539
000200 db 42 95 3e bc d9 ca 3e 63 32 02 bf 33 9b f7 bc
       0.2915257 0.39619243 -0.50858134 -0.030225372
000210 7c a3 69 be f0 8d de be f5 96 da be 92 93 85 3e
       -0.2281627 -0.43467665 -0.42693296 0.2608915
000220 37 69 b3 bd 5f 94 20 be c6 9e 21 3e 7a 8a f4 bd
       -0.087603025 -0.15681599 0.15783224 -0.11940475
000230 84 fe 2b 3e a6 51 8e be c9 2f e9 bd 99 3e bd bd
       0.16796309 -0.27796668 -0.113860674 -0.09240455
000240 14 56 ad be 23 43 82 be 66 8f 1b 3e b0 9d 1b 3e
       -0.33854735 -0.25441846 0.15191421 0.15196872
000250 ea 67 ae be e8 e0 bb be af 5a ef bc 76 3f d9 bd
       -0.34063655 -0.36695027 -0.029218046 -0.10607807
000260 a4 6b bf bd 6a e1 11 3f 5d b8 b3 be ff d9 76 3e
       -0.09346703 0.5698458 -0.35101596 0.24106596
000270 87 33 95 3d 83 87 e9 3d b4 51 c1 3e 5e 87 e1 be
       0.07285219 0.114028 0.37757647 -0.4404859
000280 27 74 e2 bc 5e e1 77 be bc 75 b4 3e 56 53 dd be
       -0.027643276 -0.24207065 0.35246074 -0.43227643
000290 b7 19 0b be c5 28 0c be b7 2d 9f 3e 51 25 c9 3d
       -0.13584028 -0.13687427 0.31089565 0.09821571
0002a0 59 79 e4 be 95 e0 ad be 46 00 95 3e 32 39 cc be
       -0.4462383 -0.33960405 0.2910177 -0.39887387
0002b0 6f 6e e1 3e ac 2a 6b bd 10 48 e9 bd 29 a7 cb be
       0.44029567 -0.057413742 -0.11390698 -0.3977597
0002c0 77 6a ad bd ac 44 39 be 4f 07 87 3b 03 b6 e8 bc
       -0.08467572 -0.18092602 0.0041207443 -0.028407102
0002d0 2f a9 f4 bd bc f9 c6 bd 51 5c 78 3e 09 28 a9 be
       -0.11946332 -0.09715602 0.24253966 -0.33038357
0002e0 c3 83 c0 be 50 e3 3b be 2b 1f 6a be e2 b8 a9 be
       -0.37600526 -0.18348432 -0.22863452 -0.33148867
0002f0 66 9a 17 be 15 cb b9 be 74 cc 92 be 43 b7 1d 3d
       -0.14804992 -0.36287752 -0.2867161 0.03850485
000300 a8 19 25 be c2 c5 b9 3d f3 a0 2a 3d 1f f8 24 3d
       -0.16123068 0.090709224 0.0416574 0.04027569
000310 69 6e 89 be dd b6 3d be d8 95 8e 3e 1b 74 6b be
       -0.2684205 -0.18526788 0.27848697 -0.2299351
000320 f8 32 88 be d0 0f f1 3c aa 01 79 3d 59 cf 56 3e
       -0.26601386 0.029426485 0.060792603 0.20977534
000330 97 9a 47 be b7 56 4d be aa e4 8b be f7 43 5b bd
       -0.19492565 -0.2005261 -0.27322894 -0.053531613
000340 00 ef be be 4b 1c 83 bd 74 05 9b be bc a6 bd bd
       -0.37291718 -0.06401881 -0.30277598 -0.09260318
000350 42 39 6b be 2b 5b 41 3e 06 30 3f bd 30 26 a4 3e
       -0.22971061 0.18882434 -0.046676658 0.32060385
000360 3a b0 a5 be 6d d1 d2 be 65 88 97 3e 21 ae ab 3e
       -0.32361013 -0.41175404 0.29596248 0.33531287
000370 b8 00 9b be 30 ba 3e be 44 9b 15 be b8 f1 bf be
       -0.30273986 -0.18625712 -0.1461001 -0.37489104
000380 cc d0 0a be a1 72 cf be e7 be b3 3e e2 18 a8 be
       -0.13556212 -0.40517142 0.35106584 -0.32831484
000390 20 83 0c 3d b6 db 48 3b 96 95 c4 be 73 ed 20 3e
       0.034304738 0.0030648536 -0.38395375 0.1571558
0003a0 92 68 80 3d d5 82 41 3d 77 af 2f 3e 9e a3 bc 3e
       0.06269945 0.04724391 0.17156778 0.3684358
0003b0 22 76 05 bf 31 9f 82 3e ee b9 18 3e 21 8d aa 3e
       -0.5213338 0.25512078 0.14914677 0.33310798
0003c0 e2 28 9f 3d 43 61 34 3e 4e a3 7b 3e 6a bb 4d 3e
       0.0777147 0.17615227 0.24574015 0.20091024
0003d0 82 37 4b be c7 14 a3 bd 71 2a 5e be 53 b3 ca be
       -0.19845393 -0.07962947 -0.21695878 -0.3958994
0003e0 92 b1 db 3d 48 25 cd 3e 03 5d 01 be 1d e4 ea be
       0.10727228 0.40067506 -0.12633137 -0.45877162
0003f0 bb df b3 be b3 91 d2 bd 4e 41 be be 75 23 a5 3e
       -0.3513163 -0.10281696 -0.371592 0.32253614

conv3.fc_neigh.weight f4 [16, 16]
000000 8f 58 00 3e 87 5c c2 be 22 ec 27 bf a5 b0 ac be
       0.12533782 -0.37961218 -0.65594685 -0.3372852
000010 6b 8f 0c 3f 41 7a a4 be 5d e9 59 be 6c 8c dd 3e
       0.5490634 -0.32124522 -0.21280427 0.43271196
000020 40 40 09 3f 22 3d b5 be dd 12 96 3e 27 28 15 3e
       0.5361366 -0.35398203 0.29311267 0.14566098
000030 84 be 50 3f 0a 11 92 be fe 9e 54 3d 5d f7 9b 3e
       0.81540704 -0.28528625 0.05190944 0.3046216
000040 04 ad d9 3e da 52 93 3e 87 df 3e bf af 3d 21 3e
       0.42514813 0.28774148 -0.74559826 0.15746187
000050 d3 b0 9c 3e ca 09 aa bd aa 51 98 be 72 65 50 bd
       0.30603656 -0.08302648 -0.29749805 -0.050877996
000060 da 22 fd 3d 4b 32 48 be e9 f4 21 be f0 05 e5 3c
       0.12360163 -0.19550435 -0.15816082 0.027956933
000070 c4 4d 10 bf fd 63 fe 3e c6 74 ae bd 36 83 23 3c
       -0.5636866 0.4968566 -0.085183665 0.009980014
000080 1e f3 5f bc 5d 19 b8 3e ed 32 49 3e ef bc 21 3f
       -0.0136688035 0.3595685 0.19648333 0.63178915
000090 4b e2 cb 3e 91 09 31 bf 9e da 1a 3f 1c 76 ae 3c
       0.39821085 -0.6915522 0.60489833 0.021296553
0000a0 fc 8c 6e 3e 9b bb 53 be 2d 98 62 be a7 54 db 3d
       0.23295969 -0.20677035 -0.22128363 0.107095055
0000b0 64 f6 4b be 76 7d a4 bd d8 a0 d4 3e 84 45 18 bf
       -0.1991821 -0.08031742 0.41528964 -0.5948107
0000c0 ba 9e 8f bd 89 17 2c be 83 dc 95 3c 41 e7 a5 3e
       -0.070126966 -0.16805853 0.018293625 0.32402995
0000d0 55 49 68 3e 76 c9 4a be 38 42 00 bf be 46 bb be
       0.22684224 -0.19803414 -0.5010104 -0.3657741
0000e0 e4 2f 1a bf ce 45 b8 be ab 64 91 be 6c 71 58 be
       -0.60229325 -0.35990757 -0.28397116 -0.21137017
0000f0 df 67 b3 bc 5f 7b e6 3e ff 46 2c be fb 27 eb 3d
       -0.021900116 0.45016 -0.16823958 0.11482235
000100 68 02 8d 3e a7 de 59 bd 21 32 e1 3e 7c 3f 9b be
       0.27540898 -0.053190853 0.43983558 -0.30321872
000110 88 16 b3 3e 5d 15 06 3e 60 d3 fd be 96 16 8a bd
       0.34978127 0.13094087 -0.4957533 -0.06742589
000120 c9 0d ee bd c7 98 52 3e 9c ee cc be 34 ae 98 3e
       -0.11623723 0.20566092 -0.40025795 0.29820406
000130 b6 02 03 3f 06 f1 c7 be 98 72 94 3e a0 b7 4b 3d
       0.5117601 -0.39051074 0.28993678 0.049735665
000140 ec 35 a7 3d 51 de 2b bf 8b 2d d4 3d e1 44 c4 be
       0.08164582 -0.671361 0.10360249 -0.383338
000150 aa 10 65 bd 4d c8 0b 3e d0 b4 55 be 51 3f 33 3f
       -0.055924095 0.13650627 -0.20869756 0.7001849
000160 5e d2 d9 be 07 56 b9 be 8f 9a aa 3d 45 07 08 3f
       -0.4254331 -0.36198446 0.08330261 0.5313609
000170 f5 cd 6e be 7f 32 8d 3e 8d 37 c8 3e c2 c1 55 3e
       -0.23320754 0.27577588 0.39104882 0.20874694
000180 97 5f d5 3e 24 f4 23 3e 52 03 aa 3e 00 94 3f 3f
       0.41674492 0.16011101 0.33205658 0.74835205
000190 e6 58 5a 3f 1a 23 c2 38 27 0e 83 3d 62 4f 92 3a
       0.852919 9.257179e-05 0.06399184 0.0011162574
0001a0 70 2e c2 be ba c0 2e be 47 e0 30 3f 5b ab c7 be
       -0.37926054 -0.17065707 0.6909222 -0.3899792
0001b0 5c a7 0a 3f f9 5a d4 be b9 99 0c 3e 95 05 12 3e
       0.5416162 -0.41475657 0.13730516 0.14259942
0001c0 6c f6 d3 be 59 11 d6 be 30 e5 b4 be 95 56 a2 bc
       -0.41398942 -0.4181011 -0.35331106 -0.019816676
0001d0 d3 73 a1 be 70 17 13 3e 8c a8 21 3e b8 e7 fe 3d
       -0.3153368 0.1436441 0.15786952 0.124465406
0001e0 af 30 b9 be 0a f0 d9 be 90 e6 15 bf 57 cf 91 be
       -0.36169955 -0.42565948 -0.58554935 -0.284785
0001f0 a6 8b 63 be ff fc 7d be ff 2c 04 3f d7 86 f5 3e
       -0.2222124 -0.24803542 0.5163116 0.47954437
000200 77 d4 0d 3f e0 bb 88 be 3d ff 8b be 51 f3 d4 be
       0.5540232 -0.26705837 -0.2734317 -0.41591886
000210 d6 f4 36 be d5 ae 11 bf 78 31 19 bf 32 49 ca 3e
       -0.17866835 -0.569074 -0.5984111 0.3950897
000220 bd be be be 5e 9f 32 bd 9e 13 0e 3f 6f f6 f9 be
       -0.37254897 -0.043609016 0.55498683 -0.48820826
000230 44 a1 cd 3d 3e 8a c6 bd f5 7c e9 3e d0 50 f6 be
       0.100405246 -0.09694336 0.45603147 -0.4810853
000240 3a da c2 be 61 e8 b8 3d 6e 3d 25 be bf 85 3c 3f
       -0.3805712 0.09028698 -0.16136715 0.7364158
000250 ef 44 4e bd fc 02 80 3e 7b 65 ac be c2 c8 ce bd
       -0.05035871 0.25002277 -0.33671173 -0.10096885
000260 a6 da 0c 3e 25 95 3c 3f 7b 4c 12 bf 4e 29 d4 3e
       0.13755283 0.73665076 -0.5714795 0.41437763
000270 c6 bc f5 be df c5 d0 3d bc 30 8d be a3 a0 f6 3d
       -0.47995585 0.10193991 -0.27576244 0.12042358
000280 c6 6b ac 3e 9e 78 11 bf 9f 8b 9e 3e 5b 18 c0 3d
       0.33675975 -0.5682467 0.30965897 0.093796454
000290 88 4a 9c 3b e9 8f c3 3c b2 62 23 3f 7c 63 d2 3e
       0.004769627 0.023872333 0.6382247 0.41091526
0002a0 7c 21 b5 be c1 1f 13 bf 61 09 ff be fd a6 b4 3e
       -0.3537711 -0.5747033 -0.49811843 0.35283652
0002b0 ea 92 0f 3e bc 0c 12 be c0 91 01 bf 4e 2c ee be
       0.14020887 -0.1426267 -0.5061302 -0.46518177
0002c0 6c 02 23 bf 2e cf bb 3e 73 ab ef bd 61 11 ad be
       -0.6367557 0.36681503 -0.11702623 -0.33802322
0002d0 b4 3d 99 3e 73 f5 0e be d0 9d a5 3e 64 24 ad bd
       0.29929888 -0.13960819 0.32346964 -0.084542066
0002e0 72 22 fb be e0 88 5a 3e 6b 0f 7f 3e a1 f6 0b be
       -0.49049717 0.21341276 0.24908225 -0.136683
0002f0 08 87 55 3e 56 bf 6b bf ae 2f af bc 03 0a 13 be
       0.20852292 -0.9208883 -0.02138504 -0.14359288
000300 33 9b 3e bc 62 50 1a be a9 68 5a bd 25 98 c4 3d
       -0.011633682 -0.15069726 -0.053322468 0.09599332
000310 eb 84 01 bf 7e e8 15 3e d1 4f 1b be 43 30 d3 3d
       -0.5059344 0.1463947 -0.15167166 0.103119396
000320 33 4f bf bd 7e 8a e6 3e 60 c0 0a 3f 40 01 7a 3e
       -0.09341278 0.45027536 0.5419979 0.2441454
000330 6e 49 05 3d f2 0b 86 bd bd 66 b1 3c 18 b1 e9 3e
       0.03254073 -0.06545247 0.021655435 0.45642924
000340 c3 ff 57 be b5 2b f9 3c 66 92 b3 be 2b b9 a7 3c
       -0.21093659 0.030416349 -0.3507263 0.020474037
000350 3d 5f 89 3e 7e 21 ce 3e 99 e4 c1 be 13 33 20 3f
       0.26830474 0.40259928 -0.3786972 0.62577933
000360 a4 7c f9 3e d8 d9 10 bf 4b f0 20 3d 92 d1 fa be
       0.48727906 -0.56582403 0.03929166 -0.48988014
000370 f0 59 c6 be 64 2a df 3d 1b 52 30 bd 3e d6 1c be
       -0.38740492 0.10896757 -0.043047052 -0.15316102
000380 da 4f d0 be a4 9a 30 bd c0 9b 56 3d 78 a0 a9 be
       -0.40685922 -0.043116227 0.05239463 -0.3313024
000390 a2 5e 2e bd 67 69 34 bf ec 0f 96 bd 11 62 0d bd
       -0.042570718 -0.7047333 -0.073272556 -0.03451735
0003a0 4b da 86 3e d1 e9 9c 3e c0 8d 90 3e 2c f5 1f 3e
       0.2633842 0.30647138 0.28233147 0.1562087
0003b0 4a 5c 00 bf b8 27 cc 3e ee 83 36 be 09 b2 79 3c
       -0.5014082 0.39874053 -0.17823765 0.015240201
0003c0 be 53 1a 3f 00 86 07 bf 79 cb 8e 3e d5 8d 3b bd
       0.6028403 -0.5293884 0.27889612 -0.04578956
0003d0 d4 c0 58 3d 05 cf 94 3e c8 ed 5a be d6 82 ca 3e
       0.05291827 0.29064193 -0.21379769 0.39552945
0003e0 f5 39 83 3e 50 63 8d be 4b 09 f2 be bb 1b db 3d
       0.25630155 -0.27614832 -0.47272715 0.106986485
0003f0 21 44 35 be d2 97 15 bf 63 9f 69 be 69 46 f7 3e
       -0.1770177 -0.58434784 -0.22814707 0.48295906
