model.pth (torch, 31873 bytes, 12 tensors)

conv1.bias f4 [16]
000000 22 6f 65 3c 72 05 4e 3c f4 02 51 3c 44 65 26 3b
       0.014003547 0.01257454 0.012757052 0.002538995
000010 b3 5a 59 3c 71 ec 88 bd 87 aa 20 bb 21 ca 28 bc
       0.013266253 -0.066857226 -0.0024515705 -0.010302098
000020 0a af 22 bd a2 30 9b bb 8d 03 d5 3c 89 6e ec ba
       -0.03971771 -0.004736022 0.02600267 -0.0018038313
000030 3d 05 f2 bc 08 cf 80 bc 35 3f e3 bc 7d ca 54 3c
       -0.029543513 -0.01572372 -0.0277401 0.01298773

conv1.fc_self.weight f4 [16, 170]
000000 2a 66 dc bc f0 7f 91 bd 61 ed 1f bd 8f 7e df 3b
       -0.026904184 -0.0710448 -0.03904474 0.006820507
000010 92 89 8e 3d bd cc ea bd 34 18 07 3e 3e ff 44 bd
       0.06959833 -0.11464832 0.13192827 -0.04809498
000020 25 82 97 3e 9a 33 dd bc d8 1e 83 3d 6e 62 43 3d
       0.2959148 -0.027002145 0.06402367 0.04770129
000030 c7 17 28 3d 69 8e 07 bf f9 f6 a7 3d 56 9b f4 3a
       0.0410383 -0.52951676 0.08201403 0.0018662016
000040 61 23 09 3e 59 7f c6 3e 3d 38 a1 be c1 2a 2f be
       0.13392402 0.38769034 -0.3148822 -0.17106153
000050 69 8d eb 3d 68 85 4d 3e 1f 70 80 3e 68 09 3f be
       0.11501581 0.20070422 0.25085542 -0.18655932
000060 06 24 44 bd 56 d9 c6 3d 4d f5 69 3d 4d 90 a9 be
       -0.047885917 0.09709422 0.057118703 -0.33117905
000070 38 1c f7 3d 98 15 24 3e 0c 2f 63 3d 53 92 93 3d
       0.12065929 0.16023862 0.05546479 0.072056435
000080 43 e7 95 3d 54 1d 87 3e 5e 38 c0 3d 12 32 2f bb
       0.073195 0.26389563 0.09385751 -0.0026732725
000090 a0 dd a3 3d 21 fb e4 bc d1 0a f5 3d f6 a1 25 3e
       0.08001256 -0.027951779 0.11964954 0.16175064
0000a0 22 a8 79 be 80 74 3e be bd 0c 8a bd fe 02 8b ba
       -0.24380544 -0.18599129 -0.06740711 -0.001060575
0000b0 c0 a0 10 3d 71 06 8b 3e fa 5c a5 bd c1 e7 78 be
       0.035309553 0.27153352 -0.080743745 -0.24307157
0000c0 4b 5c 8d bd e8 d5 94 bc 49 91 c6 bd b1 42 50 bd
       -0.06902369 -0.018168405 -0.0969568 -0.050844852
0000d0 eb b9 89 be 9e 0e 45 be 35 a0 ab bd 00 3c ad bd
       -0.26899657 -0.19243857 -0.083801664 -0.0845871
0000e0 c8 20 12 3e 13 7b 1a bd 2e f2 9a be aa f0 8e be
       0.14270318 -0.03771503 -0.30262893 -0.27917987
0000f0 4d 38 65 3d 03 81 d2 3d aa 7b 8e 3e be d3 06 be
       0.055961896 0.10278513 0.27828723 -0.1316671
000100 57 79 d9 bd d6 2f 0b be e9 37 3b 3d f2 24 57 3e
       -0.10618847 -0.13592467 0.045707617 0.21010187
000110 54 bf 24 3e a7 a1 24 3e 59 95 e1 3d e8 27 a2 be
       0.16088611 0.1607729 0.11014814 -0.3167107
000120 38 8f 48 bd 3f 23 8a bc 4d 2d 0e 3d 13 b2 d6 bd
       -0.04896471 -0.01686251 0.03471117 -0.10483184
000130 1b 23 43 bd b5 29 5d bd 67 24 71 be 2a 0f f2 bc
       -0.0476409 -0.053994853 -0.23549043 -0.029548246
000140 f9 a3 21 be ac ee 47 be 33 8b 05 3e 59 1d 49 3d
       -0.15785207 -0.1952464 0.13041382 0.049100254
000150 6e 53 42 be 9c 12 44 be 15 7d 84 bc 2b 02 99 3b
       -0.18977138 -0.19147724 -0.016172925 0.004669448
000160 03 4f a9 bd ea fa ab bb 9d ad 65 3c d7 66 c4 be
       -0.082670234 -0.005248417 0.014018443 -0.3835971
000170 ff 53 b0 bc bf 3a 1e bd 37 c8 c9 3d 81 4b 31 3d
       -0.021524427 -0.038630243 0.09852641 0.043284897
000180 71 fd c7 bc a0 4c 07 bd d8 9b af be eb d8 06 be
       -0.024412842 -0.03303206 -0.34298587 -0.13168685
000190 07 13 2c bd 25 f4 d0 bd 6f 45 b8 3c 74 54 ac bc
       -0.042010333 -0.10202817 0.022494046 -0.021036364
0001a0 5f 52 dd be 51 d4 96 3e 30 fc bd 3e 68 03 38 3d
       -0.43226907 0.2945886 0.37106466 0.044925123
0001b0 64 80 e7 3d 75 86 98 3c 1e 84 f6 3e 52 f6 98 be
       0.113037854 0.018618802 0.48147672 -0.29875427
0001c0 14 90 ec bd 4c 56 c6 3d e3 ad 7c 3d a2 32 27 bd
       -0.11550918 0.096844286 0.06168927 -0.04081977
0001d0 e3 22 ce 3d 78 c1 fc 3d ab 3b 1b 3e c5 53 7d bd
       0.10065248 0.12341589 0.1515948 -0.061847467
0001e0 ac 03 a2 bd b5 6e e0 3d 1e ce 37 3e 3a a8 87 bd
       -0.079108566 0.10958616 0.17949721 -0.066238835
0001f0 b2 87 1a 3d b6 00 ce bc db 47 8a 3e 2b 05 8e 3e
       0.037727065 -0.025146823 0.27007946 0.27738318
000200 65 73 04 bd c7 e1 80 3e da cd 79 3e 05 71 0c bd
       -0.03233661 0.25172254 0.24394932 -0.03428747
000210 3f df 9f bd 86 a5 0f 3e 4b ce 6f 3d e7 55 de 3d
       -0.07806253 0.14027986 0.058546346 0.10856228
000220 1d 6b a6 3e 04 ce d2 3e 30 ba 46 3e a7 66 8a bd
       0.32503596 0.41172802 0.19406962 -0.06757861
000230 50 25 ac 3d 43 72 9e bd dc b7 8c 3e 47 49 59 3e
       0.08405554 -0.077366374 0.27484024 0.2121936
000240 7b 6b af bc 25 42 93 3e 45 51 d5 bc 5a dd c1 3d
       -0.021413555 0.28761402 -0.026039729 0.094660476
000250 9e 0d 2e 3e ca 17 8b be 8b 40 91 bc b3 22 20 bc
       0.16997382 -0.27166587 -0.017730972 -0.009773898
000260 4a af 06 3e ad d3 8e be ee bc 03 be 4d 40 57 be
       0.13152805 -0.2789587 -0.1286504 -0.21020623
000270 bc 2a ad bc 88 27 88 bd 40 9b 99 bd 83 34 04 be
       -0.021138541 -0.06648165 -0.07500315 -0.12910657
000280 83 4f a1 bc 44 99 90 be 86 8e 83 bd e3 3c bc bd
       -0.019691234 -0.28241932 -0.064236686 -0.09191301
000290 ff 14 73 3d 33 d7 9e bc df d5 48 be 98 fe 3e be
       0.059346195 -0.019389724 -0.19612835 -0.18651807
0002a0 05 20 45 be 4f 91 58 3e b2 5d 7c bd cd 41 38 be
       -0.19250496 0.21149181 -0.061612792 -0.17993851
0002b0 01 5f 94 be 46 f8 4c be 2e bb d1 3d 8b 4c b6 bc
       -0.28978732 -0.20016584 0.1024078 -0.022253295
0002c0 e7 6d fc bd 7d 41 37 be 44 72 3a be 4c 81 9b 3e
       -0.1232565 -0.17896076 -0.18207651 0.30372083
0002d0 41 fa 61 be cc 3a 9f be 78 e2 e8 bd 1c 57 b2 bc
       -0.2206812 -0.31099546 -0.113713205 -0.021770053
0002e0 86 83 c3 3c 4b e9 1c 3e b5 eb 72 3d 58 60 4e 3e
       0.023866426 0.15323369 0.05930682 0.2015394
0002f0 d3 f0 a0 3e a4 e9 33 bd a5 99 bc 3b de 1e 7b bd
       0.31433734 -0.04392399 0.0057556205 -0.061308734
000300 17 96 29 bd 70 fb 0b 3d 06 a4 dd bc 5f a5 f9 bd
       -0.041402902 0.034175336 -0.027055752 -0.12189745
000310 23 54 fc 3d ae dd 16 3d 8b 6f 8f 3e 3f b9 98 bd
       0.12320735 0.036832504 0.28014788 -0.07457208
000320 dc 4a 50 3e d6 0d 9a bd cc f0 9b 3a fa c0 60 bd
       0.20341057 -0.0752217 0.0011897325 -0.054871537
000330 4c 1f 28 3e f9 52 e4 bd 9c 0d 67 3d 2e 76 ef 3d
       0.16418189 -0.11148638 0.056409463 0.11692463
000340 2a d7 2c 3e 9f 30 da bd b5 66 59 3e d9 f5 28 3e
       0.16878954 -0.10653805 0.21230586 0.16500033
000350 19 b0 2e 3d 8a dc 7f bd cf c7 97 bc a4 ec 36 3e
       0.04264841 -0.06246618 -0.018527893 0.17863709
000360 d0 96 bd 3d cd 1f e2 bb d9 65 b6 3c 25 d3 29 bd
       0.09257281 -0.0069007636 0.022265362 -0.04146113
000370 76 a5 ea 3c 45 49 40 be ce 64 07 bd f3 99 85 bd
       0.028643351 -0.1877795 -0.03305512 -0.06523504
000380 70 99 3f 3c 80 2b ae 3d 80 f0 04 3e c7 06 9a 3d
       0.011694297 0.08504391 0.12982368 0.07520824
000390 bc 4d a3 3d 95 51 31 3e 87 02 bf 3b 12 ae 56 3e
       0.07973811 0.17316277 0.0058291587 0.2096484
0003a0 be 22 d2 3d 9e f3 f2 bc 80 18 c7 3c f1 62 72 be
       0.10260533 -0.029657181 0.024303675 -0.23670556
0003b0 28 58 1b be 8d d7 9f be 7c 56 86 bc f4 dd f1 bd
       -0.15170348 -0.3121914 -0.01639866 -0.11809912
0003c0 49 49 77 3d 32 30 21 be 46 ff 76 bd 38 96 36 bd
       0.060372625 -0.15741041 -0.06030204 -0.044576854
0003d0 14 cf 5e be 73 d7 9c bb b2 6f 64 be 53 a6 1f bd
       -0.21758682 -0.0047864257 -0.22308233 -0.03897698
0003e0 ee 67 1f 3e d7 29 1c 3e b8 f0 57 bd 46 d3 57 be
       0.1556699 0.15250336 -0.0527198 -0.21076688
0003f0 be d2 da bd 5b 88 ec bd a4 05 c3 bd f2 ac c9 3c
       -0.10684727 -0.11549445 -0.0952256 0.0246186

conv1.fc_neigh.weight f4 [16, 170]
000000 9b b7 3e bd 6a 3a 0a 3d 4d 37 c6 bd 7e dd b7 3b
       -0.04656182 0.033747114 -0.096785165 0.0056111207
000010 6e 51 f3 3e 6f 14 ab be b0 b9 56 3e b3 db 9d be
       0.47523063 -0.33414027 0.20969272 -0.3083168
000020 4f 09 7d be 1d d5 8b be 49 68 bb 3b 82 c4 3b 3d
       -0.24710582 -0.2731103 0.005719219 0.0458417
000030 1b c8 11 3e f5 69 93 bd a3 2f 74 3e 98 51 72 be
       0.1423649 -0.07197944 0.23846297 -0.23663938
000040 30 ec 46 3e 77 e2 67 3e 64 11 61 be 12 1f bc 3d
       0.19426036 0.22644983 -0.2197929 0.09185614
000050 49 d3 24 3d bd d2 0f 3f 41 6d 91 3d e4 5c 10 be
       0.04024056 0.56180936 0.07100917 -0.14097935
000060 8b da 15 3e 15 aa 09 bd 9d 2f 91 be ca d9 df bd
       0.14634149 -0.03360947 -0.2835664 -0.10930212
000070 9c 4d 92 bd 79 d2 37 3d 59 5c 89 3e d6 3e 46 be
       -0.07143709 0.044878457 0.26828268 -0.19359908
000080 b5 44 41 be f1 44 81 bb ad b5 8b be 90 91 f7 bd
       -0.18873866 -0.003944986 -0.27287045 -0.12088311
000090 f4 fd 17 3e 90 50 90 3e 71 71 9c bd 2a 93 28 3e
       0.14842969 0.28186464 -0.07638825 0.16462389
0000a0 db c8 eb 3e 3f 11 50 3e 8b 02 f0 bd ee 70 f2 3d
       0.46051678 0.20319079 -0.11719235 0.11837946
0000b0 d9 c7 3a be 4f 56 e8 3e a9 80 05 3f 1d 1b 46 3d
       -0.18240298 0.45378348 0.52149445 0.0483657
0000c0 96 57 ad 3c b7 09 a2 3d 95 17 ac be 19 22 e4 be
       0.021159928 0.07912009 -0.33611742 -0.44557264
0000d0 56 fd 6b 3d d7 05 59 bc 75 57 f8 bc be 2b 09 bf
       0.057614647 -0.013246021 -0.03031514 -0.5358237
0000e0 83 ac 6f 3e 8a ac 73 be a9 72 a7 3d 3c c3 be bd
       0.23405652 -0.23796287 0.081761666 -0.09314582
0000f0 86 ad e3 bd 0f e2 54 be 60 b5 ec 3e 0f c4 2c be
       -0.11117081 -0.2078936 0.46232128 -0.16871665
000100 00 f1 69 3d 24 b4 13 be 93 ae 88 bd cf 20 3b 3d
       0.0571146 -0.14424187 -0.066739224 0.045685586
000110 8b f2 22 bd 4a 2c 16 bd 91 e5 d8 be 21 3d a6 be
       -0.03978209 -0.03666333 -0.42362645 -0.32468513
000120 20 38 0d bc b9 98 02 3e 88 0a d8 bc c0 3c 52 be
       -0.008619338 0.12753572 -0.02637221 -0.20530987
000130 8b d4 a6 be 0d 20 1a 3e c7 01 97 3c 4f 54 5d 3e
       -0.32584032 0.15051289 0.018433465 0.21614192
000140 ed a5 6d 3d 40 f8 5a be 4d 26 12 bf 51 cc 52 3e
       0.058019567 -0.21383762 -0.5708969 0.20585753
000150 12 b7 09 3e 16 b3 c5 be d0 8b 8a be 1c 7d c4 3d
       0.13448742 -0.38613194 -0.27059793 0.09594175
000160 11 bb 88 be f2 a4 6c be fe 1c 21 3e 72 9b 8f 3c
       -0.2670522 -0.23109797 0.15733716 0.017530177
000170 fb 98 22 3e b3 4c df bd 8a 0f 85 3d 2d fd cc be
       0.1587867 -0.10903301 0.064971045 -0.40036908
000180 6b 33 d9 be 29 df 06 bf d9 7f 9a 3d a5 78 f4 bd
       -0.4242204 -0.52684265 0.07543916 -0.119370736
000190 24 37 a3 bc 05 c4 88 be 01 80 d8 be e5 e9 8b 3e
       -0.019923754 -0.2671205 -0.4228516 0.27326885
0001a0 94 26 f9 be 38 08 9e 3e 2b 65 75 3e c7 10 08 3c
       -0.48662245 0.30865645 0.23964374 0.008304781
0001b0 34 e1 68 bd 5d 2e 00 be ee 7d 1b 3f 50 df 8b 3c
       -0.056855395 -0.12517686 0.6073903 0.017074257
0001c0 0e b3 b2 bd a0 2f 45 be 1d 92 46 3e 42 56 f6 be
       -0.08725558 -0.19256449 0.19391675 -0.48112684
0001d0 02 be 4b bd 7b 27 a0 be b9 d5 c7 3e 94 ce 60 bd
       -0.049741752 -0.3128012 0.39030245 -0.05488451
0001e0 29 f1 e1 3d 25 82 f7 3d e5 52 8f bd 2c 10 60 3d
       0.11032326 0.1208537 -0.06998233 0.054702923
0001f0 d6 7c e0 3e c5 4d c4 3e c7 be 01 3e 6a b7 d0 bc
       0.43845242 0.38340583 0.12670432 -0.025478084
000200 76 86 5b be 3c 65 b7 3c 4f f2 de 3d 45 2e df bc
       -0.21438012 0.02238714 0.108860604 -0.027243743
000210 bd aa 06 bd ed fc 1c bc cd 07 09 3c 27 2f 02 be
       -0.032877672 -0.009581787 0.008363676 -0.127133
000220 07 9f 91 3e 01 1a 8c bd bd 3e c1 3d 67 0f 19 bb
       0.2844164 -0.06840897 0.094357945 -0.0023355128
000230 0f 1b 3e bd dd 2f 32 3e 90 4a 00 3f f0 fe 1e 3d
       -0.046412524 0.17401071 0.50113773 0.038817346
000240 97 a0 1b 3f ec 5f 62 3e 16 24 b5 be ad 66 ad 3b
       0.60791916 0.22106904 -0.35379094 0.005291781
000250 b2 04 cb 3d 8e 88 2a be b9 21 cb bc 63 2a 60 3d
       0.09913005 -0.16653654 -0.024796354 0.054727923
000260 41 c0 fc 3d 25 19 af 3c 0b 6b 0f be e5 fb 3e be
       0.12341357 0.021374295 -0.14005677 -0.18650778
000270 92 50 e3 3e dc de 15 be 12 63 04 bd e6 86 2e 3e
       0.44397408 -0.14635795 -0.032321043 0.17043647
000280 a5 67 2d 3e 03 57 8e 3d b3 7e 05 3e 75 7a 1f 3d
       0.16934069 0.0695019 0.13036613 0.038935144
000290 12 4a 44 3e 52 d7 8e 3e 67 f3 8c 3d c3 9c ff 3b
       0.1916888 0.2789865 0.06882363 0.00780067
0002a0 5a 85 22 be 76 64 c7 3c 2e 1c 42 be d8 e9 71 bc
       -0.15871182 0.024339896 -0.18956062 -0.014765225
0002b0 5a 8e 82 be 34 e4 63 bd 62 12 64 be 7f 34 05 3c
       -0.2549923 -0.055637553 -0.22272637 0.008130192
0002c0 b4 54 38 be 13 58 6f be db f4 5b be 14 46 56 bb
       -0.18001062 -0.23373441 -0.21480124 -0.0032695578
0002d0 07 d0 72 bd d4 4d 3f 3e 9d 9d 96 be 94 8d d2 3d
       -0.05928042 0.18682033 -0.29417124 0.1028091
0002e0 d1 d5 a0 bd 08 41 63 3e 34 87 0c be e4 69 d7 3b
       -0.07853282 0.22192776 -0.13723451 0.0065739024
0002f0 f5 12 bd bd c6 e1 cd 3c 4a 18 93 3e 90 10 93 bd
       -0.092321314 0.025132071 0.2872947 -0.071808934
000300 d3 b1 91 3e b1 c5 6b 3e dc 1a 34 3e 65 68 cd bd
       0.28455982 0.23024632 0.17588371 -0.10029677
000310 fa 26 9a 3d f2 6c 1f bb 6e d0 89 3e bb e2 52 bd
       0.075269654 -0.002432641 0.26916832 -0.05148576
000320 2d 5f 8d 3d 53 51 c2 be 55 66 12 3e c3 8d 99 bd
       0.06902919 -0.3795267 0.14296849 -0.07497742
000330 7c 98 05 3e 96 92 e4 bd 00 a9 a2 bd bc 32 62 3d
       0.1304645 -0.111607715 -0.079423904 0.055224165
000340 e3 b0 c1 3d 1e c9 53 be 1e b5 c6 be f2 a0 17 3f
       0.094575666 -0.20682189 -0.38810056 0.5922996
000350 93 b8 83 bd b1 35 fc bd 2d 99 e3 3d 60 50 a9 bd
       -0.06431689 -0.12314928 0.111132 -0.082672834
000360 84 c9 86 3e 53 41 f0 3e f9 7d 3b 3e ac 31 7d 3e
       0.2632562 0.46924838 0.18309774 0.2472598
000370 c6 b4 0a 3e d0 84 8e bd f9 4b 4e 3e 8d d1 6d bd
       0.13545522 -0.06958926 0.20146169 -0.05806117
000380 e5 b0 aa 3e 0e 71 a7 3e b5 dc b4 3e 56 fc 17 3e
       0.33338085 0.3270344 0.35324636 0.14842352
000390 39 df a6 3e c1 cd ea bb 84 99 c5 bc be 4d dc 3e
       0.3259218 -0.007165641 -0.024121054 0.43028063
0003a0 06 f2 a2 3e cc c9 61 3e 88 56 31 3e fa a5 f7 bd
       0.31825274 0.22049636 0.17318165 -0.120922044
0003b0 47 4a c5 be bd 33 00 bd 29 aa 1a be 38 98 de 3b
       -0.38533232 -0.03129934 -0.15103973 0.006793048
0003c0 7c 58 96 3d 20 20 de bc 41 86 e6 bd 38 ec dc bd
       0.07341096 -0.027114928 -0.11256076 -0.10787243
0003d0 04 fe 4a be 47 2b 18 be dc 14 9d be d8 f2 3f bd
       -0.19823462 -0.14860259 -0.30679977 -0.046862453
0003e0 b5 9a 2a be 1e 2d 76 be 62 3c df be a5 11 90 be
       -0.16660579 -0.24040648 -0.43600756 -0.28138462
0003f0 99 6a 4b 3e 76 8b 83 be c7 c9 5b be 25 1f 56 3c
       0.19864883 -0.25692338 -0.2146369 0.013068949

conv2.bias f4 [16]
000000 f5 b8 a1 be ef 99 10 bc c4 3e c3 3e 21 71 96 bd
       -0.31586424 -0.008825763 0.38133824 -0.073457964
000010 4a 46 11 be 79 68 51 bd f3 b8 c6 bc 34 15 08 bf
       -0.1418697 -0.051125024 -0.024258113 -0.53157353
000020 0d 9d 94 3e 9e 20 80 bd 18 a5 9a be ad 3d af be
       0.2902607 -0.06256221 -0.30204082 -0.34226742
000030 8e aa b6 3e 65 88 3f be 90 15 a6 be 8e ba 0d bd
       0.35676998 -0.18704374 -0.32438326 -0.03460174

conv2.fc_self.weight f4 [16, 16]
000000 b1 5f f5 be 0e ae 2e 3c 1d 5c 59 be 54 c8 d1 3c
       -0.4792457 0.010661615 -0.21226545 0.02560822
000010 a2 bd a4 3e 10 b4 18 3c 47 6c 57 bd 1a e2 7f 3e
       0.32175928 0.009320274 -0.052593496 0.24988595
000020 79 64 b4 3e 03 93 f7 3e 71 de 9b bc b2 c7 c7 be
       0.35232905 0.4835435 -0.019026967 -0.39019543
000030 df 5a 8e be 41 84 29 3e fb 57 0a 3f 60 14 11 bf
       -0.27803704 0.16554357 0.540405 -0.56671715
000040 ac d1 16 bf d5 bb 49 be 0c 93 25 be 18 05 32 be
       -0.58913684 -0.19700558 -0.16169375 -0.17384756
000050 ac dc 95 bc 95 fd a1 3c 80 80 b2 be ab f4 ba be
       -0.018293701 0.019774238 -0.34863663 -0.36514792
000060 93 ae 54 3e 20 fb 96 be 02 fa 52 3e 11 1b 46 3e
       0.2076972 -0.29488468 0.20603183 0.19346263
000070 99 ae bc 3e 13 7b ef bc e0 32 9e 3c 61 35 a6 bc
       0.36851957 -0.029233491 0.019311368 -0.020289125
000080 da 8a 8b 3e 3f dd 5d be e1 48 8b 3e 56 85 aa 3e
       0.27254373 -0.2166643 0.2720404 0.33304852
000090 21 46 c3 3e 60 a9 65 3d 72 2f b6 3c e9 11 a3 bd
       0.38139442 0.05606973 0.02223942 -0.079624005
0000a0 2c e3 45 3e b4 d3 1d 3e 92 d2 f7 bd 27 dc 62 3b
       0.1932494 0.1541279 -0.1210071 0.0034616084
0000b0 07 60 78 3d 5c 45 6e 3e f4 48 ba 3e 8b 12 02 3d
       0.060638454 0.23268646 0.36383784 0.031755965
0000c0 ac 43 8c bc 28 a3 b5 3c 84 ce f9 be ea 85 18 be
       -0.017122112 0.022172526 -0.4879037 -0.14894834
0000d0 34 9d 76 3e 52 76 2e 3e 7e d5 c1 be a4 6f d5 3d
       0.24083406 0.17037323 -0.37858194 0.104216844
0000e0 00 fd 76 be 62 45 c4 bd 64 4d 6f be 9e 54 08 3e
       -0.2411995 -0.09583546 -0.23369366 0.13313529
0000f0 97 b7 c5 be 78 14 81 3e b0 a8 43 3e 65 90 86 be
       -0.3861663 0.2521093 0.19107318 -0.2628204
000100 cd 15 64 3e 3f 91 59 be 6e c0 88 3e d4 8a f2 3e
       0.22273941 -0.21246813 0.26709312 0.47371542
000110 f7 a2 db 3e 45 39 a0 3e 51 29 07 3e 62 6a 2d bc
       0.4289777 0.31293693 0.13199355 -0.010584446
000120 94 25 eb bd a9 67 d9 bd 0b 00 e3 bd 66 f6 de 3d
       -0.11481777 -0.10615475 -0.110839926 0.108868405
000130 71 2d 7d bd 59 11 1f 3d 36 6d 8b 3e 38 aa db bd
       -0.061810914 0.038834903 0.2723176 -0.10725826
000140 d4 4e cc 3d 35 3e 0b bf 99 e1 c6 be 21 6e 39 3e
       0.09975973 -0.54391795 -0.38843992 0.18108417
000150 c4 37 17 bc 58 21 70 3d 57 23 60 bd 03 79 ab 3c
       -0.009229604 0.05862555 -0.054721203 0.020931726
000160 b2 ef 98 bd 9e 73 2b bd 5e 00 f6 3c c8 b0 32 bd
       -0.07467593 -0.041858308 0.030029472 -0.043625623
000170 d1 5c b6 be 61 b5 10 be aa cb a9 3c b8 24 17 be
       -0.35617688 -0.1413169 0.020726997 -0.14760101
000180 4c dd a8 bd c1 ef 92 3e 1c cc 78 3e ba c3 39 bb
       -0.08245334 0.28698543 0.24296612 -0.0028345422
000190 d0 a7 b6 be 4d 05 eb be b5 5e 77 bd d1 62 ba bd
       -0.35674906 -0.45902482 -0.060393054 -0.09100879
0001a0 8b 4b ac be e9 ac 61 bd 2c f7 32 3d 22 88 bb 3e
       -0.33651385 -0.05509654 0.043692753 0.366273
0001b0 52 d5 d2 3e fa 98 b9 be de 1d 66 be 2e 29 bd bb
       0.41178375 -0.36249524 -0.22472331 -0.0057727313
0001c0 f4 c2 23 bd b3 7a 12 be db 13 9c 3e a3 75 ed bc
       -0.039980844 -0.14304619 0.304839 -0.028986758
0001d0 88 2a 69 3e e2 d5 eb 3d a7 ff 8f 3e 34 b9 43 be
       0.2277013 0.11515404 0.28124735 -0.19113618
0001e0 94 40 09 3e 01 65 76 3e bf f9 c1 3d ca 7c fc bd
       0.13403541 0.24061967 0.094714634 -0.12328489
0001f0 c2 2f 12 bc a4 d3 81 bd e3 05 25 3e b1 6c 90 be
       -0.008922519 -0.06339195 0.16115527 -0.28207925
000200 56 cf 3c be 32 0f 51 3d 59 8d 95 be bc ab b1 be
       -0.18438467 0.051039882 -0.29209402 -0.34701335
000210 64 c0 40 3e 1d c7 c1 3d 0a 1b 84 bc 9b 3f a3 3e
       0.18823391 0.09461806 -0.016126174 0.31884465
000220 0d 89 d1 3d fa a8 b7 3e 72 79 26 bd 4f 96 05 3e
       0.102312185 0.35871106 -0.040643163 0.1304562
000230 96 93 56 3d c3 2a ae 3e 0b 8f 28 be 6b 04 38 3e
       0.052386843 0.34017 -0.16460817 0.17970435
000240 6b 15 d4 bd a1 01 58 3e 05 2e 0c 3d bd 66 a6 3b
       -0.10355648 0.21094371 0.034223575 0.0050781653
000250 4e b6 43 3e 3b fe ae be 9b a2 5f 3e 5a 3f 44 3d
       0.19112512 -0.34178337 0.21839373 0.04791198
000260 eb 28 05 be 5d b2 ba 3e da 46 61 3c 4c d8 3c be
       -0.1300389 0.36464205 0.0137498025 -0.18441886
000270 07 c4 df 3d 50 24 f8 be f6 1a 69 3e 6c 49 bc 3d
       0.10926061 -0.48465204 0.22764191 0.091936916
000280 64 f8 7b 3e 0b 44 85 3e ea ca b5 3d 7f ba d2 be
       0.24606472 0.26028475 0.088765934 -0.4115791
000290 ef 37 21 be 3f 5b b7 be 3f d8 18 3d 66 34 e1 bc
       -0.15743993 -0.35811803 0.037315603 -0.027490806
0002a0 ee 7b 95 bd 04 23 93 be 71 a0 b8 3c 56 25 5a be
       -0.07299028 -0.28737652 0.022537442 -0.21303305
0002b0 28 65 61 be 11 a8 84 3e a7 3a 1b be 67 14 c4 3e
       -0.22011244 0.25909474 -0.15159093 0.38296816
0002c0 fd 37 4e 3e 85 02 25 be 54 73 81 be b8 55 b6 3e
       0.20138545 -0.16114242 -0.252833 0.35612273
0002d0 cf f7 6f bc bb b0 8b 3c 31 67 97 be 3f d8 56 be
       -0.0146464845 0.017052045 -0.29570916 -0.20980929
0002e0 ac da 80 3e 75 0a b9 3d 8f ad df be c0 ac a2 3e
       0.25166833 0.09035198 -0.43687102 0.31772423
0002f0 32 9e 15 be 43 2e d1 3e ee 6d 91 3e 83 d3 2d be
       -0.14611128 0.40855607 0.28404182 -0.16975217
000300 04 87 60 be 49 b3 14 be 17 12 0c be eb 02 98 3e
       -0.21926504 -0.14521517 -0.13678776 0.29689726
000310 75 5c 42 be 9a 02 7f 3e 63 ef fd 3e f7 fe 2b 3e
       -0.18980582 0.24903336 0.495967 0.1679648
000320 3c 33 73 bd f1 06 1b be ef 12 ee bd 9b c7 17 3d
       -0.059375033 -0.15139367 -0.11624705 0.037055593
000330 7d 4e e0 be d2 27 ce be 69 ff 2e be f6 fe e9 be
       -0.43809882 -0.40264755 -0.17089619 -0.45702332
000340 c4 22 8e 3e 6a 56 87 bc 02 34 38 bc e1 d4 13 3e
       0.277609 -0.016520698 -0.011242868 0.14436676
000350 08 14 43 3e de 2f 0d bd 82 ee b5 3e ed 28 c4 bd
       0.1905061 -0.034469478 0.3553353 -0.095781185
000360 1c 6f 9b bd b9 2d 87 bd 36 c2 c4 bc 2d cf 03 bd
       -0.07589552 -0.06600518 -0.024018388 -0.03218
000370 6d be e1 3e cc 1b c0 be ce 09 07 3e d6 5c 9d 3e
       0.44090596 -0.37521207 0.13187334 0.3073489
000380 0c 87 a3 3e 0d 06 73 3e 17 ba 87 3b 2e 83 1d 3d
       0.3193897 0.23732777 0.0041420567 0.03845518
000390 eb e3 d2 bd 93 43 48 3e d2 dc e1 3e cb f0 0d 3e
       -0.10297378 0.19557028 0.44113785 0.13861386
0003a0 c4 11 98 be 5f dc 09 3e d8 61 65 3e 5d c0 16 be
       -0.29701054 0.13462971 0.22400606 -0.14721818
0003b0 48 1b 85 bc 17 10 b5 be 92 5a 1c be 46 a7 f9 3d
       -0.01624836 -0.35363838 -0.15268925 0.12190108
0003c0 42 b9 db 3d 24 e4 e6 bd 39 3c 6e 3d a8 28 ed 3d
       0.107286945 -0.11273983 0.0581629 0.1158002
0003d0 ff c1 bc 3e b5 5e b3 3e e1 9d 1a 3e b5 36 62 3d
       0.36866757 0.35033193 0.15099289 0.055227954
0003e0 eb 6c 3a be 02 a4 42 be 30 bc a6 bd c1 5c 79 be
       -0.18205611 -0.19007877 -0.08141363 -0.24351789
0003f0 57 9b a6 be 17 f1 6b 3e 00 94 7b 3d dd d9 2a be
       -0.3254039 0.23041187 0.06142044 -0.16684671

conv2.fc_neigh.weight f4 [16, 16]
000000 a5 52 a7 3e 2f 1b 8b 3e e4 1b 91 3e 51 5c d8 3e
       0.3268024 0.27169177 0.2834159 0.42257932
000010 3d 73 a2 be d0 cb 24 3f d2 6d c2 3e c3 7d a2 3e
       -0.31728545 0.64373493 0.3797441 0.31736574
000020 01 a5 8a bd e5 ee 3b be 33 a7 d8 3e 72 86 c2 3d
       -0.06769753 -0.1835285 0.42315063 0.094983
000030 d0 27 41 bc 84 5a fa 3e 61 54 3a bd fe 17 01 3e
       -0.011789277 0.48897183 -0.045490626 0.12606809
000040 11 11 9b 3e 3b 0f a6 be b7 20 d5 3b 70 2a c1 3e
       0.30286458 -0.32433495 0.006504144 0.3772769
000050 6d 02 8f 3e b0 e5 99 3e 5c ea d1 3e 61 db 12 3f
       0.27931538 0.3005805 0.40999115 0.57365996
000060 c6 b2 2c be 57 bb be be 4c ea b1 be 79 28 4f 3f
       -0.16865072 -0.37252304 -0.34749067 0.8092113
000070 d4 a1 b6 3e 75 1a 9d be 68 9f 8f be 56 09 21 3f
       0.3567034 -0.30684248 -0.28051305 0.6290487
000080 df a4 55 3e 8a 7b a5 be 68 91 89 3e 23 df 27 3e
       0.20863675 -0.32320815 0.2686875 0.16393714
000090 74 65 bd 3d 86 6b 1c bf 9a ab c5 3d 27 24 49 be
       0.09247866 -0.6110157 0.09651871 -0.19642697
0000a0 aa 95 cd be 28 13 6b be 1a f4 00 bd d7 9c 09 3b
       -0.40153247 -0.22956526 -0.031482793 0.0020998025
0000b0 ea a4 ac be 14 57 db be e1 b8 aa bd 52 5c 0e 3e
       -0.3371957 -0.42839873 -0.08336044 0.13902405
0000c0 49 36 25 3b c1 b3 04 bf b1 40 39 bf 89 d8 b0 3e
       0.0025209358 -0.5183678 -0.72364336 0.34540203
0000d0 c5 de 39 be 3d 8e f6 be 7a ce 25 be b7 e6 8f 3e
       -0.18151386 -0.48155394 -0.16192046 0.2810571
0000e0 be 20 e7 3e 19 0e 48 bf 3e c1 12 be 80 be 6b bd
       0.45142168 -0.7814651 -0.14331529 -0.05755472
0000f0 8b 3e 02 bf bc a4 8f 3e a5 ef ca be b0 2a 99 3e
       -0.50876683 0.2805537 -0.3963596 0.2991538
000100 18 9f 9f be 08 ab e7 3c 73 ee c3 3d 7c 14 10 bf
       -0.31176066 0.028279796 0.09566965 -0.56281257
000110 b1 74 eb be 55 2c d7 bd 06 cf 89 be 62 2e d7 3b
       -0.45987466 -0.105065025 -0.2691576 0.0065668086
000120 35 d7 d3 3e 3c cd 00 3f 9b ce 0c 3f d8 0b e1 be
       0.41375127 0.5031316 0.55002755 -0.4395435
000130 e1 8c 08 3f 61 8c 17 3d 33 a5 10 3e 5c 37 25 be
       0.53339964 0.03699911 0.14125519 -0.16134399
000140 c2 6e 38 be 1b fa 75 3e b5 5f ae 3e e3 8a b0 3e
       -0.18011001 0.24021189 0.34057394 0.34480962
000150 32 d1 4c 3f 38 50 82 3d 38 7a 1f 3f 23 ab 2d bf
       0.80006707 0.06362957 0.62295866 -0.6783926
000160 94 23 b6 3e 58 b6 8e 3c 04 06 78 be ce 73 9f 3e
       0.3557402 0.017420933 -0.24221045 0.3114304
000170 bc 47 de be 2f 29 27 3e 84 f3 da 3d 46 5b cc be
       -0.43414104 0.16324304 0.10690978 -0.39913386
000180 6f 91 c2 3e 9d 58 b1 be 95 f5 ea 3e 5b 1d e7 be
       0.38001582 -0.3463792 0.4589049 -0.45139584
000190 1b 84 93 3b 60 26 9f 3e 87 b6 26 3e 12 2e 09 bd
       0.004501832 0.31083965 0.16280566 -0.0334912
0001a0 94 a7 31 be 5e 53 01 be 16 3c c4 bd 1d ef 36 be
       -0.17349082 -0.12629458 -0.09581773 -0.17864652
0001b0 cb 02 1e 3f 7d e0 2d bf 91 4a 47 be 5c 6d 0d be
       0.6172301 -0.67920667 -0.19462039 -0.13811249
0001c0 3d 70 8b 3e e2 72 15 bf 99 ea cd 3e 0c 39 62 3e
       0.2723407 -0.5837842 0.40218046 0.22092074
0001d0 b3 e5 71 3e 68 89 b8 be f0 12 c2 3e 9c b2 74 be
       0.2362278 -0.36042333 0.37905073 -0.23896259
0001e0 d0 bf ca bb 46 2b 07 bf 3f f1 ac 3e 58 ad 35 3e
       -0.0061874166 -0.52800405 0.33777806 0.17741907
0001f0 7d e9 d6 3e d0 a0 8e be c4 82 1a bd 34 ce 06 3f
       0.41975012 -0.27857065 -0.037722364 0.5265839
000200 b0 ba df 3e 07 85 4a bf 17 88 2a be 84 20 7d 3e
       0.4369712 -0.79109234 -0.16653477 0.24719435
000210 0b 4e f2 be 35 9b d8 3e 82 f5 fa be c8 28 99 3e
       -0.47325167 0.42305914 -0.49015433 0.29913926
000220 b9 24 17 be 81 5f 0a bf 42 da d5 3e 5a fe e8 3e
       -0.14760102 -0.5405198 0.4176808 0.45506555
000230 af 5a 28 be 4c 4a 8c be 53 15 ca be 23 8e 85 3e
       -0.16440843 -0.27400434 -0.39469394 0.26085004
000240 e9 b9 c4 3e aa f7 3f 3e 00 90 90 be 5a 76 15 3f
       0.38423088 0.1874682 -0.28234863 0.58383715
000250 dc 7b 81 be f1 93 c2 3d ad 31 da bd 34 7e c5 3e
       -0.2528981 0.09500874 -0.10654006 0.38572848
000260 86 92 b8 bd 39 18 1c bd 6a 83 ba be 8c 04 47 bf
       -0.09012322 -0.038109038 -0.36428386 -0.77741313
000270 ee 41 0a bf 2f 59 b8 3d ab 42 e2 bd d0 eb c4 be
       -0.5400685 0.090013854 -0.11047872 -0.3846116
000280 79 11 a6 3e fc 4b 51 3f b0 69 dc be bf 55 cf be
       0.32435206 0.8175657 -0.43049383 -0.40495107
000290 c5 84 0b bf cd b9 15 bf 4c 08 28 be 51 ea ab bd
       -0.54499465 -0.58486634 -0.16409415 -0.08394302
0002a0 14 8a f8 be 4b 32 02 3e 4c 7e 6f 3e 47 fb 0d bf
       -0.48542845 0.12714498 0.23388022 -0.55461544
0002b0 cc a6 fe be fd 65 c3 3d 99 81 b8 3e 79 e7 b6 be
       -0.4973663 0.09540937 0.36036375 -0.35723475
0002c0 46 be 93 3c a8 ab 07 3d 04 89 16 be d0 c8 e3 3e
       0.018035065 0.03312269 -0.14700705 0.44489145
0002d0 d9 58 d8 3c 7d 84 c9 be f5 e3 0b be c5 7f d3 3c
       0.026409553 -0.39358893 -0.13661177 0.025817761
0002e0 76 ed bf be 16 d1 be be 7d 33 fc bc 7f 3c 8e bd
       -0.37485856 -0.37268895 -0.03078627 -0.069451325
0002f0 e3 54 ec be 71 ab b2 3b b8 82 5b 3e f8 a6 f2 bd
       -0.46158513 0.0054525663 0.21436584 -0.11848253
000300 39 4d 46 bd 48 89 7a 3e 10 12 29 bf 32 11 93 be
       -0.04841349 0.24466431 -0.66043186 -0.28724056
000310 6e e0 89 be ea 7a 40 bd 9e c9 be bd 10 46 24 3e
       -0.2692904 -0.04699222 -0.09315799 0.16042352
000320 ad 56 f3 be 2e 95 27 bf 09 ca fb bc e7 66 c6 bd
       -0.47527066 -0.65462005 -0.030735986 -0.09687596
000330 56 a3 71 bd 29 11 82 3e 8d 3d 88 bd 36 b2 fa 3e
       -0.05899366 0.25403717 -0.06652365 0.4896409
000340 0c 9d fd be 5d 3b 0c 3e c4 6d 93 be 7b 91 c3 3d
       -0.4953388 0.1369452 -0.28794682 0.095492326
000350 91 67 78 3e 5b 2a 0b bf 6f a0 d4 bd 76 f5 fd be
       0.24258257 -0.54361504 -0.10382163 -0.49601334
000360 d8 97 b1 3e b0 d1 64 be 64 4e 1a bf 66 87 79 bd
       0.3468616 -0.22345614 -0.60275865 -0.06092014
000370 5a c6 b3 bd dd 94 61 be 7c 45 12 3f 7f a0 88 be
       -0.08778067 -0.22029443 0.57137275 -0.2668495
000380 d1 b3 2a 3f d6 c9 a2 3e 02 33 f9 3e 18 96 2d bf
       0.6668063 0.31794614 0.48671728 -0.6780715
000390 18 d6 de bd f2 63 6c 3d 20 f6 9d bd 01 ea 23 3e
       -0.10880679 0.057712503 -0.0771296 0.16007234
0003a0 85 8e a0 be d6 09 28 be a2 c1 17 3f 72 19 b1 3e
       -0.31358734 -0.16410002 0.59279835 0.34589726
0003b0 4b df c7 be ae 9c 07 bf e4 d5 eb be 12 87 90 3c
       -0.39037547 -0.5297345 -0.46061623 0.017642532
0003c0 8f 68 39 3f 6a a8 bb bd 0b df 95 3e 9a 9f 00 3e
       0.7242517 -0.09162982 0.2927173 0.12560883
0003d0 23 c3 67 be 32 1a a3 be 5f b5 bc 3e c2 8a 5b be
       -0.22633033 -0.31855923 0.36857125 -0.2143965
0003e0 15 ab 5b bf a1 69 9e 3e 8c 11 a6 3e 48 2a fe be
       -0.85807925 0.30939963 0.32435262 -0.49641633
0003f0 c9 2b 58 3e ce ce 12 bf d5 9f 2b 3f ac d8 8f 3d
       0.21110453 -0.5734681 0.6704076 0.07023749

conv3.bias f4 [16]
000000 b2 53 28 bd 0b b7 07 be 4a 76 b4 bd f8 1d 5e be
       -0.041095443 -0.13253419 -0.08811624 -0.2169112
000010 7a cd c4 3d 8e 3c 02 3e 6e c6 89 be 36 09 c5 be
       0.09609504 0.12718412 -0.26909202 -0.3848359
000020 88 6f 89 be de 18 a9 3e fa 31 93 3e e4 ea 86 3e
       -0.26842904 0.33026785 0.28749067 0.26351082
000030 98 0b 5f be 41 4a 0d bd 42 a9 68 bd 76 f2 2d bb
       -0.21781766 -0.034494642 -0.05680204 -0.0026542223

conv3.fc_self.weight f4 [16, 16]
000000 fa 06 dd be 22 07 ed be 43 1e 35 bd bf a6 74 3e
       -0.43169385 -0.46294504 -0.044218313 0.23891734
000010 ca 74 d9 3e 7e 29 0b bf 6f bc 15 bf eb a6 c5 3d
       0.42471915 -0.5436019 -0.5849065 0.09650978
000020 49 e6 08 3f aa 6d bd 3d 79 08 c6 be 9b 0d 88 bd
       0.5347639 0.092494324 -0.3867834 -0.0664322
000030 2e 45 4a bd 2f 58 00 bf b1 7e 15 3f 8a 29 f8 be
       -0.04938238 -0.5013456 0.5839644 -0.48469192
000040 ba a0 0f bf 28 27 b4 3d 90 bf 0d bf 88 19 48 be
       -0.56104624 0.08796531 -0.55370426 -0.1954099
000050 79 cc bf bd 9a 9b b2 3b 11 bd aa bc 72 6e b5 3e
       -0.09365172 0.005450678 -0.020842107 0.35435826
000060 cb 3b 7d bc bf 87 da 3d 83 4f b5 3c 61 16 3f 3e
       -0.01545615 0.10670423 0.02213264 0.1866088
000070 87 12 2b 3e 97 dd 11 bd e0 69 b6 3e a3 3b 89 3e
       0.16706286 -0.035611715 0.3562765 0.26803312
000080 65 fb 0b 3e d2 b4 2d 3e 39 ed a4 be 13 95 85 bd
       0.13670118 0.16963509 -0.32212237 -0.06522574
000090 1b 63 b1 3e 82 58 e0 3e 26 2d ea be 12 67 1f be
       0.34645924 0.43817526 -0.4573757 -0.15566662
0000a0 1f 93 d2 3e a6 97 ed 3d 6f 20 a8 bd 05 b3 b3 3d
       0.4112787 0.1160119 -0.08209311 0.0877438
0000b0 9c a2 93 be ea 1d 18 bf e1 43 e7 bd 20 e1 35 3d
       -0.28835 -0.59420645 -0.11292244 0.04440415
0000c0 38 70 dd 3e 8b d2 4a be 7a 2e 95 3d a7 d5 60 3e
       0.4324968 -0.19806878 0.07284255 0.21956502
0000d0 5e 77 a7 be 3d cf 07 bf e9 49 bf 3e 2f 3c 9b 3e
       -0.32708257 -0.53050596 0.37361076 0.30319354
0000e0 87 d9 20 be 35 5d 01 bf f7 09 18 3e e1 d1 97 3e
       -0.1570798 -0.5053285 0.14847551 0.29652312
0000f0 29 52 04 bd e5 a6 ae 3e b6 56 ea 3e 8c 67 73 3e
       -0.032304917 0.34111705 0.4576928 0.23769969
000100 ed 28 68 be 8a f1 09 3c 62 62 96 be 91 40 38 bd
       -0.22671862 0.008419404 -0.29371935 -0.04498345
000110 af 5b 6c 3e b9 34 b4 3d c2 5e b7 be 5b 4b 96 3d
       0.2308185 0.087991185 -0.35814482 0.07338592
000120 89 a0 1f 3f e1 1a c4 3d 9d 43 d8 3c e7 99 72 3e
       0.6235433 0.09575439 0.026399428 0.23691522
000130 99 ff 04 bd e6 93 21 be 44 53 32 3e 23 32 c8 3d
       -0.03247032 -0.15779075 0.17414576 0.09775188
000140 ae 92 01 bd 41 a0 02 be 7e f0 0b bf 60 77 7c 3e
       -0.031634025 -0.12756445 -0.54663837 0.24654913
000150 55 e5 08 bf e2 88 70 bd 05 43 e3 be 4c 07 52 be
       -0.5347493 -0.05872429 -0.4438707 -0.20510596
000160 0d da 72 be d2 1c ad bd 25 0a e2 be e5 23 26 3e
       -0.23715992 -0.08452763 -0.44148365 0.1622463
000170 77 dd ec bd 02 21 a9 bd e3 ec 13 3d e3 c0 ab 3e
       -0.115656786 -0.08258249 0.036114585 0.33545598
000180 55 b4 05 3f 56 f3 04 bf 89 de f0 3d 0d 98 a3 3e
       0.5222829 -0.519338 0.11761195 0.31951943
000190 6e b8 00 bf a4 85 b5 be 8b f0 48 3b d4 ef 4c 3e
       -0.5028142 -0.35453522 0.0030660953 0.20013362
0001a0 29 6d a5 be f4 76 94 ba 48 ca 96 be 38 26 41 bc
       -0.32309845 -0.0011326955 -0.29451203 -0.011788897
0001b0 ca c6 06 bf 11 0e 4a bd 83 63 9d 3e 7f d8 39 3e
       -0.5264708 -0.04932982 0.30739984 0.18148993
0001c0 10 8c 86 be 47 26 78 be eb 45 49 bf e4 dc 93 be
       -0.26278734 -0.24233352 -0.7862231 -0.28879464
0001d0 75 69 21 3e 9f 6f c0 be 32 91 f5 bd ae 0a 02 bd
       0.15762885 -0.3758516 -0.119905844 -0.031748466
0001e0 9c a7 88 be 0c 89 55 be e7 ad ef be 44 97 03 3e
       -0.26690376 -0.2085306 -0.46812364 0.12850672
0001f0 24 c1 82 be 9c ed d2 3c dd 70 a3 3e 0e a2 a3 b9
       -0.2553798 0.025748067 0.31922045 -0.00031210523
000200 af 5f 9e 3e f0 e2 a4 3e 70 08 69 3d 56 98 fb 3d
       0.30932376 0.3220439 0.056892812 0.12284915
000210 ce e3 f3 3e 60 92 e5 3e d2 32 96 be 66 2a cb be
       0.4763474 0.44838238 -0.29335648 -0.39680785
000220 94 f4 32 be b1 27 bf 3e 54 44 54 be f3 f4 8f 3e
       -0.17476112 0.3733497 -0.2072919 0.2811657
000230 ab 88 b0 be cd d7 68 be 01 de 9d 3e 1e 88 9b 3e
       -0.3447927 -0.22738571 0.30833438 0.30377287
000240 00 7b d0 bd 59 77 bd 3e 48 c7 69 be a2 4d 59 be
       -0.101797104 0.37005118 -0.22829926 -0.21221021
000250 13 02 cc bb f2 b4 a2 be 06 f8 bd bd 7a c0 47 3e
       -0.006225833 -0.31778675 -0.09275822 0.19507018
000260 ce 89 14 3d 7e fe 84 bd 13 ba 92 3d fa f9 e8 bd
       0.036264233 -0.06493853 0.07164397 -0.11375804
000270 5a b9 54 3d 4f 6a 6a bd 28 4f 86 be 62 ff 8b be
       0.051934578 -0.05723029 -0.26232266 -0.2734328
000280 09 35 ab 3e 0d b4 03 3f 94 bd e3 3c 71 57 80 3d
       0.334389 0.5144661 0.027800359 0.06266678
000290 c8 f7 d5 3e 8f 59 88 3e 53 8f cb 3e 56 23 86 be
       0.41790605 0.26630828 0.39757785 -0.26198834
0002a0 15 74 09 3f 6b a1 92 3e b0 a5 e3 3e 1b 75 3e 3e
       0.5369275 0.28638777 0.44462347 0.1859936
0002b0 78 1c 6c 3e 63 da 37 be 59 5e e3 3c 97 77 8e 3e
       0.23057735 -0.17954402 0.02775495 0.27825615
0002c0 07 bb 15 3e 9b da 36 3d df 17 a5 3e 80 2b ac 36
       0.14622127 0.044642072 0.32244775 5.1310635e-06
0002d0 51 c9 ac 3e 0a 60 6d be 3f 3a 0d be 28 67 f5 be
       0.33747342 -0.23181167 -0.1379175 -0.47930264
0002e0 2c df 91 be af 37 bf be d1 25 2d 3d 96 bf a2 be
       -0.2849058 -0.3734717 0.042272393 -0.31786793
0002f0 5c 98 cd 3d a9 a9 92 be c0 37 2e 3e 27 96 fe be
       0.10038826 -0.28645065 0.17013454 -0.49723932
000300 c0 0b 21 3e 81 c5 d7 be f0 a7 02 3e 51 38 0b 3e
       0.15727139 -0.4214287 0.12759376 0.13595702
000310 d2 5c cc bc 47 37 d5 be 5a 85 e4 3c 7a cf bc bd
       -0.024946604 -0.41643736 0.027895618 -0.092192605
000320 28 8b dc be 83 51 7e 3e 98 0b 9b be b4 40 1c 3e
       -0.43074918 0.24835782 -0.30282283 0.15259057
000330 4c 6f 9e 3e be 74 f9 3e ab 86 79 be ad 5f 7e bc
       0.30944288 0.4872188 -0.24367778 -0.015525741
000340 fc ec 34 be 9a 60 1f be 7f 87 81 be 60 5b 95 be
       -0.17668527 -0.15564194 -0.25298688 -0.29171276
000350 fd 13 a5 3c 6c 70 a0 be 0c 4e f4 3c d1 19 a2 3e
       0.020151133 -0.3133577 0.029822372 0.3166032
000360 c1 37 f8 bd 9e cf 6e 3e 5b d5 e0 be 11 ad e2 3e
       -0.12120009 0.23321387 -0.43912777 0.44272664
000370 56 df 2d be c2 06 57 be e1 b2 78 bd 2e 2c 25 3e
       -0.16979727 -0.20998672 -0.060717467 0.16130134
000380 ad 88 bf be 7f fc 42 be db be 2e bf dc f5 de bd
       -0.37408963 -0.19041632 -0.6825997 -0.10886738
000390 73 c1 9b be a8 09 44 3d e2 13 91 bd 25 2f 33 3e
       -0.30421028 0.04786077 -0.070838705 0.17498453
0003a0 c9 41 b5 be d0 84 ad be ae c9 db 3e 9c 3b e7 be
       -0.35401753 -0.3389039 0.42927307 -0.45162666
0003b0 43 45 07 3e 63 a8 77 3e b0 2b d5 be d2 87 38 bd
       0.13210015 0.24185328 -0.41634893 -0.045051403
0003c0 71 d6 a5 be bd 10 c4 3e ba 8f 1a bd 12 06 21 3e
       -0.32390168 0.3829402 -0.037734725 0.15724972
0003d0 6c c5 d7 bd 20 f4 08 bf 84 92 82 3e 3d 03 29 3d
       -0.10535702 -0.53497505 0.25502408 0.041262854
0003e0 34 3e b0 be bb 55 c6 be 10 6e 87 3e 14 2d 0b be
       -0.34422457 -0.38737282 0.2645116 -0.13591415
0003f0 94 1e ab bd 10 2e e2 bd 73 4c 9a 3c 2f 7b ec be
       -0.08355442 -0.11043942 0.018835282 -0.46187732

conv3.fc_neigh.weight f4 [16, 16]
000000 94 a5 8a 3e fd 74 ac bc c1 8a a7 be de b3 2f 3d
       0.2707945 -0.021051878 -0.32723048 0.042896144
000010 05 07 ee be 7d 00 ab be df ad d5 3e 59 58 c5 be
       -0.4648973 -0.3339881 0.41734216 -0.38543966
000020 9c 72 f9 be 7b 66 81 3e 8f ae d1 3e 0c c0 14 3f
       -0.48720253 0.252735 0.4095349 0.5810554
000030 ef c5 70 3d 93 63 0f 3f 6e 9f 05 bf ce a9 3a be
       0.058782514 0.56011313 -0.52196395 -0.18228838
000040 4b dd 6b 3e 45 97 f3 3e ad 76 b0 be c0 66 80 3e
       0.23033635 0.47576347 -0.34465542 0.25078392
000050 79 94 6b bb cc db 70 be 7e e1 4e be 3b bf ff be
       -0.003594665 -0.23521346 -0.20203206 -0.49950585
000060 9c 31 fb 3e de 4c a1 be 38 0b 03 bf b0 21 6b be
       0.49061286 -0.31503958 -0.51188993 -0.2296207
000070 02 fe 1a be cc 78 7a bd 0c d8 0d bd 5b de af be
       -0.15135959 -0.061150357 -0.034629866 -0.3434933
000080 d6 3d be 3e 29 1c 06 3f 4e 31 0a be 11 2d 3f 3f
       0.37156552 0.5238672 -0.13495371 0.7467814
000090 1e 2d 23 3e 44 ca 3a 3e cb 4a f5 be 04 a9 11 bf
       0.1593518 0.1824122 -0.47908625 -0.5689852
0000a0 f0 aa 5a 3e 57 15 fa bd aa fe 2e 3f 9d 69 10 3d
       0.2135427 -0.122111015 0.68357337 0.03525697
0000b0 ac 41 ba 3e 70 e4 e7 3b 6a e5 19 3d fc 06 a1 be
       0.3637823 0.0070767924 0.037572302 -0.3145064
0000c0 04 60 60 bf 39 07 60 be a1 93 8a 3f 65 af 3e 3e
       -0.8764651 -0.21877755 1.0826303 0.18621595
0000d0 0f 3c 20 bf 7b d6 7d be 15 ac ab be 74 17 30 be
       -0.6259164 -0.24788849 -0.33529726 -0.17196447
0000e0 00 db 2a 3f 75 85 c8 be 66 c3 1a bf 46 21 2b bf
       0.6674042 -0.3916432 -0.60454404 -0.66847646
0000f0 82 2b fc 3e 86 4e 58 3e 90 aa d7 be 5f fe 32 3f
       0.49251944 0.21123704 -0.42122316 0.6991939
000100 60 0a 2c 3d e8 7b c7 3e de 11 ed 3d d3 17 02 bf
       0.042002082 0.3896172 0.115756735 -0.508176
000110 8e 25 1b bf 00 43 83 be 29 51 13 3f df db c8 3d
       -0.6060418 -0.25637054 0.57545716 0.09807562
000120 45 6d 56 be a8 f9 75 3e 17 3a c5 bd b4 a7 0a 3f
       -0.2094012 0.24021018 -0.096302204 0.54162145
000130 97 69 4a 3e 13 fa 94 be 94 7d 5a 3e 4a be 75 3f
       0.19766842 -0.2909704 0.21336967 0.95993483
000140 1f 43 e3 3e 94 eb 99 be 03 36 02 3f 8b f8 4c 3f
       0.44387147 -0.30062544 0.50863665 0.80066746
000150 3f 83 cc be ce d0 5c 3d 88 b0 3d 3f 10 a6 54 3f
       -0.39943883 0.05391007 0.7409749 0.8306589
000160 e5 17 a0 3e ad 6c 39 bf 46 64 7f 3d 21 90 95 be
       0.3126823 -0.7243145 0.062351488 -0.29211524
000170 a1 82 ee be 7a 5e b2 3e 70 42 1e 3e bd 64 ca 3e
       -0.46584037 0.34837705 0.15455031 0.39529982
000180 86 fd 8f bc c3 24 12 3f aa 9d 08 bf e9 36 95 bc
       -0.017576944 0.57087344 -0.53365576 -0.01821466
000190 ee ec e8 be 4d a4 e1 3c 12 a7 92 3e b5 67 26 be
       -0.45493263 0.027544165 0.2864309 -0.16250499
0001a0 7d 65 bc 3e ef 32 dc be 84 97 3f bf f3 13 da 3d
       0.3679618 -0.4300761 -0.7484057 0.10648336
0001b0 a4 ee 4d 3e f8 32 cc 3d 6c b0 c7 be c9 d6 63 bd
       0.20110565 0.09970659 -0.39001787 -0.055624757
0001c0 b6 cd b8 3e 2e b5 81 be 6f b4 ef be d5 19 0a 3d
       0.36094445 -0.25333542 -0.46817347 0.03371604
0001d0 a6 69 29 3f 87 be 0d 3f 61 7b 15 3f 6b a7 b7 be
       0.6617683 0.55368847 0.58391386 -0.35869917
0001e0 0b 6e e3 be 35 8a 41 3e 53 b8 a0 3e 53 72 d0 3d
       -0.44419894 0.18900378 0.31390628 0.101780556
0001f0 d3 57 97 be 96 24 82 3e dc 74 aa 3d 07 88 f2 3e
       -0.29559192 0.25418538 0.083230704 0.47369406
000200 e8 5f 62 be 56 b5 0b 3e d1 6f f9 be 2d 8e 16 3e
       -0.22106898 0.13643393 -0.48718122 0.14702673
000210 48 2c 0b bd 9e 5f ed 3e 56 d8 55 be 1d 16 50 bd
       -0.033977777 0.46362013 -0.20883307 -0.05080234
000220 79 00 80 be f9 aa bc 3e 3a 3d cf 3e 63 80 c2 3e
       -0.2500036 0.36849192 0.404764 0.37988576
000230 4b 68 94 be ba ae 79 be 2b e9 17 3e a4 3e 39 3e
       -0.2898582 -0.24383059 0.1483504 0.18090302
000240 0c 21 7d be 60 52 f6 3e 49 32 a3 be ae f8 73 3e
       -0.24719638 0.48109722 -0.31874302 0.23825333
000250 8d de 71 be 50 89 ae be 4d 97 42 bd 10 73 ca 3e
       -0.23620053 -0.34089136 -0.047507573 0.3954091
000260 13 b5 94 3d 5f d3 2a 3f ff b9 1b 3f 05 0b 19 3f
       0.072611 0.66728777 0.6083068 0.5978244
000270 40 89 d1 3e 53 d7 ad 3e 03 f5 5c 3e c6 37 15 3f
       0.40925026 0.33953342 0.2157784 0.5828823
000280 e6 5c 01 be 6f 1a f5 3d f8 71 cf bd 8d 72 56 3e
       -0.12633094 0.119679324 -0.1012916 0.20942135
000290 67 85 bd 3e 52 01 17 bf 06 08 9b be 2b de 75 be
       0.3701584 -0.5898639 -0.3027956 -0.24010532
0002a0 cf 82 1b 3f 69 d0 86 be 01 9e 56 3e 11 dd d5 be
       0.60746473 -0.2633088 0.20958711 -0.41770223
0002b0 8f 57 40 be 84 40 88 be b5 d1 82 3e 07 e4 3d 3d
       -0.18783401 -0.26611722 0.2555062 0.046360042
0002c0 14 1f 67 bc 39 93 9b 3e 02 6d 64 3e ec 43 10 bf
       -0.014106531 0.3038576 0.22307208 -0.5635364
0002d0 45 73 2b 3f b9 31 84 3e 5e e8 c5 3e b5 06 19 3e
       0.6697276 0.25819185 0.38653845 0.14943965
0002e0 52 6e 39 bf b5 78 ba be 0e c2 61 bb 02 79 2c be
       -0.7243396 -0.36420217 -0.003444794 -0.16843036
0002f0 40 3a 94 be ed 9c 45 3d 7f f8 7d 3e d5 e6 65 bd
       -0.2895069 0.04824536 0.24801825 -0.05612834
000300 b1 2c 25 bf b0 ff 3b 3d 94 b7 02 be 96 4e 32 3e
       -0.6452132 0.04589814 -0.12765342 0.1741279
000310 0d 7e 80 be 41 e8 02 3f 1a 66 5d 3e df 62 b6 be
       -0.2509617 0.5113564 0.2162098 -0.35622308
000320 7b f8 82 be 1b f7 a9 3d 5c de cb bd 20 91 a9 3e
       -0.255802 0.08299085 -0.09954521 0.33118534
000330 db 37 a7 3e 70 64 41 3f 31 a5 a3 be 36 68 26 3e
       0.32659802 0.7554388 -0.3196197 0.16250691
000340 27 46 13 3f 27 f5 f8 3d 01 18 78 3f 1e 59 bf 3e
       0.5752892 0.12156134 0.9691163 0.3737268
000350 a0 1e f4 3d 2b 0f eb be f1 b5 15 3f ed 68 00 bf
       0.11919904 -0.4591001 0.58480746 -0.50160104
000360 f4 37 0a 3f e5 c1 44 3e 9e c2 2c be e1 ce 69 3e
       0.5399163 0.1921459 -0.16871116 0.22832824
000370 40 bc f8 3e 46 4a ae be 6c f8 26 3f 38 87 b1 3e
       0.48581123 -0.3404104 0.6522281 0.34673476
000380 e3 d5 0d 3f d6 26 d2 be a2 5e d4 be eb 42 90 bc
       0.5540449 -0.41045254 -0.4147845 -0.017610034
000390 cc 0d 3a 3e 46 95 02 bf 45 05 db 3e 23 1b 43 bf
       0.18169326 -0.51009023 0.42777458 -0.7621328
0003a0 88 32 c4 bd 6a 91 09 be 84 a1 1a 3e 42 66 2a bf
       -0.095799506 -0.13434377 0.15100676 -0.66562283
0003b0 28 72 12 be 17 d1 0b bf 96 8c 6d 3e d1 21 15 3f
       -0.1430136 -0.5461592 0.2319816 0.58254725
0003c0 b0 07 4e 3c 49 3b 8a 3e 9f 88 96 be ee d2 b8 be
       0.012575075 0.26998356 -0.2940111 -0.36098427
0003d0 ad f1 d9 3e 86 c2 f2 3c 8e ed 18 3f 35 ff 46 3f
       0.42567196 0.029633772 0.5973748 0.77733165
0003e0 ed 7c 74 be 2e 33 9a be 42 f1 a0 be 41 64 2f bf
       -0.2387578 -0.30117172 -0.31434065 -0.6851235
0003f0 61 9d 13 be ea 40 b9 bd 38 6e 13 3e 09 a1 95 be
       -0.14415504 -0.090455845 0.14397514 -0.29224423

conv4.bias f4 [16]
000000 7e fd e9 bc 2b b4 90 be 9d da 42 3e 0a 4b 93 bd
       -0.028563257 -0.28262457 0.19028707 -0.07192047
000010 ca 65 09 3e 3a 5c fa 3d e2 d4 dc bd f9 20 76 3d
       0.13417736 0.12224622 -0.10782792 0.06009004
000020 73 7c 9d 3d 0a fe 75 bd 74 4d bb 3e d0 f1 9e 3c
       0.076897524 -0.060056724 0.3658253 0.019402415
000030 27 bd 34 3c 12 3b 2f 3e e9 ab 34 3e 25 82 89 3e
       0.011031426 0.17112377 0.17643704 0.26857105
