model.pth (torch, 29451 bytes, 9 tensors)

conv1.bias f4 [16]
00000000: da38 87bc 25e1 053c 8278 c03c 01b8 0ebc
00000010: 687f a1b9 45e4 5d3c 62e6 0a3c 16bc 99bc
00000020: 69c2 aa3c e4b9 c43a b880 35bb 7ea1 8d3c
00000030: 100f 9fbb a47e 563c 107c 743b 2a13 563b
-0.016506601 0.008171354 0.023494963 -0.008710862 -0.00030803238 0.013543193 0.008477779 -0.018766444
0.020844655 0.0015009013 -0.002769513 0.01728892 -0.0048540905 0.013091717 0.0037305392 0.0032665231

conv1.fc_self.weight f4 [16, 174]
00000000: 630e 65bc c32d 57be 8e56 ad3c ff4a 853d
00000010: dce7 9dbd 7a89 3f3e 50d0 21bd 61ee 633e
00000020: ec63 51be 4151 18bd c24c 653d 51f4 6a3e
00000030: 699e e13e 543f bf3e 9b2f 5abe 0b08 0bbe
00000040: 55bf babd ea23 043d 8f54 4e3d 0f91 043d
00000050: 667c 0e3e 375f 053e ff10 c63d c7b1 1c3d
00000060: d333 dcbd 1d6d b13d 7db3 153d 22a0 12be
00000070: 2a00 763c 6494 a6bd 1cba 05bd c526 83bc
00000080: 289d b83c 3337 e03c 4762 b43d 3590 4bbd
00000090: ad15 5a3d d89c 30be 74bf acbd d542 553d
000000a0: a7d7 debd 9043 123c 38ee 07be 2062 aa3d
000000b0: 8ec6 073e 70e0 243e ae68 c63d 45c7 2bbe
000000c0: e431 c9bc 6736 dfbe 03ba 243e b16e 7a3d
000000d0: 85e2 46bd cd81 9a3d 5be6 5b3d 7910 f6bd
000000e0: 5e14 5c3c 9512 203e 8b23 3f3e 3b63 e0bd
000000f0: d2e9 5e3d e0bf 443e e1c6 da3d e250 36bd
00000100: bc44 e23c 0712 573e 7ae1 1fbd 3671 a4bc
00000110: 8303 2c3e 0c47 02bd 5087 b3bd dfb4 9e3e
00000120: 7b26 913d bfda bf3a 9a38 733d 51f1 e83d
00000130: e372 d13d acb7 6b39 c524 123d b62b 82bd
00000140: 17f0 58bb 8d38 06be 6e05 553e 2dcc 483e
00000150: dc8c ff3c 09ad c03d f7cd a63d 8d32 1abe
00000160: 5207 f83d b3b5 b7bc a989 933d 7f0c fbbb
00000170: 392f bdbd c217 b3bd 96dc 08be ed6f b4be
00000180: fc6c 65bd 8513 87be 120d b33b cf20 18bb
00000190: 61a8 fdbc f05e c6bd 051f 34be 044e 8b3e
000001a0: e97e 19be 5d6e f2bc 68df 79bd 28ee 4abd
000001b0: dc38 e5bd dd6b 79bd 8382 0d3e 0c0b 25be
000001c0: 4939 12bf 01e0 0bbd 5613 193e 26b0 d5bd
000001d0: fd03 0cbe ec06 8cbd 75d4 23bd f541 38bd
000001e0: 87e5 7abe 2329 fcbd 6e27 0ebe c250 62be
000001f0: c324 12be ed56 1fbd 907c 043e d057 2fbe
00000200: db62 dcbc d645 2dbd b27e 0a3c 98ba 09be
00000210: 595b bb3d 9512 27be 6250 4e3e dd7d 013e
00000220: 2adc 843b 9ad2 173c 7260 89bc 1d41 553e
00000230: 93ae 6c3d 447d 43bd a90a 273c 558d 753d
00000240: 3d7a 16be 369c 08be 14a5 5a3c aefb db3d
00000250: a395 5f3d 8e8f ad3e 6322 663d 97e7 f7bd
00000260: e860 263d e44d 25bc 5c58 133d f3bc 423d
00000270: 00ba 8dbe b9b1 0d3e 126c a0bd 804f 93bd
00000280: 2659 523e dbcd 5cbd c76c 603d 6099 af3e
00000290: c96b cbbd bd08 45be dac7 1dbe 7603 04be
000002a0: 0aa9 dabd 08df 0b3c 3a9e 3a3d 6f40 40be
000002b0: 5f45 0d3d 4598 233d 097c 3cbd 425a 203d
000002c0: 6e62 6c3c 6df1 c9bd 8759 65bd 504f 98bd
000002d0: c237 07be 6a6f 2fbe 5d2f 06be 5c29 863e
000002e0: 1a3d 70be 97a4 583d b3f2 4abe fc62 b0bd
000002f0: 0af6 1b3e 2e48 973e 8cf6 9e3d 3f34 853c
00000300: e194 88bc ce42 eebd d4cf 54bd 530b 0ebe
00000310: 30f5 8dbd dc8f cabd 194c 473e 28e1 143e
00000320: 9f59 dbbc e4ab 283e 4e7c eabd 853a 113e
00000330: 72b8 61be 5a2e 1fbe f5f8 2b3e c7ff 19be
00000340: 8162 e6bd e3b1 083e a364 173e fb32 27be
00000350: 5b08 333e 2094 843d b920 a2bc cd56 443d
00000360: 1351 183d 4d5c 00be 052f 2bbd 2c10 3fbc
00000370: 7013 0e3e e7c7 2e3d 93d4 89bc b343 4b3e
00000380: 8f00 cb3d 573c 63be 8566 ae3d c5a0 ffbd
00000390: d6ca a63d 0e97 e43c 90f0 a2bc b753 a53d
000003a0: dcf9 953d 8ca6 073e a8a3 40b9 70bf 3abe
000003b0: 68cc cf3d 71a9 87bc 3afb a1bd f741 ba3d
000003c0: 5a96 603e 218d 2fbd fb0e b8bb ba34 c53d
000003d0: bfa3 62be 6193 273e c590 e6bc fa68 f13c
000003e0: e9cb 503b 17fc 0a3c 2ffe 913e 0d8d 34be
000003f0: 1130 35be e26b cfbd c20e 9fbd 6b6a efbd
-0.013980481 -0.2101355 0.021159437 0.06508445 -0.07710239 0.18704787 -0.039505303 0.22258903
-0.20448273 -0.037186865 0.055981405 0.22944762 0.4406617 0.37353003 -0.21307223 -0.13577287
-0.09118525 0.032260813 0.05037361 0.0323649 0.13914642 0.13024603 0.096712105 0.03825548
-0.10752072 0.0866339 0.036548126 -0.14318898 0.015014688 -0.08133772 -0.03264819 -0.016009698
0.022535875 0.027370071 0.088078074 -0.049698073 0.053243328 -0.17247331 -0.08434954 0.05206569
-0.10880976 0.008927241 -0.13274467 0.08319497 0.13259336 0.16101241 0.09687935 -0.16775234
-0.024559923 -0.43596193 0.16086583 0.06114072 -0.04855587 0.07544289 0.05368648 -0.12014861
0.01343259 0.15632088 0.18665902 -0.10956427 0.054422207 0.1921382 0.106824644 -0.04451073
0.027620666 0.2100297 -0.03903339 -0.020073514 0.16798215 -0.031806037 -0.08766043 0.3099737
0.07087418 0.0014637335 0.05938015 0.113741525 0.10226991 0.0002247977 0.035679597 -0.063559934
-0.003310209 -0.1310751 0.20802853 0.19609137 0.031195097 0.09408004 0.081447534 -0.15058346
0.12110771 -0.022425508 0.07203991 -0.0076614018 -0.09237523 -0.08744766 -0.13365397 -0.35241643
-0.05601214 -0.2638208 0.0054642046 -0.0023212915 -0.030964078 -0.09686077 -0.17589958 0.2720796
-0.14989819 -0.029593641 -0.061004072 -0.04954353 -0.11192486 -0.060893882 0.13819318 -0.16117495
-0.5711866 -0.034149174 0.14948782 -0.10433988 -0.13673396 -0.06837258 -0.039997537 -0.044984777
-0.2450162 -0.12312534 -0.13882229 -0.22101119 -0.14271836 -0.03890126 0.12938142 -0.17123342
-0.026902607 -0.04230293 0.008453058 -0.13450086 0.091482826 -0.16315682 0.20147851 0.1264567
0.004054566 0.00926652 -0.016769622 0.2082562 0.057783674 -0.047726884 0.010195413 0.059949238
-0.14695068 -0.1334084 0.013345022 0.107413635 0.054586064 0.33898586 0.056185137 -0.12104719
0.04061976 -0.010089371 0.035972938 0.047543477 -0.2768097 0.13837327 -0.07833113 -0.07192898
0.2054182 -0.053907257 0.05479124 0.34296703 -0.09932668 -0.19241615 -0.15408269 -0.12891945
-0.10676773 0.0085370615 0.045561053 -0.1877458 0.034489986 0.039940137 -0.046016727 0.039148577
0.014427764 -0.098605014 -0.055993583 -0.07437003 -0.13204864 -0.17132345 -0.13104005 0.2620343
-0.23460808 0.05289134 -0.19819145 -0.0861263 0.15230575 0.29547256 0.07761869 0.016260264
-0.016672553 -0.11633836 -0.051956013 -0.13871507 -0.069315314 -0.0989072 0.19462623 0.14539015
-0.026776133 0.16471821 -0.114494905 0.1418248 -0.22043017 -0.15545025 0.16794188 -0.15038978
-0.11249257 0.13349108 0.14784484 -0.16328041 0.17483656 0.06473565 -0.019790994 0.047934342
0.037186693 -0.1253521 -0.04179289 -0.0116615705 0.13874602 0.04267111 -0.016824996 0.19850044
0.09912216 -0.22190987 0.08515648 -0.12481836 0.08144157 0.02790406 -0.0198901 0.08072608
0.073230475 0.13247126 -0.00018371514 -0.1823709 0.10146409 -0.016560288 -0.07909246 0.09094613
0.21932355 -0.0428592 -0.00561702 0.096291974 -0.22132777 0.16364814 -0.028145203 0.029469002
0.0031859821 0.008482954 0.2851424 -0.17631932 -0.17694117 -0.10127999 -0.07766487 -0.116902195

conv1.fc_neigh.weight f4 [16, 174]
00000000: 873a a0bd de4c 25be 2f78 e53d ddb8 3ebd
00000010: d423 e5be 98cc fc3d ed4d 20be 8e23 833e
00000020: f249 7fbe 14e0 85be b1d8 833d 2506 423e
00000030: e6b2 2e3e 2749 c23d 030b aa3b a9b2 bb3e
00000040: e56f 03be 232d 0bbd 7d6d 323e 0324 b53e
00000050: 6a26 71bd b120 24bc 21a7 8e3d e7c5 a63e
00000060: 40e2 f2bd 7c53 f63c 9450 273e 36ab 67bc
00000070: cdf0 513e 2143 adbd 9034 5dbe f2c8 b3be
00000080: ce72 313c 993e 9e3e cd8a 913d e0c8 4abc
00000090: f7db a2bd a3cc 24be 6268 463d 5315 29be
000000a0: 4652 1dbe 515b 97be 2670 a8be d926 a93e
000000b0: ccb2 e139 339c 703e 3d93 a03e df45 83bd
000000c0: eeeb 983e 9bdf 15bf f391 963e 1280 2b3e
000000d0: 9745 78be cf3f 943d fd61 613e e816 b8bc
000000e0: 671a 62be 3afe 4b3e 3863 613e 1a96 3cbe
000000f0: f8ad 5d3e 650e a33e 5418 5c3e 23f2 213e
00000100: b7d4 8dbd a3df 6a3e d549 1fbe 7eac 0dbe
00000110: 3504 8fbd 325f dabc daf5 ecbd 8407 1b3e
00000120: ad56 9f3d af42 59be 00af e53d 5ab7 523e
00000130: 4189 d63d 41f8 02be 62fa 63bb 362c 55be
00000140: 96a4 163e 5965 40be ee53 e33e 8f1e 9e3e
00000150: 5550 1abe 7c02 423d e5e9 283e 0540 bebd
00000160: 2780 2f3e 6958 bb3c 03fa 7e3e 6b81 923d
00000170: e242 79be 4b17 cabd cfe3 0a3e e6ff aebe
00000180: 0f3c bf3d b939 21bd 3c92 473e 4c8d 0e3e
00000190: 68f5 0f3e 668a 61be 2cc4 77be 4895 233e
000001a0: 94ba b6be 73e0 eb3c 86c4 863d c64d c2bd
000001b0: 3e0f 653b 8044 703d 7bc0 813d dee1 5abd
000001c0: d6b2 613d 0716 80be 7ca5 2f3e 0756 4b3d
000001d0: 455f 00bd ee3f f33d 61f2 043e f10d ecbc
000001e0: 81ba 9f3d 56c0 49bd 2712 4ebd 9811 28be
000001f0: 9aee 84bd 7254 2e3d a6a5 e73e dd5e 37bd
00000200: c59c 663b a06c 25be 4222 e1be fa9e e7bd
00000210: 1718 cebd 8624 bdbe 5b29 fd3d 9f26 233d
00000220: d677 edbd f19c 64bd f9b7 5bbd 0197 153e
00000230: d098 b2bd 65c6 423e d8ed 9f3e 19fe cb3d
00000240: e886 73be 4f64 7ebe dbf4 8e3e 0429 063e
00000250: d02e c23d e0a2 bf3e 8772 fb3b 680a edbd
00000260: f92b 563c 9431 19be bef4 353e 0597 81bc
00000270: 29fe 99be 7887 8d3d 8b12 59bd 3244 d4bd
00000280: bb19 3a3e e380 0abd 1384 99bd b928 913e
00000290: 52fb a1bb 23d9 08bc cb70 9a3d 2da4 f93a
000002a0: 6b1b 703e a260 963e 1dcb 223d f46e afbd
000002b0: 5b10 41be c91c a3bc f465 0a3e 61e1 833e
000002c0: 8b70 5e3e 59c3 06be 0b7f 593e 58e6 ab3d
000002d0: 1c1c d2bc 404a 99bc 82bd a0bd 54be 8d3e
000002e0: 2b73 90bd b934 d6bd 6f70 283c 4d3e 523e
000002f0: 2d02 aa3e 9b31 9d3e 3e72 403e 1496 21bd
00000300: f93f 04bd f3df b7bd b8b8 163e 0268 6abe
00000310: bbc3 9cbd ebe9 79be 7bb5 433e 022c 893e
00000320: 6fcf 47be 9533 4d3e 2713 6abe 3fbb 223e
00000330: 6bf6 c83d 1f06 15bd 15ce 143e bd9e 023e
00000340: be7a bcbd 0370 e23b 5e97 81bc 4458 3abe
00000350: 8445 1ebd a23b 0c3e e46b 593b 4aae 833e
00000360: 9407 d23d 789f 07be 27dc 7d3e c927 96bd
00000370: 32d2 b13e 6f74 283e 8b75 90bd ca99 fc3d
00000380: cdea 2d3e 7e31 d4be 9d6d d83d 5d57 673c
00000390: 2997 0dbc 6520 35bd 21cf 97be fbad b23d
000003a0: 738f 363d 19d6 843e 503d efbc d023 2ebe
000003b0: a456 863e 8d82 143b 368e 403e eef9 12bd
000003c0: 896b e23e 6078 a53d e39a e53d 41dd fa3e
000003d0: ff85 e7bd 0372 783e 6d40 78bd 853b c93c
000003e0: 1176 2c3e e6d2 c23d 274c e13e bbd7 24be
000003f0: 1c35 e7bc 9f01 2bbd bf53 ca3c 0ea9 cbbe
-0.07823663 -0.16142604 0.11204564 -0.046563018 -0.44753897 0.12343711 -0.15654726 0.25613064
-0.24930552 -0.2614752 0.06437815 0.18947656 0.17060432 0.09486609 0.005189301 0.36659744
-0.12835653 -0.033978593 0.17424579 0.35379037 -0.058874525 -0.01001756 0.06965471 0.32572863
-0.1185956 0.030069105 0.16339332 -0.014139941 0.20502014 -0.084600694 -0.21602082 -0.35114247
0.010830594 0.30907133 0.07106552 -0.012376994 -0.07952111 -0.16093688 0.04843939 -0.16512041
-0.15363416 -0.29561856 -0.32898062 0.3303745 0.00043048558 0.23497085 0.31362334 -0.06409811
0.298675 -0.5854432 0.29408225 0.16748074 -0.24245296 0.07238733 0.22010036 -0.02247186
-0.22080384 0.19921198 0.22010505 -0.18416634 0.21648395 0.3184692 0.21493655 0.15815024
-0.06925338 0.22936873 -0.15555508 -0.13835332 -0.06983224 -0.02665672 -0.1157033 0.15139586
0.07780204 -0.21216844 0.11215019 0.20577756 0.10475398 -0.12790014 -0.003478669 -0.20817646
0.14711222 -0.18788661 0.4439997 0.3088269 -0.15069707 0.04736565 0.16495474 -0.092895545
0.1713873 0.022869306 0.2490006 0.07153591 -0.2434192 -0.09867724 0.13563465 -0.3417961
0.09337627 -0.03936169 0.19489378 0.13921088 0.14058459 -0.22025451 -0.24195927 0.15974915
-0.35689223 0.02879355 0.065804526 -0.0948749 0.0034951712 0.058659077 0.06335541 -0.05343806
0.055102192 -0.25016806 0.17152971 0.04964259 -0.031340856 0.11877428 0.12983085 -0.028815242
0.07799245 -0.04925569 -0.05031028 -0.16412961 -0.06490822 0.042561002 0.45243567 -0.044768203
0.0035188657 -0.16154718 -0.4397145 -0.11309619 -0.100631885 -0.36941928 0.123614036 0.039831754
-0.115951225 -0.055813733 -0.053642247 0.14608385 -0.08720553 0.19020994 0.31236148 0.09960575
-0.23781931 -0.24842952 0.27921185 0.13101584 0.09481585 0.3742895 0.007673565 -0.115742505
0.013072007 -0.14960319 0.17769143 -0.015819082 -0.3007672 0.06910604 -0.0529962 -0.1036457
0.18173878 -0.033814322 -0.07495894 0.2835138 -0.00494329 -0.008352551 0.07541045 0.001904612
0.23447959 0.293706 0.039744485 -0.085660845 -0.18853895 -0.019911187 0.13515455 0.25757888
0.21722619 -0.13160457 0.2123987 0.08393544 -0.02564817 -0.018712163 -0.07848646 0.2768427
-0.070532165 -0.10459275 0.0102807125 0.20531578 0.33204785 0.30701908 0.1879358 -0.039449766
-0.03228757 -0.08978262 0.14718902 -0.22891238 -0.0765452 -0.24405639 0.19112198 0.26791388
-0.19512723 0.20039208 -0.22858869 0.15891741 0.098126255 -0.03638279 0.14531739 0.12755866
-0.09203099 0.0069103255 -0.015819248 -0.18197733 -0.038640514 0.13694623 0.003317588 0.2571891
0.10255352 -0.13244426 0.24791013 -0.07331807 0.3473068 0.16450666 -0.070536695 0.123340204
0.169841 -0.4144401 0.10567782 0.01411995 -0.008641996 -0.044220347 -0.29650214 0.087245904
0.044570398 0.25944594 -0.02920404 -0.17005849 0.26237977 0.0022660822 0.18804249 -0.035882883
0.44222668 0.080796 0.11211183 0.48996928 -0.113048546 0.24262242 -0.060608316 0.024564514
0.16841914 0.09512882 0.44003412 -0.1609792 -0.028223567 -0.041749593 0.024698136 -0.39777416

conv2.bias f4 [16]
00000000: 7e31 38bb 9b80 0fbc d1e7 88bb 8b90 a73b
00000010: 9c2b a1bb cf7e 5e3c 3bf0 033c d25c 983c
00000020: f7df f9ba 2cc5 463c d237 f1bb 249a 593c
00000030: 7601 1dbc 67a0 4abc 19c9 633c 78b2 953b
-0.0028105672 -0.008758689 -0.0041780253 0.0051136664 -0.0049185287 0.013580038 0.008052881 0.018598948
-0.0019063939 0.01213197 -0.0073613906 0.013281379 -0.009582868 -0.012367344 0.013902926 0.0045683943

conv2.fc_self.weight f4 [16, 16]
00000000: ba05 c13d 7ede 213e 6a06 af3e d3d6 f8be
00000010: 54a6 0c3d 85ef 01be 0027 94be ee30 263f
00000020: 9e23 333e b020 ca3c 2116 643e 5739 4b3e
00000030: 4b0c bfbe 0344 313e a571 993e d7a0 7d3d
00000040: e0cf 0f3e 412f bfbe c263 4ebe d9d7 10bd
00000050: 963e e73d f816 d4bc bbfb 8abe cd48 33be
00000060: 8789 69be ae3a bcbd e5dc c03d 669f 00bf
00000070: d652 87be b4de 263d c34a 2b3e 508e f1be
00000080: d002 a83d a7aa 0b3f 62f9 71bb 1366 e3be
00000090: 44d1 1bbc 0ed5 b0be 7f8e 01bf 6997 93be
000000a0: 4c07 693c a7bd fcbe 0f99 9abe c0cf 89be
000000b0: ba3f 8bbe c8a6 a3be c477 25be 4a98 ea3d
000000c0: 806d 88be b8c6 b4bd 187b a5be ac9b c5bd
000000d0: 7260 77be 2c06 b5bd e875 233d 9a34 e9be
000000e0: c70a 0ebe c461 b8ba 5cd6 e0be c6ce c1be
000000f0: 376e 8dbe 6dfd bb3e 9cff 833e c4fa debe
00000100: 5561 e33d 2792 a53e aa19 b1bd c050 4dbe
00000110: 8185 75be d2f1 d73e 7387 29be 1ffb 64bd
00000120: 82d0 683e fc1c 2f3d f98b 19bf 921f e3bd
00000130: 7361 01bf 0a3c d73e a1c9 1bbe 1368 36be
00000140: 193d edbe b75d e23e f586 54be 79b0 35be
00000150: 93dd be3e 4078 1dbe 45ff a73e a58e b3be
00000160: 5b73 17be 59f6 b4bd 108e 4b3e d01a eb3e
00000170: ae44 aebe 22e5 c53e c94a c43e 7605 3b3e
00000180: 1c9f b93e 4340 97be 5751 2ebe 7160 02bf
00000190: cf9e 1bbe b9b6 183d e233 433e 23ee 8c3e
000001a0: 13b3 85be a845 2bbe 3638 27be 1fb1 dbbe
000001b0: b782 b03e 4b45 38be 3b92 953e bc82 2ebe
000001c0: c42e 19ba 367c 5c3e 704b e1bc 40bd 8abc
000001d0: a166 443d 6355 c73e 7b05 d43e 58d7 4abe
000001e0: 3cff b33e fcaa d9be 356c a5be b38a 413e
000001f0: 13f2 08bf ab68 0a3f fd20 5cbe a11d 97bd
00000200: 92a8 c0be b02a ee3e 80ae 25be 8a6f 69be
00000210: 9012 b53e 8ae6 1e3e e224 e3be 9d3f 94be
00000220: d495 683e e6a2 09ba b01e 0e3d 290a b8be
00000230: 1186 4d3e 2d02 ac3e af5d 893e 2bb3 803e
00000240: 8353 b5be 12b4 2d3c ebb0 28bd 819f 253d
00000250: c20c f63d dfd0 a1be d474 023e 0adc 14bf
00000260: 0b0b 97be 5123 493e 0c4d e8be 1210 3fbe
00000270: f46d b73e d945 65be 0983 813e 7684 49be
00000280: b6d5 963e ab1c a1be 7e82 fdbd ef99 f1bd
00000290: 8167 843d f1aa e63d 4249 1e3f acf7 923e
000002a0: 4432 c73d 1bfe 9b3e 2ef8 89be 591a 663e
000002b0: 899f ccbe 2d15 e23e 5b70 e7bd 8979 053e
000002c0: 61aa 83be 1ba7 ed3e 029d 91be 4d74 b7be
000002d0: 185f 87be 391a 153e aad5 d0be 28f1 e33d
000002e0: 0365 da3e 3f35 07be 76c6 64be 7fbd b9bd
000002f0: 874d 5abe 8273 e33e aa44 89bd bb6e a7bd
00000300: 35f0 babe 7bce 8f3c 851d 89be e275 633d
00000310: 0664 20be 9752 03be 85c4 babc f02d a4be
00000320: 6f57 4e3e 9774 0f3e cadf 4f3e 2a2d e83e
00000330: 0ee0 9fbe c021 d03d 17fc fcbe 4a31 66be
00000340: a1e0 6d3e cf46 f73d 8654 42bc 774b 92be
00000350: 44c2 753d b349 643c be74 753d d563 013f
00000360: e933 a93e 14e6 3dbe 367d fcbb 8f6c 1bbf
00000370: 34f6 363e 0a3e f0bd 9d22 99be d672 f93d
00000380: 1cce 88be 9af9 cd3e 763d 093e e4f7 1e3e
00000390: 7e1f 83be fcef 133d 48f5 a1be 243b d73d
000003a0: c30c a7bd 2c93 343e 10db acbe e199 613d
000003b0: d94d 083d 7f0a a0be e056 08bf 3f21 873e
000003c0: a1dc 1ebe 4409 80be afa9 813e 5c7c dbbe
000003d0: b169 cc3e 0eaf b33d 5a19 31be fa7a 533e
000003e0: 7eb4 82be b7d9 1a3e e8ee ff3e 0ed4 91be
000003f0: f5ae 1f3d b9a3 ac3e 4565 d63d 2f3b 33be
0.094249204 0.1580753 0.3418458 -0.48601398 0.03433831 -0.12689026 -0.28936005 0.6491841
0.17494056 0.02467379 0.22274067 0.19846092 -0.37314066 0.173111 0.29969516 0.061920967
0.14044142 -0.3734074 -0.20155242 -0.0353621 0.11291234 -0.025889859 -0.2714518 -0.1750824
-0.22806369 -0.0919088 0.09417132 -0.5024322 -0.26430386 0.04073973 0.16727738 -0.47178888
0.082036614 0.5455727 -0.0036922325 -0.44413814 -0.009510342 -0.34537548 -0.50608057 -0.28826454
0.014222931 -0.49363443 -0.301949 -0.26916313 -0.27197057 -0.31963181 -0.16158968 0.11454828
-0.26646042 -0.08826965 -0.32320476 -0.09648833 -0.24157885 -0.08839068 0.039907366 -0.45547944
-0.13871299 -0.0014067222 -0.43913543 -0.37853068 -0.2762315 0.36716786 0.25780952 -0.43550694
0.11102549 0.32338068 -0.08647473 -0.20050335 -0.23976709 0.42176682 -0.16555576 -0.05590355
0.2273579 0.04275225 -0.59979206 -0.11090006 -0.5053932 0.42037994 -0.15213634 -0.17813139
-0.46335676 0.44212124 -0.20754607 -0.177431 0.37278423 -0.15377903 0.32811943 -0.35069767
-0.14790098 -0.088360496 0.19878411 0.45918894 -0.34036773 0.38651377 0.38338307 0.18263802
0.36254203 -0.29541215 -0.17023216 -0.5092841 -0.151973 0.037283633 0.1906276 0.27525434
-0.26113185 -0.1672579 -0.16330037 -0.4290857 0.34474728 -0.17995183 0.29213127 -0.17042059
-0.00058434554 0.21531758 -0.027501792 -0.016935945 0.047949437 0.38932332 0.4141043 -0.1980871
0.35155666 -0.42513263 -0.32309118 0.18900566 -0.53494376 0.5406596 -0.21496959 -0.07378698
-0.3762861 0.46516943 -0.16179848 -0.22796455 0.35365725 0.15517631 -0.44364077 -0.28954783
0.22713405 -0.0005250409 0.034697235 -0.35945252 0.20070674 0.3359541 0.26829287 0.25136694
-0.35415277 0.010602014 -0.041184347 0.040435318 0.12014152 -0.31604668 0.12739879 -0.5814825
-0.29500613 0.19642378 -0.45371282 -0.18658474 0.35826075 -0.22389926 0.25295284 -0.19679436
0.29459924 -0.31467184 -0.12378405 -0.11796939 0.06465054 0.11263073 0.6183053 0.28704584
0.09726384 0.30467305 -0.2694716 0.22470988 -0.39965466 0.4415678 -0.11300727 0.13034643
-0.25715926 0.46416554 -0.284401 -0.35830918 -0.26439738 0.14560784 -0.40788013 0.11129981
0.4265519 -0.13203906 -0.22341332 -0.09069347 -0.21318637 0.44424063 -0.0670255 -0.08175417
-0.36511388 0.017554512 -0.26780334 0.055532344 -0.15663156 -0.12824474 -0.022798786 -0.32066298
0.20150541 0.14009319 0.20300213 0.45346957 -0.31225628 0.10162687 -0.4941108 -0.2247974
0.2323022 0.120740525 -0.011860972 -0.285732 0.05999972 0.013933587 0.059925787 0.50542957
0.33047417 -0.18544799 -0.007705356 -0.6071252 0.17867357 -0.11730583 -0.2990922 0.12180106
-0.2671975 0.40229493 0.13402352 0.1552425 -0.25609964 0.03611754 -0.31632447 0.10509327
-0.08156731 0.17634267 -0.3376088 0.05507839 0.033277366 -0.31258008 -0.5325756 0.26392552
-0.15513851 -0.2500707 0.2532477 -0.42868316 0.39924386 0.087736234 -0.17294827 0.2065238
-0.2552833 0.15122114 0.49986959 -0.28482097 0.03898521 0.3371866 0.104685344 -0.17503045

conv2.fc_neigh.weight f4 [16, 16]
00000000: 32d2 e0be 6614 e9be b361 0a3f cb9d 89be
00000010: 35e2 a73e 570e a13e d9a5 a3be f2ec ea3e
00000020: 38f2 d1bd d383 d63e 362a ba3e 5285 c33e
00000030: 1b2d bdbe a6fc 06be 5f2a 283f 8491 0abf
00000040: bc62 933c 9699 2bbf abd6 57bf bbce 00be
00000050: 7b1e 91bd 54e9 c1be cfbc 833e 36c7 f63d
00000060: 94f5 a6be 7e22 a6be f249 ff3e 829b c13d
00000070: ead2 4fbf 8e29 f9be 5591 6c3e 5993 ca3d
00000080: 04fb 973e d6c4 9f3e 37e4 d43e 4805 02bf
00000090: b30c 5f3e 9f8a 1a3e 5aa0 09bf 9393 f4be
000000a0: 8e34 fbbd 0cca a6be f266 52be ed38 1d3f
000000b0: 1612 65bf a465 27bf 19d7 8e3e cd8f d43b
000000c0: 33d3 03bd 0279 643e d9dd 3cbd 1460 e83b
000000d0: a07f 00bc 3c3e 53be 6098 15be 752e ff3e
000000e0: df9a 05bf 0df5 b63e 40e0 933e 36f3 33bf
000000f0: ae69 e1bd 95cc dcbc dabc 88bd 3702 c3be
00000100: 40e2 9cbe 8281 123d 51bd fdbe 1fbb 8b3e
00000110: ae99 3cbb b15d 043f 1467 533b c8a2 d13d
00000120: e5fa 92be e7ec 523f 8cc5 33bf 4530 a73e
00000130: c581 86be fa4f 5fbe f241 5abe ed15 d5be
00000140: 85ee 26bf a889 0d3f 100b 763e 53cc f93e
00000150: c380 cebe 9a5e 60be e61c 453f f9fe 66be
00000160: c639 1dbe 1c31 9b3e ab4a c7be cec9 21be
00000170: a70f d3be 56df d43e 2cd1 98be 15ad 1cbe
00000180: 4c47 4cbe ecac b0be 08ff 08bf 525b 0bbf
00000190: eafc 673e cc39 9fbd ed69 8c3e fa0d c23e
000001a0: 7cfc f7bd 21f4 f6be 8833 40bf 5aa6 fcba
000001b0: 4758 773e 302e fabe 7357 f2be ba04 babe
000001c0: 5355 ab3e 8613 223e 050f a83d 27b9 01be
000001d0: ee8c d2bd 7749 0abe 75ef 473d 0372 be3e
000001e0: 590b e33e 40d3 e3be c425 13be 4b04 5ebc
000001f0: c53a 9fbd 3750 08bd 0487 db3e 2a1c ebbe
00000200: b808 b0be 17e6 98ba ba5a 86bd 7af5 da3e
00000210: 0106 15be c457 103f 7060 07bd 5492 f03d
00000220: e9cd cf3e 41b2 033f 494e 083f a914 f6be
00000230: 6dc2 e1bd b79f 82be efa6 91be 59da 993e
00000240: ab36 0cbf 3096 81be 585f ac3d 8c27 b3be
00000250: ce29 083f cbe4 2a3e a6c3 c0bd c14a c8be
00000260: 7c74 4dbc b73a 8a3b 79e1 a13e b537 f33d
00000270: fc5d d2be 0b8a 03bf 9e68 0b3e 19bb c53e
00000280: b6fe 053f 59ee 3cbf 8597 ba3e 04ed 803e
00000290: 7153 debd 9941 e83d 338a 293f 38c6 8b3e
000002a0: 6fa7 373b 7540 503f a6a5 e7bd b6dd ab3d
000002b0: c2de 1fbf a2ae b7bd 2a16 10be 7003 c43d
000002c0: 40fe f2be 1781 a53e 75a6 3dbf c3fe 813e
000002d0: 96f5 27bf 1719 4a3e 2fba 1d3f 6460 003f
000002e0: f8b1 873e ebdd 643e c4e3 bdbd 65c3 063f
000002f0: 1b83 2fbe f0e6 8dbd 8f9a fbbe 5099 a63e
00000300: 70ca 6d3e eb5e 1a3f 1b41 b73e be3e f9bb
00000310: 8790 ca3e 7c8c f9be 3381 a1bc 3ea1 073f
00000320: c349 5a3e 1586 b43e 6800 673e 4017 3d3e
00000330: a90a 223e ae4c b9be 6f83 89be 1ff1 dfbe
00000340: 099e bfbe 7c87 aebe f479 29bf b160 853d
00000350: 4903 e43e 441c 943c aab9 fd3d d3bb cebe
00000360: 7618 4a3f 5de8 83be 5140 9cbe 81dc c3be
00000370: c906 953d 5406 d0be b347 fcbe 4cc1 20be
00000380: a7eb a1be fa53 f43e 2bbd b53e 1be5 2b3e
00000390: ad95 39be 9a25 3d3e 1331 373e 27c0 84be
000003a0: 83e1 26bd 447c 913d 5cd4 08bf a22f 9b3e
000003b0: 4a95 f43d c26c dabe 045e 9fbd 3ddf 023f
000003c0: 03e6 18bf 54bf 78be d4b7 3abf 14cf 58bf
000003d0: acd9 393f 5166 3e3e 24a1 793e a02b 00bf
000003e0: 49ce a63c 3b3b ebbe 2917 0e3f 6d26 bc3e
000003f0: 1da2 5abe 46a5 493f 9ca5 8fbd 43ce 133f
-0.43910366 -0.45523375 0.5405533 -0.268782 0.3278977 0.31456253 -0.3196247 0.458839
-0.10251278 0.4189745 0.3636033 0.38187653 -0.36948475 -0.13182315 0.65689653 -0.5412829
0.017991416 -0.6703123 -0.8431193 -0.12578861 -0.07085892 -0.37873328 0.25729987 0.12049715
-0.32609236 -0.3244819 0.49861103 0.09453489 -0.81181204 -0.48664516 0.23102315 0.098913856
0.29683697 0.3120486 0.41580364 -0.5078931 0.21782188 0.15091942 -0.537603 -0.4776884
-0.122658834 -0.32576025 -0.20547083 0.61414987 -0.8948072 -0.65389466 0.2789848 0.006486869
-0.032183837 0.22311786 -0.046110008 0.0070915315 -0.007842928 -0.2062921 -0.14608908 0.4984013
-0.5218944 0.35733834 0.28882027 -0.70292985 -0.11006485 -0.026953021 -0.066766456 -0.38087627
-0.30641365 0.03576804 -0.495585 0.272912 -0.0028778124 0.5170546 0.0032257484 0.10236126
-0.28707042 0.82392734 -0.7022331 0.32654014 -0.2627088 -0.21807852 -0.21314219 -0.4161829
-0.652077 0.5528817 0.24027658 0.487887 -0.40332612 -0.21911088 0.7699722 -0.22558202
-0.1535407 0.30310905 -0.38924155 -0.15799639 -0.4122288 0.41576642 -0.29847085 -0.153004
-0.19949073 -0.3450693 -0.53514147 -0.5443622 0.22655073 -0.07774696 0.27424565 0.37901288
-0.121087044 -0.4823313 -0.7507863 -0.0019275651 0.24154769 -0.48863363 -0.47332343 -0.3633173
0.33463535 0.1582776 0.0820599 -0.12668286 -0.102807865 -0.13504587 0.04881235 0.3719636
0.44344595 -0.44497108 -0.14369875 -0.013550828 -0.07774881 -0.033279624 0.42876446 -0.45919925
-0.34381652 -0.0011665252 -0.065602735 0.4276541 -0.14553072 0.5638392 -0.033050954 0.1174666
0.40586784 0.5144387 0.53244454 -0.48062637 -0.11023412 -0.25512478 -0.28447673 0.300494
-0.54770917 -0.25309896 0.08416623 -0.3499111 0.5318879 0.1668884 -0.09412317 -0.39119533
-0.012539979 0.004218425 0.31617334 0.1187586 -0.4108733 -0.5138251 0.13614127 0.38619307
0.52341783 -0.7380119 0.36443725 0.2518083 -0.10855759 0.11340637 0.662265 0.27299666
0.0028023382 0.81348354 -0.11310892 0.083918974 -0.62449276 -0.089688554 -0.14070955 0.09570968
-0.47459602 0.3232505 -0.7408212 0.2538968 -0.6560911 0.19736134 0.6161222 0.5014708
0.26502967 0.2235028 -0.092719585 0.526419 -0.17139857 -0.069288135 -0.49141356 0.32538843
0.23221755 0.60301083 0.3579186 -0.0076063564 0.3956339 -0.48739994 -0.019714927 0.5298041
0.213172 0.35258546 0.22558749 0.184659 0.15824379 -0.36191314 -0.26858088 -0.43738648
-0.3742526 -0.3408774 -0.6620171 0.06512583 0.44533756 0.018079884 0.12388928 -0.40377674
0.78943574 -0.25763217 -0.3051782 -0.3825417 0.07276685 -0.40629828 -0.49273452 -0.15698737
-0.316251 0.4772032 0.35495886 0.16786616 -0.18123503 0.18471375 0.17889814 -0.2592785
-0.04074241 0.0710378 -0.53449035 0.30309778 0.11942537 -0.426611 -0.07781604 0.51121885
-0.5972597 -0.24291736 -0.7293675 -0.84690976 0.72597766 0.18593718 0.24377877 -0.50066566
0.020362036 -0.45943627 0.5550409 0.36748067 -0.21350904 0.7876781 -0.07014009 0.57736605

conv3.bias f4 [16]
00000000: c854 22bc 0a48 b8bc d019 3fbb 4f55 d2ba
00000010: 2d7c eebb 725a 253c e56b 0fbc ca3b c93b
00000020: 14c7 b03c c776 30b8 01c5 a2bb 2e06 17bb
00000030: f754 d2bb 7f38 4dba a858 1b3c 63de 8e3b
-0.009907909 -0.022495288 -0.0029159673 -0.0016047152 -0.0072779865 0.010092365 -0.008753751 0.0061411606
0.021579303 -4.207229e-05 -0.0049673324 -0.0023044455 -0.00641882 -0.0007828548 0.0094815865 0.0043600067

conv3.fc_self.weight f4 [16, 16]
00000000: 0aaf 013f 6efa c83e 34bc f63b 52b3 f4be
00000010: 1da5 a5be db6c e23d f597 bebe f347 af3e
00000020: 539f e5be b023 053f 031f 73be d72b 1b3f
00000030: 9742 f03d 050e 82be 4280 3fbe 2aca ef3d
00000040: 6766 33be 468a 1a3d a1b6 08bc 14dc e33c
00000050: 941a 93bd 352b 9dbe 94ce 3dbe 9405 a43e
00000060: f6b7 753c 3dc2 d8bd cfe8 a1be 46c2 f0bd
00000070: 90d8 85be a6b4 dbbb 355e 703d 805c 69be
00000080: 12cd 803e bcac bcbe 99a0 a3be d626 e83e
00000090: 212a d6bd 375b 82be bcfa 023e a8d3 f43d
000000a0: 935a 723e dd19 95bc 508f 933d 0254 3abe
000000b0: 1de0 af3e 9695 a23e 1d88 443e 823a a6bc
000000c0: 46e2 a4be 7d45 bdbe ae3d 9e3e 21fb f0be
000000d0: b955 073f 7de4 b2be 6908 64be a0fa d2be
000000e0: 2b9c c6be 4196 aa3e 34c3 a33e 41da e53e
000000f0: e2d5 803e 0413 9ebd a72d 8dbd ef85 f63e
00000100: bf6d c5be 7dc6 00be c23f 633c ed57 953e
00000110: 4c56 ff3d 7648 933e 9417 49be fb38 613d
00000120: e53e ddbe d757 093e 1f46 a33d 5103 bdbe
00000130: 4dab 07be 715b 953e d691 bb3e 3434 073f
00000140: a77b 8d3d 2c17 b83d 02ad cbbe 79cc a1be
00000150: 267a 563e dba9 d2bd 274e b33e 8733 a93d
00000160: 9f23 19be 9c6d bf3e c69f a8be 9261 ff3e
00000170: a3b8 8cbe 18bf d1be 626b 9b3e 40b8 e7be
00000180: 0ab6 99bd 416f 873e 8b51 913c f585 a7bd
00000190: 60c3 edbd 6453 0e3d 8e6d c3bd 9d67 5e3e
000001a0: 0132 233e f689 123d de69 a73e 9bb5 a43e
000001b0: 6d3c 40be 7799 0b3e 8bb1 11be 66dc 8a3d
000001c0: 89e7 1a3f 75d7 9ebe 3ac6 8cbe 69a8 c23e
000001d0: aa3d 96be 1b69 213e 831e 713e 1bf8 dd3d
000001e0: f79d c5be 1e40 2c3e 6500 54be 3315 e23e
000001f0: b641 fcbe 5590 74be 80f8 e73d 7ba6 37be
00000200: 8bb7 e03e 86bd 50be ca35 793e 4a65 873e
00000210: 82aa 63be 8540 5d3e 49d1 773e 173e 1f3e
00000220: 12e0 24be ccfc 8d3e da10 f9bd 5488 db3d
00000230: 0d4e bbbe 8e42 9abd dcbe 8bbe edf9 983d
00000240: 91b6 77bd aaec aabc c12a 133e 958b 243e
00000250: b93b 913e 42a5 c23e c543 7a3e 9ba9 dbbd
00000260: eeb1 93be e2e5 d1be 1e8c 58be c010 89be
00000270: b8ea 193e 722c 47be f291 47bd 5721 7b3e
00000280: c55a ad3d 5193 2e3d 7cba b1be 3628 b63d
00000290: 9214 163e d153 eb3e 8167 9dbe 866b abbc
000002a0: e4a4 3ebe f133 5a3e 7b63 b7be be44 8bbe
000002b0: 97d9 92bd 2daa b33e 62f6 673e a105 da3d
000002c0: 70b9 35be 7892 973d a65e abbb bb73 343e
000002d0: 708c 0ebf 1887 5b3e 45c3 7c3e f705 acbe
000002e0: fa59 8fbe 11de e9bd b389 343e c68a d03e
000002f0: 3284 b43e 24be c93e d33e a63e 6bea 45be
00000300: a749 26be bb8f 75be e575 c3bc 98d2 f9be
00000310: 6bbd 293e cca7 853d 2fd7 9f3e 9868 593c
00000320: d460 103d 7cee 263e b665 5e3d 9f50 843e
00000330: 5b2a ae3c e19e f53b 8b4f c4be a907 623e
00000340: e2d1 b23e 5f2d 853e 7c94 0f3c 39dc 58bd
00000350: 7b6e b93c 5289 663e 3c2c 2abe 7c4b 4ebe
00000360: b8b0 5dbe 9a39 4f3e d0ab 1a3d f168 7dbe
00000370: 7749 293e 1bec 243f 2f8d 07bd 9709 62be
00000380: 37ae c2be f51a edbc b49a e8bd 3438 ffbe
00000390: 6e2b 993e 6f53 883e b14f 313d 3d2b a7bc
000003a0: a991 89be 665b ff3d ccdf b93e ba99 01bd
000003b0: 7162 54be c64b 96be d1b1 e13e c5a2 96be
000003c0: 8ff4 3abe 3437 9cbc 8997 34bd a5c1 0abe
000003d0: 17db b23e 058d bb3e 7f56 1abe 0632 fc3d
000003e0: 5757 6ebe 22b2 6f3e afad babe 6b0b 95be
000003f0: 7edc 103e 59f6 253f 1c3d dcbd bfa7 cdbe
0.50657713 0.39253563 0.00752976 -0.4779306 -0.32352534 0.11055919 -0.3722531 0.3423458
-0.44848117 0.5200758 -0.23742299 0.6061377 0.11731451 -0.2540132 -0.1870127 0.117084816
-0.17519532 0.037729524 -0.008344323 0.027814902 -0.07182804 -0.30697027 -0.18535835 0.32035506
0.014997473 -0.10583923 -0.3162293 -0.11755805 -0.26141787 -0.0067048846 0.058683593 -0.22789192
0.25156456 -0.36850536 -0.31958464 0.4534213 -0.10457254 -0.25460216 0.1279096 0.11954433
0.23667364 -0.01820081 0.07205069 -0.18196109 0.34350672 0.3175475 0.19192548 -0.02029157
-0.32203883 -0.36967078 0.30906433 -0.47066596 0.5286518 -0.34939948 -0.22268833 -0.41206837
-0.38791022 0.3331776 0.31984866 0.44893077 0.2516318 -0.07718471 -0.06893473 0.48149058
-0.38560292 -0.12575717 0.0138701815 0.29168645 0.12467632 0.2876622 -0.196379 0.05498598
-0.43212047 0.13412414 0.07972359 -0.36916593 -0.1324894 0.29171327 0.36634701 0.5281403
0.069083504 0.08988795 -0.39780432 -0.31601313 0.20945033 -0.102863036 0.35020563 0.08261781
-0.14954995 0.37388313 -0.32934397 0.49879128 -0.27484617 -0.40966105 0.30355364 -0.4525776
-0.07505424 0.26452067 0.017739078 -0.08179847 -0.116095304 0.034747496 -0.0954238 0.21719213
0.15937044 0.0357761 0.32697958 0.32169804 -0.1877305 0.13632761 -0.14227884 0.06780319
0.60509545 -0.31023756 -0.27494985 0.38019112 -0.2934392 0.15762751 0.23546796 0.10838338
-0.3859708 0.16821334 -0.20703276 0.441568 -0.49268883 -0.23883183 0.113266945 -0.17934601
0.43890032 -0.20384797 0.24336925 0.26444465 -0.22233012 0.21606643 0.2420093 0.15551029
-0.16101101 0.2773193 -0.12161417 0.10719362 -0.36582986 -0.075322255 -0.27294052 0.074695446
-0.060476843 -0.020864803 0.14371778 0.16068871 0.28365877 0.38016707 0.24439915 -0.10725709
-0.28846687 -0.409957 -0.211472 -0.26770592 0.15030944 -0.19450548 -0.04872317 0.24524437
0.084645785 0.04262096 -0.3471259 0.088943884 0.14656284 0.45962384 -0.3074303 -0.020925295
-0.18617588 0.21308877 -0.35818085 -0.27200884 -0.07170408 0.3509077 0.22652581 0.10645605
-0.1774652 0.074009836 -0.005229789 0.17622273 -0.5568304 0.21438253 0.24683864 -0.335983
-0.27998334 -0.11419309 0.17630653 0.40730876 0.35257107 0.39402878 0.32469806 -0.19327705
-0.16239034 -0.2398061 -0.023859927 -0.48793483 0.16576163 0.06526145 0.3121886 0.013269566
0.035248592 0.16301912 0.054296218 0.2584276 0.021260431 0.0074957465 -0.38341936 0.22073235
0.34925753 0.26011178 0.008763429 -0.052944396 0.022635689 0.22513321 -0.16618437 -0.20145983
-0.21649444 0.20236817 0.03776151 -0.24747063 0.16531931 0.6442277 -0.033093628 -0.2207397
-0.3802354 -0.028943518 -0.11357632 -0.49847567 0.29915947 0.26626155 0.04328889 -0.02040636
-0.26868942 0.12468605 0.36303556 -0.031640746 -0.20740677 -0.29354686 0.44080976 -0.29421058
-0.18257354 -0.019069292 -0.044089828 -0.13550432 0.34932777 0.36631027 -0.15072058 0.12314229
-0.23275505 0.23407796 -0.36460635 -0.29110274 0.14146611 0.6482902 -0.10753843 -0.40167043

conv3.fc_neigh.weight f4 [16, 16]
00000000: 8e7d 80bd 1934 e83e 1ec4 26be 459d 51be
00000010: 9017 89be 0a5e e7be 5fc4 14be 630b ddbe
00000020: cdef fc3d 5c4c 0e3e 0d80 9ebd 2e72 f03e
00000030: b348 483e 8b85 e53d 0b0e 393f 6d8c f1be
00000040: 1651 0f3f 270f ff3e 1ab8 bb3d 099b b4bc
00000050: 4f56 08bf 4169 7fbe 1afd 8ebe 2193 0b3f
00000060: 32fe b73d 3b62 5a3d 2d8b a1be 20a2 0ebf
00000070: 4a10 2c3e 9b47 73be 694b 2a3e 7744 0a3e
00000080: 6d10 e93e 8932 8a3e 5acf aabd d620 a63e
00000090: a01b 663e cd54 8e3e ad49 b2be b7e5 41be
000000a0: a257 2abd 8d62 ad3d be37 64be 19e2 debe
000000b0: 2304 2a3f 6600 153e 6c76 783e 22fc 4bbe
000000c0: 4e50 f93d 5c00 b13e 9036 d33e f097 e63e
000000d0: c100 c93e 9b77 84be da8e 0dbe 1b9d 04bf
000000e0: 31e0 933e f221 a7be aea4 e7be da6a 0fbe
000000f0: 55d6 693e 24bd cb3d f641 9f3e 09bb 4d3f
00000100: be31 de3e 6406 ad3e 369b 26bf 7ee4 e6be
00000110: ce1f 8abc 1941 91be 67e4 373e 3814 acbe
00000120: 147e 34be 44fb 3f3e 6fa2 8e3e 5c9f 15bf
00000130: c47b d73e 1880 72be 8432 bd3e ff70 bd3e
00000140: d7af 5d3e ca6a f03e 97dd 00bf 4175 df3e
00000150: ab74 d3bd d7f7 203d 77b2 a8bd dc6c d0be
00000160: 17f6 923e a30a 5abd 87ec 1bbe 9e47 033c
00000170: d30d a2bd 4683 053f 5ef1 d93d e7aa 21be
00000180: 1a78 103f 8dc6 083f 6a43 babe 14cd 973e
00000190: 69ab 9fbe c74c 8c3e 34e5 82be 7172 003f
000001a0: c65c e33e bfaa a53e 1cbf f7bd 2409 383e
000001b0: c116 d2be 01d2 a63e 8691 123e 3d0b 543e
000001c0: a3e1 f23e 23cc e8be 528a bebd 9cf0 32be
000001d0: 5a38 c83e d014 85bd ce42 aabe 6623 70be
000001e0: 77ec 163e bcc7 90bd 11b5 343e 133b 67bc
000001f0: 9b7c c7bd e1f4 eebe 9f48 a0be 491d 283e
00000200: 41c1 2c3e 3731 a63e 04cc 1f3e 6840 c83e
00000210: 5594 e43e 358a d93e 07d7 423e 09a2 98be
00000220: a35e 6cbe 2790 ca3e dc1e c8be 6428 2ebe
00000230: 1624 e7be d92f 143e 35db 943e 3244 0ebf
00000240: 0530 d53d 929c c8be 59c2 c0bd ffdb b43d
00000250: ac29 babe 32f6 5bbe 5b97 b23e 1f31 38be
00000260: 99ca 45bc 1788 03bf 31f5 96be 3780 513e
00000270: 290e b83e 0d41 d93d 2476 eebe df5c cf3d
00000280: d59a 70be 6a78 65bd 0c31 8dbe 8e35 c3bd
00000290: 98b3 8dbe d706 7c3e b263 1cbe ac95 d93e
000002a0: 30e0 d73e a1af 7bbe bd64 b7be dd66 16bf
000002b0: dbc9 03bf 35b4 15be 29fe 193f c7d9 bc3d
000002c0: b94d 893e e219 733e a6f8 b93d cb92 993e
000002d0: b2f6 17bf 6682 093f 679c 6f3e 2ab3 f3be
000002e0: b30c 4abe 06ed 1cbe aae0 253e bbaf 1e3e
000002f0: ce3f 4f3e 6e1c 26be 3c1a c93d ccb2 f43e
00000300: 0ca4 e93e f53d 62be 2e67 a63d e8f6 8dbe
00000310: 7262 e7be bfdc 9dbd dc18 453f e4f9 883e
00000320: a537 6bbe 9b31 d33d 1d91 febe 8ccf df3e
00000330: 41bb eebe 2993 c0be ae65 3c3e 952f 373e
00000340: 302d ae3e 5b80 1cbf f361 0abd f88a debe
00000350: b6a9 903d dc4e b8be f6ab d63e 03e3 d43e
00000360: 0174 833e 6551 c33e ec7b 163f 9933 50be
00000370: e0df 8ebe f962 453e 593f 063f 8bbc 403d
00000380: ebc2 ecbd cacf c6bc acf2 033f d1c8 ca3d
00000390: 2d55 05bf 6b3a ae3e 84e4 8dbe 6fd0 2f3e
000003a0: dd02 90be 3bd2 aebe eef6 92bd 417d 053e
000003b0: ff20 5a3d cbcd bd3d 10a8 dabe d882 1f3e
000003c0: 9837 c23e b46b 13bf ba59 043d f441 4c3e
000003d0: d523 85be 6552 f93e cf7e c83e d1d1 f33e
000003e0: 69c1 50bd 81e1 a2bd 706c 823e d6bf c8bd
000003f0: f1db b83e 4ef7 a23e f562 ae3b b8d1 1f3f
-0.06273948 0.45352247 -0.1628575 -0.2047015 -0.2677579 -0.45188934 -0.14528035 -0.4317275
0.12350426 0.13896316 -0.077392675 0.46962112 0.19558983 0.11207112 0.7228705 -0.4717745
0.559831 0.49816248 0.09165974 -0.022046583 -0.53256696 -0.24942495 -0.27927476 0.54521376
0.08984031 0.053316336 -0.31551495 -0.55716133 0.16803089 -0.23757784 0.16630329 0.1350268
0.45520344 0.2699168 -0.083403304 0.32446927 0.22471476 0.27799073 -0.34821835 -0.18935286
-0.04158748 0.08466063 -0.22286889 -0.43531874 0.6641256 0.14550933 0.24263924 -0.199204
0.1217352 0.34570587 0.41252565 0.45037794 0.39258388 -0.25872502 -0.13824025 -0.51802224
0.28881982 -0.32643086 -0.45242828 -0.14005604 0.22835667 0.09948185 0.31105012 0.8036352
0.43397325 0.33793938 -0.65080583 -0.450962 -0.016860869 -0.28369978 0.17958222 -0.33609176
-0.1762622 0.18748194 0.27858302 -0.5844629 0.42086613 -0.23681676 0.36952603 0.37000272
0.21649109 0.46956474 -0.5033812 0.43644145 -0.10324987 0.03929886 -0.082371645 -0.40708053
0.28703377 -0.0532328 -0.15226947 0.00801268 -0.07912793 0.5215343 0.1064174 -0.1578785
0.5643326 0.53427964 -0.36379558 0.2964865 -0.31185463 0.27402326 -0.25565493 0.50174624
0.44406718 0.3235683 -0.12096998 0.17972237 -0.41032985 0.32582095 0.14313325 0.20707412
0.47437772 -0.45468244 -0.09303726 -0.17474598 0.39105493 -0.0649811 -0.33254093 -0.23451003
0.14738642 -0.07069346 0.17647196 -0.0141132055 -0.097405635 -0.46671203 -0.31305405 0.16417421
0.16870596 0.32459423 0.1560517 0.39111638 0.44644418 0.42488256 0.19027339 -0.29811123
-0.23082976 0.39563105 -0.39086044 -0.17007595 -0.4514472 0.14471377 0.29073492 -0.5557281
0.104095496 -0.39181954 -0.09412069 0.088310234 -0.36359918 -0.21480635 0.348811 -0.17987488
-0.012072229 -0.5137953 -0.2948394 0.20459066 0.35948303 0.106081106 -0.4657451 0.10125136
-0.23496564 -0.05602304 -0.27576482 -0.09531699 -0.27676082 0.24611984 -0.15272406 0.42497003
0.4216323 -0.24578716 -0.35819045 -0.58750707 -0.5147988 -0.14619525 0.6015344 0.09221225
0.2681711 0.23740342 0.09080629 0.29994807 -0.593608 0.537146 0.23399507 -0.4759763
-0.19731407 -0.15324792 0.16198984 0.15496723 0.20239183 -0.16221783 0.09819457 0.4779266
0.4563297 -0.22093947 0.08125149 -0.27727437 -0.45192295 -0.077081196 0.7699106 0.2675315
-0.22970445 0.10312196 -0.49720088 0.43713033 -0.46627238 -0.37612274 0.18398163 0.17889245
0.3401885 -0.61133355 -0.033784818 -0.434654 0.0706362 -0.35997665 0.4192807 0.41579446
0.2567444 0.38148037 0.5878284 -0.20332183 -0.27905178 0.19276036 0.5244041 0.04705481
-0.11560615 -0.024269003 0.5154216 0.09901584 -0.5208309 0.34028944 -0.27713406 0.17169355
-0.28127185 -0.34144768 -0.07176004 0.13036062 0.053254124 0.092677675 -0.42706347 0.15577257
0.3793304 -0.57586217 0.032312132 0.19947034 -0.260039 0.48695675 0.39159247 0.47621015
-0.0509657 -0.07953168 0.25473356 -0.09802215 0.36105302 0.31829304 0.005321855 0.6242938
